tb_logs/ConvNet_1_0_2_bach/version_3/checkpoints/epoch=17.ckpt (torch_old, 695676 bytes, 24 tensors)

momentum_buffer f4 [10, 5, 4]
000000 00 61 fa ba 48 16 08 3c c0 b8 88 be fb 70 b1 bc
       -0.0019102395 0.0083060935 -0.26703453 -0.021660319
000010 76 fe b6 3b 00 00 47 38 bb 1a dc 3b a4 37 51 3c
       0.0055845333 4.7445297e-05 0.0067170537 0.012769613
000020 38 21 17 ba c0 ac ac 38 d2 04 b0 3b c2 5e 0b 3b
       -0.0005765143 8.233776e-05 0.0053716684 0.0021266197
000030 c2 5e 0b 3b c2 5e 0b 3b c2 5e 0b 3b c2 5e 0b 3b
       0.0021266197 0.0021266197 0.0021266197 0.0021266197
000040 c2 5e 0b 3b c2 5e 0b 3b c2 5e 0b 3b c2 5e 0b 3b
       0.0021266197 0.0021266197 0.0021266197 0.0021266197
000050 08 09 b3 3d 62 2c a1 bd 57 84 18 3e e8 c1 45 be
       0.08741957 -0.078697935 0.14894234 -0.1931225
000060 56 4f 14 3c fe 27 f8 3b 84 27 b5 bc 4b 63 9a 3b
       0.009052118 0.007573127 -0.02211357 0.0047115437
000070 00 15 3b 38 ca d3 cd bb bb 8b ff 3b c6 b2 aa 3c
       4.4603832e-05 -0.0062813507 0.0077986396 0.020837199
000080 ac 76 06 bb ac 76 06 bb ac 76 06 bb ac 76 06 bb
       -0.0020517511 -0.0020517511 -0.0020517511 -0.0020517511
000090 ac 76 06 bb ac 76 06 bb ac 76 06 bb ac 76 06 bb
       -0.0020517511 -0.0020517511 -0.0020517511 -0.0020517511
0000a0 88 19 46 3c e0 6a 99 bc 74 12 c4 3c c0 81 a5 38
       0.012091048 -0.01872772 0.02393458 7.891981e-05
0000b0 da e1 2e bb c0 bc aa ba f6 d2 57 ba 6a 53 99 3b
       -0.002668491 -0.0013026223 -0.0008233035 0.004679133
0000c0 61 de 91 ba e8 9e 67 3a 22 cd ad bb 11 64 09 3b
       -0.0011128896 0.00088356296 -0.0053039948 0.0020964185
0000d0 fa 36 7b ba fa 36 7b ba fa 36 7b ba fa 36 7b ba
       -0.0009583082 -0.0009583082 -0.0009583082 -0.0009583082
0000e0 fa 36 7b ba fa 36 7b ba fa 36 7b ba fa 36 7b ba
       -0.0009583082 -0.0009583082 -0.0009583082 -0.0009583082
0000f0 7a c2 8a bc 1e 44 47 3d 7b e6 88 3d 13 64 98 3d
       -0.016938437 0.048648946 0.06684586 0.07440963
000100 66 e4 86 3c 21 5f 97 3c a4 b9 93 bc d7 35 18 bb
       0.01646633 0.018477978 -0.018032856 -0.002322545
000110 57 5b 23 bb 1a 3d 9f bb 04 16 84 bb 09 5d 18 3c
       -0.002492627 -0.004859579 -0.004030945 0.009299525
000120 1a 3d 9f bb 1a 3d 9f bb 1a 3d 9f bb 1a 3d 9f bb
       -0.004859579 -0.004859579 -0.004859579 -0.004859579
000130 1a 3d 9f bb 1a 3d 9f bb 1a 3d 9f bb 1a 3d 9f bb
       -0.004859579 -0.004859579 -0.004859579 -0.004859579
000140 76 8c 84 3e ad db 2d bd 17 91 81 3e e6 fc 00 be
       0.25888413 -0.042445827 0.25306007 -0.12596473
000150 7d 6f 09 bc 82 d9 2e bb a4 42 13 bc 23 41 3c bc
       -0.008388397 -0.0026679938 -0.008988056 -0.011490139
000160 b1 0c fb ba a4 16 c3 bb 63 3e b2 bb bc 76 26 bb
       -0.0019153563 -0.0059536267 -0.005439566 -0.002540036
000170 63 3e b2 bb 63 3e b2 bb 63 3e b2 bb 63 3e b2 bb
       -0.005439566 -0.005439566 -0.005439566 -0.005439566
000180 63 3e b2 bb 63 3e b2 bb 63 3e b2 bb 63 3e b2 bb
       -0.005439566 -0.005439566 -0.005439566 -0.005439566
000190 bc 5d 56 bd da 32 98 3d fa 64 91 3d 78 ce d4 bb
       -0.052335486 0.07431574 0.07099338 -0.0064943396
0001a0 d8 6a 2a bc b8 a9 60 bc 02 fc 08 bb 7f 90 6e bc
       -0.01040145 -0.013712339 -0.0020902161 -0.014560818
0001b0 8c e3 27 bc 10 4d 41 bb f6 ec 33 bb 74 0a 5c bc
       -0.0102471225 -0.0029495396 -0.0027454472 -0.013430227
0001c0 80 f2 f5 bb 80 f2 f5 bb 80 f2 f5 bb 80 f2 f5 bb
       -0.007505715 -0.007505715 -0.007505715 -0.007505715
0001d0 80 f2 f5 bb 80 f2 f5 bb 80 f2 f5 bb 80 f2 f5 bb
       -0.007505715 -0.007505715 -0.007505715 -0.007505715
0001e0 d4 f6 c3 ba 71 7d 15 3d ba 6b 3a 3b d7 fa ed 3c
       -0.001495088 0.036496583 0.0028445558 0.029050274
0001f0 8f 68 a7 ba ba 67 64 3a 32 c6 89 3a c2 98 29 ba
       -0.001277225 0.0008712966 0.0010511337 -0.0006469601
000200 8f 68 a7 ba 8f 68 a7 ba 00 be f1 b8 bd 01 64 3b
       -0.001277225 -0.001277225 -0.00011527166 0.0034791075
000210 8f 68 a7 ba 8f 68 a7 ba 8f 68 a7 ba 8f 68 a7 ba
       -0.001277225 -0.001277225 -0.001277225 -0.001277225
000220 8f 68 a7 ba 8f 68 a7 ba 8f 68 a7 ba 8f 68 a7 ba
       -0.001277225 -0.001277225 -0.001277225 -0.001277225
000230 b5 65 b7 bb de 34 99 bc e1 dd 59 bd 7a 91 30 bc
       -0.005596841 -0.018701967 -0.053190116 -0.010776872
000240 34 d1 d2 3a db 7e 26 bc d8 c3 c3 bb ac d5 58 bb
       0.0016084076 -0.010162081 -0.005974274 -0.0033086343
000250 15 7f 56 3b bc 94 81 3a a0 30 cf 3a 19 52 1d 3b
       0.0032729555 0.0009886245 0.0015807338 0.0024005233
000260 15 7f 56 3b 15 7f 56 3b 15 7f 56 3b 15 7f 56 3b
       0.0032729555 0.0032729555 0.0032729555 0.0032729555
000270 15 7f 56 3b 15 7f 56 3b 15 7f 56 3b 15 7f 56 3b
       0.0032729555 0.0032729555 0.0032729555 0.0032729555
000280 f6 ba fc 3d 67 c2 8e bc d5 0e cc 3d 6e ff 47 bd
       0.123403475 -0.017426683 0.099637665 -0.04882758
000290 c9 c5 a4 bc a6 4a c7 ba ac 44 d4 3b 5e 68 f4 ba
       -0.020113843 -0.0015204742 0.006477913 -0.0018646827
0002a0 70 74 c1 3a fa 53 a4 3a 52 8f be bb 2c 0a f9 bb
       0.0014759433 0.0012537234 -0.005815425 -0.0076000895
0002b0 6c 04 50 3a 6c 04 50 3a 6c 04 50 3a 6c 04 50 3a
       0.0007935229 0.0007935229 0.0007935229 0.0007935229
0002c0 6c 04 50 3a 6c 04 50 3a 6c 04 50 3a 6c 04 50 3a
       0.0007935229 0.0007935229 0.0007935229 0.0007935229
0002d0 7a 8e 71 3b d8 e8 02 3b 44 98 1f 3c a2 11 4c 3d
       0.0036858604 0.0019975211 0.009740893 0.049821503
0002e0 51 b5 b5 3b cf 4c 96 3b c0 56 c0 3b 1b 8e 0b bb
       0.0055452962 0.004586793 0.0058697164 -0.0021294418
0002f0 51 b5 b5 3b 51 b5 b5 3b 51 b5 b5 3b 2c 4a ff 3b
       0.0055452962 0.0055452962 0.0055452962 0.0077908244
000300 51 b5 b5 3b 51 b5 b5 3b 51 b5 b5 3b 51 b5 b5 3b
       0.0055452962 0.0055452962 0.0055452962 0.0055452962
000310 51 b5 b5 3b 51 b5 b5 3b 51 b5 b5 3b 51 b5 b5 3b
       0.0055452962 0.0055452962 0.0055452962 0.0055452962

momentum_buffer f4 [10]
000000 ae 86 1c bc 1a 04 17 3c c8 11 8d 3b 2e d7 b2 3c
       -0.0095535945 0.0092172865 0.004305098 0.021831121
000010 40 2f c8 3c 72 1c 0a 3d 0e 04 bc 3b 68 e6 70 bc
       0.024436593 0.033718534 0.005737788 -0.014703371
000020 e0 9e 69 bb 53 13 cc bc
       -0.0035647675 -0.024911558

momentum_buffer f4 [64, 610]
000000 38 1b 56 bb a0 ac 81 3a 2b 98 81 bb 7a a7 a8 3a
       -0.0032670032 0.0009893365 -0.0039549074 0.0012867295
000010 d3 2a 94 bb 29 fc 1e 3b 77 44 84 bb 68 bd c0 3a
       -0.0045217066 0.0024259186 -0.004036482 0.0014704885
000020 a9 4c 31 bb 6c e3 78 3a c4 d5 15 bb 5c 7d c7 3a
       -0.002705375 0.0009494338 -0.002286301 0.0015219855
000030 43 01 6d bb 97 5f 08 3b 16 12 55 bb da a2 aa 3a
       -0.0036164082 0.002080893 -0.0032512 0.0013018504
000040 ee 4c c6 ba c6 6f df 39 1f b1 6f bb 30 31 cf 39
       -0.0015129128 0.00042617152 -0.0036574078 0.00039518764
000050 cc 7a 74 bb 41 6d 50 3a 1e b5 77 bb da bc f3 3a
       -0.0037304638 0.00079508504 -0.0037797163 0.0018595711
000060 66 40 68 bb 10 c0 dc 3a 48 12 6b bb 24 8a d3 3a
       -0.0035438775 0.0016841907 -0.003586905 0.0016139192
000070 92 43 24 bb f4 66 cd 3a 87 32 02 bb ef 0d 90 3a
       -0.002506469 0.0015670941 -0.0019866542 0.0010990481
000080 28 0c 0e bb cf 33 55 3a e2 0e b0 bb a4 60 9f 39
       -0.0021674726 0.0008133025 -0.005372868 0.00030398846
000090 bf a7 97 bb 40 75 c5 b6 f0 8c 9e bb 63 b2 5f 39
       -0.004628151 -5.884707e-06 -0.0048385784 0.00021333391
0000a0 90 87 6c bb 0d 81 41 3a bf d8 1d bb 4c a3 bb 3a
       -0.0036091544 0.0007381596 -0.002408549 0.0014315634
0000b0 cc 48 b9 b9 05 14 31 3a 22 a6 f2 ba 2e 7b 55 b9
       -0.00035340188 0.00067549973 -0.0018512646 -0.00020359151
0000c0 12 ae 80 bb ea 39 c7 b8 8c 18 77 bb 88 f0 21 b9
       -0.003927001 -9.499847e-05 -0.003770384 -0.00015443761
0000d0 c4 ac 5a bb 45 34 e0 39 5a e5 a2 bb cd 3e 23 3a
       -0.0033367136 0.00042763553 -0.0049711885 0.00062273146
0000e0 2d e7 70 bb 9e 25 b2 3a 28 48 02 bb 53 50 0f 3b
       -0.0036758885 0.0013591533 -0.0019879434 0.0021867945
0000f0 f2 38 b2 39 96 9f 90 39 38 ae c1 bb d0 b1 bc 3a
       0.00033993233 0.0002758472 -0.005910661 0.0014396254
000100 74 00 f2 bb 45 c6 e5 3a a8 09 a8 bb 80 ce c4 38
       -0.007385308 0.0017530402 -0.0051281042 9.384472e-05
000110 98 27 68 bb c7 e1 b8 3a a2 78 11 bb 80 df 2a 3b
       -0.003542399 0.0014105373 -0.0022197147 0.0026073158
000120 85 1f e7 bb e5 f9 09 3b 5d 15 a8 ba 69 ff f9 39
       -0.007053318 0.002105349 -0.001282375 0.00047683276
000130 7e 32 70 bb 94 32 47 3a 01 df 6c bb 34 87 8d 3a
       -0.003665119 0.0007598784 -0.0036143663 0.001079774
000140 ba 3e c3 bb 79 5e b1 3a b6 f2 5c bb 59 03 ba 3a
       -0.0059584053 0.0013532183 -0.0033714003 0.0014191672
000150 52 f9 d4 bb 56 07 1e 3b 86 57 29 bb ac 24 df 3a
       -0.006499448 0.002411326 -0.0025839522 0.0017024479
000160 4c 40 85 bb bd 56 be 3a c2 44 e9 b9 38 ff 81 3a
       -0.0040665027 0.00145217 -0.00044492452 0.000991798
000170 c5 33 c2 bb 86 ee d1 39 74 ef f5 bb f0 d8 f6 ba
       -0.0059265816 0.000400413 -0.0075053517 -0.0018832963
000180 bf 6f 0b bc ba ab e7 ba 04 52 e8 bb 7f e7 ce ba
       -0.008510529 -0.001767508 -0.007089855 -0.0015785544
000190 20 c0 b4 bb b6 79 8d 3a 35 8e f0 ba 2c 0a c5 3a
       -0.005516067 0.0010793719 -0.0018352928 0.0015032939
0001a0 38 df 84 38 0a 5a e7 39 68 10 69 bb b8 41 0a ba
       6.335828e-05 0.00044126838 -0.0035562757 -0.0005274075
0001b0 c6 4c cf bb 7c 7e ad ba 6a 2a b3 bb a8 a7 0d bb
       -0.006326291 -0.0013236548 -0.0054677026 -0.0021614823
0001c0 48 a4 ed bb d0 85 0f ba 1e 28 a6 bb 22 3b 7c 3a
       -0.00725225 -0.00054749567 -0.0050707003 0.00096218486
0001d0 bd 65 90 bb 90 9a 30 3b d4 c2 96 3a 02 b3 be 3b
       -0.0044066594 0.0026947595 0.0011502155 0.0058196792
0001e0 1c e1 5a 3b cc 22 80 3b 74 cb 6d ba 23 a9 3d 3a
       0.0033398336 0.003910398 -0.00090711494 0.0007234981
0001f0 99 a2 d7 ba 5c 2d 43 3a ad 6b 62 ba 90 d2 7a 3a
       -0.0016451656 0.0007445419 -0.0008637261 0.00095681194
000200 9c 7c 12 bb b7 80 ce 3a fa 57 cb ba 36 be bd b8
       -0.0022352105 0.0015754913 -0.001551389 -9.047652e-05
000210 be 7c cc ba 03 e5 3c 3a 3e b9 15 3a b6 d7 72 3a
       -0.0015601141 0.0007205756 0.0005711502 0.0009263711
000220 28 b8 62 bb e4 2b aa 3a f4 a1 13 3a 82 76 bc 39
       -0.003459463 0.0012983051 0.0005631738 0.0003594645
000230 aa d8 21 bb 10 8b df 37 30 b9 c5 b8 0e 63 d0 39
       -0.0024695792 2.6648428e-05 -9.428186e-05 0.00039746653
000240 b0 1e 21 bb e2 67 ea 39 00 bb e4 37 10 cc 26 3a
       -0.0024584942 0.00044709357 2.7266797e-05 0.0006362805
000250 01 02 4c bb 6a 30 78 3a 88 0f c6 39 c6 db ec 39
       -0.0031129124 0.00094676635 0.00037777075 0.00045177172
000260 fd 12 2f bb 60 f9 2e 3a 66 47 33 3a 74 b5 3f 3a
       -0.0026714199 0.0006674733 0.00068389473 0.00073131104
000270 6e 50 15 bb d0 0f 29 3a 91 33 6b ba 82 96 69 38
       -0.0022783536 0.00064491946 -0.00089722226 5.56917e-05
000280 b4 e2 1e bb 94 47 50 b8 96 ee b1 ba 7c 3b 5a ba
       -0.0024244012 -4.9657727e-05 -0.0013575132 -0.0008324904
000290 08 0a 04 bb 10 78 5c 3a e7 03 21 ba 7e 39 ff 39
       -0.002014758 0.00084102247 -0.0006142244 0.00048680225
0002a0 da dc 18 3a 63 87 04 3a 32 ce a0 ba 42 63 db b9
       0.00058312493 0.00050555746 -0.0012268482 -0.00041844888
0002b0 0b f6 a9 ba b2 e8 8d 39 f0 17 7a b8 4a a5 82 38
       -0.0012967003 0.00027066987 -5.962694e-05 6.2296705e-05
0002c0 01 09 c8 ba 70 f2 1c 39 ef 8e f7 ba 6f c3 47 ba
       -0.0015261472 0.00014967634 -0.0018887202 -0.00076203694
0002d0 88 b9 43 bb 5a 39 a8 39 50 8d 7c 39 f8 cf a6 ba
       -0.0029865224 0.00032086187 0.00024085236 -0.0012726774
0002e0 ce a9 31 bb 44 56 ba b9 5f 27 53 bb 2e 37 b3 ba
       -0.0027109268 -0.00035540957 -0.0032219512 -0.0013673061
0002f0 23 58 a8 ba 91 91 86 ba d7 e5 d3 ba 60 ea 9a 37
       -0.001284365 -0.0010266771 -0.001616652 1.846737e-05
000300 74 fc c6 b9 c2 fb 88 3a bc 41 6c bb c8 80 b5 ba
       -0.00037953595 0.0010451006 -0.0036049923 -0.0013847584
000310 f2 90 e2 3a 6a b8 c1 39 a1 e0 3d bb 4a 4b 44 ba
       0.0017285629 0.00036949228 -0.0028973 -0.00074880256
000320 50 b1 96 ba 40 40 9f 37 95 af 3b bb 53 71 8b ba
       -0.0011496935 1.8984196e-05 -0.002863859 -0.0010638632
000330 b0 e4 8d b9 38 60 13 39 34 1c 5e bb 92 b2 81 ba
       -0.00027064 0.00014054857 -0.0033891322 -0.0009895137
000340 ea 8c 12 3a 5e e9 ee 39 62 11 1a bb ad 61 6d ba
       0.0005590456 0.0004556877 -0.0023508896 -0.00090553873
000350 1d 39 bc 3a 52 f2 82 3a ce 3b 8d bb bf cf 10 bb
       0.0014360283 0.000999043 -0.004310108 -0.0022096483
000360 08 6a 59 bb 28 89 48 bb e8 35 95 bb 5b 17 3d bb
       -0.0033174772 -0.003059933 -0.0045535453 -0.0028853032
000370 4e 4c 50 bb 94 20 23 bb 36 ce 19 bb 00 33 b2 b8
       -0.0031783762 -0.0024891244 -0.0023468859 -8.497201e-05
000380 5a 81 00 3a 2e 43 8d 39 c2 66 9b 39 f0 55 11 b7
       0.00049020874 0.00026943668 0.00029640464 -8.662682e-06
000390 48 c8 04 bb 45 62 be ba 62 68 70 bb 94 6b 4e bb
       -0.0020260978 -0.0014525136 -0.003668331 -0.0031497227
0003a0 7b ab 0c bb cc 4d 14 bb 1a d5 83 bb bb 56 dd ba
       -0.0021464515 -0.0022629378 -0.0040232064 -0.001688681
0003b0 24 8a 98 ba c8 0c 2d ba 15 ac 11 bb 21 e7 82 39
       -0.0011637849 -0.0006601331 -0.0022227813 0.00024967737
0003c0 01 01 28 3b 3a 21 86 3b 74 f7 76 3b 80 80 f1 3a
       0.0025635364 0.0040933164 0.0037684115 0.0018425137
0003d0 a8 69 02 3a a4 d4 5a bb a0 8b 8f 39 63 eb 62 bb
       0.00049748505 -0.0033390904 0.00027379114 -0.0034625165
0003e0 5d fe b7 3a be c0 29 bb 25 ef 76 39 64 3f 91 ba
       0.0014037598 -0.0025902237 0.00023549476 -0.0011081514
0003f0 80 0f d0 b7 64 a7 c9 ba d8 c4 54 3a 7d af 3c bb
       -2.480275e-05 -0.0015384969 0.000811649 -0.0028791123

momentum_buffer f4 [64]
000000 f4 77 17 b9 36 86 3b 3b 58 6c 96 bb dc 76 a1 bb
       -0.00014445168 0.0028613931 -0.0045905523 -0.004927499
000010 e2 e7 1e 3b c0 65 c3 b9 2e 83 3c bb da fe 03 3c
       0.00242471 -0.00037269108 -0.0028764713 0.008056367
000020 da 3f c1 3a 1c 48 97 bb b5 a8 8e 3b d4 65 c4 bb
       0.0014743761 -0.0046167504 0.0043536075 -0.005993584
000030 f7 2a 7f 3b 40 cc 25 3b 70 b9 db b8 4f 27 3e ba
       0.003893552 0.0025298744 -0.00010477274 -0.0007253782
000040 5b 23 e8 bb 68 d0 27 3b 91 f3 0f ba dc b2 de 3b
       -0.007084293 0.0025606398 -0.00054913113 0.006796224
000050 91 cd c5 ba 09 b1 89 bb 24 7d a3 3b 56 db 2d bb
       -0.0015091171 -0.0042020124 0.004989283 -0.002652844
000060 d8 28 c8 39 a7 f0 08 bc 6c d6 80 3b f2 de 46 bc
       0.00038177404 -0.008358157 0.003931811 -0.012138115
000070 64 74 b5 3b 82 86 3c 3b 4a bf 07 ba b1 82 e3 3a
       0.0055375565 0.0028766696 -0.00051783456 0.0017357675
000080 05 21 c8 bb a4 a7 1b bb be 0e 9e bb 82 af 89 3c
       -0.006107452 -0.0023751045 -0.0048235347 0.016807321
000090 58 df c3 ba 3c cd a7 3b 86 1a c3 3a b2 ff a5 bc
       -0.0014943881 0.0051209014 0.0014885224 -0.020263527
0000a0 ce 9b 02 bb 60 80 0e bb 7b 58 0f 3b 84 d7 6a 3b
       -0.0019929293 -0.0021743998 0.0021872807 0.0035834024
0000b0 78 45 e2 ba 44 8f 87 3b 58 a0 d6 38 a7 66 8f 3b
       -0.0017263135 0.0041369516 0.000102341815 0.004376251
0000c0 c6 24 09 bc 1c d2 50 3b ca c8 9c 3b 20 d4 68 b9
       -0.008370584 0.0031863516 0.004784678 -0.00022204267
0000d0 ec 5a 33 bb c6 8d 07 3b f6 5d ae 3a 15 89 ee b9
       -0.0027367426 0.0020683869 0.0013303149 -0.00045497032
0000e0 ae b8 08 3c 50 9b ee 3b 06 cc 9f ba d0 f3 fe 3a
       0.008344812 0.0072816983 -0.0012191541 0.0019451324
0000f0 40 d0 22 3a 00 bc 12 38 7d 9a 90 3a 00 00 00 00
       0.0006210841 3.49842e-05 0.0011032369 0.0

momentum_buffer f4 [10, 1, 4]
000000 f4 93 87 bb 6e 20 55 39 dd 66 2c 39 c0 75 ab bb
       -0.0041375104 0.00020325344 0.00016441518 -0.0052325428
000010 12 8e 0c bb b2 2b 1e bb 22 0f 15 bc a8 28 57 bb
       -0.0021446985 -0.002413493 -0.009097846 -0.003283063
000020 9c b9 9c bb bc fb 82 ba 33 45 1a bb 84 d8 16 ba
       -0.0047828685 -0.0009993236 -0.002353978 -0.0005754309
000030 57 27 2f bd 51 b6 02 bd 43 f1 1a bc d4 b9 12 bd
       -0.042762127 -0.03191215 -0.009456935 -0.03582175
000040 be b8 5a bc ca c2 5f bc 84 07 95 bc 8e 5f 27 bd
       -0.01334971 -0.013657281 -0.01819206 -0.040862612
000050 98 ae 28 bc a0 42 90 3c 1f 6d d2 bc c3 88 5f bc
       -0.010295533 0.017609894 -0.025686799 -0.013643446
000060 8e 7b 43 3b 8a f0 a0 ba 7f f4 7e bc b3 4b 47 3b
       0.0029828283 -0.0012278717 -0.015561222 0.003041011
000070 9d 1a 68 bd 58 03 16 bd 67 59 05 bd c6 16 64 bd
       -0.056666005 -0.036624283 -0.032555964 -0.05568578
000080 ae e5 c6 bb 94 70 57 3b 56 81 a4 bb 63 00 a6 bc
       -0.0060698604 0.0032873498 -0.005020301 -0.020263856
000090 2b d2 c9 3b 4a 1a 60 3b 96 f2 4c 3a c1 1c a1 3b
       0.006159087 0.0034195357 0.00078181305 0.004916758

momentum_buffer f4 [10]
000000 ec e0 03 bb f1 a3 87 bb e2 08 ab 3b e0 d1 c5 ba
       -0.0020123078 -0.0041394164 0.005219565 -0.0015092455
000010 40 08 8a bc ce 3a 0f bc 3f 63 b5 bb e0 4c ff b9
       -0.016849637 -0.0087420475 -0.0055355127 -0.00048694666
000020 84 f1 a4 bb e8 78 f4 3b
       -0.0050336737 0.007460702

momentum_buffer f4 [128, 300]
000000 56 66 3b 8d 00 00 00 00 00 00 00 00 33 5d 3f 32
       -5.7747006e-31 0.0 0.0 1.1138854e-08
000010 61 ed 81 37 00 00 00 00 18 91 29 36 00 00 00 00
       1.5488537e-05 0.0 2.5267418e-06 0.0
000020 00 00 00 00 c6 57 f7 b6 00 00 00 00 02 cd 7a 30
       0.0 -7.371392e-06 0.0 9.1240804e-10
000030 00 00 00 00 00 00 00 00 54 a8 2f b7 00 00 00 00
       0.0 0.0 -1.0470005e-05 0.0
000040 4f cf 41 b7 00 00 00 00 04 38 a2 b5 00 00 00 00
       -1.1551964e-05 0.0 -1.2086243e-06 0.0
000050 51 0d 98 2e 00 00 00 00 99 3c 80 b2 00 00 00 00
       6.914525e-11 0.0 -1.4928718e-08 0.0
000060 7d 21 8e b7 00 00 00 00 00 00 00 00 00 00 00 00
       -1.6943313e-05 0.0 0.0 0.0
000070 00 00 00 00 d7 f0 a8 25 0d be 04 39 ce 16 27 38
       0.0 2.9306554e-16 0.000126593 3.983714e-05
000080 99 aa 6b 35 75 6a 9d 39 92 ea 0a 39 08 17 a0 39
       8.7792574e-07 0.0003002469 0.0001324809 0.00030534738
000090 ee 42 37 38 db 60 53 39 63 dd a2 39 ba 4f bc 38
       4.3692933e-05 0.0002015861 0.00031063994 8.979389e-05
0000a0 a1 4c 98 38 d6 c8 a7 37 b9 88 60 39 27 e5 b4 39
       7.262198e-05 2.0001473e-05 0.00021413238 0.00034503007
0000b0 da e2 16 38 1d 50 6c 38 c4 4f 68 39 ca 54 62 39
       3.597406e-05 5.6341396e-05 0.00022154959 0.00021584626
0000c0 a9 ff 9f 37 02 36 7f 39 d5 1f 3a b8 77 ce a0 39
       1.9073328e-05 0.00024338815 -4.43755e-05 0.00030671406
0000d0 02 7b 8a 38 10 5c 08 39 31 cf 01 39 1e 34 8c 39
       6.603265e-05 0.00013004267 0.00012379583 0.0002674171
0000e0 1f e0 b5 38 5d 1e 4a 39 31 3c 84 39 0a 5b d6 38
       8.6724984e-05 0.00019275532 0.00025221848 0.000102212725
0000f0 a2 1e 2b b8 33 7a f9 36 11 70 44 30 4c 27 92 38
       -4.0798106e-05 7.435004e-06 7.146364e-10 6.969142e-05
000100 04 00 00 00 00 00 00 00 5e f4 5b 36 7c 7a 2c 38
       6e-45 0.0 3.2775783e-06 4.1122068e-05
000110 51 16 37 38 6f 59 43 b1 04 00 00 80 2b 1f ea 38
       4.3651384e-05 -2.8427072e-09 -6e-45 0.00011163795
000120 1c 9b 89 b8 fe 3b 54 b8 a3 02 d3 b7 81 a6 4c 33
       -6.5615604e-05 -5.060061e-05 -2.5154388e-05 4.7648886e-08
000130 63 07 05 32 61 3f 8b b7 9e 51 5b 34 1d 7d de 37
       7.7432984e-09 -1.6599604e-05 2.0425657e-07 2.6522723e-05
000140 e3 8f 4e b8 f6 62 71 38 7f e9 89 b8 00 00 00 00
       -4.9248232e-05 5.7551042e-05 -6.576161e-05 0.0
000150 a1 b1 9d 37 00 00 00 00 ae 17 95 35 b6 7f f1 36
       1.8798573e-05 0.0 1.1108257e-06 7.197227e-06
000160 70 12 82 b7 98 0e 66 10 39 9e 56 38 0a 18 1b 39
       -1.5505793e-05 4.5370745e-29 5.1168932e-05 0.00014790907
000170 d6 84 b6 38 ee fc 02 39 31 bc a6 39 07 02 f8 38
       8.703179e-05 0.0001249199 0.000318022 0.00011825939
000180 d6 f4 66 39 7c 8d f0 36 c0 b1 46 39 28 f0 81 39
       0.00022025718 7.1690283e-06 0.00018948968 0.00024783728
000190 f3 53 9e 34 30 a7 36 38 79 3d 71 39 a1 83 99 39
       2.9490874e-07 4.3547887e-05 0.00023006451 0.00029280505
0001a0 a3 72 69 39 93 4d 13 39 1d 8c 8b 39 c8 be 26 39
       0.00022263317 0.00014047911 0.00026616539 0.00015902065
0001b0 51 37 b1 38 a3 68 14 38 09 5e 2b 39 07 fe b8 38
       8.450321e-05 3.53834e-05 0.00016342862 8.82112e-05
0001c0 cf d9 a3 39 79 d2 19 39 f5 30 48 39 79 86 88 39
       0.00031252063 0.00014669624 0.00019091724 0.0002604013
0001d0 71 0d 16 39 6c ac 7e 38 80 71 79 39 e5 02 94 39
       0.00014310122 6.07189e-05 0.00023788773 0.00028230916
0001e0 69 d0 8f b6 64 d2 36 39 3c db 2a 38 ff ff a4 38
       -4.2859942e-06 0.00017435249 4.0735336e-05 7.8678124e-05
0001f0 b0 40 6e 38 ae a4 b8 38 c8 72 9a 36 38 b5 bb 38
       5.6803867e-05 8.804478e-05 4.60292e-06 8.9506095e-05
000200 c9 fe 55 39 16 8f a5 38 75 46 9e b7 20 aa 7b 39
       0.00020408178 7.894465e-05 -1.8867877e-05 0.00024000602
000210 7e 6c b7 38 34 17 32 b9 8b 87 b1 b8 c8 79 d3 38
       8.746328e-05 -0.00016984047 -8.4652645e-05 0.000100839476
000220 13 1b e4 36 01 d7 3a 38 9e cb 42 38 b3 b0 e4 38
       6.7980814e-06 4.4546094e-05 4.6442838e-05 0.000109048
000230 f8 6e 06 38 a9 99 20 39 ae e8 1b b8 24 8a be 37
       3.2051437e-05 0.00015316032 -3.717158e-05 2.2714092e-05
000240 18 77 3f 38 a7 10 5e 38 85 cc 6e 38 64 28 9e 38
       4.5648863e-05 5.2944433e-05 5.6934095e-05 7.5415504e-05
000250 7b e2 04 39 dc 58 bf 38 b4 35 45 39 3d f0 49 39
       0.00012672872 9.124141e-05 0.0001880739 0.0001925835
000260 dd 53 1f 39 39 69 a0 39 bf a6 6c 39 c3 ee b5 39
       0.00015194663 0.00030595975 0.00022568832 0.00034700902
000270 3c b4 4d 39 6b 19 73 39 eb 39 d3 39 ef f7 51 39
       0.00019617466 0.00023183755 0.00040288208 0.00020024156
000280 2b 99 fe 38 ff 8b bd 38 cb 98 8f 39 43 cd 94 39
       0.000121401936 9.0382986e-05 0.00027388925 0.00028381692
000290 2f 9b 4c 39 ad 9d 06 39 f7 fa 84 39 58 fb a2 39
       0.00019512766 0.00012837975 0.00025363985 0.00031086314
0002a0 8b ce 13 39 46 bc 84 39 dc 37 05 39 86 1f ab 39
       0.00014095956 0.00025317277 0.00012704678 0.00032639148
0002b0 11 38 69 39 59 c9 5d 39 5c d2 7b 39 f4 34 99 39
       0.00022241498 0.0002115121 0.0002401559 0.00029221887
0002c0 dd 92 5e 39 11 90 22 39 24 d2 b6 39 fa 39 8b 39
       0.0002122628 0.00015503193 0.00034870312 0.00026555342
0002d0 95 fd 95 b8 3b 58 24 37 12 a7 27 b8 c8 16 ca b7
       -7.152107e-05 9.7957045e-06 -3.99715e-05 -2.4090885e-05
0002e0 71 03 38 38 58 f4 19 38 5a 91 81 38 00 00 00 00
       4.3872224e-05 3.6705605e-05 6.178273e-05 0.0
0002f0 3b 60 d0 38 4d 84 a6 38 ac dc f9 b7 74 34 2f b8
       9.936137e-05 7.94014e-05 -2.9785871e-05 -4.1772102e-05
000300 7e 8a d0 37 a5 c9 6e b8 03 67 82 38 0f 51 6e b8
       2.4860023e-05 -5.6931418e-05 6.2180705e-05 -5.6819114e-05
000310 0e fa 9e b7 54 7d 54 38 30 de a2 37 16 ec 1d 37
       -1.8951509e-05 5.066146e-05 1.9415369e-05 9.412897e-06
000320 3b 7b 0a 38 d0 49 a9 b5 66 5f d1 38 7c 58 00 b8
       3.301653e-05 -1.2612963e-06 9.983666e-05 -3.0599986e-05
000330 f8 0d 2b b8 f0 9e aa 37 6f fb 10 38 8a 91 c7 b7
       -4.0782586e-05 2.033959e-05 3.456644e-05 -2.379042e-05
000340 9b 2b 9b 38 77 c4 a7 38 3e cb ba 38 1f 4d 94 39
       7.399098e-05 7.999775e-05 8.907028e-05 0.0002828622
000350 c8 8e 10 39 29 1a 8f 39 e6 5b ba 39 91 1e 70 39
       0.000137861 0.00027294576 0.00035545154 0.0002289957
000360 cd 74 85 38 b4 7c 4e 39 9a 62 dc 39 34 4b 8b 39
       6.36369e-05 0.00019692146 0.00042035134 0.00026568177
000370 dc b6 83 38 b0 ec f7 39 47 eb a4 39 1d 59 2d 39
       6.280627e-05 0.00047287857 0.00031455813 0.00016531763
000380 d4 b8 18 39 04 0c 98 39 d7 d0 b3 39 16 ca 91 39
       0.00014564703 0.00029000652 0.00034297138 0.0002780712
000390 54 59 35 39 2a ab 89 39 b3 f4 12 39 ea 95 a5 39
       0.00017294782 0.00026258203 0.00014014803 0.00031582947
0003a0 fc c7 52 39 27 17 2e 39 73 24 a2 39 88 51 63 39
       0.0002010166 0.00016602558 0.00030926205 0.0002167878
0003b0 7f de 20 39 82 91 4f 39 e1 45 c3 39 8e 97 a8 39
       0.00015341675 0.00019795264 0.00037245362 0.00032156374
0003c0 9d 90 70 b7 71 b6 49 b8 33 0a ea 38 40 01 c8 b7
       -1.4338785e-05 -4.8092046e-05 0.00011159889 -2.384244e-05
0003d0 6d b3 9e 39 f5 cc ab 39 53 4a 79 38 3c b8 aa 37
       0.0003026979 0.00032768367 5.9435446e-05 2.035137e-05
0003e0 f7 2e 50 36 8d 17 a9 39 86 4f bf 38 64 fa 87 b8
       3.1021752e-06 0.0003225174 9.122402e-05 -6.4839405e-05
0003f0 e7 57 cc 39 9e 65 56 b8 96 7a 5b 39 5b fd 86 37
       0.00038975404 -5.1116214e-05 0.00020931134 1.6092023e-05

momentum_buffer f4 [128]
000000 a9 61 b4 39 67 35 1e 3b ee 37 13 bb d7 a7 0d 3b
       0.00034405038 0.0024140717 -0.0022463757 0.0021614933
000010 12 c2 90 3b 60 7e c3 b9 e9 21 0a 38 2d 6e ef ba
       0.0044176662 -0.00037287455 3.2933345e-05 -0.0018267088
000020 98 0a 89 b9 e4 4d 35 ba 4f 98 54 37 00 00 00 00
       -0.0002613857 -0.00069162087 1.2671647e-05 0.0
000030 8c 8a 88 3a 35 2e 38 3a 64 bc 54 3b 62 9b 30 bb
       0.0010417267 0.00070259284 0.0032460922 -0.0026948084
000040 f2 a8 c5 ba 2a d9 1b bb 0c 98 16 bb a0 36 07 b8
       -0.0015080257 -0.0023780563 -0.002297881 -3.223738e-05
000050 1c 5a 28 3a 8b 33 b8 b9 2a b2 62 ba af 4a f3 ad
       0.0006422119 -0.00035133617 -0.00086477643 -2.7659068e-11
000060 1e 00 16 bb fc 46 65 3b f4 d4 48 39 28 29 ab ba
       -0.0022888253 0.0034984937 0.00019152818 -0.001305853
000070 2c 46 7e bb 79 75 a6 bb f7 99 7a 3a 1f 2e 17 bb
       -0.003879915 -0.005079922 0.0009559686 -0.0023068262
000080 fd 6b 1f bc 3b 3b 58 39 7c cb 74 3b f7 e5 69 ba
       -0.009730336 0.0002062143 0.0037352731 -0.0008922512
000090 03 8f d8 ba 58 9f 5a b9 12 3e 49 ba d0 c0 55 3a
       -0.0016522113 -0.0002084946 -0.00076767907 0.00081540365
0000a0 90 3d 00 3a 3e 54 ab 3b ae 4d 2e bb 00 20 88 3a
       0.0004891986 0.0052285483 -0.0026596594 0.0010385513
0000b0 00 00 00 00 a0 30 e2 36 13 b0 a8 3a 01 6c 82 b7
       0.0 6.7409856e-06 0.0012869857 -1.55475e-05
0000c0 84 df 33 3b b8 06 94 b9 10 ca 10 3a 4e 93 1c 3a
       0.0027446458 -0.00028233766 0.0005523274 0.0005972878
0000d0 91 63 08 3b 5a ef 8d b8 00 00 00 00 8c 2c c8 bb
       0.00208113 -6.7679866e-05 0.0 -0.006108826
0000e0 04 00 00 80 2f de 63 36 9b 74 91 b9 d8 03 da 39
       -6e-45 3.3954964e-06 -0.00027743433 0.00041583064
0000f0 68 46 59 3b 7e d7 35 bb 73 39 03 bc 89 1f 7d 39
       0.0033153538 -0.0027746852 -0.008009302 0.00024139708
000100 c0 7e 4b b7 1c 4f 42 b9 ce e8 8b 3a 54 6e 42 3a
       -1.2129254e-05 -0.00018530752 0.001067424 0.0007416953
000110 21 a3 ff ba c8 de 2c bb 54 2c d0 3a e2 5b 68 bb
       -0.0019503572 -0.0026377905 0.0015882351 -0.0035455157
000120 eb 54 b9 3b 58 10 c3 ba 0c d2 67 93 ae bc f0 ba
       0.005655875 -0.001488219 -2.925986e-27 -0.0018366778
000130 99 5e 6d bb 32 6b d5 39 40 7a 19 3a c6 d7 6d b8
       -0.0036219715 0.00040706393 0.00058547035 -5.6706158e-05
000140 4a a9 63 3a 1f f0 1b 36 c9 3a 0b b9 60 3b d0 38
       0.0008684589 2.3236569e-06 -0.00013277972 9.929272e-05
000150 04 00 00 80 23 39 b2 b9 00 00 00 00 42 23 84 ba
       -6e-45 -0.00033993376 0.0 -0.0010081308
000160 de 70 09 bb 00 00 00 00 c4 61 57 3b c0 21 c4 38
       -0.0020971815 0.0 0.003286467 9.352295e-05
000170 ec 8c d9 ba bd ae 16 3b 21 06 f1 38 8f df cd ba
       -0.0016597784 0.0022992336 0.00011492917 -0.0015706884
000180 d4 ce d0 3a 50 2d 05 ba e2 56 f3 39 2e fa a5 38
       0.001593078 -0.00050802995 0.00046413305 7.914413e-05
000190 20 e8 6f 3a de 09 0c bc 72 f3 30 3b 82 2b 08 ba
       0.0009151716 -0.008547274 0.0027000573 -0.00051944715
0001a0 85 a3 20 b8 05 ed 11 00 42 4e 59 3a 72 2d 35 3a
       -3.8299262e-05 1.64623e-39 0.00082895544 0.0006911374
0001b0 3e 31 c1 84 d4 22 d0 ba 66 2b 28 ba e3 0e e3 3a
       -4.5419304e-36 -0.001587952 -0.0006415158 0.0017323162
0001c0 04 00 00 00 dc 82 bf 3a 38 68 de 39 74 98 9c ba
       6e-45 0.0014611143 0.0004242079 -0.001194729
0001d0 81 90 c8 ba 85 12 39 3a 20 b7 e5 b7 be f4 11 3b
       -0.0015301855 0.00070599496 -2.7384202e-05 0.0022271122
0001e0 51 3a f2 bb 63 33 00 3b f8 d5 c1 ba 16 7c bd bb
       -0.0073922058 0.001956188 -0.0014788499 -0.0057826145
0001f0 2e dd 04 3a 52 04 be bb bc 9b d8 b9 00 87 cc 3a
       0.0005068359 -0.005798855 -0.00041314762 0.0015604198

momentum_buffer f4 [64, 128]
000000 e7 09 9c b8 15 e2 22 3c ae 42 9f ba 0b 66 ed 3b
       -7.440504e-05 0.0099415975 -0.0012150609 0.0072448305
000010 06 f7 81 bb d6 ac 0e 3b e3 c4 26 34 88 62 ad b9
       -0.003966215 0.0021770499 1.5531582e-07 -0.00033070543
000020 66 41 06 3c fd 64 1d 3b 39 00 00 80 00 00 00 00
       0.008194303 0.0024016493 -8e-44 0.0
000030 89 03 de 38 2c a5 3a 3a 50 00 04 3c a9 60 9f bb
       0.000105864434 0.00071199494 0.008056715 -0.0048638177
000040 00 6d 08 b9 de 8e 65 3b 6e f1 a6 3a 5a 8d 1a 3b
       -0.00013010576 0.0035027782 0.0012736747 0.0023582787
000050 ae ea 0c 3c 60 b0 90 3b 90 7c 16 b9 0d 0b 90 2a
       0.008600874 0.004415557 -0.00014351518 2.5587207e-13
000060 e1 a6 ab 3b dd ce 7b 3b 17 b4 2c b6 4a 81 f1 3b
       0.0052383994 0.003842286 -2.5734823e-06 0.007370149
000070 ea f3 31 bb b2 46 46 bb b5 dd 01 3b 31 0c bf 3b
       -0.002715344 -0.003025454 0.0019815986 0.0058303108
000080 47 6d 06 bc 63 05 3d b7 13 1e 11 3c af 33 ed 38
       -0.008204765 -1.1266532e-05 0.008857268 0.000113106675
000090 bb ad 64 3b 61 34 a9 39 e2 68 11 3a 61 15 22 3c
       0.003489359 0.00032273217 0.000554694 0.009892792
0000a0 56 26 48 3b d7 9d 88 b9 64 58 d5 ba 28 46 eb 39
       0.0030540428 -0.0002605754 -0.0016276953 0.00044874963
0000b0 00 00 00 00 6d 13 2f 28 60 03 39 3b 97 ec 91 39
       0.0 9.718664e-15 0.0028230771 0.00027832828
0000c0 31 e0 83 3b e0 6c 35 39 44 fa aa 3b 81 a5 d7 3a
       0.0040245284 0.00017302064 0.0052178223 0.0016452522
0000d0 78 0f a9 3b 34 87 f0 39 00 00 00 00 ba 09 8e 3b
       0.0051593147 0.000458771 0.0 0.0043346556
0000e0 04 00 00 80 fb b1 9f b2 bc da 47 bb ac 10 99 ba
       -6e-45 -1.8590972e-08 -0.0030495366 -0.0011677942
0000f0 30 c9 82 3c a0 bb 96 b8 03 ac 68 3b 83 38 9c b7
       0.015965074 -7.187505e-05 0.0035502918 -1.8622964e-05
000100 86 12 1e 3c 3e 7c 29 3b 46 f6 f7 b9 e7 25 3d 3b
       0.009647971 0.0025861408 -0.00047295 0.0028861703
000110 c9 eb 6e 3b 58 17 06 3c 7c dd 38 3a 20 d9 7c ba
       0.0036456457 0.0081842765 0.0007052047 -0.0009645391
000120 97 38 e6 3b 88 89 ba 3b 6f 79 e3 0f 99 c5 3a 3b
       0.007025789 0.0056926645 2.2430703e-29 0.0028499125
000130 3a e6 d8 3b ab ca 15 3c 98 79 90 3b 94 72 dc b6
       0.006619242 0.009142558 0.0044090264 -6.5698496e-06
000140 65 14 9c 39 97 d3 93 36 5f 00 62 37 ec 32 8e 3b
       0.00029769834 4.4055737e-06 1.3470736e-05 0.0043395665
000150 04 00 00 00 04 19 ba 3b 00 00 00 00 13 7c b9 3b
       6e-45 0.0056792516 0.0 0.0056605428
000160 5b 69 72 3b 00 00 00 00 b9 45 25 3c 9a 96 2b 3c
       0.0036989066 0.0 0.010087424 0.010472918
000170 25 e2 15 bb c0 46 bd 37 d3 21 d0 38 3e 16 70 ba
       -0.0022870388 2.2563501e-05 9.924513e-05 -0.0009158588
000180 46 75 f5 3b 34 67 27 3b 19 5a c1 3b a8 8d a9 39
       0.0074907867 0.0025543692 0.005900633 0.00032339734
000190 35 f9 10 3c 7b a0 65 3b ec d1 97 3b c6 d8 8e ba
       0.008848478 0.003503828 0.004633179 -0.0010898344
0001a0 61 2d dc 36 86 94 00 80 54 35 0c b8 dd 73 4e 3b
       6.5617937e-06 -5.328e-41 -3.3428267e-05 0.0031502165
0001b0 2b d0 7d 80 24 18 53 ba cb d0 d9 3a be fe 99 3b
       -1.1554114e-38 -0.00080526085 0.0016618011 0.004699557
0001c0 04 00 00 00 00 a1 dd 36 3a a0 12 3a 78 6f da ba
       6e-45 6.605056e-06 0.00055933336 -0.00166653
0001d0 1c 1e 02 3c 90 be 24 39 4a 32 14 3b d4 d8 8a 3b
       0.007941749 0.00015711249 0.0022612982 0.0042372737
0001e0 db 97 8c 3b 30 a0 c0 3b 3e f2 73 ba 60 76 67 ba
       0.0042905635 0.005878471 -0.0009305811 -0.000882959
0001f0 6a fe 8c 3b 62 99 41 bb 3c 32 4a 3b de f8 98 3b
       0.0043027895 -0.0029540886 0.0030852696 0.004668339
000200 4a 88 97 37 9c 87 18 bb 52 43 63 39 1c 2a c5 ba
       1.8064067e-05 -0.002327419 0.00021673486 -0.0015042457
000210 50 97 6c 3a 2c 6f ab b8 8d d3 00 b5 0a cf ce 39
       0.0009025233 -8.174623e-05 -4.799156e-07 0.00039445638
000220 f6 a2 c6 ba 3c df 8a 3a 00 1b af b3 00 00 00 00
       -0.0015154767 0.0010595093 -8.153984e-08 0.0
000230 67 4b 37 36 ed 95 9a b9 0b 07 5e ba 9e b1 c0 3a
       2.7313015e-06 -0.00029484872 -0.00084696774 0.0014701372
000240 80 84 3c b8 5a 6e 84 ba d8 52 1c b8 04 c5 90 ba
       -4.4946093e-05 -0.0010103688 -3.7270453e-05 -0.0011045043
000250 b1 a0 dd ba d6 98 02 ba 54 59 a6 39 49 20 fa aa
       -0.0016908852 -0.0004981881 0.00031728542 -4.4431323e-13
000260 14 b7 91 39 c0 26 9f ba f9 66 ea b6 93 59 a7 ba
       0.0002779296 -0.0012142286 -6.985731e-06 -0.0012767784
000270 c8 b4 99 3a da a6 d1 3a a1 0c b0 b9 60 61 e1 ba
       0.0011726851 0.001599516 -0.00033578745 -0.0017195158
000280 46 cd 4d 3b 7a ad 8d b6 fc 2d e7 b9 5e 87 56 b7
       0.003140287 -4.222323e-06 -0.00044094014 -1.2786912e-05
000290 00 35 9a b7 66 37 da b8 8f c8 f7 b8 3e e4 81 ba
       -1.838291e-05 -0.00010405369 -0.00011815235 -0.000990994
0002a0 7c ca b1 b9 dd 5c 0e 3a 17 79 4f 3a f5 f0 00 b9
       -0.00033910933 0.0005430708 0.0007914467 -0.00012296795
0002b0 00 00 00 00 17 47 33 b6 e1 11 13 ba e5 5f 44 b8
       0.0 -2.6714458e-06 -0.0005610269 -4.681935e-05
0002c0 2c 8f 66 b9 82 5d 88 b8 43 dc c4 b9 e5 91 09 3a
       -0.00021987845 -6.5024025e-05 -0.0003754814 0.0005247875
0002d0 64 95 00 bb b1 da 5e b9 00 00 00 00 3a 50 d8 ba
       -0.0019620294 -0.00021253039 0.0 -0.0016503402
0002e0 04 00 00 00 7a ef a5 31 a1 fe a1 3a 90 9b 01 3a
       6e-45 4.8293574e-09 0.001235921 0.000494414
0002f0 07 2d 42 bb d4 85 55 b9 46 3a 0d 3a 47 a0 ac 36
       -0.002962889 -0.00020363118 0.00053874066 5.144658e-06
000300 62 4a 1a bb 96 cf 85 b9 06 b2 1d 3a d7 69 84 ba
       -0.002354287 -0.000255224 0.0006015602 -0.0010102344
000310 10 67 5b b9 58 2f c6 ba 56 53 8d b9 50 27 46 3a
       -0.00020923861 -0.0015120311 -0.00026955706 0.00075589586
000320 c8 7a f4 ba cc bd 18 3a 14 56 1d 8f 53 a0 5e ba
       -0.0018652314 0.0005826622 -7.757276e-30 -0.0008492518
000330 7b 35 ef b9 70 e0 de ba a7 1b 89 ba d7 62 30 36
       -0.00045625478 -0.0017004143 -0.0010460512 2.6283576e-06
000340 db 70 d1 b8 e2 58 bb b5 36 ee 6d b6 74 c1 2a ba
       -9.9869176e-05 -1.3958454e-06 -3.545441e-06 -0.0006513812
000350 04 00 00 00 6d 44 f2 ba 00 00 00 00 c6 68 b1 ba
       6e-45 -0.0018483527 0.0 -0.0013535253
000360 0b 48 21 ba 00 00 00 00 68 e2 02 bb a9 cd ed ba
       -0.0006152398 0.0 -0.0019971374 -0.0018142957
000370 ec 66 84 3a d0 b1 91 3a 62 07 90 b7 a0 2a 0e 3a
       0.0010101474 0.0011115614 -1.7169576e-05 0.0005423222
000380 fa 26 18 ba eb 88 c4 39 d5 aa 15 bb 10 5e d0 b8
       -0.0005804148 0.00037486045 -0.002283742 -9.9357334e-05
000390 71 e9 c5 ba 35 72 8a ba 00 5c cc 38 75 b9 ed 39
       -0.0015099478 -0.0010562601 9.744614e-05 0.0004534234
0003a0 18 4d 23 b5 e1 1b 00 00 84 d9 af b7 bc 04 2f ba
       -6.083442e-07 1.0001e-41 -2.0962914e-05 -0.00066764257
0003b0 0b 00 00 00 10 06 dd b8 84 85 48 39 ca ba 11 bb
       1.5e-44 -0.000105392304 0.00019123225 -0.002223658
0003c0 04 00 00 80 3c bb 2a b9 56 f8 3d 3a 24 23 1a 3a
       -6e-45 -0.00016282214 0.0007246783 0.000587987
0003d0 24 d9 f5 ba 7e f8 be b7 84 8b 05 ba 9a cc 85 b9
       -0.001875673 -2.2765478e-05 -0.0005094337 -0.00025520177
0003e0 dd cf ba 39 8c fe eb ba 98 21 c7 39 f4 b1 93 39
       0.00035631555 -0.0018004938 0.00037981267 0.0002817061
0003f0 e2 b1 e7 b9 bc 7b ab 3a e0 05 0e ba b1 6a cb ba
       -0.00044192286 0.001308314 -0.00054177456 -0.0015519467

momentum_buffer f4 [64]
000000 8e 9a ec bb c1 7d a7 3b bf c4 5b bb 48 20 57 39
       -0.007220573 0.0051114266 -0.0033534018 0.00020516024
000010 bd d6 01 bc c8 b0 08 ba cb 3d f5 3b 44 a3 16 3a
       -0.007924733 -0.0005214331 0.007484173 0.00057463744
000020 00 00 00 00 00 00 00 00 92 01 f6 bb 7d e3 86 3b
       0.0 0.0 -0.0075075114 0.004116474
000030 c6 14 82 bb c8 1d 66 39 00 00 00 00 18 f9 4b 39
       -0.0039697615 0.00021945604 0.0 0.00019452383
000040 7d 47 8d ba ac 96 58 bb c0 8b a5 3a 03 9e ac bb
       -0.0010778751 -0.0033048792 0.001263015 -0.00526786
000050 50 a2 df b8 25 27 f1 3a a4 de f6 3a 00 00 00 00
       -0.00010663702 0.0018398507 0.0018834663 0.0
000060 40 14 67 3b bc f1 51 3b 00 00 00 00 af 7b 23 bc
       0.0035259873 0.0032034954 0.0 -0.009978219
000070 d2 59 20 bb 40 2b 4d bb b0 76 72 bb 3c ed 13 39
       -0.00244676 -0.0031306297 -0.0036997013 0.00014107389
000080 d0 59 db bb 30 86 2f b9 5e 34 18 ba 7c 1d e3 bb
       -0.006694056 -0.0001673929 -0.0005806143 -0.006931005
000090 a6 36 00 bb 00 00 00 00 06 1e a5 bb 9c ee ef 3a
       -0.0019563823 0.0 -0.0050389795 0.0018305364
0000a0 46 04 89 ba 60 ef 33 39 da cc 55 bb 67 96 aa 34
       -0.0010453544 0.00017159944 -0.0032623322 3.17744e-07
0000b0 87 6b 01 3b 7c 30 40 3a 20 0b b0 39 ed 95 57 bb
       0.001974793 0.00073314435 0.00033577625 -0.003289576
0000c0 a0 30 e5 3a 04 00 00 00 b1 97 89 38 b8 2c a8 3a
       0.0017485805 6e-45 6.560924e-05 0.001283071
0000d0 7c f9 9f ba 00 00 00 00 a5 2b 30 3c 58 0e f7 3a
       -0.001220509 0.0 0.010752593 0.0018848879
0000e0 06 e4 a1 3b df 9f 21 bc 90 4c a8 bb 9d 48 17 3c
       0.0049405126 -0.009864776 -0.00513608 0.009233621
0000f0 16 1c cc bb 06 2a 23 38 5b 9f 91 b8 54 6a c5 ba
       -0.006228934 3.8901366e-05 -6.943821e-05 -0.0015061595

momentum_buffer f4 [5, 64]
000000 12 56 b2 3c 80 5a b5 bb be 5e b4 bb eb eb b0 3b
       0.021769557 -0.00553447 -0.005504458 0.0053992174
000010 4f a6 a3 3c 0c 3c df 39 cf 66 47 bd 40 95 ed bb
       0.019976763 0.00042578613 -0.04868203 -0.007250458
000020 00 00 00 00 00 00 00 00 8c 68 4c 3c f8 2e 91 bc
       0.0 0.0 0.012476098 -0.017722592
000030 42 a6 9d 3c e6 fa df 39 00 00 00 00 f3 c1 c7 b7
       0.019244317 0.00042720808 0.0 -2.3812963e-05
000040 08 75 09 38 5f ab 7b bc 01 2d 0b bd be 30 66 bc
       3.277234e-05 -0.015360682 -0.033978466 -0.014049707
000050 41 af 64 bc 00 d7 3f bc 20 ad d0 3a 00 00 00 00
       -0.013957799 -0.011708975 0.0015920736 0.0
000060 be 6c ea bb 89 b9 53 bc 00 00 00 00 91 b7 60 3c
       -0.0071540764 -0.012922653 0.0 0.013715641
000070 8f f0 0b bd bc d6 42 3b 46 8c c2 bc 57 d0 e9 3a
       -0.03416496 0.0029730042 -0.023748528 0.0017838579
000080 a1 2e ee 3b 48 02 8f bc 95 47 48 bb 94 23 98 bb
       0.007268742 -0.017457142 -0.0030560244 -0.004642913
000090 ea dd 2e bd 00 00 00 00 90 75 72 3c 95 9f 6a bd
       -0.042692102 0.0 0.014798537 -0.057281096
0000a0 ae 86 87 bc 01 88 16 bb d6 17 32 bc 14 b8 c2 2f
       -0.016543712 -0.0022969248 -0.010869941 3.541919e-10
0000b0 97 d3 b7 bb bb a7 8f b8 7e 8e 89 bb c3 cc 30 bc
       -0.0056099403 -6.8500136e-05 -0.0041978946 -0.0107910065
0000c0 28 9b 59 ba 04 00 00 80 7a e4 b2 b5 f3 f4 e2 3b
       -0.0008301013 -6e-45 -1.3328529e-06 0.006926173
0000d0 9a cc 85 bc 00 00 00 00 e2 3c f9 bc 20 65 46 bd
       -0.016332913 0.0 -0.030424539 -0.048436284
0000e0 29 17 58 ba a4 56 94 3c fa 5e d5 3b a2 aa b9 36
       -0.0008243197 0.01810772 0.006511566 5.533294e-06
0000f0 37 6c 3a bc 69 61 fc 35 a9 a9 55 b7 02 24 af 3b
       -0.0113783395 1.8803813e-06 -1.2735291e-05 0.0053448686
000100 60 ea 92 3b b0 3e 13 3c 78 26 cc 38 10 44 6a 3b
       0.004483506 0.008987114 9.7346434e-05 0.0035746135
000110 14 39 77 3b 15 fb a9 37 fb bb e4 3c 88 42 a7 3c
       0.003772323 2.026329e-05 0.027921667 0.020417467
000120 00 00 00 00 00 00 00 00 fb 8b 09 3b f0 f0 45 3c
       0.0 0.0 0.0020987976 0.01208137
000130 7a 79 6e 3b 63 8d 15 b7 00 00 00 00 51 c3 4c 36
       0.0036388324 -8.914011e-06 0.0 3.0512058e-06
000140 df 43 92 38 12 46 77 3c e2 d7 fc 3c bc ed 6b 3c
       6.9744645e-05 0.01509239 0.03086466 0.014399942
000150 e3 00 70 3c 82 4b e8 3a 1a fb 5b 3a 00 00 00 00
       0.014648649 0.0017722698 0.0008391604 0.0
000160 ee f5 3f 3c 6c 9f 72 3c 00 00 00 00 0b ec 3e 3b
       0.011716349 0.014808517 0.0 0.0029132392
000170 2a 21 19 3d f8 71 53 3b c0 78 b2 3c f6 36 e9 b8
       0.037385143 0.0032263976 0.021786094 -0.00011120543
000180 fe 4b 5f 3b e6 f7 8b 3c 9f 16 be 3b 55 4e 1f 3c
       0.0034072394 0.01708598 0.0058010365 0.009723266
000190 15 9a ed 3c 00 00 00 00 22 fd 3b 3b 59 db 04 3d
       0.029004136 0.0 0.0028684814 0.03243575
0001a0 c6 47 b2 3c 16 48 0a 3c d5 88 4a 3c 2a 9b a0 30
       0.02176274 0.008440038 0.012361725 1.1685632e-09
0001b0 2e fa 46 3b 87 f7 5e b8 19 3a 4a 3c 32 19 99 3b
       0.003036152 -5.3159452e-05 0.012342953 0.004672193
0001c0 b2 bf 03 3c 04 00 00 00 d2 dd c3 35 71 45 ff 3a
       0.008041309 6e-45 1.459319e-06 0.0019475651
0001d0 da 90 91 3b 00 00 00 00 3e 15 d4 3c 34 88 de 3c
       0.0044423165 0.0 0.025889035 0.027164556
0001e0 6b 52 8f b8 c9 92 81 3b df f9 d5 3a 25 42 c1 37
       -6.834123e-05 0.0039542657 0.0016325078 2.3038194e-05
0001f0 90 bf 11 3c 89 57 d2 33 c8 7b 0e 37 84 4f fd 3a
       0.00889577 9.7948096e-08 8.49268e-06 0.0019326066
000200 cf d2 12 3b 65 19 8a 3a 9e 13 87 b9 b4 27 d2 b8
       0.0022403484 0.0010536133 -0.00025763822 -0.000100209756
000210 20 c5 aa 3a 8a 69 ab 36 f1 40 1b 3b 10 46 f3 3a
       0.0013028719 5.1084835e-06 0.002368983 0.0018560309
000220 00 00 00 00 00 00 00 00 93 9c 3c 3a a2 94 a0 3a
       0.0 0.0 0.0007194962 0.0012251327
000230 74 57 e1 3a 44 89 cc b6 00 00 00 00 0b 16 d3 b6
       0.0017192201 -6.0956536e-06 0.0 -6.290856e-06
000240 33 ef d4 36 42 1a 1c 3a c8 f4 d6 3a d7 80 15 3a
       6.345939e-06 0.00059548405 0.0016399855 0.00057030976
000250 c0 d1 8b 3a ba 44 9b 39 10 c5 f0 b7 00 00 00 00
       0.0010667369 0.0002961511 -2.8701994e-05 0.0
000260 9f ca 7f 39 6a 88 27 3a 00 00 00 00 d2 eb c0 3a
       0.00024394177 0.0006390872 0.0 0.0014718717
000270 c6 f9 f3 3a e8 0a 74 39 18 f6 23 3b 40 a6 1d b8
       0.0018613867 0.00023273716 0.002501851 -3.758655e-05
000280 15 e7 f3 3a cd cc 67 3a 0e 70 1a 3a 9e 65 f1 39
       0.0018608297 0.00088424684 0.0005891331 0.00046042813
000290 b0 6c ed 3a 00 00 00 00 7f f5 81 3a be 9f f0 3a
       0.0018114056 0.0 0.0009915082 0.0018358154
0002a0 66 00 41 3b e0 29 55 39 14 e0 fc 39 e8 f8 fe 31
       0.00294497 0.00020328863 0.00048232137 7.4206703e-09
0002b0 0f ac 49 3a 21 81 4d 35 b6 5a 28 3a 39 86 b4 39
       0.000769318 7.655636e-07 0.00064222084 0.0003443228
0002c0 a3 be 98 39 04 00 00 00 b1 10 9b b4 fe a4 87 3a
       0.00029133735 6e-45 -2.8883144e-07 0.0010348854
0002d0 87 31 26 3a 00 00 00 00 02 82 fd 3a 0b 46 97 3a
       0.00063397776 0.0 0.0019341114 0.001154126
0002e0 2e 41 31 38 96 d2 be 3a 3a bc 8b 3a 55 6d 1f b6
       4.226079e-05 0.0014558609 0.0010660954 -2.3756486e-06
0002f0 c4 a7 af 3a 80 5c 70 34 08 85 57 b6 e0 03 15 35
       0.0013401438 2.2385393e-07 -3.211493e-06 5.5512464e-07
000300 a0 4d ce 3a 7b f0 c8 3a 36 fc 4e ba db 32 a3 3a
       0.0015739687 0.0015330458 -0.0007895859 0.0012451069
000310 79 16 b4 38 86 29 f0 36 60 a0 0a 38 c5 18 50 3b
       8.587255e-05 7.1573913e-06 3.3051125e-05 0.0031753045
000320 00 00 00 00 00 00 00 00 d9 53 9d 3a 74 c2 07 38
       0.0 0.0 0.0012003138 3.2367607e-05
000330 b3 c2 07 3b 8c 00 c6 b8 00 00 00 00 ec fd 32 37
       0.0020715415 -9.4414776e-05 0.0 1.0668748e-05
000340 11 8b 1f 38 f5 ac 81 3b 62 e2 9e 3b 1d cb 58 3b
       3.803807e-05 0.0039573857 0.0048487643 0.003308005
000350 0d 9a 00 3b f1 f7 13 bb 84 43 a0 38 00 00 00 00
       0.0019623071 -0.0022578205 7.64197e-05 0.0
000360 6e 18 71 b9 65 44 08 3b 00 00 00 00 b7 17 c3 3a
       -0.00022992652 0.002079272 0.0 0.0014884387
000370 7d 70 e3 3b 93 1d b9 3a 54 99 83 3a 8b 2a cb 38
       0.0069409 0.0014123194 0.0010040202 9.6877186e-05
000380 38 0f bc 39 fb 4f 74 3b 29 d7 6c 3a ec 1d 11 3b
       0.00035869493 0.0037279117 0.0009034747 0.002214308
000390 ab 3c 25 3b 00 00 00 00 73 cd 34 ba 90 fa 15 3b
       0.0025213163 0.0 -0.00068970694 0.0022884943
0003a0 5c 19 88 3b 2c 26 14 3b 11 14 f5 3a df 06 75 32
       0.0041534137 0.002260576 0.0018697997 1.4262439e-08
0003b0 d3 cf 8f ba 62 e8 b2 b6 97 26 71 3b 0d fc ce ba
       -0.0010971971 -5.3318663e-06 0.0036796683 -0.001579167
0003c0 62 c6 17 3b 04 00 00 00 55 19 46 36 cf ac 94 3a
       0.0023159017 6e-45 2.9519044e-06 0.0011343005
0003d0 a4 a5 f4 ba 00 00 00 00 a0 e3 68 3a db 62 0d 3b
       -0.0018665087 0.0 0.00088840164 0.0021573815
0003e0 14 a1 fe b8 49 19 78 b7 8d c3 ef 3a ed e9 99 37
       -0.00012141667 -1.4787839e-05 0.0018292532 1.8347951e-05
0003f0 2c 81 a7 ba a2 cb 98 34 d8 70 18 b6 11 28 9d 39
       -0.0012779585 2.846037e-07 -2.2715449e-06 0.00029975225

momentum_buffer f4 [5]
000000 50 96 c6 3c d3 f7 13 3d 73 e5 1f 3c 1e ed 50 3c
       0.024241596 0.036125015 0.009759295 0.012751846
000010 6a 1c eb 3b
       0.007175018

conv1.weight f4 [10, 5, 4]
000000 03 e4 7b 3e 4f 1e 43 be 77 8e 3d 3e e7 b3 b2 bc
       0.24598698 -0.1905453 0.18511377 -0.0218143
000010 ee 17 96 bc bd b0 33 3e 5b 9d 31 be ed 8c 21 be
       -0.018321957 0.17547889 -0.17345183 -0.15776415
000020 c1 d1 2f 3e 57 8d 64 bd 8c b0 b2 bd da 5c 15 be
       0.17169859 -0.055798855 -0.0872508 -0.14586201
000030 76 85 13 3e b0 1d 14 3e 12 a2 b1 bd 26 6e b2 3d
       0.1440638 0.1446445 -0.086734906 0.087124154
000040 99 78 9d 3c 58 77 57 bd 22 33 b7 bd aa e0 43 3e
       0.019222545 -0.05260405 -0.089453 0.19128671
000050 69 c9 af 3d 06 8f 5d 3e 49 64 8c 3d cd 58 f9 3e
       0.08583338 0.2163659 0.068550654 0.48700562
000060 11 7e 33 bd 00 12 eb bd 5a ec b9 3d d4 5d 95 bd
       -0.0438214 -0.114780426 0.090782836 -0.07293287
000070 f6 b9 83 bd 8f e8 b8 bd 1c 19 75 3d 78 36 16 be
       -0.064319536 -0.09028732 0.0598384 -0.14669216
000080 99 c7 30 be d1 fe 47 3e da 61 c8 3d e9 bc 25 3e
       -0.1726364 0.19530798 0.09784289 0.16185345
000090 ce 77 94 3d 1a 5c 9d 3d 02 7b c7 3d 2b c4 54 3d
       0.072494134 0.076835826 0.09740259 0.051944893
0000a0 65 9e 9a 3e f8 5e cf bd f4 b5 15 be 7f 16 78 bd
       0.3019897 -0.10125536 -0.14620191 -0.06056833
0000b0 78 61 51 be aa 68 07 be 3c d6 f4 3d 97 ca ea bc
       -0.20447338 -0.1322352 0.119549245 -0.028661055
0000c0 f8 d9 02 be 1d 1a e1 3c c8 a0 6d 3d cf f5 41 3e
       -0.12778461 0.027478272 0.05801466 0.18941425
0000d0 0b 5c 61 be 41 ac d6 bd 41 f3 73 b9 4c 7b 30 3e
       -0.22007768 -0.104820736 -0.00023264905 0.17234534
0000e0 ea 15 0e 3e 4d 1f 17 bd 20 80 c4 bd bd bb 58 be
       0.13875547 -0.036895085 -0.095947504 -0.21165366
0000f0 71 76 46 3d b4 98 3b bd a3 fe 45 3e a2 ef c3 3e
       0.0484528 -0.045799926 0.19335417 0.38268763
000100 88 d6 06 3b 21 d5 61 be 55 11 0e be 32 40 43 be
       0.0020574648 -0.22053958 -0.13873799 -0.19067457
000110 c8 7e 3e 3e 2f ac 70 3c 57 67 3e be a1 6e 41 3c
       0.1860305 0.014689489 -0.18594109 0.011806161
000120 ac 36 22 3e 0e 62 3f 3e b6 fd 61 be a5 67 d4 3b
       0.15841168 0.18689749 -0.2206944 0.006482082
000130 ec f9 15 3e a2 71 2c 3d cb 4f c4 3d 32 22 54 3d
       0.14646119 0.042100556 0.09585532 0.051790424
000140 a1 ee 3d 3e 6d 12 18 3e bc 32 1b be e3 58 43 3e
       0.18548061 0.14850779 -0.15156072 0.19076876
000150 da 9c 8b bd d8 e9 8b 3d c4 23 ca bd e8 b2 50 3e
       -0.068170264 0.068317115 -0.09870103 0.20380747
000160 ad e6 b3 3d cb 46 3f be ed bc 34 be ce 94 59 3e
       0.08784232 -0.18679349 -0.17650194 0.2124817
000170 29 29 68 3d 6a 5e b8 3d d1 74 48 be 17 cb 43 3e
       0.05667988 0.09002383 -0.19575812 0.19120441
000180 8d e5 5e 3e 33 03 20 bd fc 51 bd bd 8d 6b 0c be
       0.21767254 -0.03906555 -0.09244153 -0.13712902
000190 7a 43 a3 3b 49 2a 0d 3e e8 a3 bf 3e 2a 14 1f be
       0.004982409 0.13785662 0.37429738 -0.15535036
0001a0 fb c2 c8 bd c0 38 a1 bd b2 82 9c 3c 0b db e3 3d
       -0.098028146 -0.07872152 0.01910529 0.111257635
0001b0 8d db ab bc 9e 02 49 3e e7 f9 48 be 18 3d b3 3c
       -0.020978713 0.19629905 -0.1962658 0.021879718
0001c0 b1 10 83 bd ea 37 05 3e 45 2b 00 bd 60 8a e5 3c
       -0.06399668 0.13009611 -0.031291265 0.028020084
0001d0 b6 f7 20 3e 34 ff 06 3e 93 e9 8a 3d 5b 22 c2 bd
       0.15719494 0.1318329 0.06782832 -0.09479209
0001e0 2f aa 38 be 00 0d 73 be b0 87 5f 3d f2 58 84 3e
       -0.1803367 -0.23735428 0.05457276 0.2584911
0001f0 db 27 41 be a1 8a 3e bd b8 de 1a 3e a7 ac c5 3d
       -0.1886286 -0.046518926 0.15124023 0.096520714
000200 c9 ae 03 3e 98 c5 d5 3d 76 27 1a 3e a5 96 a3 3d
       0.12859644 0.10438079 0.15054116 0.079877175
000210 f2 6d a8 3c d9 bb 35 3e b9 3c e9 3a f0 ff 11 be
       0.020560239 0.1774744 0.0017794586 -0.14257789
000220 ef bb 04 3d 24 9f d1 3d 61 e2 4a 3e 3e 1c 1e 3c
       0.03240579 0.10235432 0.19812919 0.009650288
000230 ec 80 54 be 4b b1 9e 3c 31 f5 ba 3d be e8 bb bd
       -0.20752305 0.01937165 0.09128798 -0.091752514
000240 17 ab 1e be 0f 56 6a 3e c4 fa 43 3e c1 4c 2d 3d
       -0.15494953 0.22884391 0.19138628 0.042309526
000250 f6 5c 8c bd af 79 03 3e 11 81 6c 3c 5f e5 ab 3c
       -0.068536684 0.12839387 0.014435069 0.020983396
000260 15 74 39 3e 81 a7 e2 bb 00 65 99 3c c3 5a 21 be
       0.18110688 -0.0069169407 0.018724918 -0.15757279
000270 38 97 cd 3c c1 a1 fb bb c7 71 5d bd 8d ee 6d 3d
       0.02509652 -0.0076791947 -0.054063585 0.058088828
000280 c5 67 50 bd 3c 86 8a 3e 0d 95 31 3d 5b 6d e3 bd
       -0.050880212 0.27055538 0.043355037 -0.11104842
000290 5b 0d e4 3d 45 9f 16 be 1c 3e 17 3e 67 16 6b be
       0.1113536 -0.14709194 0.14769787 -0.22957765
0002a0 05 d9 b2 3d 83 91 c0 3d 62 d0 48 3c 09 4f fd 3d
       0.087327994 0.09402754 0.012256714 0.123685904
0002b0 36 80 0a 3e 11 03 a3 bb ee 5e 40 bd e4 53 a2 bd
       0.13525471 -0.004974731 -0.046965532 -0.07926157
0002c0 3c e4 b5 bc 32 53 61 be e1 73 05 be 46 d3 ae bd
       -0.022203557 -0.22004393 -0.13032486 -0.08536391
0002d0 93 60 10 be 13 01 c8 bd 29 1b 71 be 41 de 4c 3e
       -0.1409934 -0.0976583 -0.23545517 0.20006658
0002e0 c0 b5 b7 bd 09 cf b3 3a 0d 14 fc bc 32 be 9e 3c
       -0.08970213 0.0013718317 -0.03077128 0.019377802
0002f0 dd 8b 68 bd 0b bf 61 be 4b 4c 12 be f2 b4 59 3d
       -0.05677401 -0.22045533 -0.14286916 0.05315108
000300 7d 66 03 3e c3 47 81 bc 5c 48 e8 3d 29 45 0e 3e
       0.12832065 -0.015781289 0.113419265 0.1389357
000310 94 77 91 3d 94 c2 ac 3d 7d c9 ac bc 8d da 08 be
       0.07102886 0.0843555 -0.02109217 -0.1336462

conv1.bias f4 [10]
000000 a4 68 b1 3d 01 71 d9 bd e5 88 ed bd 79 b2 e1 bd
       0.08662537 -0.10617257 -0.11598376 -0.11020369
000010 db 92 2c 3e 11 56 d8 3d de a4 c9 bd 11 32 5b 3d
       0.16852896 0.10563291 -0.09845899 0.053514544
000020 6f be 58 3e 72 5a 14 3d
       0.21166395 0.036219068
