tb_logs/ConvNet_1_0_2_mozart/version_2/checkpoints/epoch=27.ckpt (torch_old, 695720 bytes, 24 tensors)

momentum_buffer f4 [10, 5, 4]
00000000: d04f 503b 5c4b 2a3d d70d 593d 934b cb3c
00000010: c989 40bc aa0a 863c c46d 99bc 1e0c ae3a
00000020: 3cfd b5bb f201 1d3a bfb7 41bc 24b7 a7bb
00000030: f6db b0bb 6e53 aebb 085c 0abc fea6 66bb
00000040: dadb b0bb dadb b0bb dadb b0bb dadb b0bb
00000050: 6241 80ba 98c3 51bb 4ae2 8a3b ccb5 783b
00000060: c751 8f39 ff04 0e3a 811e c5ba 2c63 c3bb
00000070: e874 1f39 8fd4 ed39 2202 183a c0dd edba
00000080: 341e 8ab8 a988 ee39 3432 193a a606 f538
00000090: a988 ee39 a988 ee39 a988 ee39 a988 ee39
000000a0: 41cb 823c d4eb 133c ffd4 34bd 2a60 84bc
000000b0: 2936 b2bc 3aac c23c 341f 8abc 390f 7d3b
000000c0: 0b74 2dbc 0b1d 9e3b 0ff0 b4bb a74a fb3b
000000d0: 0836 fdb9 f6dd 5bba eb56 32bb b0df 8639
000000e0: 6808 60b9 6808 60b9 6808 60b9 6808 60b9
000000f0: d4cf 713c 344c ae3a 6d3b 833d cc1c 153c
00000100: 67ed 11bd 0ee8 8b3b 75ea 27bc b92f 343c
00000110: d335 39bc a481 a0b7 33b6 e8bb d6b1 ae3b
00000120: 001a e5bb efdd 33bb 1311 28bb cbae 7c39
00000130: 8a07 34bb 8a07 34bb 8a07 34bb 8a07 34bb
00000140: aee2 133c 1ed2 383d c058 643a 922c 9a3c
00000150: b5e4 cf3b 055e c2bc 84c7 d3ba c483 bfbb
00000160: 6953 8cbb 6c23 dfbb 7f7b 90bb 3a77 5dbb
00000170: 4553 8cbb e4d3 40bb b255 8cbb 68fb 45bb
00000180: b255 8cbb b255 8cbb b255 8cbb b255 8cbb
00000190: 1f5f 203c 153f 223d a217 c1bb ca6f 06bb
000001a0: da59 353c 1042 5ebc f7ab ce3b 12af 77bb
000001b0: 1ead 033b c219 35bb f51f 873a 3c1a 8bbb
000001c0: a99d a5ba c8fe 153a 9f0d 87bb d5e4 8abb
000001d0: d5e4 8abb d5e4 8abb d5e4 8abb d5e4 8abb
000001e0: 57cc e03c 90f9 ffba a44e 243b eefb 123c
000001f0: d138 87bc a42c 9bba ac38 3cbc 6a6e a23b
00000200: 745c 87b9 debd 8bbb be5a 97bb 5c66 7a3b
00000210: dc8e 523a ac02 75bb 3c7a b9bb af8d 42bb
00000220: 1b04 41bb 1b04 41bb 1b04 41bb 1b04 41bb
00000230: dfcc 14bd 1851 8f3c f28a 69bc de36 78bc
00000240: 91a4 173c 0d95 c13c 5715 213c a68f 89bb
00000250: dbdd 993a c903 4abb 4062 fbb8 ba22 44bb
00000260: 50fe 9cb9 ea35 d7ba 0ca2 00bb 3023 44bb
00000270: b00f 44bb b00f 44bb b00f 44bb b00f 44bb
00000280: 58c4 f63c 1371 8ebc ab97 41bd 0d5e 6bbd
00000290: 38fb 353b 68fc e0bc dc34 5f3a 723e c2bc
000002a0: 5461 843b 73b7 ebbb 1d05 df3a 7868 35bc
000002b0: f280 d23a 8af1 bf3b 1175 4e3b 1ea4 113b
000002c0: 39af 493b 39af 493b 39af 493b 39af 493b
000002d0: 4923 003a 2129 1b3a 6fbb a0bc a921 583b
000002e0: 1d84 c83a 1d84 c83a d492 92bc 7718 f43a
000002f0: 1d84 c83a 1d84 c83a f043 bcb8 b231 2e3b
00000300: 1d84 c83a 1d84 c83a 0804 353b ee83 c83a
00000310: 1d84 c83a 1d84 c83a 1d84 c83a 1d84 c83a
0.0031785853 0.041575775 0.052991714 0.02481631 -0.011751601 0.016362507 -0.018729098 0.0013278758
-0.0055538695 0.00059893646 -0.011823594 -0.0051182676 -0.005397315 -0.005320004 -0.0084447935 -0.003519475
-0.005397302 -0.005397302 -0.005397302 -0.005397302 -0.0009785111 -0.0032007452 0.0042384015 0.0037950156
0.00027336014 0.00054176146 -0.0015038998 -0.00596275 0.00015206973 0.0004536253 0.00057986577 -0.0018147752
-6.5859786e-05 0.00045496717 0.00058439677 0.00011683749 0.00045496717 0.00045496717 0.00045496717 0.00045496717
0.01596606 0.009028394 -0.04414844 -0.016159136 -0.021754341 0.023763765 -0.016860582 0.003861381
-0.010586749 0.0048252395 -0.0055217813 0.0076688114 -0.00048296177 -0.0008387262 -0.0027212452 0.00025725132
-0.00021365436 -0.00021365436 -0.00021365436 -0.00021365436 0.014759023 0.0013297857 0.06407819 0.009101104
-0.035626795 0.0042696064 -0.01024877 0.010997706 -0.011304337 -1.9133855e-05 -0.007101798 0.0053312583
-0.006991625 -0.0027445515 -0.0025644943 0.00024097708 -0.0027470314 -0.0027470314 -0.0027470314 -0.0027470314
0.009026213 0.04512226 0.00087107345 0.01882008 0.0063444027 -0.023726473 -0.0016157483 -0.005844565
-0.004282404 -0.0068096425 -0.004409253 -0.0033792988 -0.0042823874 -0.0029423172 -0.0042826766 -0.0030209664
-0.0042826766 -0.0042826766 -0.0042826766 -0.0042826766 0.009788304 0.03961094 -0.00589271 -0.0020513409
0.011068786 -0.013565555 0.006307121 -0.003779356 0.00200922 -0.002763376 0.0010309207 -0.0042450707
-0.0012635487 0.0005721864 -0.004121497 -0.0042387047 -0.0042387047 -0.0042387047 -0.0042387047 -0.0042387047
0.027441187 -0.0019529331 0.0025071288 0.0089711975 -0.016506584 -0.0011838865 -0.011488121 0.00495701
-0.0002581809 -0.0042645773 -0.0046189716 0.0038207984 0.0008032152 -0.0037385626 -0.0056603234 -0.00296865
-0.002945191 -0.002945191 -0.002945191 -0.002945191 -0.036328193 0.017494723 -0.014254319 -0.0151498
0.009255544 0.023630643 0.009831748 -0.0041980324 0.0011739092 -0.003082501 -0.00011986913 -0.0029927925
-0.00029944116 -0.0016419266 -0.0019627837 -0.00299282 -0.0029916577 -0.0029916577 -0.0029916577 -0.0029916577
0.03012292 -0.017387902 -0.047263782 -0.05746274 0.0027768146 -0.027464107 0.00085146516 -0.023711417
0.0040399227 -0.0071934997 0.0017015074 -0.011072271 0.0016060157 0.005857651 0.0031502882 0.0022223066
0.0030774607 0.0030774607 0.0030774607 0.0030774607 0.00048880704 0.00059189094 -0.019620625 0.0032979047
0.0015298162 0.0015298162 -0.017892279 0.0018623014 0.0015298162 0.0015298162 -8.977193e-05 0.0026579914
0.0015298162 0.0015298162 0.002762081 0.0015298107 0.0015298162 0.0015298162 0.0015298162 0.0015298162

momentum_buffer f4 [10]
00000000: a2cb b23c 5a25 f1ba d07b 623a 1100 363c
00000010: fade 8d3c 246a 8c3c 1221 433c 8a35 463c
00000020: 99e4 4bbc 0ab6 cabb
0.021825615 -0.0018397972 0.00086396653 0.011108414 0.017318238 0.017140456 0.01190974 0.012097726
-0.012444639 -0.0061862515

momentum_buffer f4 [64, 610]
00000000: 724c a339 498a cf38 6811 9239 56bc b6b8
00000010: 034b f2b7 464e 75b8 18c7 cb38 3dcf f438
00000020: 7583 8838 9e0f 2a38 3030 3b36 7509 45b8
00000030: 66bf fe37 44fe b8b6 5f11 2b39 0a2c b838
00000040: 327b 0239 5977 9e38 acb8 9339 3ff4 a638
00000050: 36a5 0ab8 848b cdb8 d48e cf38 16cf a1b7
00000060: 3342 3e39 ccd9 aa36 03f6 2d39 539c a138
00000070: 808d a135 8f3a dab7 8da5 2239 bd36 4038
00000080: 980f 30b8 c0b7 33b6 62ec fd38 5c7e dc38
00000090: 2332 9e37 ce1e 2f38 5613 4b39 ba31 2738
000000a0: 6437 1a39 73c6 1f38 3f42 2639 0c82 ea36
000000b0: 7183 8838 5078 4a38 e7bf 0db9 401a b6b4
000000c0: efe8 3439 d441 b838 1ae1 2739 5958 f738
000000d0: 4bcf c938 0f7e 4c37 50fe da35 a4a9 3638
000000e0: 9193 c136 2baf 4737 c800 9638 d6a2 1639
000000f0: 1778 af38 1c13 5ab7 b3e1 b638 f575 38b8
00000100: a06b 9bb8 cebc dcb6 af09 3239 f2e2 cf37
00000110: d2d9 e537 2cfb 1e37 3c5f a536 e18c 3237
00000120: b5e5 9ab8 762a 2637 96ff 2b39 8406 9a37
00000130: 6421 8d37 2add 03b6 ad43 1639 3cd9 c1b6
00000140: 2a64 abb7 9149 81b7 ed99 2138 168b 9937
00000150: 39e4 ae37 0eeb 9db6 d103 fb38 b04b 95b6
00000160: dfc1 a1b8 43e4 e4b6 a6ee 0739 2390 2f37
00000170: 4977 bdb8 de31 4236 92ce 5738 6cff b437
00000180: 0c37 9cb8 3666 d1b6 be21 0439 640a 8237
00000190: 5011 2435 e847 57b6 abca 8438 6e27 a336
000001a0: 40fc 3834 2c4d fbb5 75b4 83b6 c769 bf37
000001b0: 96f1 fa37 2428 8537 6544 b637 609f 92b6
000001c0: 7c63 6737 8281 19b7 cd72 c3b8 3e1f 7a37
000001d0: db0a 2e37 31e0 2c37 00e7 5f38 c6c2 f637
000001e0: 5c4e 1e35 009c 39b3 5db9 313a 5de4 e339
000001f0: 5cfc 313a 5654 b7b8 bacc 4239 80d5 aeb9
00000200: 4c7e 1e38 ae3e 4638 aecf b739 8ceb 7139
00000210: a312 7239 4a08 af37 4eb5 c138 5efc 6a38
00000220: 4bfb 2c39 bcf2 c838 3b64 c139 5229 9d39
00000230: 6b9c ba39 0984 bc37 cbdb 1c39 bec6 cdb8
00000240: a07a e635 5092 1ab7 eb75 b339 a066 c938
00000250: c3f6 e739 4cf5 00b8 affd 9939 78e5 ec37
00000260: f26b 4339 7267 38b8 cf18 6539 70b9 2f36
00000270: e3aa 0939 c444 5038 572f 8739 cbfa 0f39
00000280: a5ce 8c39 4a47 0a39 166a c139 5337 2a39
00000290: ba8b 9b39 4bd1 4ab8 0c0b 0d39 f289 40b9
000002a0: 2c0d b5b8 8a7a 40b7 1033 e938 2216 4a39
000002b0: cbe9 b639 aba8 1d39 a749 7639 7279 1d39
000002c0: 8ffa c338 f5a8 8638 18f9 f3b8 be32 e3b7
000002d0: 86c7 4838 25f5 6a39 0d63 8339 ea8a 9738
000002e0: ab24 aeb6 92e0 6d38 8c9d 10b7 f83e 0539
000002f0: 365c a5b7 2bcf 17b8 b85c 8536 2038 bd36
00000300: 8890 85b5 2f14 8137 5528 17b3 7498 5338
00000310: 7aaf 61b7 0341 a1b8 87ae 1ab7 b665 9938
00000320: 5a23 02b6 5497 59b7 3456 e434 0499 b438
00000330: 3c91 2eb6 009d fcb7 8a88 94b5 9851 2838
00000340: 85e4 b2b6 1813 32b7 6162 dcb6 a4b6 c138
00000350: a8d3 72b6 9f3c 3cb8 8389 abb6 2943 b238
00000360: 9ae1 8836 d9ec 0fb8 52ed 84b6 6cb3 0838
00000370: ab46 6fb7 b28b 4bb8 9172 44b7 3471 b537
00000380: 4a21 51b6 3f73 16b8 26d6 37b7 9092 afb7
00000390: 944f 54b7 5eb8 34b8 ad45 36b7 5a27 3cb8
000003a0: 3a2b cfb5 6df2 a6b7 d0a7 67b4 28b5 66b7
000003b0: d9e6 6937 3d04 13b8 67b9 b1b5 d535 d1b8
000003c0: 22ac bf35 3adb fc36 7fd9 8135 cf00 2fb8
000003d0: 2f58 38b7 3d02 3739 56ae 51b7 95c4 bb39
000003e0: 0e67 5bb7 af84 48b8 3deb 0eb8 d821 a737
000003f0: ff45 8a37 74ed 2038 dd77 6137 b790 0737
0.0003114674 9.896287e-05 0.0002786026 -8.7135166e-05 -2.8883578e-05 -5.848545e-05 9.7168784e-05 0.00011673428
6.509471e-05 4.0545703e-05 2.789322e-06 -4.6977268e-05 3.0368286e-05 -5.5132277e-06 0.00016314302 8.7820066e-05
0.0001244366 7.556257e-05 0.00028175616 7.960991e-05 -3.305563e-05 -9.8011486e-05 9.897133e-05 -1.9289128e-05
0.00018144473 5.0917497e-06 0.00016590212 7.706196e-05 1.2036617e-06 -2.6014894e-05 0.00015511196 4.5827346e-05
-4.1976193e-05 -2.6780035e-06 0.0001210801 0.00010513954 1.8858414e-05 4.175194e-05 0.00019366792 3.9862214e-05
0.00014707219 3.8093374e-05 0.00015855672 6.988883e-06 6.509468e-05 4.8272603e-05 -0.00013518297 -3.391924e-07
0.00017252912 8.786065e-05 0.00016010218 0.00011794334 9.623038e-05 1.2188698e-05 1.631628e-06 4.355017e-05
5.769027e-06 1.1902109e-05 7.152703e-05 0.00014365776 8.367019e-05 -1.2998262e-05 8.720476e-05 -4.3978875e-05
-7.411023e-05 -6.5784907e-06 0.0001697901 2.4782003e-05 2.7400358e-05 9.476014e-06 4.92847e-06 1.0642428e-05
-7.3860785e-05 9.904257e-06 0.00016403044 1.8361265e-05 1.6824059e-05 -1.9649256e-06 0.00014330326 -5.7771376e-06
-2.0431431e-05 -1.5412255e-05 3.8528746e-05 1.8303788e-05 2.084869e-05 -4.7063286e-06 0.000119693235 -4.449357e-06
-7.7131896e-05 -6.8215027e-06 0.00012963507 1.0464372e-05 -9.034441e-05 2.893728e-06 5.1452378e-05 2.1576612e-05
-7.448913e-05 -6.2405843e-06 0.00012601071 1.5502046e-05 6.1119954e-07 -3.2079352e-06 6.332e-05 4.8623688e-06
1.7228103e-07 -1.8723417e-06 -3.925112e-06 2.281823e-05 2.991482e-05 1.5873527e-05 2.172794e-05 -4.3696928e-06
1.3791836e-05 -9.149664e-06 -9.319708e-05 1.4908435e-05 1.0373736e-05 1.03041975e-05 5.338248e-05 2.9416184e-05
5.8973615e-07 -4.321555e-08 0.00067796354 0.00043466958 0.00067896186 -8.741829e-05 0.00018577548 -0.00033346936
3.778776e-05 4.7265254e-05 0.00035059213 0.00023071299 0.00023085861 2.0865486e-05 9.236728e-05 5.6024983e-05
0.00016496812 9.581956e-05 0.00036886506 0.0002997616 0.00035593225 2.247283e-05 0.00014959199 -9.81218e-05
1.7172024e-06 -9.213181e-06 0.00034229396 9.603542e-05 0.00044243605 -3.074603e-05 0.00029371443 2.8240247e-05
0.00018636862 -4.396536e-05 0.00021848384 2.618497e-06 0.00013128998 4.9655107e-05 0.00025784477 0.0001373097
0.00026856843 0.00013187263 0.0003689087 0.00016233073 0.00029668008 -4.8355472e-05 0.00013450923 -0.00018361936
-8.633206e-05 -1.1472623e-05 0.00011119817 0.00019272466 0.00034887934 0.0001503552 0.00023487826 0.00015017929
9.344995e-05 6.4210886e-05 -0.0001163354 -2.7084137e-05 4.7869537e-05 0.00022407302 0.00025060066 7.226116e-05
-5.189873e-06 5.671435e-05 -8.619751e-06 0.00012707326 -1.9712472e-05 -3.6194146e-05 3.9745028e-06 5.6391727e-06
-9.951336e-07 1.5387397e-05 -3.519411e-08 5.0448303e-05 -1.3451901e-05 -7.6891876e-05 -9.219751e-06 7.314554e-05
-1.9392087e-06 -1.2969442e-05 4.253103e-07 8.61157e-05 -2.6012558e-06 -3.011385e-05 -1.1066597e-06 4.013031e-05
-5.3314166e-06 -1.0614072e-05 -6.5679637e-06 9.2369766e-05 -3.618401e-06 -4.487915e-05 -5.1122056e-06 8.500211e-05
4.0793793e-06 -3.431444e-05 -3.9615343e-06 3.2592026e-05 -1.4261964e-05 -4.8529073e-05 -1.1709185e-05 2.1629596e-05
-3.1162804e-06 -3.5870118e-05 -1.095751e-05 -2.0929874e-05 -1.2654713e-05 -4.308705e-05 -1.0864268e-05 -4.4859342e-05
-1.5435282e-06 -1.990163e-05 -2.1574601e-07 -1.3751247e-05 1.3941631e-05 -3.505148e-05 -1.3241487e-06 -9.9759236e-05
1.4280706e-06 7.5357066e-06 9.674549e-07 -4.1724004e-05 -1.09877865e-05 0.00017453074 -1.24979615e-05 0.00035813884
-1.30774115e-05 -4.7807287e-05 -3.407452e-05 1.9923711e-05 1.6483476e-05 3.8368118e-05 1.3438953e-05 8.080321e-06

momentum_buffer f4 [64]
00000000: 5c92 1239 bfd3 5f39 d009 7838 36e7 933b
00000010: 5f99 dd3b c644 8638 756f 083a 5d15 7738
00000020: 1241 b139 8f6b 3c3a b504 5f38 9a0a 2bbc
00000030: 0e02 303b 88f2 5fba c4d6 bf37 1a44 ea3a
00000040: 9f71 9837 e47f eab6 8963 0639 afd4 3639
00000050: 88be c33a 8166 3039 af6d a938 a44a 9cb8
00000060: 0d89 c63b 0064 353b 30e5 4636 0d8d aeb6
00000070: bc69 a53b f8c4 2839 fb17 0d39 b208 78ba
00000080: 1ae5 99b9 e842 3d39 499b 4a38 320d 8b39
00000090: 7210 eeb9 4805 a7b9 1de7 0a3a dbb5 5fbc
000000a0: f691 9c38 f300 2b38 e556 163c a522 08b6
000000b0: ea35 8738 221d 3f3b 560f 8fbb 1470 20bb
000000c0: 183c 93b8 504d 1f39 c276 5cb8 261e ef3b
000000d0: 4e0f c83b 07f6 34b9 fb16 8e3b 11bb e63b
000000e0: 662d 0239 56d1 d5b8 e3e1 3eb8 96fa a6b8
000000f0: be72 bcba 6b3b 6b38 6c3d b6b7 0000 0000
0.00013978168 0.00021345819 5.9136946e-05 0.0045136465 0.006762668 6.402428e-05 0.00052045967 5.8909285e-05
0.00033808552 0.00071876583 5.3171727e-05 -0.010439539 0.0026856693 -0.0008542915 2.2868982e-05 0.0017873079
1.8172721e-05 -6.988632e-06 0.00012816316 0.00017436103 0.0014934102 0.00016822854 8.078978e-05 -7.4525626e-05
0.006058818 0.0027678013 2.9637704e-06 -5.2020246e-06 0.005048005 0.00016095105 0.00013455741 -0.0009461745
-0.00029353128 0.00018049369 4.8305174e-05 0.00026521977 -0.0004540715 -0.00031856657 0.0005298721 -0.013654198
7.465847e-05 4.077046e-05 0.009175991 -2.0285745e-06 6.447344e-05 0.0029161652 -0.004365842 -0.0024480866
-7.0206996e-05 0.00015192223 -5.256269e-05 0.007297295 0.00610534 -0.0001725779 0.0043362356 0.007041343
0.00012414678 -0.00010195623 -4.5509903e-05 -7.962172e-05 -0.0014377458 5.6083703e-05 -2.1724692e-05 0.0

momentum_buffer f4 [10, 1, 4]
00000000: 62e1 c4ba f867 8fbc d20f beba 782e 4abb
00000010: 9fbc 063c 2162 b03c 12f5 18bb 36d4 de3b
00000020: 046b 8ebc 3578 5b39 d7aa 213a 6b63 0abb
00000030: f4dc abba a7c4 c4bc b70a 013c cbae 67bc
00000040: 4d4c 633c 53be 2fba 53e0 893c 295a 773c
00000050: 276a 48bb 7fe1 7ebb 3e5b 143a fe1e a7b9
00000060: 2719 743b b5c4 a03c 2756 bb3c eefb 7b3a
00000070: 6223 90bc ad24 ab38 5529 d2bb afcc 1ebb
00000080: 4887 383c 39c9 dd3a 8115 acba 2fd0 33bc
00000090: 24ff fa3b e056 be3b 3a71 d73a 54d5 043c
-0.0015020783 -0.01750563 -0.0014500564 -0.0030850451 0.008223682 0.021531167 -0.0023339433 0.0068002
-0.017385013 0.00020930248 0.000616712 -0.0021116387 -0.0013112114 -0.024019552 0.00787609 -0.014140795
0.013873172 -0.0006704081 0.016830599 0.015097179 -0.003058085 -0.003889173 0.0005659348 -0.00031875813
0.0037246437 0.019625047 0.02286823 0.00096124306 -0.017594997 8.160747e-05 -0.0064136186 -0.0024230888
0.011262722 0.0016920931 -0.0013128967 -0.010974928 0.0076598097 0.005808696 0.0016436942 0.008107502

momentum_buffer f4 [10]
00000000: 6431 1bbc b0b7 51bb bad6 1dbb 83cb 40bc
00000010: f0f5 0f3d 782f 81bb c3ae 473c d097 c2bb
00000020: f024 a8ba 6063 bf3c
-0.009472225 -0.0032000355 -0.0024084286 -0.011767271 0.035146654 -0.0039424263 0.012187663 -0.0059385076
-0.0012828391 0.023362815

momentum_buffer f4 [128, 300]
00000000: 68e3 0237 0a36 3b36 0000 0000 0400 0080
00000010: bdaa 7135 879d 3733 aae1 d635 ecfb 4935
00000020: e97c df31 f729 9414 a247 9736 a9b3 9736
00000030: d250 6e34 1ceb 9d34 0000 0000 0400 0080
00000040: 0000 0000 0400 0000 46d4 c935 8982 f434
00000050: 0000 0000 0ca1 cc36 c7ec a436 f247 80ab
00000060: e8c8 da36 b387 8136 e190 16a7 0400 0000
00000070: bece 9232 4372 d2aa c339 8636 91a1 8a37
00000080: d0c9 1f37 3570 cb36 0f6d 8836 0ed6 0837
00000090: 7447 4836 a690 2237 3570 cb36 61fd d036
000000a0: ce6f cd36 92fe c436 2967 7a37 8546 1237
000000b0: ba80 eb36 3a70 cb36 3070 cb36 3770 cb36
000000c0: 3e56 6f36 5a2d 1537 b26f cb36 6172 cb36
000000d0: 8e97 3b37 ee54 0b37 6e70 8b33 9bd1 5937
000000e0: 7c38 0637 b54d e336 41ac c736 20b4 cf36
000000f0: 0000 0000 bde5 289f 024c af35 0000 0000
00000100: 0000 0000 79b1 99ac 0000 0000 ec15 0032
00000110: 0000 0000 0000 0000 0000 0000 0000 0000
00000120: 3e2c 792f 0000 0000 ba46 cf2f 0000 0000
00000130: 0000 0000 0000 0000 0000 0000 3d73 26ab
00000140: 0000 0000 0000 0000 0000 0000 0ba5 7335
00000150: 0000 0000 39ae 9231 bfd6 61a6 0000 0000
00000160: 0000 0000 0000 0000 4b3b e236 b60e 5e36
00000170: 0000 0000 0000 0000 cc33 17b0 06c5 d1ad
00000180: 5a4c 4535 2989 7532 0861 8114 0000 0000
00000190: f37b 1236 6250 d536 ec21 f833 8f4e a033
000001a0: 0000 0000 0000 0000 0000 0000 0400 0000
000001b0: 42f7 f333 68e8 26ab 0000 0000 73ed 8b36
000001c0: 4f73 4736 3371 cf91 d505 c936 2c29 6636
000001d0: 0400 0080 0400 0080 0000 0000 17c7 0600
000001e0: a29f 3237 02b7 0a37 b2d3 0036 ab31 b135
000001f0: e966 6f36 2ecc af35 894f 9e36 f789 cf35
00000200: 3ba7 c135 8aff c535 9c5e c936 d75d 4b37
00000210: c43d 7836 7192 7f36 2a69 c735 8731 b135
00000220: a731 b135 a131 b135 eb38 8536 afd7 c835
00000230: ba2f b135 abbd de36 db78 1237 4d4d 2b36
00000240: 21c8 5837 4fac 0335 daf4 6036 7d2e c135
00000250: fc2d c135 e53f b235 0000 0000 a98e 3536
00000260: 0000 0000 0000 0000 0400 0080 24e5 8131
00000270: 0000 0000 60dd 2935 0400 0000 dd47 7c14
00000280: 0000 0000 a37a 5133 92ff 27af 4834 8434
00000290: 0000 0000 0400 0000 0000 0000 0000 0000
000002a0: 0400 0000 7314 d434 0000 0000 0000 0000
000002b0: 307a 1236 4aa6 76ab 0000 0000 45af 3c35
000002c0: d18d 01a7 0400 0000 0400 0080 0400 0080
000002d0: e982 5536 61cc 3f37 9071 1ea1 0400 0000
000002e0: 840a 3435 bd3c 0036 edf7 9f35 3d8c 4836
000002f0: 837d 6a1c c776 8033 fe88 8634 faab 4937
00000300: 1650 0437 8609 f935 0400 0080 058d f70c
00000310: 0400 0080 0400 0000 b212 9135 1f3a 2936
00000320: 1fdb 8e15 db7b 8b35 d82c 1d37 4778 0236
00000330: 3de1 ed36 894a 6737 0e71 4b35 dc8c be2a
00000340: dcba f231 a654 9a33 0000 0000 3ee3 569f
00000350: 31a6 9235 0000 0000 0400 0000 f335 3a2a
00000360: 0400 0000 4cf5 f926 0000 0000 0000 0000
00000370: 0000 0000 0000 0000 fafa 5d34 0000 0000
00000380: 4e96 9115 0000 0000 0000 0000 0000 0000
00000390: cded b691 16af 07ab 0000 0000 0000 0000
000003a0: 0400 0000 08e4 ab35 bfd4 7816 9717 ad34
000003b0: c78f 2ca7 0400 0000 0400 0080 0000 0000
000003c0: 3336 9536 6367 8fac 9d3c 1337 6a3c 0ea0
000003d0: 1e73 e4af cace 4735 f515 1935 d9ae e635
000003e0: 5096 4f14 27d9 811b 03b6 e135 ad6a 5e36
000003f0: 26eb f636 0400 0000 418d 7735 0400 0000
7.801551e-06 2.7896626e-06 0.0 -6e-45 9.0027953e-07 4.2751278e-08 1.6009919e-06 7.524493e-07
6.504355e-09 1.4960733e-26 4.50849e-06 4.521066e-06 2.219488e-07 2.9414593e-07 0.0 -6e-45
0.0 6e-45 1.5037447e-06 4.5543518e-07 0.0 6.098422e-06 4.9151454e-06 -9.114916e-13
6.520295e-06 3.860297e-06 -2.089522e-15 6e-45 1.7090652e-08 -3.7382779e-13 4.0002355e-06 1.6526117e-05
9.524127e-06 6.062934e-06 4.065812e-06 8.15607e-06 2.9843914e-06 9.689631e-06 6.062934e-06 6.2283802e-06
6.122492e-06 5.870891e-06 1.492518e-05 8.718697e-06 7.0185315e-06 6.0629363e-06 6.062932e-06 6.062935e-06
3.5663975e-06 8.891651e-06 6.0628745e-06 6.063187e-06 1.1181355e-05 8.30482e-06 6.493143e-08 1.29830105e-05
8.000174e-06 6.7741735e-06 5.950715e-06 6.19005e-06 0.0 -3.576542e-20 1.3060637e-06 0.0
0.0 -4.368225e-12 0.0 7.455565e-09 0.0 0.0 0.0 0.0
2.2662136e-10 0.0 3.7703335e-10 0.0 0.0 0.0 0.0 -5.913497e-13
0.0 0.0 0.0 9.0764723e-07 0.0 4.268966e-09 -7.835359e-16 0.0
0.0 0.0 6.7422275e-06 3.308914e-06 0.0 0.0 -5.500709e-10 -2.3848045e-11
7.3499325e-07 1.42920635e-08 1.3063943e-26 0.0 2.1827843e-06 6.3572525e-06 1.155457e-07 7.46487e-08
0.0 0.0 0.0 6e-45 1.1360545e-07 -5.9297576e-13 0.0 4.1701655e-06
2.972043e-06 -3.2728606e-28 5.9909457e-06 3.4296636e-06 -6e-45 -6e-45 0.0 6.22433e-40
1.0646794e-05 8.268051e-06 1.919671e-06 1.3201983e-06 3.5673677e-06 1.309794e-06 4.718026e-06 1.5462855e-06
1.4428291e-06 1.4752015e-06 6.001281e-06 1.2121592e-05 3.6990832e-06 3.8083201e-06 1.4857262e-06 1.3201942e-06
1.3201978e-06 1.3201972e-06 3.970335e-06 1.4963933e-06 1.3201418e-06 6.638196e-06 8.730417e-06 2.552598e-06
1.2921199e-05 4.9052045e-07 3.3521123e-06 1.439315e-06 1.4393004e-06 1.3280629e-06 0.0 2.705414e-06
0.0 0.0 -6e-45 3.7804444e-09 0.0 6.327955e-07 6e-45 1.2736921e-26
0.0 4.8773142e-08 -1.5279358e-10 2.4624956e-07 0.0 6e-45 0.0 0.0
6e-45 3.9502956e-07 0.0 0.0 2.1826818e-06 -8.762753e-13 0.0 7.029051e-07
-1.7979225e-15 6e-45 -6e-45 -6e-45 3.1815673e-06 1.1432073e-05 -5.368278e-19 6e-45
6.707053e-07 1.910884e-06 1.1918579e-06 2.9883952e-06 7.7586325e-22 5.98207e-08 2.505912e-07 1.2020575e-05
7.88646e-06 1.8554717e-06 -6e-45 3.8141249e-31 -6e-45 6e-45 1.0808783e-06 2.5216793e-06
5.7699055e-26 1.0392354e-06 9.36837e-06 1.944152e-06 7.0893716e-06 1.3786027e-05 7.578791e-07 3.384852e-13
7.0643704e-09 7.186581e-08 0.0 -4.5504233e-20 1.0926216e-06 0.0 6e-45 1.6538836e-13
6e-45 1.7344334e-15 0.0 0.0 0.0 0.0 2.0673534e-07 0.0
5.880217e-26 0.0 0.0 0.0 -2.8861093e-28 -4.8204615e-13 0.0 0.0
6e-45 1.2806859e-06 2.0100411e-25 3.2240925e-07 -2.3947737e-15 6e-45 -6e-45 0.0
4.4468557e-06 -4.0757827e-12 8.775995e-06 -1.2047857e-19 -4.1554754e-10 7.4434195e-07 5.7028893e-07 1.7187223e-06
1.0480473e-26 2.148159e-22 1.6816779e-06 3.3142671e-06 7.358746e-06 6e-45 9.222022e-07 6e-45

momentum_buffer f4 [128]
00000000: 09ad 4637 f444 7abb 4504 0f3c f1e7 81b6
00000010: 1967 7ab8 643e 3c3b c0ec 5a3b 696b 9038
00000020: 99f8 0739 2062 d3bb 2232 5d3a e040 fb3b
00000030: 3954 c7ba 1728 f1a9 8b62 b33b 08ed 063b
00000040: 7bcc 4295 5ac6 823b 5a1d 6abb 4e25 e139
00000050: 4c86 cbbb 5f45 ef3a 7e52 0c3b 6f0e 8a3b
00000060: 95f5 d53a 913b 87bb 1090 9fbb b8f0 f2b9
00000070: 78e0 d827 e55a c7bb c4de f2ba fc56 7eb8
00000080: 18b1 5a3a 62d6 7bb9 40c2 6cbc 1ef7 283c
00000090: 64bb 203a 637d 6bba e9f4 1ab9 fa66 90ba
000000a0: f321 ba3b d0a7 85b9 e0ab 163b 1090 8fb6
000000b0: da38 11b9 3e0d ccb6 8e93 e3bb 0000 0000
000000c0: 588e b037 868f 5539 61e3 c5ba 54c8 573a
000000d0: 3661 e4ba 5277 f63b 9da8 9d3a 7eb7 9e3a
000000e0: 6eee ebbb e6b6 4534 b8b8 af39 90db 1038
000000f0: 48b7 5dbb 0000 0000 87e6 d3b9 0000 0000
00000100: cd56 09bc dc38 063c 10bb f23b fed3 7a3a
00000110: 0400 0080 6840 b1ba 0000 0000 0000 0000
00000120: c022 25ba 3300 5f39 0e4a b33b 99bf db38
00000130: ac22 af3a 207b 4f38 0400 0080 0400 0000
00000140: 0400 0080 f238 c0b9 7183 133c 29e9 0b38
00000150: aa18 7ebb 3090 033b 9af0 293b 0400 0080
00000160: 4ae6 413b ced8 f0b8 b01e caba 0555 8c38
00000170: ec45 0d3b 922f a2bb 0000 0000 1186 683b
00000180: 3667 b7b8 b028 9e3b ec3d e43b c459 06b9
00000190: 0936 123b a456 143a dc19 423b 0000 0000
000001a0: d820 443b ae47 f53a 694f 123a 63e6 303a
000001b0: 6225 293c 9fc6 273b 0000 0000 66a2 0abc
000001c0: 6e4d 8b3c dc04 9b3a 8e89 00bc 6b08 4dab
000001d0: e0b1 98bb 7f7e b9bb 5102 f938 2c95 9b3b
000001e0: 7101 4abb ac74 d936 34c8 f63a b886 9e38
000001f0: a0a9 5d3b 2180 07bc 2ed4 853b 0000 0000
1.1842008e-05 -0.0038188072 0.008729045 -3.871501e-06 -5.9700662e-05 0.002872371 0.0033405274 6.886462e-05
0.00012967213 -0.0064509064 0.00084379513 0.007667646 -0.0015207595 -1.07095044e-13 0.0054743937 0.002058806
-3.9339295e-26 0.0039909305 -0.0035723061 0.00042943138 -0.006211078 0.0018254927 0.0021411474 0.0042131464
0.00163238 -0.004126974 -0.0048694685 -0.00046337186 6.0195413e-15 -0.0060838335 -0.0018529524 -6.063933e-05
0.0008342429 -0.00024017089 -0.01445061 0.010312824 0.0006131439 -0.00089832227 -0.0001477782 -0.0011017018
0.0056803166 -0.00025492767 0.002299063 -4.278503e-06 -0.00013849456 -6.0812154e-06 -0.00694508 0.0
2.1047119e-05 0.0002036673 -0.0015097671 0.00082314503 -0.0017423991 0.0075215483 0.00120284 0.0012109128
-0.007200054 1.8413593e-07 0.00033516227 3.453676e-05 -0.0033831168 0.0 -0.00040416812 0.0
-0.008382511 0.008192267 0.0074075535 0.00095683325 -6e-45 -0.0013523223 0.0 0.0
-0.00062994286 0.00021267011 0.0054714745 0.000104784216 0.0013361773 4.9467315e-05 -6e-45 6e-45
-6e-45 -0.0003666352 0.009003506 3.335733e-05 -0.0038772025 0.0020074956 0.0025930763 -6e-45
0.0029586726 -0.00011484475 -0.0015420523 6.691556e-05 0.002155657 -0.0049495185 0.0 0.00354803
-8.7453445e-05 0.0048266277 0.0069653895 -0.00012812676 0.002231004 0.00056586624 0.0029617464 0.0
0.0029926803 0.0018713379 0.0005581291 0.00067481975 0.010323854 0.0025600565 0.0 -0.00846157
0.017004695 0.001182701 -0.007845296 -7.284231e-13 -0.004659876 -0.0056608315 0.00011873677 0.0047480073
-0.0030823613 6.4806864e-06 0.0018827976 7.5591204e-05 0.0033823028 -0.008270294 0.0040841317 0.0

momentum_buffer f4 [64, 128]
00000000: 0400 0080 0400 0080 0400 0080 0000 0000
00000010: 0000 0000 0400 0080 0400 0080 0400 0080
00000020: 0400 0000 0400 0080 0400 0080 0400 0080
00000030: 0400 0000 0000 0000 0400 0080 0400 0080
00000040: 0000 0000 0400 0080 0400 0000 0000 0000
00000050: 0400 0080 0400 0080 0400 0080 0400 0080
00000060: 0400 0080 0400 0000 0400 0000 0400 0080
00000070: 0400 0000 0400 0080 0400 0000 0400 0080
00000080: 0400 0080 0000 0000 0400 0000 0400 0080
00000090: 0400 0080 0000 0000 0400 0080 0400 0000
000000a0: 0400 0080 0400 0000 0000 0000 0400 0000
000000b0: 0000 0000 0000 0000 0400 0000 0000 0000
000000c0: 0400 0080 0000 0000 0400 0000 0400 0000
000000d0: 0400 0080 0400 0080 0400 0080 0400 0080
000000e0: 0400 0080 0400 0080 0400 0080 0000 0000
000000f0: 0400 0080 0000 0000 0400 0080 0000 0000
00000100: 0400 0080 0400 0080 0400 0080 0400 0080
00000110: 0000 0000 0400 0000 0000 0000 0000 0000
00000120: 0400 0080 0000 0000 0400 0080 0400 0000
00000130: 0400 0080 0400 0000 0000 0000 0400 0000
00000140: 0000 0000 0400 0080 0400 0080 0000 0000
00000150: 0400 0080 0400 0080 0400 0080 0000 0000
00000160: 0400 0080 0000 0000 0400 0000 0000 0000
00000170: 0400 0080 0400 0000 0000 0000 0400 0080
00000180: 0400 0080 0400 0080 0400 0080 0400 0080
00000190: 0400 0080 0400 0000 0400 0080 0000 0000
000001a0: 0400 0080 0400 0080 0400 0080 0400 0080
000001b0: 0400 0080 0400 0080 0000 0000 0400 0000
000001c0: 0400 0080 0400 0080 0400 0080 0000 0000
000001d0: 0400 0080 0400 0000 0400 0080 0400 0080
000001e0: 0400 0000 0400 0000 0400 0080 0400 0080
000001f0: 0400 0080 0400 0080 0400 0000 0000 0000
00000200: a747 28b5 37ad 60b7 04cc f23a 4418 2135
00000210: eb7e 6ab7 1a4b 673a 335a bc39 f8d6 90b7
00000220: 0400 0080 4a58 dd39 1f02 2d3a 6c38 0b3b
00000230: 742b 8b3a 7a37 3627 119b fd3a ce99 003b
00000240: 0fed c591 9093 1b3b 1675 ba3a 77ec 5fb8
00000250: 47ca 6f3a 2abc 193a 8285 133b 1360 b73a
00000260: 72b0 c43a 6fda 473b 5860 7338 892d 91b7
00000270: a1ee d1a1 6455 5439 7fd8 2e3b ea68 2037
00000280: a41f 8e39 ca04 01b9 781d 303b ae8d 423b
00000290: 6182 033b d238 94b8 7ff1 143b 7115 fe3a
000002a0: 4297 013b e82b b33a 31a4 4cb6 8b82 76b5
000002b0: 8639 6437 73c7 3133 c7c0 583b 0000 0000
000002c0: 3af0 8f37 c627 3537 ec1f 8f3a 93d4 de3a
000002d0: b86e bb3a a1e5 c43a bf6b 2ab8 3a0c 7639
000002e0: a0c2 4037 325a d8b3 3f13 d839 b5bf a8b5
000002f0: 9d6b 8338 0000 0000 c425 e639 0000 0000
00000300: 278e f5b7 6358 503b e8b7 e33a 97ed bb39
00000310: 0400 0000 389e 863a 0000 0000 0000 0000
00000320: 1a68 bb39 88e8 5236 1096 0c3b e625 aab6
00000330: 7149 193b 572a d836 0000 0000 0400 0000
00000340: 0400 0000 f5ea 263a eb0c 3d3b e4df 88b6
00000350: 23aa 29b8 ba57 1bb8 03fa 0739 0400 0000
00000360: 4821 093a 8f2c 37b4 9bb6 b53a 0400 0000
00000370: 39f3 8339 1445 6839 0000 0000 3cf1 2f3a
00000380: 8f90 60b7 bb1c 1f3b 7bf7 6b3a 9115 2e38
00000390: a8f4 4cb9 847f 7137 79ad 003a 0000 0000
000003a0: de0d f739 e563 5139 449e e03a 09e7 c439
000003b0: 702c 3e3b cc04 3d3b 0000 0000 fe08 823a
000003c0: f81b 753b 0be4 7f3a 4606 8d39 a567 e6a7
000003d0: 4e1d b737 675e e43a 8b2f 95b5 b066 0a3b
000003e0: 7813 893a 0400 0080 e7e4 ec3a 8ece 00b7
000003f0: 2735 d939 42fc 9a3a 0dde 603a 0000 0000
-6e-45 -6e-45 -6e-45 0.0 0.0 -6e-45 -6e-45 -6e-45
6e-45 -6e-45 -6e-45 -6e-45 6e-45 0.0 -6e-45 -6e-45
0.0 -6e-45 6e-45 0.0 -6e-45 -6e-45 -6e-45 -6e-45
-6e-45 6e-45 6e-45 -6e-45 6e-45 -6e-45 6e-45 -6e-45
-6e-45 0.0 6e-45 -6e-45 -6e-45 0.0 -6e-45 6e-45
-6e-45 6e-45 0.0 6e-45 0.0 0.0 6e-45 0.0
-6e-45 0.0 6e-45 6e-45 -6e-45 -6e-45 -6e-45 -6e-45
-6e-45 -6e-45 -6e-45 0.0 -6e-45 0.0 -6e-45 0.0
-6e-45 -6e-45 -6e-45 -6e-45 0.0 6e-45 0.0 0.0
-6e-45 0.0 -6e-45 6e-45 -6e-45 6e-45 0.0 6e-45
0.0 -6e-45 -6e-45 0.0 -6e-45 -6e-45 -6e-45 0.0
-6e-45 0.0 6e-45 0.0 -6e-45 6e-45 0.0 -6e-45
-6e-45 -6e-45 -6e-45 -6e-45 -6e-45 6e-45 -6e-45 0.0
-6e-45 -6e-45 -6e-45 -6e-45 -6e-45 -6e-45 0.0 6e-45
-6e-45 -6e-45 -6e-45 0.0 -6e-45 6e-45 -6e-45 -6e-45
6e-45 6e-45 -6e-45 -6e-45 -6e-45 -6e-45 6e-45 0.0
-6.2689145e-07 -1.339177e-05 0.0018523936 6.0012485e-07 -1.3977037e-05 0.00088231417 0.00035925358 -1.726624e-05
-6e-45 0.00042218185 0.00065997423 0.0021243347 0.0010617808 2.5287648e-15 0.0019348582 0.0019622925
-3.1227218e-28 0.0023739077 0.0014225568 -5.338757e-05 0.0009147268 0.00058645254 0.0022509997 0.0013990424
0.0015006198 0.0030495187 5.8025442e-05 -1.7306551e-05 -1.4225555e-18 0.00020249706 0.0026679335 9.56117e-06
0.00027107925 -0.00012304183 0.0026873033 0.0029686498 0.0020066726 -7.0677735e-05 0.002272695 0.0019385052
0.0019773995 0.0013669701 -3.049394e-06 -9.1832106e-07 1.3603252e-05 4.1392422e-08 0.0033073889 0.0
1.7158793e-05 1.0797701e-05 0.0010919548 0.0017000608 0.0014299965 0.0015022048 -4.0631505e-05 0.00023464943
1.14894065e-05 -1.007469e-07 0.0004121307 -1.257277e-06 6.266611e-05 0.0 0.00043897156 0.0
-2.927247e-05 0.0031790964 0.0017373534 0.00035844438 6e-45 0.0010270542 0.0 0.0
0.0003574498 3.142779e-06 0.002145175 -5.0708068e-06 0.0023389722 6.4422306e-06 0.0 6e-45
6e-45 0.0006367409 0.002884681 -4.07918e-06 -4.0451192e-05 -3.703658e-05 0.0001296774 6e-45
0.00052310945 -1.7059413e-07 0.0013863625 6e-45 0.00025167482 0.00022150978 0.0 0.0006711667
-1.3385098e-05 0.00242786 0.0009001416 4.1504918e-05 -0.00019546098 1.4394409e-05 0.0004908662 0.0
0.00047121843 0.00019969007 0.001713701 0.00037556168 0.0029018186 0.002884197 0.0 0.0009920893
0.0037400704 0.0009761459 0.0002689829 -6.3950196e-15 2.1828946e-05 0.0017423154 -1.1115202e-06 0.0021118335
0.0010458073 -6e-45 0.0018073589 -7.677487e-06 0.00041429067 0.0011824446 0.000857801 0.0

momentum_buffer f4 [64]
00000000: 0400 0080 4bde 993b 15d8 d4bb 4873 b4a5
00000010: 142f b6ba c135 713c c907 453c 40ef ce3b
00000020: a245 9dbb 0000 0000 0400 0080 8821 9abc
00000030: 37fb 00bc 5815 6638 6706 333c b4cf 49bb
00000040: de83 8dbc 46b8 9cbb cf4b 1dbc c7a3 7e37
00000050: c20d 611b 0000 0000 8553 12bb 78a5 053b
00000060: a74f 9dbc 0000 0000 313f 133c 4d8e dfb8
00000070: 04a6 5a3b 0400 0000 8fcf e4ac 756b a0bc
00000080: 1554 5638 e80a ac3b 99c9 74b2 7108 1ebc
00000090: 427b 74bb 54ad 023d 0400 0000 0000 0000
000000a0: 10fa 17b9 0000 0000 0a1a 0b3c 2154 aa3c
000000b0: f952 93bb c841 f4bc cd10 f735 20d9 48bc
000000c0: 6a3d 193c 489a 013a 428f 053d a69b c33b
000000d0: 1ed5 173c 6331 9e38 8eb9 2d3c df9e b839
000000e0: 0000 0000 0a00 753b 08b1 0e3c 12cf 2c39
000000f0: 20f3 a2bc 4611 c939 0400 0080 0fa7 11aa
-6e-45 0.004695689 -0.0064954855 -3.130314e-16 -0.0013899528 0.014722289 0.012025782 0.006315142
-0.0047995606 0.0 -6e-45 -0.018814817 -0.007872394 5.485615e-05 0.010926819 -0.0030793967
-0.017274793 -0.0047827093 -0.009600594 1.5177712e-05 1.8616009e-22 0.0 -0.0022327614 0.0020392817
-0.01920302 0.0 0.008987234 -0.00010659974 0.0033363113 6e-45 -6.5031934e-12 -0.01958249
5.1099883e-05 0.0052503236 -1.4248507e-08 -0.009645567 -0.0037304913 0.03190358 6e-45 0.0
-0.00014493638 0.0 0.008490095 0.020792069 -0.004495975 -0.029816523 1.8407824e-06 -0.012258798
0.009353021 0.0004943949 0.032607324 0.0059694825 0.00926712 7.543226e-05 0.010603322 0.00035213583
0.0 0.0037384056 0.0087092 0.00016480338 -0.019891322 0.00038350577 -6e-45 -1.2936547e-13

momentum_buffer f4 [5, 64]
00000000: 0400 0000 e63c ab3c 227b e93c 8b0f f8a3
00000010: 0faf 9b3c d6f8 853c 25a2 2c3c f487 d83b
00000020: 5201 c939 0000 0000 0400 0080 21f9 de3c
00000030: 8c5b 653b 40d6 1bb5 5132 273c 50d0 a53c
00000040: 6455 af3c 55f9 763b 9a70 493c 0831 b534
00000050: 1e29 c019 0000 0000 fdf4 273c bc9d 0e3c
00000060: 83d8 af3c 0000 0000 2263 803c 6ef6 c736
00000070: d807 e13b 0400 0000 f0d4 c6ab 8608 d73c
00000080: feae e335 b7ff 823c 5f25 8cb0 4e89 293c
00000090: 91d8 763b bbe6 213d 0400 0000 0000 0000
000000a0: 7e60 3e3c 0000 0000 8d96 a13a bf5e 053d
000000b0: 0a6d 943c b51b 493d 17d8 7433 ec07 c73c
000000c0: 2ad3 4a3c 663e 02b7 9bee 033d 61d4 873b
000000d0: bfb3 433c e782 aab6 f887 0d3d 9fc6 be35
000000e0: 0000 0000 4a7f 813c c3da bc3c e6a4 de39
000000f0: db7c 023d efe7 f93a 0400 0000 0e53 aba5
00000100: 0400 0000 f052 133a b888 9d3a 8b0f f823
00000110: 0911 6a3c d076 373c 0ebd 1a3c 82ac b53b
00000120: b852 3b3a 0000 0000 0400 0080 60b6 a639
00000130: ba3e 9a3a ab07 a636 0041 01b9 d466 883b
00000140: a0f9 bdb9 5ee4 863b c76c be3b 432f b5b4
00000150: 1e29 c019 0000 0000 472a 0b3c 00f1 5639
00000160: 8050 cf3a 0000 0000 d507 963b 6fe1 c036
00000170: 12c8 033c 0400 0000 f0d4 c6ab 7029 8b3a
00000180: 573a 06b6 80ce 1aba 4661 8ab0 e8d4 2b3a
00000190: 3613 383b 4c48 d53b 0400 0000 0000 0000
000001a0: ceb8 153c 0000 0000 2013 86b8 7ca0 8e3b
000001b0: 0070 b0ba 4003 353a a133 6333 807e 8f38
000001c0: 60d7 fb3b c14a 0237 8050 203c 11aa 523b
000001d0: 2821 1c3c e782 aa36 315f 123c 9fc6 beb5
000001e0: 0000 0000 2cea 5b3c eeef eb3b 1030 ff39
000001f0: 10eb 573a 4039 cab7 0400 0080 0e53 ab25
00000200: 0400 0080 5463 dbbc 2fee 10bd 8b0f f8a3
00000210: b455 8bbc 1d2a 94bc 0981 cabb 4a2d c5bb
00000220: 6c29 60b9 0000 0000 0400 0080 fe12 05bd
00000230: 28f8 92bb b359 b736 be0b 56bc 769a a4bc
00000240: 698b d1bc a12d 22ba a92a 20bc e0b5 b5b4
00000250: 1e29 c019 0000 0000 98b4 d1bb 367f 32bc
00000260: 59da d6bc 0000 0000 6816 8bbc cff6 c736
00000270: 9836 d639 0400 0080 f0d4 c6ab 923b f7bc
00000280: a233 d535 0b27 acbc fe6d 6330 f950 53bc
00000290: 6748 38bb eacf 34bd 0400 0000 0000 0000
000002a0: 6b81 31bc 0000 0000 7c46 22bb e28f 1fbd
000002b0: bbfc b2bc 4c3e 6abd bada 7433 da7a ebbc
000002c0: d822 5cbc f94a 02b7 c30e 08bd 4343 b6ba
000002d0: ce3f 3ebc e782 aab6 4caf 0dbd 9fc6 beb5
000002e0: 0000 0000 d0f1 3bbc 5098 b5bc 00d0 023a
000002f0: 00fc 14bd e333 24bb 0400 0000 0e53 ab25
00000300: 0400 0000 d41f 1d3c a2c2 4a3c 8b0f f823
00000310: a995 f23c 9f3c ee3c e09e 663c c056 313c
00000320: b59a b139 0000 0000 0400 0080 d601 313c
00000330: d0d3 903b a1eb b536 20dd a53b c84e 503c
00000340: f66b 053c dd00 323b 0da2 053c 56b4 b5b4
00000350: 1e29 c019 0000 0000 5d9b 683c a0b2 703b
00000360: 9493 1e3c 0000 0000 e9e7 753c e2f6 c736
00000370: 03dc c03b 0400 0000 f0d4 c62b ac14 323c
00000380: 8789 47b5 e359 163c 803d 64b0 266c bf3b
00000390: b26a a43b 0abb ed3c 0400 0000 0000 0000
000003a0: 1205 933c 0000 0000 8f52 4a3b 3588 bd3c
000003b0: f863 1d3c 3803 a43c bada 7433 aaa5 153c
000003c0: 4d5f 9a3c a655 0237 7dd8 e63c 7ede c23b
000003d0: 3829 9b3c e782 aab6 cf41 c73c 9fc6 beb5
000003e0: 0000 0000 59c9 bb3c f023 983c 9c0a d139
000003f0: 1225 333c 39a8 803a 0400 0080 0e53 ab25
6e-45 0.020903062 0.028501097 -2.6894797e-17 0.019004373 0.016354006 0.010536705 0.0066080038
0.0003833869 0.0 -6e-45 0.027218403 0.0034997193 -5.8053774e-07 0.010204867 0.020240933
0.021403022 0.0037685235 0.012294913 3.3749552e-07 1.9868942e-23 0.0 0.010251281 0.008704599
0.021465546 0.0 0.01567227 5.9593503e-06 0.00686739 6e-45 -1.4127848e-12 0.026249181
1.6963747e-06 0.015991075 -1.0196962e-09 0.010347677 0.0037665705 0.039526682 6e-45 0.0
0.011619685 0.0 0.0012328193 0.03256106 0.0181184 0.04909869 5.700721e-08 0.02429577
0.012379447 -7.763132e-06 0.032209974 0.0041451906 0.01194471 -5.081634e-06 0.034553498 1.421391e-06
0.0 0.015807766 0.023053532 0.00042466 0.031857353 0.0019066314 6e-45 -2.9720051e-16
6e-45 0.00056199636 0.0012018895 2.6894797e-17 0.014286288 0.011197761 0.009444488 0.005544246
0.000714581 0.0 -6e-45 0.00031797867 0.0011767962 4.948078e-06 -0.00012326613 0.0041626487
-0.00036234874 0.004116579 0.005811307 -3.3748265e-07 1.9868942e-23 0.0 0.008493966 0.0002049841
0.0015816838 0.0 0.0045785704 5.74829e-06 0.008043306 6e-45 -1.4127848e-12 0.0010617208
-2.0001514e-06 -0.00059054047 -1.0068468e-09 0.0006554858 0.0028087622 0.0065088626 6e-45 0.0
0.009138299 0.0 -6.39318e-05 0.0043526273 -0.0013461113 0.00069050863 5.2899512e-08 6.842334e-05
0.007685587 7.766009e-06 0.009784818 0.0032144825 0.009529389 5.081634e-06 0.008933828 -1.421391e-06
0.0 0.01342253 0.0072002327 0.000486732 0.0008236626 -2.4106936e-05 -6e-45 2.9720051e-16
-6e-45 -0.026780762 -0.0353834 -2.6894797e-17 -0.01700864 -0.018086487 -0.006179933 -0.006017362
-0.00021377736 0.0 -6e-45 -0.032488815 -0.004485149 5.4642674e-06 -0.013064323 -0.020093184
-0.025579171 -0.0006186609 -0.009775796 -3.384621e-07 1.9868942e-23 0.0 -0.0063997023 -0.010894587
-0.026227163 0.0 -0.016978458 5.9593945e-06 0.00040857936 -6e-45 -1.4127848e-12 -0.030179773
1.5884764e-06 -0.02101471 8.2738427e-10 -0.012897723 -0.0028119327 -0.044143595 6e-45 0.0
-0.010834078 0.0 -0.002476125 -0.038955577 -0.021849027 -0.057188317 5.7009608e-08 -0.028745104
-0.013436042 -7.76606e-06 -0.033217203 -0.0013905544 -0.011611892 -5.081634e-06 -0.034591004 -1.421391e-06
0.0 -0.011471227 -0.022167355 0.0004990101 -0.03637314 -0.002505534 6e-45 2.9720051e-16
6e-45 0.009590108 0.012375506 2.6894797e-17 0.02961238 0.02908164 0.014075965 0.0108239055
0.00033875337 0.0 -6e-45 0.01080366 0.0044197813 5.421651e-06 0.0050617605 0.012714095
0.008143416 0.002716116 0.008156312 -3.384509e-07 1.9868942e-23 0.0 0.014197198 0.0036727563
0.00967874 0.0 0.015008905 5.959403e-06 0.0058856024 6e-45 1.4127848e-12 0.010869186
-7.4333406e-07 0.009176704 -8.3033314e-10 0.0058417497 0.005017602 0.029019851 6e-45 0.0
0.017946754 0.0 0.0030871963 0.023136238 0.009606354 0.020021066 5.7009608e-08 0.009133736
0.018844271 7.768545e-06 0.028179402 0.0059469333 0.018940553 -5.081634e-06 0.024323372 -1.421391e-06
0.0 0.022923158 0.018571824 0.0003987149 0.010934131 0.0009815759 -6e-45 2.9720051e-16

momentum_buffer f4 [5]
00000000: d2a6 c63d 604b 363c c6fb e9bd f490 8e3d
00000010: 3a8e 04bd
0.09699787 0.011126369 -0.11424975 0.06961241 -0.0323622

conv1.weight f4 [10, 5, 4]
00000000: ed90 2abe de69 5c3e a3b6 be3e 99f0 7dbe
00000010: fb8e 15be 6351 86bd af7a f53c 6107 753d
00000020: 524e 823d 6b4d 6dbe 1caf 823d 520d 3f3e
00000030: 8275 40be e7ca 073d 6314 12be 5019 073e
00000040: 43cc 183d f7e1 22be e709 1a3e 476e ecbd
00000050: 25b1 25be 11fd 1dbe 2ad5 fcbc e576 973d
00000060: 172a 26bc a1ca 58be d1ca debd d56b 6e3e
00000070: de78 7e3c c6ad 373d 8ac4 173d c781 4dbe
00000080: 8f63 383e 5721 62be 2332 883d 67f5 043d
00000090: 8340 34be 33fd f2bd f154 2c3e d0dd a63d
000000a0: f9d9 b23e 1db9 ff3d eb83 c83e 3228 253c
000000b0: 5d84 f83d 5933 1b3d 48cc 773c 209d 5f3e
000000c0: be02 d4bc 7c75 0fbe 715d 05be dc1e 1c3e
000000d0: d73e 563d 26a1 fd3d 74f6 5f3e 5e27 fb3d
000000e0: cb76 20be 89a5 61be 1831 40be c19a ed3c
000000f0: 6284 81bd 671a 25be 41c6 283e ca54 edbd
00000100: 3aa4 893e bef7 2c3e 3c46 18be 715b 1d3e
00000110: 4df4 80bc 63fb 18bb eec9 303e 8aee 1fbc
00000120: 076e 1fbe a9aa 99bd 6129 2f3e 1283 6a3e
00000130: 0ce6 f0bd 5d26 bbbc 487d 5e3d 405d 05be
00000140: 0894 76bd 9dd1 a83e 551f 80be 1a89 8bbe
00000150: b837 d6bd 8b5a e23d eb48 453d 0eb3 fe3d
00000160: b512 11bd 74e3 d7bd 30cd 0abd 98bd d4bd
00000170: 678a 453d 2a93 4dbe 4e3b 1bbe f75c d7bd
00000180: 4d45 a93c 6477 16bd d09e d9bd 0ebc e4bd
00000190: 1f93 2c3e e1d8 ba3e d3f9 5abe 2e9d 95be
000001a0: b5ed 823d 9f0c 473e 68a6 b33d f608 52bd
000001b0: 078f 5c3e 0d1a c9bd 2b88 1dbe 88ef 29be
000001c0: 55ef cdbd db83 a83d 2ec5 05be 87bb 873c
000001d0: 2ffd 4f3d 7351 d73d 9c17 83bc 1300 c0bd
000001e0: b7a4 d73e 9069 ebbd bebd 69be d880 8fbd
000001f0: 8425 09be 634c 2e3e d6da 253c 7558 12be
00000200: b53a 08be 1960 833d 3304 01be e78e 84bd
00000210: b917 d9bc 5cb8 323e 1407 193e 61d9 0e3e
00000220: e3a6 28bd b84b dcbd 7ae5 da3d 427f c83d
00000230: 624f 16bd 905c b53d 2c6a 6d3e 1f71 3bbe
00000240: fc0c 873d debb e5bd 8584 4a3e 60e9 7abe
00000250: 77c7 373e 7926 c53d 7570 f6bd 2eb0 c7bd
00000260: 3bcc cbbd b5b3 16be e78b 4cbe 630e 543d
00000270: 87a6 73be 4a82 68be f0f2 3e3d 11d8 6abe
00000280: b950 803e 3db1 573e 984d 033d eb0e 323f
00000290: e6ae 01bc 5f46 6fbd 3c14 f5bd bc86 41be
000002a0: 5add 88bc d688 17be dcdd 2abe d0ff f23c
000002b0: 551b 123e 6b62 a63d 92e3 c9bd b12c d9bd
000002c0: 69e0 3f3d 3350 223e 2946 553d 4ce8 9bbd
000002d0: e3aa 1bbe 2bab 40be 0090 19be f905 7e3d
000002e0: eb87 70be f50a d2bd 4ae2 3a3e d976 3abe
000002f0: 7661 52be 20c0 5c3d 568a aa3d ebb9 153d
00000300: 7956 0bbe a529 debb 2396 193d caff 89bd
00000310: ad2b ddbd 0678 1bbe 23c1 53bd 11e8 d53d
-0.16656847 0.2152476 0.37248716 -0.24798812 -0.14605324 -0.06558492 0.029965727 0.05982149
0.06362595 -0.23174064 0.06381056 0.18657425 -0.18794826 0.033152487 -0.1426559 0.1319325
0.037304174 -0.15906511 0.1504284 -0.11544471 -0.16180857 -0.15428568 -0.030863363 0.07395724
-0.010141871 -0.21171047 -0.10878528 0.23283322 0.015531747 0.044843458 0.03705267 -0.20069037
0.18006729 -0.2208303 0.06650188 0.032460596 -0.17602734 -0.118647 0.16829278 0.08147776
0.34931925 0.124864794 0.39163145 0.010080384 0.12134621 0.037890766 0.015124388 0.21837282
-0.025880214 -0.1400966 -0.13023926 0.15246147 0.052306022 0.12384252 0.21871358 0.12263368
-0.15670316 -0.22035803 -0.18768728 0.029004456 -0.06324078 -0.16123353 0.16481878 -0.11588438
0.26883107 0.16891381 -0.14870542 0.15366913 -0.015741492 -0.0023343198 0.1726453 -0.009761462
-0.15569316 -0.07503254 0.17105629 0.22901562 -0.11762628 -0.022845441 0.054318696 -0.13023853
-0.060199767 0.32972422 -0.25023904 -0.27253038 -0.10459846 0.11052426 0.048165243 0.12436496
-0.03541823 -0.1054143 -0.03388709 -0.10387725 0.048227694 -0.2007567 -0.15159342 -0.105157785
0.020662928 -0.036734954 -0.10625994 -0.11168681 0.16852997 0.3649359 -0.21384363 -0.2922148
0.06392995 0.19438408 0.08771974 -0.051278077 0.21538936 -0.09819422 -0.15383975 -0.1659528
-0.100554146 0.082282744 -0.130635 0.016568912 0.050778564 0.10513582 -0.016002469 -0.09375014
0.42117855 -0.11494744 -0.22826287 -0.07006997 -0.13393217 0.17021327 0.010122975 -0.14291556
-0.13303645 0.064148135 -0.12599258 -0.06472569 -0.02650057 0.1745314 0.14944106 0.13950111
-0.04117478 -0.1075663 0.106883004 0.097898975 -0.0366968 0.088555455 0.23185033 -0.18304871
0.065942734 -0.112174734 0.19777115 -0.24503088 0.17947184 0.09626479 -0.12033168 -0.097504005
-0.09951063 -0.1471699 -0.19975244 0.051771533 -0.23793994 -0.22705951 0.046618402 -0.22933985
0.25061586 0.21063705 0.03205642 0.69554013 -0.007915234 -0.05841672 -0.1196675 -0.18899053
-0.016707111 -0.14798293 -0.16686195 0.029662997 0.14268239 0.081242405 -0.09857859 -0.10604227
0.046844874 0.15850906 0.052068863 -0.076126665 -0.15201907 -0.18815295 -0.14996338 0.062017415
-0.23489349 -0.10255996 0.18250385 -0.182094 -0.20544991 0.053894162 0.08327167 0.03655426
-0.13607205 -0.0067798668 0.037496697 -0.06738241 -0.10799346 -0.15182504 -0.05169786 0.10444654

conv1.bias f4 [10]
00000000: 31be b23d 104e 0e3c 98de 0a3e 02c2 07be
00000010: 3dc1 03be 3d33 f1bd 2e77 443e 5faa 6d3e
00000020: 7078 0c3d 87ba 9b3d
0.087276824 0.008685604 0.13561475 -0.13257602 -0.12866683 -0.11777351 0.19186088 0.23209523
0.034294546 0.07603937

fc0.weight f4 [64, 610]
00000000: 2440 02bc 1693 503c fcaf c73c e877 19bd
00000010: 9bbc 96bc a1ba ac3c 6dc0 583c 8f69 103d
00000020: 3960 c9bb 4512 94bc a68b 1c3d 0de6 00bd
00000030: eb1b 123d 3866 9b3b 6358 25bd 1e8b d5bc
00000040: de31 27bd 6dff f9bc 8eac 21bc 00d5 fc3b
00000050: c480 a63b 5016 0b3d 93f4 da3b 4526 bb3c
00000060: b29b e63b 598d ce3c eef2 fe3c c5c7 d4bb
00000070: 061f 003c 1d0c 8dbc 1817 913c a1a8 09bd
00000080: 9792 1ebd dfe6 ebbc e936 003d d3aa efbc
00000090: e329 10bc f77c d63a 06b4 c3bc f991 b33c
000000a0: a5f3 683a e547 f13c 31fa cdbc c1f1 0dbc
000000b0: f374 0bbd 856f 25bc 43ae 09bd 64aa 03bb
000000c0: 657a 03bd a5ee 10bd cece 1cbd 0b3d 17bd
000000d0: 3725 1dbd 5fff febc a2a4 0c3d b706 f33c
000000e0: 645e 013c 78ff 26bd a055 0abd a91e 0cbd
000000f0: 14bd 89bc 33a1 e4bc 4e1f 4cbb 0568 643b
00000100: 4a39 b5bc b7e2 79bc 4a0d 05bc b24f 1bbd
00000110: c829 d7bc 0c9c c3bc ea1b be3c c51f f7bc
00000120: 4e47 5a3c 217c 5ebc 6bf8 e23c 9562 05bd
00000130: 7dbe c53c 9b8f 4ebc 8b7b 84bc 1943 0a3d
00000140: 001f 9b3c 4dc2 c33b d891 d43c ff77 b5bc
00000150: ae2d d63c 63aa c43c 419a 093d 3273 1f3d
00000160: 09d1 eaba 9520 9e3a a1f8 02bd 2bc6 a63c
00000170: 2d4f 7cbc 9ff0 03bd 1d3c 0b3c bdc2 c33c
00000180: b4c0 f539 048e 083d f76b 053d a0c2 9e3c
00000190: 6b4c 1f3d 2f7a 9ebc 3432 d53c a88a b2bc
000001a0: d880 eabc 9221 afbc 3bab d6bc cfa0 b5bb
000001b0: 32db 3e3c a697 673b 6ac5 08bc c92a bd3c
000001c0: 49e1 fabb 2b48 e7ba 11d6 8a3c 56a7 05bd
000001d0: 5b02 13bd fa93 ebbb 17fc 02bd 8b89 173c
000001e0: f2b7 243d 6cff 103d d325 01bd 7a18 b93c
000001f0: 222e c73a cd64 88bc b20a bfbc 3081 db37
00000200: 2fc5 343a 5c21 113d b896 85bb 9bec b33b
00000210: f8a5 64bc addf dbbc 2046 203c 97b9 c23a
00000220: 6359 683c b763 b83c 14f5 653c 737f 5d3c
00000230: 9897 fd3c 74a1 47bb 85e8 a23c 6151 d6bb
00000240: ed13 073d ec9a 01bc de1b d6bc 0fc5 083b
00000250: 0f17 adbc 872d db3a 104e 5b3c f450 6e3c
00000260: 14e0 15bd b33f c6ba bc27 13bd 3539 e8bc
00000270: 8e4b ef3c 375b 4c3c fd1a b43c 7eef fdbc
00000280: fcf0 1c3d 5d65 09bc f368 1d3d 9a5f e4bb
00000290: 3e42 933c 0b5f f53c 0e16 04bd afb3 06bd
000002a0: eb9c e43c 1d36 4dbc 3ea8 5fbc 9bd2 5d3c
000002b0: d41a 36bc f1f4 32bc 4a75 c2bc 3926 e83c
000002c0: 8bea 11bd 42d0 b3bc c770 4dbc c405 c3bc
000002d0: fd24 90bc 3312 f73c 75f7 9e3c 329d 8abc
000002e0: 714b 793c fd87 8abc 0699 e6bc e11c 063d
000002f0: 706a d53c 047d 183d 0993 cdbc f315 a33c
00000300: 9e0e 9ebc e336 403a c518 1a3d cce5 0f3d
00000310: 1c32 24bd 33b1 1abd 93a2 463c 64b7 9fbc
00000320: f04b da3b 1cfe fcbc a9c2 043c d90b 1b3d
00000330: 8333 eb3c 8693 053d 6870 0b3d 5336 cebb
00000340: a3e5 cd3c d88b fe3c 6aa4 6ebc e446 113d
00000350: f780 63bc 43b4 cabc cbed 923b 2e43 f03c
00000360: f211 bdbc 178d a7bc f989 eb3c 1b95 203c
00000370: 9efb 80ba 24cd c43c a2a4 173b 17b5 b7bc
00000380: 22b2 193d 3918 6eba 061c 4d3c c83e b9bc
00000390: e141 09bd b919 a83c 4aad 183d c5bd eaba
000003a0: b8a3 4bbc 49fb f33a c22d fcbc f5cd e83c
000003b0: 2288 af3b 538b b0bc 141b 4dbb 3c9f 9cbc
000003c0: 98de 7c3c 468d fb3c 5b21 1ebd 317c 80bb
000003d0: 2e21 1d3d 09ae 213d 59ca 2d3c 6730 94bc
000003e0: 87a7 de3b 0139 cd3c 5db4 8dbb f593 ee3c
000003f0: 9c7c ff3c 02ac ff3b 0d1a 943c 97f4 05bb
-0.007949863 0.0127303805 0.024375908 -0.037467867 -0.018400481 0.021085085 0.013229472 0.03525692
-0.006145504 -0.018075118 0.038219117 -0.031469394 0.035671156 0.00474241 -0.040367495 -0.026067313
-0.04081904 -0.030517304 -0.0098678 0.0077158213 0.005081268 0.033956826 0.0066819876 0.022845397
0.0070376033 0.025213884 0.031121697 -0.006493541 0.007819897 -0.01721769 0.017711207 -0.033608083
-0.038714018 -0.028796611 0.031302366 -0.02925626 -0.008799049 0.0016364147 -0.023889553 0.021920191
0.00088864035 0.029453227 -0.025143715 -0.008663596 -0.03404708 -0.010097389 -0.033613455 -0.0020090574
-0.032099146 -0.03538384 -0.03828316 -0.03692345 -0.03836557 -0.03112763 0.034336694 0.029666288
0.00789604 -0.040770978 -0.033773065 -0.034208927 -0.016813792 -0.027908897 -0.0031146589 0.003485204
-0.022122044 -0.015251807 -0.008120844 -0.0379178 -0.02626504 -0.02387812 0.02320667 -0.030166516
0.013322664 -0.013579399 0.027706346 -0.03256472 0.024138683 -0.01260748 -0.016172191 0.033755396
0.01893568 0.00597409 0.02594845 -0.022151945 0.026144829 0.024007028 0.033594374 0.03892822
-0.001791508 0.0012064154 -0.031975392 0.020358166 -0.015399736 -0.032211896 0.008498219 0.02389657
0.00046873617 0.03333856 0.032573666 0.019379914 0.038891237 -0.019345371 0.026024915 -0.021794632
-0.02862589 -0.021378312 -0.026204696 -0.0055428515 0.01164894 0.0035338192 -0.008347848 0.02309169
-0.0076562506 -0.0017645409 0.016947778 -0.032630287 -0.03589092 -0.007189271 -0.031978693 0.009249101
0.040214486 0.03539984 -0.031530213 0.02259468 0.0015196244 -0.016649628 -0.02332053 2.6166992e-05
0.0006895838 0.035432205 -0.004076805 0.005490852 -0.013955586 -0.026840055 0.009782344 0.0014856335
0.014181468 0.022508485 0.014035482 0.013519156 0.030956075 -0.0030461224 0.019886265 -0.006540463
0.032977987 -0.007910471 -0.026136335 0.002086941 -0.02112916 0.0016721942 0.013385311 0.014545668
-0.03659065 -0.0015125185 -0.035926566 -0.028347591 0.029210832 0.012472919 0.021985525 -0.030997988
0.038315758 -0.008385983 0.038430165 -0.0069694044 0.017975923 0.029952547 -0.032247595 -0.032886203
0.027906856 -0.012525109 -0.013650952 0.013538982 -0.011114795 -0.010922656 -0.023737568 0.028338538
-0.03562407 -0.021949891 -0.012539095 -0.02380646 -0.017595762 0.030160045 0.019405106 -0.01692066
0.015215741 -0.016910547 -0.02814914 0.032742385 0.02605173 0.0372286 -0.025094526 0.019907927
-0.01929408 0.00073323975 0.03762128 0.03513126 -0.04008685 -0.037766647 0.012123722 -0.019496627
0.0066618845 -0.030882888 0.008103051 0.037853096 0.028711086 0.032611392 0.034042746 -0.006293097
0.025133913 0.031072542 -0.014565567 0.035467997 -0.013885728 -0.024744159 0.0044839135 0.029328909
-0.023079846 -0.020453019 0.028752314 0.0098011745 -0.0009840613 0.0240236 0.00231389 -0.022425218
0.037523396 -0.0009082589 0.012518888 -0.022612944 -0.033510093 0.020520078 0.037274636 -0.0017909339
-0.01242917 0.0018614318 -0.030783538 0.02841852 0.0053568045 -0.02155081 -0.0031296657 -0.019118898
0.01543393 0.030707013 -0.03860603 -0.003921055 0.03836172 0.039472613 0.0106073255 -0.018089486
0.006794873 0.025051596 -0.0043244795 0.029123286 0.031187348 0.0078024874 0.018078828 -0.0020439976
