tb_logs/ConvNet_1_0_2/version_0/checkpoints/epoch=12.ckpt (torch_old, 531836 bytes, 24 tensors)

momentum_buffer f4 [10, 5, 4]
-0.076571 -0.028372776 -0.14009045 0.07791175 -0.007835571 0.01835337 -0.042997196 0.0046970714
-0.0038015263 0.0036248807 0.007584376 -0.0021726734 -0.0013065906 0.00075254147 0.0012676562 0.005951149
-0.0014893278 0.0036628465 0.0014360771 0.005649327 -0.00016650607 -0.006164728 0.0016012207 -9.8826815e-05
8.936388e-05 9.795689e-05 0.0017577929 -0.0007627818 0.00017449005 0.00012036808 0.00019488025 1.19493925e-05
7.219908e-05 0.00012198279 3.1139818e-05 1.1685945e-05 0.00011742962 0.00012198279 0.0008827172 0.00012192773
-0.06678559 -0.16565825 -0.039966248 -0.12641959 0.0039790566 0.012051514 0.017331375 -0.0034695258
0.006760096 0.0087865 0.010953997 0.0035547428 0.0068148803 0.008417272 0.011040212 0.0032312986
0.007331044 0.0076477337 0.010752744 0.0052490747 0.002034648 0.005139641 -0.012946007 0.00083362754
0.0003966702 0.009549472 0.000118341006 0.00037550594 0.0003966702 -0.0010253051 0.00042517803 0.0003696839
0.0003966702 0.0016238802 0.0003966702 0.0003937568 0.0003966702 0.00087774574 0.0003966702 0.0003966702
0.11931909 0.13312456 0.08391774 0.050556034 -0.0028777504 -0.004531876 -0.002190492 -0.005721192
-0.008770924 -0.00804288 -0.0068037966 -0.009845656 -0.0029555769 -0.010001238 -0.010428507 -0.006514649
-0.007903294 -0.009533673 -0.010582554 -0.0065889503 0.04050672 0.10132668 0.037644327 0.076674335
-0.0009604953 0.000707231 -0.019171612 -0.010673687 -0.0039780852 -0.00683001 -0.0027796694 -0.0012664101
-0.0034009654 -0.005842107 -0.0052195904 -0.0020463802 -0.0030491 -0.0055782646 -0.0055675204 -0.0032856334
-0.08573981 -0.11841739 -0.052880444 -0.057155017 0.010211719 0.020875575 -0.025021235 0.012054173
0.002425605 0.005187561 0.0028109387 0.008248136 0.0058924747 0.005725173 0.0064819423 0.0016715778
0.0026700944 0.005689215 0.0053453287 0.005286945 -0.040954396 -0.057847023 0.016281925 -0.04194687
0.0040107826 0.0072684046 -0.00025739102 0.009180439 0.002880955 0.003691318 0.002455546 0.005639855
0.0020711776 0.0065722987 0.00211561 -0.0037067211 0.0020711776 0.0051207584 0.0020711776 -0.001141719
0.0026111898 0.0010217633 0.0082916105 0.0006062825 -0.00058260065 0.0009799585 0.0075513553 0.00038676464
0.0007348156 0.0009800411 0.003027291 0.0007356272 0.0009795107 0.0009795107 0.00012101072 0.0011918348
0.0009795107 0.0009795107 0.0006309207 0.0014322493 0.010943113 0.0043484177 0.008098163 -9.455721e-05
0.0013292697 0.005044187 0.012977331 0.00015318915 0.001105708 0.0013422415 0.005423947 0.00048181278
0.0010748969 0.0015280019 -0.0023495143 0.0004887727 0.0005249156 0.0018270438 -0.00022621019 0.00053327275
00000000: 42d1 9cbd 066e e8bc df73 0fbe 3290 9f3d
00000010: c460 00bc ce59 963c d41d 30bd e4e9 993b
00000020: 0723 79bb 688f 6d3b 5b86 f83b 6963 0ebb
00000030: e841 abba 3446 453a 7c27 a63a db01 c33b
00000040: 8c35 c3ba 5e0c 703b c03a bc3a fd1d b93b
00000050: 2298 2eb9 7d01 cabb 0de0 d13a 3e41 cfb8
00000060: de68 bb38 346e cd38 be65 e63a 6cf5 47ba
00000070: 51f7 3639 1f6e fc38 c558 4c39 407a 4837
00000080: 9669 9738 03d1 ff38 209c 0238 c00e 4437
00000090: 8c44 f638 03d1 ff38 2666 673a 74b3 ff38
000000a0: e2c6 88bd 51a2 29be a6b3 23bd 2374 01be
000000b0: bf62 823b b773 453c 87fa 8d3c fc60 63bb
000000c0: cc83 dd3b 41f5 0f3c 6578 333c b0f6 683b
000000d0: 5c4f df3b 99e8 093c 01e2 343c 32c4 533b
000000e0: 4139 f03b d799 fa3b 472c 303c 6e00 ac3b
000000f0: bb57 053b 6f6a a83b 7d1b 54bc cc87 5a3a
00000100: 2cf8 cf39 6375 1c3c d82d f838 8edf c439
00000110: 2cf8 cf39 8863 86ba 6eea de39 22d2 c139
00000120: 2cf8 cf39 61d8 d43a 2cf8 cf39 2571 ce39
00000130: 2cf8 cf39 8518 663a 2cf8 cf39 2cf8 cf39
00000140: 915d f43d ce51 083e 10dd ab3d d813 4f3d
00000150: a498 3cbb 2280 94bb 5c8e 0fbb d678 bbbb
00000160: ecb3 0fbc 49c6 03bc 62f2 debb ad4f 21bc
00000170: 5ab2 41bb 3cdc 23bc 54dc 2abc d678 d5bb
00000180: d17c 01bc 1f33 1cbc 7362 2dbc 1fe8 d7bb
00000190: 60ea 253d 5d84 cf3d f030 1a3d 6f07 9d3d
000001a0: c0c9 7bba 7865 393a c90d 9dbc b0e0 2ebc
000001b0: 995a 82bb 47ce dfbb 1d2b 36bb acfd a5ba
000001c0: bbe2 5ebb 256f bfbb 1909 abbb 901c 06bb
000001d0: 69d3 47bb e0c9 b6bb bf6f b6bb c853 57bb
000001e0: 5a98 afbd d184 f2bd 2a99 58bd 611b 6abd
000001f0: 0e4f 273c 4103 ab3c 55f9 ccbc de7e 453c
00000200: e6f6 1e3b 6afc a93b ba37 383b 3123 073c
00000210: a915 c13b 3b9a bb3b 7966 d43b d818 db3a
00000220: c0fc 2e3b 986c ba3b de27 af3b 1c3e ad3b
00000230: ccbf 27bd 00f1 6cbd ac61 853c 7bd0 2bbd
00000240: e26c 833b cc2b ee3b 70f2 86b9 8d69 163c
00000250: 68ce 3c3b 0aea 713b 3aed 203b 88ce b83b
00000260: 98bc 073b 705c d73b 0ca6 0a3b 76ec 72bb
00000270: 98bc 073b 09cc a73b 98bc 073b bca5 95ba
00000280: 7f20 2b3b b0ec 853a 89d9 073c eeee 1e3a
00000290: abb9 18ba f371 803a 5c71 f73b acc6 ca39
000002a0: a4a0 403a b974 803a 8465 463b 1bd7 403a
000002b0: ed62 803a ed62 803a 23c7 fd38 5737 9c3a
000002c0: ed62 803a ed62 803a 5f64 253a 50ba bb3a
000002d0: be4a 333c 2c7d 8e3b 28ae 043c 044d c6b8
000002e0: e43a ae3a b549 a53b df9e 543c 66a1 2039
000002f0: 67ed 903a 27ee af3a 5dbb b13b d19b fc39
00000300: 8ee3 8c3a 3c47 c83a 4ffa 19bb fb20 003a
00000310: 7d9a 093a 6b79 ef3a d632 6db9 54cb 0b3a

momentum_buffer f4 [10]
-0.0145441955 -0.0004842449 -0.036682904 -0.0015746986 0.03133391 0.022101965 -0.022547478 -0.00822217
-0.003888457 -0.0021169763
00000000: c74a 6ebc 40e2 fdb9 d040 16bd 1e66 ceba
00000010: fc57 003d 2e0f b53c 7db5 b8bc 48b6 06bc
00000020: 7cd5 7ebb f8bc 0abb

momentum_buffer f4 [64, 290]
-0.020141767 -0.009743772 -0.012876794 -0.011244182 -0.020260256 -0.010985832 -0.01476025 -0.01221051
-0.02114921 -0.010535517 -0.015693255 -0.011063889 -0.02097198 -0.00942002 -0.013859861 -0.011398298
-0.01914911 -0.0101246275 -0.013416904 -0.011909755 -0.018731125 -0.010391961 -0.01113684 -0.01106153
-0.016292877 -0.01025939 -0.013903216 -0.012952568 -0.01859909 5.778377e-05 -0.00011665974 -5.6884517e-05
6.190526e-05 -6.475552e-05 -0.00040345124 -2.7364878e-05 -0.00027996307 -8.135923e-05 -5.5090502e-05 -0.00011400111
-0.00020693286 0.00020018147 -5.9603102e-05 0.000120780496 -0.00014539679 -5.254032e-05 -0.00015006674 -7.8705e-05
0.00016812036 6.593941e-05 -0.00025621132 0.00012760983 -0.00034422966 1.5758415e-05 -6.328189e-05 0.0001227905
-0.0005527454 0.00011997646 -0.002154859 -0.009838185 -0.0033432597 -0.006963366 -0.0021475714 -0.010537885
-0.0037942163 -0.0065154405 -0.0020032066 -0.011242237 -0.0030100811 -0.007895945 -0.0015331967 -0.010772913
-0.0032334125 -0.006183191 -0.0024234825 -0.009581293 -0.0037204062 -0.006415819 -0.0025283056 -0.008635786
-0.0041124113 -0.0045383084 -0.0029033227 -0.0099295145 -0.004234654 -0.003521095 -0.004142219 -0.00027703482
7.368002e-05 2.2187596e-05 0.00035568158 -1.4927227e-05 9.0218964e-05 0.0001621335 0.00078196573 5.2102027e-05
0.00043042295 0.0003296552 9.657634e-05 0.000399698 -0.00043778887 3.1867276e-05 4.227288e-05 -0.0001025316
-0.00011763189 0.00018321417 -0.00012921407 -5.5605247e-05 -0.0007598363 -0.0002598268 -7.9045385e-05 -0.00068206264
-7.757114e-05 -0.0004698656 -0.0003028189 -3.9115388e-05 -0.01188645 -0.00019818936 -0.0010849041 -0.0054182704
-0.012697764 -0.0012121774 -0.0020368833 -0.006089936 -0.01313131 -7.96658e-05 -0.002708487 -0.0052726874
-0.012219766 -5.3672993e-06 -0.0015881344 -0.005920275 -0.011602234 -0.00018529456 -0.0014361901 -0.0059563667
-0.011052913 -0.0012529093 8.883432e-05 -0.006194239 -0.010449517 -0.00043855055 -0.0024392772 -0.007584662
-0.008415584 -0.0043391436 -0.004915653 -0.006715625 -0.00935765 -0.0052900296 -0.0049076774 -0.0072379643
-0.009733283 -0.0047799754 -0.0057252175 -0.0065961224 -0.008711714 -0.004588324 -0.0047417176 -0.0072359187
-0.008946086 -0.0048513925 -0.0050451653 -0.006659366 -0.008578951 -0.0047843875 -0.0037241732 -0.0064534782
-0.008051507 -0.004653394 -0.0051620887 -0.007865615 -0.01000624 -0.0036416585 -0.012842732 -0.011314096
-0.020796323 -0.0075843805 -0.012782711 -0.011565473 -0.022706214 -0.00864791 -0.012476595 -0.011793967
-0.022594884 -0.006391776 -0.014209608 -0.0099158995 -0.022772813 -0.0069545126 -0.012627274 -0.011472847
-0.020361636 -0.0076776627 -0.011892121 -0.010705142 -0.019238725 -0.008208673 -0.0090373475 -0.013503313
-0.020135479 -0.008260579 -0.010781415 8.886762e-05 -0.0039866506 8.525571e-05 -0.0061320215 -0.000296935
-0.0038894173 -4.2657633e-05 -0.0062851463 0.0002376233 -0.0055744094 0.0007633844 -0.0060708076 6.0340426e-06
-0.0038665142 5.4780412e-05 -0.005225554 -0.00015772234 -0.0037481328 9.651577e-05 -0.0046469034 -0.00015077584
-0.001680854 -0.00011912115 -0.0035622728 -0.00041532106 -0.0038431734 -6.342758e-05 -0.0049471837 -0.00042005253
0.000378038 9.000879e-05 8.8126406e-05 7.6837e-05 0.00012752063 0.00017329045 0.0006725283 0.00010363571
0.00017814069 0.00022363853 5.5226017e-05 5.3770775e-05 0.00034677636 -6.434966e-05 0.00034685517 -0.0002010512
-0.00015541045 -3.07185e-06 -0.00019610324 -0.00015178371 -7.585359e-05 -0.00012407299 0.0002996016 -0.0002546341
00000000: 5900 a5bc 58a4 1fbc 30f9 52bc 8439 38bc
00000010: d6f8 a5bc ebfd 33bc fad4 71bc 970e 48bc
00000020: 1c41 adbc 299d 2cbc 248f 80bc 5045 35bc
00000030: 6ecd abbc 6d56 1abc 7814 63bc edbf 3abc
00000040: 98de 9cbc c4e1 25bc 93d2 5bbc 2221 43bc
00000050: 0472 99bc 0b43 2abc 4b77 36bc 6b3b 35bc
00000060: a478 85bc 0017 28bc 51ca 63bc 0237 54bc
00000070: 1e5d 98bc da5c 7238 39a7 f4b8 4997 6eb8
00000080: 22d3 8138 5bcd 87b8 4f86 d3b9 a18d e5b7
00000090: 02c8 92b9 679f aab8 fa10 67b8 e113 efb8
000000a0: 1efc 58b9 cee7 5139 58fe 79b8 894b fd38
000000b0: a775 18b9 bd5e 5cb8 3c5b 1db9 6d0e a5b8
000000c0: 7749 3039 f448 8a38 1a54 86b9 01cf 0539
000000d0: b979 b4b9 f030 8437 35b6 84b8 53c1 0039
000000e0: 1ee6 10ba df9b fb38 8938 0dbb 5730 21bc
000000f0: 971a 5bbb f32c e4bb 45be 0cbb 18a7 2cbc
00000100: 63a8 78bb 7a7f d5bb 3b48 03bb 5c31 38bc
00000110: c844 45bb fe5d 01bc 8bf5 c8ba df80 30bc
00000120: a9e7 53bb 5e9c cabb 4ad3 1ebb dbfa 1cbc
00000130: 0fd2 73bb ca3b d2bb eeb1 25bb 1d7d 0dbc
00000140: 68c1 86bb 17b6 94bb ac45 3ebb 67af 22bc
00000150: dac2 8abb 2cc2 66bb 74bb 87bb fc3e 91b9
00000160: a984 9a38 801f ba37 c67a ba39 f46f 7ab7
00000170: f033 bd38 6102 2a39 d5fc 4c3a 2088 5a38
00000180: 64aa e139 92d5 ac39 0789 ca38 8f8e d139
00000190: 0787 e5b9 3aa9 0538 294e 3138 3c06 d7b8
000001a0: 24b1 f6b8 2e1d 4039 a37d 07b9 ae39 69b8
000001b0: c02f 47ba 5d39 88b9 2bc5 a5b8 73cc 32ba
000001c0: b0ad a2b8 4b58 f6b9 aac3 9eb9 d40f 24b8
000001d0: 63bf 42bc 0dd1 4fb9 5733 8eba bf8b b1bb
000001e0: 480a 50bc ede1 9eba 3b7d 05bb 168e c7bb
000001f0: b524 57bc 4012 a7b8 df80 31bb 82c6 acbb
00000200: 6a35 48bc c018 b4b6 f328 d0ba defe c1bb
00000210: 4c17 3ebc a14b 42b9 8b3e bcba a02d c3bb
00000220: 4717 35bc a938 a4ba 904c ba38 0bf9 cabb
00000230: 7334 2bbc 42ed e5b9 48dc 1fbb c288 f8bb
00000240: 85e1 09bc 602f 8ebb 7c13 a1bb bf0e dcbb
00000250: d450 19bc fc57 adbb 95d0 a0bb 722c edbb
00000260: 5978 1fbc 57a1 9cbb 9b9a bbbb 4924 d8bb
00000270: 94bb 0ebc a759 96bb 6960 9bbb 491b edbb
00000280: 9b92 12bc 6ef8 9ebb ea51 a5bb d036 dabb
00000290: ba8e 0cbc 5ac6 9cbb 4211 74bb b377 d3bb
000002a0: 78ea 03bc 807b 98bb bd26 a9bb c8de 00bc
000002b0: 36f1 23bc e4a8 6ebb 526a 52bc c25e 39bc
000002c0: 0d5d aabc 6586 f8bb 936e 51bc 1c7d 3dbc
000002d0: 6202 babc f7af 0dbc a26a 4cbc 7c3b 41bc
000002e0: e818 b9bc 1a72 d1bb 6acf 68bc 4c76 22bc
000002f0: 0d8e babc aee2 e3bb a0e2 4ebc 9cf8 3bbc
00000300: 72cd a6bc e794 fbbb 2cd7 42bc 9f64 2fbc
00000310: 889a 9dbc ac7d 06bc 6211 14bc 003d 5dbc
00000320: 29f3 a4bc 6157 07bc 88a4 30bc 715e ba38
00000330: 73a2 82bb 50cb b238 20ef c8bb f1ad 9bb9
00000340: 98e5 7ebb 49eb 32b8 a1f3 cdbb 852a 7939
00000350: 89a9 b6bb dc1d 483a a0ed c6bb 0878 ca36
00000360: 5865 7dbb 05c4 6538 203b abbb 4562 25b9
00000370: 3ca3 75bb 8268 ca38 0d45 98bb 9519 1eb9
00000380: 1a50 dcba aed0 f9b8 0575 69bb 73bf d9b9
00000390: c0dd 7bbb 6c04 85b8 fc1b a2bb 7f3a dcb9
000003a0: 6733 c639 1ac3 bc38 81d0 b838 8d23 a138
000003b0: 0fb7 0539 4db5 3539 9c4c 303a 0057 d938
000003c0: 47cb 3a39 8380 6a39 7ca2 6738 ee87 6138
000003d0: 89cf b539 76f3 86b8 1dda b539 45d1 52b9
000003e0: adf5 22b9 fb25 4eb6 10a1 4db9 2128 1fb9
000003f0: 9613 9fb8 9719 02b9 d913 9d39 6980 85b9

momentum_buffer f4 [64]
-0.0034927262 -0.0011555568 -0.00019097039 0.0005546358 -0.00020996711 -0.0024683378 -0.00017924144 -0.015517639
-0.00046324765 0.00042348896 0.00012142787 -0.02891432 -0.005253555 0.013671599 -0.0038531173 -0.0040432634
0.007983796 0.00016903065 -0.0002072363 0.0016438079 -0.00082980795 -0.001256842 0.0130268065 -0.0012748961
0.0124071855 0.000100012985 -0.0014344773 0.024254639 -0.00019279767 -0.00014835586 1.468806e-05 0.00035349283
-0.014350786 0.00020658116 -0.00931376 0.00036163567 -0.00074040005 -0.006483659 -0.018007908 -1.3299494e-05
0.00029271242 -0.0053038676 7.647241e-05 -0.0010715947 -0.00042760005 -0.009910823 0.0017952425 -0.0033014445
0.0005745333 0.0026659465 0.009991953 -0.02471735 2.534326e-05 0.017227484 -0.0009152705 0.0013827136
0.0023948117 -0.00034296545 -0.0025400473 0.001909305 0.0062896376 0.0003562049 -0.003449683 0.0
00000000: 39e6 64bb 0d76 97ba 393f 48b9 fa64 113a
00000010: 9e2a 5cb9 d6c3 21bb c2f2 3bb9 b23d 7ebc
00000020: 0ce0 f2b9 ba07 de39 17a7 fe38 b9dd ecbc
00000030: 0326 acbb d8fe 5f3c 9584 7cbb 5a7d 84bb
00000040: 78ce 023c d23d 3139 924d 59b9 0a75 d73a
00000050: 7887 59ba 9fbc a4ba 636e 553c 6a1a a7ba
00000060: 8247 4b3c 10be d138 1205 bcba aab1 c63c
00000070: bb29 4ab9 f98f 1bb9 bd6c 7637 0155 b939
00000080: 8f1f 6bbc b59d 5839 be98 18bc eb99 bd39
00000090: 6817 42ba e074 d4bb 5285 93bc e420 5fb7
000000a0: 3277 9939 11cc adbb d05f a038 c074 8cba
000000b0: 822f e0b9 0161 22bc 584e eb3a 0c5d 58bb
000000c0: 479c 163a 29b7 2e3b 4ab5 233c 0a7c cabc
000000d0: 3d98 d437 a720 8d3c c3ee 6fba 2b3c b53a
000000e0: 46f2 1c3b 0bd0 b3b9 ec76 26bb a541 fa3a
000000f0: 4e19 ce3b 03c1 ba39 1414 62bb 0000 0000

momentum_buffer f4 [10, 1, 4]
-0.0040604603 -0.01836278 -0.00013503863 -0.01800422 -0.026895663 -0.01662856 -0.0052251182 -0.038335055
-0.0047877887 -0.048962966 -0.014936049 -0.007523142 -0.02832165 0.0027438689 -0.020906877 -0.026456717
-0.0057292134 -0.05321637 -0.003964887 -0.009255247 -0.015638059 0.000134356 -0.0002928162 0.0016844395
-0.01160202 -0.03604468 -0.019391026 -0.009730844 -0.004749556 -0.04633153 -0.022495024 -0.017272532
-0.0032753185 0.014706718 -0.0019033009 -0.009844942 -0.00018585095 0.0054918556 0.003876749 0.013714809
00000000: 9c0d 85bb 8a6d 96bc 2899 0db9 967d 93bc
00000010: 4b54 dcbc 9e38 88bc 7837 abbb 3805 1dbd
00000020: e2e2 9cbb 648d 48bd 54b6 74bc b084 f6bb
00000030: ce02 e8bc 7bd2 333b e644 abbc c2bb d8bc
00000040: 20bc bbbb 69f9 59bd e2eb 81bb 52a3 17bc
00000050: 631b 80bc eae1 0c39 2085 99b9 69c8 dc3a
00000060: 6616 3ebc 96a3 13bd eed9 9ebc 1e6e 1fbc
00000070: 2aa2 9bbb 21c6 3dbd 7c47 b8bc 207f 8dbc
00000080: baa6 56bb 72f4 703c 2e78 f9ba ae4c 21bc
00000090: fce0 42b9 06f5 b33b 0e11 7e3b 14b4 603c

momentum_buffer f4 [10]
-0.02844112 -0.03876823 -0.042115185 -0.032802973 -0.025306355 -0.014668114 -0.02544231 -0.044705093
-0.012844627 0.0051836316
00000000: 5afd e8bc 6fcb 1ebd f980 2cbd 695c 06bd
00000010: 464f cfbc 8752 70bc 646c d0bc b01c 37bd
00000020: 4572 52bc 74db a93b

momentum_buffer f4 [128, 300]
-0.0011277836 -0.0012894111 -0.002438158 -0.0029497826 -0.0014817228 -0.005057169 -0.0024214138 -0.0033851322
-0.0011810765 -0.0017608663 -0.0017350288 -0.0020300706 -0.0011109124 -0.002255199 -0.0013298573 -0.0020623899
-0.0040503447 -0.0013350812 -0.0017246539 -0.0012995981 -0.0019952103 -0.0013908907 -0.0012310587 -0.0014959831
-0.0016243093 -0.0035647461 -0.0022762918 -0.001314552 -0.0016525711 -0.0018317748 -0.00042889107 -0.0013785742
-0.0024012886 -0.0007866472 -0.004710227 -0.0036117868 -0.0037437761 -0.00092797494 -0.001550777 -0.0006733536
-0.0010104089 -0.00024188869 -0.0016196449 -0.00046350365 -0.0009546946 -0.003669742 -0.0009185784 -0.0010855473
-0.00017297675 -0.0011075153 -0.00038149185 3.528854e-05 -0.00030995713 -0.0018028582 -0.0039220243 -0.0023844498
-0.00045286684 -0.0004924951 -0.00080339727 -0.0010646263 0.0001478534 -0.00032256977 0.00011765362 -0.0017486106
-0.0015193874 -0.003799432 -0.0013234788 -0.0025834185 -0.00014477855 -0.00051751814 0.000118384676 -0.00058207463
-0.00023490674 -0.00085512956 2.7361248e-06 -0.0003269569 -0.0032439348 2.7141341e-05 -0.00022530969 -0.00018489777
-0.00063367863 -5.9097943e-05 3.9393606e-05 -0.00021724608 -0.0027869227 -0.002616532 -0.0010325797 1.0438343e-05
8.563038e-06 -4.6031855e-06 -0.0031781944 -0.0025840162 -0.003093265 -0.00369336 -0.0050547263 -0.00795928
-0.0044861045 -0.0035298485 -0.005064346 -0.0025388692 -0.0020951708 -0.0018197033 -0.0036582882 -0.0028099578
-0.0023131506 -0.0041186763 -0.0022875848 -0.004922641 -0.0014436215 -0.002918383 -0.0024628828 -0.0016016667
-0.0017912165 -0.0029055902 -0.0048368387 -0.005872722 -0.0028922076 -0.0019758507 -0.0020818843 -0.0023737052
0.00019462137 5.5874153e-08 0.0001280297 -0.0013223991 -5.4907943e-08 -0.0027943754 2.3804969e-05 -0.0022067688
-2.2184959e-05 -0.00040462904 1.1375246e-05 -0.00045677397 -1.2068047e-05 -0.0005714521 2.1456854e-06 -0.0001398732
-0.00253761 -6.279543e-06 -0.00023330934 2.1363103e-06 -0.00046229875 -5.847401e-05 2.8692533e-05 -2.4925363e-05
-0.00012655735 -0.002337459 -0.0007388685 2.4481653e-05 7.5075484e-05 3.019729e-05 -0.00044272296 3.0584199e-18
6.0191334e-05 -0.00078157906 -4.0721015e-22 -0.00088992633 2.1361291e-05 3.9858884e-07 -0.0012375141 -3.9388728e-05
1.4645373e-05 5.7084153e-06 8.841734e-06 -0.00014600251 -8.685693e-06 -3.9930235e-08 -9.1368005e-05 -0.0017260767
7.4285876e-05 -6.4740045e-05 -0.00016815454 -4.8667316e-05 -2.5586576e-05 -8.8589895e-06 5.11263e-05 -0.0021504173
-0.0002777217 9.798772e-06 -2.1983925e-17 2.1219075e-05 -0.0011593793 -0.002261927 -0.0013796608 -0.0018073213
-0.0047089816 -0.0025920179 -0.0028280618 -0.0018938126 -0.0015678466 -0.0013253228 -0.0013460817 -0.0014317428
-0.0020937833 -0.0015757357 -0.0011373974 -0.0018550538 -0.003256389 -0.0007463814 -0.0016374041 -0.0017926721
-0.0014168585 -0.0010991346 -0.001256105 -0.0016134838 -0.0043373215 -0.0016855561 -0.0015750428 -0.0012481499
-0.0014029897 -0.0014278538 -0.0006111713 -0.0019417707 -0.0023229676 -0.0022658638 -0.0044985213 -0.0043659895
-0.003500476 -0.0029972228 -0.0012779827 -0.0012248966 -0.0012200598 -0.0014407136 -0.0018555823 -0.0017197537
-0.001142479 -0.0022366527 -0.0033275012 -0.0009450039 -0.0013320734 -0.0015098765 -0.0014711804 -0.0008640897
-0.0010496157 -0.001939571 -0.0047127474 -0.0036862497 -0.0017009835 -0.0009927377 -0.0012920438 -0.0015314984
-0.0011209059 -0.0015033722 -0.0018094426 -0.0012960598 -0.002468621 -0.0016969815 -0.0018245801 -0.001274288
-0.0011112196 -0.0011966949 -0.0014263826 -0.0012044613 -0.0013321121 -0.0012089327 -0.0013589438 -0.0021624006
00000000: 23d2 93ba 7501 a9ba 81c9 1fbb 2451 41bb
00000010: 5e36 c2ba 9cb6 a5bb 95b0 1ebb 18d9 5dbb
00000020: 5ace 9aba decc e6ba e869 e3ba ef0a 05bb
00000030: 099c 91ba f6cb 13bb 9b4e aeba 2929 07bb
00000040: c1b8 84bb e4fd aeba c80d e2ba 4757 aaba
00000050: 13c2 02bb 8c4e b6ba 7a5b a1ba dd14 c4ba
00000060: c7e6 d4ba 849e 69bb d72d 15bb 0c4d acba
00000070: 169b d8ba 2a18 f0ba c9dc e0b9 46b1 b4ba
00000080: f05e 1dbb 0037 4eba 3f58 9abb bab3 6cbb
00000090: 245a 75bb 5843 73ba 7143 cbba ff83 30ba
000000a0: b26f 84ba 80a3 7db9 444a d4ba 6802 f3b9
000000b0: 7844 7aba 0e80 70bb c1cc 70ba ec48 8eba
000000c0: 1861 35b9 0c2a 91ba f802 c8b9 c802 1438
000000d0: be81 a2b9 e24d ecba 5384 80bb 6e44 1cbb
000000e0: c26e edb9 c91a 01ba 149b 52ba ee8a 8bba
000000f0: 1809 1b39 951e a9b9 cebc f638 a331 e5ba
00000100: 2e26 c7ba e4ff 78bb 9478 adba 924e 29bb
00000110: b2cf 17b9 0eaa 07ba 4a45 f838 5e96 18ba
00000120: 4c51 76b9 c62a 60ba 449e 3736 6a6b abb9
00000130: 3298 54bb 96ad e337 1c41 6cb9 1ee1 41b9
00000140: 741d 26ba efdf 77b8 903a 2538 8dcc 63b9
00000150: cea4 36bb 1f7a 2bbb a057 87ba 5820 2f37
00000160: f8a9 0f37 1075 9ab6 4149 50bb 9958 29bb
00000170: 60b8 4abb 4c0c 72bb 1ea2 a5bb a467 02bc
00000180: 2c00 93bb 0855 67bb d0f2 a5bb 2863 26bb
00000190: 224f 09bb 1c83 eeba e4bf 6fbb 4527 38bb
000001a0: 3a98 17bb f6f5 86bb 4eeb 15bb 1b4e a1bb
000001b0: e637 bdba 5842 3fbb 5168 21bb 04ef d1ba
000001c0: 41c7 eaba b76b 3ebb 587e 9ebb f66f c0bb
000001d0: 318b 3dbb 467d 01bb 3970 08bb 2a90 1bbb
000001e0: 4713 4c39 48fa 6f33 b63f 0639 5a54 adba
000001f0: ecd3 6bb3 d721 37bb c8b0 c737 709f 10bb
00000200: d619 bab7 6424 d4b9 4fd8 3e37 2a7b efb9
00000210: de77 4ab7 80cd 15ba 98fe 0f36 edaa 12b9
00000220: 084e 26bb ddb4 d2b6 80a4 74b9 885d 0f36
00000230: b060 f2b9 fd41 75b8 bfb0 f037 cf16 d1b7
00000240: 7bb4 04b9 0e30 19bb a0b0 41ba f35d cd37
00000250: d871 9d38 3050 fd37 451d e8b9 ebab 6122
00000260: f475 7c38 e2e2 4cba b824 f69b f249 69ba
00000270: 0631 b337 a2fd d534 1534 a2ba 5335 25b8
00000280: 66b5 7537 ea8a bf36 f556 1437 4018 19b9
00000290: c4b8 11b7 c27f 2bb3 d39c bfb8 863d e2ba
000002a0: edc9 9b38 0cc5 87b8 a452 30b9 2220 4cb8
000002b0: c1a2 d6b7 12a1 14b7 7270 5638 04ee 0cbb
000002c0: 2d9b 91b9 6865 2437 13c4 caa3 9eff b137
000002d0: 50f6 97ba d63c 14bb bcd5 b4ba a4e3 ecba
000002e0: cd4d 9abb d8de 29bb 0157 39bb ce39 f8ba
000002f0: 3480 cdba 74b6 adba 026f b0ba 51a9 bbba
00000300: db37 09bb eb88 ceba b914 95ba 4725 f3ba
00000310: 2469 55bb cfa8 43ba 2a9e d6ba 18f8 eaba
00000320: e2b5 b9ba d610 90ba e4a3 a4ba 887b d3ba
00000330: 1720 8ebb e1ed dcba ab71 ceba f698 a3ba
00000340: 86e4 b7ba d326 bbba 0337 20ba 0383 feba
00000350: ee3c 18bb e37e 14bb 5568 93bb 9310 8fbb
00000360: 3e68 65bb 0e6d 44bb fc81 a7ba b68c a0ba
00000370: 6aea 9fba 54d6 bcba 0337 f3ba 5c69 e1ba
00000380: 3cbf 95ba ce94 12bb 3512 5abb 23ba 77ba
00000390: f798 aeba 0ce7 c5ba 9fd4 c0ba 1484 62ba
000003a0: 4293 89ba 3439 feba 646d 9abb 0295 71bb
000003b0: 89f3 deba c01e 82ba cc59 a9ba 8fbc c8ba
000003c0: 5ceb 92ba cd0c c5ba d22a edba 8de0 a9ba
000003d0: 96c8 21bb 406d deba c026 efba 0306 a7ba
000003e0: 58a6 91ba 6bda 9cba 75f5 baba 04df 9dba
000003f0: 449a aeba 0d75 9eba 961e b2ba 10b7 0dbb

momentum_buffer f4 [128]
-0.0034703617 -5.1411814e-07 -0.0018356894 -2.9858466e-10 -0.00021450961 -0.00030637207 -0.013231885 -3.166265e-08
0.010004557 0.00085103855 3.1100826e-05 -0.008172282 2.158e-42 -0.01192153 0.0 -0.0023622606
-0.0026346678 0.011261872 -2.9893972e-05 -1.6631457e-05 0.0 0.00036071206 -0.010515274 -9.583443e-06
-0.0070350785 -0.007531881 1.2820105e-05 -0.007054637 -0.012494858 -5.9980665e-09 -7.195182e-05 -2.7446342e-06
0.005824323 0.0038894475 -0.0010755432 -2.5846542e-25 -0.008116453 5.3463374e-08 0.000997598 0.0017123519
-0.010600701 -0.012033866 -0.0032025678 0.00016185902 -0.0032455786 -0.00016031065 0.0027970436 0.0
0.0 -0.021673443 4.6575235e-05 -0.015150398 -0.012171212 3.3112342e-06 2.2639261e-07 0.0
5.9838e-05 -0.013399086 -0.0015405363 0.007210177 5.4815915e-05 -7.793871e-06 5.1842164e-07 -4.1929678e-05
0.00013838142 0.008012103 -0.001938137 -1.5155007e-36 -0.013935689 0.01784586 -0.00022902475 -3.746283e-05
0.003954698 -0.0042988434 -0.011491056 0.00022448377 0.0014713779 1.7354141e-05 -0.0048326394 -0.0020237213
0.0021776464 0.0030891418 0.004246408 0.0 -0.007289482 0.0 -0.006246108 -2.7642761e-06
-0.018969877 0.002481008 0.0 -0.0039551225 0.0 3.8427597e-06 -0.0028027229 0.00013793122
-0.00023930623 8.0571815e-05 0.0 -0.0019939123 -0.009439249 -3.3561257e-06 -0.009355888 -0.019179331
-0.0010838772 0.003994639 0.0057022497 0.0 0.00014323885 0.013456546 0.0015480355 1.541252e-06
0.0 0.0 9.06557e-05 4.8284153e-05 -0.0049870485 2.3563753e-05 1.6754911e-05 -0.01999376
-0.00408892 0.00012062288 0.0008195221 -0.0017344407 0.00794846 0.0017945346 -0.004051047 3.3564178e-05
00000000: 026f 63bb ee01 0ab5 849b f0ba 0e26 a4af
00000010: fced 60b9 90a0 a0b9 8cca 58bc 74fd 07b3
00000020: 27ea 233c 3b18 5f3a 4272 0238 09e5 05bc
00000030: 0406 0000 8552 43bc 0000 0000 28d0 1abb
00000040: 64aa 2cbb b783 383c d1c4 fab7 c883 8bb7
00000050: 0000 0000 f41d bd39 4148 2cbc 93c8 20b7
00000060: 8486 e6bb ffcd f6bb ef15 5737 962a e7bb
00000070: 3cb7 4cbc 8d17 ceb1 d7e4 96b8 7530 38b6
00000080: f6d9 be3b 1ae6 7e3b 3ef9 8cba 7bfb 9f96
00000090: dffa 04bc 9a9f 6533 d6c1 823a ff70 e03a
000000a0: 90ae 2dbc b129 45bc 2ce2 51bb b3b8 2939
000000b0: c6b3 54bb 1019 28b9 9b4e 373b 0000 0000
000000c0: 0000 0000 818c b1bc c759 4338 6039 78bc
000000d0: c369 47bc 9236 5e36 5416 7334 0000 0000
000000e0: 90fa 7a38 d787 5bbc d2eb c9ba 5943 ec3b
000000f0: 24ea 6538 6cc2 02b7 aa29 0b35 a6dd 2fb8
00000100: 7b1a 1139 3245 033c 1609 feba afec 0084
00000110: 8452 64bc 7b31 923c 5d26 70b9 6821 1db8
00000120: 6996 813b 50dd 8cbb fb44 3cbc 6763 6b39
00000130: 40db c03a bc93 9137 1e5b 9ebb 69a0 04bb
00000140: d8b6 0e3b 3373 4a3b 7425 8b3b 0000 0000
00000150: 9bdc eebb 0000 0000 27ac ccbb e781 39b6
00000160: b766 9bbc 6898 223b 0000 0000 f999 81bb
00000170: 0000 0000 0ef1 8036 e3ad 37bb a1a1 1039
00000180: 47ee 7ab9 aaf8 a838 0000 0000 4cac 02bb
00000190: 14a7 1abc cd39 61b6 7049 19bc f91d 9dbc
000001a0: e210 8eba 76e5 823b f0d9 ba3b 0000 0000
000001b0: 6332 1639 d878 5c3c 74e7 ca3a 04dd ce35
000001c0: 0000 0000 0000 0000 691e be38 b784 4a38
000001d0: 656a a3bb c6aa c537 e68c 8c37 f4c9 a3bc
000001e0: 59fc 85bb eaf6 fc38 32d5 563a 2c56 e3ba
000001f0: 423a 023c 9736 eb3a a5be 84bb 43c7 0c38

momentum_buffer f4 [64, 128]
1.0628554e-07 0.0 1.0096149e-08 0.0 6e-45 5.6679255e-07 2.448194e-08 0.0
2.57053e-07 4.8407042e-11 6e-45 4.5277167e-07 0.0 4.7711677e-07 0.0 2.2856447e-07
2.0152102e-07 6e-45 -1.8161395e-13 -6e-45 0.0 2.1819116e-07 1.8287574e-07 6e-45
5.2838217e-08 2.5844773e-07 -6e-45 3.095015e-07 5.9236136e-08 0.0 0.0 -1.8625594e-12
6.6113888e-09 2.1096206e-07 4.4047303e-07 0.0 2.8268423e-07 -6e-45 2.2330635e-09 9.805161e-08
2.5973386e-09 8.168264e-08 2.3156147e-07 6e-45 6.042992e-08 -6e-45 1.4757474e-07 0.0
0.0 2.6061136e-07 6e-45 7.597113e-07 5.0416123e-08 1.4181963e-31 0.0 0.0
0.0 9.255954e-07 1.4148763e-08 6e-45 6e-45 1.4697205e-09 1.8901286e-33 0.0
-6e-45 3.2842132e-10 2.0799554e-07 0.0 7.2074624e-07 5.726486e-30 6.3811875e-08 6e-45
9.444606e-08 1.6648889e-09 1.450098e-07 2.9636655e-07 2.138788e-07 6e-45 6.228673e-07 2.6988232e-07
3.7849355e-07 4.555196e-07 1.8131567e-07 0.0 2.44774e-07 0.0 6.149328e-07 6e-45
7.93826e-07 3.236536e-07 0.0 5.2987235e-07 0.0 0.0 3.206654e-07 6e-45
6e-45 6e-45 0.0 2.648116e-07 3.5689308e-07 6e-45 1.8701252e-07 7.9352213e-07
3.5330513e-07 7.429741e-08 3.5669956e-07 0.0 6e-45 4.7786864e-07 2.1817307e-07 -6e-45
0.0 0.0 1.57e-43 6e-45 2.9718205e-07 0.0 -6e-45 6.188919e-07
8.8657455e-09 -6e-45 2.1640405e-07 1.6121616e-07 6e-45 8.103083e-08 1.1997595e-07 1.4896597e-09
-0.0010576185 -2.3773287e-06 0.00090477784 -2.7075023e-11 6.447321e-05 -0.0045573744 -0.0012988974 4.6148044e-10
0.0011500011 -0.0013894418 -1.6815948e-06 -0.00060696865 -1.44e-43 -0.0018465093 0.0 -0.0021344875
-0.0020379422 -0.001667713 -2.884362e-05 4.820171e-07 0.0 0.0006088993 -0.0025695525 -1.5016926e-07
-0.0033817312 0.003141646 -2.7763967e-05 -0.00209386 -0.0019590354 -5.1083415e-11 1.0470814e-05 4.2939936e-07
0.00041070383 0.0008430162 0.00031218276 -1.3502384e-25 -0.00061939796 9.968801e-10 0.0013208748 0.0007150931
-0.0024753625 -0.0022534132 0.004274611 -7.5176904e-06 0.0025778702 0.0001652457 0.0021552276 0.0
0.0 -0.0012538669 8.404337e-07 -0.0056285453 -0.002560392 -9.766798e-06 1.4483427e-08 0.0
2.540502e-06 -0.004498199 -0.0031307002 -6.5972563e-07 1.5630496e-06 -3.0002836e-06 -2.908655e-07 -5.4784487e-06
-5.3579137e-05 -5.5490178e-05 0.0006038784 6.305773e-39 -0.0036385607 -0.00112486 -0.0036551277 5.742405e-06
0.0016758471 0.0015008305 0.00062795833 0.003579445 0.0018211025 -2.5202346e-06 -0.0032422743 -0.0021164035
-0.0017801744 0.0056992527 -0.0013239272 0.0 -0.0007338944 0.0 -0.0017585641 2.4222883e-08
-0.004344755 0.005073552 0.0 0.004681619 0.0 -2.2073353e-07 0.0031856543 2.1603668e-05
5.8425492e-05 -8.916595e-06 0.0 0.0030379926 -0.002922005 8.4911215e-07 -0.001504941 -0.0038131285
0.0049326704 0.0007939206 3.6606798e-07 0.0 -9.339945e-06 0.0029541836 0.0030851807 1.9318055e-07
0.0 0.0 -2.5717498e-05 -3.0061336e-05 0.0031564422 1.4503573e-06 3.3561714e-06 -0.0053361184
-0.0015373067 -9.09884e-06 0.0023237497 0.0027091396 0.00014626933 0.003104894 0.0029488006 -1.1523321e-06
00000000: 183f e433 0000 0000 5573 2d32 0000 0000
00000010: 0400 0000 b025 1835 5b4c d232 0000 0000
00000020: 1801 8a34 7ce5 542e 0400 0000 7714 f334
00000030: 0000 0000 3713 0035 0000 0000 536b 7534
00000040: ad61 5834 0400 0000 a87a 4caa 0400 0080
00000050: 0000 0000 ee47 6a34 805c 4434 0400 0000
00000060: 3cf0 6233 c9c0 8a34 0400 0080 9029 a634
00000070: d26a 7e33 0000 0000 0000 0000 e310 03ac
00000080: 642a e331 cf84 6234 277a ec34 0000 0000
00000090: d3c3 9734 0400 0080 7874 1931 7190 d233
000000a0: dd7c 3231 8269 af33 22a3 7834 0400 0000
000000b0: b3c5 8133 0400 0080 0975 1e34 0000 0000
000000c0: 0000 0000 27ea 8b34 0400 0000 f7ee 4b35
000000d0: 1d89 5833 a817 380c 0000 0000 0000 0000
000000e0: 0000 0000 6e76 7835 eb12 7332 0400 0000
000000f0: 0400 0000 31ff c930 9706 1d09 0000 0000
00000100: 0400 0080 318d b42f 6155 5f34 0000 0000
00000110: 4e79 4135 3b4b e80e f308 8933 0400 0000
00000120: 45d2 ca33 12d2 e430 feb3 1b34 4f1c 9f34
00000130: 8fa6 6534 0400 0000 1d33 2735 58e4 9034
00000140: c233 cb34 238e f434 acaf 4234 0000 0000
00000150: 7b69 8334 0000 0000 dc11 2535 0400 0000
00000160: 4f17 5535 9dc2 ad34 0000 0000 8d3c 0e35
00000170: 0000 0000 0000 0000 eb27 ac34 0400 0000
00000180: 0400 0000 0400 0000 0000 0000 6e2b 8e34
00000190: 039b bf34 0400 0000 9ccd 4834 6d02 5535
000001a0: e3ad bd34 6f8d 9f33 6a80 bf34 0000 0000
000001b0: 0400 0000 e246 0035 f542 6a34 0400 0080
000001c0: 0000 0000 0000 0000 7000 0000 0400 0000
000001d0: 648c 9f34 0000 0000 0400 0080 ed21 2635
000001e0: f64f 1832 0400 0080 b15c 6834 c31a 2d34
000001f0: 0400 0000 2b03 ae33 bdd2 0034 bebc cc30
00000200: ca9f 8aba 328a 1fb6 9d2e 6d3a 8827 eead
00000210: cb35 8738 0756 95bb c43f aaba 99b3 fd2f
00000220: a2bb 963a ee1d b6ba 28b3 e1b5 fa1c 1fba
00000230: 6700 0080 9206 f2ba 0000 0000 c2e2 0bbb
00000240: ff8e 05bb 2a97 daba 34f5 f1b7 f663 0135
00000250: 0000 0000 8a9e 1f3a f065 28bb 363e 21b4
00000260: 09a0 5dbb 13e4 4d3b aae6 e8b7 2439 09bb
00000270: 2963 00bb d0aa 60ae ceab 2f37 3388 e634
00000280: bc53 d739 dcfd 5c3a 76ac a339 c326 2796
00000290: 185f 22ba 9a02 8930 3421 ad3a 1675 3b3a
000002a0: b139 22bb 00ae 13bb 0912 8c3b 7840 fcb6
000002b0: 7cf1 283b ce45 2d39 b83e 0d3b 0000 0000
000002c0: 0000 0000 cb58 a4ba 2a9a 6135 a96f b8bb
000002d0: 40cc 27bb 14dc 23b7 c9d2 7832 0000 0000
000002e0: 7e7d 2a36 a165 93bb 6f2c 4dbb 0018 31b5
000002f0: fac9 d135 7b58 49b6 4028 9cb4 84d3 b7b6
00000300: 29ba 60b8 20be 68b8 984d 1e3a eea9 4400
00000310: eb74 6ebb 0a70 93ba de8a 6fbb e2ae c036
00000320: 19a8 db3a 84b7 c43a 929d 243a 1f95 6a3b
00000330: 0fb2 ee3a 4d21 29b6 567c 54bb 5cb3 0abb
00000340: be54 e9ba ccc0 ba3b a087 adba 0000 0000
00000350: d262 40ba 0000 0000 9f7f e6ba af12 d032
00000360: 725e 8ebb 0a40 a63b 0000 0000 4468 993b
00000370: 0000 0000 c502 6db4 69c6 503b 8639 b537
00000380: e50d 7538 7c98 15b7 0000 0000 0f19 473b
00000390: 1c7f 3fbb 8bee 6335 7141 c5ba aee5 79bb
000003a0: 3da2 a13b 1c1f 503a 0088 c434 0000 0000
000003b0: c2b2 1cb7 fa9a 413b be30 4a3b 116d 4f34
000003c0: 0000 0000 0000 0000 e8bb d7b7 3a2c fcb7
000003d0: 50dc 4e3b e6a9 c235 963a 6136 9bda aebb
000003e0: 747f c9ba 38a7 18b7 0d4a 183b d28b 313b
000003f0: e05f 1939 7a7b 4b3b aa40 413b d4a9 9ab5

momentum_buffer f4 [64]
8.011723e-07 0.0010588338 -0.014951737 -3.435993e-05 6e-45 0.022578513 -0.016088624 -0.028478397
1.02835726e-10 0.0 2.8055149e-05 0.011864079 1.6189084e-08 0.00026448685 -0.022075143 6e-45
6e-45 -0.0009500333 -0.009118229 -0.023585845 -0.020652024 -5.0348808e-21 -0.0022460576 0.00013248721
0.0 -0.043965578 -3.54366e-05 -0.00021380003 -0.019975547 0.00024669347 0.021575253 0.00027475043
1.7392917e-06 -0.009309714 6e-45 0.0009425953 8.492877e-05 2.9744315e-05 0.0072191567 -6e-45
-0.0140034 0.0045540393 -0.024181694 5.69322e-06 2.9296557e-12 -6e-45 -0.013560433 6e-45
0.0 -0.01047182 -0.013577803 0.0007155237 6.653428e-08 0.0006914821 0.0 0.00038976554
-0.004890792 0.0 0.0 0.00015223998 -0.0334763 -7.8678786e-11 6e-45 -2.7443557e-05
00000000: 2410 5735 91c8 8a3a 21f8 74bc b21d 10b8
00000010: 0400 0000 93f6 b83c 4acc 83bc 874b e9bc
00000020: 5e23 e22e 0000 0000 f957 eb37 8e61 423c
00000030: 2c10 8b32 d3aa 8a39 eed6 b4bc 0400 0000
00000040: 0400 0000 a80b 79ba a064 15bc 1a37 c1bc
00000050: 6f2e a9bc 6136 be9d 9832 13bb 44ec 0a39
00000060: 0000 0000 4015 34bd c2a1 14b8 822f 60b9
00000070: c2a3 a3bc a356 8139 96be b03c 610c 9039
00000080: 9c71 e935 c587 18bc 0400 0000 8018 773a
00000090: c91b b238 6e83 f937 ad8e ec3b 0400 0080
000000a0: 846e 65bc 0d3a 953b b018 c6bc 6308 bf36
000000b0: fc27 4e2c 0400 0080 942c 5ebc 0400 0000
000000c0: 0000 0000 ff91 2bbc 6f75 5ebc fc91 3b3a
000000d0: 9be1 8e33 9444 353a 0000 0000 7259 cc39
000000e0: f042 a0bb 0000 0000 0000 0000 9ca2 1f39
000000f0: 721e 09bd 3804 adae 0400 0000 9736 e6b7

momentum_buffer f4 [5, 64]
3.2786915e-08 0.0037274081 -0.027950345 -1.4016779e-06 6e-45 0.01967892 -0.037545297 -0.05712951
6.7107006e-12 0.0 3.0514328e-05 -0.0014351627 2.787276e-10 7.063157e-05 -0.036974236 6e-45
-6e-45 0.019853793 0.024298806 0.034893326 0.0129640065 -1.1715539e-21 -0.011270658 8.544951e-06
0.0 -0.081709966 4.502464e-06 1.9917883e-05 0.027075147 7.5510593e-06 0.013821199 -1.4370962e-05
-1.5963172e-07 0.016952466 6e-45 0.024412181 -9.939358e-06 -6.344243e-07 -0.027966518 6e-45
-0.021816231 -0.0018804318 0.04247067 2.6388187e-07 6.1417e-14 -6e-45 0.0074314787 6e-45
0.0 0.012118204 0.016961984 -0.00267101 4.471046e-09 -0.001092854 0.0 -1.9734218e-05
-0.013203315 0.0 0.0 1.4429058e-05 -0.06431144 -1.0245819e-08 6e-45 4.1903808e-05
2.5592898e-08 0.015736949 0.006589699 -1.4071861e-06 6e-45 0.019721411 0.009062336 0.01582417
6.7107006e-12 0.0 6.337713e-05 0.018423375 3.3634687e-10 -7.0964896e-05 0.010352084 6e-45
-6e-45 0.014353366 0.016033558 0.024645874 0.009122626 -1.1715539e-21 0.0032947087 1.2829938e-05
0.0 0.023025356 -1.485173e-06 -1.9776502e-05 0.016938325 -7.62061e-06 0.013936918 -1.5014298e-05
1.5963471e-07 0.0152095435 6e-45 0.01882659 6.7804644e-06 -6.4093774e-07 0.024237726 6e-45
0.0042779357 0.0004113955 0.031842474 2.6388187e-07 6.4569816e-14 -6e-45 0.011261325 -6e-45
0.0 0.009132283 0.009848289 0.0023935153 4.471046e-09 0.012074623 0.0 1.8778066e-05
0.001492868 0.0 0.0 -1.2355799e-05 0.018182581 1.0245825e-08 6e-45 -4.7094585e-05
2.559288e-08 0.0052907015 -0.03319191 1.4072335e-06 6e-45 0.020952351 -0.043663196 -0.06522206
6.7107006e-12 0.0 6.5453925e-05 -0.00042038586 -3.3634687e-10 6.945246e-05 -0.040619098 6e-45
-6e-45 0.020713972 0.026700156 0.039177936 0.013261266 1.1715539e-21 -0.015620429 1.5245395e-05
0.0 -0.09293819 4.803466e-06 2.1989646e-05 0.029106444 7.6205233e-06 0.014086361 1.9410592e-05
-1.5963471e-07 0.015513716 6e-45 0.025499629 3.5679263e-06 6.343258e-07 -0.032534894 6e-45
-0.028592706 -0.0020377138 0.04606015 2.6388187e-07 6.4569816e-14 6e-45 0.0060433117 6e-45
0.0 0.008798042 0.019360473 -0.0036405055 4.3506008e-09 -0.0044753803 0.0 3.0400377e-05
-0.01894001 0.0 0.0 -1.442906e-05 -0.076195374 -1.0246048e-08 6e-45 4.9314815e-05
-3.4819386e-08 0.015394248 -0.02660051 1.3509245e-06 -6e-45 0.034714274 -0.035773616 -0.048527427
6.7107006e-12 0.0 -9.223807e-05 0.010225731 -3.3634687e-10 -7.096512e-05 -0.030665562 6e-45
6e-45 0.030196024 0.037070796 0.055350285 0.0164479 -1.1715539e-21 -0.012684155 -1.5221213e-05
0.0 -0.068508096 -1.0387822e-06 -1.5477955e-05 0.04083943 -7.6206984e-06 0.025183994 -1.2795922e-05
1.5963471e-07 0.028370202 6e-45 0.039279886 7.072325e-06 6.343258e-07 -0.012001915 6e-45
-0.022295063 -0.0020572352 0.06753833 2.6388187e-07 -6.1417e-14 -6e-45 0.016726412 6e-45
0.0 0.016951542 0.027538393 -0.0021005066 4.3513317e-09 0.0072596725 0.0 2.8032462e-05
-0.01640588 0.0 0.0 -1.2355799e-05 -0.05861719 -1.0246048e-08 -6e-45 -4.95762e-05
00000000: 98d1 0c33 8847 743b 1ff8 e4bc 4921 bcb5
00000010: 0400 0000 b035 a13c 19c9 19bd a200 6abd
00000020: 9e1c ec2c 0000 0000 05f9 ff37 121c bcba
00000030: 6c3b 992f 0920 9438 4c72 17bd 0400 0000
00000040: 0400 0080 6ca4 a23c 4a0e c73c 4eec 0e3d
00000050: fc66 543c 4c0a b19c 91a8 38bc 495c 0f37
00000060: 0000 0000 8e57 a7bd df13 9736 5415 a737
00000070: b3cc dd3c 1b5f fd36 4f72 623c d01a 71b7
00000080: 3c67 2bb4 e6df 8a3c 0400 0000 0efc c73c
00000090: 38c1 26b7 4e4d 2ab5 0a1a e5bc 0400 0000
000000a0: f4b7 b2bc d278 f6ba baf5 2d3d a6ab 8d34
000000b0: 7d4c 8a29 0400 0080 c383 f33b 0400 0000
000000c0: 0000 0000 6e8b 463c dcf3 8a3c 1d0c 2fbb
000000d0: bd9f 9931 183e 8fba 0000 0000 e98a a5b7
000000e0: b852 58bc 0000 0000 0000 0000 5514 7237
000000f0: b7b5 83bd 9705 30b2 0400 0000 dfc1 2f38
00000100: 61d7 db32 c6ea 803c 67ee d73b 8cde bcb5
00000110: 0400 0000 cc8e a13c 317a 143c b1a1 813c
00000120: 9e1c ec2c 0000 0000 56e9 8438 9eec 963c
00000130: 9de8 b82f fdd2 94b8 ca9b 293c 0400 0000
00000140: 0400 0080 612a 6b3c cf58 833c 25e6 c93c
00000150: 1177 153c 4c0a b19c 0aec 573b 2a40 5737
00000160: 0000 0000 ac9f bc3c 2856 c7b5 b7e5 a5b7
00000170: 3ec2 8a3c 8bb4 ffb6 ac57 643c ebe5 7bb7
00000180: 0e68 2b34 7331 793c 0400 0000 393a 9a3c
00000190: bf83 e336 e80c 2cb5 328e c63c 0400 0000
000001a0: ed2d 8c3b 92b0 d739 416d 023d a6ab 8d34
000001b0: f765 9129 0400 0080 6c81 383c 0400 0080
000001c0: 0000 0000 929f 153c b85a 213c 86dc 1c3b
000001d0: bd9f 9931 a4d4 453c 0000 0000 9785 9d37
000001e0: 56ac c33a 0000 0000 0000 0000 c14b 4fb7
000001f0: a3f3 943c 9d05 3032 0400 0000 6d87 45b8
00000200: 57d7 db32 9f5d ad3b 3df4 07bd 2de0 bc35
00000210: 0400 0000 44a4 ab3c 2ed8 32bd 2593 85bd
00000220: 9e1c ec2c 0000 0000 4f44 8938 3c67 dcb9
00000230: 9de8 b8af 01a7 9138 3660 26bd 0400 0000
00000240: 0400 0080 59b0 a93c 49ba da3c 0b79 203d
00000250: c845 593c 4c0a b11c d4ec 7fbc 79c6 7f37
00000260: 0000 0000 6156 bebd 752d a136 6876 b837
00000270: a370 ee3c ccb3 ff36 7bca 663c eed3 a237
00000280: 0e68 2bb4 3e2d 7e3c 0400 0000 99e4 d03c
00000290: 8270 6f36 8946 2a35 4f43 05bd 0400 0000
000002a0: 403b eabc 2a8b 05bb 91a9 3c3d a6ab 8d34
000002b0: f765 9129 0400 0000 f906 c63b 0400 0000
000002c0: 0000 0000 aa25 103c db99 9e3c 8c95 6ebb
000002d0: 4a7c 9531 36a6 92bb 0000 0000 5004 ff37
000002e0: 1428 9bbc 0000 0000 0000 0000 5714 72b7
000002f0: 520c 9cbd 9806 30b2 0400 0000 61d7 4e38
00000300: 528c 15b3 2838 7c3c 50e9 d9bc 6a51 b535
00000310: 0400 0080 8e30 0e3d 5b87 12bd b2c4 46bd
00000320: 9e1c ec2c 0000 0000 f06f c1b8 d389 273c
00000330: 9de8 b8af 1cd3 94b8 5836 fbbc 0400 0000
00000340: 0400 0000 a75d f73c 8cd7 173d fbb6 623d
00000350: bfbd 863c 4c0a b19c 34d1 4fbc 9d5e 7fb7
00000360: 0000 0000 f94d 8cbd 496c 8bb5 a8d6 81b7
00000370: 3f47 273d 4db5 ffb6 aa4e ce3c 11ae 56b7
00000380: 0e68 2b34 a068 e83c 0400 0000 f2e3 203d
00000390: cf4e ed36 8946 2a35 aea3 44bc 0400 0000
000003a0: 23a4 b6bc aed2 06bb 8951 8a3d a6ab 8d34
000003b0: 7d4c 8aa9 0400 0080 d405 893c 0400 0000
000003c0: 0000 0000 f6dd 8a3c 3298 e13c a7a8 09bb
000003d0: b882 9531 8ce2 ed3b 0000 0000 4127 eb37
000003e0: a065 86bc 0000 0000 0000 0000 c14b 4fb7
000003f0: 9418 70bd 9806 30b2 0400 0080 0af0 4fb8

momentum_buffer f4 [5]
0.042866826 0.061064124 0.036382623 0.091876596 0.010791704
00000000: 2095 2f3d 601e 7a3d f205 153d cc29 bc3d
00000010: b0cf 303c

conv1.weight f4 [10, 5, 4]
0.3656904 0.3353212 0.49437955 -0.056703135 0.042663295 0.031374026 0.016193045 -0.09387448
0.054559134 -0.08443889 -0.1577765 0.19924554 -0.07370298 -0.05229278 -0.123762205 -0.17014702
-0.10799863 -0.2233986 0.15285489 0.09279713 -0.13734333 0.1197231 -0.18611678 -0.1353231
-0.028779088 -0.21444014 0.19399297 0.072102144 0.10585402 -0.0699804 0.1976542 -0.18673982
-0.015401419 -0.07120498 0.115955964 0.18451774 -0.130051 -0.08805366 0.084149756 -0.032355536
0.13035744 0.239048 -0.09845514 0.33647677 -0.10782809 0.118713245 0.055358123 -0.21485202
0.12941599 0.07829887 0.06274578 -0.029970748 -0.020360935 -0.052793507 0.065580934 0.14094655
0.214299 -0.1681575 0.20597728 0.09450489 -0.28265935 -0.017665286 0.012831524 -0.2077392
-0.12684616 0.11249406 -0.19686936 -0.12947312 0.0047579417 -0.10613712 0.02098442 0.03842252
-0.19317773 0.019301755 -0.19794405 0.020158673 0.06128018 -0.19307333 0.049763486 -0.04756066
-0.01953445 0.34468967 0.37554055 -0.3427125 -0.011727233 -0.034248378 -0.15911233 -0.10635247
0.044278003 -0.09014212 0.16952273 0.1474978 0.13582656 -0.13712494 -0.025075259 0.022308212
-0.21786916 -0.10951275 0.027881233 0.20970486 -0.05930501 0.06653799 0.20097162 0.21910524
-0.107077636 0.033688515 -0.11043738 0.178985 -0.16387632 -0.21739894 -0.06600956 0.032271955
-2.8593664e-05 -0.23026663 -0.14437783 0.16366267 0.17293034 -0.116871394 -0.1137039 0.11126209
0.5972845 -0.18019344 0.33744344 0.40089718 -0.05763208 -0.08695409 -0.20859595 -0.009346417
-0.071724474 -0.20386249 0.0675395 0.13837694 0.017858477 0.09876804 -0.107507266 0.1378383
-0.05716144 0.16649981 0.11842045 -0.033808857 -0.23437238 0.066012226 -0.16389483 0.44625154
-0.09976709 0.028881306 0.14337392 0.20989472 0.14589325 0.16160102 -0.20853047 -0.082524985
0.036678188 -0.11811627 0.10812913 0.096095026 0.061162964 0.18906339 -0.076719105 0.025763338
-0.19007131 -0.15507881 -0.072714835 -0.06687551 0.016939122 -0.20239508 0.22133262 -0.02108212
-0.20919527 -0.046952926 0.17061651 0.060635753 -0.08041622 -0.053089693 -0.15099154 0.007076943
0.014105371 -0.14173439 -0.0069221696 -0.0066721826 -0.28467983 -0.21779346 0.10428732 -0.22161281
0.090092145 0.087398686 0.15375197 -0.03292547 -0.16608281 -0.2217702 0.17767878 0.05152894
-0.021450458 0.18024996 -0.06949877 -0.08494264 -0.081500866 0.0029378065 0.1328915 -0.19337748
00000000: c63b bb3e 38af ab3e 511f fd3e 8c41 68bd
00000010: b5bf 2e3d 0d82 003d 47a7 843c 4341 c0bd
00000020: 6679 5f3d 4cee acbd 2a90 21be 0607 4c3e
00000030: 97f1 96bd f430 56bd 0a77 fdbd 053b 2ebe
00000040: 632e ddbd 9ac2 64be fe85 1c3e 6c0c be3d
00000050: bba3 0cbe 6231 f53d 6695 3ebe 2492 0abe
00000060: 1fc2 ebbc 3296 5bbe 18a6 463e 4aaa 933d
00000070: fec9 d83d e251 8fbd dd65 4a3e b938 3fbe
00000080: 3c56 7cbc ebd3 91bd 527a ed3d 38f2 3c3e
00000090: 172c 05be 7a55 b4bd b556 ac3d 3d87 04bd
000000a0: 6c7c 053e 00c9 743e d9a2 c9bd af46 ac3e
000000b0: f9d4 dcbd ee1f f33d 33bf 623d 2b02 5cbe
000000c0: a085 043e 285b a03d dc80 803d 3785 f5bc
000000d0: facb a6bc 013e 58bd 4c4f 863d 4b54 103e
000000e0: 3271 5b3e 7b31 2cbe b5eb 523e c88b c13d
000000f0: bab8 90be cab6 90bc 503b 523c 96b9 54be
00000100: f6e3 01be 4963 e63d 1f98 49be 9a94 04be
00000110: 82e8 9b3b 6b5e d9bd 85e7 ab3c ef60 1d3d
00000120: 62d0 45be b71e 9e3c d8b1 4abe cd23 a53c
00000130: ed00 7b3d 04b5 45be ccd4 4b3d f7ce 42bd
00000140: b606 a0bc 2a7b b03e da46 c03e 0378 afbe
00000150: 9523 40bc 0748 0cbd 58ee 22be 53cf d9bd
00000160: da5c 353d 6f9c b8bd 5e97 2d3e aa09 173e
00000170: 1e16 0b3e 7b6a 0cbe a16a cdbc b6bf b63c
00000180: 1819 5fbe 3848 e0bd 2f67 e43c dfbc 563e
00000190: cfe9 72bd 1245 883d 81cb 4d3e 205d 603e
000001a0: 854b dbbd f8fc 093d fe2c e2bd d847 373e
000001b0: 32cf 27be d49d 5ebe 0530 87bd 992f 043d
000001c0: 6ddc efb7 04cb 6bbe c8d7 13be 3097 273e
000001d0: a714 313e 455a efbd 97dd e8bd 61dd e33d
000001e0: a3e7 183f a184 38be 63c5 ac3e 6542 cd3e
000001f0: 9e0f 6cbd fc14 b2bd 2d9a 55be b721 19bc
00000200: 48e4 92bd 54c1 50be 2652 8a3d afb2 0d3e
00000210: f14b 923c e646 ca3d c52c dcbd 7c25 0d3e
00000220: 1d22 6abd ed7e 2a3e 6c86 f23d 287b 0abd
00000230: 50ff 6fbe 6b31 873d 0cd4 27be 157b e43e
00000240: b052 ccbd 7d98 ec3c 9dd0 123e a4ee 563e
00000250: 0a65 153e bd7a 253e 0389 55be dc02 a9bd
00000260: de3b 163d f1e6 f1bd ce72 dd3d 78cd c43d
00000270: 0486 7a3d d599 413e e81e 9dbd a30d d33c
00000280: 0ea2 42be fbcc 1ebe 84eb 94bd 07f6 88bd
00000290: eac3 8a3c a840 4fbe 05a5 623e 69b4 acbc
000002a0: 4937 56be b651 40bd 18b6 2e3e 325d 783d
000002b0: 42b1 a4bd 9474 59bd 879d 1abe b3e5 e73b
000002c0: 371a 673c d222 11be 5ed3 e2bb 53a2 dabb
000002d0: 8ec1 91be 4005 5fbe 9794 d53d 78ee 62be
000002e0: 3b82 b83d 15fe b23d 2871 1d3e dcdc 06bd
000002f0: 9d11 2abe ba17 63be 6df1 353e 0310 533d
00000300: dfb8 afbc 7293 383e 5f55 8ebd 68f6 adbd
00000310: ede9 a6bd 3788 403b b614 083e bf04 46be

conv1.bias f4 [10]
0.15198302 -0.058058534 -0.20122838 0.20828308 0.18381506 0.3022247 -0.018603845 -0.10074274
-0.017938737 0.26320747
00000000: 70a1 1b3e c9ce 6dbd d00e 4ebe 2948 553e
00000010: 043a 3c3e 32bd 9a3e 1767 98bc 3652 cebd
00000020: 42f4 92bc 21c3 863e
