30epochs_1.0.0.pth (torch_old, 105380 bytes, 10 tensors)

conv1.weight f4 [10, 5, 4]
000000 24 3e df bd b7 c9 2f be 68 33 01 bd 95 22 08 be
       -0.10900524 -0.17166792 -0.031543165 -0.13294442
000010 02 77 54 bd 44 68 c3 bd 3b e5 15 3e 8f e4 b3 bd
       -0.051871307 -0.095413715 0.14638226 -0.087838285
000020 01 43 21 3e d5 a1 35 be d7 a8 62 be 83 35 0e bd
       0.15748216 -0.17737515 -0.2213472 -0.034719
000030 f4 df 83 bd d7 ac 6e be 89 6d 23 3d 93 27 01 bf
       -0.064392 -0.2330812 0.039899383 -0.5045101
000040 44 4a 11 be 2d 39 24 bf 20 2e 1d bf 59 df 01 3f
       -0.14188486 -0.64149743 -0.61398506 0.50731426
000050 df 2f ad 3d 1e 92 28 3d 20 ad 2c be b5 cb 07 3e
       0.08456396 0.041154973 -0.16862917 0.13261302
000060 06 7e bb 3d dd d2 bf bd 72 92 3e bd ae dc 05 be
       0.091548964 -0.09366391 -0.04652638 -0.13072464
000070 41 ef 66 3e a0 c3 28 be cd e4 15 be c6 2b 86 bd
       0.22552206 -0.16480875 -0.14638062 -0.06551318
000080 67 47 4c 3f bb a4 4e be d3 ab 75 bf 8a 58 ce be
       0.7979645 -0.20180027 -0.9596531 -0.40301925
000090 fa ea 08 3f c8 02 de be b0 2d bc be e5 74 80 bd
       0.53483546 -0.43361497 -0.36753607 -0.06272296
0000a0 90 5f cf 3d ce 1d cb bc aa fd b8 bd d0 0e 46 be
       0.10125649 -0.024794485 -0.090327576 -0.19341588
0000b0 2f 2a 08 3e 2e f4 be 3c b7 b7 90 bd 97 6e 27 bd
       0.13297342 0.023309793 -0.07066291 -0.04087695
0000c0 df ce f6 bd 99 56 f0 3d b7 e6 a5 bd fa bb 5d ba
       -0.12051176 0.11735267 -0.08100646 -0.00084584916
0000d0 b0 60 31 be a1 c1 8b 3e c8 10 34 3e 0a dd 47 3e
       -0.1732204 0.27296165 0.17584527 0.19517913
0000e0 ed c5 88 3d 7c c2 d0 3e 41 19 18 3d 2d af fb be
       0.06678376 0.4077338 0.03713346 -0.49157086
0000f0 90 90 ac bd cd 6b 10 3c 26 90 79 bb 93 78 a9 bd
       -0.084260106 0.008814764 -0.0038080304 -0.08274951
000100 f2 3a 0e bd c1 fc 99 bd 9b b4 1e 3c 00 09 dc bc
       -0.034724183 -0.07518912 0.009686614 -0.02685976
000110 19 cc 29 be b9 37 38 be b2 dd 83 3d 25 ee 8a 3d
       -0.16581763 -0.17990007 0.064387694 0.06783704
000120 71 18 73 be b8 fa a4 be f1 4a dd 3c 1a 15 91 3d
       -0.23739792 -0.32222533 0.027013274 0.07084103
000130 cb b6 13 3f 14 f4 a5 be df 5d 2d bd 59 99 03 bf
       0.57700795 -0.3241278 -0.04232585 -0.51405865
000140 7f 6c 09 be 1f b6 48 bd d4 b0 e9 bd f6 f9 b9 bd
       -0.13420294 -0.04900181 -0.114106804 -0.090808794
000150 30 43 61 bd da 0f 04 be 78 9d 0d 3e ab 34 03 bd
       -0.054995716 -0.12896672 0.13829601 -0.03203265
000160 cb 88 94 bc 17 a7 ca 3d 0d ba 9f bd f1 f4 6b bd
       -0.018131634 0.09895151 -0.07799158 -0.05760664
000170 6d 19 3a 3e ba 6b 2c bf 8d 3d 3b be d5 49 2f 3f
       0.18173762 -0.6735188 -0.18285199 0.68472034
000180 55 de f9 be 72 2c a6 3e d1 04 d5 be 29 2a 2a bc
       -0.48802438 0.32455784 -0.41605237 -0.010386028
000190 7a 95 85 3d 1b 43 4e be 7f 83 d4 bd c1 33 1a bc
       0.06522651 -0.20142786 -0.103766434 -0.009411753
0001a0 0f 1b 7c 3d e4 cc 4b be 95 d2 49 be c1 78 73 3e
       0.061549243 -0.19902378 -0.19709237 0.23776533
0001b0 ab 8e 60 be a3 e3 4b 3d 6c 1d 48 be ff 31 a6 3e
       -0.21929424 0.04977764 -0.19542474 0.3246002
0001c0 40 ee 40 be 39 4f 82 bd ed 4f a3 3e 7f fb 72 bb
       -0.18840885 -0.06362767 0.31896916 -0.0037076173
0001d0 2f 85 05 bc 68 c1 d6 bd d1 f9 5c be 80 c2 4d be
       -0.008149429 -0.10486108 -0.21579672 -0.20093727
0001e0 1f 10 15 3e 94 57 7d bd e6 a9 40 3e f1 df 35 be
       0.14556931 -0.0618511 0.18814811 -0.17761208
0001f0 be da 72 3d 66 13 fe 3d 2a bb d7 3d 48 9f 1c 3e
       0.05929064 0.12406044 0.105337456 0.15295136
000200 c6 10 d0 3d b5 18 ea 3c 9c 3e 11 3d 6e 3d 74 bd
       0.10159449 0.028576234 0.0354601 -0.059628896
000210 ea 66 d0 bd bb 49 a5 3e 9c 64 86 3e 9c 33 ab 3e
       -0.10175879 0.32282814 0.26248634 0.33437812
000220 de 2c 89 be 65 bd 73 3e 36 25 97 3c d6 ac 6b be
       -0.26792043 0.23802717 0.01845036 -0.2301515
000230 7b ef f7 bb 7c a5 36 be b6 fc b3 bd 73 79 83 3e
       -0.00756639 -0.17836565 -0.08788435 0.25678596
000240 7c 0e 31 bd b6 65 a2 bd 1b e6 e7 3c ab e8 2b 3e
       -0.043226704 -0.07929556 0.028307965 0.16787975
000250 7d 7d 66 3d 8c a8 20 be e9 2a 27 3d 4b 79 aa 3e
       0.05627202 -0.15689296 0.040812407 0.33295664
000260 ed 23 64 3e 82 ee f8 be c4 01 82 38 d3 9e 06 3f
       0.2227933 -0.48619467 6.199212e-05 0.52586097
000270 11 6b 8e be ff af 93 be 8a 35 c9 3d 80 44 10 3f
       -0.2781606 -0.28845212 0.09824665 0.5635452
000280 cc 83 83 3c 0e b1 c9 bc 3e 98 03 be e9 59 1c 3d
       0.016054057 -0.024620559 -0.12851045 0.038171683
000290 d8 ac 8c 3c 49 8d c6 3b a0 0d e7 bd bc 67 69 bc
       0.017172262 0.006059323 -0.11281896 -0.014245924
0002a0 03 c4 f5 3d e8 4e f6 3d ed 61 f1 bd e0 38 5c 3b
       0.12000277 0.12026769 -0.11786256 0.0033603236
0002b0 4e b8 3e 3e ff 69 6e 3e 5a c1 33 be 3d e3 fc be
       0.18624994 0.23282622 -0.17554227 -0.4939212
0002c0 19 20 09 be a1 20 65 3e 3f ff c3 3e 04 a7 a8 3e
       -0.1339115 0.22375728 0.38280675 0.32939923
0002d0 85 48 d1 bb 4b 18 34 3d cc 6d 8f 3d 43 52 22 3e
       -0.006386819 0.04396848 0.07003364 0.15851693
0002e0 15 73 82 bd 08 60 04 3d 11 cc 68 3c 2a 20 54 bd
       -0.063696064 0.032318145 0.0142088095 -0.051788487
0002f0 96 c1 f2 bd 88 c2 45 3d ce 53 6c bd 4b 04 42 3c
       -0.1185333 0.048281223 -0.05769711 0.011841844
000300 c6 e1 84 bd 0e 95 c3 3d 72 32 51 3d d5 41 1c 3e
       -0.06488375 0.09549914 0.0510735 0.15259488
000310 b3 e8 05 3f 04 de e8 bc 57 59 98 3d 29 23 86 3e
       0.52308196 -0.028426178 0.07438915 0.261987

conv1.bias f4 [10]
000000 12 5c f0 bd d7 7d b0 bd 68 16 ec 3d da 8e 58 bc
       -0.11736311 -0.08617752 0.11527711 -0.013217652
000010 09 7d 06 3e 80 b9 86 3e ce 3f 9b be 3b b0 a5 bd
       0.13133635 0.263134 -0.30322117 -0.08090254
000020 be f7 ea bd f3 e4 9a bd
       -0.11473034 -0.075632

conv2.weight f4 [10, 10, 4]
000000 db 42 eb bc 97 4f ff bd 57 53 a2 3d 4d 29 6b 3c
       -0.028718403 -0.124663524 0.07926052 0.014353109
000010 4d e0 28 3e 7f b8 61 3d 27 07 04 bf 6a a2 22 3c
       0.16491814 0.05510759 -0.51573414 0.009926418
000020 65 b8 ed be ec fb bf be 77 6f 40 3e 56 df 66 3e
       -0.46429744 -0.3749689 0.1879252 0.22546133
000030 3c 66 b5 3e 7c 11 22 3e 1c 61 85 3e be 1a c1 3e
       0.3542956 0.15826982 0.2605065 0.37715715
000040 87 09 d4 3e eb 47 92 3e e3 cf 49 3e 69 55 9a bd
       0.4141352 0.28570494 0.19708209 -0.07535822
000050 ae d5 af 3d f1 14 80 3e 99 19 8c bd 88 7f 18 be
       0.08585678 0.25015977 -0.0684082 -0.148924
000060 78 07 4a 3e 40 32 1c bd 4c 07 88 3e be 47 13 bd
       0.19729412 -0.03813386 0.26568067 -0.03595709
000070 2a 94 ce 3d f6 7b 3a bd 56 f4 af 3d 84 0a df bc
       0.10086854 -0.045528375 0.08591525 -0.027226694
000080 0d 0f 65 3d 00 ed 45 be 73 19 e3 3e 32 2d d7 3e
       0.055922557 -0.1932869 0.44355354 0.4202667
000090 26 82 95 3e fd aa b6 be 6f 9d f3 bc 07 d0 2f 3f
       0.29200858 -0.3567733 -0.029738156 0.686768
0000a0 26 b9 e8 bd ca 06 3d be db e9 16 bd 06 a5 33 bc
       -0.11363439 -0.18459621 -0.036844116 -0.010964638
0000b0 0a f7 39 be 83 b3 20 3f c8 44 5e 3e 96 a1 84 be
       -0.18160644 0.62773913 0.21705925 -0.2590453
0000c0 79 f5 92 3d 78 8a bf 3c b1 c7 ed bd d5 98 5b bd
       0.071757264 0.023381457 -0.11610354 -0.05361255
0000d0 82 01 03 bc 80 93 0d be 01 70 a6 be de 31 f0 bc
       -0.007995965 -0.13825798 -0.32507327 -0.029320654
0000e0 40 7b 85 be 7b cd 9a be 5f e3 04 3f 78 50 fb 3d
       -0.26070595 -0.30234894 0.5190944 0.122712076
0000f0 d0 87 c4 bd d7 9d 5d 3a 34 81 f6 bd eb 85 71 3d
       -0.09596217 0.0008454001 -0.12036362 0.058965605
000100 eb 5f 84 bd b0 51 b1 bc 77 f8 49 3d 3f 10 c8 bd
       -0.064636074 -0.021645397 0.04930922 -0.09768724
000110 09 63 ac be 41 e0 26 bd ea 0a dd 3e 0a 6a 65 3e
       -0.33669308 -0.04074121 0.4317239 0.22403732
000120 45 fa 37 3d 7f f6 49 3e 4e 13 7d be 93 9c 94 bd
       0.04491641 0.19722937 -0.24714395 -0.07256427
000130 d6 46 f5 3d 22 a9 a0 be 0a 5f 86 bd 43 7a de 3d
       0.119764015 -0.31379038 -0.06561096 0.10863163
000140 f8 76 22 be 97 6f 30 be ad 42 d7 3e cb 47 09 3f
       -0.15865695 -0.17230068 0.42043057 0.5362517
000150 1b 38 b6 be 95 87 30 3f 87 1f 41 3f ab df 2a be
       -0.3558968 0.6895688 0.7543873 -0.16686885
000160 60 b7 7c bd 8a fc e8 be c4 9e 71 be 55 ce f3 3d
       -0.061698318 -0.45505172 -0.2359572 0.11904589
000170 f6 24 b6 3d 0e 51 8a 3e c9 43 b6 3e 82 75 cb 3d
       0.088937685 0.27014965 0.3559859 0.09934522
000180 8e a2 13 be be f3 d7 bd 50 40 6f 3d f8 47 f3 3d
       -0.14417478 -0.10544537 0.058410943 0.11878961
000190 b4 2c 33 be 8b 70 14 be 1f 90 1d 3d 92 a9 27 3e
       -0.17497522 -0.14496057 0.038467523 0.1637328
0001a0 78 b7 58 be 71 e7 58 be 4d 81 50 3e 7c 40 af 3d
       -0.21163738 -0.21182038 0.20361824 0.08557221
0001b0 fe 60 9f be 20 9f b3 be 49 ab e2 bd db dd 5a 3d
       -0.31128687 -0.3508234 -0.11067826 0.053434234
0001c0 49 41 92 3e d4 59 18 3e 8f 4e 04 3e 24 8f f1 3d
       0.28565434 0.14878017 0.12920593 0.1179488
0001d0 2f 1e e3 bd af 3d a3 3e 84 6d 9d 3d 50 88 69 be
       -0.110897414 0.31882998 0.07686904 -0.22805905
0001e0 79 b5 0e 3e 81 e6 ac 3e 83 42 fb be 01 eb a6 be
       0.13936414 0.3376961 -0.49074182 -0.3260117
0001f0 e1 1b a4 bd 2f ee c5 be 82 3e 09 bf 2a 80 3d 3e
       -0.0801313 -0.38658282 -0.53611004 0.18505922
000200 79 58 c1 bd 69 de 84 3d 54 60 d9 bd 56 1f 10 3e
       -0.09440703 0.06487734 -0.10614076 0.14074454
000210 0c 88 88 3d 70 d9 8d 3e 3f 3c 04 3f 7b 18 18 3d
       0.06666574 0.27704954 0.5165443 0.03713272
000220 11 81 19 3f 01 dc 15 3f 65 7e 15 be 08 1a b9 be
       0.59962565 0.58538824 -0.14598997 -0.36152673
000230 eb ab ab 3c 04 47 a2 3e cd 8d 52 3e 37 8e d0 bd
       0.020956 0.31694806 0.20561905 -0.10183375
000240 fa 33 52 3e ac 14 c1 3c 44 ca 6d 3c 40 9f b2 bd
       0.2052764 0.023569427 0.014513556 -0.08721781
000250 0d bb 04 3f 6c 7e 0c 3f 82 f0 4e be e7 72 7a bd
       0.51847917 0.54880404 -0.20208934 -0.061144736
000260 e9 36 2a 3e 27 2f b6 b9 bb fe be 3c e3 61 5e 3d
       0.16622509 -0.00034748876 0.023314824 0.05429257
000270 e6 ff 24 be e2 f3 ba 3e 6c a9 df 3e 7f cb 8d be
       -0.16113243 0.36514193 0.43683946 -0.27694318
000280 30 4b ab bd 64 4f b3 3d 65 a8 61 3d 7c 55 23 3e
       -0.0836395 0.08755377 0.055092234 0.15950578
000290 60 21 00 be ff 20 0c bd 0d 1d 55 bc 95 05 40 3b
       -0.12512732 -0.034211155 -0.0130074145 0.0029300202
0002a0 4a f6 27 bd 6c de 6b 3d 60 ab 60 bd fe 45 21 be
       -0.041006364 0.057585165 -0.054850936 -0.15749356
0002b0 9b 2f 72 bd 76 ae 9f 3d b4 3b 02 be c2 ed 7a bc
       -0.05912743 0.07796948 -0.12718087 -0.015315475
0002c0 36 01 c7 bd 35 db 37 bd 5c a1 f2 3c 00 6a b1 bd
       -0.09717028 -0.044886786 0.029617958 -0.08662796
0002d0 eb fe 94 bd c1 a7 ce bd 31 ab b7 3d 99 7a af bb
       -0.07275184 -0.1009059 0.08968199 -0.005355191
0002e0 a2 c1 61 bd 44 26 6f bd 41 a1 1d 3e dc 65 53 bd
       -0.055116303 -0.058386102 0.15393545 -0.051610813
0002f0 f9 7a ec bd b2 2f 5f 3d a9 1a 57 3d 96 f5 94 3c
       -0.11546893 0.054488845 0.05251566 0.01818351
000300 95 ec 14 bd 23 9b 00 be 67 36 91 bd cb d1 eb 3d
       -0.036358435 -0.1255918 -0.070904545 0.11514624
000310 39 26 fa 3d 9c 96 22 be 34 ab 1f ba 04 dd 72 bd
       0.12214322 -0.15877765 -0.000609088 -0.05929281
000320 a6 5e 05 3e 56 2e bd 3c 74 90 37 3c e5 2d 19 3e
       0.13024387 0.023093384 0.011203874 0.14958914
000330 ce 46 c2 bd 2d 8d a0 bd 58 38 89 bd e6 91 9a 3c
       -0.09486161 -0.07839427 -0.067002 0.018868398
000340 13 09 21 be ef e6 5f 3a 09 f4 af 3c 4d ef 02 be
       -0.15726118 0.00085411867 0.02147867 -0.12786599
000350 5b d1 3a 3d a4 5e 2b 3d 4f c0 31 3d b1 f6 0e be
       0.045609813 0.041838303 0.04339629 -0.13961293
000360 ac d8 24 be 13 d6 38 bb 5d 58 a7 3d 04 3b 00 be
       -0.16098279 -0.002820377 0.08171151 -0.12522513
000370 c3 0a f5 bd d6 0e 0c be e3 75 e0 bd 2c 41 1a 3d
       -0.11964943 -0.13677534 -0.10959985 0.03765981
000380 77 b7 f0 3d f2 28 c1 3a c4 b0 1a 3d c4 a0 05 3e
       0.11753743 0.0014736934 0.037766233 0.13049608
000390 3f bc bd 3d 97 24 d9 bc b6 64 ed bb 5e 57 11 bd
       0.09264421 -0.026506705 -0.0072446717 -0.03548371
0003a0 b0 b9 e6 bd 9a 3a 90 3d 49 f9 3c 3b b0 bd 92 3d
       -0.11265886 0.07042427 0.002883511 0.07165086
0003b0 f8 b1 f4 3d 9a e0 48 bd 31 6d 1a bd 7a 1d 16 be
       0.11948007 -0.04904232 -0.03770179 -0.14659682
0003c0 3c f6 f7 3d 12 d8 a9 bd fb 06 9e bd 8e 3e 82 3d
       0.12107512 -0.08293165 -0.07716175 0.063595876
0003d0 5b a4 16 3e b5 18 13 3d 27 32 83 3d f0 8c 28 3e
       0.14711134 0.035912234 0.0640605 0.16460013
0003e0 d9 dc e3 bd 47 21 8e 3d 9e fb cf 3d b4 35 f6 3c
       -0.11126108 0.06939941 0.10155414 0.030054905
0003f0 3b 18 18 be a3 83 a4 bd 47 a2 b7 3b 71 2d 0a bd
       -0.14852993 -0.0803292 0.0056040618 -0.033734743

conv2.bias f4 [10]
000000 83 ae 35 3d 46 6b 86 bd de 3d 2d 3d 61 fe 8f bc
       0.04435588 -0.065634295 0.04229533 -0.017577352
000010 87 cf d5 bb 3c bc df bd 93 da 8f bb e0 ee 0b be
       -0.0065249833 -0.10924575 -0.0043900697 -0.13665342
000020 18 ab 0d bd 49 ff 98 3d
       -0.034586996 0.07470567

fc1.weight f4 [128, 130]
000000 58 21 91 bc 4c 22 32 3d fe 0a 0a bc df a5 84 3d
       -0.017716095 0.04348974 -0.008425472 0.0647695
000010 59 ff d2 bc 49 6f b5 bc ed 41 7a bd 6a b1 25 bd
       -0.025756525 -0.022147791 -0.061098028 -0.0404524
000020 2e 1c a1 3c 65 3c 01 bd 5c 56 40 3d 13 e3 66 bd
       0.019666757 -0.031551737 0.04695736 -0.0563689
000030 e1 ab 86 bd f7 db 93 3c dc 6e 50 bd c5 84 8d bd
       -0.06575752 0.018049223 -0.050886974 -0.069100894
000040 f4 a2 29 bc fd a9 01 3c ea 1b bb bc a9 74 df bc
       -0.010353792 0.0079140635 -0.022840459 -0.027277308
000050 59 da f6 ba 0e f3 54 bc e7 f6 b0 bc dc 42 8c 3d
       -0.0018833383 -0.012997402 -0.021602107 0.0684869
000060 ac 2a 9f bb 1b 75 c3 b5 a5 67 a8 bd b1 26 1b 3b
       -0.004857382 -1.4562714e-06 -0.082228936 0.0023674185
000070 f0 e7 7d bd be 90 4b 3b a1 a7 b3 3c 5a 00 ea bc
       -0.06198877 0.0031061615 0.021930518 -0.02856462
000080 b7 87 c2 3c af 6f 05 bd 67 67 47 bb 47 c8 42 bd
       0.023746355 -0.032577213 -0.0030426623 -0.04755428
000090 f4 9b 2f bc e4 92 b3 bc f8 37 12 3d ec fb 98 3d
       -0.0107183345 -0.021920629 0.035697907 0.07469925
0000a0 a3 dd 25 bd f8 84 18 3d 43 e0 7c bd 23 89 7d 3d
       -0.040494572 0.037236184 -0.06173731 0.061898362
0000b0 49 84 60 3b e3 2a 0c 3d 57 c3 6a bd 4c 99 3b bd
       0.0034258536 0.034220587 -0.057315197 -0.045800492
0000c0 85 9d a6 3d e3 31 51 bd f5 25 22 bd 14 09 b1 3d
       0.08135513 -0.051072966 -0.03958698 0.0864431
0000d0 ba 8c a7 3d 6f 31 07 3d 9f 85 35 3d 44 ce 6c 3c
       0.08181138 0.033006128 0.044316884 0.014453474
0000e0 0f 1d 55 bc d4 2e ed bc 25 5b 48 3d b1 dc 9e 3d
       -0.013007416 -0.028952993 0.048915047 0.07756937
0000f0 ba 7d 97 3d 0f 98 9d 3d 16 3a 2a 3d 16 16 38 37
       0.07397027 0.076950185 0.0415593 1.0972397e-05
000100 bf 68 a4 bd 8b 96 50 bd a8 4d 32 3d e6 70 b0 3d
       -0.08027791 -0.05092482 0.04353109 0.08615284
000110 6f 5e ab 3d 9f 44 d3 3a 0f 09 28 3d ff bc a5 bd
       0.08367621 0.0016118473 0.041024264 -0.08092689
000120 b5 2f 7b bd d4 84 ec 3c cf a4 0c 3a 8d 5b a4 bc
       -0.061324794 0.028871931 0.00053651346 -0.020063186
000130 c4 c0 ae bd 9b eb a1 bd ec 8d 24 3d 2a 46 65 bd
       -0.08532861 -0.07906266 0.04017441 -0.055975117
000140 40 65 5d bd fd d2 80 3d 88 20 45 3d d7 d1 9b 3d
       -0.054051638 0.06290243 0.048126727 0.07608383
000150 a1 c1 0a bb d9 7e a2 3c b3 92 05 3d 8e bf f6 3c
       -0.002117254 0.019835876 0.032610606 0.030120637
000160 26 2d 8f 3b a4 c1 bd 3a 85 11 93 bd 4c eb 8f 3d
       0.004369396 0.0014477265 -0.07181076 0.07027301
000170 cc 7e 45 bb 06 da 02 bd 5c fc 4b bd f8 9c 37 3c
       -0.0030135391 -0.031946205 -0.049801216 0.011206858
000180 82 af 3c bd 18 4e a2 3c 54 f5 39 3c 73 99 5f 3c
       -0.046065815 0.019812629 0.011349995 0.013647425
000190 46 76 0d 3d 8d d7 2b bb 5b dc d3 3c 12 75 ae 3d
       0.034536622 -0.0026221008 0.02586191 0.08518423
0001a0 a4 15 16 3d 69 74 2e bd d6 d4 e1 bc bc 48 3e bc
       0.03664173 -0.042591486 -0.027567308 -0.011614021
0001b0 f2 30 22 bd 33 9f be 3c a4 a3 78 3d 53 c1 83 3d
       -0.03959746 0.023269271 0.060702935 0.06433358
0001c0 a5 0b 3f 3d 05 98 d8 bc 64 85 a1 3d b5 94 a6 bd
       0.046641964 -0.026439676 0.0788677 -0.08133832
0001d0 c2 79 89 bd bb 4f 50 bd 2f 1c 6a bd ba bc 0b bd
       -0.067126766 -0.050857287 -0.057155784 -0.03411553
0001e0 89 0e 30 bc b7 63 95 bd d0 a9 8e 3d db a5 80 3b
       -0.010745653 -0.0729441 0.06965983 0.0039260215
0001f0 b6 54 09 3d 29 a6 63 bd c0 32 15 bc 39 52 9e bc
       0.033528052 -0.055578385 -0.009106338 -0.019326316
000200 0f bb 3c 3d 80 13 3d bd e2 2a 00 bd 9e 1c 03 3d
       0.04607683 -0.046161175 -0.031290896 0.032009713
000210 56 7f 17 bc 98 d5 d6 bc 53 fc 89 bd 28 a1 ba 3c
       -0.009246668 -0.026224896 -0.0673758 0.022781923
000220 33 3f 00 3d c7 97 13 3d 37 20 25 bd 38 91 82 3d
       0.03131027 0.036033418 -0.040313926 0.063753545
000230 d9 e4 e3 bc 75 7b 11 3d 60 df 34 bc 70 1f 51 bd
       -0.027819084 0.03551813 -0.011039585 -0.05105537
000240 8d 91 55 3c 67 e0 fb bc b9 0c e7 bd 3d 10 92 bd
       0.01303519 -0.030746652 -0.112817235 -0.071320035
000250 63 59 7d bd ac 95 50 bd b9 a5 f2 bc 86 7a 93 bd
       -0.061852824 -0.05092399 -0.029620038 -0.07201104
000260 11 99 87 bc 20 79 49 3c f2 57 90 bd 75 c4 12 be
       -0.01655248 0.012296945 -0.07048024 -0.14332755
000270 1d 65 99 3d 0b dc bf 3b ef 94 e9 bc d1 0c 0e bd
       0.07489989 0.0058550886 -0.0285134 -0.03468019
000280 01 06 de bc 6e 1c d6 bc de 8d 8f 3d e0 10 85 3b
       -0.027102472 -0.026136603 0.07009481 0.0040608495
000290 6e 00 51 bd f9 62 27 3d 0b e4 a6 bd 57 29 07 3e
       -0.0510258 0.040865872 -0.081489645 0.13199364
0002a0 23 a5 7e 3d fc 78 d4 bc 3d 69 94 3d 46 7e ee 3c
       0.062169205 -0.025936596 0.07246635 0.029112946
0002b0 09 a3 ec bc 04 3b ae 3d 5b ec 84 bd b2 01 82 3d
       -0.028886335 0.0850735 -0.06490394 0.063479796
0002c0 72 c3 10 3d 9e 10 d0 bc 37 d0 b9 bb 28 59 03 3d
       0.03534264 -0.025398549 -0.005670573 0.032067448
0002d0 57 bc 8b 39 ac 4b 80 3d 5b 98 38 3d c3 02 3d bd
       0.0002665247 0.06264433 0.045067172 -0.046145212
0002e0 0d 2c b7 3c 4c de 14 bd 73 6b 02 3d 50 26 04 3d
       0.022359872 -0.03634481 0.031840753 0.0322631
0002f0 99 e1 46 bd bc 01 53 3d ff 88 9b 3d af cf 41 3b
       -0.04855499 0.051515326 0.07594489 0.0029573252
000300 fc 6b a3 bd 7e 83 1e bd 26 19 a1 3d c3 30 55 3d
       -0.07979581 -0.03869962 0.07866125 0.052048456
000310 18 6a 26 3d e8 55 81 bd 39 3b 9f bd 36 21 3b 3d
       0.040628523 -0.063152134 -0.07774968 0.04568597
000320 ed b2 66 bb a9 3e b6 3c 19 61 9e 3d 2b 1d 78 3d
       -0.0035201863 0.022246676 0.07733364 0.06057469
000330 15 99 2d 3d 76 c2 86 3d 0d 1f 36 bd 5f bf b6 bd
       0.04238232 0.06580059 -0.044463206 -0.0892322
000340 88 b8 74 bd 49 39 8c 3d 6f 06 8f ba 11 23 d2 bc
       -0.059746295 0.06846864 -0.0010911952 -0.025651487
000350 b6 59 c7 3c c3 4a 83 bc 91 4c a0 bb 13 f7 01 3c
       0.02433477 -0.01602686 -0.00489194 0.007932442
000360 95 4e a4 3a 74 68 3b 3d 4c 3c 85 bd d3 a6 8a 3b
       0.0012535626 0.04575391 -0.06505641 0.004231313
000370 5b 30 da bc 37 be 5a 3d 15 1c b2 3d 24 7a 20 bd
       -0.026634386 0.05340406 0.086967625 -0.039178982
000380 df ac b5 3d 92 fa ad bd 49 43 30 bd d5 a5 f4 3c
       0.08870863 -0.08495058 -0.043032918 0.029864231
000390 b6 22 30 bd 65 e2 ec bc b7 0e 0c bc 37 74 8f bc
       -0.043001853 -0.028916547 -0.00854843 -0.01751147
0003a0 86 1d 6d bd 17 31 9e 3d 89 5b 76 3d 30 70 62 bd
       -0.057889484 0.07724207 0.06014589 -0.05528277
0003b0 27 d1 09 3d f2 e0 0f bd 4b dc 81 3d 50 42 dc 3c
       0.03364673 -0.035126634 0.06340846 0.026887089
0003c0 f1 08 1d bd 14 05 06 3d 8c 44 1a 3d e5 09 e5 3c
       -0.038338605 0.032719687 0.037663028 0.02795882
0003d0 3a f2 e9 bc dd 12 e7 bc 1a 64 ec 3d bd 50 7a bb
       -0.028557885 -0.028207237 0.1154253 -0.0038195096
0003e0 12 96 10 3c e3 41 8b 3c 7b df 1d 3d 0e c0 39 3d
       0.008824842 0.01699919 0.038543206 0.045349173
0003f0 05 73 8d 3d 44 30 ff bc a5 fe 71 bc 69 f4 67 3d
       0.06906704 -0.031150945 -0.014770185 0.056629572

fc1.bias f4 [128]
000000 6c 02 33 bd d9 5c fd bd df 49 da 3a cb 82 99 bd
       -0.04370348 -0.12371225 0.0016654095 -0.0749565
000010 7e 73 79 3d 40 07 e7 3d 9e 16 91 3d 19 2c b9 bd
       0.060901158 0.1128068 0.07084392 -0.09041614
000020 88 55 29 bc 72 9c 9e 3c d2 38 21 bd 8f f7 22 bc
       -0.010335334 0.019361708 -0.03936083 -0.009946718
000030 db 30 b1 bd 65 0c b4 3b de 71 2e be bb bd 3e bd
       -0.086518966 0.0054946416 -0.17035624 -0.04656766
000040 d2 90 2a 3d 5b f9 20 bc 35 1b f3 bd 00 1b a2 ba
       0.041642018 -0.009825076 -0.11870424 -0.0012367666
000050 a3 6d c1 3c 69 39 db 3c cf 60 a1 bd c6 f5 b8 3c
       0.02361185 0.026760774 -0.07879793 0.022578131
000060 35 11 41 3d f2 68 fa 3c a3 f0 c9 bd c8 67 ad 3d
       0.04713555 0.03056762 -0.09860351 0.0846706
000070 4f 98 32 3d 83 a2 ad bc 00 20 94 3c 7d fc 82 bd
       0.043602284 -0.021195656 0.018081665 -0.063958146
000080 dc 62 73 bd fd 4a ca 3c 6e 05 d7 bd 0d 84 31 3d
       -0.05942045 0.02469396 -0.104990825 0.043338824
000090 90 43 b1 bb cb ea 8f bd c3 21 67 3c 29 48 da bb
       -0.0054096654 -0.07027205 0.0141071705 -0.006661434
0000a0 35 e0 82 bd b5 b5 53 bc 94 70 33 3d 31 a1 28 3c
       -0.0639042 -0.01292174 0.043808535 0.010292337
0000b0 76 42 00 bd af 72 1d 3d c0 97 5d bd 69 2c b2 3d
       -0.031313382 0.03843945 -0.0540998 0.08699877
0000c0 07 21 c2 3b 0c 1f ee bd 0c df a7 bd 7a 53 8c 3d
       0.0059243473 -0.116270155 -0.0819684 0.068518594
0000d0 c0 94 19 bd 1a 57 fc 3c 39 07 f8 bb 1a 32 b0 bc
       -0.037495375 0.030803252 -0.0075692204 -0.021508265
0000e0 fd 91 97 3d b6 0a 84 bd 8e 72 db bc 6d d6 b2 3c
       0.07400892 -0.064473554 -0.026788022 0.021830762
0000f0 c7 00 a2 3c ed 59 96 bc 51 42 35 bd 2f 72 ce bd
       0.019775761 -0.018353427 -0.044252697 -0.100803725
000100 64 e2 15 3e b3 2a 35 bd f0 df 17 bc 8b f4 93 bd
       0.14637142 -0.044230174 -0.009269699 -0.07224377
000110 26 c7 cb bb 28 00 c8 3d b2 ab 3d 3e 88 96 90 bd
       -0.0062188087 0.09765655 0.18522528 -0.070599616
000120 1c 2d 9b 3c 9b 4f d4 bc 57 a2 0f 3d 96 52 d1 3d
       0.018942408 -0.025916865 0.03506693 0.1022083
000130 b4 3e 55 bb 30 a5 bf bc 7e 06 66 3c c3 1f 90 3c
       -0.0032538595 -0.023394197 0.014039634 0.01759327
000140 fb 6c 08 3b 64 76 b4 3d 93 38 5e bc 35 5c 25 be
       0.002081691 0.08811644 -0.013563293 -0.16148455
000150 cd 52 a7 3c 86 f0 fb bc 05 e7 00 3e 4c 7e 67 3c
       0.020425225 -0.030754339 0.12588127 0.014129233
000160 81 0e 8f 3c d1 cd 23 bd d7 d0 ee 3d f0 c3 d0 3d
       0.01746297 -0.039991204 0.11660927 0.10193622
000170 38 8f 34 be 5d 2c 05 3e d5 09 81 3d e9 d8 d5 3d
       -0.17632759 0.13005204 0.063007034 0.10441763
000180 a8 f3 1a 3d 45 dd 1a 3e c6 e8 52 3b d2 e4 1e 3c
       0.037830025 0.1512347 0.00321822 0.00969811
000190 d1 27 a1 bd 15 dd ca bd 99 f3 5e be 70 f2 44 bd
       -0.078689225 -0.09905449 -0.21772613 -0.04808277
0001a0 a9 e1 6e bc e6 f6 2b bd f7 09 27 3d 40 33 76 3d
       -0.014580169 -0.041983508 0.040780988 0.06010747
0001b0 e3 8c 60 bb 7d c8 fa 3c 32 41 ba 3d b4 a0 82 bd
       -0.0034263663 0.030613178 0.09094466 -0.06378308
0001c0 a7 df 1e 3d e7 75 1a 3d 24 79 a3 3c e0 d9 4a bd
       0.03878751 0.037710097 0.019955225 -0.049524188
0001d0 01 63 17 bd 31 95 25 be b4 e6 d5 bd 64 c7 0c 3d
       -0.03695965 -0.16170193 -0.10444394 0.03436984
0001e0 73 0b 10 3d 27 12 98 3c 08 47 68 3d 44 25 d9 3b
       0.03516717 0.018563343 0.056708366 0.006626757
0001f0 98 f1 12 be a5 9b 19 3e 18 b6 5b 3e 94 9c 54 bb
       -0.14349973 0.1500078 0.21456182 -0.003244196

fc2.weight f4 [64, 128]
000000 8a 3b 5a bd 08 00 8e 3d 57 3f 72 3c f6 53 ed bc
       -0.053279437 0.069336 0.014785609 -0.0289707
000010 ac 31 d6 3d 86 2c eb bc 69 34 1e 3d e5 74 2b 3d
       0.10458693 -0.028707754 0.0386242 0.041859526
000020 bd 7f 92 bc c2 f8 18 bc 6d 2e 51 bd e3 b1 fc 3c
       -0.017883176 -0.009336652 -0.051069666 0.030846542
000030 76 59 4e 3d 71 28 fe 3c a5 97 c2 bc 8c ed 57 3c
       0.050378285 0.031025143 -0.02375395 0.013179194
000040 c8 04 5c 3d e3 c7 6f bd 67 d5 02 3d 9c 83 c3 3c
       0.053715497 -0.058540236 0.031941798 0.023866467
000050 0c 58 b7 3d dc d4 81 3d 3a 5f b0 bd c9 56 01 3d
       0.089523405 0.06339428 -0.08611913 0.031576905
000060 11 68 b5 bd b2 8e a5 3b da c4 af bc 8a 8d 84 bb
       -0.0885774 0.005052411 -0.02145617 -0.004045193
000070 63 3b 30 3d 55 30 a7 3b da 39 88 bd 76 60 5c bd
       0.043025386 0.005102197 -0.06651659 -0.05380293
000080 ba 22 98 bd 70 05 ae bc d1 55 35 bd e1 be f8 3c
       -0.074284986 -0.021242827 -0.044271294 0.030364456
000090 56 bd 9a 3d b4 66 50 bd 99 7f b0 bc 24 96 99 3d
       0.07555644 -0.050879195 -0.021545218 0.0749934
0000a0 5f f3 b2 bd 28 3e 9e bc 89 0b a6 bd 91 b6 1c bc
       -0.087378256 -0.019316748 -0.08107669 -0.009565012
0000b0 bb 5d cc bc 92 a4 86 bc 2f e7 a8 bc 05 01 5e 3d
       -0.024947038 -0.016435895 -0.02061805 0.05420019
0000c0 41 27 a9 bd fa 4b 0b bd cd 46 62 3d eb 55 d0 3b
       -0.0825944 -0.034008004 0.055243302 0.0063578985
0000d0 6e d7 c2 bc c4 5f 7d 3c 2d 4c 84 bd 5d 9b 2c bd
       -0.023784366 0.015464727 -0.06459842 -0.042140353
0000e0 44 9d af bc ca 34 6e 3d 98 45 ea 3c 63 2e 75 3d
       -0.021437295 0.058155812 0.028597638 0.05985869
0000f0 c3 a6 18 3d 72 f3 b8 3c af ce 8b bd cb 6b a3 3d
       0.03726841 0.022577021 -0.06826531 0.07979544
000100 73 f7 82 3d 7f 3a 91 3d 84 76 08 3d 07 c1 9f 3d
       0.063948534 0.07091235 0.03331615 0.07800489
000110 c7 cd 5d bb 8a f4 1b bd 4d 35 80 3d ea 5d 26 3d
       -0.0033844577 -0.038075007 0.06260166 0.040616907
000120 3c 52 9a 3c 26 3b 64 3d a3 fe 2c bd d8 0d d1 bb
       0.01883804 0.05572047 -0.042235028 -0.006379824
000130 38 da 9d bd db 60 81 bd 56 dd 82 bd d8 7e f9 bc
       -0.077076375 -0.06317302 -0.06389873 -0.030455992
000140 20 96 06 3d 65 4f a0 3c 3a 94 f9 3b 7e eb b2 bc
       0.032858014 0.019569108 0.007616547 -0.021840807
000150 c3 7e 86 3d f5 f7 81 3c 7a 8b 04 3d ee 03 7a 3d
       0.06567147 0.015865305 0.032359578 0.061038904
000160 3d 8b a4 3d 8e 1c 6f 3d 71 53 4c 3d fe ab 2d 3d
       0.0803437 0.05837684 0.049884263 0.042400353
000170 02 01 17 bc 2a 30 a7 bc 31 cf c4 bd 0f ca 2d bd
       -0.009216549 -0.020408709 -0.09609831 -0.042429026
000180 61 4f 8e bc 6d ab 94 3c 5e 5e 1e bd 02 4a 60 3d
       -0.017371835 0.018148148 -0.038664214 0.05475808
000190 01 68 95 bd 04 ab 71 bd 5d 85 a3 bd e9 70 64 bd
       -0.07295228 -0.059000984 -0.079844214 -0.055771742
0001a0 89 13 3c 3d 3d 13 cf 3c 33 2d 4c 3d 7b c0 2e bd
       0.045917068 0.025277728 0.049847793 -0.042664032
0001b0 f6 a1 0e bc 40 6b 9e 3d f8 cc 6e 3d c2 e6 6d 3d
       -0.008705607 0.077353 0.058300942 0.058081396
0001c0 e2 24 c2 3c dc 19 8e 3c e3 ab 1e bd f0 f9 be bc
       0.023699228 0.017346315 -0.038738143 -0.023312539
0001d0 6e de a3 3c 14 03 06 3c 53 44 34 3d 72 0d 10 3c
       0.020003524 0.008179445 0.04401047 0.008792268
0001e0 ba 6a fc bc e8 74 da 3c ce 4e 56 bd bf 37 10 3d
       -0.03081261 0.026667073 -0.052321248 0.035209414
0001f0 17 ce cb bd 3d 06 75 bc eb b4 32 3c 66 c7 e5 bc
       -0.09951418 -0.014955101 0.010907392 -0.028049182
000200 93 41 cf bc 4e 5b 11 bd 9a cb a7 3d be ab 97 3d
       -0.025299823 -0.035487466 0.08193131 0.07405804
000210 68 a5 de bc 4a 1e 4c bd c3 73 38 bd 0d 16 0b bd
       -0.027178481 -0.049833573 -0.045032274 -0.033956576
000220 8b 04 64 3d 8b ad 13 bc 2e 6b 96 bd 12 56 d5 3c
       0.055668395 -0.009013544 -0.07344662 0.026042018
000230 1f 1b 27 3d d7 b5 2e bc 2c a3 fe 3c 3f 0f 22 bd
       0.04079735 -0.010663471 0.031083666 -0.03956532
000240 08 bb 84 bd 85 54 6f 3d ea 61 b8 3c 08 1d e5 ba
       -0.06480986 0.058430213 0.022507627 -0.0017479965
000250 16 a3 4f bb a9 34 08 bb b8 1e 8f 3d 64 e7 cd 3c
       -0.00316829 -0.002078334 0.06988281 0.02513475
000260 46 1b 77 3c f2 fa 55 bc 53 35 a7 bd b7 f4 cc bb
       0.015082186 -0.013060318 -0.08164468 -0.006254758
000270 97 6f 41 3d 71 e8 b7 bc e0 ee a5 bc 55 65 02 3d
       0.04722556 -0.022449704 -0.020255506 0.03183492
000280 6d b8 40 bd 22 99 ad bd 01 6a 04 bd 49 b8 7f 3d
       -0.047050882 -0.084764734 -0.032327656 0.062431607
000290 da 57 30 3d 08 e9 37 bd ac a8 e9 bc 1d 73 e1 ba
       0.04305253 -0.04489997 -0.028522812 -0.0017200444
0002a0 12 7f b8 bc 57 d2 45 bd 80 88 ab 3c 3a 91 f2 bb
       -0.02252153 -0.0482963 0.020939112 -0.0074025663
0002b0 a6 35 00 3d bf bd ac 3d ff 62 e7 3b 85 cb 33 3d
       0.031301163 0.08434629 0.007061362 0.043895263
0002c0 7f c6 c7 bb a5 38 8c 3d 67 2e 3b bd f9 3a 9e bc
       -0.0060966606 0.068467416 -0.04569855 -0.01931523
0002d0 3b 59 30 bd f0 61 d2 3c e2 59 7b bb 67 7f e7 3c
       -0.043053847 0.025681466 -0.0038353135 0.028258992
0002e0 75 b6 a1 3a 6d ef bb ba fe 97 7e bd 5f d8 1f 3d
       0.0012337702 -0.0014338322 -0.06215667 0.039024707
0002f0 9b d3 0b 3d 15 4a 28 ba 46 35 ad 3c 36 7b e3 3b
       0.03413735 -0.00064197305 0.021143567 0.006942178
000300 39 dc 7f bd f5 6a 44 bd f0 42 61 3d 96 a3 71 bd
       -0.06246588 -0.047953565 0.054995477 -0.0589939
000310 71 d7 b9 3c eb 09 1c 3d fe 3d 3e bc 1b 94 a7 3c
       0.022685738 0.038095396 -0.01161146 0.020456364
000320 bf 01 a6 3c 19 0f 8b bd bf ac 57 3d 40 1e 56 bd
       0.020264504 -0.06789989 0.052654978 -0.052274942
000330 86 f3 9c 3c 65 5e 87 3c ba 43 2d bd 5e 55 92 bd
       0.01915909 0.016524503 -0.042300917 -0.07145189
000340 cf 42 b5 3d be e7 87 bd 1a f0 3f bd 09 f1 11 bc
       0.08850633 -0.06635998 -0.046859838 -0.008907565
000350 9a 52 14 bc f7 27 3b 3b 55 d0 b5 3d 63 25 8e bc
       -0.009052897 0.0028557756 0.08877627 -0.017351812
000360 5c 7c 95 bd b6 f9 99 3c 9f eb 66 3d 6f 89 c5 3b
       -0.0729911 0.01879583 0.05637705 0.0060283463
000370 f1 1d 2d 3d 08 36 87 bd 9c b0 e5 3c 69 46 36 3c
       0.042264882 -0.066021025 0.028038315 0.0111251855
000380 7f d1 66 3d 9e 25 8a 3d cc 10 73 3d f0 f6 a7 3c
       0.056352135 0.06745456 0.05934219 0.020503491
000390 b6 61 39 3c 39 fe d5 bc e1 cf 96 3d 5f 66 4f 3d
       0.0113148 -0.0261222 0.073638685 0.050634738
0003a0 ec 1a 17 3d bf 27 96 3d 46 fa a7 3b 28 ee 74 3d
       0.03689091 0.073318 0.0051262705 0.059797436
0003b0 9a 14 47 3c 36 51 2d 3d a4 bb 86 3d 32 aa 96 3d
       0.012150908 0.042313777 0.06578758 0.07356681
0003c0 17 18 88 bc 00 0e 4d 3c 30 46 7d 3c 3f b5 4d 3d
       -0.01661305 0.012515545 0.015458629 0.050221678
0003d0 8c e5 b7 3b b8 79 4f 3d 3a 54 80 3d 3a 5e cb bc
       0.005612081 0.05065319 0.06266065 -0.024825204
0003e0 1e 3f 6a bd a3 c6 9f 3c a5 75 65 3d f2 5c 6c bd
       -0.0571891 0.019503897 0.056020398 -0.057705827
0003f0 48 f9 39 bd 57 ce 96 3d 91 7f 6c bd 48 e4 b3 3d
       -0.04540375 0.07363575 -0.057738844 0.087837756

fc2.bias f4 [64]
000000 ab 83 55 bd 17 62 16 3e 82 24 6c bd bc cc bd bc
       -0.05212752 0.14685856 -0.057652004 -0.023168914
000010 be 02 af bd 00 01 c5 bc a6 f0 84 bd f3 63 05 3a
       -0.08545445 -0.024048328 -0.064912125 0.0005088441
000020 29 9e 1c bd 09 05 c1 3d be 17 91 3d 1a 3b af 3d
       -0.03823677 0.094247885 0.070846066 0.085561946
000030 60 08 d9 bd 98 d5 9a 3d c9 81 1b bc 61 e0 04 bc
       -0.105973005 0.07560271 -0.009491392 -0.008110137
000040 14 55 50 be 47 d4 dc 3d 3e 7d 43 bd 08 72 2a 3c
       -0.20344955 0.10782676 -0.047726862 0.010403164
000050 4a 36 9a bc fd a2 98 3d a0 69 28 be 07 42 f5 3b
       -0.018824715 0.074529625 -0.16446543 0.0074846777
000060 ae 39 12 bc 61 f9 90 3d 93 33 5e be d6 5e 5f 3d
       -0.008924885 0.07078815 -0.21699362 0.054533802
000070 d1 04 75 3d f3 a4 45 3c 4d b7 6a 3d 2b 3a 80 bc
       0.059819046 0.012063253 0.057303715 -0.015652737
000080 f9 7d ca bc 48 7c ed 3b 95 be b6 bd 06 16 e2 bd
       -0.024718272 0.0072474815 -0.089230694 -0.11039357
000090 13 27 e3 bd f8 b0 06 3e b7 49 cb bd fd 53 a7 bd
       -0.11091437 0.13153446 -0.09926169 -0.08170316
0000a0 9e 4a dc 3d d6 6e 8c bc 45 dd 1c 3e f7 1a dd bc
       0.107564196 -0.017142694 0.15318783 -0.026990397
0000b0 ef eb ec bd 38 9d 55 bd f2 eb 17 3e 24 44 22 3e
       -0.11568438 -0.05215189 0.148361 0.15846306
0000c0 a5 d2 ae 3d b4 b9 a2 bd 16 56 95 3c 83 78 39 bd
       0.08536271 -0.07945576 0.018229526 -0.045280945
0000d0 5d ef e1 bc 45 93 73 3c 62 5d 9c bd 82 a0 ba 3d
       -0.027579958 0.014866655 -0.07634999 0.09112646
0000e0 9e 28 a4 3d 59 a4 58 bb 32 56 87 3d 2e e9 80 bd
       0.080155596 -0.0033056943 0.06608237 -0.062944755
0000f0 33 9c 86 bd b2 09 98 3d 7f 13 8e 3e 61 af 8e 3d
       -0.065727614 0.07423724 0.2774925 0.069670446

fc3.weight f4 [5, 64]
000000 36 4d 20 38 3f 43 df b7 b1 a2 37 3c 4f 82 1f 3c
       3.821888e-05 -2.6614985e-05 0.011208222 0.009735658
000010 12 01 6e 3d 7e 0b 8c 39 eb b7 c9 3d bf cf 6d 3d
       0.05810649 0.00026711443 0.09849533 0.05805945
000020 ec d5 f3 bb 34 f7 d2 b8 fd a8 64 39 ac ec 72 b7
       -0.007441273 -0.000100596255 0.00021806727 -1.44794285e-05
000030 00 94 49 bd 84 a4 8f 38 0a b8 9e 38 ac cb 5f bd
       -0.04921341 6.849415e-05 7.568307e-05 -0.054637596
000040 1e e4 9e 39 d8 92 d9 b8 c2 bc 50 3d d2 4b 9c 38
       0.0003030607 -0.00010374718 0.050961263 7.452782e-05
000050 2d ea db bd 85 3e 8f b9 8e 4a 4e 39 f0 f9 aa 3d
       -0.10738025 -0.00027321666 0.00019673465 0.08348453
000060 d4 ba 84 bd ec 11 37 b9 7e 61 0b b9 4b fb b6 39
       -0.06480947 -0.00017458916 -0.00013292392 0.00034900973
000070 a6 33 2a 39 38 b8 cd b8 2d 87 2c 38 be f4 13 ba
       0.00016231704 -9.809475e-05 4.1133888e-05 -0.00056440744
000080 fc b9 db b8 d6 e4 63 bc 6d db b3 bd e9 74 b3 3d
       -0.00010477376 -0.013909539 -0.087820865 0.08762533
000090 42 2d 99 bd 44 aa d1 b8 c5 50 2d 3d 10 8e e3 3b
       -0.07479335 -9.997611e-05 0.042313356 0.0069444254
0000a0 07 18 e6 b8 6b d7 a8 3d a9 ea f2 38 54 15 aa bd
       -0.0001097173 0.08244213 0.00011583168 -0.08304849
0000b0 0f 13 da 3d 34 5f b9 3d 22 e7 4e 39 65 80 60 39
       0.106481664 0.09051362 0.00019731795 0.00021410135
0000c0 bc 10 76 38 05 c2 80 bd 2d 5c 46 38 22 a5 37 39
       5.8666556e-05 -0.06287006 4.7292724e-05 0.00017513757
0000d0 3f f8 ae 3d 24 5f 34 bc ce 8e aa 39 2d f8 b8 b8
       0.08543443 -0.011009011 0.00032531325 -8.82003e-05
0000e0 5f d7 f3 37 5c f5 b7 b8 66 0b 65 b8 b8 2c bd bd
       2.9068147e-05 -8.771822e-05 -5.460847e-05 -0.09237045
0000f0 fb 04 c8 39 22 0e 2d b9 0e 23 93 b7 4a d2 68 b9
       0.00038150683 -0.0001650383 -1.754009e-05 -0.00022203583
000100 c7 6d 27 39 d6 56 87 b7 b5 17 b0 3a 5f ed 97 bb
       0.00015967256 -1.613369e-05 0.00134348 -0.004636451
000110 b5 a3 50 bc 91 5a 07 3a 2d ca 87 bd 3d 30 26 bd
       -0.012734343 0.0005163337 -0.06630359 -0.040573347
000120 56 46 87 3d 10 96 05 b9 2e b0 ad 3a 44 85 80 b7
       0.066052124 -0.00012739771 0.0013251358 -1.5320846e-05
000130 5f 68 d3 bd 20 87 e2 36 83 89 da b8 80 bd ab bd
       -0.103226416 6.7510555e-06 -0.000104206636 -0.08385754
000140 7c 6c 75 39 a2 bd ed b8 28 3c bd bd 2c be 8c 39
       0.00023405434 -0.000113363625 -0.092399895 0.0002684457
000150 51 5b 94 bd b9 42 16 b9 52 d4 89 39 3c 35 e7 3d
       -0.0724398 -0.00014329971 0.00026288867 0.112894505
000160 21 6f b9 3c 80 79 a4 b8 16 06 74 39 69 ea de 38
       0.022635998 -7.8427605e-05 0.0002327192 0.00010629447
000170 90 13 43 39 fc f8 48 39 c0 85 ad 38 2d 7a a4 ba
       0.00018603937 0.0001916624 8.274196e-05 -0.0012548618
000180 25 3e 02 39 aa 2a 87 3d a0 e5 c3 bd 71 42 c0 bc
       0.00012420917 0.065999344 -0.09565282 -0.023469182
000190 f4 66 36 bd 94 ca 9e b8 f4 6b 1c bd 4f 63 b8 3d
       -0.044531778 -7.57176e-05 -0.03818889 0.090033166
0001a0 fe 39 62 38 58 58 9b 3d 4e 48 4a 38 1b b7 0e 3c
       5.393661e-05 0.075852096 4.8227892e-05 0.008710648
0001b0 29 05 12 3d a0 66 90 bc ac 5c 56 37 80 39 8b 38
       0.035649452 -0.01762706 1.2776971e-05 6.638747e-05
0001c0 86 10 eb 38 92 a8 71 3d 7c 88 e7 38 2a c6 51 37
       0.00011208751 0.05899865 0.000110403606 1.2503509e-05
0001d0 6c 02 10 bc ee 45 d1 bd f1 12 56 3a 0e 01 5c b8
       -0.00878964 -0.10218416 0.00081662746 -5.245307e-05
0001e0 74 0f cc b9 e0 41 1e 37 38 a9 09 b8 ef c4 a4 bd
       -0.00038921426 9.432872e-06 -3.2820943e-05 -0.080453746
0001f0 4c 6c 5d 39 7c 31 17 ba 4f ed cf 39 d8 f4 5b 37
       0.00021116546 -0.00057675666 0.00039658925 1.3110424e-05
000200 76 2d e8 b9 c8 fc 28 3a ec 69 aa 3d 15 2d 41 bb
       -0.0004428436 0.0006446359 0.08320984 -0.0029476334
000210 48 87 41 bc 7c b9 04 3a 1f 02 82 bd 52 39 cd 3d
       -0.011812039 0.000506304 -0.06348061 0.100206986
000220 6f 8a 45 3b 0e 42 05 b9 97 57 c9 3c d5 91 d9 b9
       0.0030142327 -0.00012708476 0.024577899 -0.0004149812
000230 ce e0 17 3d c3 2c 97 3a d2 b6 b7 37 02 6f b2 3c
       0.037079625 0.0011533726 2.1900432e-05 0.021781448
000240 9e e4 29 3f 32 fa 0b b7 07 65 36 3d b0 9e ba b9
       0.6636447 -8.343299e-06 0.04452994 -0.00035594916
000250 86 cb ee 3d 81 02 46 ba 9e e3 84 39 11 04 99 3d
       0.11659913 -0.00075534737 0.0002534659 0.07471479
000260 ba 29 b1 ba 18 6c e4 38 af 02 1f b9 c6 25 ea b9
       -0.0013516464 0.00010892021 -0.00015164421 -0.000446601
000270 ea 09 00 39 07 26 12 3b 17 7e 55 3a 9f 43 d0 39
       0.00012210725 0.0022300498 0.0008144094 0.00039723233
000280 4d b4 41 ba 06 42 c8 3d 1c fb e9 3d a2 2d d2 bd
       -0.00073892326 0.09778218 0.114248484 -0.1026261
000290 9c 65 c3 bd 95 16 c0 39 17 66 1a 3d e0 d5 ff bc
       -0.09540865 0.0003663792 0.037695017 -0.031229913
0002a0 42 0d 1d 3a 42 3f b2 3d 7a 75 22 39 90 85 99 bb
       0.000599105 0.08703472 0.00015493287 -0.0046851113
0002b0 7c 6d 92 3d 36 dd d5 bd f3 ac 6d 3a 8b cd 9f 3a
       0.07149789 -0.10442583 0.0009066604 0.0012191994
0002c0 94 b8 5f b9 4b 72 91 bd 04 72 2f b9 dd 7a 19 ba
       -0.00021335698 -0.07101878 -0.00016731775 -0.0005854795
0002d0 4f 4e ea bd c8 ad 2e bd f7 ab 99 3d 35 ef 29 3a
       -0.114407174 -0.0426462 0.07503503 0.0006482483
0002e0 b1 73 68 3a 61 35 72 38 61 2b e1 39 af d2 cc 3d
       0.0008867337 5.774701e-05 0.00042947664 0.10001122
0002f0 c0 79 4e b9 28 db 7c ba 94 ed 1a ba d6 e8 ac ba
       -0.00019691046 -0.0009645694 -0.00059100357 -0.0013191949
000300 f0 b7 ad 3d 64 29 59 bd 1c 04 cb bd e1 63 09 bd
       0.08482349 -0.05301799 -0.09912893 -0.033542518
000310 c9 df e6 bd d2 23 f8 3e 24 c8 df 3d fe ef b4 3d
       -0.112731524 0.4846483 0.10926846 0.088348374
000320 92 86 0a 3c f8 51 94 3a 54 6e d5 bd 74 4f 03 b9
       0.008454936 0.0011315932 -0.10421434 -0.00012522732
000330 2c 2e ef bc df 3c d9 bd 74 ad db b9 45 2b df 3d
       -0.029196821 -0.10607313 -0.00041900168 0.10896925
000340 5b 20 91 be 32 45 31 b9 77 49 41 bd 2b 0d 0f 3d
       -0.28344998 -0.00016905813 -0.047189202 0.034924667
000350 71 2d 25 3d 5a 36 74 ba 0e 50 94 39 aa f1 d2 bd
       0.04032654 -0.00093159603 0.00028288405 -0.103
000360 e3 a0 f8 bd 9f 5a d6 bc 2b 3d 11 38 0b fb 57 b9
       -0.12140062 -0.026166258 3.462766e-05 -0.00020597519
000370 4a df b1 bc 83 15 4b 3f 93 a3 7e bd 14 78 9e bc
       -0.021712918 0.793297 -0.062167715 -0.019344367
000380 70 fe 60 3d e6 2c 30 3d 7f 0a 8d 3c 29 35 8f bd
       0.05493015 0.04301157 0.017216919 -0.06992561
000390 6e 8f 92 3d 8b aa 3c 3f 3c 55 96 bd 6c 9e dc bc
       0.07156263 0.7369773 -0.07340476 -0.02693101
0003a0 d8 de b9 39 57 92 00 3c 28 18 8e 39 9f 55 c2 3d
       0.0003545198 0.00784739 0.00027102348 0.09488987
0003b0 b1 22 e6 bd 89 a5 a6 3d 3c 46 d5 bd 56 59 9f bd
       -0.112370856 0.08137042 -0.10413787 -0.07780711
0003c0 06 3d 85 3a ea 13 b3 3b 8b fa 90 3c 54 8c 72 3d
       0.0010165281 0.0054650204 0.017697593 0.05921586
0003d0 c1 e9 f9 bd 1d 81 ce 3d 00 19 23 3d 53 99 67 bd
       -0.12202788 0.1008322 0.039818764 -0.056542706
0003e0 fd a3 ab bd 2a 25 02 bd 40 ad 82 b9 75 a5 c5 bd
       -0.08380888 -0.031773724 -0.00024924614 -0.09650699
0003f0 54 44 d5 3c ff f8 50 3f 58 af 8d 3f 8a dc e8 3d
       0.026033558 0.8162994 1.1069136 0.113701895

fc3.bias f4 [5]
000000 0c 83 c2 be 37 93 c2 be 75 df c2 be 4e fa a1 be
       -0.37990606 -0.3800294 -0.3806111 -0.3163628
000010 40 07 2e be
       -0.16994953
