tb_logs/ConvNet_1_0_2_mozart/version_4/checkpoints/epoch=19.ckpt (torch_old, 695676 bytes, 24 tensors)

momentum_buffer f4 [10, 5, 4]
0.04963309 -0.017128535 0.075777896 -0.002046131 0.038101666 0.0061128032 0.0062953867 -0.0039258413
0.0029768357 -0.0067962613 -0.002811619 -0.0016069021 -0.007526559 -0.004881733 -0.002656513 -0.0018920759
-0.002656513 -0.002656513 -0.002656513 -0.002656513 0.111903235 0.049758233 0.22986273 0.065255836
-0.018549446 0.01005874 -0.01194807 -0.05113957 -0.027090445 -0.014952439 -0.007486476 -0.02213699
-0.011765175 -0.0075460635 -0.009013417 -0.0030868375 -0.0075593917 -0.0075593917 -0.0075593917 -0.0075593917
-0.10363391 -0.07900901 -0.090666085 -0.19376877 -0.007927585 0.02423264 0.022277903 0.033752378
-0.0051824907 -0.004258725 -0.0035262357 -0.011983589 -0.0021562506 -0.0027842107 -0.00082022516 -0.0026659875
-0.0021562506 -0.0021562506 -0.0021562506 -0.0021562506 -0.10893268 0.0151438955 -0.06596031 0.010018808
-0.0010359263 -0.0034376343 0.020446077 0.015026746 0.004626056 0.0040661492 0.0038020192 0.0040963683
0.00535642 0.004097379 0.00065347634 0.004195583 0.004178565 0.004178565 0.004178565 0.004178565
-0.06716477 -0.01229384 0.18106085 -0.05015174 -0.0017083862 0.0051860227 0.08060606 0.023423433
-0.0021432473 0.0034199094 -0.004840483 0.016595453 -0.0021033746 -0.0015527443 -0.0047118645 -0.00037047733
-0.0014326947 -0.0014326947 -0.0014326947 -0.0014326947 0.038594387 -0.019032821 0.16190855 -0.003561731
-0.018770868 -0.016582033 -0.0069923834 -0.012836907 -0.013924858 -0.01810699 -0.016542068 -0.014059668
-0.013924858 -0.013924858 -0.015067005 -0.013924858 -0.013924858 -0.013924858 -0.013924858 -0.013924858
-0.059930947 0.012718543 -0.07827319 -0.013301682 -0.016205665 0.023842439 0.01836045 0.059467092
0.014651394 0.0021167304 0.004040935 -0.008156365 0.006018133 0.005315216 0.0052889683 0.0015159431
0.0053046285 0.0053046285 0.0053046285 0.0053046285 -0.038920686 -0.062380433 -0.22732878 -0.0546491
0.04746976 0.016271627 0.06975716 0.01797436 0.054859444 0.007903356 0.023427537 0.02328955
0.0066213193 0.014238812 0.010016143 0.015945053 0.012945694 0.012945694 0.012945694 0.012945694
0.054359246 -0.1834166 -0.07420915 -0.06608051 0.02792147 -0.027032716 -0.041463133 0.043454032
-0.0016553829 0.006847266 0.0009342264 0.034283087 0.0024051256 -0.0017755372 0.004996026 -0.0005689401
0.0044628954 0.0044628954 0.0044628954 0.0044628954 -0.048009228 -0.057579536 -0.002001252 -0.055293422
0.011064159 0.03429893 0.07161365 -0.02824042 0.003680191 -0.002839561 0.022678979 0.001998418
0.00400256 -0.0032514695 -0.0005862212 0.00042638672 0.00044834777 0.00044834777 0.00044834777 0.00044834777
00000000: 114c 4b3d 2451 8cbc 7131 9b3d 6218 06bb
00000010: 7e10 1c3d e94d c83b 8849 ce3b 58a4 80bb
00000020: 0417 433b 2cb3 debb 2443 38bb b09e d2ba
00000030: 5aa1 f6bb f2f6 9fbb e418 2ebb 88ff f7ba
00000040: e418 2ebb e418 2ebb e418 2ebb e418 2ebb
00000050: 862d e53d 4acf 4b3d 2361 6b3e daa4 853d
00000060: 02f5 97bc 6acd 243c d6c1 43bc ba77 51bd
00000070: c8ec ddbc 13fb 74bc 1d51 f5bb a258 b5bc
00000080: b8c2 40bc f844 f7bb 03ad 13bc 8a4c 4abb
00000090: c6b4 f7bb c6b4 f7bb c6b4 f7bb c6b4 f7bb
000000a0: 043e d4bd 7acf a1bd 24af b9bd 526b 46be
000000b0: b4e2 01bc 8883 c63c 2680 b63c ef3f 0a3d
000000c0: e2d1 a9bb c68c 8bbb 6b18 67bb d156 44bc
000000d0: e24f 0dbb 4e77 36bb 6104 57ba d9b7 2ebb
000000e0: e24f 0dbb e24f 0dbb e24f 0dbb e24f 0dbb
000000f0: 1918 dfbd 1a1e 783c 3316 87bd ed25 243c
00000100: ebc7 87ba ef49 61bb 887e a73c be32 763c
00000110: 2c96 973b 553d 853b 4c2b 793b d43a 863b
00000120: e884 af3b 4e43 863b 0e4e 2b3a 1a7b 893b
00000130: 58ec 883b 58ec 883b 58ec 883b 58ec 883b
00000140: af8d 89bd 1a6c 49bc 0468 393e e96b 4dbd
00000150: eeeb dfba 83ef a93b ca14 a53d 80e2 bf3c
00000160: b975 0cbb 8f20 603b ea9c 9ebb 30f3 873c
00000170: c5d8 09bb 7485 cbba fc65 9abb a03c c2b9
00000180: 42c9 bbba 42c9 bbba 42c9 bbba 42c9 bbba
00000190: 2615 1e3d b8ea 9bbc 5bcb 253e ee6b 69bb
000001a0: 5dc5 99bc 0bd7 87bc 5d20 e5bb e451 52bc
000001b0: 1625 64bc 1c55 94bc 3b83 87bc 865a 66bc
000001c0: 1625 64bc 1625 64bc 99db 76bc 1625 64bc
000001d0: 1625 64bc 1625 64bc 1625 64bc 1625 64bc
000001e0: 277a 75bd 7061 503c b24d a0bd 4cef 59bc
000001f0: bec1 84bc 3851 c33c a868 963c c493 733d
00000200: 670c 703c d8b8 0a3b d269 843b 46a2 05bc
00000210: c233 c53b 432b ae3b 154f ad3b 9cb2 c63a
00000220: 73d2 ad3b 73d2 ad3b 73d2 ad3b 73d2 ad3b
00000230: 4c6b 1fbd a082 7fbd e0c8 68be bcd7 5fbd
00000240: a76f 423d 134c 853c d8dc 8e3d f73e 933c
00000250: 4cb4 603d 147d 013c 1beb bf3c bac9 be3c
00000260: a7f7 d83b e849 693c c01a 243c 339f 823c
00000270: 2d1a 543c 2d1a 543c 2d1a 543c 2d1a 543c
00000280: cda7 5e3d 90d1 3bbe f8fa 97bd 3855 87bd
00000290: 91bb e43c b773 ddbc 3fd5 29bd dbfc 313d
000002a0: 6ff9 d8ba 085f e03b dfe6 743a 6c6c 0c3d
000002b0: 509f 1d3b 24b9 e8ba b4b5 a33b ec24 15ba
000002c0: 7b3d 923b 7b3d 923b 7b3d 923b 7b3d 923b
000002d0: 53a5 44bd 85d8 6bbd 7027 03bb 5b7b 62bd
000002e0: 7246 353c 097d 0c3d 2daa 923d 7458 e7bc
000002f0: 5c2f 713b ee17 3abb 44c9 b93c e4f7 023b
00000300: e827 833b 9b16 55bb a4ac 19ba a88c df39
00000310: 3810 eb39 3810 eb39 3810 eb39 3810 eb39

momentum_buffer f4 [10]
0.010742389 0.03056863 0.008719458 -0.016897272 0.005793436 0.056309395 -0.021450898 -0.05234974
-0.018047078 -0.0018130075
00000000: d800 303c 106b fa3c 0fdc 0e3c 266c 8abc
00000010: ddd6 bd3b aea4 663d cbb9 afbc ae6c 56bd
00000020: 77d7 93bc 70a2 edba

momentum_buffer f4 [64, 610]
0.02602917 -0.005249258 -0.0040154825 -0.0027233006 0.0323296 0.0036277776 0.0010063845 0.0013610884
0.0045494903 -0.0050116065 -0.006355582 -0.002594328 0.008365148 -0.0026937155 -0.013667521 0.005262588
0.010996738 -0.006293249 -0.013100124 0.0039465814 -0.0007514404 0.0008752313 -0.011961766 0.0028426205
0.032752566 -0.008448369 -0.013584214 -0.009001719 0.013850104 0.007325855 -0.017263142 -0.008444166
-0.00759896 -0.013204381 -0.0031855137 -0.0002678628 -0.0037166877 -0.00063204573 0.006923668 0.010532515
0.011479326 -0.0133143915 -0.010317601 0.009391375 0.0142048 0.0034888848 -0.0032565547 0.0060275365
-0.0087598385 -0.008770695 -0.0008415424 -0.0032984498 -0.00867479 0.002487243 -0.00984293 8.124916e-05
0.029914016 -0.008616624 -0.016317641 -0.00049886754 -0.008066377 -0.008153166 -0.0018030884 0.010514217
0.0043237023 -0.00619621 -0.0027552857 -0.00021746662 -0.0015636836 -0.0034157357 -0.0030100313 0.0101239
-0.0008163075 -0.0045365486 -0.004414119 -0.00036352896 0.0019697377 -0.0062478245 -0.012214994 -0.007781814
0.0019591714 -0.011064896 0.0012584312 0.012267958 -0.00012552366 -0.012635239 0.002330174 0.00952284
0.0023738819 0.00011438501 -0.008829496 0.0009406116 0.001348515 0.0016470883 -0.0013009578 -0.0018057316
0.0048629194 0.0009581847 -0.0016058981 0.0058471123 -0.00018450478 -0.0024113646 0.001503164 0.0065913005
0.002121596 0.0031577353 -0.0013775984 -0.0041111293 -0.0041904817 0.0049220966 -0.0048863133 -0.0038694516
0.0017545201 -0.00764814 -0.0030898498 0.013256889 0.005248178 -0.004936387 -0.0014814367 -0.0006526775
-0.0042496407 -0.0041618827 -0.0033416362 -0.0045596203 -0.0008729992 -0.0158922 -0.0022863713 -0.012370111
0.0003148153 -0.013979545 -0.0006597893 0.0019152025 -0.004246137 0.002102926 -0.0046993885 0.006712975
-0.0063813436 -0.0038579814 -0.003085406 0.006952271 -0.0023730826 -0.0040912377 -0.005207735 0.0024326188
-0.008590197 -0.009639506 -0.005945851 -0.0034249844 0.0015519293 -0.011809131 -0.007891387 -0.0001981426
-0.00473913 -0.0009521772 -0.00070709107 -0.0007669197 -0.0044236826 0.00069974276 -0.001381696 0.006792755
-0.0076740594 -0.0032743367 -0.0008602372 0.0056545343 -0.0015653877 -0.0045854137 -0.003814604 0.000509538
-0.0071326476 0.0013248541 -0.0049389247 0.0029891813 -0.0049869833 -0.0028041238 0.00039451406 0.013640811
-0.0063124956 -0.008554173 -0.0027058937 -0.010312767 0.0018186888 -0.00498474 -0.00053950225 -0.026366733
-0.005556727 0.0030008233 -0.0015032714 -0.023766577 -0.000878034 -0.006268939 -0.0030777059 -0.016765779
-0.0057589347 0.006653655 -0.0009979982 -0.004589773 -0.00467975 0.0022240663 -0.0030216833 -0.0075701852
-0.0051354836 -0.0032837056 0.0016174571 -0.012860186 -0.0066940417 0.015366068 -0.0038816237 -0.015875947
-0.0003928964 0.0020565693 0.0027981154 -0.0040625664 -0.0073797298 -0.0005838908 -0.0014571752 0.0021697837
0.0021995492 -0.0046933168 -0.00013643794 0.0046486035 -0.0049452796 0.006919278 -0.004385706 -0.005748017
0.0015272651 0.0055756774 0.00013187635 -0.0030737491 0.0035918888 0.0042073466 -0.0075697065 0.0073611853
-0.00456388 -0.004015075 -0.0019265211 -0.006392912 -0.0029203286 0.018070264 -0.0023291637 -0.011001097
-0.0005643096 -0.0071355784 -0.0012045711 -0.003903771 -0.009216823 0.013639047 0.008504322 -0.0025134932
-0.006322925 0.005777186 0.0029367022 6.999419e-05 -0.006357031 0.008464548 0.006166106 -0.0043859724
00000000: 203b d53c f801 acbb 4f94 83bb 6779 32bb
00000010: 0b6c 043d 02c0 6d3b a9e8 833a 8c66 b23a
00000020: e413 953b 6738 a4bb 7c42 d0bb 9a05 2abb
00000030: f90d 093c 0c89 30bb bded 5fbc ca71 ac3b
00000040: aa2b 343c 9937 cebb e7a1 56bc 5352 813b
00000050: 50fc 44ba c76f 653a 48fb 43bc 424b 3a3b
00000060: 8e27 063d 076b 0abc 5390 5ebc f27b 13bc
00000070: 8ceb 623c ba0d f03b 6f6b 8dbc 6659 0abc
00000080: b200 f9bb 3057 58bc 0dc4 50bb f06f 8cb9
00000090: ac93 73bb dfaf 25ba f0df e23b 9290 2c3c
000000a0: c813 3c3c 9b24 5abc 280b 29bc 48de 193c
000000b0: 40bb 683c c6a5 643b ec6b 55bb a482 c53b
000000c0: 6d85 0fbc f6b2 0fbc f49a 5cba ce2a 58bb
000000d0: b520 0ebc 0301 233b 3e44 21bc 5064 aa38
000000e0: 3d0e f53c be2c 0dbc 93ac 85bc 6fc6 02ba
000000f0: d628 04bc db94 05bc 9b55 ecba d343 2c3c
00000100: d8ad 8d3b 9409 cbbb 0692 34bb c007 64b9
00000110: 84f4 ccba 89da 5fbb f243 45bb b7de 253c
00000120: 78fd 55ba 54a7 94bb 50a4 90bb 0898 beb9
00000130: b716 013b 8dba ccbb 6621 48bc 96fe febb
00000140: 7165 003b 8a49 35bc f2f1 a43a 8cff 483c
00000150: 009f 03b9 0904 4fbc d5b5 183b b005 1c3c
00000160: 2193 1b3b fce1 ef38 97a9 10bc 6093 763a
00000170: a8c0 b03a 1de3 d73a e684 aaba 4cae ecba
00000180: 2059 9f3b b02e 7b3a 007d d2ba 2299 bf3b
00000190: a077 41b9 fc07 1ebb d005 c53a d6fb d73b
000001a0: 790a 0b3b 02f2 4e3b 8890 b4ba a7b6 86bb
000001b0: 4f50 89bb 8a49 a13b 5e1d a0bb a096 7dbb
000001c0: edf7 e53a 409d fabb 147f 4abb 6c33 593c
000001d0: e8f8 ab3b 6ac1 a1bb c42c c2ba 7218 2bba
000001e0: 9240 8bbb 6760 88bb 5aff 5abb de68 95bb
000001f0: fcd9 64ba 5c30 82bc f2d6 15bb 02ac 4abc
00000200: cb0d a539 760a 65bc b6f5 2cba 8807 fb3a
00000210: 2e23 8bbb 3ed1 093b 54fd 99bb 84f8 db3b
00000220: 971a d1bb 30d6 7cbb 8634 4abb e0cf e33b
00000230: b885 1bbb ca0f 86bb a6a5 aabb 926c 1f3b
00000240: e6bd 0cbc 05ef 1dbc 6ad5 c2bb b475 60bb
00000250: 1b6a cb3a 167b 41bc e04a 01bc 80c4 4fb9
00000260: b44a 9bbb 889b 79ba 145c 39ba 1c0b 49ba
00000270: 8af4 90bb f16e 373a 061a b5ba c295 de3b
00000280: ad76 fbbb 4196 56bb 8b81 61ba ac49 b93b
00000290: b22d cdba 3d41 96bb 6ffe 79bb 8492 053a
000002a0: fcb8 e9bb baa6 ad3a b4d6 a1bb 24e6 433b
000002b0: d969 a3bb 64c5 37bb c8d6 ce39 b57d 5f3c
000002c0: 0dd9 cebb cd26 0cbc 5d55 31bb e1f6 28bc
000002d0: 1261 ee3a 0857 a3bb 626d 0dba 0cff d7bc
000002e0: 3415 b6bb 76a9 443b 6b09 c5ba 20b2 c2bc
000002f0: dd2b 66ba ac6b cdbb 56b3 49bb 6358 89bc
00000300: 72b5 bcbb e706 da3b 43cf 82ba ce65 96bb
00000310: 9758 99bb a4c1 113b 6f07 46bb 510f f8bb
00000320: 8f47 a8bb 7033 57bb db00 d43a 88b3 52bc
00000330: b159 dbbb f6c1 7b3c d762 7ebb 460e 82bc
00000340: aafd cdb9 82c7 063b 9660 373b 471f 85bb
00000350: a9d1 f1bb 4010 19ba b0fe beba ee32 0e3b
00000360: 5026 103b 65ca 99bb c810 0fb9 5053 983b
00000370: 030c a2bb 1cbb e23b f8b5 8fbb dd59 bcbb
00000380: 832e c83a 2cb4 b63b 4a48 0a39 f470 49bb
00000390: e565 6b3b c8dd 893b 4d0b f8bb 1936 f13b
000003a0: 9a8c 95bb e490 83bb 5283 fcba a27b d1bb
000003b0: fc62 3fbb 1708 943c e2a4 18bb f23d 34bc
000003c0: 2dee 13ba 92d1 e9bb b3e2 9dba 69d6 7fbb
000003d0: 2802 17bc 4f76 5f3c b655 0b3c 6bb9 24bb
000003e0: 8a30 cfbb 8c4e bd3b b075 403b d8c9 9238
000003f0: a44e d0bb e3ae 0a3c 0c0d ca3b 34b8 8fbb

momentum_buffer f4 [64]
-0.0040474655 0.0048095067 -0.012683812 0.0238797 -0.02080895 -0.007483059 0.011441626 -0.014489537
0.016928926 0.007326196 -0.011899144 -0.026071128 -0.022657558 0.03656012 -0.017781889 0.010561792
-0.02562299 0.02059988 0.030363413 0.015149929 -0.020219807 -0.0089417845 0.007965139 -0.010268036
0.059392534 -0.03458193 0.018586822 0.03292205 -0.016820062 -0.0052587404 0.010291921 -0.0014535701
-0.024536397 0.015149928 -0.0018715435 0.01350056 -0.0118489005 0.009605761 0.06749108 -0.038653087
0.026868403 0.006164083 -0.006082678 -0.00039005373 0.01355691 -0.0059492006 0.03307093 0.01860854
-0.0010466058 -0.014976228 -0.020068388 -0.0012092777 0.00823227 -0.016906694 0.03093611 -0.02168721
0.0027201157 0.0034952848 -0.03437825 0.02992236 -0.0075384984 0.009053865 -0.0011514126 0.0
00000000: 9aa0 84bb 1199 9d3b c3cf 4fbc 5c9f c33c
00000010: 8877 aabc 7334 f5bb a875 3b3c 8665 6dbc
00000020: 88ae 8a3c 9610 f03b a1f4 42bc 1e93 d5bc
00000030: 589c b9bc 10c0 153d 53ab 91bc 5e0b 2d3c
00000040: 4ee7 d1bc 14c1 a83c b1bc f83c 6837 783c
00000050: 02a4 a5bc 9080 12bc 3780 023c 443b 28bc
00000060: 9645 733d c8a5 0dbd 6443 983c 46d9 063d
00000070: 3aca 89bc 8351 acbb 729f 283c b885 beba
00000080: 8e00 c9bc 6737 783c 944e f5ba 7431 5d3c
00000090: e421 42bc 7b61 1d3c c338 8a3d b352 1ebd
000000a0: 201b dc3c 13fc c93b 3451 c7bb 2080 ccb9
000000b0: cd1d 5e3c 83f1 c2bb 6275 073d f070 983c
000000c0: 432e 89ba da5e 75bc 7666 a4bc a080 9eba
000000d0: a5e0 063c e87f 8abc ba6d fd3c 60a9 b1bc
000000e0: f843 323b 2611 653b 35d0 0cbd bd1f f53c
000000f0: 8205 f7bb aa56 143c ffea 96ba 0000 0000

momentum_buffer f4 [10, 1, 4]
0.046148676 0.005237907 -0.0026271176 0.019548282 0.0067462455 -0.00055468455 -0.035145584 0.014018018
0.0 0.0 0.0 0.0 -0.02509486 -0.051460862 0.025158748 -0.041672494
-0.013892192 -0.06519118 -0.011890583 -0.051010385 0.0 0.0 0.0 0.0
-0.014687421 0.00024335831 -0.031010438 -0.019584324 -0.0007735326 -0.0020758463 0.0065942015 -0.00017806223
-0.00028449483 -0.03352361 0.0072803106 0.015166737 -0.017917838 -0.01154195 -0.0151766185 -0.050796475
00000000: 6506 3d3d c0a2 ab3b b82b 2cbb b823 a03c
00000010: 9c0f dd3b 4068 11ba d1f4 0fbd d4ab 653c
00000020: 0000 0000 0000 0000 0000 0000 0000 0000
00000030: bc93 cdbc a0c8 52bd b819 ce3c c7b0 2abd
00000040: 149c 63bc f482 85bd b8d0 42bc 44f0 50bd
00000050: 0000 0000 0000 0000 0000 0000 0000 0000
00000060: 82a3 70bc 002e 7f39 9a09 febc 4e6f a0bc
00000070: e5c6 4aba ec0a 08bb 2c14 d83b 37b6 3ab9
00000080: 4028 95b9 0e50 09bd ac8f ee3b e87d 783c
00000090: 6ec8 92bc 721a 3dbc 5aa7 78bc f70f 50bd

momentum_buffer f4 [10]
0.01113026 -0.008940228 0.0 -0.02179441 -0.037183996 0.0 -0.010716515 0.0009842905
-0.029575778 -0.009097179
00000000: b25b 363c 097a 12bc 0000 0000 318a b2bc
00000010: 3f4e 18bd 0000 0000 5294 2fbc 4f03 813a
00000020: e748 f2bc 560c 15bc

momentum_buffer f4 [128, 300]
-0.00013432669 0.00014007384 -0.0004322652 -0.0013468112 -0.0011697153 -0.0007707031 -0.0005298101 0.0029588058
0.0002265824 -0.0022855517 -0.0038532394 -0.0015253508 -0.0012395894 -0.00069257023 -0.0010129635 -0.0004417052
0.00022119565 -0.0011261881 0.00118083 -0.00079516065 -0.0014366001 -0.0020776312 -0.0021548711 0.00019779324
-0.0005166821 0.00013546669 0.0027193814 -0.00045932218 -0.00079366437 -0.0013325894 -0.0013577868 -0.0023870077
-0.0028335 -0.0062761763 -0.0054716333 -0.0039024195 0.00033744867 0.0032089613 -0.0068002655 -0.01432753
-0.008731805 -0.008630689 -0.006652128 -0.0049123783 -0.0038635654 -0.0025081707 -0.0047125453 -0.009005855
-0.0019751554 -0.005739296 -0.0072084353 -0.006455316 -0.006094468 -0.0034148055 -0.0057523497 -0.0027647214
1.0142103e-06 -0.0025748871 -0.00665842 -0.0048209657 0.0 0.0 0.0 0.0
0.0 0.0 0.0 0.0 0.0 0.0 0.0 0.0
0.0 0.0 0.0 0.0 0.0 0.0 0.0 0.0
0.0 0.0 0.0 0.0 0.0 0.0 0.0 0.0
0.0 0.0 -0.002119496 -0.002354347 -0.0038247313 -0.0005922478 -0.0031590373 -0.00043506722
-0.0011846821 0.0017041164 -0.0031507062 -0.0011327658 -0.0068452843 -0.0042531956 -0.0027856822 -0.0029458895
-0.0012501794 -0.0017362019 -0.0036640917 -0.0038183297 -0.0040931352 4.3660402e-06 -0.00196268 -0.006906895
0.0009809802 -0.002987931 -0.0013411688 -0.0060360488 0.0022369097 -0.0016074635 -0.0035078581 -0.0041721184
-0.0020558597 -0.003668516 -0.0022195166 -0.0030278957 -0.0048232134 -0.0028057883 0.00044234493 0.004641571
-0.004370135 -0.004116078 -0.0021978575 -0.0020984653 -0.0028039874 -0.0034735375 -0.0048220484 -0.0016075879
-0.0075170095 -0.004218357 -0.0020123972 0.000755379 -0.0038944762 -0.008877723 -0.0008431077 -0.0033662422
-0.005558811 -0.008416124 0.003321685 -0.002247474 -0.0106360875 -0.00046431553 0.0 0.0
0.0 0.0 0.0 0.0 0.0 0.0 0.0 0.0
0.0 0.0 0.0 0.0 0.0 0.0 0.0 0.0
0.0 0.0 0.0 0.0 0.0 0.0 0.0 0.0
0.0 0.0 0.0 0.0 -0.0020686246 0.0002517825 -0.0036759234 -0.0031362493
-0.002346126 -0.0027078297 0.0040483116 0.002131979 -0.0061789267 -0.0044644326 -0.0053493953 -0.004926868
-0.0032452994 -0.0032187488 -0.002665975 0.00050519785 -0.006902544 -0.0026925823 0.0016855323 -0.0073703364
-0.0008036587 -0.006788344 -0.0035385597 -0.0002845095 -0.0047707143 0.003699908 -0.0016924255 -0.0014429459
-0.0049225567 -0.0011247728 0.00016433425 -3.1776726e-05 -0.00033353682 -0.00021794139 -0.00019709335 -0.00069787435
0.00030178687 -6.1642386e-05 6.128299e-06 8.398963e-05 -5.017883e-05 0.0001911677 -0.00017525916 -0.00072452554
-0.0005429384 0.00019373861 8.430009e-05 0.00054056145 0.00021314387 8.685331e-05 7.354432e-05 -0.0004898041
-0.0002906272 7.687752e-05 -9.9235316e-05 -4.08941e-05 -0.0001288865 -0.0008099305 -0.00041684415 -0.000111869194
-0.0022462297 -0.0030811732 -0.0043425476 -0.0023439776 -0.0026102108 0.00022830802 0.0043086917 -0.004332404
-0.009243529 -0.0081215445 -0.009030722 -0.0049450113 -0.003711682 -0.0022168066 -0.00048095966 -0.0029168706
00000000: 0cda 0cb9 c9e0 1239 a7a1 e2b9 7c87 b0ba
00000010: 2251 99ba 0209 4aba f4e2 0aba 86e8 413b
00000020: c096 6d39 32c9 15bb a186 7cbb 48ee c7ba
00000030: b879 a2ba 9a8d 35ba 6ac5 84ba ab94 e7b9
00000040: c1f0 6739 9a9c 93ba 14c6 9a3a 5472 50ba
00000050: 4d4c bcba de28 08bb bd38 0dbb b866 4f39
00000060: f371 07ba 100c 0e39 a637 323b 2ed1 f0b9
00000070: ea0d 50ba 48aa aeba c4f7 b1ba 586f 1cbb
00000080: 3eb2 39bb 62a8 cdbb 634b b3bb bcbf 7fbb
00000090: 98eb b039 704d 523b c3d4 debb 04be 6abc
000000a0: d80f 0fbc bc67 0dbc 18fa d9bb 04f8 a0bb
000000b0: df33 7dbb 1f60 24bb b26b 9abb 4b8d 13bc
000000c0: 9c71 01bb b410 bcbb bd34 ecbb 1e87 d3bb
000000d0: 1ab4 c7bb eeca 5fbb 357e bcbb 5430 35bb
000000e0: 0020 8835 70bf 28bb e02e dabb 31f9 9dbb
000000f0: 0000 0000 0000 0000 0000 0000 0000 0000
00000100: 0000 0000 0000 0000 0000 0000 0000 0000
00000110: 0000 0000 0000 0000 0000 0000 0000 0000
00000120: 0000 0000 0000 0000 0000 0000 0000 0000
00000130: 0000 0000 0000 0000 0000 0000 0000 0000
00000140: 0000 0000 0000 0000 0000 0000 0000 0000
00000150: 0000 0000 0000 0000 0000 0000 0000 0000
00000160: 0000 0000 0000 0000 3ee7 0abb 634b 1abb
00000170: 58a8 7abb 1441 1bba da07 4fbb bc19 e4b9
00000180: 5647 9bba a85c df3a 147c 4ebb 5079 94ba
00000190: 684e e0bb 645e 8bbb fe8f 36bb d30f 41bb
000001a0: 0fdd a3ba 4591 e3ba 4221 70bb f13c 7abb
000001b0: b51f 86bb 0080 9236 4ea0 00bb 3c53 e2bb
000001c0: 3c94 803a 2ad1 43bb 28ca afba 0cca c5bb
000001d0: 1e99 123b 86b1 d2ba 18e4 65bb 44b6 88bb
000001e0: 9abb 06bb 7c6b 70bb 4f75 11bb a96f 46bb
000001f0: 0c0c 9ebb 51e1 37bb 88ea e739 5218 983b
00000200: 5933 8fbb 2ae0 86bb ee09 10bb 6886 09bb
00000210: 1ac3 37bb 4aa4 63bb 4602 9ebb b3b5 d2ba
00000220: 3f51 f6bb 253a 8abb 6ce2 03bb a004 463a
00000230: 783a 7fbb de73 11bc 0004 5dba 2c9c 5cbb
00000240: b026 b6bb c8e3 09bc a0b0 593b 5b4a 13bb
00000250: fc42 2ebc 606f f3b9 0000 0000 0000 0000
00000260: 0000 0000 0000 0000 0000 0000 0000 0000
00000270: 0000 0000 0000 0000 0000 0000 0000 0000
00000280: 0000 0000 0000 0000 0000 0000 0000 0000
00000290: 0000 0000 0000 0000 0000 0000 0000 0000
000002a0: 0000 0000 0000 0000 0000 0000 0000 0000
000002b0: 0000 0000 0000 0000 0000 0000 0000 0000
000002c0: 0000 0000 0000 0000 0000 0000 0000 0000
000002d0: c391 07bb ad01 8439 c3e7 70bb 8889 4dbb
000002e0: 76c1 19bb d875 31bb b3a7 843b acb8 0b3b
000002f0: 9878 cabb 604a 92bb fb49 afbb 9071 a1bb
00000300: 17af 54bb a5f1 52bb a3b7 2ebb 416f 043a
00000310: bc2e e2bb 0976 30bb 14ed dc3a dd82 f1bb
00000320: 9fac 52ba c270 debb 2ee7 67bb 382a 95b9
00000330: a753 9cbb 287a 723b 60d4 ddba 3b21 bdba
00000340: 664d a1bb 1d6d 93ba 2451 2c39 0048 05b8
00000350: 8ede aeb9 3287 64b9 d8aa 4eb9 8ef1 36ba
00000360: 2639 9e39 0146 81b8 b0a1 cd36 9723 b038
00000370: 1c77 52b8 3074 4839 c6c5 37b9 16ee 3dba
00000380: fb53 0eba 5026 4b39 44ca b038 77b4 0d3a
00000390: 5f7f 5f39 0425 b638 ce3b 9a38 3266 00ba
000003a0: 535f 98b9 4e39 a138 8e1c d0b8 b585 2bb8
000003b0: b525 07b9 8451 54ba e08b dab9 519b eab8
000003c0: 7b35 13bb 82ed 49bb ee4b 8ebb 6b9d 19bb
000003d0: 1210 2bbb f865 6f39 ed2f 8d3b d7f6 8dbb
000003e0: 2c72 17bc 3a10 05bc 98f5 13bc c309 a2bb
000003f0: b13f 73bb d847 11bb 5029 fcb9 f828 3fbb

momentum_buffer f4 [128]
-0.0054164426 4.3948556e-05 -6.8293593e-06 -0.0031110996 0.002799983 5.571233e-07 -0.00011992779 0.007095944
-1.20521345e-05 -0.0009858847 -8.732687e-05 0.014556842 0.0014661266 0.0007271632 -0.003561106 -0.011804674
0.00042130455 0.0019379745 0.004368021 3.0781033e-09 0.005308493 -0.0061965245 0.0001721895 -0.0048138625
-0.00077622104 0.0027922136 -0.0011026114 -0.0016890119 -0.0011596482 -0.005061248 -0.0025900353 -0.007990572
-0.013249597 0.010242585 -0.004020013 -0.002663776 -0.0001139628 -0.003015125 7.348445e-05 5.0665185e-05
0.004484066 -0.008523393 -0.0053349766 0.0047502015 -0.020113636 0.0070259646 0.0048341323 -0.0063322308
0.0047537927 -0.0009603648 -0.0058771283 -0.0014685211 -0.0028625992 0.008714013 0.004066235 2.7660011e-05
0.004902093 -0.0010742118 0.004177449 -0.0031779797 0.0035586369 0.0060454737 0.00012447142 -0.020716581
-0.013386175 4.521567e-06 0.0007052189 -6.5564817e-19 -0.016999548 -0.0036248118 0.0055177975 -0.0020103585
-0.0041990504 0.008166801 0.0011321869 -0.000120719385 -0.007879442 0.0029645301 -0.002705941 -0.00038984232
9.4013245e-05 0.0032597245 -2.1199128e-05 -0.001291194 -0.004672525 -0.0035292646 -0.0017850013 -0.0036214879
-0.008920366 3.4767163e-05 -0.003123839 0.006286313 6e-45 -0.005608315 -0.010896499 0.0001806073
-0.000302237 -0.00055000884 0.00047663655 -0.0024725487 0.0058632377 0.0029264626 -0.0012740716 0.0019544873
-0.005145982 -0.02048121 0.0070405286 -0.00013040146 0.0041463245 0.0008850503 -0.000369163 0.002359313
-0.0016570159 -0.00011645719 0.0068834717 0.0006640965 -0.0026409207 -0.0026855557 -0.0067191673 -0.0033453512
-2.2717074e-07 -0.0072180172 0.00021493214 -0.0044616405 -0.0051827803 1.03876456e-10 -2.4631597e-22 0.015090387
00000000: 6a7c b1bb 6755 3838 c027 e5b6 97e3 4bbb
00000010: eb7f 373b 398d 1535 be81 fbb8 1885 e83b
00000020: 8633 4ab7 cd38 81ba 4223 b7b8 d27f 6e3c
00000030: 0c2b c03a 199f 3e3a 7261 69bb 6468 41bc
00000040: 8ae2 dc39 a203 fe3a 9e21 8f3b 9186 5331
00000050: def2 ad3b 370c cbbb c48d 3439 9bbd 9dbb
00000060: 507b 4bba 92fd 363b 8085 90ba d661 ddba
00000070: 56ff 97ba d3d8 a5bb 95bd 29bb e3ea 02bc
00000080: d614 59bc 84d0 273c 50ba 83bb bf92 2ebb
00000090: 50ff eeb8 6799 45bb aa1b 9a38 5481 5438
000000a0: 12ef 923b b4a5 0bbc 07d1 aebb 94a7 9b3b
000000b0: 5ac5 a4bc 103a e63b a467 9e3b 9a7e cfbb
000000c0: b4c5 9b3b fec0 7bba ed94 c0bb 647b c0ba
000000d0: 729a 3bbb 38c5 0e3c 0d3e 853b 6c07 e837
000000e0: bda1 a03b 91cc 8cba fbe2 883b a745 50bb
000000f0: 0538 693b 1c19 c63b 8b84 0239 d2b5 a9bc
00000100: b051 5bbc f7b7 9736 70de 383a 6083 41a1
00000110: a342 8bbc 408e 6dbb a4ce b43b 38c0 03bb
00000120: 3098 89bb 0cce 053c e365 943a ba2a fdb8
00000130: c618 01bc 9048 423b 2856 31bb c063 ccb9
00000140: fa28 c538 1aa1 553b c8d4 b1b7 483d a9ba
00000150: fb1b 99bb 3c4b 67bb b4f6 e9ba 7c56 6dbb
00000160: ba26 12bc f5d2 1138 52b9 4cbb 6afd cd3b
00000170: 0400 0000 f5c5 b7bb 3b87 32bc 6761 3d39
00000180: 9075 9eb9 782e 10ba 13e5 f939 7c0a 22bb
00000190: 6720 c03b e5c9 3f3b c0fe a6ba db16 003b
000001a0: a09f a8bb 36c8 a7bc 3cb4 e63b 60bc 08b9
000001b0: e4dd 873b b802 683a 388c c1b9 b49e 1a3b
000001c0: 3a30 d9ba 7a3a f4b8 bf8e e13b c316 2e3a
000001d0: 4c13 2dbb 2600 30bb 762c dcbb ae3d 5bbb
000001e0: 38ec 73b4 1e85 ecbb 685f 6139 f432 92bb
000001f0: 50d4 a9bb 3f6d e42e 8de3 949b ac3d 773c

momentum_buffer f4 [64, 128]
4.629645e-06 1.1230094e-06 -6.7962156e-09 -2.4054521e-05 1.8056464e-06 0.0 -2.6903368e-31 1.6408567e-05
0.0 0.0 1.1799482e-08 2.3476001e-05 7.828245e-07 4.1023128e-07 -3.0178342e-06 -2.584938e-05
-2.342671e-06 1.25888955e-05 1.883742e-05 0.0 2.036495e-05 2.4932611e-05 -1.4250847e-08 4.2859738e-05
4.0990653e-05 -8.529925e-06 -1.1164844e-07 2.0396005e-06 3.2402288e-05 3.6887577e-05 -5.922053e-06 3.1069758e-05
-6.5247104e-06 1.66377e-07 -1.7986249e-05 1.2295486e-05 1.168966e-05 1.432726e-05 -2.968585e-11 2.7088099e-11
-3.782549e-08 1.7980115e-05 7.648128e-06 -1.08073555e-05 5.5386856e-05 -2.5038394e-06 5.106326e-05 2.8801917e-06
3.234123e-05 1.2495131e-05 4.9342457e-08 -3.472434e-05 -1.0194177e-05 3.3812262e-06 -3.7317627e-06 -9.776512e-09
5.787457e-05 2.654318e-06 4.0069667e-06 -3.1830026e-05 -1.341471e-05 2.4283276e-05 6e-45 -3.9763025e-05
-9.08682e-06 6e-45 3.2726744e-05 0.0 3.2280134e-06 2.6709009e-05 5.8485936e-13 6.537373e-14
4.391795e-08 -1.6298689e-05 1.0480767e-05 0.0 -2.876569e-05 6.5102613e-06 4.7093552e-05 2.3934485e-06
-6.107847e-07 1.560556e-05 0.0 -3.1775826e-07 3.4439443e-05 -6.379715e-07 2.6452683e-05 2.7832171e-05
4.683536e-05 -3.9581837e-15 -1.145772e-05 -1.2152872e-05 0.0 1.4485544e-05 3.1674615e-05 -8.938605e-09
-1.799502e-05 5.0532555e-05 4.548815e-12 -9.586667e-06 1.9783816e-05 5.4270193e-05 4.4636487e-05 3.7185143e-07
9.092201e-06 1.2655755e-05 3.1056131e-06 -2.134481e-07 1.7782908e-05 -3.7057698e-06 -2.141266e-05 -1.2121908e-05
-2.8064233e-06 6.132469e-10 3.867945e-06 1.8454328e-05 -1.0511485e-05 2.491281e-05 -1.3899535e-06 -3.216291e-05
0.0 1.182662e-05 6e-45 1.3434946e-05 3.6657726e-05 0.0 0.0 2.6989403e-06
-0.0035482016 2.385593e-05 -0.00029543182 -0.0022714129 -0.0011734043 -1.0145597e-09 0.00034192752 0.0049122446
6e-45 9.212904e-05 -7.991968e-06 -0.0018490707 -0.0035001915 -0.00016603242 -0.0031052646 -0.0073673343
-0.00058122457 0.0008790985 -0.0021668258 -2.6895528e-09 -0.0022946487 -0.0032604435 9.288999e-06 -0.0029479587
-0.005851359 0.0011645891 0.0010178353 0.00015846922 -0.0014689582 -0.008272903 -0.0066065295 -0.0023863916
-0.0016051735 0.0010301475 -0.0015796665 -0.0022683125 -0.0024999478 0.0011344482 1.5651483e-05 -1.5445376e-05
-0.0010455791 -0.0021063397 -0.0050146724 0.0003219992 -0.0024606124 -0.0003687325 0.00069006206 0.0016269836
-0.003836874 -0.0016407175 0.001966278 -0.0077818716 0.002066246 1.8144492e-05 -0.00066574075 4.958423e-05
-0.0069222488 -0.00038309762 0.00018053109 -0.00048618345 -0.00418898 -0.0011381363 2.425676e-06 -0.0033131023
-0.0049814554 -3.2598245e-17 -0.0019435801 -3.367663e-28 -0.005684074 -0.0010406789 0.0008071816 0.00018408152
0.00034403073 -0.006192522 -0.0014017771 1.2423244e-06 -0.0061559128 -0.004497054 -0.0050404808 0.0037638615
1.7693108e-05 -0.0043814136 4.924995e-24 -0.0025230611 -0.0056607053 0.00054862874 -0.006573683 -0.009631956
-0.0096987 -2.4821431e-14 -0.0015783387 -0.0023789066 0.0 -0.0066400827 -0.0038706334 -2.3208563e-07
-0.0016397319 -0.0031192345 9.804574e-05 -0.001921312 -0.0020567721 -0.006967809 -8.835178e-05 -1.8159293e-05
-0.00021474948 -0.0005748889 0.0004235364 0.00085306633 -0.002453482 -0.0019773042 -0.0023393943 0.0021762503
-0.0011830223 8.144219e-05 0.0042680157 -0.0013691526 -0.0027931915 0.00047186436 0.000870985 2.8613023e-05
6.6274847e-10 -0.002654504 5.6033303e-05 -0.002718905 -0.0054291803 0.0 0.0 -0.0006506252
00000000: 5958 9b36 4fba 9635 2584 e9b1 b1c8 c9b7
00000010: 8a59 f235 0000 0000 e39c ae8c 21a5 8937
00000020: 0000 0000 0000 0000 acb6 4a32 54ee c437
00000030: 4a23 5235 c23d dc34 ff85 4ab6 1fd7 d8b7
00000040: c836 1db6 e534 5337 0d05 9e37 0000 0000
00000050: 66d5 aa37 6026 d137 e3d3 74b2 4bc4 3338
00000060: 61ed 2b38 c01b 0fb7 61c3 efb3 12e0 0836
00000070: b1e7 0738 bcb7 1a38 0cb6 c6b6 e650 0238
00000080: d6ee dab6 5da5 3234 2de1 96b7 b648 4e37
00000090: b51e 4437 1d5f 7037 4c8f 02ae fa44 ee2d
000000a0: 9175 22b3 01d4 9637 7650 0037 3d51 35b7
000000b0: 2f4f 6838 a207 28b6 c22c 5638 5149 4136
000000c0: 22a6 0738 2ea2 5137 9bec 5333 faa4 11b8
000000d0: a807 2bb7 06e9 6236 326f 7ab6 8ef5 27b2
000000e0: 59be 7238 d620 3236 9573 8636 3b81 05b8
000000f0: be0f 61b7 f0b3 cb37 0400 0000 39c7 26b8
00000100: 9873 18b7 0400 0000 1344 0938 0000 0000
00000110: d9a0 5836 290d e037 8f9f 242b 6435 9329
00000120: 4ca0 3c33 2bb9 88b7 8dd6 2f37 0000 0000
00000130: d94d f1b7 b872 da36 5186 4538 229f 2036
00000140: cef4 23b5 afe8 8237 0000 0000 5d98 aab4
00000150: 1273 1038 1141 2bb5 b4e6 dd37 2279 e937
00000160: 1671 4438 cd9b 8ea7 883a 40b7 30e4 4bb7
00000170: 0000 0000 f006 7337 5cda 0438 6790 19b2
00000180: 03f4 96b7 ebf2 5338 150c a02c 6cd6 20b7
00000190: 6cf5 a537 2da0 6338 1038 3b38 dfa2 c734
000001a0: b58a 1837 0e54 5437 076a 5036 2b30 65b4
000001b0: 812c 9537 a4b0 78b6 569f b3b7 335f 4bb7
000001c0: fc55 3cb6 6a91 2830 65c9 8136 5ece 9a37
000001d0: 7c5a 30b7 dafb d037 708e bab5 a9e6 06b8
000001e0: 0000 0000 f26a 4637 0400 0000 a766 6137
000001f0: efc0 1938 0000 0000 0000 0000 711f 3536
00000200: f288 68bb 381e c837 30e4 9ab9 fcdb 14bb
00000210: eacc 99ba a570 8bb0 bc44 b339 e5f6 a03b
00000220: 0400 0000 6735 c138 3e15 06b7 845c f2ba
00000230: 7863 65bb fd18 2eb9 b281 4bbb ae69 f1bb
00000240: 525d 18ba 4d73 663a 4e01 0ebb 1dd3 38b1
00000250: d161 16bb 2aad 55bb f2d7 1b37 8a32 41bb
00000260: c2bc bfbb 20a5 983a e368 853a c22a 2639
00000270: 0f8a c0ba 128b 07bc 967b d8bb 0265 1cbb
00000280: af64 d2ba 0406 873a d00c cfba f8a7 14bb
00000290: 2ad6 23bb c4b1 943a 4e4b 8337 b190 81b7
000002a0: d00b 89ba 840a 0abb 1f52 a4bb 00d2 a839
000002b0: 3a42 21bb 7052 c1b9 48e5 343a 8340 d53a
000002c0: 1074 7bbb 580d d7ba acdc 003b 12ff febb
000002d0: db69 073b 0035 9837 1b85 2eba a9f8 4f38
000002e0: 08d4 e2bb 7eda c8b9 f24c 3d39 70e6 feb9
000002f0: b643 89bb 842d 95ba ccc8 2236 a220 59bb
00000300: 7a3b a3bb 3755 16a4 babf feba 7573 d591
00000310: 7841 babb 6467 88ba 0a99 533a 0206 4139
00000320: 065f b439 a4ea cabb d6bb b7ba f1bd a635
00000330: 8ab7 c9bb 065c 93bb 9e2a a5bb 1eab 763b
00000340: a96b 9437 f691 8fbb ca86 be18 f159 25bb
00000350: 707d b9bb dad1 0f3a 0d68 d7bb 5acf 1dbc
00000360: 4ce7 1ebc 5392 dfa8 42e0 ceba 6ee7 1bbb
00000370: 0000 0000 0d95 d9bb 74aa 7dbb 3633 79b4
00000380: 46ec d6ba 126c 4cbb e89d cd38 88d4 fbba
00000390: e9ca 06bb 3852 e4bb 8049 b9b8 c954 98b7
000003a0: 602e 61b9 24b4 16ba 180e de39 50a0 5f3a
000003b0: 99ca 20bb a995 01bb 8650 19bb 6c9f 0e3b
000003c0: a40f 9bba f1cb aa38 b6da 8b3b 2375 b3ba
000003d0: fa0d 37bb 9064 f739 d052 643a 0006 f037
000003e0: c72c 3630 30f7 2dbb 4d05 6b38 a82f 32bb
000003f0: 44e7 b1bb 0000 0000 0000 0000 b88e 2aba

momentum_buffer f4 [64]
2.0336789e-05 -0.0051223263 0.008580232 0.0072625647 -0.0002636006 -0.001553691 0.00018665733 0.0
0.002156227 0.0017553945 0.00037397444 -0.0045120185 -0.0051309103 -1.6434276e-05 -0.004647096 -0.0024746563
0.0036255629 -0.00021574463 0.004650692 -0.012066569 0.0 0.0019179345 0.0007527326 -0.0019318713
-0.0059629604 0.0029399153 0.0 0.00016758218 -0.0019635588 -0.010089258 -0.0038541048 0.009165755
-0.00086873036 0.0026456201 -1.6696558e-05 0.0006823768 0.0018992699 0.0034405086 -0.004897518 0.0075202216
4.1868675e-06 0.0031606231 0.0050868383 0.00023251493 0.00393069 0.0007076354 -0.006724441 -0.0036347192
-0.03510838 0.00096062385 -0.00333111 -0.024778612 0.011352686 0.0044619865 8.9345417e-07 0.000504396
6e-45 -0.0017922175 0.00093017984 0.006684334 -0.0037651309 0.0054529426 0.0022344328 0.0007183829
00000000: ec98 aa37 30d9 a7bb 1a94 0c3c cffa ed3b
00000010: e033 8ab9 38a5 cbba 72b9 4339 0000 0000
00000020: 7c4f 0d3b 4415 e63a 0012 c439 8ed9 93bb
00000030: 3221 a8bb 57dc 89b7 ab46 98bb d82d 22bb
00000040: da9a 6d3b 8239 62b9 d564 983b dcb2 45bc
00000050: 0000 0000 3463 fb3a 0853 453a d836 fdba
00000060: f064 c3bb 98ab 403b 0000 0000 00b9 2f39
00000070: 0daf 00bb 6a4d 25bc 2695 7cbb f62b 163c
00000080: 82bb 63ba 2462 2d3b 960f 8cb7 88e1 323a
00000090: ecf0 f83a 287a 613b 5c7b a0bb 316c f63b
000000a0: eb7c 8c36 7522 4f3b 7eaf a63b 40cf 7339
000000b0: 05cd 803b 9c80 393a b358 dcbb 7834 6ebb
000000c0: cecd 0fbd 60d2 7b3a c14e 5abb 84fc cabc
000000d0: 9e00 3a3c db35 923b b4d5 6f35 7139 043a
000000e0: 0400 0000 d7e8 eaba 50d7 733a 4208 db3b
000000f0: 6ac0 76bb 99ae b23b 906f 123b dc51 3c3a

momentum_buffer f4 [5, 64]
0.00011312084 -0.019200988 -0.015459279 0.012681298 0.00043029935 -0.010302855 -3.443935e-05 0.0
0.0018288563 0.0021585033 -0.033642557 -0.026708232 0.0018018279 -8.816553e-06 -0.028330177 0.0011916335
-0.019685237 8.0301565e-05 -0.0052525424 -0.058808476 0.0 0.009438959 -0.0029734164 -0.0110174455
-0.008504216 -0.015411764 0.0 -0.0038865083 -0.029341329 -0.020092646 -0.01330014 0.01185506
-0.0060467636 0.005643831 8.737481e-06 -0.0059287893 -0.0045080986 0.004228982 -0.019113153 -8.867553e-05
3.82265e-07 0.006641889 0.008631244 0.00016191645 0.0014209035 -0.017947365 -0.0142892385 0.0010781954
-0.03388115 -0.004104131 -0.017146163 -0.038518943 0.01115178 -0.008485137 -1.1711061e-07 -0.019098178
-6e-45 0.0018217193 -0.0043448643 0.012517711 -0.014093988 0.006896372 -7.725321e-07 0.00016903403
1.3883367e-05 0.004029749 0.0039033592 -9.09036e-05 1.6896449e-05 0.010292361 -1.8419953e-05 0.0
-0.0010214213 0.013857928 -0.0038932078 -2.5289337e-05 0.0008518193 2.342326e-05 -0.0032797856 -0.0019983146
0.013325943 -3.4385534e-06 -0.0025210655 -0.0019227378 0.0 -0.005594899 0.0030337782 -0.013750386
0.0033679558 0.0075021326 0.0 0.009277198 0.006770978 -0.005794456 0.0009261243 -0.007705018
0.0007913641 0.0009818283 5.7913285e-06 0.0013329453 -0.009541814 0.0042305887 0.0017286642 0.011785704
-9.774592e-07 -0.0020967643 0.00780946 0.00035397906 0.007644539 0.0018910526 0.00841587 0.0032336903
0.0012624678 0.00072339 0.006167668 -0.002816175 -0.0022710771 0.0016989093 1.5529302e-07 0.0044823196
6e-45 0.008752136 0.015060761 0.009992821 -0.010768102 0.014318485 0.001308821 0.00045738008
1.6138589e-05 0.010113971 0.00975142 0.018411577 1.7856679e-05 0.004938446 -1.4855356e-05 0.0
0.02612359 0.005418583 0.03815248 0.018633706 0.004520423 -6.710243e-05 0.019221261 0.015728934
0.04165982 -9.087711e-06 0.0022306954 0.021782465 0.0 0.008764377 0.0027403075 0.0073619373
0.009244115 0.02741807 0.0 0.005734401 0.014955838 0.018955931 0.017620593 0.013436865
0.0034371333 0.017039094 -2.9808364e-06 0.023523513 -0.000653323 0.022184763 0.010366339 0.013656228
1.916588e-07 0.0067198016 0.014779501 0.00037006367 0.013818314 0.03287217 0.0027456582 0.003559098
0.022190098 0.0009395616 0.015648924 0.032653272 0.00558963 0.0019919113 -1.0946816e-06 0.007847768
6e-45 0.0068115783 0.00809547 0.0058332295 0.012249027 0.013296609 0.000836346 0.0001443366
9.010229e-06 0.00311579 0.0031742752 0.01119873 4.548606e-06 0.001236764 5.1817706e-06 0.0
0.014826256 0.0008405882 0.024794444 0.010522091 0.0022786655 -7.683823e-05 0.008277671 0.005600342
0.022515122 2.7684644e-06 -0.0005662797 0.009397 0.0 0.009244736 0.00019790548 0.0040331692
0.0025588463 0.016572641 0.0 0.00065666874 0.008074415 0.008933582 0.008487122 0.009289976
0.00088306563 0.0062078247 -2.4031266e-07 0.013697792 0.0004203602 0.014415795 0.0035620537 0.0038311922
2.9631994e-07 0.0048341313 0.006843847 9.770332e-05 0.0038728176 0.017501207 0.0021562641 -5.204274e-06
0.00807627 7.724887e-05 0.004270074 0.017201759 0.008747089 0.00015096484 -1.4708012e-06 0.0021603536
-6e-45 0.001453183 0.0011737681 0.0066804606 0.0037327404 0.003430374 0.00057839626 -3.53348e-05
00000000: 4a3b ed38 644b 9dbc ea48 7dbc 38c5 4f3c
00000010: cd99 e139 4ecd 28bc f872 10b8 0000 0000
00000020: 3cb6 ef3a ad75 0d3b c7cc 09bd 39cb dabc
00000030: 502b ec3a cfea 13b7 b014 e8bc 9630 9c3a
00000040: ef42 a1bc 9367 a838 851d acbb 28e1 70bd
00000050: 0000 0000 dda5 1a3c a6dd 42bb 8482 34bc
00000060: 4455 0bbc a081 7cbc 0000 0000 cab4 7ebb
00000070: 3a5d f0bc 5599 a4bc d5e8 59bc ba3b 423c
00000080: ee23 c6bb e3ef b83b 3297 1237 4a46 c2bb
00000090: acb8 93bb 4693 8a3b 3093 9cbc 50f7 b9b8
000000a0: 1a3a cd34 34a4 d93b 106a 0d3c 1ec8 2939
000000b0: 9c3d ba3a 5a06 93bc 691d 6abc 3c52 8d3a
000000c0: f6c6 0abd f27b 86bb 1c76 8cbc 0ac6 1dbd
000000d0: f5b5 363c 3e05 0bbc 3d7e fbb3 c873 9cbc
000000e0: 0400 0080 c2c6 ee3a 5d5f 8ebb 1617 4d3c
000000f0: 78ea 66bc f6fa e13b 0060 4fb5 ba3e 3139
00000100: 9bec 6837 fc0b 843b 80cf 7f3b 80a3 beb8
00000110: d9bc 8d37 4aa1 283c 8c84 9ab7 0000 0000
00000120: 36e1 85ba 5d0c 633c 3025 7fbb 7024 d4b7
00000130: a04c 5f3a 117d c437 acf1 56bb 28f6 02bb
00000140: 0e55 5a3c e6c1 66b6 7638 25bb 6004 fcba
00000150: 0000 0000 6a55 b7bb 5ad2 463b 4d49 61bc
00000160: ecb8 5c3b 73d4 f53b 0000 0000 64ff 173c
00000170: 15df dd3b 6cdf bdbb 26c7 723a 607a fcbb
00000180: 8c73 4f3a b1b0 803a 2253 c236 39b6 ae3a
00000190: 4555 1cbc c0a0 8a3b 5894 e23a d318 413c
000001a0: 3e31 83b5 de69 09bb 80e6 ff3b 4496 b939
000001b0: 0a7f fa3b 32dd f73a b8e2 093c 52ec 533b
000001c0: 6479 a53a e2a1 3d3a 261a ca3b 948f 38bb
000001d0: 5ad6 14bb f0ad de3a 9fbe 2634 6ce0 923b
000001e0: 0400 0000 1e65 0f3c 69c1 763c eeb8 233c
000001f0: b16c 30bc 1498 6a3c bf8c ab3a 84cc ef39
00000200: 5b61 8737 12b5 253c 6bc4 1f3c e0d3 963c
00000210: edca 9537 b0d2 a13b 453b 79b7 0000 0000
00000220: 2401 d63c 5e8e b13b c645 1c3d b7a5 983c
00000230: 0e20 943b 58b9 8cb8 e875 9d3c f7d9 803c
00000240: 7da3 2a3d 6c77 18b7 dc30 123b 2471 b23c
00000250: 0000 0000 7698 0f3c bb96 333b 683c f13b
00000260: a174 173c dc9b e03c 0000 0000 a4e7 bb3b
00000270: 5509 753c 7849 9b3c 1059 903c 4c26 5c3c
00000280: 8741 613b 9295 8b3c 610a 48b6 62b4 c03c
00000290: c443 2bba d2bc b53c 94d7 293c 5fbe 5f3c
000002a0: c5ca 4d34 c831 dc3b b825 723c 1b05 c239
000002b0: 3666 623c f8a4 063d 80f0 333b c23f 693b
000002c0: 02c8 b53c e94c 763a 2c32 803c 70bf 053d
000002d0: 3729 b73b ba8a 023b f9ec 92b5 ed93 003c
000002e0: 0400 0000 a933 df3b dda2 043c ad24 bf3b
000002f0: 25b0 483c 05da 593c 3b3e 5b3a 1059 1739
00000300: a42a 1737 4832 4c3b 8007 503b e17a 373c
00000310: 3aa0 9836 ea1a a23a 12df ad36 0000 0000
00000320: d3e9 723c eb5a 5c3a b81d cb3c d964 2c3c
00000330: aa55 153b 3624 a1b8 129f 073c 1383 b73b
00000340: a271 b83c dbc9 3936 6372 14ba e0f5 193c
00000350: 0000 0000 3c77 173c d984 4f39 ad28 843b
00000360: 51b2 273b 59c3 873c 0000 0000 4b24 2c3a
00000370: 8d4a 043c 295e 123c 920d 0b3c fc34 183c
00000380: 887d 673a 026b cb3b 5204 81b4 b46c 603c
00000390: ca63 dc39 3a30 6c3c 5871 693b bd14 7b3b
000003a0: e715 9f34 a267 9e3b 5a42 e03b 12e6 cc38
000003b0: 19cf 7d3b b15e 8f3c 1c50 0d3b 60a0 aeb6
000003c0: 5552 043c ac00 a238 faeb 8b3b b4ea 8c3c
000003d0: f34f 0f3c 514c 1e39 5868 c5b5 b894 0d3b
000003e0: 0400 0080 bb78 be3a 1fd9 993a c4e7 da3b
000003f0: fea0 743b 20d0 603b 849f 173a 7434 14b8

momentum_buffer f4 [5]
-0.01737149 0.032441806 0.02942647 0.014451826 -0.0019029551
00000000: a84e 8ebc b3e1 043d c80f f13c 5ac7 6c3c
00000010: 946c f9ba

conv1.weight f4 [10, 5, 4]
0.6275968 0.11758245 -0.67099565 -0.13388225 0.047864307 -0.1476555 0.043733947 -0.19807044
-0.15558256 0.00048665327 -0.17070249 -0.21276781 0.14324962 0.17723961 -0.19306517 -0.07278559
0.19041732 0.12561323 -0.16373925 0.08829414 -0.1392556 0.12175575 0.2171601 -0.08242546
0.15642789 -0.15129802 0.26475263 0.376615 0.2374223 -0.0049634445 0.08415873 0.016599122
0.072614014 -0.014652428 0.02027982 -0.17689462 -0.0078062136 -0.19814627 0.005169338 0.1894483
-0.14538679 0.077679686 -0.12817475 0.3329122 -0.18833704 -0.08689773 0.0916984 -0.42924428
0.019417137 -0.06638099 -0.032911334 0.18198486 -0.21968758 -0.11068103 -0.012690827 -0.16936225
-0.07686893 0.18949096 0.061474413 0.08554921 -0.05677952 -0.12580295 0.4532463 -0.33622414
0.14041662 -0.04501917 -0.02746428 -0.09690175 0.24498142 -0.06588777 -0.054366097 0.054069277
0.21741001 0.008361093 -0.0964848 0.11653311 0.026444465 0.1452365 0.046442196 -0.0068910914
-0.15091299 -0.25618392 0.19717404 0.22886117 -0.22418499 -0.0098698335 -0.22971784 -0.060500868
0.025626006 0.07300459 0.07985073 0.08730462 0.1520035 0.16398285 -0.0077532637 0.0028909228
-0.1802595 0.19478469 0.07077375 -0.108782604 -0.21466284 -0.24281651 0.110016406 -0.2932245
-0.27784678 -0.0480328 0.24309245 -0.039144114 -0.26136613 0.16275617 0.27615434 0.026395004
0.022797523 -0.18693332 0.097466975 0.046835326 -0.20205846 -0.20594902 0.035560645 0.15250264
0.12607181 0.14372355 0.06282327 0.5923667 0.054903485 -0.21674117 -0.052851506 0.320759
0.1448825 -0.0033337264 -0.043523546 -0.17245956 -0.047463328 0.06475693 -0.22877315 -0.012016509
0.0067108315 0.15965417 -0.008838668 -0.13404125 0.10445192 -0.19858366 0.3375178 -0.043230172
0.09914385 0.13324255 0.4867313 0.10909477 -0.029110214 0.1978442 0.1447364 0.1672241
0.18163314 0.10008271 0.06388514 0.04088519 0.12588845 -0.1162571 0.14048347 -0.18984132
0.3380309 0.13324635 -0.25933808 0.17459902 -0.1036292 0.17351922 0.14090738 0.060038246
0.09745678 -0.017195068 0.12498943 -0.06004936 -0.117265336 0.19098087 -0.05948701 0.123604216
0.15924495 -0.08189932 -0.10463644 -0.008459648 -0.02399944 0.008649942 0.50185674 -0.021989524
-0.022110552 0.095794834 -0.48304507 0.06932521 -0.1616723 0.29495537 0.082231805 -0.10436597
0.2057981 0.10447643 0.16289198 -0.10457313 0.09738993 0.19740526 -0.14134197 -0.18422307
00000000: 2faa 203f 11cf f03d 5fc6 2bbf 6e18 09be
00000010: 5d0d 443d 0133 17be 5e22 333d fad2 4abe
00000020: 0951 1fbe 7f25 ff39 a2cc 2ebe cedf 59be
00000030: 07b0 123e 4d7e 353e e0b2 45be 9d10 95bd
00000040: c2fc 423e c1a0 003e 43ab 27be 8fd3 b43d
00000050: 0599 0ebe 145b f93d 385f 5e3e aece a8bd
00000060: a22e 203e deed 1abe a88d 873e aed3 c03e
00000070: d51e 733e 64a4 a2bb 6a5b ac3d e2fa 873c
00000080: a8b6 943d bd10 70bc dd21 a63c dd23 35be
00000090: 44cb ffbb dbe6 4abe 8d63 a93b bcfe 413e
000000a0: 46e0 14be 8716 9f3d 3e40 03be 7873 aa3e
000000b0: 6ddb 40be 70f7 b1bd 5fcc bb3d e8c5 dbbe
000000c0: b010 9f3c c2f2 87bd 09ce 06bd 3d5a 3a3e
000000d0: c8f5 60be bcac e2bd 30ed 4fbc 4c6d 2dbe
000000e0: 756d 9dbd eb09 423e 98cc 7b3d 6d34 af3d
000000f0: a491 68bd 7dd2 00be e60f e83e 9225 acbe
00000100: 60c9 0f3e 0566 38bd c5fc e0bc 6d74 c6bd
00000110: 69dc 7a3e 2bf0 86bd fcae 5ebd bf77 5d3d
00000120: bba0 5e3e f7fc 083c d399 c5bd e9a8 ee3d
00000130: 10a2 d83c e1b8 143e 2c3a 3e3d aace e1bb
00000140: ef88 1abe 8a2a 83be fee7 493e 955a 6a3e
00000150: c090 65be 15b5 21bc 273b 6bbe c2cf 77bd
00000160: a1ed d13c 6e83 953d c888 a33d c4cc b23d
00000170: cea6 1b3e 1feb 273e 170f febb a375 3d3b
00000180: f295 38be a375 473e d4f1 903d 6ac9 debd
00000190: 93d0 5bbe e4a4 78be 4850 e13d 8621 96be
000001a0: ef41 8ebe 0bbe 44bd 3aed 783e 9455 20bd
000001b0: c8d1 85be 8ea9 263e 1a64 8d3e 563a d83c
000001c0: dfc1 ba3c 736b 3fbe c49c c73d 66d6 3f3d
000001d0: 6ae8 4ebe 4de4 52be 0aa8 113d a729 1c3e
000001e0: f818 013e 442c 133e 7da9 803d 58a5 173f
000001f0: 7ae2 603d 66f1 5dbe d27a 58bd 863a a43e
00000200: 145c 143e a67a 5abb bf45 32bd 3d99 30be
00000210: e868 42bd 489f 843d 8243 6abe e4e0 44bc
00000220: 89e6 db3b 627c 233e 10d0 10bc 1c42 09be
00000230: e3ea d53d 8459 4bbe 22cf ac3e 1f12 31bd
00000240: ee0b cb3d bc70 083e d834 f93e 146d df3d
00000250: 8b78 eebc ac97 4a3e c735 143e cb3c 2b3e
00000260: 0afe 393e 2af8 cc3d 36d6 823d 3b77 273d
00000270: e7e8 003e 3418 eebd e6da 0f3e c365 42be
00000280: 6312 ad3e bb71 083e f6c7 84be 16ca 323e
00000290: 8c3b d4bd 06af 313e 064a 103e aaea 753d
000002a0: 6c97 c73d acdc 8cbc 75fa ff3d 51f6 75bd
000002b0: cf28 f0bd 7d90 433e a7a8 73bd 3524 fd3d
000002c0: 1c11 233e d5ba a7bd a14b d6bd 569a 0abc
000002d0: 799a c4bc 7db8 0d3c af79 003f 6023 b4bc
000002e0: 3021 b5bc 1530 c43d af51 f7be 60fa 8d3d
000002f0: 6c8d 25be 6404 973e 2669 a83d d3bd d5bd
00000300: bdbc 523e bdf7 d53d 28cd 263e 702a d6bd
00000310: 5f74 c73d 9b24 4a3e f3bb 10be f9a4 3cbe

conv1.bias f4 [10]
-0.1316612 0.23463021 0.042944107 0.13267165 0.18169391 0.34089074 -0.10582268 -0.10224052
-0.20551239 0.13370089
00000000: 32d2 06be e742 703e 29e6 2f3d 14db 073e
00000010: f80d 3a3e 3b89 ae3e 90b9 d8bd 7a63 d1bd
00000020: d771 52be e3e8 083e
