tb_logs/ConvNet_1_0_1/version_0/checkpoints/epoch=24.ckpt (torch_old, 217363 bytes, 16 tensors)

momentum_buffer f4 [10, 5, 4]
000000 58 30 c3 bc 85 8d 01 bc ef 5e 52 bd bd 1b 13 bc
       -0.023826763 -0.007907276 -0.051360067 -0.008978781
000010 e0 b2 38 bc 5a 31 8f 3b e5 b9 d5 bc 01 bd 91 3b
       -0.011273116 0.004369897 -0.026089618 0.00444758
000020 90 f9 4b 3b f8 94 59 3b a0 dd c8 ba 14 be 51 3b
       0.0031124093 0.0033200365 -0.0015324838 0.0032004165
000030 0c 13 7a 3b 1a e9 59 3b 03 9b 1d 3b 28 34 73 3b
       0.0038158325 0.0033250512 0.0024048693 0.0037109945
000040 54 96 72 3b 8a a2 72 3b c7 3b 87 3b 10 79 73 3b
       0.0037015872 0.003702315 0.004126999 0.0037151016
000050 88 29 85 3c e4 fc c8 bd 63 13 8c 3c 44 52 bd bd
       0.016255155 -0.0981386 0.017099088 -0.092442065
000060 e5 d4 86 3c 42 f4 87 3b 39 9a 19 3c ba 24 34 3c
       0.016458938 0.004148991 0.009375148 0.010995084
000070 fe b5 4a 3c 54 14 83 3c df 0f 33 3c f6 18 35 3c
       0.012372492 0.016000904 0.010929077 0.011053314
000080 66 8e 4d 3c bc b4 32 3c fe f0 32 3c f6 18 35 3c
       0.012546157 0.010907348 0.010921715 0.011053314
000090 72 f6 2c 3c 84 ea 13 3c ba 2c 35 3c f7 18 35 3c
       0.010556804 0.009028081 0.011058027 0.011053315
0000a0 dd 3c 71 bd d4 96 22 be 75 c8 b3 bd 01 83 e8 bd
       -0.058895934 -0.15877849 -0.087784685 -0.11353112
0000b0 f8 a6 a6 3b 80 c6 a0 bc 32 fb b2 3b 1a 72 ea 3b
       0.005085822 -0.019625902 0.0054620737 0.0071547152
0000c0 e1 cb 25 3c 58 e9 6b 3c e1 72 2f 3c 1e 9f 2c 3c
       0.010119409 0.014398895 0.010708542 0.010535983
0000d0 84 f1 2b 3c 34 e0 37 3c 1c d6 2f 3c cd 81 2e 3c
       0.0104945935 0.011222888 0.0107322 0.010651064
0000e0 bd e7 2a 3c aa 8d 1e 3c a0 f7 32 3c 06 d3 32 3c
       0.010431227 0.00967733 0.010923296 0.01091457
0000f0 9a 36 6f 3c 4c 87 8c b9 e0 92 d0 3a 6e 36 03 3a
       0.01460042 -0.00026803685 0.0015912913 0.0005005364
000100 6a 6b 2e 3a a3 6a dd 3a a3 6a dd 3a 78 35 00 3a
       0.0006653579 0.0016892742 0.0016892742 0.000489078
000110 3f d9 88 3b a3 6a dd 3a a3 6a dd 3a fc de e9 39
       0.0041762884 0.0016892742 0.0016892742 0.0004460736
000120 f0 76 6c 3a a3 6a dd 3a a3 6a dd 3a d7 2a b5 3a
       0.00090204086 0.0016892742 0.0016892742 0.0013821971
000130 4a 12 8e 3a a6 6a dd 3a a6 6a dd 3a 9a 20 b0 3a
       0.0010839191 0.0016892746 0.0016892746 0.001343745
000140 97 bc 16 3c 34 33 1d bd fc f8 ea bc ca f4 5c bc
       0.009200237 -0.03837891 -0.028683178 -0.013486097
000150 3c 1f b4 3b 71 9d bc bc 51 da d1 3b cc a1 e4 3b
       0.0054968875 -0.023024293 0.006404199 0.0069772955
000160 a2 8a 39 3b 5a 41 5d ba cc 41 2e 3b 97 52 72 3b
       0.0028311391 -0.0008440219 0.002658951 0.0036975497
000170 f3 18 7c 3b 21 c7 44 3b 76 1e 30 3b b6 ca 1d 3b
       0.003846702 0.0030025917 0.0026873625 0.0024077124
000180 f4 09 66 3b 97 2f 50 3b 6e 4a 30 3b de 48 30 3b
       0.0035101147 0.0031766647 0.0026899832 0.00268989
000190 de c1 79 bd b2 51 66 be 4f a3 20 be a7 48 d7 bd
       -0.0609759 -0.22492102 -0.15687297 -0.10511904
0001a0 d5 26 82 3c 20 c8 eb b9 3f 6e 93 3c c0 88 c9 3b
       0.015887657 -0.00044971798 0.017996905 0.006150335
0001b0 68 a3 78 3c d9 47 93 3c 30 4f 80 3c 5a c5 56 3c
       0.015175678 0.017978596 0.01566276 0.013108576
0001c0 b8 1e 76 3c 07 ed 5d 3c e7 08 80 3c 62 f8 7e 3c
       0.015021972 0.013545281 0.015629245 0.015562149
0001d0 5e 52 84 3c 87 66 88 3c 99 83 7f 3c ef 63 88 3c
       0.016152557 0.016650451 0.01559534 0.016649215
0001e0 4a 62 3a bb 70 9f 52 3b 27 47 ed ba 52 01 4b 3c
       -0.0028439933 0.003213849 -0.001810287 0.0123904515
0001f0 73 bf 4c bb f2 f6 3e ba 30 83 e1 3a 29 35 42 3c
       -0.0031242042 -0.00072847225 0.0017205235 0.011853495
000200 1d 33 56 bb 54 e5 3e ba 8e 30 e6 3a 6b d6 4d ba
       -0.0032684274 -0.00072820974 0.0017562078 -0.000785208
000210 66 d6 28 bb 0a 15 3f ba 74 bc 01 3b 23 6e 4e ba
       -0.0025762557 -0.0007289207 0.0019796165 -0.0007874688
000220 9c 3f 9a 39 65 89 3f ba 59 71 56 3a 85 23 4d ba
       0.00029420562 -0.0007306545 0.0008180342 -0.0007825422
000230 2f 48 23 3e 1e a0 33 3c 62 b8 b7 3d b2 16 a2 3d
       0.15945505 0.010963468 0.08970715 0.07914485
000240 12 41 74 bc d8 ad e4 bb 64 e2 0a bc 52 4f 2f bc
       -0.014908092 -0.0069787316 -0.008476827 -0.010700064
000250 5f b6 c5 bb 7a 55 10 bc 2a 2f 4c bc 6f 3f 12 bc
       -0.006033703 -0.008809442 -0.012462417 -0.008926257
000260 54 a8 c6 bb c8 ec 0f bc d8 51 18 bc 19 39 12 bc
       -0.0060625467 -0.00878448 -0.009296857 -0.008924746
000270 99 c2 18 bc 6a 4f 12 bc 99 4e 12 bc 69 4f 12 bc
       -0.009323739 -0.008930067 -0.008929872 -0.008930066
000280 e4 87 e1 3d 24 1d 39 3e cc 22 92 3c 30 7b 85 3e
       0.11012247 0.18077523 0.017838858 0.26070547
000290 35 8d 2c bc e6 c8 31 bb 74 86 52 bc 9d 7c 07 bc
       -0.010531713 -0.0027127801 -0.012849439 -0.008269456
0002a0 ef fa 47 bc ff 70 3b bc aa 63 45 bc 5e e9 f5 bb
       -0.012205823 -0.011440515 -0.012047688 -0.007504626
0002b0 65 92 45 bc 28 e8 44 bc 60 8e 45 bc 0c 29 2a bc
       -0.012058829 -0.012018241 -0.012057871 -0.010385763
0002c0 ac 8e 45 bc 63 77 45 bc ac 8e 45 bc c9 76 40 bc
       -0.012057941 -0.01205239 -0.012057941 -0.011747071
0002d0 ab 5a 67 3e 2b 0a 80 3d 35 71 33 3e 2d 5c 31 3e
       0.22593181 0.062519394 0.17523654 0.17320319
0002e0 98 fd dd 3b 32 9e 51 bc 72 12 7f 3c 50 a6 14 3a
       0.0067746155 -0.012794064 0.015568363 0.00056705344
0002f0 08 35 40 bc cd b6 69 bc 72 6e 8b bc 01 77 86 bc
       -0.011731394 -0.0142647745 -0.017020438 -0.016414167
000300 13 5d 81 bc e4 d8 76 bc 7e c2 7c bc 68 a9 84 bc
       -0.015791452 -0.015066359 -0.01542723 -0.01619406
000310 47 58 78 bc 7e 12 74 bc da 54 7c bc 42 90 7c bc
       -0.015157766 -0.014896987 -0.01540109 -0.015415253

momentum_buffer f4 [10]
000000 6b 77 70 bc f8 ba 33 bd c0 9d 31 bd c1 be db bb
       -0.014676909 -0.04387948 -0.043363333 -0.0067060892
000010 c0 f5 2e bc 3b 5b 87 bd 7e 77 3f 3b a6 34 11 3d
       -0.010678709 -0.06609198 0.002921551 0.0354506
000020 da 10 44 3d 43 60 7a 3d
       0.047867633 0.06112696

momentum_buffer f4 [128, 140]
000000 49 45 d3 b8 42 cd e0 ba 19 e3 2a 3a 42 fc 55 bc
       -0.000100741694 -0.0017151015 0.00065188255 -0.013060631
000010 41 99 ef b9 5d 4c a8 ba 60 66 58 39 07 79 4e 39
       -0.00045699815 -0.0012840141 0.00020637503 0.00019690777
000020 12 0a 4c ba 49 42 62 bc f2 a9 9a 39 d4 ec 29 bc
       -0.0007783483 -0.013809749 0.00029499788 -0.010371406
000030 ac da 61 39 97 08 71 bc 15 ce d4 b8 36 41 74 ba
       0.00021539134 -0.014711521 -0.000101473335 -0.00093175785
000040 44 77 ab b9 f0 38 b3 bb ec e8 b7 b9 22 71 56 ba
       -0.0003270452 -0.005469434 -0.0003507802 -0.000818031
000050 6b 73 05 b9 5f 57 dc b9 2b 23 1b b9 7e 90 bd bb
       -0.00012726865 -0.00042026766 -0.00014795053 -0.005785047
000060 5b ab 2c b8 3a 11 78 bb 1a db d0 b9 41 06 a9 bb
       -4.1167583e-05 -0.0037852065 -0.00039836095 -0.005158216
000070 88 2d cd 39 54 c7 06 bb 4a 86 cf b9 8b d7 6e bc
       0.0003913457 -0.0020565586 -0.0003958217 -0.014577757
000080 2a 69 b7 b9 83 8a 05 bb b8 b5 62 ba de f4 32 ba
       -0.00034982833 -0.002037675 -0.0008648294 -0.0006826649
000090 73 87 cf 36 f9 e9 83 bc d9 df 89 ba ac 53 2c bc
       6.184849e-06 -0.016102778 -0.0010518982 -0.010517996
0000a0 a8 fb 85 38 63 a0 79 bc 04 fc d4 ba 14 9c c6 ba
       6.388809e-05 -0.015235993 -0.0016249423 -0.0015152716
0000b0 d1 56 ef ba 73 29 a7 38 45 4e e1 ba 70 50 bd ba
       -0.0018260126 7.970901e-05 -0.0017189464 -0.0014443528
0000c0 e2 89 c1 ba e6 5f f0 ba f7 a2 d6 ba 65 0a 6f 39
       -0.0014765824 -0.0018339127 -0.0016375472 0.00022796688
0000d0 a6 ab 5e ba b4 44 e0 b9 e5 bd 28 ba f1 cc 08 39
       -0.00084942055 -0.00042775797 -0.0006436988 0.00013046317
0000e0 16 a2 c4 ba 9a 06 7a bb 2e 9f 06 bb 25 d2 aa bc
       -0.0015001919 -0.0038150907 -0.0020541656 -0.020852158
0000f0 a8 42 47 bb ca 97 5d bb 96 1c f7 ba 6e 3b 39 bb
       -0.003040472 -0.0033812397 -0.0018853124 -0.0028264183
000100 fd f1 c6 ba 0a cc b7 bc 51 78 1e bb 02 27 7e bc
       -0.0015178319 -0.02243616 -0.00241806 -0.01551223
000110 45 37 1f bb 44 15 a1 bc 35 37 02 b9 dd ce 28 ba
       -0.0024294418 -0.01966346 -0.00012418332 -0.00064395164
000120 20 52 a9 b9 f1 30 9a bb 7e 6a 0f ba d8 59 cf b9
       -0.0003229538 -0.0047055413 -0.00054708857 -0.00039549056
000130 da 98 be b9 42 b9 d2 b9 ff b4 2a b9 79 53 97 bb
       -0.00036353507 -0.0004019235 -0.0001627989 -0.004618105
000140 f7 0d ae b8 d7 60 79 bb 02 c6 e2 b8 7d 4b a1 bb
       -8.299568e-05 -0.0038052106 -0.000108134016 -0.004922329
000150 ea 71 c7 36 63 cc 77 b6 56 01 52 37 46 92 ed b5
       5.9439235e-06 -3.6924837e-06 1.2517286e-05 -1.7700447e-06
000160 a4 ba 1a b9 80 2e fe b6 18 58 98 b7 98 52 fa 34
       -0.00014756114 -7.575203e-06 -1.8160834e-05 4.6626224e-07
000170 3c 55 6f b8 13 b7 86 38 2d ab 49 39 f8 75 27 37
       -5.706142e-05 6.423718e-05 0.00019232622 9.981442e-06
000180 24 6c 85 b7 4f 35 9c b8 2c 0f c9 bc fe 6f 80 39
       -1.5905192e-05 -7.448589e-05 -0.024543367 0.00024497503
000190 97 f6 0a bb 2e c4 5d 3a 42 47 c1 bc a1 70 5f ba
       -0.0021204108 0.0008459714 -0.023593549 -0.0008523558
0001a0 f6 51 ae ba 8c 80 be b9 c3 95 8b ba 41 6c 2f b9
       -0.0013299573 -0.000363354 -0.0010649491 -0.00016729628
0001b0 41 10 c8 bc b3 d9 58 3a 5c b6 92 bc 92 ad 63 39
       -0.024421813 0.0008272186 -0.017909221 0.00021713067
0001c0 3e 56 95 bb 24 87 e0 ba 6c df 5a bc 81 48 90 39
       -0.0045574 -0.0017130119 -0.013358932 0.0002751984
0001d0 04 e8 88 bb 89 d0 fd ba 98 fd da ba cd b7 f3 ba
       -0.004178049 -0.0019364516 -0.0016707657 -0.0018594206
0001e0 79 d2 80 bc 48 ad 29 b9 a2 48 2d bc 75 b7 1a ba
       -0.015725361 -0.00016181648 -0.010576399 -0.0005901971
0001f0 67 05 77 bc b9 bf 30 ba fe 51 0d bc 03 5a 85 ba
       -0.015076972 -0.0006742436 -0.0086255055 -0.001017392
000200 c4 0d 3d bc be 30 ae bb 48 07 2c bc 51 68 c8 ba
       -0.0115389265 -0.005315869 -0.010499783 -0.0015289878
000210 84 a3 17 ba 50 b0 03 38 e6 2e 14 bc 01 4e a7 bb
       -0.00057845586 3.1397038e-05 -0.009044385 -0.0051057343
000220 00 1e 13 bc 1c d3 44 bb e2 5f 22 bc 5a 41 de bb
       -0.0089793205 -0.0030033058 -0.009910556 -0.006782693
000230 94 f3 00 bb 2f 8a 20 bb 08 99 d2 ba 5e 82 98 bc
       -0.0019676434 -0.0024496426 -0.0016067335 -0.018616851
000240 46 46 1c ba fd e0 e7 39 97 77 e4 b9 dc 1e 2a 3b
       -0.00059613993 0.00044227383 -0.0004357665 0.0025958335
000250 23 e3 82 38 d0 50 8d bc cc 08 49 b9 a2 4d 66 bc
       6.2411906e-05 -0.017250448 -0.00019172131 -0.014056595
000260 fe 67 9d ba c8 b8 76 bc 1c e3 24 b9 3e 1d 86 b9
       -0.0012009142 -0.015058704 -0.00015724864 -0.0002558026
000270 86 26 c5 b9 a5 e0 f3 bb 64 b1 a6 b9 82 9e 88 38
       -0.0003760347 -0.007442551 -0.00031794154 6.51451e-05
000280 9f 5c 3e b9 8c cd 03 3a aa 94 09 b9 7f d9 db bb
       -0.00018154316 0.0005027882 -0.0001312072 -0.006709277
000290 b2 0f 24 38 b1 70 a6 bb 12 ef 0f 38 ed 57 c4 bb
       3.9115264e-05 -0.005079352 3.431651e-05 -0.005991927
0002a0 64 2f cd ba 58 96 43 bb 4b 89 3e bb bb ba b1 bc
       -0.0015654382 -0.002984425 -0.0029073532 -0.021695485
0002b0 ac 55 c0 ba 8e 49 64 39 0e 57 a2 b9 a8 d4 4a 3b
       -0.001467397 0.00021771176 -0.0003096391 0.0030949507
0002c0 32 e5 0e 3a c7 f2 9f bc 31 51 f2 b9 eb c4 85 bc
       0.0005451023 -0.019524945 -0.0004621833 -0.01632925
0002d0 bc 39 1a b9 c3 ae 92 bc ac 50 d8 ba 26 f5 c0 ba
       -0.00014708092 -0.017905599 -0.0016503534 -0.0014721497
0002e0 24 f7 d7 ba d4 c9 45 3a f3 c6 f9 ba f7 c3 06 bb
       -0.0016476852 0.00075450283 -0.0019056484 -0.0020563581
0002f0 84 dc f3 ba 4a 4c 25 bb 16 b1 e4 ba 87 46 e8 39
       -0.0018605147 -0.0025222474 -0.0017447795 0.00044303035
000300 da 0d 1f ba 87 05 53 38 9f 47 22 ba b0 21 eb 38
       -0.00060674327 5.0311468e-05 -0.0006190482 0.00011211948
000310 09 27 39 bb 25 f5 4c bb 64 cd 44 bb 04 f5 e2 bc
       -0.0028252027 -0.0031274047 -0.003002965 -0.027704723
000320 32 58 63 bb 5a 04 7c ba 7f 24 f9 ba eb 2f 26 3b
       -0.003469002 -0.00096136855 -0.0019008069 0.0025358151
000330 32 75 cb ba 5b f2 d9 bc 5a 28 18 bb 6c d2 b6 bc
       -0.0015522598 -0.026604822 -0.002321741 -0.022317134
000340 78 70 0e bb 4d d4 c4 bc 8c d6 99 b9 c2 43 d0 b9
       -0.0021734517 -0.024027014 -0.00029342284 -0.00039723335
000350 2c 9f d4 b9 1f 1c ce bb bd e5 ad b9 89 c5 3d b9
       -0.00040554383 -0.0062899734 -0.000331683 -0.00018098032
000360 5e 78 9c b9 5c 09 17 39 bb 28 07 b9 fc de bd bb
       -0.0002984432 0.00014403969 -0.00012889777 -0.005794404
000370 8d bd c3 38 82 d2 b7 bb 94 3c 44 b8 71 cf c1 bb
       9.333631e-05 -0.0056098113 -4.678646e-05 -0.0059146215
000380 a6 42 11 b6 98 b1 04 37 84 96 d7 b8 0e cd 8a b6
       -2.1645478e-06 7.909162e-06 -0.000102800346 -4.136592e-06
000390 aa 26 b1 38 45 9a c3 37 6e dc 01 39 bd 27 4e 36
       8.4472194e-05 2.3317649e-05 0.00012384515 3.0719523e-06
0003a0 ba 0d 82 38 d5 2b c1 36 4c b4 a7 39 88 07 74 b8
       6.20144e-05 5.756951e-06 0.00031987054 -5.8181147e-05
0003b0 bb a1 7b 39 8b 6d 05 b9 d6 47 c1 bc 1d c7 1c bb
       0.00023997475 -0.00012724676 -0.023593824 -0.0023922392
0003c0 61 1e 6f bb d3 d2 ed ba 68 eb 03 bd 7c 45 8e ba
       -0.0036486613 -0.0018144496 -0.032206923 -0.0010854448
0003d0 ce cb 40 3a 0d a9 b5 b8 0f f6 b1 3b 93 45 ca b7
       0.0007354588 -8.662241e-05 0.005430944 -2.4112675e-05
0003e0 c3 1b f2 bc ae 8e ac ba 4e 00 c5 bc 65 d9 da ba
       -0.029554253 -0.001316508 -0.024047997 -0.0016696869
0003f0 da 93 90 bb db 15 62 bb d2 44 98 bc 50 16 2f 39
       -0.0044121565 -0.003449789 -0.018587504 0.00016697613

momentum_buffer f4 [128]
000000 ae d3 8e bb 1e 6f 9b bb c3 3a c2 b9 21 f1 29 3c
       -0.0043587303 -0.004743471 -0.00037046344 0.010372431
000010 8c 22 d2 39 bf 8e 7c b9 48 cd 00 3b b9 30 b9 bb
       0.0004008006 -0.0002408577 0.0019653607 -0.00565156
000020 aa 8a 3d 3c 0c 3a d1 3b ca 96 38 bc e1 d6 94 37
       0.011568705 0.0063850936 -0.01126642 1.7743036e-05
000030 d0 47 6e 3c 86 8f 8b 3a fc d8 3c ba a5 34 88 39
       0.014543489 0.0010647632 -0.0007203964 0.00025979165
000040 3b ec 99 3b a4 07 12 3c dc fd 65 ba 78 2e 74 3c
       0.0046973503 0.0089129545 -0.0008773485 0.014903657
000050 a4 86 cc 3c 98 41 02 38 71 4e e2 ba ed 2e 69 bd
       0.024966545 3.1055504e-05 -0.0017265809 -0.056929518
000060 41 e4 32 39 0d b8 24 bc 15 b6 ef b9 66 dd 86 3a
       0.00017060434 -0.010053647 -0.00045721294 0.001028937
000070 a1 8f af b9 a6 37 e7 bc 6b b8 f7 36 96 be 0a b9
       -0.00033485613 -0.028224777 7.3826427e-06 -0.00013231704
000080 61 a8 b8 bc 33 58 fc 38 ee 3f ba 3c d7 be e3 b9
       -0.022541227 0.00012032725 0.022735562 -0.00043439
000090 b9 50 b0 39 dd 25 ad 3a d1 25 a9 3c e5 ec e3 3a
       0.0003362948 0.0013210137 0.020647915 0.0017389326
0000a0 d6 3b 16 3b c9 21 4d 3b f1 32 64 ba d8 c9 c5 bc
       0.0022923849 0.0031300655 -0.00087051006 -0.024144098
0000b0 13 b3 f0 3c c1 22 71 3c 14 40 b2 3c 8a 9b 1d 3a
       0.029382264 0.014717759 0.02175907 0.0006012252
0000c0 82 24 9c bc 58 b0 9d 39 e4 98 ff 3b 1c 1f ed 37
       -0.019060377 0.0003007676 0.0078002084 2.8267088e-05
0000d0 7d 8f 0b ba 33 4a a6 3c 15 cf 00 bd 70 67 d0 3b
       -0.00053238106 0.020299053 -0.03144749 0.006359987
0000e0 84 0f 4d bb ae 11 8b 3c f4 f6 68 3c b8 05 15 b9
       -0.0031289766 0.016976204 0.014219034 -0.00014211878
0000f0 fe 77 3f bc de 90 02 b8 f2 45 3d 3b 82 9a 70 bc
       -0.011686323 -3.1129333e-05 0.0028880802 -0.014685275
000100 60 12 2e 3b c8 4c f7 b9 d3 cf 9c 3c ef 38 3d 3c
       0.0026561245 -0.00047168718 0.019142067 0.011549219
000110 5d 65 a1 3b 65 e2 f2 3a 69 77 b9 3c 6e 1d cb 3a
       0.0049254135 0.0018530606 0.022639947 0.0015496442
000120 9d 8e 53 3c ef 40 f2 bb e7 c4 8d 38 af ba 9b 3a
       0.01291242 -0.0073929946 6.76008e-05 0.0011881198
000130 1e 45 12 bc 2d 7b 27 ba 48 83 89 3c 3f 6a 37 3b
       -0.008927612 -0.0006388899 0.016786233 0.0027986912
000140 23 2b c6 38 3d 45 1f b9 7b 11 09 bb 61 02 5e bc
       9.4494106e-05 -0.00015189215 -0.002091496 -0.013550372
000150 0f 73 cf 3b 57 42 04 39 d1 95 4c 39 0c 1b 31 3c
       0.0063308547 0.00012613214 0.00019510767 0.010809671
000160 4d f1 91 3c 48 4f a8 3b 37 23 15 b8 ea dd 14 3c
       0.017815256 0.005136404 -3.5557165e-05 0.009086112
000170 e5 b3 87 3b e9 e9 c7 3c a3 f0 0c 3d 65 eb 50 3b
       0.004141318 0.02440353 0.034409177 0.0031878587
000180 f2 b2 41 b9 57 2c 0a bd c5 d8 20 bb 1d 88 20 3a
       -0.00018472577 -0.033733692 -0.0024543267 0.0006123798
000190 57 28 ad bb 13 87 3a 38 ce 49 4d bb 9f 15 c4 3b
       -0.00528435 4.4471653e-05 -0.0031324509 0.0059840227
0001a0 18 41 a3 3c 96 b3 8c bb 3e 9f 85 3b fa 7c f6 39
       0.0199285 -0.0042938692 0.004077821 0.0004701389
0001b0 a1 18 6f ba af f6 c5 ba 31 6c 41 bc 55 35 bb b6
       -0.00091207965 -0.0015103425 -0.01180558 -5.579243e-06
0001c0 f8 47 e9 bc 2e 52 04 3c 35 3b 5a 3b 24 9a f4 b8
       -0.0284767 0.008076234 0.003329945 -0.000116635376
0001d0 5e 34 84 3b 5a ad 4c bb c4 d5 42 bd ce f0 88 39
       0.004034563 -0.0031231255 -0.047567144 0.00026119355
0001e0 3a 64 c7 3c 30 08 71 3a c6 1b 4c bb 20 ff d8 bb
       0.024339784 0.00091946404 -0.0031144484 -0.00662221
0001f0 28 51 81 3a ea 5e 2f 3c 71 65 af 3b f3 09 12 bd
       0.0009866105 0.010703782 0.005352669 -0.03565402

momentum_buffer f4 [64, 128]
000000 b6 63 b6 a2 04 fb 3d 9a 04 00 00 80 31 44 bb 36
       -4.943677e-18 -3.9287053e-23 -6e-45 5.580973e-06
000010 e1 c0 4d 27 2e 5c 33 26 ed 14 6f 33 95 12 37 37
       2.8554025e-15 6.2228027e-16 5.5665556e-08 1.09119765e-05
000020 3b c1 81 27 04 00 00 80 ed f4 7e 37 b6 d3 0f 19
       3.6014193e-15 -6e-45 1.5196606e-05 7.4356814e-24
000030 53 c6 0e 37 62 1f 41 37 04 00 00 00 5f dc 42 35
       8.5100355e-06 1.1511003e-05 6e-45 7.2591314e-07
000040 27 42 e2 25 89 67 09 38 ce bd aa 2f e5 8e 47 2f
       3.9249577e-16 3.275977e-05 3.1057684e-10 1.8149711e-10
000050 7e f0 1e 36 7d ed 4e 37 56 c0 9c 21 a6 b6 15 36
       2.368382e-06 1.2333851e-05 1.0621882e-18 2.2309046e-06
000060 04 00 00 80 09 6c a2 32 70 70 ac 2f 04 00 00 80
       -6e-45 1.890841e-08 3.136651e-10 -6e-45
000070 99 6b d5 36 21 b2 ff 36 79 35 1c 31 56 3c bf 25
       6.3604207e-06 7.620329e-06 2.2731383e-09 3.3174104e-16
000080 22 74 e2 36 cb b0 9b a1 15 87 80 32 54 54 c2 26
       6.7488445e-06 -1.0550005e-18 1.496259e-08 1.3484311e-15
000090 d4 9f 07 37 42 76 44 37 c1 b6 ea 35 d7 d1 72 36
       8.08384e-06 1.1710044e-05 1.7487547e-06 3.6182953e-06
0000a0 9c 46 df 26 00 44 53 26 b6 bd 5f 27 04 00 00 00
       1.5492872e-15 7.329749e-16 3.105031e-15 6e-45
0000b0 04 00 00 80 3c 88 62 35 e7 05 ce 36 70 08 88 33
       -6e-45 8.438981e-07 6.1399655e-06 6.334528e-08
0000c0 22 b2 c6 36 9f 08 04 37 8e f5 81 36 70 c2 91 34
       5.921597e-06 7.86982e-06 3.873086e-06 2.7149827e-07
0000d0 e8 05 8a 27 72 a2 a7 37 7b 8b 43 26 e6 43 3e 37
       3.83091e-15 1.9983596e-05 6.7843247e-16 1.1340691e-05
0000e0 b4 28 96 37 4c fa 94 33 09 ea fc 36 ae 23 0c 34
       1.7900347e-05 6.937316e-08 7.5374305e-06 1.3051496e-07
0000f0 a1 fc e3 a0 0e 9d f4 a2 f0 4f 18 37 9a b6 42 37
       -3.8622472e-19 -6.630262e-18 9.078518e-06 1.1605816e-05
000100 6d 66 06 38 86 79 71 24 41 44 91 36 93 2d 90 25
       3.204348e-05 5.236148e-17 4.3292825e-06 2.50109e-16
000110 34 ef 12 36 04 00 00 80 2a fc cf 36 04 00 00 00
       2.189493e-06 -6e-45 6.1984365e-06 6e-45
000120 cb 17 c0 35 94 93 85 36 04 00 00 80 04 00 00 00
       1.4312039e-06 3.9808892e-06 -6e-45 6e-45
000130 aa 26 84 36 04 00 00 80 43 54 65 36 62 f8 25 32
       3.9384076e-06 -6e-45 3.4172706e-06 9.66074e-09
000140 04 00 00 00 1d 03 c9 25 04 00 00 00 eb 7a e2 36
       6e-45 3.4870052e-16 6e-45 6.7496344e-06
000150 3a a7 f9 35 04 00 00 80 f5 11 29 26 39 c7 40 37
       1.8600615e-06 -6e-45 5.865799e-16 1.1490477e-05
000160 00 a9 08 37 7c 71 e5 36 3e 08 6e 36 e5 65 a4 36
       8.14558e-06 6.837943e-06 3.5469561e-06 4.899443e-06
000170 78 8d a5 36 40 53 00 37 f9 5b 80 26 88 41 0c 26
       4.9338523e-06 7.648778e-06 8.906713e-16 4.866107e-16
000180 04 00 00 80 dc 3d 5f a3 c2 a2 10 37 04 00 00 80
       -6e-45 -1.21019535e-17 8.620964e-06 -6e-45
000190 04 b7 dc 31 04 00 00 00 2e fc a8 35 20 90 12 37
       6.423649e-09 6e-45 1.2590369e-06 8.735835e-06
0001a0 d1 e0 b8 2d a5 9d ca 37 b1 0d 38 29 8f 12 50 26
       2.1018217e-11 2.4153685e-05 4.0868083e-14 7.218965e-16
0001b0 bf e3 0a 37 8b d6 0f 35 ab dc ba 37 04 00 00 00
       8.278467e-06 5.358385e-07 2.2275684e-05 6e-45
0001c0 7f 88 e8 25 7c f4 12 32 55 b6 fc 25 f8 17 6d 35
       4.0338078e-16 8.553908e-09 4.3838585e-16 8.832426e-07
0001d0 5c ba 4d 26 92 7a 6d 25 fe 46 02 37 fd 4e 10 28
       7.1376227e-16 2.0598002e-16 7.765133e-06 8.010734e-15
0001e0 b0 a2 c3 36 65 7e db 36 e0 57 e6 36 d5 59 cb 36
       5.830392e-06 6.541423e-06 6.864764e-06 6.0603293e-06
0001f0 04 00 00 80 76 ae 00 28 cf 89 d7 33 ab 84 1a 28
       -6e-45 7.1432575e-15 1.0036785e-07 8.577485e-15
000200 72 8e 83 3a be 33 cc 3a 8f 57 45 ba 9c e9 cf 3b
       0.0010036959 0.0015579385 -0.0007528001 0.006344987
000210 a4 9c 1e 39 4c 91 4b bb 80 a5 ab b7 24 bd 25 3d
       0.00015126407 -0.0031061945 -2.0461855e-05 0.04046358
000220 18 3f 69 3c 8e 5d cd 3a 8a 92 3a 3c 80 ec ec 3a
       0.014236234 0.001566814 0.011387477 0.0018075854
000230 1a 77 d7 3c 1c 87 0e 3b 43 97 7b 39 7a 05 23 ba
       0.02630191 0.0021748012 0.00023993575 -0.00062187726
000240 d0 e9 c5 b7 80 56 1e 3b 62 fc 40 39 72 4b 01 3d
       -2.3593107e-05 0.0024160445 0.00018404567 0.03156609
000250 15 3b 83 3c 93 1a ad 39 a0 fd f4 b9 8f 70 81 3c
       0.016019383 0.0003301693 -0.00046728272 0.015800742
000260 5f 20 f3 ba 80 b9 06 3a 80 1c 1c ba a3 d8 21 ba
       -0.0018549076 0.0005139336 -0.00059551746 -0.0006173944
000270 aa 72 ce ba 00 15 9e 3c ab a7 ca 38 91 90 1f b8
       -0.0015750725 0.019297123 9.663341e-05 -3.8043192e-05
000280 9e e3 b2 3b 62 fa 0e ba 91 64 92 3c 54 40 23 3a
       0.005459263 -0.000545418 0.01787022 0.0006227542
000290 52 73 6d 3c 35 f4 e0 3b e1 d2 f1 3c 66 01 ef 3b
       0.014492827 0.0068650492 0.0295195 0.007293868
0002a0 f6 94 34 39 62 35 38 ba 58 7a c7 bc 90 80 b6 3b
       0.0001722163 -0.00070269976 -0.02435033 0.005569525
0002b0 0e ad f7 3b d0 45 be 3a bc 5a 78 3c a8 b8 4a b9
       0.0075584715 0.0014516655 0.0151583515 -0.00019333011
0002c0 18 f9 6e 3a 57 8c 42 3a 90 dd b0 3a e6 f1 0d 3b
       0.00091160974 0.0007421425 0.0013493765 0.0021659075
0002d0 d4 9e 57 3b f8 b0 7b 3c 28 58 18 3c 06 00 14 3b
       0.0032901065 0.015362017 0.009298362 0.0022583022
0002e0 9f 48 ad 3b 7f dc a4 3c 4e f6 08 3c a0 ef dd 37
       0.005288198 0.020124672 0.008359505 2.6456837e-05
0002f0 c8 c3 74 3a 58 c7 11 ba 8c 58 f3 ba 54 01 5d 3c
       0.0009337035 -0.00055610156 -0.0018565818 0.013489086
000300 0c 6c 12 3c c0 d4 97 37 fc 9c b1 3b 29 3b 0b 3b
       0.008936893 1.8099672e-05 0.0054203253 0.002124498
000310 8e 67 00 3d 12 48 43 3a 39 cc 4e 3c ba c1 5d 3a
       0.031348757 0.0007449399 0.012621933 0.00084593485
000320 d8 7a 97 ba f9 a1 68 3c 87 9f ba ba 35 f7 67 b9
       -0.0011556996 0.014198774 -0.0014238217 -0.00022121969
000330 46 df 82 bc 28 cc e6 b9 59 d5 8d 3c 6d e2 72 3b
       -0.015975606 -0.00044021127 0.017313646 0.003706123
000340 8f 60 a2 b8 72 c6 95 b8 c0 3d 2c b8 b4 2f 1e bb
       -7.7427474e-05 -7.141837e-05 -4.1065505e-05 -0.002413732
000350 94 08 13 3d 69 5a 5f b6 98 eb bd ba 04 72 f7 3c
       0.035896853 -3.3282215e-06 -0.0014489768 0.030205734
000360 cf 9e 30 3d ea fd 0a 3b 82 e6 b4 b9 8a 14 08 3c
       0.0431202 0.0021208473 -0.00034504017 0.008305678
000370 21 49 27 ba 7a 98 d1 3b 8a e3 ee 3a 70 0b e7 3a
       -0.00063814415 0.0063963505 0.0018225771 0.001762731
000380 00 fd 97 b7 f8 d5 1c 3c 47 9c 1d 3b 87 c8 67 ba
       -1.8118415e-05 0.0095724985 0.0024049447 -0.00088418316
000390 e4 9c 90 3c 75 ce d8 b8 5f a9 33 3a 9c 99 2d 3b
       0.017652936 -0.00010338138 0.00068535464 0.0026489263
0003a0 da 35 59 3c 4f 52 d6 3c c1 96 e9 3c 36 14 96 39
       0.013257468 0.026162295 0.028514268 0.00028625288
0003b0 53 5b 63 3b 1f 9a a0 bb cf 9b 0b 3d ea 0f 1e b5
       0.0034691885 -0.004901185 0.034084138 -5.8882745e-07
0003c0 96 d2 45 3c f5 72 3b 3b 36 42 86 3a d8 f9 3e 38
       0.012074133 0.0028602455 0.0010243121 4.5532215e-05
0003d0 d6 72 05 bb 70 99 b0 3a b7 02 9c 3b d0 6f cf 39
       -0.0020362637 0.0013473462 0.004761066 0.00039565424
0003e0 d7 11 3a 3d c5 8a 2e 3a 02 bd 93 bb 84 c8 22 3c
       0.04542717 0.00066582515 -0.0045086155 0.009935502
0003f0 41 b5 27 b9 bc 2a c2 3a 34 0d 7e 3c 8a d2 61 3c
       -0.00015993883 0.0014813761 0.015506078 0.013783107

momentum_buffer f4 [64]
000000 d8 7e 8d 37 85 e2 aa 3c fb f0 81 3c 20 21 05 33
       1.6867576e-05 0.020859966 0.015861979 3.0996603e-08
000010 f8 02 af 36 1e 87 18 bd 0b dd 15 bd d7 5e 44 35
       5.215752e-06 -0.037238233 -0.036587756 7.31537e-07
000020 b9 e4 cc 39 04 00 00 00 f2 f9 af 39 d1 39 97 39
       0.00039080324 6e-45 0.00033564825 0.0002884404
000030 88 48 7b 30 29 e8 4b 39 69 6f d4 32 ea 0b cb bb
       9.141634e-10 0.00019446075 2.4730712e-08 -0.0061964886
000040 61 37 66 2f 3b 3f 8d 33 0d 6f 40 2b 6a 04 91 38
       2.0938053e-10 6.577326e-08 6.8366217e-13 6.914961e-05
000050 38 eb ef ae e9 31 f6 38 72 e3 8e bc 9f 2d 89 37
       -1.0910245e-10 0.000117394906 -0.017442439 1.6352917e-05
000060 09 70 5c 39 dc 51 05 39 ad c1 c2 38 a1 fe 5b 39
       0.00021022571 0.00012714363 9.286716e-05 0.00020980324
000070 42 72 04 39 8a b9 0e 36 71 69 ee 33 8e 56 15 3e
       0.00012631065 2.1267647e-06 1.1101918e-07 0.14583799
000080 da b8 1b 37 8e d8 b4 36 f0 6a a6 38 be 8e 42 35
       9.281759e-06 5.3896283e-06 7.9354155e-05 7.247835e-07
000090 5e 34 f5 2e 6a a2 da bc ae 78 5f 33 5d 7b 5b bc
       1.11506124e-10 -0.026688773 5.203099e-08 -0.013396111
0000a0 df 2d 37 3c c6 01 02 2f a7 43 8b 34 b2 ab 64 ba
       0.01118037 1.1824061e-10 2.593999e-07 -0.00087230944
0000b0 14 21 3e b9 ea ac d5 38 30 13 cc 23 79 95 d7 bc
       -0.00018132135 0.00010188839 2.212585e-17 -0.026316391
0000c0 ef 58 7a 2c a6 2c 8c 37 06 d9 0d 39 3d a5 44 3d
       3.5576505e-12 1.6710092e-05 0.00013527655 0.048009146
0000d0 6a bb bc 38 48 a4 5d 37 fd 57 c8 bc c5 4e c8 39
       8.999447e-05 1.3210876e-05 -0.024456019 0.0003820566
0000e0 11 ba 7d 39 0d ca 6c 38 59 97 32 b9 18 5f cf 2f
       0.00024197275 5.645496e-05 -0.00017031784 3.772065e-10
0000f0 86 29 ae 37 9a 8b be 38 be dd 0b 33 47 aa d5 36
       2.0761752e-05 9.085909e-05 3.2565133e-08 6.3677176e-06

momentum_buffer f4 [5, 64]
000000 ff 4e 18 36 6c be 97 3d 62 a2 15 3d 4a c9 69 30
       2.2695747e-06 0.07409367 0.036531813 8.5050955e-10
000010 16 5c e9 b5 44 02 95 3c f0 0f 33 bb 20 5e b1 b3
       -1.7386653e-06 0.018189557 -0.0027322732 -8.259326e-08
000020 19 f3 6d b7 04 00 00 80 6d a0 bc bc f0 3c 03 b8
       -1.4182901e-05 -6e-45 -0.023025716 -3.1289586e-05
000030 55 df 3c 2f f9 1d 94 b7 af 1b 85 b1 ec b0 c5 3c
       1.7177844e-10 -1.7656932e-05 -3.8739567e-09 0.024132214
000040 32 8d cb ac 94 61 09 b2 17 20 e5 29 e8 35 22 38
       -5.785283e-12 -7.996636e-09 1.01752096e-13 3.8674014e-05
000050 22 3f 73 2d 44 09 ac b7 40 57 bd 39 7c 01 96 36
       1.3826969e-11 -2.0508312e-05 0.00036113895 4.470521e-06
000060 2a 23 cc 38 ce 4b 05 b7 14 04 26 3c 91 f1 eb 37
       9.734028e-05 -7.945067e-06 0.010132808 2.8126671e-05
000070 bc 45 59 38 09 b7 c4 b4 93 13 eb 34 28 e4 d5 3d
       5.1801777e-05 -3.664102e-07 4.3786403e-07 0.10443908
000080 31 d8 8f 35 6b 2b 6a 34 27 8d 9c b6 9c c0 c4 b2
       1.071725e-06 2.1808744e-07 -4.6655946e-06 -2.2904992e-08
000090 3e df 3f 2b 20 74 5e bc bd 7f 4a b2 c9 25 e8 3c
       6.816664e-13 -0.013577491 -1.1786992e-08 0.02833833
0000a0 d4 1c 5f 3d c8 16 fd ad e7 39 06 32 2c 36 17 bc
       0.054470852 -2.8772887e-11 7.812992e-09 -0.009229224
0000b0 b6 fc 1b bc 38 f5 e3 37 d0 c7 c2 a2 30 ed 37 bb
       -0.0095207 2.7174698e-05 -5.2795365e-18 -0.0028064959
0000c0 d5 ef ab ab 39 df 9f b6 79 03 36 b8 5d ce 79 bd
       -1.2216848e-12 -4.764556e-06 -4.3395416e-05 -0.06098782
0000d0 a7 06 20 37 74 44 7c 34 65 6f c8 3c 09 f0 52 b8
       9.538292e-06 2.3494232e-07 0.02446718 -5.029145e-05
0000e0 e1 17 5c bc 86 fc c9 b6 d9 a4 d3 36 04 27 b7 2e
       -0.013433428 -6.0196644e-06 6.307481e-06 8.328807e-11
0000f0 dd e9 8b 36 7a fa b2 36 f1 c1 6a b1 bf 5b 00 36
       4.169748e-06 5.3339727e-06 -3.4161725e-09 1.912689e-06
000100 09 61 18 36 86 16 01 bd fd 30 40 bc ca ba 69 30
       2.2706247e-06 -0.03151562 -0.01173043 8.503035e-10
000110 16 5c e9 b5 ec 8c 42 3d a6 61 7f 3c 20 5e b1 b3
       -1.7386653e-06 0.047497675 0.015587246 -8.259326e-08
000120 19 f3 6d b7 04 00 00 80 74 6b 98 3b bc aa 03 38
       -1.4182901e-05 -6e-45 0.0046514813 3.1391843e-05
000130 20 83 3e 2f f9 1d 94 b7 af 1b 85 b1 a4 3c c3 3c
       1.7326984e-10 -1.7656932e-05 -3.8739567e-09 0.023832627
000140 32 8d cb 2c 8d 61 09 b2 5c 92 0e aa e8 35 22 38
       5.785283e-12 -7.99663e-09 -1.2662912e-13 3.8674014e-05
000150 77 4f 80 2d 44 09 ac b7 d5 55 7e 3c 7c 01 96 b6
       1.4587205e-11 -2.0508312e-05 0.015523394 -4.470521e-06
000160 45 28 cc b8 24 4c 05 37 0a b7 5c bc 77 9b 30 38
       -9.734979e-05 7.945146e-06 -0.013471374 4.2106458e-05
000170 56 3f 64 38 64 b7 c4 b4 93 13 eb 34 56 82 fd bd
       5.4418422e-05 -3.664128e-07 4.3786403e-07 -0.12378375
000180 38 d8 8f 35 6b 2b 6a 34 27 8d 9c b6 7f b2 c8 32
       1.0717258e-06 2.1808744e-07 -4.6655946e-06 2.3364235e-08
000190 3e df 3f 2b 18 bb 92 3c bd 7f 4a b2 0c ba 9c bc
       6.816664e-13 0.017911479 -1.1786992e-08 -0.019131683
0001a0 47 c7 a9 3b c8 16 fd ad e7 39 06 32 aa cf 28 ba
       0.0051812264 -2.8772887e-11 7.812992e-09 -0.0006439636
0001b0 e8 ef bd bb 0f fa e3 b7 d0 c7 c2 22 60 0c 37 3c
       -0.0057964213 -2.7176951e-05 5.2795365e-18 0.011172384
0001c0 d5 ef ab ab 58 8f a2 36 14 28 1f 35 0c 77 4e 3d
       -1.2216848e-12 4.8446636e-06 5.9290437e-07 0.0504065
0001d0 a7 06 20 b7 a3 44 7c b4 6d 9d 46 3c 0a f0 52 38
       -9.538292e-06 -2.3494299e-07 0.012122494 5.0291455e-05
0001e0 18 7c 97 3b 86 fc c9 36 3d 61 c5 b6 04 27 b7 2e
       0.0046229474 6.0196644e-06 -5.8823775e-06 8.328807e-11
0001f0 e4 60 90 36 82 d4 b2 b6 f1 c1 6a b1 9e 17 02 b6
       4.302814e-06 -5.3295526e-06 -3.4161725e-09 -1.9385257e-06
000200 85 53 18 b6 2b 26 a2 3d ce a1 59 3d e6 9d 65 b0
       -2.269838e-06 0.07917436 0.053132825 -8.35341e-10
000210 16 5c e9 35 b6 42 d7 3d 66 81 8b 3d 20 5e b1 33
       1.7386653e-06 0.10510771 0.0681179 8.259326e-08
000220 19 f3 6d b7 04 00 00 80 54 01 17 bc f0 3c 03 b8
       -1.4182901e-05 -6e-45 -0.009216625 -3.1289586e-05
000230 20 83 3e af f9 1d 94 37 af 1b 85 b1 1c 9b 5b 3d
       -1.7326984e-10 1.7656932e-05 -3.8739567e-09 0.05361472
000240 32 8d cb 2c 4b 61 09 32 3e 20 e5 29 e8 35 22 b8
       5.785283e-12 7.996571e-09 1.0175236e-13 -3.8674014e-05
000250 22 3f 73 2d 44 09 ac b7 a3 bb 3a 3d 7c 01 96 b6
       1.3826969e-11 -2.0508312e-05 0.0455891 -4.470521e-06
000260 45 28 cc b8 24 4c 05 37 5c 39 10 3d e5 3f 13 b7
       -9.734979e-05 7.945146e-06 0.035210952 -8.776759e-06
000270 b1 0e 63 38 64 b7 c4 34 50 10 ea b4 f4 ff a1 3c
       5.41347e-05 3.664128e-07 -4.3597765e-07 0.019775368
000280 38 d8 8f 35 e7 b7 0d b5 27 8d 9c b6 7f b2 c8 32
       1.0717258e-06 -5.2794206e-07 -4.6655946e-06 2.3364235e-08
000290 3e df 3f ab 3d 24 35 3d f7 02 4a b2 d5 08 6d 3d
       -6.816664e-13 0.044224013 -1.1758622e-08 0.05786975
0002a0 84 ae cc 3d c8 16 fd 2d e7 39 06 32 bb ef b5 ba
       0.09994224 2.8772887e-11 7.812992e-09 -0.0013880649
0002b0 30 b1 b4 3b ba f9 e3 b7 d0 c7 c2 a2 76 84 4d 3d
       0.0055142865 -2.7176797e-05 -5.2795365e-18 0.050175153
0002c0 d5 ef ab ab 58 8f a2 36 79 03 36 38 57 1c 6a 3d
       -1.2216848e-12 4.8446636e-06 4.3395416e-05 0.057155933
0002d0 a7 06 20 37 a3 44 7c 34 6f e4 a7 3d 0a f0 52 38
       9.538292e-06 2.3494299e-07 0.08197867 5.0291455e-05
0002e0 5c 98 e6 3a 16 db c8 36 72 c0 50 b6 04 27 b7 2e
       0.0017593014 5.9859694e-06 -3.1106433e-06 8.328807e-11
0002f0 1e 5e 90 36 e0 ae cc 36 f1 c1 6a b1 98 5f 00 36
       4.302491e-06 6.100032e-06 -3.4161725e-09 1.912913e-06
000300 02 4f 18 b6 1f 49 aa 3b 00 5d 5b 3a 5d 71 6c 30
       -2.2695754e-06 0.005196705 0.0008368045 8.60174e-10
000310 16 5c e9 b5 17 a5 93 bd e0 cc 23 bd 20 5e b1 b3
       -1.7386653e-06 -0.07209223 -0.039990306 -8.259326e-08
000320 19 f3 6d 37 04 00 00 80 50 e7 89 bb fa 05 03 b8
       1.4182901e-05 -6e-45 -0.004208483 -3.12384e-05
000330 47 8f 3d 2f f9 1d 94 37 af 1b 85 31 6e 92 2f bd
       1.7240352e-10 1.7656932e-05 3.8739567e-09 -0.042864256
000340 32 8d cb 2c 4b 61 09 32 5c 92 0e 2a e8 35 22 38
       5.785283e-12 7.996571e-09 1.2662912e-13 3.8674014e-05
000350 80 62 08 ad 8e ac fe 36 f6 93 ba bc 7c 01 96 36
       -7.752576e-12 7.589878e-06 -0.022775631 4.470521e-06
000360 45 28 cc b8 24 4c 05 37 3e a3 40 3b c0 8b ad b7
       -9.734979e-05 7.945146e-06 0.0029394175 -2.0688283e-05
000370 c2 fd 59 38 64 b7 c4 b4 93 13 eb b4 aa 40 f1 3d
       5.1973162e-05 -3.664128e-07 -4.3786403e-07 0.11779912
000380 38 d8 8f 35 ea 8f 0d 35 27 8d 9c 36 7f b2 c8 b2
       1.0717258e-06 5.2736016e-07 4.6655946e-06 -2.3364235e-08
000390 3e df 3f 2b a5 7d 50 bd c1 02 4a b2 87 e7 f0 3b
       6.816664e-13 -0.050901074 -1.1758574e-08 0.007351819
0003a0 e8 42 2d bd c8 16 fd ad e7 39 06 32 e8 d2 4e bb
       -0.042300135 -2.8772887e-11 7.812992e-09 -0.0031558815
0003b0 11 b4 04 bc 0f fa e3 37 d0 c7 c2 22 b4 98 33 bd
       -0.008099572 2.7176951e-05 5.2795365e-18 -0.0438468
0003c0 d5 ef ab 2b 14 5b a2 b6 79 03 36 b8 8c 1e b5 bd
       1.2216848e-12 -4.838579e-06 -4.3395416e-05 -0.08843717
0003d0 a7 06 20 b7 9e 22 38 34 b2 13 10 bd 0a f0 52 b8
       -9.538292e-06 1.7148929e-07 -0.035175033 -5.0291455e-05
0003e0 d5 3c 42 bc 16 db c8 b6 72 c0 50 b6 04 27 b7 2e
       -0.011855324 -5.9859694e-06 -3.1106433e-06 8.328807e-11
0003f0 e4 60 90 36 23 00 b3 b6 f1 c1 6a b1 26 e5 00 b6
       4.302814e-06 -5.3346316e-06 -3.4161725e-09 -1.9206868e-06

momentum_buffer f4 [5]
000000 63 79 45 3e c1 dc a0 bc b7 ee 9e 3e 80 8f 66 bd
       0.19284587 -0.019636514 0.310415 -0.056289196
000010 07 08 b0 3e
       0.34381124

conv1.weight f4 [10, 5, 4]
000000 40 7f 8a be b1 f3 95 be 3f 6e 32 3f 43 7b 69 be
       -0.2705021 -0.29287484 0.6969947 -0.22800927
000010 ad 86 87 bd d0 ee c2 3c 90 10 fb 3c 8f 89 a4 bc
       -0.06617484 0.023795515 0.030647546 -0.020085124
000020 ec ba b8 3d 2a ee fa 3d 16 7b 18 bd 78 35 cf 3d
       0.090200275 0.122524574 -0.03722676 0.1011762
000030 b2 e2 3b 3e d5 ce 31 3e 15 e8 e1 bd 9b ee 95 bd
       0.18348196 0.17364056 -0.11030594 -0.07320901
000040 0b 89 d7 bd 4e b6 f2 3d 8a 2d d8 3d 83 b3 75 3e
       -0.10524186 0.11851178 0.10555561 0.2399426
000050 fe 9c 53 be 22 1e 7f 3e fa e3 05 be 38 8b 78 be
       -0.20665357 0.24913839 -0.13075247 -0.24271858
000060 1c 37 0f 3e 84 da a9 3d 28 a3 10 be 48 05 09 be
       0.13985866 0.08293632 -0.14124739 -0.13380921
000070 3f fd 26 be 7c 63 0f be 5b 6a a5 bc 52 60 30 be
       -0.16307543 -0.14002794 -0.020192316 -0.17224243
000080 39 bf 3f 3e fb 5d a6 bd a3 77 d7 3d a1 66 59 3d
       0.1872529 -0.08123394 0.10520866 0.05307639
000090 54 60 83 3d 3f 12 ea 3c ea d9 2f 3e b0 e7 6f 3d
       0.064148575 0.028573154 0.17172971 0.058570564
0000a0 df 71 f5 3c 07 06 41 3f 9b fc df bd 19 bc 45 be
       0.029961525 0.7539982 -0.109368525 -0.19310035
0000b0 9d ca e2 3d 48 f0 13 3d fd 27 d1 bd b0 8c 7c be
       0.11073802 0.036117822 -0.10212705 -0.24663043
0000c0 a1 f8 ba 3c 51 e0 6e bd c1 62 a7 bd 5d 8c 1a be
       0.022823634 -0.058319394 -0.08173133 -0.15092607
0000d0 e1 bb aa bd f8 e7 59 3d 85 1d 77 3e e0 1c 76 bb
       -0.08336616 0.05319974 0.24132355 -0.0037553832
0000e0 e6 79 16 3e f0 2e 1f 3e b3 b6 0b be 62 8b 11 3e
       0.14694938 0.15545249 -0.13643913 0.14213327
0000f0 ff 5a 77 bd df 90 f3 bd 29 e2 10 be 8a 0d 37 be
       -0.060389515 -0.11892866 -0.14148773 -0.17876258
000100 c8 3b fe bc d6 26 48 be 14 76 4d be 3c 9e 0f be
       -0.031034365 -0.19546065 -0.20064574 -0.14025205
000110 ec af 9c 3d ab 04 3a 3d a1 e7 ff bd d8 75 55 3e
       0.07650742 0.045414608 -0.124953516 0.20845735
000120 d5 6d 0a bd 03 2a 31 be ef e8 35 bd b8 b7 f0 3c
       -0.03379615 -0.17301182 -0.044411596 0.029384479
000130 1b ad f7 3d 75 85 3d be d3 6d 5e 3d b2 0a 2c 3e
       0.12093564 -0.18507941 0.054303955 0.16800955
000140 a8 17 26 3d 34 cc 6f 3f 1c 84 d5 be 2d 41 4f bf
       0.040549904 0.93670964 -0.41702354 -0.80958825
000150 3d 5c 29 be 30 ad 22 3e 99 d4 24 be 08 eb 37 be
       -0.16539092 0.15886378 -0.16096725 -0.17960751
000160 95 e4 c4 3d 37 f4 d2 3a 5e c4 c5 bd a4 9c 69 3c
       0.09613911 0.001609451 -0.09656595 0.014258537
000170 89 c1 b4 3c 9f cd f2 bd 9d 1a 04 be b3 66 36 be
       0.022064941 -0.11855625 -0.12900777 -0.17812614
000180 f0 30 1f 3e ff 2c dc 3d dd a9 fa bc 5c 82 0f bd
       0.15546012 0.1075077 -0.030598575 -0.03503643
000190 98 2a a2 bd dd 26 65 3e df 5e 3c 3d 0b 7c 74 be
       -0.0791828 0.22378106 0.045988914 -0.23875444
0001a0 db 49 5d 3d 24 b5 2b be c6 e7 0a be aa 77 a4 3d
       0.054025512 -0.16768318 -0.13564977 0.080306366
0001b0 81 ff 28 be 86 7e 04 3e f5 87 0c 3e 7e 01 b9 3d
       -0.16503717 0.1293889 0.13723738 0.09033488
0001c0 e3 7c 30 3e cc 9d 6d 3c 04 13 5c be 9a de 33 3d
       0.1723514 0.014502954 -0.21491629 0.04391346
0001d0 6e c0 34 3e a2 3b 68 be 53 f9 36 3e 10 51 26 be
       0.17651531 -0.22678998 0.17868547 -0.1624186
0001e0 94 f2 43 be c8 8d 27 3d 2b 46 27 3d 04 92 d2 bd
       -0.19135505 0.040906698 0.0408384 -0.102817565
0001f0 93 b1 2f 3d 1c 82 4d be ed e4 51 be f0 0e 66 3e
       0.042893957 -0.20069164 -0.20497485 0.22466636
000200 10 c4 01 3e 16 ae a2 bc eb 94 15 3e 9f f9 4d be
       0.12672448 -0.019858401 0.14607589 -0.20114754
000210 90 2d 08 3e 5a 27 d7 3d 24 8d 39 3d 12 f2 9b 3d
       0.1329863 0.105055526 0.045300618 0.076145306
000220 26 90 02 3e 5f 9b 26 3e 1c 1f 10 3e 41 a3 45 3d
       0.12750301 0.16270207 0.14074367 0.048251394
000230 24 75 93 3f 86 51 10 be 6a 1c 25 bf 3d 0f f7 be
       1.1520123 -0.14093599 -0.6449648 -0.48253813
000240 d0 24 11 3e 42 45 cf 3c 62 b6 82 be b9 33 0e be
       0.14174199 0.02530158 -0.25529772 -0.13886918
000250 14 66 cd 3d 34 f9 e9 bd ba 5a 54 bb 74 2a 1b bc
       0.100292355 -0.11424485 -0.003240271 -0.009470571
000260 79 d0 3e bd 82 26 11 3e 8f f5 bc 3d 17 5d ad 3d
       -0.046585534 0.14174846 0.09226524 0.08465021
000270 c7 e6 11 bd 85 8c 4f be 3d 02 e0 3d 86 1e f3 bc
       -0.035620477 -0.20268448 0.10937927 -0.02967764
000280 53 07 7d bd dc 92 9e be 1d e4 a0 be e4 d1 18 3f
       -0.061774563 -0.3097142 -0.31424037 0.5969527
000290 4d 50 8e 3d ad a9 42 bd 14 26 2c be 94 ff 40 3d
       0.0694891 -0.047525097 -0.168114 0.04711874
0002a0 01 1a 27 be 92 ab a1 bd 1d 79 98 3c 83 6f d3 3c
       -0.16318513 -0.078940526 0.018612439 0.025810009
0002b0 15 e5 ef bd 77 82 05 3c 28 1d 9a 3d 8d 94 a4 3b
       -0.11713616 0.008148781 0.07525092 0.0050225914
0002c0 51 5d 8e bd 2b 87 71 bd 93 86 b0 bd 95 ea eb bd
       -0.069513924 -0.058966797 -0.08619418 -0.11519352
0002d0 f6 9d cd 3e 74 3d 09 3e 34 0a 94 3e 02 aa 0c 3f
       0.40159577 0.13402349 0.28914034 0.5494691
0002e0 93 3b 98 bc 76 d4 98 bc e7 d3 00 be bc f9 06 be
       -0.018583095 -0.018655997 -0.12580834 -0.13181204
0002f0 93 ef 15 3d 71 f4 1e be 8f 92 0f bd 98 94 41 bd
       0.03660543 -0.15522934 -0.03505188 -0.04726085
000300 89 64 9a 3c 6c c9 09 3e 94 d3 09 be 60 b4 4a be
       0.018846767 0.13455743 -0.13459617 -0.1979537
000310 1e 66 00 bd 66 be c5 3a 22 e2 74 3d b3 6a c2 3d
       -0.031347387 0.001508665 0.05978597 0.094930075

conv1.bias f4 [10]
000000 0e c2 bb 3c 01 61 0a bd 28 14 db 3d b6 ca 3a 3e
       0.02291968 -0.033783916 0.10697204 0.1824139
000010 07 de 17 3e b2 a9 1b 3d 0b a2 8d bd e6 44 c1 bd
       0.1483079 0.03800363 -0.06915673 -0.094369695
000020 e3 fc 99 3e 96 5d 54 3e
       0.3007575 0.20738825

fc1.weight f4 [128, 140]
000000 19 2a 37 3d 95 be 06 3d 84 62 15 bd 20 30 8c bd
       0.04471788 0.032896597 -0.036470905 -0.068451166
000010 c4 c6 15 3d 91 bb 49 3d fc 70 97 bd 33 59 62 3d
       0.03656651 0.049251143 -0.07394597 0.05526085
000020 b3 b9 91 bd a7 8b 67 bd d8 63 a8 bd 16 db 80 3d
       -0.071154974 -0.056529667 -0.08222169 0.06291787
000030 8b 9a 98 bd 3f e5 95 3d 3b 33 9d 3d c0 f8 43 3d
       -0.07451352 0.07319116 0.07675787 0.04784465
000040 5e cc 08 3d 34 08 3e bd 45 d5 1f 39 83 b1 65 3d
       0.033398025 -0.04639454 0.0001524287 0.05607749
000050 ef 77 c3 3b 36 bc 26 3d 30 a0 8f 3d 15 d5 59 bd
       0.005965225 0.040706836 0.07012975 -0.053181726
000060 9b c4 c3 bc 88 1d bf bc f4 ed e7 bc 19 f4 3e 3d
       -0.02389746 -0.023329511 -0.028311707 0.04661951
000070 3e ff a0 3b d4 52 f8 bc 99 29 70 bd c6 18 a1 bd
       0.0049132397 -0.030312933 -0.05863342 -0.07866053
000080 a1 bb 68 3d ae 1e 3d 3d a9 7f 8f 3c 80 7d 13 bb
       0.056819562 0.046171837 0.017516928 -0.0022505224
000090 a8 4a d9 bc da 3c b9 3c be 4c 0a bd 0c ea 5e bd
       -0.026524857 0.022612024 -0.033764593 -0.054422423
0000a0 7c 57 4b 3d 83 1c 85 bd ef ca 19 bb 5d 13 b1 3c
       0.04964398 -0.06499579 -0.0023466905 0.021615678
0000b0 3b 90 59 3d a4 cf f5 bc 16 f4 87 3d f3 d1 56 bd
       0.053116065 -0.030006237 0.066383526 -0.052446317
0000c0 39 11 08 bd 9c e3 a3 bd d5 65 a7 bd 59 27 91 bd
       -0.03321955 -0.080023974 -0.0817372 -0.07087583
0000d0 0b 4e 45 ba 80 94 a1 bc 40 5d 2b bd 9f 81 8b 3d
       -0.0007526583 -0.01972413 -0.041836977 0.06811833
0000e0 5d b9 9a bd 2e b5 ac bd a6 d2 be 3c c3 3b 9e bd
       -0.075548865 -0.08432995 0.023293804 -0.077262424
0000f0 d9 d5 39 bd 35 30 ba bc 75 f2 8b bd 62 a3 78 bc
       -0.045369957 -0.022728065 -0.068333544 -0.015175672
000100 0d 0c fc 38 80 25 48 3d a4 55 ce bb ca 93 7c 3d
       0.00012018541 0.048863888 -0.0062968303 0.06166438
000110 09 18 28 3c e6 21 a1 bd 68 a1 a5 bc b8 5d bb bc
       0.010259637 -0.07867794 -0.020218566 -0.022871837
000120 7b 80 3c bd 8b 2f 9f 3d 1e ad 6e 3c e3 97 2b 3d
       -0.046020966 0.0777274 0.014567642 0.041892897
000130 ad f0 19 bd 39 a0 62 bd b4 08 32 bd 84 2a a9 3d
       -0.037583042 -0.05532858 -0.04346533 0.08260062
000140 c0 ac 98 3d 92 18 bd bc f7 4f 31 3d 53 c6 0b 3c
       0.074548244 -0.023083005 0.04328915 0.008531171
000150 c0 f2 a8 bc 07 44 53 3d f2 89 1a bd 46 33 4f 3d
       -0.020623565 0.051578548 -0.03772921 0.050586008
000160 53 93 52 3d e5 61 29 3d c9 e3 6d bd bd b7 00 bd
       0.05141003 0.041353125 -0.05807856 -0.031425226
000170 4e 34 1d bd 3b a6 4f 3d f2 d9 26 bc 1c 7c 3b 3d
       -0.03837996 0.05069564 -0.010183798 0.045772657
000180 1e e3 56 bc 9f e3 06 3d b6 a3 35 3d 28 87 ec 3a
       -0.013115672 0.03293192 0.04434558 0.0018045651
000190 30 e8 d0 ba c3 51 20 bd d2 11 78 bb 9f d4 5c 3d
       -0.0015938338 -0.039140474 -0.0037852419 0.05391371
0001a0 2f 72 4a bd 5e 71 ec 3c 05 17 3f bd dc 8f 5e 3d
       -0.0494253 0.028862651 -0.046652813 0.054336414
0001b0 d3 2e 15 3d 34 65 4b bc 45 ee 87 3d 11 ca 1c 3d
       0.03642161 -0.012414265 0.06637243 0.038278643
0001c0 a9 6a af bc ee d0 89 bd 50 90 3c bc 88 93 5a bd
       -0.021413164 -0.06729303 -0.011509016 -0.053363353
0001d0 5b ff b5 bd f3 1c 23 bd e7 cb 60 3d 31 10 ad bd
       -0.08886596 -0.03982253 0.054881956 -0.08450354
0001e0 86 61 e4 3c 48 68 b9 bd 1b bd a5 bd 44 62 7f 3d
       0.027878534 -0.09053093 -0.0809271 0.062349573
0001f0 26 0a 20 3d f0 e0 10 3d 7e 66 12 3c 81 85 80 bd
       0.03907218 0.035370767 0.008935569 -0.06275464
000200 00 d8 87 3c b8 6c f8 3c 2e 5a 65 bc c9 98 26 3b
       0.016582489 0.030325279 -0.013998551 0.0025420657
000210 8f 5e 2e bd cd 7b 4d bd bd ce 89 3d e4 83 38 3d
       -0.042570647 -0.050166894 0.06728885 0.045047656
000220 8e 81 86 3d 6b 13 9b 3c 40 f9 a9 39 d9 3f 53 bc
       0.06567679 0.018930158 0.00032419898 -0.01289364
000230 c5 8f 9c 3c a2 45 85 bc dd cd 5a 3d 6b 30 ed 3c
       0.019111523 -0.016268555 0.053418983 0.028953752
000240 fd 37 36 bc 48 d8 09 3d 28 0d 3b bd 7a db 6a 3d
       -0.011121747 0.033653527 -0.045666844 0.057338215
000250 c5 9c 8f bc d1 b5 88 3d 01 6a 57 3d eb e8 4a 3d
       -0.017530808 0.06675304 0.052591328 0.049538534
000260 60 aa 25 3d 8c fe 0a bd 87 a2 26 3b ef 57 0e bd
       0.040445685 -0.03393416 0.0025426464 -0.03475183
000270 81 8a 99 3d 6d aa f3 3c d0 84 a2 3d c3 1a 5b bd
       0.07497121 0.029744351 0.07935488 -0.05349232
000280 25 74 d3 bc 4e bc 23 3d 13 d3 97 bd 13 4f 73 bc
       -0.025812218 0.039974503 -0.07413306 -0.014850396
000290 f7 68 17 3d 15 f1 2d 3b 2a 58 55 3c 09 6a 0a 3d
       0.036965337 0.0026541401 0.013021508 0.03379253
0002a0 e0 b9 b1 bc d2 93 39 bd 88 34 89 3c ea ed 55 bd
       -0.021695077 -0.045306988 0.016748682 -0.052228846
0002b0 a4 39 6c 3c a1 70 95 bd 37 14 30 3d e3 84 6d 3d
       0.0144180395 -0.07296873 0.04298803 0.05798806
0002c0 c7 c7 97 bb 56 bc 40 bd 21 46 ef bb 41 5e 8c 3d
       -0.0046319696 -0.04705461 -0.007302061 0.06853915
0002d0 5f 0c 95 bd ec 69 e5 3b 16 0c b0 bd 31 16 a9 bc
       -0.0727775 0.0070011523 -0.08596055 -0.020640464
0002e0 f9 a7 dc b9 a4 94 5f bc 0a 5f 77 bc 21 e2 62 ba
       -0.0004208682 -0.0136462785 -0.015098343 -0.00086549117
0002f0 91 7f 21 3d 45 5c 89 3d d7 da 07 bd f2 f6 ea bb
       0.039428297 0.06707052 -0.033167686 -0.0071705515
000300 12 49 db 3a bb 1e 55 3d e6 1d 00 3d 3e b0 92 bd
       0.0016730151 0.05203126 0.031278513 -0.07162522
000310 13 7d ef 3c 51 c0 a4 bd 14 69 94 bd a1 00 5c 3d
       0.029234445 -0.08044494 -0.072466046 0.053711537
000320 cf a7 7c 3c 4a 98 40 bd c1 d0 46 3d 19 54 89 bd
       0.015420868 -0.047020234 0.048538927 -0.067054935
000330 b8 7f 04 3d a8 e0 1f 3d 90 b7 49 3c c4 15 d8 bb
       0.032348365 0.03903261 0.012311831 -0.0065943915
000340 bb e2 23 bc 18 1b 1d bd 7b a5 3b 3d 0a 12 9e bd
       -0.010002787 -0.038355917 0.04581211 -0.077182844
000350 a2 97 95 3d a3 95 55 3d 51 70 9f bd ed b1 4a bd
       0.07304312 0.052144658 -0.077850945 -0.04948609
000360 7e b6 75 bd 72 eb 91 3d 7c 02 dd 3c 63 11 52 38
       -0.05998849 0.07124986 0.026978724 5.0084094e-05
000370 d8 72 3e bc 62 1c 04 3d b9 8a 50 3d 9d 21 84 bc
       -0.011624061 0.03225363 0.050913546 -0.01612931
000380 ba 92 61 3d 7c 7c 27 3d 33 93 1d 3c 97 c4 91 3d
       0.05507157 0.040890202 0.009617615 0.07117575
000390 c2 6f a6 bd f0 67 84 bc d8 06 ab 3d af 91 5a 3b
       -0.08126785 -0.016162843 0.08350915 0.0033350994
0003a0 73 43 2b 3d f7 a2 63 bd 1e 8c c4 3b ec 27 8f bd
       0.04181237 -0.055575337 0.0059981486 -0.06990036
0003b0 4d af 82 3d f6 a4 0a 3d a6 3c 98 3d da 2b 09 3d
       0.06381092 0.033848725 0.07433443 0.033489086
0003c0 12 14 b7 bc f0 11 1f 3d e9 92 4c bd c4 fb ca 3b
       -0.022348437 0.038835466 -0.049944792 0.0061945636
0003d0 cc 59 8c bd bb f0 dc bc bd 63 38 bc 05 7d 2d bd
       -0.06853065 -0.026970258 -0.011254248 -0.042355556
0003e0 f8 90 68 3d c0 bf 31 3d 50 82 90 3c 58 4d 92 bd
       0.056778878 0.043395758 0.017640263 -0.071436584
0003f0 07 90 d2 bc da 50 9d bd 4c c8 47 3d 8f aa 03 bd
       -0.025703443 -0.07681437 0.048775002 -0.03214508
