tb_logs/ConvNet_1_0_1/version_0/checkpoints/epoch=28.ckpt (torch_old, 217531 bytes, 16 tensors)

momentum_buffer f4 [10, 5, 4]
00000000: 24da 30bc 922c 563a 8f16 92bc 0af2 4d3a
00000010: 410b 713a 82a0 2d3a 33ab b1bc e4a4 443a
00000020: b490 6d3a 8eea 233a 0600 aa3a c829 423a
00000030: 8e10 683a b426 da39 7fc6 a93a 4056 373a
00000040: 8e2c aa3a a8dc 6e3a 7053 a93a 1f5a 723a
00000050: 70ae 9e3d a23d 6d3c 3cff 2d3d 18f9 81bc
00000060: 3bd7 6d3d 7583 39bc ee29 a2bc 1437 b6bb
00000070: 8702 7d3c d786 d2bc 6dce 0cbc 5e33 f7bb
00000080: 7e6b a0bb c59b 04bc 02cb f4bb 6a63 f7bb
00000090: 8e9c eebb c29e f7bb b250 f7bb 8658 f7bb
000000a0: 4b79 9d3d f8a9 983a 6c11 a8bb 60b6 503d
000000b0: 9c6d edbc 959a 32bc 0ef6 31bc fbd4 213b
000000c0: 7cc5 febc 959a 32bc 959a 32bc 1892 72bc
000000d0: 1acb 44bc 959a 32bc 959a 32bc 4e27 3ebc
000000e0: 2cf5 32bc 959a 32bc 959a 32bc 959a 32bc
000000f0: b856 3a3d 12f3 0bbf 66b8 973c 908f 06bf
00000100: 11d1 283d cf38 ec3c 1954 293d 0b87 c23c
00000110: 7703 2a3d 7887 113d 3214 2a3d c3a1 793d
00000120: 464c 2a3d 58b7 203d 2247 2a3d 627d 3f3d
00000130: 7f45 2a3d 242b 273d 7f45 2a3d fe6c 273d
00000140: 1261 613e 6096 673b be62 153e 8c47 fbbc
00000150: 2818 85bc ac48 97bc 205c a13a 9619 ccbc
00000160: ba17 5ebc 2b36 93bc 2950 f1bc fcf9 a6bc
00000170: 3070 8ebc 2b36 93bc 28fb 94bc 6ffc 92bc
00000180: 563a 93bc 2b36 93bc 2b36 93bc 014f 93bc
00000190: 365d fbbc a7b6 513e 0560 c83d 6cb9 943d
000001a0: 6398 4dbc 72ba d8bc 5e51 c1bc 4965 2f3d
000001b0: c5de 72bc ecba bdbb 4ee9 c3bc 6a58 a73c
000001c0: 74e1 a5bc fe26 aabc 80eb a7bc 3c0d a9bc
000001d0: 8420 9bbc 4682 94bc a4fc 9abc 66e7 93bc
000001e0: ef6a 903e ee51 0ebc 2235 9b3e f22b bcbc
000001f0: 6212 333c 97a6 83bc 1ee5 013c 6a8d 97bc
00000200: 76e1 a3bc 83f1 b6bc 00f6 a639 f263 c3bc
00000210: 1f10 bdbc cb5b c0bc 1455 b8bc 5458 c0bc
00000220: 348c b7bc 575d c0bc 5022 babc 575d c0bc
00000230: 9674 233f ddb4 59bd 948c 3b3f d4a6 f13d
00000240: a516 d6bc 524a 42bd 80c8 1d3c 5dc7 6cbd
00000250: 7e01 7bbd 2a54 37bd aa57 03bd a45d 9dbd
00000260: 3157 6fbd 1dfe 71bd d7e1 5cbd 11c8 75bd
00000270: 378d 6dbd 4577 70bd ba39 6cbd 516c 70bd
00000280: 4e36 ccbc b471 86bc 0d61 8e3c e5d6 40be
00000290: e9f1 703c 6cb3 57bc 4f28 053c 6a0e bf3c
000002a0: f2dd 623c 290a 0d3c 8b51 163c 34a2 e33c
000002b0: eee7 3b3c 7843 f03b 0e58 163c 2d7c 2c3c
000002c0: 1d4b 163c ceb0 173c 1d4b 163c 2f76 123c
000002d0: ae02 f0be bace ddbd e8c1 f8be eeeb b2bd
000002e0: 446f 70bc 5055 9b3b f3c5 0e3d 5824 233d
000002f0: 029a 2b3d f55f e33c 1cad 323d 80a9 023d
00000300: 601b 433d 600c 473d 7046 3d3d bd9a 423d
00000310: a958 3c3d 423a 423d 41fc 3d3d 1a39 423d
-0.010794196 0.00081700936 -0.017833022 0.0007856196 0.00091950974 0.0006623344 -0.02168808 0.0007501377
0.0009062395 0.0006252908 0.0012969978 0.00074067386 0.00088525645 0.00041609036 0.0012952833 0.0006993748
0.0012983249 0.000911186 0.0012918543 0.00092449965 0.07748115 0.014480026 0.04247974 -0.015865847
0.058066588 -0.011322846 -0.019795384 -0.005560765 0.015442497 -0.025699062 -0.008594138 -0.0075439652
-0.0048956266 -0.008093779 -0.0074704895 -0.007549693 -0.0072818464 -0.007556767 -0.0075474614 -0.0075483946
0.076891504 0.0011647334 -0.00512903 0.050955176 -0.02898293 -0.010901113 -0.010861887 0.0024693597
-0.031100027 -0.010901113 -0.010901113 -0.014805339 -0.012011314 -0.010901113 -0.010901113 -0.011606051
-0.010922711 -0.010901113 -0.010901113 -0.010901113 0.045492858 -0.5466777 0.018520545 -0.5256281
0.041215006 0.028835682 0.041339967 0.023746034 0.04150721 0.035529584 0.041523166 0.060945284
0.041576646 0.03923735 0.041571744 0.046750434 0.041570183 0.040812626 0.041570183 0.040875427
0.22009686 0.0035337433 0.14588448 -0.030673765 -0.01624687 -0.01846727 0.0012310781 -0.024914544
-0.013555462 -0.017970165 -0.029457169 -0.020382874 -0.01738748 -0.017970165 -0.018186167 -0.017942635
-0.017972153 -0.017970165 -0.017970165 -0.017982008 -0.030684095 0.20479833 0.09783939 0.07261929
-0.012548539 -0.026456092 -0.02359837 0.042821202 -0.01482362 -0.005790105 -0.02391496 0.020427901
-0.020249106 -0.020770546 -0.020498037 -0.020636193 -0.018936403 -0.018128525 -0.018919297 -0.018054675
0.28206584 -0.008686526 0.30313975 -0.022970174 0.010929676 -0.016070647 0.007928161 -0.018500049
-0.02000497 -0.022331959 0.00031845272 -0.023851369 -0.023078976 -0.02348127 -0.022501506 -0.023479618
-0.022405721 -0.023482008 -0.02272144 -0.023482008 0.6384977 -0.053151 0.7326138 0.11799398
-0.026133845 -0.04743416 0.009630322 -0.057807315 -0.06128072 -0.044758 -0.032066025 -0.07683876
-0.05843276 -0.059080232 -0.053926315 -0.06000525 -0.057996 -0.058707494 -0.05767224 -0.05869705
-0.024928238 -0.01641164 0.017380262 -0.18831976 0.014706113 -0.013165336 0.008127286 0.023322303
0.013846861 0.008608379 0.009174715 0.027787305 0.011468871 0.0073322617 0.009176267 0.010527653
0.009173182 0.009258462 0.009173182 0.00893931 -0.46877044 -0.108304456 -0.4858544 -0.08736406
-0.014674965 0.0047403947 0.034856748 0.039829582 0.04189492 0.027755717 0.04362212 0.03189993
0.04763353 0.048595786 0.046209753 0.04751085 0.04598299 0.04741884 0.046383146 0.047417738

momentum_buffer f4 [10]
00000000: 342f afbb 8e7a f53c 6641 313d 68fc 28be
00000010: a019 923d b6f4 993d 97e9 be3d 3ba6 6e3e
00000020: a428 15bd dac2 40be
-0.005346203 0.029965665 0.04327526 -0.16502535 0.07133794 0.07517378 0.093218975 0.233056
-0.03641571 -0.1882433

momentum_buffer f4 [128, 140]
00000000: 88b9 5db6 66f7 b234 9fbe 3a34 f3ab 2335
00000010: 3b36 fcb5 29e5 37b4 7f97 41b2 cfee 0d31
00000020: d609 82a7 3689 4333 9b32 c627 b50e f133
00000030: d9d4 b7b1 4c31 85b7 d32e 9bb7 948d eab8
00000040: 71e6 e0b7 da3b 7eb6 ed19 97b7 6a54 56ba
00000050: 5822 65ba 4201 c7b8 9a57 32b8 59c4 8bb8
00000060: 1ad6 83b8 b9ee 47b8 fc0f 03ba 6a63 72b8
00000070: 5b27 0db9 58c8 09b9 d400 4eb9 2643 0b35
00000080: d1ea 22b8 ee8a 0eb8 35e2 b5b9 4709 46b9
00000090: 5ab1 2cb9 a120 33b9 7082 87b9 c3be 9bb8
000000a0: 7cad bbb9 c430 72b7 09f3 41b9 eab2 5eb9
000000b0: 9477 f1b9 3c5f 0bba 7ea6 c9b9 fec4 e7b8
000000c0: 7181 33b7 0db4 1335 fdcd 62b3 9c95 1535
000000d0: f450 89b9 ebef 2db9 1bb2 b1b9 5143 eab9
000000e0: 4be7 2fb8 36cb 24b8 b112 14b9 08c7 a736
000000f0: f087 84b7 f3de 33b7 02fb 3ab9 6c9f 89b8
00000100: d2cc 3ab8 4622 57b8 faed 2ab9 badd e0b7
00000110: f35b 83b9 260e 0ab7 860a c3b9 73c1 7eb9
00000120: d608 47ba 9012 81ba 9404 54ba 2bb7 e9b7
00000130: 2a1e 88b5 d971 5eb2 a00d cdb4 ad86 9235
00000140: e36b f6b9 dc69 85b9 1986 50ba a976 5fba
00000150: e54b 0bb9 6ae5 46b9 16ff 2ab9 efc3 87b9
00000160: 9d44 ffb9 f6bf e2b9 111f f9b9 4baf 5cb7
00000170: ed42 5337 8312 85b4 c853 b5b6 3800 30b8
00000180: 2fff 85b9 9936 c2b7 b5bd 19ba e418 fcb9
00000190: 45a8 4aba 989e c4ba e367 bfba 8048 8fba
000001a0: ce41 a5b7 3e3e f737 f8f7 49b3 e4bb e135
000001b0: 1c7d 7fb9 f177 17ba c760 c0b9 8c65 a3ba
000001c0: 7488 4ab9 e48b 23b9 cca8 1aba 681e ceb9
000001d0: a25c e4b9 19ea e3b7 b0db 81b8 1f09 06b8
000001e0: 9f08 fdb7 f499 f3b7 9d63 f7b9 02de 51b7
000001f0: 3d88 41ba 6309 76b9 7e4e 08ba 059a 17ba
00000200: d85a 65ba d0d0 b6ba adb6 daba 12c2 98ba
00000210: e956 efb9 8c8b 2736 70db 5037 d6b2 6f34
00000220: 7da3 95b9 fccd 83b9 9d2f e5b9 34be 20ba
00000230: 2021 f5b5 3d5c 41b5 d0b0 9735 374a 5232
00000240: 883c 97b5 e2a6 2635 bd47 0535 7d41 f434
00000250: d1a8 ca32 a431 3431 6bb4 a734 02bf 63ae
00000260: 2700 43b2 9f4a 51b5 1da6 2c38 b648 8a38
00000270: 8f66 4b3a 7f44 a038 72da 0d39 d8db cf38
00000280: 5f14 8d38 c054 1538 8f97 75b8 813d 06b9
00000290: 51a0 3338 2ff3 6f38 d90d 4838 64f7 f237
000002a0: 9fdf 4a39 fc8c 30b8 c901 5739 a9e6 ac38
000002b0: e951 e038 5941 0939 9a21 fe38 f951 b838
000002c0: 3222 1239 ad17 9438 3b7c f638 28cf ed38
000002d0: 3da1 fb38 6200 af38 e3cb 0939 6963 b639
000002e0: 3f1a 5438 61d1 b238 f5c7 4038 706d 5737
000002f0: 0988 1fb7 64e3 9eb8 3407 12b8 d33c d1b6
00000300: 4dba 1337 0060 5636 c55b 8837 6e7b 33b8
00000310: f1b0 0439 9868 abb7 e31f 1339 1cff 9437
00000320: 1c2e 1c38 be73 6038 6e8f 1738 cc43 e733
00000330: b39b 0e38 fe4b 7eb7 1c87 1d38 50df 0b38
00000340: 7916 3c38 ac0f 1b37 81e7 3f3a 592b c539
00000350: a1a5 e638 113e 8038 e724 cd37 259e cab6
00000360: 5958 9db7 51f6 80b9 ae37 57b8 b548 5c30
00000370: 21a5 9d37 3918 16b7 6c47 1238 3416 d9b7
00000380: 93d2 32b8 feb3 2937 463f e539 c13e 1a38
00000390: 0ba1 8838 9f57 f137 60c8 cbb5 2181 0fb8
000003a0: adb8 6eb8 2c2b d1b8 352a 1835 024a 0437
000003b0: be80 5336 3c0b ad36 4b06 f738 1c17 423a
000003c0: 86d0 6238 40c9 f638 29ba 4738 2008 8837
000003d0: 5c49 17b8 7745 84b9 ddb1 90b9 3ff1 e5b6
000003e0: 155f 9e37 8193 9d36 be8e fd36 c964 ae38
000003f0: dbb5 163a 5cb2 19b7 73b3 1a39 0697 7c38
-3.303956e-06 3.333509e-07 1.7391947e-07 6.097245e-07 -1.8791246e-06 -1.7126571e-07 -1.1268525e-08 2.0653947e-09
-3.6092912e-15 4.5526768e-08 5.5010906e-15 1.1225112e-07 -5.350199e-09 -1.5877791e-05 -1.8499244e-05 -0.000111843605
-2.6810189e-05 -3.7883788e-06 -1.8012675e-05 -0.0008176031 -0.00087407744 -9.489294e-05 -4.2520092e-05 -6.664609e-05
-6.286446e-05 -4.7667625e-05 -0.0004999635 -5.7789883e-05 -0.00013461469 -0.00013139972 -0.00019646 5.187925e-07
-3.88425e-05 -3.3984827e-05 -0.00034691548 -0.00018886208 -0.00016469267 -0.00017082925 -0.0002584639 -7.426508e-05
-0.00035796675 -1.4435678e-05 -0.00018496452 -0.0002123822 -0.00046056195 -0.000531662 -0.00038461754 -0.00011051631
-1.0699369e-05 5.5023776e-07 -5.280707e-08 5.5724536e-07 -0.0002619099 -0.00016587942 -0.0003389277 -0.00044682113
-4.193866e-05 -3.9289902e-05 -0.00014121343 5.000158e-06 -1.5798927e-05 -1.0721141e-05 -0.0001783185 -6.562364e-05
-4.453661e-05 -5.1291914e-05 -0.00016301117 -2.680613e-05 -0.00025054775 -8.228735e-06 -0.0003720114 -0.00024295393
-0.0007592564 -0.0009847451 -0.00080878404 -2.7861059e-05 -1.0141569e-06 -1.2947987e-08 -3.819414e-07 1.0917043e-06
-0.00047001158 -0.00025446608 -0.00079545524 -0.00085244566 -0.00013284346 -0.00018968215 -0.0001630749 -0.00025895188
-0.0004868851 -0.000432491 -0.00047516127 -1.3153835e-05 1.2592162e-05 -2.478665e-07 -5.403974e-06 -4.1961874e-05
-0.00025557863 -2.3152026e-05 -0.00058647554 -0.0004808373 -0.00077307626 -0.0015000878 -0.0014603104 -0.0010931641
-1.9700175e-05 2.9473678e-05 -4.7024486e-08 1.681849e-06 -0.00024365302 -0.00057780655 -0.00036693198 -0.0012466176
-0.00019315054 -0.00015597005 -0.00058997865 -0.00039314036 -0.00043556566 -2.7169519e-05 -6.192119e-05 -3.1956584e-05
-3.0163965e-05 -2.9039547e-05 -0.0004718573 -1.2509061e-05 -0.0007382667 -0.00023463885 -0.00051996845 -0.00057831436
-0.00087491935 -0.0013947729 -0.0016686522 -0.0011654517 -0.00045650385 2.4966166e-06 1.2448858e-05 2.232367e-07
-0.00028541303 -0.00025139737 -0.00043713758 -0.0006131858 -1.8263563e-06 -7.2032327e-07 1.1301836e-06 1.2240483e-08
-1.1267994e-06 6.2082665e-07 4.9650754e-07 4.549619e-07 2.3592664e-08 2.6221665e-09 3.1237445e-07 -5.1783473e-11
-1.13505285e-08 -7.7967155e-07 4.11627e-05 6.593896e-05 0.0007759118 7.642153e-05 0.00013528185 9.911478e-05
6.727198e-05 3.5603298e-05 -5.8553702e-05 -0.00012802148 4.2826232e-05 5.7208523e-05 4.7696612e-05 2.8963848e-05
0.00019347527 -4.2092972e-05 0.00020504663 8.244563e-05 0.00010696409 0.00013089682 0.000121179226 8.789072e-05
0.00013936384 7.0616e-05 0.00011753334 0.000113396265 0.00011998646 8.3447216e-05 0.00013141292 0.00034787811
5.0569182e-05 8.526701e-05 4.596259e-05 1.2840479e-05 -9.508812e-06 -7.576382e-05 -3.481582e-05 -6.2357663e-06
8.805259e-06 3.1944364e-06 1.6255197e-05 -4.279188e-05 0.00012654417 -2.0433494e-05 0.00014030891 1.776177e-05
3.723624e-05 5.3513555e-05 3.6134785e-05 1.0769108e-07 3.4000444e-05 -1.5157273e-05 3.7557547e-05 3.334816e-05
4.4843622e-05 9.242369e-06 0.00073205685 0.00037607065 0.000109981054 6.1150764e-05 2.4455088e-05 -6.0384796e-06
-1.8756999e-05 -0.00024597583 -5.131185e-05 8.0138857e-10 1.8792753e-05 -8.9463365e-06 3.487563e-05 -2.5878755e-05
-4.263462e-05 1.0115093e-05 0.00043725426 3.6774905e-05 6.514982e-05 2.877024e-05 -1.5182995e-06 -3.4214117e-05
-5.6915615e-05 -9.973938e-05 5.668583e-07 7.885044e-06 3.1516388e-06 5.1571096e-06 0.0001177905 0.0007403956
5.40768e-05 0.0001176768 4.7618672e-05 1.6216247e-05 -3.6069527e-05 -0.00025228757 -0.0002759834 -6.8528166e-06
1.8879344e-05 4.6961363e-06 7.556605e-06 8.315739e-05 0.00057491445 -9.161038e-06 0.00014753435 6.0222133e-05

momentum_buffer f4 [128]
00000000: a766 33b9 0a94 ee38 570a 0b39 d0d4 583a
00000010: 708d f539 7ec1 6b38 769b 043b bd6d f8b6
00000020: 7be1 a9b7 461c 583a 516a 33b9 c25c 2b38
00000030: 0a81 a7bb 34f1 c138 2f3b 4c37 bb9b 4a3a
00000040: c024 cab9 10ec b939 e200 5939 d062 8b39
00000050: 587e f338 c252 253c c874 0a38 2ce8 f8b9
00000060: fdb2 8039 06c7 ac3a 6ca7 943a 61e4 a537
00000070: 62de b03a 260f a537 6a62 863a d19e 6637
00000080: 8863 f139 40fa ec39 171b 2738 343a 90bc
00000090: c15d 873b 366c 0338 30ef bf39 0603 7d37
000000a0: ca66 1f3b 6433 0239 cdcd 8fba 354a 2e3a
000000b0: 4486 3238 e998 5fbb a391 083b 60cc 363b
000000c0: 55a2 b1b5 b882 b038 b89f ee38 8ce6 2038
000000d0: 87dc c8b8 544c 7938 cc5a 2fb6 ff08 76bb
000000e0: f0a6 1e39 46c7 4b39 083d f4b2 a48c 3fb7
000000f0: 3726 99b7 bc1a 89b8 f6c5 e636 5f67 4eb9
00000100: d361 f438 9c69 123a 1cf4 7334 49c9 d532
00000110: 749d 8f37 3286 a1b8 d00c 77ba c465 96ba
00000120: f435 b938 f8c3 2dba f194 9d38 670d 09ba
00000130: 0d4f 51b9 48d0 3437 5fa9 0d38 9c09 15ba
00000140: 1930 cf38 775c c83a 4812 4bba a033 a436
00000150: 3054 b6b7 caa7 493a ca45 203a 0a0c 3139
00000160: 60bc cbb8 a4c5 851b 5383 d539 0663 4c3b
00000170: a0b9 28ba cc4b 2cba 9661 0a3b 6381 3a3a
00000180: eef8 9db9 16e8 a7bd 1c2f b7b6 482a 71b8
00000190: c927 ddb8 3804 d638 8950 2339 b6d7 84b7
000001a0: 6a55 103b 098a 01b9 e3ba eabb 306a 83b7
000001b0: a6c0 0c38 dd57 feb7 4434 4bb9 8ae3 c039
000001c0: 87ba 743d cb93 abbc 4c6e 9839 776e ca2d
000001d0: 1106 b537 c39f 62b9 3d77 d9b9 1bf0 da38
000001e0: 119c 1e39 1411 7d3a 8e6b 83b8 36a9 9439
000001f0: a063 e439 5ac8 6eb8 e061 84b8 3cea 99b7
-0.00017109011 0.00011376299 0.00013259925 0.00082714576 0.0004683542 5.620857e-05 0.0020234264 -7.403751e-06
-2.0251367e-05 0.0008243959 -0.00017110376 4.0855964e-05 -0.005111818 9.247885e-05 1.2173127e-05 0.0007728894
-0.00038555823 0.0003546183 0.00020695062 0.00026585767 0.00011610676 0.010090532 3.3010525e-05 -0.00047475228
0.0002454742 0.0013181872 0.00113414 1.977588e-05 0.001349401 1.9676587e-05 0.0010252718 1.3746046e-05
0.0004604126 0.00045199879 3.9841132e-05 -0.017605878 0.0041310494 3.1333613e-05 0.00036608567 1.5080679e-05
0.0024322742 0.0001241691 -0.0010971368 0.0006648631 4.256355e-05 -0.0034118241 0.002083876 0.0027892813
-1.3234772e-06 8.416682e-05 0.00011378474 3.8361686e-05 -9.5778196e-05 5.9437312e-05 -2.6129883e-06 -0.0037541983
0.00015130243 0.00019433824 -2.8433092e-08 -1.1417233e-05 -1.8256816e-05 -6.537649e-05 6.87758e-06 -0.000196842
0.00011653048 0.0005585195 2.2719945e-07 2.4887997e-08 1.7120248e-05 -7.702074e-05 -0.00094242115 -0.001147442
8.831537e-05 -0.0006628628 7.514086e-05 -0.00052281324 -0.00019961242 1.077733e-05 3.377476e-05 -0.0005685331
9.879488e-05 0.0015286346 -0.00077465596 4.893591e-06 -2.1735294e-05 0.0007692544 0.0006113915 0.0001688452
-9.714882e-05 2.2130727e-22 0.0004072437 0.0031186952 -0.00064363517 -0.0006572574 0.0021115295 0.0007114617
-0.0003013084 -0.08198564 -5.4593092e-06 -5.7498255e-05 -0.00010545512 0.00010205101 0.00015574893 -1.5836074e-05
0.0022023567 -0.00012353821 -0.007163392 -1.5665864e-05 3.355802e-05 -3.0320074e-05 -0.00019379059 0.00036790624
0.0597482 -0.020944497 0.00029073877 2.3013797e-11 2.1579706e-05 -0.00021612555 -0.00041478305 0.00010439773
0.00015126193 0.0009653729 -6.2666004e-05 0.00028354832 0.00043561775 -5.6930214e-05 -6.312481e-05 -1.8348095e-05

momentum_buffer f4 [64, 128]
00000000: c1da a1b9 5df4 c738 7e99 13ba a6a7 9239
00000010: 5c14 15bb 034e b4ba ac40 ccbb acde 7232
00000020: b9af 95b6 fd75 6bbb c4b1 8c3a 0400 0080
00000030: d8c7 a23c 1758 caab 4308 f536 266f 39bb
00000040: 80f8 52ba 5d2f 3dbb 127d 5dbb dcee 003c
00000050: 04cd ddb9 4002 a7bb 49ce c937 c4dc 12bb
00000060: 33d3 24b8 8456 963b 9cf7 9a3c 37b0 9935
00000070: 0f45 27bb e541 cd34 50de 783c 4e8d 8300
00000080: 5451 2bba 3b98 0f38 b11a 5937 b80e 463a
00000090: 68b3 ae3c 5fc2 9739 f3f6 b33c c2e3 8239
000000a0: 3850 763a 2ac3 0837 7f50 493c c965 b2b9
000000b0: 5d83 a8b8 9667 083c 2450 2339 c014 db3c
000000c0: 0400 0000 b7ad c2b6 def8 58ba 0978 a2a7
000000d0: 7055 6e34 9593 aab8 3d49 cf33 3c43 063c
000000e0: e455 2dbb 6a18 90b7 0000 0000 7fc9 ee38
000000f0: c88e fa38 1a7d e635 a1b3 ba38 e76c 39ba
00000100: 0400 0080 e433 cf3b 36dd f8ad 0400 0080
00000110: a68e c137 8334 1338 da0e 3b3c c6f0 843b
00000120: 852d cf2a 7e57 3e3c b64f 00b0 25f6 dc3a
00000130: fd51 c3b7 793d 471a 3098 6eba 942f 093c
00000140: 0cd2 4b9e 6d93 91bb 8862 5bbb 0400 0000
00000150: 0e01 98b8 0e1c 9bba a448 1d3b 1c3d a93a
00000160: 585d 3438 0400 0000 6e07 f137 6978 6cbb
00000170: acfe ac3a ac89 093b 94ff c83b 7b88 09ba
00000180: f6fb 60bb 40be 1439 6c14 9db7 6a06 4cba
00000190: 02ac ddb9 0400 0000 eaa4 6739 0400 0000
000001a0: 55a5 8538 509a 6bb9 1cfd a23c 8453 b433
000001b0: 0801 383a 5f84 c336 331a 6f3a 3dfb 92ba
000001c0: d747 263d 46b7 9738 6031 32b9 0400 0000
000001d0: 7571 d339 aaf4 42b9 379e 8339 0400 0000
000001e0: 44e6 24ba 8fc4 c7b8 67e1 49ba 5a9a 6e39
000001f0: c0bd 47bb 5ef9 a9b7 0f89 e13b eaa6 2b34
00000200: 8b4b 7338 2615 73b8 d2fa d4b9 a609 1d3a
00000210: 71ff 973b 94af 62b9 bc16 3239 715b 64b3
00000220: 80e0 a1b7 abce 85ba eafb 803a b43d 56ab
00000230: 46a7 c73a 3e62 66b7 9238 4bb8 00a2 9dba
00000240: 0800 53ba 9b2c a639 5ba6 beba 3767 623c
00000250: dcf0 25ba 36b7 803a 734b 99b6 1fd9 053b
00000260: 27ed a8b9 2750 183b 0880 003c f84b f736
00000270: 7015 373a b414 5ab7 e7e1 c63b 0ad0 08b6
00000280: 0322 8bba 9814 bd37 acca 57b9 20bd e2b7
00000290: e450 66bb 2c0e 67ba 05c7 603c 424f 9cb8
000002a0: 7f22 923b 8801 1fb8 d22c 763b d243 cab9
000002b0: fb04 c636 70d5 0fbb 4327 afba 3f81 b03c
000002c0: 1fb2 2db3 cae7 9e37 6e20 a53a 69fa f5b8
000002d0: 413d 3fb7 ab75 5c38 5c13 4ab8 9b16 e43b
000002e0: 1792 dc3b 3a92 eb39 63ed 7c35 61f2 e8b9
000002f0: 6061 1239 4c82 2e3a 6286 823a f0ca c8b8
00000300: 7269 b8b8 820d fb3b e533 e7b8 fa9b bc2e
00000310: 3e1e 1137 7600 5eb9 6790 c73b 9184 b63a
00000320: 536d b836 b2c6 a43b 9e2e 6ab9 0c5b 9539
00000330: e673 37b8 9073 40b7 d30a 523a c417 a73b
00000340: bfb4 4d38 e8e5 fb3b b9b7 c23b ba49 b035
00000350: efdb 36b8 7c71 723b b5a5 4eba 3f15 a6b9
00000360: e66d c8b6 4bc4 8f98 afe4 f2b9 0a93 41ba
00000370: 888b b6b9 da66 ce3b e649 b43b ac48 ca39
00000380: fdb0 8e3a 0604 8cba 717f a1b8 3cd1 abba
00000390: b526 26ba 6258 2a35 8f25 9e39 e320 15b9
000003a0: 70ec 2b3a aff3 2739 b872 7bbb 96a4 bd35
000003b0: 02d9 42b9 9e89 0dba 9564 86ba fa1f 20ba
000003c0: 16cf d6bb 9571 e0b9 b12e a738 8482 87ab
000003d0: c903 80b9 1923 22b7 9c8d 4bba cf3f 5137
000003e0: 8292 0cb9 5e5d 883a 456e 0fb9 e875 e3b7
000003f0: d554 2b3b d0b5 d0b8 c05c c03a 633e a138
-0.00030871297 9.534576e-05 -0.0005630477 0.00027972198 -0.002274773 -0.001375616 -0.0062332954 1.4136884e-08
-4.461003e-06 -0.003592848 0.0010734131 -6e-45 0.019870684 -1.4377413e-12 7.302531e-06 -0.002829501
-0.00080478936 -0.0028867342 -0.0033796472 0.0078694485 -0.00042305153 -0.005096704 2.4057126e-05 -0.0022409419
-3.929734e-05 0.00458795 0.018916897 1.1450674e-06 -0.002552334 3.823217e-07 0.015189722 1.208114e-38
-0.0006535251 3.4235632e-05 1.29404225e-05 0.0007555294 0.021325782 0.00028945782 0.02196834 0.00024965225
0.0009396109 8.151672e-06 0.012287258 -0.00034026642 -8.0353326e-05 0.008325478 0.00015574746 0.026743293
6e-45 -5.8018736e-06 -0.000827683 -4.5094175e-15 2.2196559e-07 -8.133721e-05 9.6525106e-08 0.008194741
-0.00264489 -1.7177506e-05 0.0 0.00011386256 0.00011947524 1.7172745e-06 8.9026296e-05 -0.00070734177
-6e-45 0.0063233245 -2.8292573e-11 -6e-45 2.3073819e-05 3.5096436e-05 0.011417115 0.0040570227
3.6802172e-13 0.011617539 -4.6679405e-10 0.0016858025 -2.328399e-05 4.1201893e-23 -0.0009101657 0.00837316
-1.0790167e-20 -0.0044426234 -0.0033475477 6e-45 -7.248121e-05 -0.0011833922 0.0023999596 0.0012911889
4.3002277e-05 6e-45 2.8732898e-05 -0.0036082512 0.0013198457 0.00209866 0.006133983 -0.00052464724
-0.0034329868 0.00014185254 -1.8725368e-05 -0.0007782938 -0.0004228056 6e-45 0.00022091312 6e-45
6.37273e-05 -0.00022468832 0.019896083 8.3970946e-08 0.00070191966 5.826863e-06 0.00091210305 -0.0011213791
0.040595856 7.2343784e-05 -0.00016993796 6e-45 0.00040329588 -0.00018592426 0.00025104146 6e-45
-0.0006290416 -9.525671e-05 -0.0007701129 0.00022754949 -0.003047809 -2.026249e-05 0.0068827937 1.5986339e-07
5.800607e-05 -5.795541e-05 -0.00040622667 0.00059905124 0.0046386053 -0.00021618447 0.00016983872 -5.3168552e-08
-1.9297237e-05 -0.0010208687 0.0009840701 -7.6113703e-13 0.0015232346 -1.3731942e-05 -4.8451657e-05 -0.0012026429
-0.0008049016 0.0003169522 -0.0014545427 0.013818554 -0.00063301413 0.0009820226 -4.5685388e-06 0.0020423604
-0.0003222015 0.0023241134 0.007843025 7.3700176e-06 0.00069840904 -1.2998633e-05 0.00606941 -2.0386674e-06
-0.0010614995 2.2540145e-05 -0.00020579499 -2.7029368e-05 -0.003514343 -0.00088140625 0.013719325 -7.4534226e-05
0.0044596787 -3.790998e-05 0.0037563336 -0.00038578972 5.9014396e-06 -0.0021947287 -0.0013363141 0.021546004
-4.04417e-08 1.8943003e-05 0.0012598166 -0.00011729153 -1.1398749e-05 5.2561674e-05 -4.8178583e-05 0.0069607026
0.0067312825 0.0004493164 9.422276e-07 -0.00044431075 0.0001395992 0.0006656989 0.0009958262 -9.574543e-05
-8.7934444e-05 0.0076615224 -0.000110246045 8.576957e-11 8.649715e-06 -0.00021171742 0.006090212 0.0013925006
5.4963543e-06 0.005028569 -0.00022333345 0.0002848733 -4.373854e-05 -1.1470998e-05 0.0008012477 0.0050992686
4.904414e-05 0.007687319 0.0059423116 1.3134479e-06 -4.359701e-05 0.0036993911 -0.00078829686 -0.00031677817
-5.9732583e-06 -3.716284e-24 -0.0004632822 -0.0007384276 -0.00034817704 0.006298882 0.0055019734 0.00038582587
0.0010886487 -0.0010682351 -7.700816e-05 -0.0013108621 -0.0006338165 6.345855e-07 0.00030164092 -0.00014221999
0.0006558364 0.0001601714 -0.0038367938 1.4129498e-06 -0.00018582123 -0.00053992297 -0.0010253364 -0.00061082805
-0.0065554483 -0.00042809235 7.9718775e-05 -9.628552e-13 -0.00024416883 -9.664124e-06 -0.0007764937 1.2472227e-05
-0.00013406019 0.0010403802 -0.00013678621 -2.7115413e-05 0.0026143093 -9.952078e-05 0.0014676079 7.688699e-05

momentum_buffer f4 [64]
00000000: dd71 993b 9884 f63b 8ac4 5c39 3ab1 b83c
00000010: 9f31 4837 e082 83bd 98c0 f838 dd08 c039
00000020: 467f 913c 9203 1dbd 8904 5b37 5922 ec37
00000030: d62a 5c3a daa2 a038 bc32 3a3d 75a7 543a
00000040: 22a9 55bd 5cff 1339 fe2d 413d 7cf6 a3bd
00000050: 12f0 123a eefb dbbd b4af 8039 3965 b938
00000060: 545a 463d 565f aa39 90fd c239 3842 ad38
00000070: 9217 6e39 476b 0237 6110 963b e60e ad3b
00000080: fa1c ab39 ce91 5c39 83d9 8639 bed4 f3bc
00000090: 9fce 1f39 7136 4b33 8fa9 79bd 53ad 5139
000000a0: b221 6c3c b662 41b7 d5cb 9239 2165 6637
000000b0: 7c86 033a 630f 3439 d8d2 a3bd 5448 683d
000000c0: 37c9 ed38 0e35 0339 9a07 b939 ebb5 0d37
000000d0: e091 79bd 4872 223b bb82 053d 2ab0 1dbc
000000e0: 9d9e 56b6 5368 8e39 7b8e ec38 a5a3 a937
000000f0: 6d94 b0bd 049e 593a 193d 87b8 7a44 8b3a
0.004682763 0.0075231306 0.00021054051 0.022545446 1.1932482e-05 -0.06421447 0.00011861435 0.00036627697
0.017760884 -0.038333483 1.3054473e-05 2.8149387e-05 0.0008398717 7.659728e-05 0.04545854 0.0008112111
-0.05216325 0.00014114141 0.047163002 -0.080059975 0.0005605231 -0.10741411 0.00024544972 8.8403416e-05
0.048425987 0.00032495958 0.00037191482 8.261617e-05 0.0002270623 7.773581e-06 0.0045795892 0.005281317
0.0003263725 0.00021035151 0.0002572053 -0.02976453 0.00015240394 4.7314135e-08 -0.06095272 0.00019996362
0.01441233 -1.1526679e-05 0.00027999157 1.3732614e-05 0.0005017293 0.0001717187 -0.079992 0.056709602
0.0001133852 0.00012512898 0.00035291613 8.446611e-06 -0.060930133 0.0024787355 0.032595377 -0.00962452
-3.198081e-06 0.00027162078 0.00011279896 2.0222573e-05 -0.0862206 0.0008301439 -6.448682e-05 0.0010625266

momentum_buffer f4 [5, 64]
00000000: e0e1 aabc d661 173d 4726 943b 5865 5a3d
00000010: bc79 9336 d5c4 df3c fc64 5a37 31af dcb8
00000020: 160e 313d 6661 d83c adc3 d4b7 8845 28b7
00000030: f46f d5b7 fc57 27b7 6851 9f3d c8d4 7838
00000040: c3de 243d 3600 43b6 d6aa bf3d b0e6 833d
00000050: 4821 d538 cf08 8d3d af7e 5e38 11b7 4bb7
00000060: cc16 8d3d 318b 0139 482d 42b9 3ca9 9736
00000070: ce35 5db7 74da 8c37 7627 2e39 0e56 e33c
00000080: 099e 9e3a 5c10 9e36 a2d5 21b7 4e83 603c
00000090: 7acc abb7 5b55 b631 4211 2b3d ab04 d438
000000a0: d2f1 063d 217c 92b6 90ca b0b8 2437 3235
000000b0: 1f62 ebb8 2e2f a7b7 088b 673d d4f0 e73d
000000c0: 4577 50b7 8bbd 4838 58ed 9e38 4908 2cb5
000000d0: 6c05 0b3d 14bf 323c ba88 693d d8dd 9e3c
000000e0: 9f0e 00b5 c762 ab36 9cab a1b5 e22e 8636
000000f0: 7013 293d b57c 943c e998 1238 e4aa 43b7
00000100: 7340 2cbc b052 6ebc 10d5 6bbb 326f 03bd
00000110: 3e23 feb6 5a07 36bc eabd 2fb7 0907 17b9
00000120: 4c86 d7bc 5060 17bc 2211 2839 f1a2 e3b7
00000130: e772 6b38 0f5a 9d37 90d7 9cbd 01c0 8738
00000140: c87f 9abc 85f2 3d36 1c91 a0bd fefe f6bc
00000150: 4711 dbb8 4ac2 d1bc 0a7c 5eb8 67e5 5237
00000160: 7ee0 9abd 0b65 01b9 edeb a937 32e7 feb6
00000170: 9a8a 4db6 16d4 bdb7 d775 2db9 5ea4 97bc
00000180: 0c90 bbb9 1a31 a0b8 9ae5 0a38 c0f9 fdbb
00000190: d967 1bb8 6c63 c930 a854 5dbc 4b47 70b8
000001a0: 17d5 16bd 056a bab6 30b5 7eb8 1062 8d35
000001b0: 3a53 ba38 83ef 41b8 868e aebc 1c2b cabd
000001c0: dbd7 4fb7 e11a 3738 741c 82b8 914e 9fb5
000001d0: 629b 5bbc 4c92 89bc ce36 ebbc 94b1 d2bb
000001e0: bdce bdb5 b856 bf37 8c7f 6036 9aeb 8836
000001f0: f024 84bc a6c2 cabb e7c8 b0b7 9eb9 b7b8
00000200: 409c 01ba a428 8fbc 6301 983b a8fd 80bc
00000210: 8110 8436 100c 43bb b2fb f937 ecfb 2e39
00000220: 166b 85bc e0ac 5dba c697 1939 914b 1438
00000230: d514 0d38 e737 8ab7 346f 0bbd b1a1 8ab8
00000240: 38da 1ebc 670f 43b6 3870 f0bc 88a4 2abc
00000250: ec30 bfb8 8aee 94bc 3f82 4938 f1cb 80b7
00000260: 74de 00bd b58f 0239 2e03 b138 117a 3c36
00000270: 1173 c737 d92e 6137 719b 29b9 c457 d5bb
00000280: 7b57 dfba 36c9 6838 8ce5 0a38 0000 7036
00000290: d775 b3b7 1aec bb31 b423 fbbb 3df9 2639
000002a0: 6ca7 99bc fdbc 3437 ffa6 90b8 6262 8d35
000002b0: 4a1b 5339 f633 3b38 2038 72bc 689b 45bd
000002c0: 1c80 cd35 573b 4e38 78ba 7d38 5bd1 1fb5
000002d0: 544f dfbb b487 e1bb f037 84bc 1827 46bb
000002e0: 444d d735 d843 bf37 4969 0237 0c88 8936
000002f0: b893 60bc 707b a7ba bade 2738 8293 4a39
00000300: 89b2 08bd a1ac 63bd 5444 23bc 55c8 9abd
00000310: 427e 97b6 f4a6 a5bc c122 08b8 ea1f 2a39
00000320: f20d 81bd ae14 65bc 91ed 7039 0177 31b7
00000330: 9ef0 6238 fc75 8e37 b072 1dbe 2012 9738
00000340: 712a ecbc af6a 1f37 1e68 1cbe 9f09 2ebd
00000350: 1981 beb8 f46b 30bd 4dce f0b7 5612 1fb7
00000360: ea92 24be f572 0639 8cc1 7d36 9a54 c6b7
00000370: 6f3c 9e37 d204 c634 c518 0fb9 4896 11bd
00000380: 5c1a c039 bc40 62b9 adec 3fb8 127b 80bc
00000390: d967 1b38 4655 b6b1 4c87 cabc eb22 26b9
000003a0: 06b9 8fbd fa36 9236 03b8 e238 6262 8d35
000003b0: 0396 4939 c7ee 2e38 3e8e 24bd a8c8 56be
000003c0: 4d66 9b35 e46a 49b8 4965 d138 8c54 94b5
000003d0: 0a41 b3bc 2db3 02bd 70a8 81bd 051e 50bc
000003e0: bc16 5a36 75d2 ad37 f1bd 2236 a235 87b6
000003f0: a630 12bd 5640 12bc c2b5 0cb7 2791 4a39
-0.020859659 0.036958538 0.0045211646 0.053319305 4.395113e-06 0.027315537 1.3017325e-05 -0.000105230494
0.043226324 0.02641363 -2.5363488e-05 -1.0029769e-05 -2.5443711e-05 -9.974461e-06 0.07779199 5.9325976e-05
0.040251505 -2.9057387e-06 0.09358756 0.064404845 0.000101628306 0.06886446 5.3046908e-05 -1.2142366e-05
0.06889114 0.00012354252 -0.0001851815 4.519852e-06 -1.3185154e-05 1.6791026e-05 0.00016608633 0.027750995
0.0012101542 4.7106714e-06 -9.646088e-06 0.0137031805 -2.0480005e-05 5.306601e-09 0.041764505 0.00010109817
0.03294546 -4.3655896e-06 -8.430064e-05 6.639041e-07 -0.0001122395 -1.9929921e-05 0.056529075 0.11325231
-1.2425536e-05 4.786024e-05 7.578236e-05 -6.408705e-07 0.033940718 0.010909814 0.05701516 0.019392893
-4.770499e-07 5.1076963e-06 -1.204538e-06 3.998969e-06 0.041278303 0.018125871 3.495152e-05 -1.1662694e-05
-0.010513413 -0.014546081 -0.003598515 -0.032088466 -7.5738926e-06 -0.011110151 -1.0475031e-05 -0.00014403103
-0.026309155 -0.009239271 0.00016028111 -2.7136384e-05 5.6135377e-05 1.8757795e-05 -0.07658303 6.473065e-05
-0.018859759 2.830436e-06 -0.078401774 -0.030150887 -0.00010445952 -0.02560534 -5.3044445e-05 1.2570387e-05
-0.0756235 -0.0001234004 2.0256231e-05 -7.5967046e-06 -3.0628057e-06 -2.2629316e-05 -0.00016542464 -0.018510994
-0.00035774743 -7.6385404e-05 3.3115597e-05 -0.00775072 -3.7051595e-05 1.4652932e-09 -0.013508953 -5.7286856e-05
-0.036824312 -5.5555743e-06 -6.0727063e-05 1.0533859e-06 8.884673e-05 -4.623785e-05 -0.021308195 -0.09871504
-1.2388419e-05 4.3655633e-05 -6.204183e-05 -1.1869289e-06 -0.013403745 -0.016793393 -0.028712656 -0.0064298604
-1.4141766e-06 2.2809356e-05 3.3452843e-06 4.0805435e-06 -0.016130894 -0.0061877547 -2.1074387e-05 -8.760694e-05
-0.00049442425 -0.017475434 0.004638837 -0.015745953 3.935828e-06 -0.0029761828 2.9800318e-05 0.00016687781
-0.016286414 -0.00084562413 0.00014647757 3.5356326e-05 3.363642e-05 -1.6476914e-05 -0.0340416 -6.61047e-05
-0.009695582 -2.906623e-06 -0.029350385 -0.010415204 -9.116702e-05 -0.01818015 4.8043436e-05 -1.5353757e-05
-0.031462148 0.00012451301 8.44061e-05 2.8085235e-06 2.377623e-05 1.3421953e-05 -0.00016175002 -0.0065107066
-0.0017039621 5.5500503e-05 3.3115546e-05 3.5762787e-06 -2.1393336e-05 5.469258e-09 -0.0076641683 0.00015923842
-0.01875659 1.0772838e-05 -6.8975605e-05 1.0533952e-06 0.00020132694 4.4632667e-05 -0.014783889 -0.04824391
1.5310975e-06 4.9169492e-05 6.0493563e-05 -5.953677e-07 -0.0068148766 -0.006882632 -0.016139954 -0.0030235704
1.6041236e-06 2.2800567e-05 7.773117e-06 4.098756e-06 -0.013707094 -0.0012777876 4.0023333e-05 0.00019319172
-0.03337339 -0.055584554 -0.009965021 -0.075577416 -4.514849e-06 -0.020221211 -3.2457294e-05 0.00016224352
-0.06301488 -0.013981981 0.00022976684 -1.057773e-05 5.410669e-05 1.698266e-05 -0.15375781 7.203617e-05
-0.028828831 9.501978e-06 -0.15274093 -0.042489644 -9.083952e-05 -0.043071702 -2.8706296e-05 -9.481408e-06
-0.16071668 0.0001282206 3.7812597e-06 -2.3642835e-05 1.886321e-05 3.688388e-07 -0.0001364677 -0.03554371
0.00036640733 -0.00021577155 -4.575837e-05 -0.015683684 3.7051595e-05 -5.3065916e-09 -0.024722718 -0.00015844002
-0.07017712 4.357539e-06 0.000108107946 1.0533952e-06 0.00019224737 4.170721e-05 -0.040174715 -0.20974982
1.1578173e-06 -4.8021684e-05 9.9847624e-05 -1.1051466e-06 -0.021881599 -0.031909157 -0.06330955 -0.01270247
3.2497765e-06 2.0721209e-05 2.4250442e-06 -4.029557e-06 -0.035690926 -0.008926472 -8.386969e-06 0.00019318295

momentum_buffer f4 [5]
00000000: ba67 9e3d 922b 92bd 7020 5ebc 18cc 23be
00000010: 5647 89be
0.07734628 -0.07137217 -0.013557538 -0.15995824 -0.26812238

conv1.weight f4 [10, 5, 4]
00000000: 5b3e 56bc 79b7 60be 0fb1 56bd edf5 31be
00000010: be15 dcbd f1ee 99bc b688 dd3d 4288 c63d
00000020: ec4b 943c b4be 1c3e cc5a 38be cfe2 03be
00000030: 9415 043e 52cd 153e 9d8a 32bd c600 453e
00000040: 061d 473e 749f 1b3e 3ac4 5f3e e148 4f3e
00000050: d604 703f 7cb6 38be aede c4be 4fc2 1cbf
00000060: bb53 013e cb1e 553e a7b7 81be 50a6 07be
00000070: 05d7 fd3c 185f 183e 80a0 9bbd 2a9a 3dbd
00000080: 5239 a3bd b6f8 7c3d 7446 2cbe b666 49be
00000090: a33f 03be 827e c9bd 4d97 43be a02b 19be
000000a0: 474f 6e3e 7686 34bf c0c2 42bf 4d34 393e
000000b0: 135f abbb 4fcc 8dbe 3f5f 1bbd 9983 e33d
000000c0: 9fbb c6bd 40eb 57bd e222 0cbc 50b2 5ebe
000000d0: 62a2 b3bd ec86 78be 21aa 33be 4d99 82be
000000e0: 2ccd b1bc ae21 29be 0de0 01be bad4 8bbe
000000f0: b616 bcbe b94e b33e 939a 23be 0749 0c3f
00000100: e1ad a33d 018d d33d 45b9 3c3e f2f3 22be
00000110: 3712 9a3d 648c 6c3d 4aa8 00be 6bb8 21be
00000120: 931c 2a3e 872a ccbc 66db eabd 7597 40bd
00000130: b10f 2339 3398 473e bb0f 77bc b539 37be
00000140: c3b2 883e b4ce 8bbe dd25 a0be f0dd 6a3e
00000150: af9e 3ebe 2d6f 54be 0030 cc3d 7352 d4bd
00000160: f9f8 c43d b7a0 00be 480e a53d 3e9c 593d
00000170: dc19 61be 8e42 41bd 601f 4ebe a2bc 79be
00000180: c03e 533c fb6c 0f3d b192 30be 63cf 6f3d
00000190: aa12 9ebe 2374 edbe 33c5 283f f2f0 893f
000001a0: caf1 01be ba07 c0bd f9de b53c a1ea ff3d
000001b0: da68 013e 21e8 80bd 91aa 08bd 1b44 883d
000001c0: 3e53 39bc a38a 673e 4291 fb3d 2da2 27bc
000001d0: 31be 09be 908e 203e 8b2c 14bd c91a b5bd
000001e0: 7cec 1c3f 9dda 0ebe 8caa 103e 9948 b33d
000001f0: 7eb3 a43d b50f 913d 8ce3 0abe fc19 e0bd
00000200: e6d9 4e3c 16c5 0d3e c79a 283e be15 a73d
00000210: 0c5d 15be d67d 09be 70f9 c5bd 6810 3ebe
00000220: d1ec 9c3d 36a4 23be 3188 9e3d 5630 313e
00000230: ef86 6bbe 6d4a c93e a897 9f3f be3e f83e
00000240: a2b6 19be 8421 e7bd 71d4 b3bb ad45 cb3c
00000250: c1d5 e1bd bfcb d03c f394 d5bd a2af 29be
00000260: b2b7 213e c9bc e83d 47b4 b33c 2dbb 74be
00000270: 8935 65be 5cb4 0cbe feda f2bd 9a20 ef3c
00000280: 8ed1 163c cb29 51be d47d 9dbe 6d1a 693f
00000290: 5aaa 773d 5d31 87bd 4d66 e6bd 14f1 163d
000002a0: 4f53 0fbd 97d5 cdbc f4bf 573e 9a4e febd
000002b0: a089 b73d 6ce9 b0bc efc1 8fbd 7f18 76bd
000002c0: acb8 51be fa1d f3bd 6025 3bbe 521c 30be
000002d0: f47f 143f ec3b 073f e162 133f e8ae 243f
000002e0: bb85 413d 3296 5b3d 2a1a 97be 828f 95be
000002f0: 10d8 e6bd 9a3e f0bd 6e4b 6dbd 889b c9bd
00000300: c867 873d 9e0b 34be 8912 313d 3bb2 cebc
00000310: 3c5b eabc 5e55 0ebe 0a25 313d 5662 233e
-0.01307639 -0.2194499 -0.05241495 -0.1737897 -0.107463345 -0.018790694 0.10817091 0.09693958
0.018102609 0.15307122 -0.18003386 -0.1287949 0.12898856 0.14629105 -0.043589223 0.19238576
0.19444665 0.15197545 0.21852198 0.20242645 0.9375738 -0.18038362 -0.3845114 -0.6123399
0.12629597 0.20812528 -0.25335428 -0.13247037 0.030986318 0.14880025 -0.07598972 -0.0462896
-0.07969917 0.061760627 -0.1682375 -0.19668087 -0.12817244 -0.098385826 -0.19100685 -0.14958048
0.2327243 -0.7051767 -0.76078415 0.18086357 -0.0052298396 -0.27694938 -0.03793263 0.11109085
-0.09703755 -0.052714586 -0.008553239 -0.21747708 -0.087712064 -0.24270219 -0.17545368 -0.25507584
-0.021704279 -0.16516754 -0.12683125 -0.27310735 -0.36736077 0.35020998 -0.15976934 0.5479893
0.07992149 0.10329629 0.1843005 -0.1591337 0.075230055 0.057751074 -0.12564197 -0.15793006
0.16612463 -0.024922622 -0.11467628 -0.04701944 0.00015550737 0.19491653 -0.015079434 -0.17893107
0.26698884 -0.2730614 -0.31278887 0.22936225 -0.1861522 -0.20745535 0.09970093 -0.103672884
0.096178 -0.12561308 0.080593646 0.05312752 -0.21982521 -0.047182612 -0.20129156 -0.24388364
0.012893379 0.03501604 -0.17243458 0.05854739 -0.30873615 -0.46377668 0.659259 1.0776656
-0.12689891 -0.09376474 0.022201048 0.12495924 0.12637654 -0.06294275 -0.03336579 0.06653615
-0.01131135 0.2261148 0.12283565 -0.010231537 -0.13451459 0.15679383 -0.036175292 -0.088429995
0.61298347 -0.13950582 0.14127558 0.08754081 0.08042048 0.07083074 -0.13563365 -0.10942456
0.012625193 0.13844714 0.16465293 0.08158444 -0.14586276 -0.13426909 -0.09666717 -0.18560946
0.07662357 -0.1598061 0.0774082 0.17303595 -0.23000692 0.39314595 1.2468157 0.48485368
-0.15011075 -0.112856895 -0.0054879715 0.024813497 -0.110270984 0.025487779 -0.104288004 -0.16570905
0.1579273 0.11364133 0.021936549 -0.23899527 -0.22383703 -0.13740677 -0.11858176 0.02919035
0.009205235 -0.20426099 -0.30760062 0.9105595 0.060465194 -0.06601212 -0.11249981 0.036851004
-0.03499156 -0.025126262 0.21069318 -0.12417336 0.08961797 -0.02159568 -0.07019412 -0.060081955
-0.20480603 -0.11870952 -0.18275976 -0.17198303 0.5800774 0.5282581 0.5757275 0.64329386
0.047246676 0.053610034 -0.2951215 -0.2921105 -0.112716794 -0.1173069 -0.057933263 -0.09844118
0.066115916 -0.17582557 0.043230567 -0.025231471 -0.028607957 -0.13899752 0.043248214 0.15955481

conv1.bias f4 [10]
00000000: a34e 8d3d 191b b53d a86f 7a3e 54f1 923d
00000010: c16b e13b 418e 45be 03f3 4dbe f341 143e
00000020: 31e1 a33d f6d0 bf3d
0.068997644 0.08843059 0.24456656 0.07174936 0.0068793003 -0.19292547 -0.20112233 0.14478283
0.08001936 0.09366028

fc1.weight f4 [128, 140]
00000000: 0207 263d 48a7 3a3d b4fa 7b3d cdbc 81bd
00000010: 5474 0e3d 4963 073c 4947 a3bd 7e36 86bd
00000020: 7626 623d 669b 8c3d 6c39 a5bd 16d1 213d
00000030: 8ae3 abbd eab8 33bb 397e 3fbd 01d8 61bd
00000040: b15e c0bb fd1c d13b ab67 85bd bd84 973d
00000050: fedb 3ebd 9c04 8cbb 4872 79bd 9f02 acbd
00000060: e00c 60bc 209a afbd 922f c53c 9ef9 a7bc
00000070: d9d7 88bd 311d 5db9 f591 a8bb 0c82 66bd
00000080: 1f47 17bc e555 adbc ba7a 9e3d 44c2 2bbb
00000090: 745c ea3c 4bc0 21bd f270 623d 2037 98bd
000000a0: ac65 95bc 16ff 33bd 22de aebc eefa e33c
000000b0: a7ce 82bd 62e9 593d 8b4d 6d3c 6a66 943d
000000c0: fd6a 78bd 874a 94bd 5fe9 5fbc 610c ff3c
000000d0: 5d6b a5bd 9ab0 9a3c 65fa a8bd 6a34 b23b
000000e0: eecb 98bd 1142 58bd cf80 cebc 7950 283d
000000f0: 6b49 6abc 0e86 cebc 01f0 7abc bbf8 3ebb
00000100: 51ad 2c3d 4b0b a2bd 9a5d 9d3d 207d 1dbc
00000110: f5ce 91bc 5bbf 47bd ab29 113d 295d 61bc
00000120: b652 923d 5611 99bd 4fc5 5e3d 1b46 973d
00000130: f932 84bd 7a25 59bd f9af 96bc cf7d e43c
00000140: 2da4 a5bd 5c5e 843b 026b 96bb d960 d53b
00000150: 6cd2 39bc 8ac8 633d ab00 e53c 9ba2 9fbc
00000160: f19f 803d 01bf e73c 9301 8d3d 92a9 9dbd
00000170: eb19 20bd 1ba6 0cbd 36ea 493c 095e a3bd
00000180: 3a68 8bbd 8b65 05bd 2860 2fbc 4725 f0bc
00000190: 9767 b6bd 4896 7c3c 3bee 7f3d b92c 26bb
000001a0: 62fb bcbc 63cd 243c 293f 81bd 5cfe 13bd
000001b0: 2f2f 783d 6be2 88bc 9828 84bd b628 56bd
000001c0: 0f9a 49bd 3374 9cbc b708 9abc ed9e 0b3d
000001d0: d62b 87bd 4ea3 6d3d 1931 f23c bc02 a3bd
000001e0: 39b6 f2bc 146f c1bc 0e70 853d 7135 9b3d
000001f0: 0f6b 3b3d ef8b a3bd 5315 423d 2726 72bd
00000200: aab3 d83c 370d c93c 15f4 dc3c b63e 04bd
00000210: 6a06 7d3d d0b2 d3bc e693 773d 50ec cdbc
00000220: b137 4bbd ab78 88bd dbff 0abd e36b a13c
00000230: 918d 263d 41c6 b53c 1e78 16bd 72a5 853d
00000240: 738f a8bd fb28 7cbd f376 9c3d 88db 563c
00000250: 16f7 20bd c42b 70bd c91b 6f3d 816e e4bc
00000260: 68a7 703c 4f27 193d d4da 0b3d 1e18 903c
00000270: 126e 2f3d c13d 4a3d d525 35bd 04d5 e7bc
00000280: 75be babd d629 67bb df0c 84bd 1e37 6e3d
00000290: 1a1c a1bd 17d3 d9bb 7e28 62bd a842 383c
000002a0: 0697 73bb f162 3dbd df12 3bbd 220b 293d
000002b0: 18b3 86bd bff0 ba3b 90a8 393d 6b55 1dbc
000002c0: d0f5 653d 6d96 233d a089 783d 87ae 693d
000002d0: e302 9cbd 9cb3 d53c 7b1a a8bd 0578 51bc
000002e0: 8f1b 58bd d3ba a0bd 3dac 903d 6a08 f5bc
000002f0: d03b 55bd 16f8 18bd 5d4e a6bd 80d4 31bc
00000300: 99a5 703c 11eb 4a3d e89a a03c 79df bbbd
00000310: 43c4 3bbd cf29 ecbb 9dba 343d 3e7c 023d
00000320: 77ce 0abd 5adc 91bd d6e3 0dbd 2916 e9bc
00000330: dfa9 a9bd fc3a 97bd d233 62bd f169 f8ba
00000340: 873b 2bbb fbfd 87bd 272a 353d ba6d 3ebc
00000350: e788 9b3d 96dc bebc 53ce 0c3b c535 573d
00000360: 83e5 84bc 80e4 b3bc 2f4c 6ebd e936 90bd
00000370: 2f14 46bd 3e10 34bd 83f6 e2bc 6dcf 9dbc
00000380: 0ab8 223d aa57 213d 421d 7a3d 860c e4bb
00000390: faf3 06bd 246c 1ebc fec0 113d 6312 943d
000003a0: f543 923d 3cf8 37bc 4bc5 8fbd ce30 3b3d
000003b0: 7f55 9b3d 0216 993d 3b6f c9bb 4b6b 60bc
000003c0: 9b41 4abd d19c 8e3d 0f33 b7bc 1c0d 353a
000003d0: 22d6 c2bd 4782 5e3d c6d5 473d 678d adbd
000003e0: 82cf 693c e44d 0abd cdbd 8fbd a362 593d
000003f0: f9be 96bd a86a 2f3d f0b1 b93c c538 04bd
0.040534027 0.045569688 0.061518386 -0.06334839 0.034778908 0.0082634175 -0.07972581 -0.06553362
0.05521246 0.068655774 -0.08067593 0.03950604 -0.08393009 -0.002742345 -0.046751235 -0.055137638
-0.005870663 0.0063816295 -0.06513914 0.07398365 -0.04659652 -0.0042730104 -0.060900003 -0.083989374
-0.013674945 -0.08574319 0.024070535 -0.020504769 -0.06681795 -0.00021087077 -0.0051443526 -0.056276366
-0.009233265 -0.021159122 0.07738252 -0.002620832 0.028608538 -0.039490025 0.055283494 -0.07432389
-0.018236957 -0.04394444 -0.021346156 0.027829614 -0.06387072 0.053201087 0.01448382 0.072460964
-0.060648907 -0.072407775 -0.01366648 0.031133832 -0.080771185 0.018883038 -0.08250884 0.005438377
-0.074607715 -0.05279738 -0.025207905 0.04109237 -0.014299731 -0.025210407 -0.01531601 -0.0029139954
0.042157475 -0.0791231 0.07683869 -0.009612352 -0.01779888 -0.048766475 0.03544013 -0.013755121
0.07144682 -0.0747401 0.054387387 0.073864184 -0.06455035 -0.053014256 -0.018394457 0.027892021
-0.08087955 0.004039569 -0.004590393 0.0065117893 -0.011341672 0.05561117 0.02795442 -0.019486716
0.062805064 0.02828932 0.06885066 -0.076983586 -0.039087217 -0.034338098 0.012323907 -0.0797692
-0.06806989 -0.032567542 -0.010704078 -0.02931465 -0.08906477 0.015416689 0.062483054 -0.0025356247
-0.023069087 0.010058734 -0.06310875 -0.036131248 0.060591873 -0.016709527 -0.06453055 -0.05228492
-0.049219187 -0.019098377 -0.018802984 0.03408711 -0.06600158 0.058017068 0.029564427 -0.07959506
-0.029627906 -0.023612536 0.06515513 0.075785525 0.045756396 -0.079856746 0.047383618 -0.059118416
0.026452858 0.024542434 0.026971856 -0.03228637 0.061773695 -0.0258421 0.06044378 -0.025137097
-0.04961366 -0.066636406 -0.03393541 0.019704765 0.040662352 0.022189261 -0.036735646 0.06525697
-0.08230486 -0.06156252 0.07639875 0.013113864 -0.03929814 -0.05863549 0.058376107 -0.027884724
0.01468835 0.037391003 0.034144238 0.017589625 0.04282958 0.0493753 -0.044225533 -0.028299816
-0.09118358 -0.003527274 -0.064477675 0.058158033 -0.07866688 -0.0066474783 -0.055214398 0.011246361
-0.0037168874 -0.046236936 -0.045672294 0.041270383 -0.06577128 0.0057049687 0.04532677 -0.009602885
0.05614263 0.03993838 0.060678124 0.057051208 -0.07617738 0.026086621 -0.08208176 -0.012784963
-0.052760657 -0.07848134 0.07064102 -0.029911239 -0.052058995 -0.03734597 -0.08120415 -0.010853887
0.014687919 0.049540583 0.019605115 -0.091734834 -0.045841467 -0.0072071324 0.04412328 0.031856768
-0.033888306 -0.07122107 -0.03464111 -0.02845295 -0.082843535 -0.07384297 -0.0552252 -0.0018952471
-0.002612801 -0.0664024 0.044229653 -0.011622841 0.075944714 -0.023298543 0.0021485284 0.052541513
-0.016222721 -0.021959543 -0.058178123 -0.07041723 -0.048359092 -0.043960802 -0.027705437 -0.019263947
0.039726295 0.039390244 0.06106306 -0.0069595007 -0.032947518 -0.009669337 0.035584442 0.072300695
0.07141868 -0.011228617 -0.070200525 0.04570084 0.075846665 0.07474901 -0.006147293 -0.013697456
-0.049378973 0.06963504 -0.022363214 0.00069065555 -0.09513499 0.05432346 0.048787855 -0.08474236
0.014270665 -0.03376569 -0.070186235 0.053072583 -0.07360644 0.042826325 0.022667855 -0.032280702

fc1.bias f4 [128]
00000000: 31c1 44bc d024 bdbd baaf 99bd 013e 073d
00000010: f467 823d fc7b 2d3d abde 3dbd e1c3 feba
00000020: a932 3cbd 0305 323d e451 67bd cef4 873c
00000030: 34e5 42bd c61e d9bc eb02 b4bd 44e2 493c
00000040: 6b11 cbbc bbbd c3bc 65ef b9bd e01a 333d
00000050: 34e3 0f3c 1a20 92bd 2290 b53c 88d1 a63d
00000060: 1e09 e2bc 3991 c3bc 4c58 92bd be3e 9f3c
00000070: 15c7 f3bc aefa 1fbc 679b e7bb 3bd4 e4bb
00000080: 7243 a73c 55b1 acb8 6ad8 8dbc 950a 65bd
00000090: d195 c93c ab3e 79bc ab1b 153d d59b 5ebc
000000a0: 0b1d ecbc 9451 38bd e7bb 7d3b 00fc 373d
000000b0: a197 3dbd 094f 1a3d 27d9 57bd 4250 223d
000000c0: ea89 a63d d51c 3dbd 5089 d5bb 4448 74bd
000000d0: 9c5d 173d 9510 173d a5fe 783d 6867 44bd
000000e0: 030d 0ebc 7ad0 a43c 0edf a9bd ca92 803c
000000f0: 99fe 0b3c f6d4 833d 8e65 78bd 8085 1bbd
00000100: 539d 83bd 0129 f2bd 7de1 41bd 2a80 5abd
00000110: 8fe0 713d 7442 2a3d 7731 28ba 09ff 893d
00000120: 4deb f8bb 4f46 4dbc 4a3c 6fbd ac46 93bd
00000130: 96b8 0e3d 76cc 4dbc 9c43 87bd 7977 ac3c
00000140: 811a 203d f1b9 b5bd fe31 90bd f3c9 413d
00000150: 9c41 c3bd 1c2a 2b3d d54e 7ebd ed63 2cbd
00000160: f180 4b3d f32d 79bd e925 2c3d 048d d03c
00000170: b4e8 99bd eeef 993b 15e1 01bd 7421 913d
00000180: 35de 093d a375 393d 896a 8b3d feb0 b3bd
00000190: 2d74 babd 9ab4 553d 950d debc 4157 423d
000001a0: 8fc4 d43c a5f7 d7bb 9f29 f8bb 97bd 67bd
000001b0: f9b9 6c3d d216 3ebd 637d 223d 79a5 5cbd
000001c0: 2f8c e13c b927 34bd 6946 47bc f258 543d
000001d0: da21 55bd ea3b 23bd d7b2 f2bc f818 013d
000001e0: 9137 81bc 56f4 8a3c 6d9a 713d 6ac6 82bd
000001f0: 6619 91bd 5af3 383c ea50 4abd 2610 1fbd
-0.012008951 -0.09235537 -0.0750422 0.033018116 0.06367484 0.04235457 -0.04635493 -0.0019437039
-0.04594675 0.04346181 -0.05647458 0.016596224 -0.047581866 -0.026503932 -0.08789619 0.012322012
-0.024788579 -0.023894181 -0.09078864 0.043726802 0.008782197 -0.07135029 0.022163454 0.08145434
-0.027592238 -0.023872958 -0.071457475 0.019439097 -0.029758016 -0.009764357 -0.007068086 -0.0069833077
0.020417903 -8.23463e-05 -0.017315108 -0.055918295 0.02460757 -0.015212695 0.03640334 -0.013586958
-0.028822443 -0.044999674 0.0038716735 0.04491806 -0.046287183 0.03767303 -0.052697327 0.03962732
0.08131774 -0.046170074 -0.006516613 -0.05963923 0.036954507 0.03688105 0.060789723 -0.04795018
-0.008670094 0.02011894 -0.082944974 0.015694994 0.0085445875 0.064371035 -0.060643725 -0.037969112
-0.064264916 -0.11824227 -0.047334183 -0.053344883 0.059052046 0.04156728 -0.0006416062 0.06738097
-0.0075964094 -0.01252897 -0.058407106 -0.07191214 0.034844004 -0.012560954 -0.06604692 0.021053063
0.039087776 -0.08873356 -0.07040785 0.047311734 -0.09533998 0.041788206 -0.0620869 -0.042087484
0.049683515 -0.060834836 0.04202834 0.025457866 -0.07515088 0.0046977913 -0.031708796 0.07086459
0.03365918 0.045278203 0.06807429 -0.08773993 -0.0910419 0.05217419 -0.027106086 0.047446493
0.025972633 -0.006590801 -0.007573321 -0.05657729 0.057794545 -0.046408482 0.03967036 -0.053868745
0.027532665 -0.043983195 -0.012162783 0.051842637 -0.052034236 -0.03985206 -0.029626293 0.031517953
-0.015773566 0.016962212 0.058985163 -0.06385501 -0.070849225 0.011288488 -0.049393572 -0.03883376
