model_weights/20epochsConvNet_1_0_3.pth (torch_old, 265874 bytes, 12 tensors)

conv1.weight f4 [10, 5, 4]
00000000: b420 bfbc 20b4 f2bd c689 6a3d bd15 913d
00000010: 1fea 813d d3af 773d 1ccb ff3d 4c9d 59be
00000020: f1e9 56be 68fa 1abe 6bbb 8e3d d1b0 013d
00000030: b9b8 98bd dccc 5f3e 4c12 8b3e 24be 04be
00000040: a852 ca3d a2ff a73e 6a67 0dbe 0037 55be
00000050: 37e3 1c3e 9461 45be 38dc 963d 6717 633c
00000060: 8c47 103e 9d40 a7bc 235c 51be 5d90 d53d
00000070: 83f0 51bd a47a 74bd 1b5f 0fbe 9725 f73b
00000080: aa79 e1bd b23d f2bd b8e4 3cbe 5f54 15be
00000090: 6968 5cbe dd26 12be eb1c 483c 70e8 953d
000000a0: 8c37 283e 3b6f 96bd b94e dbbd 408e 10be
000000b0: 6bd8 5bbe 5314 d73d a4ac 6dbe bb1a 3d3c
000000c0: 6436 2cbe 77fd 153e f2ba ad3d bc17 3a3e
000000d0: 6f89 b1bb eda4 9ebd 74b3 1b3e 9e6a 2d3d
000000e0: 1127 483c c92f 70be 99fe 37be 6da2 2a3e
000000f0: 7f34 15be c150 203c f795 77be 36cc 043e
00000100: a259 0cbe 8a4c 57bd eead e93c 68f7 2a3d
00000110: 50c7 043e 1b2b 173e 6c0d a9bd 74a7 acbd
00000120: c7d3 053c 9c0d 313d da9f 1bbe e886 e53d
00000130: 0ffa e03e 1d4d 453e e08f b63e 27f3 62be
00000140: 7efb 04bd c0e8 0b3d 5e12 34bc 8d37 d5bd
00000150: 10ea 563e a774 053e cb6d 29bd 2ded 40be
00000160: 4ec5 823d 4559 173e 5530 d5bd 02d3 b3bd
00000170: 4e0d 09be 8fe7 623e 4aea 0fbe 10ad f0bd
00000180: 17e2 63be 916f 3abe e978 b4bd 485d f2bd
00000190: a51d d63d 5dc5 f6bb 4635 c33d 4f0d 84bd
000001a0: a917 813d ffca 1c3e afd4 febd 31ee 63bd
000001b0: ebd6 883c 854d 163d 0871 763d 580d 3abe
000001c0: dac0 a93d 3041 db3d 7f87 8b3b e494 f4bd
000001d0: a72a c83d c254 513e 26f7 0b3f 3ec6 3fbe
000001e0: 39b1 04be b4d7 fabd a84a ad3d 83e3 1b3d
000001f0: 1657 22be 8eeb 25be 9572 0dbd e4ca 79bd
00000200: 9409 5cbd 7f62 a9bd d080 2b3e e982 e43d
00000210: c546 bd3d 213e 8cbd 2e32 f43d 6846 84bd
00000220: 0809 813e ccdf 5cbe 8cdd 65be 4699 89be
00000230: c1ae 2e3e bef0 1ebe c650 963d f9db 4a3e
00000240: 4827 d03d 39b2 1b3e 8bd2 1b3c 85af 8fbd
00000250: 2a71 ef3c 3acd 40be 97a4 5f3e e43f a7bd
00000260: 7a48 e7bd cb05 66bd 6479 5b3e e861 303e
00000270: 39fb 89bd 6877 3ebe 3d9d 72bd 899c 9ebb
00000280: 063c 503d 9a68 0ebd 265f 15bd 42f6 5fbe
00000290: a8cd 7f3d 8728 cfbb f510 11bd a355 563d
000002a0: 7203 203d e0b9 b7bd 5652 90bd 0b40 65be
000002b0: e2a9 1e3d 6f7f 883b 9dd3 0b3d ac95 b1bd
000002c0: 116b 033f db7b 513d 336e 173e 4c3c e83e
000002d0: 9acb 58be b983 07be cdda 45be 6fc5 3dbe
000002e0: 9af3 0a3e 1509 5bbd 80ae 323e 4f4e e03c
000002f0: 518a 603d 8996 08bc e9db 113e e9d2 c23d
00000300: 5c41 afbd b534 373e dd0d f7bd 1987 2b3e
00000310: b03d 69be 731b debd 0a6b 38bc 91c9 45bd
-0.023331024 -0.11850762 0.057260297 0.070842244 0.06343483 0.060470413 0.12489912 -0.2125141
-0.20987679 -0.15134585 0.06969341 0.031662766 -0.07457108 0.21855491 0.27162397 -0.12963158
0.09879047 0.3281222 -0.1380898 -0.20821762 0.1532105 -0.19275504 0.07366222 0.01386056
0.14089793 -0.020416552 -0.20445304 0.10427926 -0.05125476 -0.05968727 -0.14001124 0.007542323
-0.11009534 -0.11828174 -0.18446624 -0.14582966 -0.21524204 -0.14272638 0.012213926 0.073197246
0.1642744 -0.07345434 -0.107083745 -0.14116764 -0.21469276 0.105019234 -0.23210388 0.011542018
-0.16817623 0.1464747 0.084829226 0.18173116 -0.0054179947 -0.07746301 0.15205175 0.042338006
0.012216345 -0.23455729 -0.17968215 0.16663523 -0.14570807 0.009784878 -0.24178301 0.12968525
-0.13706067 -0.052563228 0.028525319 0.04173985 0.12966657 0.14762537 -0.08254513 -0.08430377
0.008168167 0.04322587 -0.15197697 0.11207372 0.4394078 0.19267698 0.35656643 -0.22163068
-0.032466404 0.034157515 -0.010990707 -0.10410986 0.20987725 0.1303278 -0.041364472 -0.18840475
0.06385289 0.14780147 -0.10409609 -0.08780481 -0.13383982 0.22158645 -0.14054218 -0.11751759
-0.22254215 -0.18206622 -0.08812124 -0.11834198 0.10454873 -0.0075308518 0.095316455 -0.06447851
0.06303341 0.15311812 -0.1244291 -0.05564708 0.016704043 0.036695022 0.06016639 -0.18169153
0.08288737 0.10705793 0.0042580958 -0.11942461 0.0977376 0.20442489 0.54673994 -0.18727967
-0.1295823 -0.12248173 0.08461505 0.03805877 -0.15853533 -0.16203138 -0.034533102 -0.060984507
-0.053720072 -0.0827074 0.16748357 0.11157782 0.09242014 -0.06847788 0.119236335 -0.064587414
0.25202203 -0.21569747 -0.22447795 -0.2687475 0.17058851 -0.15521523 0.07339625 0.19810475
0.10163742 0.15204705 0.009510647 -0.070158996 0.029228766 -0.18828288 0.2184013 -0.08166483
-0.11293121 -0.05615787 0.21433026 0.17224848 -0.0673737 -0.18600237 -0.059231985 -0.004840438
0.050838493 -0.034767725 -0.036467694 -0.21871284 0.06245199 -0.00632197 -0.035416562 0.052327763
0.039065786 -0.08971 -0.07046954 -0.22387712 0.03873623 0.004165582 0.034137357 -0.08671126
0.51335245 0.05114351 0.14788131 0.45358503 -0.21171418 -0.13233842 -0.19321747 -0.18532346
0.13569489 -0.05347546 0.17449379 0.02738109 0.05481941 -0.008336672 0.14244045 0.09512884
-0.08557388 0.178912 -0.12063191 0.16750754 -0.22777438 -0.10845079 -0.011255989 -0.04828793

conv1.bias f4 [10]
00000000: c292 6ebd 1dd1 ba3d 3992 36be 4d07 483e
00000010: 33b0 88bd d39a 52be b13a 0abd cc6a 10be
00000020: 5781 a7bd c27a e4bd
-0.058245428 0.091219164 -0.17829217 0.19534035 -0.06674232 -0.20566873 -0.03374738 -0.1410324
-0.081789665 -0.11156227

fc0.weight f4 [64, 290]
00000000: 35ad 903c c0fc 013d 7dff d3bc c518 6a3d
00000010: c64d e2bc 0957 e53c 8d89 a13c 9678 aebb
00000020: c4c5 183c bb74 c1bc d52c 7f3c 3c9c 303d
00000030: aa61 893b 01be cb3c 444f 7f3b 9f85 043d
00000040: ae49 45bd eb44 623d dacc 43bd 6ff7 15bc
00000050: 06fc 373d dbf8 67bc 4ede aebc 9899 c53b
00000060: a5bb 183d ba8e 563d dd26 2bbd 0464 393c
00000070: edee 003d 7391 8e3b e0a3 493d c99e 37bd
00000080: 6110 4abc f92a 63bc 934b 20bd 979e 53bc
00000090: 831d 273d cf3e e13c 0dcb 603d bdb0 8dbc
000000a0: 4dfc f8bc 4078 dd3c fde8 df3c 2cad 2cbd
000000b0: 8022 0d3d 7ab4 9a3c df7d 21bd 885d 433d
000000c0: a41f 58bd a22d 2c3d 0a45 3fbc 4be2 6e3d
000000d0: 9406 24bd da10 e73c b135 043c fc01 4fbd
000000e0: cd00 103d ff6d 383d c70f 9e3c de7e 01bd
000000f0: 7431 0bbd cc9f 94bc 7ff1 603d aa86 1bbb
00000100: db8a 26bb 471c a63c da80 20bd a79c f9bc
00000110: a8de 11bc 5eec 42bd 65d0 553c d643 00bd
00000120: b0ce 653d b27a 0cbc 87b2 e83c 2aed 51bd
00000130: 964c 423d 7311 2e3d 1e54 e5bb ff7a 2d3d
00000140: 37ad 70bd d669 3e3d 9a9c bebc 242f 3e3d
00000150: 1556 21bd 6500 4b3c b75f bfbc 1dc8 1abd
00000160: 86ae 013c 2eff 203c 33a0 3b3d 2cc9 61bd
00000170: 8937 31bd 6ae8 cb3c 9f37 fdbb 21e0 d3bb
00000180: 6d20 dcbb e278 3e3d 90fe ce3c a66f aa3c
00000190: f675 45bd a642 8b3c 078c e9bc dddb 77bd
000001a0: 658d c63c 5318 58bd d80e debc a33e 8abc
000001b0: 4750 3b3d 8636 47bd cd46 46bd 059c c73c
000001c0: e00e 85bc a5b2 453b c278 16bd 4323 52bc
000001d0: decb 3dbd 4f4c e2bc abe7 083d e100 50bc
000001e0: 5ff3 8a3c b314 debc b2ce 6eba 3b7d a838
000001f0: 22a6 4fbd 11fc cc3b b313 33bc dad0 3fbd
00000200: cd5c 843c e93c 10bd bbbe 23bd 3389 023d
00000210: fc9e 8b3b 5b65 1dbd bc48 403d c467 543c
00000220: 8204 fc3c 2317 9b3c ed40 463d c566 283d
00000230: b623 333d 8316 f2bc 1a71 d2b9 9d40 3bbd
00000240: 9dbd 213d 63ff 253d 6b40 9c3c fbb1 24bd
00000250: a953 253d dd9c e53b 9785 d5bc 3da9 01bd
00000260: ab64 973c ed90 233c e4e7 663c 3b13 343d
00000270: cded 19bd 45eb ae3c a84b 1b3d 5614 f6bc
00000280: 19ed 393d 4fa1 86bc 247d bf3c 4efb 4ebd
00000290: 49c8 69bc 235b e03c 0915 223c c406 90bc
000002a0: aded 6d3d 9997 0f3d 7a34 21bd b818 aa3c
000002b0: 6479 cd3c 1abe b739 a9a3 e03c 4a40 90bc
000002c0: d024 6fbd 62cc 103c acba 52bd 8f02 22bd
000002d0: 16ad 1b3d d0fe a9bb 3b3a 67bd 47c9 2e3d
000002e0: 3d4c 323b 7506 1f3d 4b57 e53c beab 5cbd
000002f0: dd74 2e3c 63bf 1cbd 3cd9 683d 420d ea3b
00000300: b230 003d 2097 01bd 2106 803c e1ef 623d
00000310: 0675 edbb 1c13 0a3c cb84 5e3d 5059 a03c
00000320: 63dc 64bd 9208 ae3b 40d4 3a3d 6053 52bc
00000330: b783 4fbc 5d77 133d 9200 833c bad4 ecbc
00000340: 6404 d8bb c0c4 5fbd 1d69 123d 8500 62bd
00000350: c466 bebc ca7e 2f3d 7b1e eabc 5276 0d3d
00000360: 82e5 ca3b 7de9 1f3d 96db c33b 3764 913c
00000370: 2b06 7abc 3454 933c 7d21 a03c 2c72 6d3d
00000380: 4d67 2dbd 48b4 173d 3288 693d 1643 153d
00000390: 448d 9cbc 19c5 20bc 1929 a1bc 625c f43c
000003a0: 590e cb3c 274c 333b a6d8 44bd de57 7abd
000003b0: e3a0 0f3d 9c6d 443d 6b2c 0d3d eb8e 5cbc
000003c0: 8193 7e3c df7b 84bc 49c2 73bc dc9a c93c
000003d0: f96d 74bd 2f67 203c c21d adbc ae9f 1c3d
000003e0: 7e8d 16bd bf29 33bd 27c3 2bbd 799b c8bc
000003f0: 7d17 1a3d 9ec8 03bd f58e 39bd e622 603d
0.017660717 0.03173518 -0.025878662 0.05715253 -0.027624976 0.027995603 0.01971891 -0.0053244336
0.009324495 -0.023615232 0.015574654 0.043117747 0.0041925507 0.024870874 0.0038957158 0.032353994
-0.04816597 0.055241507 -0.047802784 -0.009153231 0.044918083 -0.014158453 -0.021346238 0.0060302727
0.037288327 0.05238221 -0.04178511 0.0113153495 0.031477857 0.004350835 0.04922855 -0.044829164
-0.012333007 -0.013865226 -0.039134573 -0.012916229 0.04079963 0.02749577 0.054881144 -0.01729619
-0.030393744 0.027034879 0.027332777 -0.042157337 0.03445673 0.018884886 -0.03942668 0.04769662
-0.05276455 0.042035706 -0.011674175 0.05832128 -0.040045336 0.028206278 0.008069442 -0.050539
0.035157014 0.045026775 0.019294633 -0.03161513 -0.03398271 -0.018142603 0.05491781 -0.002373139
-0.0025412354 0.020277156 -0.039185382 -0.030470205 -0.008903183 -0.0475887 0.013050173 -0.031314693
0.056105316 -0.008574175 0.028405441 -0.051251568 0.04743632 0.04249711 -0.006998553 0.042353626
-0.05875894 0.04648765 -0.023268033 0.046431676 -0.039388735 0.012390231 -0.02336107 -0.0377885
0.007915145 0.009826465 0.045807075 -0.055123493 -0.043265853 0.024891097 -0.007727578 -0.006465927
-0.0067177326 0.046502 0.02526787 0.020805191 -0.0482082 0.016999554 -0.028509153 -0.060512412
0.024237344 -0.052757572 -0.027106687 -0.01687557 0.045730855 -0.048635982 -0.048407365 0.024366388
-0.016242445 0.0030166295 -0.036736257 -0.01282579 -0.046337 -0.027624277 0.03342406 -0.012695522
0.016961752 -0.02710948 -0.00091097795 8.03419e-05 -0.050695546 0.0062556346 -0.01092999 -0.046830036
0.016157532 -0.03521434 -0.039976817 0.031869125 0.004260896 -0.03842674 0.046944365 0.012964193
0.030763868 0.01893193 0.04840176 0.041113634 0.04373523 -0.02955175 -0.00040138589 -0.045715917
0.03948747 0.04052676 0.019073686 -0.040208798 0.040362988 0.007007225 -0.026064677 -0.03165554
0.01848062 0.0099832835 0.014093373 0.043963652 -0.0375803 0.02135242 0.03791395 -0.030038994
0.04539213 -0.01643434 0.023375101 -0.05053263 -0.014268943 0.027387207 0.0098927105 -0.017581351
0.058087993 0.035056684 -0.039356686 0.02076374 0.025082298 0.00035046117 0.02742179 -0.01760878
-0.058384717 0.008837791 -0.051447555 -0.03955322 0.038006864 -0.0051878467 -0.056452017 0.04267242
0.0027206086 0.038824517 0.027995726 -0.053874724 0.01064798 -0.038268458 0.056847796 0.0071426937
0.03129644 -0.031638265 0.015627922 0.055404548 -0.0072466163 0.008427408 0.05432586 0.019573838
-0.05587424 0.0053110803 0.045612574 -0.012837261 -0.012665681 0.036002506 0.015991483 -0.02891003
-0.0065923203 -0.054630995 0.035744775 -0.055176277 -0.023242362 0.042845525 -0.028578987 0.034536667
0.0061919102 0.03904103 0.0059771044 0.017747981 -0.01526026 0.017984487 0.019547218 0.05797021
-0.042334843 0.037037164 0.05701465 0.03644093 -0.01911033 -0.009812617 -0.019672917 0.029829208
0.024787115 0.0027358623 -0.048058175 -0.061118953 0.035065543 0.047956094 0.03446619 -0.013461809
0.015538097 -0.016172348 -0.014877864 0.024609976 -0.05967519 0.009790226 -0.021132354 0.03823822
-0.03675603 -0.043740984 -0.04193416 -0.024488198 0.037620056 -0.032173745 -0.04530235 0.05472078

fc0.bias f4 [64]
00000000: 9904 08bd d91c 283d 822f a7bc c49d 66bd
00000010: 793a 6cbd 231c f53c 662e 423d 6861 833c
00000020: fc27 de3b e81f 37bd 0dea 32bd 4998 d53a
00000030: 4adc 1cbd 9e95 26bd c3d7 81bd dc86 8dbc
00000040: 9422 bdbc ac0a 073d 0a3e 003d 21d5 ba3c
00000050: e121 443c 6219 3b3d 9b26 e5bc 4eea 383b
00000060: 65dc d23b aad7 05bd 6278 973c 8cb0 513d
00000070: 3e89 58bc 916b 9cbc 363d 143c f6ca 92bc
00000080: c697 423c 6bc3 63bd ac83 a1bc 8925 3a3d
00000090: 4d6b 23bc 024c 1a3d 6fda 483d 0653 4a3c
000000a0: 8f22 1a3d 1546 a8bc 7fb1 393b 0e6d b2bc
000000b0: 6442 0b3d 54a8 a1ba 32a7 813b faf7 453d
000000c0: cfa1 283d 0e5f 4a3d 8359 2c3c 9a4d f83c
000000d0: 0276 52bc ce02 44bd 40dd 443d ddd7 1f3d
000000e0: 3e05 b0bb fb7b 1ebd c86e 7bbd d47f 41bd
000000f0: 9351 c93c 191e 383d 80a9 163d 6dcc 14bd
-0.03320751 0.041043136 -0.020408396 -0.0563028 -0.05767295 0.029920643 0.04740753 0.016037658
0.006779669 -0.044708163 -0.04368024 0.0016295995 -0.03829602 -0.04067003 -0.063399814 -0.01727622
-0.023087777 0.032969162 0.031309165 0.022806706 0.011970968 0.045678504 -0.02797251 0.0028215828
0.0064349645 -0.032676376 0.01849002 0.05119376 -0.013216315 -0.01909426 0.009047797 -0.017919045
0.011877006 -0.055606287 -0.019716106 0.045445953 -0.009974313 0.037670143 0.04903644 0.012348896
0.037630614 -0.02054123 0.0028334556 -0.021780517 0.033998862 -0.0012333491 0.003956699 0.048332192
0.041169938 0.049407057 0.010519388 0.03031044 -0.012845518 -0.047854237 0.048062563 0.039024223
-0.0053717187 -0.038692456 -0.061384946 -0.047241047 0.02457503 0.04495058 0.03678274 -0.036327768

conv2.weight f4 [10, 1, 4]
00000000: 35c7 e13e c46c 083f faf3 7cbe b154 e8be
00000010: ae73 e63e c4d2 fb3e f905 7b3e a2a9 073e
00000020: a2f5 f8be a1dc d8be 2ee7 a0be acd1 e33e
00000030: 08a1 f43c 861a ee3e 948f 063e c912 cebe
00000040: ad07 fcbe a634 eabe 7545 cd3e 810f 8e3e
00000050: 42f2 75be ee5f 4a3e a94c ed3d b246 503d
00000060: 0155 e13e 116d 07bf 2c91 64be 5006 3cbd
00000070: a633 cdbd 6526 093f 712e 8a3e deb7 ecbe
00000080: 3cbc 0d3f 90fc fbbe a38b fbbe 0f85 e03d
00000090: 9f68 2c3e 4cf5 893e 58d8 133f 88e8 ae3d
0.44097295 0.53290963 -0.24702445 -0.45377114 0.45010132 0.4918424 0.24513997 0.13248304
-0.48624903 -0.42355826 -0.31426376 0.44495904 0.029861942 0.4650461 0.13140708 -0.40248707
-0.49224606 -0.45743293 0.40092054 0.27746204 -0.24018195 0.19763157 0.115868874 0.05084867
0.44010165 -0.529008 -0.22321004 -0.045904458 -0.10019617 0.5357421 0.26988557 -0.4623403
0.5536535 -0.49216127 -0.49129972 0.10962879 0.16836785 0.2694496 0.5775199 0.085404456

conv2.bias f4 [10]
00000000: e7df c5bd 1d91 83be b0f1 bb3e 7032 c3bd
00000010: c2d4 b63e 5c5d bc3e 9dff 903e 53e3 c8be
00000020: fa4b b53e 54b9 99bd
-0.096618466 -0.2569665 0.3670783 -0.095311046 0.35709196 0.36789978 0.28320017 -0.39235935
0.35409528 -0.07506052

fc1.weight f4 [128, 300]
00000000: 6bce 2d3d cf17 efbc 9b8d 16bd 2abf 3a3c
00000010: b902 7a3c 06f7 4e3d d346 09bd ae48 bebc
00000020: 9bd6 013d e823 fbbc cded 00bd e05e 4ebd
00000030: f81d 653d b517 3f3d 9ee5 b2bc e918 523c
00000040: 1f1a 5fbd 895e d13c 34b4 16bd d57d 30bd
00000050: c3e6 14bd 5e47 3bbd 4553 253c 2bbc 04bd
00000060: 26c1 183d cac2 a9bb b9a4 06bc 83ba 01bd
00000070: a191 073c 93cd 45bd 53ed 9dbc fef3 583d
00000080: 150b 663d fab5 543a 0bb8 fcbc 5197 eebc
00000090: 0325 49bd 4c99 c33c 5f73 bfbc a666 0abd
000000a0: 9dcc d0bc 73da 713c 80c6 dd3b 0435 92bc
000000b0: fd0a 103d f40c 39bc dbaa 5bbc c0c0 2b3d
000000c0: 3d4e 4a3d 2f01 663d 8a38 053d 2faf 12bd
000000d0: 5a6d 853c 8bd2 52bd 854e c43c 0cb9 553d
000000e0: 5138 1ebd ad94 903b 10e6 dfbc 60fd 5b3d
000000f0: 7956 ddbc e66e fbbc 57bc a9bc 6f60 2a3d
00000100: 13d5 0c3d d1a5 1d3d b53d fabc 1b4f d1bc
00000110: e9a3 8a3c 4729 703d 9c82 45bd 15f4 383d
00000120: b364 bb3b f2c6 113d e558 8dbc ad6e 1a3c
00000130: 0773 ff3c a5ec 1f3d b446 453d 83bd 9ebc
00000140: 2683 d13b 6203 38bd 13bf f0bc d237 9e3c
00000150: 6379 efba 82b9 96bc 3d8f 3f3c b4e3 9bbc
00000160: 0bac 443d 5366 00bd 474c e33c 647b b9bc
00000170: 0175 f0bc 4665 f13c 64c7 70bb 2772 8cbc
00000180: f2c6 fbbc 0332 18bc 1af3 813c 00d8 1cbd
00000190: cf7d dfbc a202 af3c 52b3 1a3d c768 5f3c
000001a0: 6a0a 133d a9e8 033d e03b 343d 7f90 a0bc
000001b0: 7cf8 ec3c 419d 0f3d 4ddb 50bd a5fc 373d
000001c0: 3951 58bc b2bf 1a3c 324e fabc 63b4 d7bb
000001d0: a433 323d 703b 63bd 6514 33bd 8e64 603d
000001e0: 2f34 abbc 1f00 6dbd 6169 9b3c a38a 5cbd
000001f0: 8747 f33c 3a74 c1bb b8b2 b43c 3a68 bd3b
00000200: 9fe0 10bd 0039 d13c f9a8 343d 957e 82bc
00000210: 9c7c 00bd deea 0f3c 17d7 19bd 875e babc
00000220: b8e6 863b 72e8 353d aaca 523d 18d4 143d
00000230: b9b6 20bd b134 9abc f394 e8bc 6731 bc3c
00000240: 7883 533c 7f40 5d3c 78bc 49bc 262c 8dbc
00000250: 1745 d6bc a2e9 bd3a ede7 ad3c 87c9 193b
00000260: 21b9 5cbd cc7b 783a a790 f83b da93 eb3b
00000270: 4600 133c e54e d0bc d37d 66bc 1de2 14bd
00000280: 8153 663d c5df c8bc b437 c33c 0aad a33c
00000290: 8518 283d cff6 d73b 7da3 36bd 1313 853c
000002a0: ea53 453d 0db0 1f3d a3ff 2f3d 9661 5d3c
000002b0: 46ef 993c c421 8a38 8765 91bc ed26 223c
000002c0: b792 f2bc 5d48 bbbc c9d8 f93c 154a d43c
000002d0: 6ab9 03bd aa0f be3c ef96 91bc 8803 e03c
000002e0: afbe 4f39 06b9 f0bc 8627 f03c de27 13bd
000002f0: d7ef 3b3d 3c6e 58bc d109 26bc f29d 2aba
00000300: e414 33bd 9ae9 b23c 53a5 1bbd 9847 3f3d
00000310: 2f6f 523d d222 0f3d ead0 63bd 54b5 c5bb
00000320: 53a7 243d be24 5e3c 8202 5fbd a3bf ea3c
00000330: b928 c4bc 83c2 42bd c81d a3bc 07da f7ba
00000340: 7820 0a3d 5c96 09bc 8d3f 86bc 7e5e 333d
00000350: 61a4 32bd 953e 043d b3ad 11bc 3e52 533d
00000360: 06a1 33bc a5af ac3a 7ead 413d be61 5ebc
00000370: 4cb5 4abd e34d 553d aeaa e23c c099 1e3c
00000380: c5c1 8f3c bd4f b2bc dc06 4ebc 835c 1bbd
00000390: e840 853c abd5 69bd 3346 dabc 4bea 83bb
000003a0: 4e0e 39bd a5cd 79bc 5b18 d63b 3a35 cdbc
000003b0: 95b8 5bbb 0a89 0fba ae68 8b3c 9eff 3a3d
000003c0: ff9c 753b 194c 49bd 9f50 043d ae08 a93c
000003d0: cde0 82bc 6c0e 243c ae0f 26bb 88a4 3c3d
000003e0: 36b8 16bd d875 60bd 8787 733d 54a5 8c3c
000003f0: 28d1 babc cda8 33bc 4bc1 33bd 3fdd 623d
0.042433184 -0.029186158 -0.03675614 0.011398116 0.015259438 0.05052855 -0.03351481 -0.023228016
0.031698804 -0.03065677 -0.031476784 -0.05038345 0.055936784 0.04665347 -0.021838006 0.012823322
-0.05446827 0.025557773 -0.03679295 -0.043088753 -0.036352884 -0.045722358 0.010090654 -0.032406013
0.037293576 -0.0051806914 -0.008217984 -0.031672012 0.008274467 -0.048291754 -0.019278204 0.052967064
0.056162912 0.0008114275 -0.030849477 -0.029124888 -0.049107563 0.023876809 -0.023370443 -0.0337893
-0.025488192 0.014761555 0.006768048 -0.017847545 0.03516673 -0.011294592 -0.013407434 0.041931868
0.04939102 0.056153473 0.032524623 -0.0358116 0.016287494 -0.05147032 0.023963222 0.052178428
-0.038627926 0.004412255 -0.027331382 0.053708434 -0.027018772 -0.030692529 -0.02071969 0.041595872
0.03438289 0.038488213 -0.030547002 -0.025550416 0.016923862 0.058633115 -0.048220262 0.04515465
0.0057187914 0.03559012 -0.017254302 0.009425801 0.031182779 0.03904404 0.04816313 -0.019377476
0.006393808 -0.0449251 -0.029387986 0.019313727 -0.0018270429 -0.018399004 0.0116918655 -0.019029476
0.048015635 -0.031347584 0.027746333 -0.022641845 -0.029352667 0.029467236 -0.003673994 -0.017144276
-0.030734513 -0.0092892675 0.01586299 -0.03829193 -0.02728167 0.02136356 0.03776867 0.013635821
0.035898603 0.032204304 0.044002414 -0.019600151 0.02892708 0.03506208 -0.05099039 0.044918675
-0.013202959 0.009445118 -0.030554865 -0.006582783 0.04350628 -0.055476606 -0.04372062 0.054783396
-0.020898907 -0.057861444 0.018971147 -0.05384315 0.029697193 -0.005903748 0.022057876 0.005780247
-0.035370465 0.025539875 0.044106457 -0.0159295 -0.031368837 0.008784024 -0.03755864 -0.022750152
0.0041168593 0.04441113 0.051462807 0.03633508 -0.039236758 -0.018823953 -0.028391337 0.022972776
0.012909763 0.013504147 -0.012313001 -0.017232966 -0.026155991 0.0014489184 0.021228755 0.0023466067
-0.05388749 0.00094788964 0.0075856033 0.007189256 0.008972233 -0.025428245 -0.014068085 -0.03634845
0.05623198 -0.024520764 0.023830272 0.019979972 0.04103901 0.006590701 -0.04458951 0.016244447
0.04817573 0.038986254 0.042968404 0.013512036 0.018790852 6.586642e-05 -0.017748607 0.009896976
-0.029610975 -0.022861654 0.030498879 0.025914231 -0.032159247 0.023200829 -0.017772166 0.027345434
0.00019812094 -0.029385101 0.029315721 -0.035926692 0.045883026 -0.013209876 -0.010134176 -0.0006508521
-0.043721095 0.021839906 -0.037999462 0.046699136 0.051375564 0.034945317 -0.055619158 -0.006033579
0.040198635 0.013558565 -0.05444575 0.028655833 -0.0239452 -0.047548782 -0.019911662 -0.0018909582
0.03372237 -0.008397665 -0.016387725 0.043791287 -0.043613795 0.032286245 -0.008891511 0.051592104
-0.010963684 0.0013174905 0.047284596 -0.013573108 -0.049489304 0.05207623 0.027669277 0.009680212
0.017548451 -0.021766538 -0.012574878 -0.037930023 0.016266301 -0.057088535 -0.026644802 -0.0040257326
-0.045179658 -0.015246783 0.006533665 -0.025049794 -0.0033526768 -0.00054754375 0.017017689 0.04565393
0.003747761 -0.049144838 0.03230345 0.020634022 -0.015976334 0.010013204 -0.0025338936 0.046055347
-0.03679677 -0.054799885 0.05945542 0.017168678 -0.022804812 -0.010965538 -0.04388551 0.055386778

fc1.bias f4 [128]
00000000: 08a3 db3c f021 42bd d1fc d9bc f78c 2e3d
00000010: 617b e93c d4ba 2c3d 5cd4 163d 4f00 3a3d
00000020: f551 17bd 34a6 4fbc eba5 aebb 4a98 32bd
00000030: a8a4 3a3d 5508 3abd b2e5 f33b a528 61bd
00000040: 709c 81bc cf7b ce3c 564d 183d 2f29 23bd
00000050: f43e 243d e967 713c 832e d7bc 01ce 26bd
00000060: 43e2 c6bc 449c 1dbd 5a54 34bc 2ac1 6cbd
00000070: 8b45 853d 41c3 893c 33b5 0c3d 4c9d e73b
00000080: 4970 2e3d 39fa 0dbd 273d 1a3c 5b07 d73a
00000090: 4ada 643d d4f3 353d 167d 153c bc41 33bd
000000a0: 57b3 5a3c c3b9 543d ee72 493d 56ec bf3c
000000b0: a6d6 973c 0330 d33c 273f 283d 4e50 343c
000000c0: 04ef 433d acfb 963c b77c 813d 2303 8e3c
000000d0: 7875 673c 3008 46bd 5b45 973c bb37 acbc
000000e0: af8a 2e3d b668 95bc ba44 703c 54b6 53bd
000000f0: db6b 463d 06e1 313d c1cb 21bd 9bb5 29bd
00000100: 99d5 2dbc 59e7 0dbc e76c adbc 4fc2 023d
00000110: 451a 803d c60f d53b 3a97 2c3c bb1d 5bbd
00000120: 5a3f 47bd f69e d53a 2ecf 4f3c b529 36bd
00000130: 00e4 18bd 597a 933d 906c d5bc a762 dbbb
00000140: 619c 19bd 9bb1 12bd d90d 1bbd 4e9c 19bd
00000150: 7b42 3fbc c673 94bb 9c10 d0bb 04b3 343c
00000160: 4d32 1dbc 14e1 143d 8038 fa3c 3de6 92bc
00000170: 158e ad3c 274a 0f3d 0c54 0c3d e02c 513c
00000180: e38f 53bd 149c 743b 5b03 2c3d 90b9 c0bc
00000190: 1454 0f3d a932 52bd c275 07bd 8d0d a23c
000001a0: 1922 0d3c 36db e53c 9f19 a83b 968c 823c
000001b0: a44e 4ebc 437d 48bd 4f35 bb3c 7966 a23c
000001c0: 1dd0 3b3d ae3a cd3c 1d4a 9ebc 988c e8bb
000001d0: 1da0 213d 6b55 023d 89da d7bc f117 abbb
000001e0: 2547 fcbc 9a09 d4bc 9acc 66bd 733e ab3c
000001f0: b76f 333d bb4a 81bd 04df d33c ded1 1d3d
0.026811138 -0.047395647 -0.02660981 0.042614903 0.028501214 0.04217036 0.036823615 0.04541045
-0.036943395 -0.012673903 -0.0053298376 -0.043602265 0.045567185 -0.045418102 0.0074431533 -0.054970402
-0.015821666 0.02520552 0.03718313 -0.039834198 0.0400991 0.014734247 -0.026267296 -0.040723804
-0.024277812 -0.038479105 -0.011006439 -0.057801403 0.06507405 0.016816737 0.034352493 0.007068312
0.042587552 -0.03466246 0.009413994 0.001640539 0.05587224 0.044421986 0.009124061 -0.04376386
0.013348422 0.05193497 0.04918187 0.023428123 0.01853497 0.02577973 0.04107585 0.011005474
0.047835365 0.018430553 0.063226156 0.01733548 0.014127128 -0.048347652 0.018465688 -0.021022668
0.042612728 -0.018238407 0.014664823 -0.051687554 0.048442703 0.04342749 -0.039500955 -0.041432958
-0.010610008 -0.008661115 -0.021170093 0.03192359 0.062550105 0.0065021245 0.010534102 -0.05349515
-0.0486444 0.0016297984 0.012683673 -0.04447337 -0.037326813 0.0720107 -0.026052743 -0.00669511
-0.03750265 -0.03581391 -0.037855003 -0.03750258 -0.011673565 -0.004530403 -0.0063496362 0.011029009
-0.009594512 0.036347464 0.03054452 -0.017932052 0.021185914 0.034982827 0.03425984 0.012767047
-0.051650893 0.0037324475 0.041995388 -0.023525983 0.034992293 -0.051317845 -0.033071287 0.019781852
0.008614087 0.02805863 0.0051300074 0.015936177 -0.012591992 -0.048947584 0.022852568 0.019824253
0.04585277 0.025052395 -0.01932245 -0.007096838 0.039459337 0.031819742 -0.026349323 -0.00522136
-0.030795643 -0.025883485 -0.056347467 0.020903802 0.04380771 -0.06313082 0.025863178 0.038530223

fc2.weight f4 [64, 128]
00000000: c9db 34bd 9733 9c3c 8ec2 bcbc 3c40 cbbc
00000010: d16a e3bc 8c2c 143d 87d9 333c 4c9a de3c
00000020: 95dc 973d 3bfc 883d b36e 58bd 79f3 8e3d
00000030: 3530 a2bd 48ec dcbc a7a1 90ba 1917 38bd
00000040: cb17 953c cf73 afbd 5aa6 b4bd 8d5c 323d
00000050: c717 373d 97e0 a3bd 1933 67bd a38e 493c
00000060: 5240 16bd cfcb c4bc 0892 173d 063f 6a3d
00000070: a735 8d3d c375 cebc 9373 783c 076b a1bd
00000080: 883e 2f3d a918 523d b634 2ebd b676 0abd
00000090: 0332 b33d eead cebb 9378 1abd 35a7 933d
000000a0: c8c7 19bd 8c0e 223c 7011 92bd 1abe 333d
000000b0: 4a0f 3fbd 849d bb3c d678 103d 64cf c1bb
000000c0: 3533 43bd 0686 4c3d e660 763d 5d0b 423d
000000d0: 14d3 6e3d adb0 df3b d178 4e3c a560 20bc
000000e0: e5c3 a43d 8c5c d4bc 9f1d acbd 934c 79bd
000000f0: 29d6 f03b 3c10 6abd 0f1e 0ebd 7324 a1bd
00000100: fed0 e33c 524a 643d d514 2f3b d447 a53d
00000110: adfe 98bc 25ff 983d 5ec6 88bd 8deb 0a3c
00000120: 381c 813c 924f 91bd f4c9 553d 6a94 923d
00000130: 0e8a 2abd 4779 fabc 2423 1ebd 0d65 3ebd
00000140: 4278 08bd 2945 8b3d c7b0 a83d 2b52 adbb
00000150: a0cb e33b d7d2 09bd 741a acbd 7d63 08bc
00000160: bca3 4ebd 228a 6abc a543 c9ba 557b 6f3d
00000170: be79 b1bd 5801 233c a3c5 62bc 56ce 833d
00000180: 00be 6b3c 0934 003d 08a4 783d b178 13bd
00000190: 3a4e 6b3c f07f 98bd 2635 9d3d df0f b23c
000001a0: 659a 633b f9c5 723c 67a6 cdba 0778 443c
000001b0: c6ad 1bbd 090f 9e3b ff64 33bd e969 1ebd
000001c0: bb99 f63c 9298 9b3d b8cc 1ebd 6bad a73d
000001d0: 9844 8dbc ca28 a4bd 6fa0 9e3d 99a7 e2bc
000001e0: 2904 253d 3ea4 843d f22c 53bc 9505 6ebd
000001f0: f81c 453c 8657 023d 3dbe 683d d429 80bd
00000200: 4e69 0e3d 8813 2ebd 5eb7 2a3d dc75 9e3d
00000210: 0149 b8bc e184 893c 4a71 623d 8813 653d
00000220: 4c5f 17bd 77d0 983d dd37 04bb d222 85bd
00000230: 4064 3e3d 082a 74bd bb76 183c 2816 503c
00000240: 166f 033d 5043 35bd 6a10 62bc 5ad0 e13c
00000250: 283a 9dbd 2ce1 a83c 0d3c b63c fefe 62bd
00000260: cbc0 0fbd fc9f 2fbc 9e73 e23b b46f 37bd
00000270: 8789 63bd 75fd 92bc 71ad 7abd c9fa 5dbd
00000280: beb3 beb9 3ad5 8ebd 6a57 5dbc a2b5 443d
00000290: fdcb 2a3d ba90 95bc 7b0d 2fbd 268b 38bd
000002a0: cf2f c43c 59bf d83c c9a6 143d 49c5 82bd
000002b0: 759b afbd 64c2 94bc 7bdd 843d d3b4 35bd
000002c0: 96e7 173d 2109 ab3d 9fbd 7a3d 6232 d43c
000002d0: 50a8 9bbc ba9b 3a3c 6191 60bd db33 093d
000002e0: 54d3 a2bd 071d 09bd 4d86 efbc e30f a63d
000002f0: 2592 a5bd 59cb 143d 724c 05bd 585a babb
00000300: 686d 3e3b 2c20 173b 611a 8f3d 35fd 5c3d
00000310: f638 9abd 7781 a0bd e0be 6dbd 7f2a ab3d
00000320: f910 14bd ea90 ac3d d85c 40bd 3ca3 f3bc
00000330: a104 cbbc 2789 62bd 9f0a 4b3d c471 bcbc
00000340: e9e3 9c3d 9cff 8ebc 87f2 803d 2884 8abc
00000350: 952b 14bd 2883 4f3d 7701 01bd 9c19 0abd
00000360: 6d5f 823d 3fa2 ae3c 4f20 363d f811 abbc
00000370: 2618 c3bc 76de b0bd 2339 3fbd 6625 b1bd
00000380: 6b1a a73d 0935 71bd 3fae d8bc 21f2 adbd
00000390: ac47 b3bd 47c0 a4bc f489 203d f8a5 073c
000003a0: 251d 51bc 3a63 1c3d 4a1b 943d b53d 6e3d
000003b0: deeb 9ebd 840f 073b 6eb5 563d a87b 1ebc
000003c0: 0dc4 8a3c f32b 4abd 2466 7c3d 5d5a 7fbd
000003d0: dce7 83bd 0e10 95bd 4af5 5bbd 367d 5dbd
000003e0: 7f5b 813d 4aab 77bd 768b 263c e9c8 aebd
000003f0: 3ea5 803d bddc 743d 7348 b7bc 9c17 1abd
-0.044154916 0.019067569 -0.02304199 -0.024810903 -0.027760895 0.036175296 0.0109771555 0.027173184
0.074151196 0.06688734 -0.052839946 0.069800325 -0.07919351 -0.026968136 -0.0011034504 -0.044943903
0.018199822 -0.085670106 -0.088207915 0.043545295 0.04470041 -0.080018215 -0.056445215 0.012302074
-0.036682434 -0.024022965 0.0370045 0.05718901 0.06894999 -0.025202638 0.015164274 -0.07881742
0.042784244 0.05129305 -0.042530738 -0.033804618 0.08749773 -0.006307355 -0.037712645 0.072096266
-0.037544042 0.009891164 -0.07132232 0.043882467 -0.04664544 0.022902258 0.035271488 -0.0059146155
-0.047656257 0.049932502 0.060151003 0.047374118 0.05830677 0.0068264813 0.012602047 -0.009788667
0.080451764 -0.025923036 -0.08404087 -0.060864042 0.0073497486 -0.05714439 -0.034696635 -0.0786828
0.027809616 0.05573494 0.0026715298 0.08070341 -0.018676126 0.0747054 -0.066784605 0.008479011
0.015760526 -0.07095255 0.05219455 0.07157214 -0.041635565 -0.030575408 -0.03860773 -0.04648309
-0.03331781 0.06800301 0.082368426 -0.005289336 0.006951764 -0.03364834 -0.08403483 -0.008324501
-0.050449118 -0.01431516 -0.0015355243 0.058467228 -0.086657986 0.009949051 -0.013841066 0.0643584
0.014388561 0.031299625 0.060703307 -0.036003772 0.014361912 -0.07446277 0.07676153 0.021736084
0.0034729477 0.014817708 -0.001568985 0.011991507 -0.03800752 0.0048235697 -0.04379749 -0.038675223
0.030102601 0.0759746 -0.038769454 0.08187374 -0.017244622 -0.080155924 0.07745444 -0.027667807
0.04028717 0.06476639 -0.012889134 -0.058110792 0.0120308325 0.03182175 0.05682205 -0.06257978
0.034768395 -0.042499095 0.04167878 0.07737324 -0.022495748 0.016786994 0.055283822 0.05592683
-0.036956117 0.074616365 -0.0020174899 -0.06500782 0.046482325 -0.059610397 0.009305651 0.012700595
0.03208836 -0.044253647 -0.013797859 0.02756517 -0.07677108 0.020615183 0.022245431 -0.05541896
-0.03509597 -0.010719296 0.0069107553 -0.044784263 -0.05555108 -0.017943123 -0.061200563 -0.054194245
-0.00036373542 -0.069742635 -0.013509611 0.04802478 0.041698445 -0.018257488 -0.042737465 -0.045054577
0.023948578 0.02645843 0.03629187 -0.063852854 -0.08574573 -0.018159099 0.064875565 -0.0443619
0.037086092 0.083513506 0.061215993 0.02590293 -0.019001156 0.011389667 -0.054826144 0.03349672
-0.07950464 -0.03347495 -0.029238844 0.08108499 -0.080845155 0.03632674 -0.032543607 -0.0056870393
0.002905691 0.0023059947 0.06987453 0.053952415 -0.07530396 -0.078371935 -0.05804336 0.08357715
-0.036149 0.08426078 -0.046963543 -0.029740922 -0.02478248 -0.05530658 0.049570676 -0.023003466
0.07660658 -0.017455868 0.062962584 -0.01690872 -0.036174376 0.05066219 -0.031495538 -0.03371583
0.06365857 0.0213176 0.044464406 -0.020882592 -0.023815226 -0.08636181 -0.04668535 -0.08649711
0.08159336 -0.05888847 -0.026450275 -0.08493448 -0.08753905 -0.020111216 0.039194062 0.008279316
-0.012763296 0.038180567 0.072317675 0.058164317 -0.07759832 0.0020608613 0.05241912 -0.009673037
0.016939187 -0.04935832 0.061620846 -0.062342037 -0.06440708 -0.07278453 -0.053700723 -0.05407449
0.063162796 -0.06046609 0.010165086 -0.08534414 0.062815174 0.059780825 -0.022373414 -0.037620172

fc2.bias f4 [64]
00000000: 01da e13c 3d3a b2bd ea25 993e bbc6 9b3e
00000010: 6db0 073e 40dc 393e cc89 5abd 1508 83bd
00000020: d7df 16be 0ca9 47bd 8269 e5bd a721 7bbd
00000030: 1f5c d43d c6dc 54bd 47bd c0bd dfe9 203e
00000040: 7753 95bd 762a 88bd c607 423e 2159 41bd
00000050: 5a20 573e ff4e 84bd 8221 b8bd 076a 0ebd
00000060: f99d 98bd edfd 00be 9b63 79bd 85ab 0a3c
00000070: f7ff d3bc aa9f abbd 545a 98bd df7c e7bd
00000080: 3413 81bd 28be c63a bc7e 653e 7c07 1a3c
00000090: 146e 893e be4e 643e f382 a2bd 9968 e6bd
000000a0: 8763 973e 7b88 0dbd 761f bebd 68b1 95bd
000000b0: 2e68 d43c ccaf 17bd 70c8 0cbd 1602 19bd
000000c0: 3d49 9d3c ac58 a9bd b6ea a6bd d134 7cbb
000000d0: e563 c9bd 0b38 e1bd 94ec dfbd 29e0 12be
000000e0: d917 f3bb 797e 4bbd 2e6f 83bd 65b4 c4bd
000000f0: 4523 c8bd 6cf7 d2bd 5a2e 1b3c d637 ddbd
0.027569773 -0.08702514 0.2991174 0.30425057 0.13250895 0.18150425 -0.05335407 -0.06398026
-0.14733826 -0.0487452 -0.11201765 -0.06131139 0.10369133 -0.05196836 -0.09411102 0.15714215
-0.0729131 -0.06648724 0.18948278 -0.04720414 0.21008435 -0.0646038 -0.08990766 -0.034769084
-0.07452006 -0.12596865 -0.060886007 0.008463745 -0.02587889 -0.08380063 -0.07439104 -0.11303114
-0.06302491 0.0015162872 0.22411627 0.0094011985 0.26841795 0.22295663 -0.07935133 -0.11250419
0.2956812 -0.034553986 -0.092833444 -0.07309228 0.025928583 -0.037032887 -0.03437084 -0.037355505
0.019199962 -0.08268866 -0.08150236 -0.003848363 -0.098335065 -0.109970175 -0.109337956 -0.14343323
-0.0074186143 -0.04968116 -0.0641769 -0.0960472 -0.09772352 -0.10301098 0.0094715 -0.108016655

fc3.weight f4 [5, 64]
00000000: dec7 12b8 5dae c63d a192 8739 4000 2638
00000010: 9902 4039 b282 0c39 e85b 2dbd e489 0cbd
00000020: f7eb 223d d238 d53d 8f4c 693d 1c33 573d
00000030: b6fa 1539 6024 833d c0a9 9fbc f343 3239
00000040: 85f4 2fbd 77a5 a93d d323 7139 ba2e cbbd
00000050: 8125 4c39 283c a7bd 00d4 703d 1333 cd3d
00000060: 8733 d63d 439c 22bb 3b3d a33d 9511 b638
00000070: 4c27 c4b9 78cb c93c a4f6 a23d 57d4 bd3d
00000080: 4070 87bd b1f8 4db9 88a3 4839 391e 2e39
00000090: dcb5 0b39 df61 ab37 4394 ea3d 53c1 d5bc
000000a0: 6908 c738 7199 9e3d 6c81 0fbd 5520 aebd
000000b0: 7b66 f4bc f370 d93d 0ea1 5e3d 1df4 963d
000000c0: c3f8 9bb5 273c 723d fe01 f93d 4985 e03d
000000d0: 063e 063d 217b 05bc c8a6 e73d ddd3 4abd
000000e0: 36d0 22b8 94f7 773b 903d d93d 951c 73bd
000000f0: 6fee 7c3d 804d a7bd 0bee 5538 6815 dabd
00000100: c828 32b7 b651 0ebd f604 a137 5650 aeb7
00000110: 2afe 4636 138a 8eb8 8100 72bd 9b43 313d
00000120: 2de3 d73d 684d cebc 6602 9cbc 6cc6 bebc
00000130: 4b97 fc37 5d35 923c 8ca7 15bb be76 20b8
00000140: db7f 2e3c 0e1a 80bd c7d4 e738 9b4d 5d3d
00000150: 1d42 8bb7 73f6 67bd 0e29 8c3d 75f4 6d3d
00000160: ef20 e83c 740e 7e3c fbf6 7fbd 0845 3cb8
00000170: b33e adb9 5d2d abbd 6886 a1bd 6586 e3bd
00000180: 950d b73d d481 86b9 3c2d 9938 437f 8fb8
00000190: 1085 3b38 5cd8 4db6 f3fa d6bd 1e0e adbb
000001a0: dc59 06b8 d102 1ebc 6184 f83d 84c4 033d
000001b0: d115 bcb9 336d ef3d 725a ae3d 0e92 ce3d
000001c0: e5c6 b2b8 daad c8bd d366 ae3d 8fce c03d
000001d0: 8741 5e3c 67d4 e9bd 059d 0bbd c065 c03c
000001e0: a611 e438 b14d 28bd 3fb5 d9bd 1cd7 ab3d
000001f0: 343e ba3d 6ce2 583d 84be 0537 1e99 a83d
00000200: a16b 9336 0adb 1c3d d5a6 01b8 0b40 c437
00000210: d00f c136 9b28 d1b6 c621 da3d bdd8 87bc
00000220: 3a03 6d3d 7ff2 6b3d 6d92 953d beff b23d
00000230: abad 5636 a7d4 fcbc 2b36 63bd bd31 da38
00000240: a50f aebd 1449 0ebd 5bac 91b6 08fe 8abd
00000250: 3b3f 3cb8 b4fe 893c ba12 18bb 7d8f a0bd
00000260: a88e a6bd fac7 993b 0971 fabc 8c58 afb8
00000270: c33b 8c39 aa1e 403d 9dae a03d ea2c f0bd
00000280: 4171 31bd 7025 70b9 574c 85b8 28b0 0439
00000290: 3ad9 4a37 0282 2cb8 2b27 ac3d bbda 463d
000002a0: 997d 8334 dd20 b43d 7c78 7cbd 4bdd 983c
000002b0: 28c2 3c3d 028f cfbd a4d6 a7bd a9c5 593d
000002c0: 1e86 da38 b78d 9dbd 462a d83d 63e9 6a3d
000002d0: c62c 37bd c4a2 d0bd f393 b3bd 6da3 c1bd
000002e0: d468 8238 6a8c 803d d31f 793d 56b4 b73b
000002f0: 96b0 77bc e6fe 8e3c e515 f937 65ff 483b
00000300: ba10 7f38 bf9c b6bd 9a86 1639 ded8 e9b7
00000310: 2481 3a39 5f42 8339 ca2c 083c 155d ea3d
00000320: bcd2 e43d 5e24 29bd 790f 7f3d 33db fc3d
00000330: 8ec5 9939 75e1 8b3b cea1 ddbd d414 fa38
00000340: 6447 0d3d 53ea 89bd 9003 d338 9ce5 db3d
00000350: cc66 ce37 bea0 173d 5232 ccbd 57a1 913d
00000360: 9b2c 4b3d b47d 0fbd f012 f73d b9b9 8739
00000370: 24e7 c139 257a 06bd 1216 c63d 8e03 1dbd
00000380: c3fe 53bd 08b0 54ba 72b3 9f38 338a 7c38
00000390: 1c3b 0439 3049 1e39 50ec ddbc 3d65 b83d
000003a0: f739 0d38 18ab dcbd 4906 7b3d b22d 3e3b
000003b0: 8f0a a7bd 5fa9 c03d df64 cabc 3a5f 453d
000003c0: 7158 9135 c3d1 0cbe e7a2 9a3d 6ff0 603d
000003d0: 66d4 09bd 59f3 5d3c cc2a 87bc 355f 4dbc
000003e0: 7063 5a38 ae46 e3bd 4755 0fbd 0eb0 ebbd
000003f0: a548 733b 4ba0 e8bc f89a 0838 a0e7 81bd
-3.4995253e-05 0.09701226 0.00025858454 3.9577717e-05 0.00018311515 0.00013400128 -0.042323977 -0.03431119
0.039775815 0.10411228 0.056957778 0.052538976 0.00014303144 0.06403422 -0.019490123 0.00017000716
-0.0429578 0.08283513 0.00022996897 -0.09921022 0.00019468927 -0.08165771 0.05879593 0.10019507
0.10459047 -0.0024812378 0.07970663 8.681711e-05 -0.00037413312 0.024633154 0.07957199 0.09269016
-0.06613207 -0.00019642968 0.00019134406 0.00016605192 0.00013323821 2.0430363e-05 0.1145406 -0.02609316
9.490626e-05 0.077441104 -0.035035536 -0.085022606 -0.029834023 0.106172465 0.054352812 0.0737078
-1.1620799e-06 0.059139397 0.12158583 0.10962922 0.032773994 -0.008147032 0.11311108 -0.049518455
-3.881772e-05 0.0037836777 0.10607445 -0.05935343 0.061750825 -0.08169079 5.1004852e-05 -0.10648614
-1.0619122e-05 -0.034745894 1.9195006e-05 -2.0779826e-05 2.9652242e-06 -6.796806e-05 -0.05908251 0.043277364
0.10541377 -0.025183395 -0.019044112 -0.023287974 3.0111192e-05 0.017847711 -0.0022835461 -3.825756e-05
0.0106506 -0.062549695 0.00011054571 0.05402909 -1.6600878e-05 -0.056631517 0.06843768 0.05809446
0.028336016 0.015506376 -0.0624914 -4.4886983e-05 -0.00033043846 -0.08358262 -0.07886964 -0.11109618
0.089381374 -0.000256552 7.304034e-05 -6.842476e-05 4.47082e-05 -3.0673318e-06 -0.104970835 -0.005281224
-3.2031778e-05 -0.009644226 0.12134624 0.032169834 -0.0003587441 0.1169075 0.08513345 0.100864515
-8.5247484e-05 -0.097987846 0.08515706 0.09414398 0.013565428 -0.11417466 -0.034085292 0.023486018
0.000108751745 -0.041089717 -0.10630273 0.08390638 0.090938956 0.052950308 7.971776e-06 0.0823233
4.393471e-06 0.03829483 -3.091137e-05 2.3394843e-05 5.753689e-06 -6.2334125e-06 0.10650973 -0.016582841
0.057864405 0.05760431 0.07303319 0.08740185 3.1989573e-06 -0.03086312 -0.05547158 0.000104043145
-0.08499078 -0.03473766 -4.3414016e-06 -0.06786734 -4.488158e-05 0.016845085 -0.0023204521 -0.07839868
-0.08132678 0.0046930285 -0.030571477 -8.3611434e-05 0.00026747407 0.046904244 0.07845805 -0.11727317
-0.043320898 -0.0002290213 -6.3561536e-05 0.00012654124 1.2090715e-05 -4.1129075e-05 0.08405908 0.04854844
2.4492036e-07 0.08795331 -0.06163834 0.018660208 0.0460836 -0.101346985 -0.08195236 0.05316702
0.00010420031 -0.076930456 0.10554938 0.05735148 -0.044720434 -0.10187295 -0.087684534 -0.09454999
6.218409e-05 0.06276782 0.060821366 0.0056062145 -0.015117785 0.01745553 2.9693309e-05 0.0030669805
6.0812315e-05 -0.08916616 0.00014355258 -2.7876751e-05 0.00017786451 0.00025035717 0.00831146 0.11443535
0.11173007 -0.041294448 0.062270615 0.123464964 0.00029329624 0.00426882 -0.108218774 0.000119248085
0.03449191 -0.06734147 0.000100619276 0.10737154 2.4604982e-05 0.03701853 -0.09970535 0.07110851
0.049603086 -0.03503199 0.12064159 0.0002588758 0.00036984042 -0.03283133 0.09672178 -0.03833347
-0.05175663 -0.0008113389 7.615135e-05 6.021019e-05 0.00012610521 0.00015095319 -0.027090222 0.09003685
3.3671004e-05 -0.10774821 0.06128529 0.0029018936 -0.08156311 0.09407305 -0.024706302 0.04818652
1.0829082e-06 -0.13751893 0.075506024 0.054916795 -0.033649825 0.013546788 -0.0164999 -0.012534906
5.206786e-05 -0.110974655 -0.034993436 -0.11508189 0.0037122157 -0.028396746 3.2569253e-05 -0.06343007

fc3.bias f4 [5]
00000000: bacc c0be 4bc7 c0be 44ac c0be bbce c0be
00000010: 5ec7 c0be
-0.37656194 -0.37652048 -0.37631428 -0.37657723 -0.37652105
