model_weights/20epochsConvNet_1_0_0.pth (torch_old, 105482 bytes, 10 tensors)

conv1.weight f4 [10, 5, 4]
-0.0022405968 0.086566605 0.015616784 0.08600203 0.04715499 -0.08757974 -0.010969027 0.09751182
0.04105799 -0.14887646 -0.129423 0.0079915095 0.49545664 -0.14556225 -0.33400923 -0.0879262
0.3088275 -0.014632723 0.20066437 0.30828473 -0.20353147 0.15057524 0.0054047727 0.05219172
-0.046770893 -0.060614016 -0.05476187 0.14263937 0.07398375 0.09590551 -0.07165794 0.12255999
0.23445398 -0.25471467 -0.12553464 -0.2530025 0.21723637 -0.09705452 -0.46875182 0.06916803
-0.22260962 -0.074707754 -0.23475885 -0.04226803 -0.1359155 -0.0051072114 -0.07674422 -0.19832939
0.1864052 -0.06688384 0.025513804 -0.09332245 -0.2698371 0.30026034 -0.28981945 -0.5744406
-0.13688612 0.48343357 -0.57472277 0.008410387 -0.1431204 0.08247984 0.2040427 0.023308942
0.060612194 -0.25021282 -0.024395006 -0.011873221 0.0992725 -0.15439667 0.11747881 0.15148713
-0.20054281 -0.34037048 -0.20399682 0.6380237 -0.4382036 -0.23884144 -0.42668208 0.1907108
0.10167998 -0.105116755 -0.22429246 -0.12141902 -0.084897906 -0.020316822 -0.036593754 0.14638491
-0.039654918 0.04508676 -0.059434786 -0.06029554 -0.12495787 -0.1965702 -0.1395283 0.3142262
-0.0005981763 0.25458762 0.08327422 0.36516064 -0.15920343 0.1030743 0.18513304 -0.19196685
0.1579112 -0.07241282 0.12920818 0.078217745 -0.10108762 0.08975536 0.15542223 0.16841124
0.17705493 -0.1066702 -0.20348483 -0.1739999 0.20347469 -0.10399173 -0.24188943 -0.22564328
0.04798812 -0.026122816 0.096034035 0.16298711 -0.19922669 -0.15180123 0.091578715 -0.2028305
-0.017587079 -0.063689016 0.09950094 0.053288464 0.091617554 -0.3450647 0.02046885 -0.02491937
-0.27708173 0.10971643 -0.26930356 0.15589094 0.016385883 -0.14271209 0.16861737 0.10616949
0.043556068 -0.12675111 -0.13509342 0.1069967 0.04448115 0.07259247 0.064744316 0.00653138
-0.20693189 0.14513579 0.076106176 0.25963596 0.03830382 0.35142377 0.22464266 -0.34445047
0.17836535 0.1518011 0.0023169029 -0.21480541 0.11884992 0.011403519 0.15088026 -0.09570474
-0.12664841 0.13865356 0.0049445694 -0.077282764 -0.019505015 0.4532992 -0.30920535 -0.53210276
0.017607355 0.46906376 -0.07438087 -0.2290322 -0.2255659 0.081890084 0.09877591 -0.07560134
0.019889046 -0.011765263 -0.072450705 -0.16548719 -0.08098719 -0.017309709 -0.22949623 -0.04911079
0.04739848 -0.29964364 0.09454111 -0.19512777 -0.03949717 -0.50725794 -0.3055331 0.39497688
00000000: fad6 12bb d549 b13d 8add 7f3c d521 b03d
00000010: 9725 413d 025d b3bd 6fb7 33bc 47b4 c73d
00000020: 6c2c 283d 1273 18be 7787 04be d2ee 023c
00000030: 7eac fd3e 450e 15be 4203 abbe a712 b4bd
00000040: a31e 9e3e 17be 6fbc f67a 4d3e 7fd7 9d3e
00000050: 8e6a 50be 6530 1a3e 851a b13b fcc6 553d
00000060: d692 3fbd 6746 78bd fc4d 60bd 0e10 123e
00000070: cb84 973d 1c6a c43d 66c1 92bd bb00 fb3d
00000080: b414 703e f669 82be 278c 00be 8b89 81be
00000090: 3673 5e3e 85c4 c6bd 3d00 f0be f8a7 8d3d
000000a0: c7f3 63be 6100 99bd a064 70be 3e21 2dbd
000000b0: 6f2d 0bbe 655a a7bb 132c 9dbd dc16 4bbe
000000c0: 01e1 3e3e 65fa 88bd 5302 d13c d71f bfbd
000000d0: 1728 8abe b9bb 993e 3763 94be 8a0e 13bf
000000e0: e02b 0cbe 9b84 f73e 0821 13bf b8cb 093c
000000f0: 278e 12be 31eb a83d 92f0 503e 65f2 be3c
00000100: 7e44 783d e51b 80be 09d8 c7bc e687 42bc
00000110: 614f cb3d 291a 1ebe bb98 f03d 711f 1b3e
00000120: 185b 4dbe 0a45 aebe 8be4 50be 8555 233f
00000130: 395c e0be da92 74be 1376 dabe b149 433e
00000140: 983d d03d 7447 d7bd ecac 65be 89aa f8bd
00000150: f4de adbd 776f a6bc 55e3 15bd ede5 153e
00000160: 326d 22bd e5ac 383d e471 73bd 75f8 76bd
00000170: e9e9 ffbd b349 49be 82e0 0ebe 42e2 a03e
00000180: efce 1cba 4f59 823e ad8b aa3d 56f6 ba3e
00000190: 3906 23be 9e18 d33d 8493 3d3e f592 44be
000001a0: 79b3 213e 2c4d 94bd 264f 043e a030 a03d
000001b0: 0707 cfbd a8d1 b73d 0127 1f3e ff73 2c3e
000001c0: e34d 353e e875 dabd 545e 50be 082d 32be
000001d0: ab5b 503e 9ef9 d4bd ddb1 77be 080f 67be
000001e0: 318f 443d 84ff d5bc 7ead c43d 18e6 263e
000001f0: 1502 4cbe c871 1bbe 9f8d bb3d ccb2 4fbe
00000200: c712 90bc 636f 82bd 26c7 cb3d 0145 5a3d
00000210: fca1 bb3d 52ac b0be 4aae a73c b523 ccbc
00000220: a8dd 8dbe 02b3 e03d 28e2 89be e0a1 1f3e
00000230: b03b 863c 1e23 12be 08aa 2c3e 646f d93d
00000240: d967 323d 0bcb 01be ee55 0abe 1621 db3d
00000250: de31 363d 5cab 943d ab98 843d 3005 d63b
00000260: f4e5 53be 7a9e 143e 8edd 9b3d 01ef 843e
00000270: 77e4 1c3d d1ed b33e ba08 663e d05b b0be
00000280: 68a5 363e bf71 1b3e 2ed7 173b f3f5 5bbe
00000290: 9667 f33d d3d5 3a3c 5b80 1a3e d900 c4bd
000002a0: 1fb0 01be 33fb 0d3e 0e06 a23b 6d46 9ebd
000002b0: fbc8 9fbc d516 e83e 2a50 9ebe e337 08bf
000002c0: 4d3d 903c 2029 f03e ff54 98bd 6b87 6abe
000002d0: bffa 66be fdb5 a73d 064b ca3d e0d4 9abd
000002e0: 5aee a23c 17c3 40bc 0961 94bd 7975 29be
000002f0: 9ddc a5bd 17cd 8dbc 0f01 6bbe 6528 49bd
00000300: e924 423d e46a 99be c59e c13d 93cf 47be
00000310: c9c7 21bd a8db 01bf d66e 9cbe 693a ca3e

conv1.bias f4 [10]
-0.07387769 0.13562472 0.20065689 -0.019040477 0.15295343 -0.14853083 0.07369624 0.006102885
-0.04551427 0.088239394
00000000: 304d 97bd 35e1 0a3e 0079 4d3e c6fa 9bbc
00000010: d39f 1c3e 7718 18be 0eee 963d b6fa c73b
00000020: 2c6d 3abd dbb6 b43d

conv2.weight f4 [10, 10, 4]
0.00093636534 0.20940553 -0.17826463 -0.05430109 -0.07097434 0.019595632 -0.109798014 -0.11046636
0.08661741 -0.19182898 0.0043727965 0.20846118 0.090039626 -0.024786228 0.12464946 0.17186034
0.1707878 -0.21343538 0.1788048 -0.122250155 0.050385427 -0.11267603 0.124876335 0.029924855
-0.05261996 0.08392562 0.10130627 0.12141508 -0.11842672 0.02301806 0.13541359 0.12372943
-0.048477214 -0.15971419 -0.06351938 0.14454153 -0.026323892 0.089329444 -0.18966217 0.1146603
0.12162625 -0.09469073 -0.107815534 0.19353467 -0.11012596 -0.0058707595 -0.14040971 -0.09925688
-0.09837795 -0.09237534 -0.19566175 -0.11578775 0.03626873 0.04974232 0.015966145 -0.07899588
0.055660803 0.16211283 -0.037481222 0.02416978 0.038469702 -0.0786516 -0.04590386 0.10909668
-0.062294066 -0.11206143 -0.004926919 0.07691291 0.013381628 -0.01037701 0.03601669 -0.10482329
0.11571688 -0.054748483 0.022640454 -0.15014337 0.18581177 0.021684341 0.039093632 -0.028482389
-0.21797165 0.076055706 0.09650107 -0.18955998 -0.00076099276 -0.104656585 0.09870633 0.103219874
0.049160954 0.2876201 0.02588069 -0.18289039 -0.18417066 -0.07309991 0.2279014 0.25353602
-0.022475816 0.101280026 0.0250674 -0.12801479 0.0732976 0.026724624 0.13831158 0.036993623
0.015758546 0.06535098 0.13826396 -0.003204325 0.029103354 -0.061449047 0.073897146 0.0368213
0.28715697 0.29047203 -0.16988966 -0.18217048 -0.17081231 -0.26324648 0.03712093 0.20738903
0.17713611 -0.20684469 -0.0441981 0.2226528 0.12103549 -0.06932691 -0.236556 0.05846007
-0.093445934 -0.107666105 0.24862625 0.19088629 0.0752641 0.16805334 -0.043188687 0.16179277
0.10004554 0.24953042 -0.11233177 0.08938681 0.21139549 -0.043182194 0.1698167 0.12259103
0.06577007 -0.10457593 0.009566326 0.14879677 0.08047105 0.01926836 0.06731292 0.053852014
-0.26380718 -0.07168418 0.037997585 0.17757457 0.018659528 0.23214285 0.022903908 0.09809027
-0.38714454 0.03889028 0.26167998 0.00975632 0.042264767 0.31411847 -0.10355371 -0.29349634
-0.22065343 0.3854904 0.39707986 0.034565818 0.2192526 -0.3042909 -0.39147353 -0.12984262
-0.04166525 0.014963459 0.24478191 0.16366628 -0.123495914 -0.066410646 -0.011772075 -0.10068102
0.2645186 -0.024366528 0.012750394 0.051643725 0.13123363 0.039097782 -0.33901572 -0.01427962
-0.06297121 0.44026694 0.13380645 -0.26742178 0.15573648 -0.11753493 -0.16611691 -0.18817812
0.16997951 0.004964594 0.02026535 0.077675305 0.13337395 -0.06227772 0.20526488 -0.047787853
0.09102634 0.25014096 0.18523954 0.038097814 0.0060101678 -0.13743 0.062386513 0.03357572
-0.008680876 -0.045967206 0.19055626 0.010183863 0.1062629 -0.022248201 -0.12961207 -0.08408896
-0.053605285 0.1639704 -0.018211823 0.08514231 0.05837124 -0.06357499 0.06506957 0.10292734
-0.036750656 0.11543491 -0.101033226 -0.08154452 0.030039536 0.16665721 0.2398323 0.11921116
0.11017637 -0.036858093 -0.034029502 0.22337854 0.016397327 -0.07234409 0.056283206 0.12303199
-0.0390891 0.044194337 0.24479246 -0.018973574 0.1063771 0.040268194 -0.06959657 -0.018822843
00000000: 6a76 753a 676e 563e 018b 36be d26a 5ebd
00000010: ff5a 91bd 0587 a03c c8dd e0bd 303c e2bd
00000020: 7864 b13d d16e 44be ad49 8f3b d976 553e
00000030: b266 b83d 7d0c cbbc 3748 ff3d 28fc 2f3e
00000040: ffe2 2e3e ce8e 5abe 9b18 373e 4a5e fabd
00000050: f360 4e3d b1c2 e6bd 2abf ff3d f824 f53c
00000060: 0788 57bd 32e1 ab3d a979 cf3d 78a8 f83d
00000070: b589 f2bd 5f90 bc3c dca9 0a3e db65 fd3d
00000080: 0b90 46bd 1e8c 23be 7316 82bd b202 143e
00000090: 34a5 d7bc 5bf2 b63d cd36 42be 05d3 ea3d
000000a0: 2f17 f93d 37ed c1bd 64ce dcbd f42d 463e
000000b0: b889 e1bd 805f c0bb 90c7 0fbe 3147 cbbd
000000c0: 617a c9bd 482f bdbd 8e5b 48be 2122 edbd
000000d0: 858e 143d 9abe 4b3d 6fcb 823c 98c8 a1bd
000000e0: 95fc 633d e800 263e e985 19bd b4ff c53c
000000f0: 6892 1d3d 1714 a1bd b005 3cbd 156e df3d
00000100: 1028 7fbd 7780 e5bd fe71 a1bb 8484 9d3d
00000110: 9e3e 5b3c 5604 2abc 3d86 133d 98ad d6bd
00000120: f9fc ec3d f23f 60bd 7978 b93c 2fbf 19be
00000130: 7145 3e3e 5ca3 b13c a520 203d e653 e9bc
00000140: f633 5fbe 18c3 9b3d 5aa2 c53d 031c 42be
00000150: 5c7d 47ba 3156 d6bd 8b26 ca3d f164 d33d
00000160: ff5c 493d f142 933e be03 d43c 9e47 3bbe
00000170: 3c97 3cbe 68b5 95bd fc5e 693e 79cf 813e
00000180: 341f b8bc e76b cf3d 265a cd3c 4f16 03be
00000190: 0d1d 963d 99ed da3c 8da1 0d3e a086 173d
000001a0: 1118 813c bcd6 853d 1195 0d3e a7ff 51bb
000001b0: 286a ee3c ffb1 7bbd 6357 973d eed1 163d
000001c0: 3d06 933e c0b8 943e 8ef7 2dbe e68a 3abe
000001d0: 6ce9 2ebe 3ec8 86be 1e0c 183d ca5d 543e
000001e0: 2b63 353e 18cf 53be 1109 35bd 18ff 633e
000001f0: 74e1 f73d 44fb 8dbd bc3b 72be d473 6f3d
00000200: 9560 bfbd 0c80 dcbd e197 7e3e b277 433e
00000210: 1124 9a3d 2d16 2c3e 9fe6 30bd 01ad 253e
00000220: ade4 cc3d e784 7f3e 330e e6bd 6f10 b73d
00000230: 0f78 583e d0df 30bd 6ee4 2d3e 0211 fb3d
00000240: 75b2 863d e82b d6bd 14bc 1c3c 2e5e 183e
00000250: 02ce a43d aed8 9d3c 5bdb 893d ee93 5c3d
00000260: bc11 87be 28cf 92bd 5ba3 1b3d 1cd6 353e
00000270: dedb 983c dbb6 6d3e faa0 bb3c 8de3 c83d
00000280: cf37 c6be 6a4b 1f3d ebfa 853e f9d8 1f3c
00000290: d21d 2d3d 23d4 a03e f813 d4bd 2745 96be
000002a0: f9f2 61be ff5e c53e 0d4e cb3e e394 0d3d
000002b0: c183 603e 04cc 9bbe 386f c8be 77f5 04be
000002c0: 2ea9 2abd 4c29 753c 1ca8 7a3e 2298 273e
000002d0: 6deb fcbd 4e02 88bd a9df 40bc da31 cebd
000002e0: fb6e 873e 509c c7bc 07e7 503c 5f88 533d
000002f0: 1c62 063e ff24 203d 7893 adbe 11f5 69bc
00000300: 0df7 80bd ab6a e13e 8f04 093e 82eb 88be
00000310: 6279 1f3e 27b6 f0bd 8d1a 2abe c4b1 40be
00000320: 1c0f 2e3e 08ae a23b 8503 a63c 3b14 9f3d
00000330: 2e93 083e ec16 7fbd f530 523e 32bd 43bd
00000340: 056c ba3d 7a12 803e 6faf 3d3e 740c 1c3d
00000350: f1f0 c43b 73ba 0cbe 0089 7f3d b286 093d
00000360: 3c3a 0ebc 1c48 3cbd 2e21 433e 38da 263c
00000370: 5da0 d93d dc41 b6bc 07b9 04be d536 acbd
00000380: 3791 5bbd dbe7 273e f630 95bc 175f ae3d
00000390: ae16 6f3d 9b33 82bd 3243 853d 92cb d23d
000003a0: db87 16bd 2369 ec3d 82ea cebd d000 a7bd
000003b0: 7915 f63c 30a8 2a3e 9996 753e fb24 f43d
000003c0: 26a4 e13d 83f8 16bd 8562 0bbd 58bd 643e
000003d0: b053 863c 2329 94bd 3889 663d 32f8 fb3d
000003e0: e41b 20bd 1f05 353d e0aa 7a3e 786e 9bbc
000003f0: 3ddc d93d 43f0 243d a688 8ebd 5d32 9abc

conv2.bias f4 [10]
-0.095057406 -0.16599682 0.13208161 0.16822131 -0.05473749 -0.056625262 -0.036444828 0.058477744
-0.044440873 -0.10917028
00000000: 75ad c2bd 12fb 29be 6740 073e 3542 2c3e
00000010: 6b34 60bd e4ef 67bd 2c47 15bd 5c86 6f3d
00000020: a207 36bd ab94 dfbd

fc1.weight f4 [128, 130]
-0.007930191 -0.08561745 0.045967486 0.067823425 0.054765124 -0.04381851 -0.020496285 -0.07472493
-0.0078124986 -0.024668818 -0.060151454 -0.027326964 0.032711968 0.080038056 -0.009866932 0.004180338
0.029372798 0.052157566 -0.050389875 0.019937903 0.016033841 -0.07400212 -0.075485304 0.055749867
0.08204028 -0.07425811 0.04813206 -0.0020482317 -0.051541023 -0.026227722 0.03698425 -0.07175556
-0.089638524 -0.08548843 -0.064772025 0.006510068 -0.061916087 -0.0407728 0.024617786 0.0025860514
-0.052027695 0.05694642 -0.092309944 0.044643834 -0.030450698 0.019069476 -0.08245963 0.043293677
0.020138342 -0.060917024 0.03940336 0.07454407 0.024206154 -0.053054996 -0.05119188 -0.0349048
-0.038376905 -0.013926336 0.026034297 -0.07603968 -0.023952832 0.0085474 0.0022848258 -0.025582455
-0.00031413275 0.02135574 -0.089046374 -0.021790024 0.0025476092 0.029588059 0.061351657 -0.05676091
-0.019336257 0.002310673 0.018671898 0.014639876 -0.06296593 -0.0923845 0.030272227 -0.016920036
-0.0883389 0.014150931 -0.09068763 -0.055269558 0.04747255 0.06690828 -0.057119504 -0.06416433
0.050433554 0.025532376 0.03372737 0.0477983 0.06260253 0.0302759 -0.07731164 -0.0074955937
0.010668994 0.021080304 0.004712724 -0.06581365 0.07110355 -0.02603281 0.018161122 -0.06713212
0.014968399 -0.04167907 0.05086525 -0.05092092 0.05237175 -0.034738064 0.040896393 -0.010379514
0.06561416 0.05835781 0.06511394 0.047456026 -0.0657466 -0.014024712 0.04011624 -0.027185185
-0.04490249 -0.048519127 -0.074710235 0.034640577 -0.08340904 -0.047173854 -0.07204906 0.08309383
0.029981354 0.078653395 0.076151304 -0.01917499 0.049502373 -0.025457362 0.05370841 0.07886133
0.005266985 0.07999989 0.0045231874 0.02313416 -0.052934658 0.06555973 0.05833022 0.009695652
-0.06300907 -0.030701892 -0.022135274 -0.05655643 -0.08920857 -0.058330003 0.073459074 0.052304707
-0.083478436 -0.027968166 0.014581063 -0.005297069 -0.06355006 -0.017729897 0.08187651 0.07488903
0.07054469 -0.06929011 0.0021206487 0.01141028 0.04987227 -0.06821516 0.0004746122 0.027815703
-0.04997826 -0.07214825 0.052584875 0.07819745 0.022479206 -0.09018837 0.04035148 0.06147641
0.069171205 0.0009303691 0.014097857 -0.06633903 -0.0109289875 -0.0006167066 -0.020867841 0.0069775167
0.0039531556 0.052968666 0.015351169 0.067868106 0.0022167806 -0.081228964 -0.036383793 0.07040256
-0.060816567 -0.04074628 -0.000177309 -0.0052050753 -0.00033059786 0.018750591 0.042072907 -0.08153975
-0.044967115 0.016062992 0.021848725 -0.08105859 0.028101515 -0.0017999284 -0.061266802 0.03914978
-0.056189056 0.0319085 -0.008874268 -0.04098892 -0.01430451 0.06116876 -0.022763053 -0.0076325713
-0.027995747 -0.046279132 -0.00010855394 -0.06232533 -0.072190404 0.041349486 -0.05053589 0.00376051
-0.06987887 0.046442855 -0.010146953 0.0467109 -0.063324384 0.021434365 0.013265955 0.07476826
-0.0056051207 0.061527252 -0.06505285 0.057383668 -0.028654212 0.08107518 -0.02151047 -0.041608654
-0.065203376 -0.015602974 -0.013828889 0.05938221 -0.046267092 0.015920019 -0.07127666 0.0456293
0.04926896 0.058923077 0.038411405 -0.07775679 -0.0055012633 0.072705254 0.054493006 0.06801879
00000000: a2ed 01bc 3458 afbd 6748 3c3d 02e7 8a3d
00000010: 6551 603d 0a7b 33bd d3e7 a7bc 6209 99bd
00000020: fdff ffbb 4316 cabc 5f61 76bd ccdc dfbc
00000030: fcfc 053d feea a33d eaa8 21bc 37fb 883b
00000040: 399f f03c 2ca3 553d 9d65 4ebd d054 a33c
00000050: 6759 833c 6c8e 97bd 0a98 9abd f959 643d
00000060: bc04 a83d a314 98bd 1f26 453d a03b 06bb
00000070: ae1c 53bd 85db d6bc cc7c 173d 94f4 92bd
00000080: 6794 b7bd 8f14 afbd 32a7 84bd 6952 d53b
00000090: b99b 7dbd 6101 27bd 3dab c93c be7a 293b
000000a0: fe1a 55bd a640 693d ff0c bdbd 74dc 363d
000000b0: be73 f9bc 9737 9c3c 98e0 a8bd b654 313d
000000c0: 2af9 a43c 2184 79bd 6b65 213d 90aa 983d
000000d0: fc4b c63c 3250 59bd 94ae 51bd 56f8 0ebd
000000e0: 1a31 1dbd 492b 64bc e145 d53c b1ba 9bbd
000000f0: bb38 c4bc 650a 0c3c 04bd 153b 4c92 d1bc
00000100: 2fb2 a4b9 3cf2 ae3c f25d b6bd fe80 b2bc
00000110: caf5 263b a862 f23c e04b 7b3d 217e 68bd
00000120: 1267 9ebc a96e 173b cff5 983c 17dc 6f3c
00000130: 48f4 80bd 1634 bdbd 76fd f73c e39b 8abc
00000140: 06eb b4bd 4ed9 673c 70ba b9bd 5562 62bd
00000150: 9472 423d 3507 893d 24f6 69bd 9768 83bd
00000160: 6a93 4e3d 4629 d13c b625 0a3d 26c8 433d
00000170: c135 803d 2a05 f83c 9155 9ebd 999d f5bb
00000180: 01cd 2e3c 9ab0 ac3c 326d 9a3b 4fc9 86bd
00000190: bd9e 913d c242 d5bc a2c6 943c 917c 89bd
000001a0: 043e 753c acb7 2abd 1558 503d 7492 50bd
000001b0: c383 563d 8049 0ebd fa82 273d d60e 2abc
000001c0: b760 863d 9908 6f3d 755a 853d 4061 423d
000001d0: 27a6 86bd e8c7 65bc ed50 243d 77b3 debc
000001e0: aceb 37bd febb 46bd ae01 99bd 47e3 0d3d
000001f0: 5cd2 aabd 5f39 41bd 758e 93bd 192d aa3d
00000200: 759b f53c 0815 a13d 37f5 9b3d de14 9dbc
00000210: 00c3 4a3d f58b d0bc 5afd 5b3d 0d82 a13d
00000220: ac96 ac3b fbd6 a33d 3f37 943b da83 bd3c
00000230: 03d2 58bd 2e44 863d abeb 6e3d 83da 1e3c
00000240: e60a 81bd 8982 fbbc 0955 b5bc b7a7 67bd
00000250: fcb2 b6bd 71eb 6ebd b671 963d 763d 563d
00000260: bef6 aabd 7f1d e5bc 69e5 6e3c 0993 adbb
00000270: 8926 82bd 4a3e 91bc dfae a73d 6b5f 993d
00000280: bc79 903d f9e7 8dbd 95fa 0a3b 2ff2 3a3c
00000290: de46 4c3d 64b4 8bbd 5fd5 f839 c2dd e33c
000002a0: 01b6 4cbd 76c2 93bd 3d63 573d fc25 a03d
000002b0: 5026 b83c aeb4 b8bd 9847 253d b0ce 7b3d
000002c0: a2a9 8d3d 03e4 733a b3fa 663c c2dc 87bd
000002d0: 7f0f 33bc 7baa 21ba 09f3 aabc a7a3 e43b
000002e0: 7989 813b acf5 583d 7883 7b3c 6ffe 8a3d
000002f0: 6847 113b 5f5b a6bd 2c07 15bd 382f 903d
00000300: cb1a 79bd 92e5 26bd 06ec 39b9 568f aabb
00000310: 1854 adb9 d79a 993c a454 2c3d 50fe a6bd
00000320: 702f 38bd 8996 833c 19fc b23c 0c02 a6bd
00000330: 2635 e63c 93eb ebba e6f2 7abd 855b 203d
00000340: 7f26 66bd 7db2 023d 6165 11bc ffe3 27bd
00000350: 775d 6abc 188c 7a3d 9579 babc a61a fabb
00000360: 5657 e5bc 308f 3dbd 74a7 e3b8 d848 7fbd
00000370: 90d8 93bd 145e 293d b9fe 4ebd e372 763b
00000380: a71c 8fbd dd3a 3e3d 683f 26bc ee53 3f3d
00000390: 37b0 81bd 1f97 af3c 7359 593c 1a20 993d
000003a0: 29ab b7bb 0004 7c3d 6e3a 85bd 230b 6b3d
000003b0: 3dbc eabc be0a a63d ba36 b0bc d66d 2abd
000003c0: 5989 85bd 9ea3 7fbc 9092 62bc c33a 733d
000003d0: 9082 3dbd b36a 823c 7ff9 91bd cae5 3a3d
000003e0: 40ce 493d 5359 713d 4755 1d3d f43e 9fbd
000003f0: f143 b4bb 7ee6 943d 0f34 5f3d 6f4d 8b3d

fc1.bias f4 [128]
-0.03463388 0.06945808 -0.023113603 0.038039606 0.0181271 -0.077156305 0.009485574 0.031230424
0.018061813 0.062063817 0.017896587 0.04605601 -0.0883563 0.082661994 0.06439786 0.034011047
0.01953127 -0.016482918 -0.03318061 -0.010055187 0.079127796 -0.03109336 -0.010057813 -0.06371888
0.024088638 0.05320627 -0.0013413266 0.07139563 0.030110212 0.054934163 -0.062279202 0.055589255
-0.0400353 -0.023099959 -0.06641958 0.016833028 -0.033289842 -0.0644442 -0.0590138 -0.015874935
0.07800702 0.07640321 0.0007616246 0.021636639 0.07984906 -0.04339367 -0.08225579 -0.09015327
0.059078448 -0.07137956 -0.007678715 -0.049618248 0.0014074724 0.041004952 -0.006261266 -0.06342927
-0.008460861 0.078772634 0.084318474 -0.060644865 -0.034498867 0.08939457 -0.0795388 0.0077347984
-0.037956547 0.049528748 -0.047068495 -0.053188726 -0.08948941 0.012383993 0.07276829 0.07589859
0.09294043 -0.067563854 0.037896372 0.0066913865 -0.058255814 0.043019675 0.08400897 0.043792248
-0.03442269 -0.07752485 0.08650746 0.0003273873 -0.046160374 -0.036139812 0.04350902 -0.076029845
-0.045320015 0.08122157 -0.070534185 0.021944249 -0.087189764 -0.054098025 -0.06720374 0.09033377
0.010784412 -0.0036967779 -0.043408792 -0.00093498256 -0.065847665 -0.03238748 0.049594153 -0.0627832
0.04080323 0.020076951 0.05722518 0.0034936343 -0.080334075 -0.0034216973 0.004008828 -0.05357101
0.05707161 0.032520678 0.060790226 -0.066150725 -0.097024836 -0.027231662 0.10245707 -0.083851464
0.042298682 0.00015856617 0.10790872 0.049565036 -0.07493468 -0.08952657 -0.0119927395 0.0127656525
00000000: 41dc 0dbd 0a40 8e3d bd58 bdbc 6bcf 1b3d
00000010: 497f 943c 2004 9ebd 6269 1b3c f2d6 ff3c
00000020: 5ef6 933c a136 7e3d dd9b 923c 3aa5 3c3d
00000030: 26f4 b4bd b14a a93d 06e3 833d 2b4f 0b3d
00000040: 0b00 a03c 2f07 87bc 64e8 07bd 83be 24bc
00000050: c10d a23d 81b7 febc 86c9 24bc 0b7f 82bd
00000060: 8955 c53c d1ee 593d 74cf afba df37 923d
00000070: b1a9 f63c a502 613d 7a18 7fbd 8fb1 633d
00000080: 0efc 23bd 203c bdbc fd06 88bd 6be5 893c
00000090: ee5a 08bd 52fb 83bd 74b8 71bd 270c 82bc
000000a0: 25c2 9f3d 4979 9c3d c3a7 473a 523f b13c
000000b0: e787 a33d 90bd 31bd b975 a8bd 47a2 b8bd
000000c0: 3efc 713d 722f 92bd bb9d fbbb 813c 4bbd
000000d0: f07a b83a cff4 273d 4e2b cdbb 35e7 81bd
000000e0: 6c9f 0abc 8c53 a13d 2aaf ac3d c066 78bd
000000f0: af4e 0dbd 8014 b73d 3de5 a2bd 3174 fd3b
00000100: 5378 1bbd a8de 4a3d e5ca 40bd 6cdc 59bd
00000110: 3946 b7bd 3be6 4a3c 8b07 953d b870 9b3d
00000120: 8d57 be3d eb5e 8abd 3a39 1b3d 6b43 db3b
00000130: a69d 6ebd 6635 303d e50c ac3d 805f 333d
00000140: cefe 0cbd 59c5 9ebd d32a b13d 2ea5 ab39
00000150: a912 3dbd 5707 14bd 8436 323d 89b5 9bbd
00000160: 7ba1 39bd 7f57 a63d 3a74 90bd 6dc4 b33c
00000170: 8c90 b2bd e495 5dbd 1da2 89bd e900 b93d
00000180: 1ab1 303c a445 72bb 6bcd 31bd 9e19 75ba
00000190: 24db 86bd bca8 04bd 3d23 4b3d 7a94 80bd
000001a0: 4a21 273d 6b78 a43c f364 6a3d 75f5 643b
000001b0: 3186 a4bd 8e3e 60bb 7d5c 833b 466d 5bbd
000001c0: ecc3 693d 6734 053d 2cff 783d 087a 87bd
000001d0: f5b4 c6bd ef14 dfbc 03d5 d13d 51ba abbd
000001e0: 6241 2d3d c844 2639 3fff dc3d b504 4b3d
000001f0: 5a77 99bd b559 b7bd 327d 44bc 0727 513c

fc2.weight f4 [64, 128]
-0.059821844 0.06575577 0.0751561 -0.063570745 -0.07829034 -0.0076961443 -0.023514464 0.059088
0.015133802 -0.08115156 -0.06066382 0.03265478 -0.056563236 -0.066149116 0.032953955 -0.08350575
-0.038713966 0.04293078 -0.0347627 -0.00755716 0.0074672415 0.0702311 0.029507712 0.012213506
-0.074386485 -0.048673954 0.06629073 -0.008674242 0.07966605 0.056751 0.01093547 -0.014170415
0.081153624 -0.009708077 -0.05876877 -0.034096602 0.07150509 -0.074985705 0.06911066 -0.0052271397
0.066827334 0.027542144 -0.08429213 -0.033482842 0.076579474 -0.05718222 0.076326296 -0.06450419
0.052665923 -0.08025414 0.034826763 0.06883633 0.06302286 0.083284326 0.049043648 -0.06996064
-0.017887173 -0.04247925 -0.0063084345 -0.049522847 0.06804998 0.044982035 0.037427474 0.009823738
-0.01855257 -0.0012968878 0.00881573 -0.038593184 -0.06465254 0.005871343 0.033153284 -0.07415187
-0.079755604 -0.02344946 -0.008495755 -0.0032167989 -0.062842846 -0.04801061 -0.020896796 -0.07144403
-0.0845103 0.05792062 0.008430369 -0.0040262574 -0.061447397 0.0750496 -0.079595216 0.00051264465
-0.0006116703 0.011743277 0.044128783 -0.026999693 -0.050272692 -0.00932499 0.012369835 0.061939545
0.07259811 -0.046304148 -0.07501284 0.08059328 -0.04020408 -0.09278941 0.03436119 -0.0044333898
0.008179165 0.024355944 0.022291498 -0.003995009 -0.024738222 0.0524563 -0.06657687 0.07770489
-0.08170158 0.08486872 0.04468996 0.047793817 0.034469582 -0.018484453 -0.07661349 0.07039027
0.039909296 -0.056513723 0.024466349 -0.06856906 0.05857806 0.03795556 0.07044944 0.08686905
0.065789245 0.01341196 -0.024979105 0.07369856 0.010672862 -0.086370625 -0.08694214 0.042175565
0.06858143 -0.04888424 -0.05031149 -0.0674643 -0.024277825 0.023346858 0.03299395 -0.051129267
0.008757043 0.080411375 -0.053439178 -0.027662009 -0.08792066 0.005659499 -0.00070124853 -0.015204917
-0.0015474065 -0.02704548 0.011146639 0.03679027 0.059300285 -0.00826953 0.013332754 0.034163315
-0.07200843 -0.025042536 -0.0024392465 -0.061024677 0.08299545 -0.012106867 -0.0043305517 -0.014536043
-0.062289257 0.05534741 0.0068936427 0.0026905197 -0.059982926 -0.08037221 -0.05700009 -0.054809965
-0.02742404 0.0128927855 0.049397916 0.06082954 0.012013037 -0.041780937 -0.0032348905 0.028531829
-0.036356784 -0.01282784 0.026775777 0.05398361 -0.013502974 -0.04752293 0.07058791 0.08090975
0.017756773 0.07515096 -0.048412602 0.04942264 0.023731463 -0.010491975 0.052598827 -0.0031269295
0.0113427285 0.0028729097 -0.004235392 -0.08177302 0.05851878 0.04860923 0.082754865 0.08412869
-0.008539088 0.05590414 -0.094702296 0.05326114 0.011158762 0.04163281 0.040454075 -0.017340267
-0.076772645 -0.036631137 0.053137634 0.024051541 -0.013593741 0.033162262 0.063541524 0.07868563
0.017007057 0.05558191 0.01981177 -0.050690684 -0.06348821 0.0039991466 -0.032347456 0.07623303
0.029652372 0.012713168 0.04801239 -0.032603975 0.011247244 0.02822367 -0.0069854846 0.01833562
-0.033134952 0.06452308 -0.06613437 0.049005404 -0.096241005 0.0020151075 0.07033343 -0.040869854
0.028413368 -0.05426387 -0.055182602 0.018036572 0.03393942 0.05347448 -0.017064294 -0.018402528
00000000: c007 75bd f6aa 863d 71eb 993d 6131 82bd
00000010: b056 a0bd f02f fcbb 68a1 c0bc 4206 723d
00000020: c4f3 773c ca32 a6bd a07a 78bd 05c1 053d
00000030: daae 67bd 3079 87bd bafa 063d 1005 abbd
00000040: 8992 1ebd 30d8 2f3d 5563 0ebd 0ea2 f7bb
00000050: c3af f43b 53d5 8f3d 28ba f13c 281b 483c
00000060: f157 98bd 575e 47bd 6fc3 873d 681e 0ebc
00000070: f427 a33d bd73 683d b02a 333c 072b 68bc
00000080: df33 a63d a00e 1fbc 86b7 70bd e1a8 0bbd
00000090: 4371 923d 1b92 99bd e489 8d3d 6d48 abbb
000000a0: c5dc 883d 10a0 e13c 5aa1 acbd 4e25 09bd
000000b0: b3d5 9c3d e737 6abd f650 9c3d c61a 84bd
000000c0: 39b8 573d 485c a4bd 82a6 0e3d 10fa 8c3d
000000d0: 2112 813d f990 aa3d fee1 483d 8647 8fbd
000000e0: 1f88 92bc b9fe 2dbd fcb6 cebb 78d8 4abd
000000f0: ca5d 8b3d 153f 383d 8d4d 193d bef3 203c
00000100: 8ffb 97bc 55fc a9ba da6f 103c e313 1ebd
00000110: 8d68 84bd 6564 c03b bdcb 073d f0dc 97bd
00000120: e856 a3bd 1519 c0bc c731 0bbc eed0 52bb
00000130: c0b3 80bd c6a6 44bd c22f abbc 3f51 92bd
00000140: bc13 adbd 2c3e 6d3d 881f 0a3c b2ee 83bb
00000150: 44b0 7bbd 9bb3 993d d102 a3bd 0063 063a
00000160: 8058 20ba e066 403c 62c0 343d 762e ddbc
00000170: bdea 4dbd d8c7 18bc d9aa 4a3c 52b4 7d3d
00000180: 51ae 943d 6ba9 3dbd 55a0 99bd 170e a53d
00000190: 09ad 24bd 6008 bebd 52be 0c3d f845 91bb
000001a0: e801 063c 1e86 c73c a99c b63c 91e8 82bb
000001b0: d0a7 cabc 6bdc 563d 7459 88bd be23 9f3d
000001c0: 2853 a7bd a7cf ad3d d20c 373d 73c3 433d
000001d0: fa2f 0d3d b56c 97bc 89e7 9cbd c628 903d
000001e0: ee77 233d ef7a 67bd a76d c83c ef6d 8cbd
000001f0: 8cef 6f3d 4a77 1b3d cc47 903d 67e8 b13d
00000200: 83bc 863d d6bd 5b3c fba0 ccbc 45ef 963d
00000210: 3add 2e3c 15e3 b0bd b80e b2bd 49c0 2c3d
00000220: 6c74 8c3d d73a 48bd 6c13 4ebd b92a 8abd
00000230: 4ae2 c6bc e941 bf3c aa24 073d ec6c 51bd
00000240: b379 0f3c b8ae a43d 0ae3 5abd 709b e2bc
00000250: bf0f b4bd 5273 b93b fed3 37ba 0b1e 79bc
00000260: 59d2 caba 7c8e ddbc 64a0 363c 65b1 163d
00000270: dbe4 723d ec7c 07bc a071 5a3c d5ee 0b3d
00000280: 2879 93bd 0126 cdbc c4db 1fbb 03f5 79bd
00000290: 85f9 a93d e15b 46bc 4de7 8dbb 9528 6ebc
000002a0: 0523 7fbd f7b3 623d 11e4 e13b 6e53 303b
000002b0: a8b0 75bd 2f9a a4bd ed78 69bd 6a80 60bd
000002c0: 61a8 e0bc 433c 533c 7855 4a3d 6528 793d
000002d0: 54d2 443c 7d22 2bbd 7500 54bb 95bb e93c
000002e0: daea 14bd dc2b 52bc e058 db3c eb1d 5d3d
000002f0: 943b 5dbc 67a7 42bd 6590 903d 03b4 a53d
00000300: a776 913c bfe8 993d 4b4c 46bd 656f 4a3d
00000310: 7c68 c23c 88e6 2bbc de71 573d 2ced 4cbb
00000320: dad6 393c 6d47 3c3b 0bc9 8abb 9d78 a7bd
00000330: 63b1 6f3d 791a 473d 627b a93d aa4b ac3d
00000340: 88e7 0bbc bdfb 643d 47f3 c1bd 5a28 5a3d
00000350: 3dd3 363c 2a87 2a3d 2cb3 253d 2d0d 8ebc
00000360: fa3a 9dbd 880a 16bd d9a6 593d bd07 c53c
00000370: 48b8 5ebc 27d5 073d 0f22 823d ee25 a13d
00000380: 6252 8b3c dba9 633d 4b4c a23c 09a1 4fbd
00000390: 1b06 82bd 460b 833b c47e 04bd 1020 9c3d
000003a0: 88e9 f23c e44a 503c a4a8 443d bf8b 05bd
000003b0: 5c46 383c 5335 e73c 7ee6 e4bb 9534 963c
000003c0: 84b8 07bd ad24 843d 7571 87bd e4b9 483d
000003d0: 011a c5bd e50f 043b f90a 903d 2667 27bd
000003e0: 27c3 e83c cb43 5ebd 2707 62bd 6fc1 933c
000003f0: 1004 0b3d 0e08 5b3d 6bca 8bbc e6c0 96bc

fc2.bias f4 [64]
-0.0990773 -0.12284022 0.0062874523 0.059411943 -0.06456083 -0.03262567 0.029653056 0.12812194
-0.09182257 0.08689019 -0.04410007 -0.028266322 -0.111561984 -0.05684257 0.12743792 0.009465557
0.07339434 0.04211055 -0.08042153 0.2609167 0.052054107 0.039210845 0.023230288 -0.030900087
0.033224765 -0.10023761 -0.09877908 -0.06993532 0.044252235 0.07954993 0.051181205 -0.111289576
-0.04280451 0.028844012 -0.0419292 0.006870452 -0.022289041 0.053433273 -0.09976426 0.02210414
0.0063562994 0.018844076 0.036252823 0.0013039458 -0.026680963 0.04687343 0.06330088 0.13686374
0.10591045 -0.016413512 -0.053568643 -0.015097474 0.0962815 -0.06785493 0.018608121 0.21816002
-0.0059003267 0.057296187 -0.089748755 -0.021031072 -0.07205136 -0.08393677 0.060067773 -0.050745632
00000000: 0ae9 cabd a793 fbbd f906 ce3b f059 733d
00000010: 7838 84bd 7fa2 05bd f7ea f23c 6632 033e
00000020: 790d bcbd 7cf3 b13d 46a2 34bd c68e e7bc
00000030: 9c7a e4bd c1d3 68bd 167f 023e 6c15 1b3c
00000040: c64f 963d 1d7c 2c3d 0bb4 a4bd e096 853e
00000050: b036 553d 8d9b 203d 724d be3c 2e22 fdbc
00000060: b116 083d 6049 cdbd b04c cabd 403a 8fbd
00000070: d541 353d 13eb a23d 62a3 513d caeb e3bd
00000080: c853 2fbd 474a ec3c f4bd 2bbd 8721 e13b
00000090: 8297 b6bc d9dc 5a3d 3451 ccbd be13 b53c
000000a0: 8148 d03b e45e 9a3c d77d 143d 29e9 aa3a
000000b0: 0992 dabc 5bfe 3f3d e4a3 813d 0226 0c3e
000000c0: 94e7 d83d a175 86bc cb6a 5bbd 655b 77bc
000000d0: 3c2f c53d 87f7 8abd 0f70 983c 5765 5f3e
000000e0: 8757 c1bb 68af 6a3d 32ce b7bd 5b49 acbc
000000f0: aa8f 93bd 0be7 abbd a009 763d a7da 4fbd

fc3.weight f4 [5, 64]
-0.054126184 -0.002553029 -0.0053781415 0.1197389 -0.08462058 -0.00074805284 -0.10317939 -0.00020387753
0.029240917 0.0031951803 -0.00031502853 0.057202987 0.0032027215 -0.05338225 0.008623589 -0.021942584
0.0026939109 0.10246494 0.07791962 -0.02593235 0.0017113168 -0.004109107 -0.11029584 -0.06476886
0.014969173 0.013308988 0.008859806 0.08474662 0.009891583 0.002091433 -0.0257271 0.033485197
-0.023200532 0.069572836 0.10337929 0.034373272 0.010374805 -0.0002781199 0.06316732 -0.018170632
-0.0003150973 -0.012786377 0.11476991 3.0007504e-05 0.025377199 -0.011815261 -0.0019929772 -0.009347563
-0.0011486596 0.007596866 -0.0014333008 -0.11798971 -0.0020533388 0.033137076 0.03884101 -0.05440227
-0.0013979685 -0.007898747 -0.10666639 -0.07206514 0.06912337 0.050007366 0.002947225 0.006254787
0.028659895 0.0049793893 0.017327195 -0.09883052 0.0808602 0.0027109229 -0.11275867 -0.0028193968
0.056905676 -0.013875105 0.013395076 -0.048743773 0.022260224 -0.05383644 -0.009210375 -0.004213798
-0.011047308 0.059486512 0.03453721 -0.03521254 0.0012849494 -0.00048771087 0.041882746 0.025211783
-0.0038146435 0.011994953 0.013556198 0.09516303 0.01820801 -0.004603455 -0.018124567 0.02348484
0.04562278 0.009671217 -0.030573504 0.08525234 0.00603007 -0.0033777014 0.0797036 -0.013640136
-0.0027313926 -0.010034626 0.11466662 0.003938188 0.026199948 -0.018498497 0.0003644441 -0.0064648143
0.0037408127 -0.0069299364 0.009753161 -0.060636014 0.0010396624 0.029047862 0.06976883 -0.059219792
-0.004910304 -0.02219891 -0.09467701 0.10420356 0.11122534 -0.037041232 -0.005410775 -0.011999219
-0.070430346 0.0002366085 -0.0016256551 0.08827992 -0.08910912 0.002759145 -0.114844285 -0.0018435799
-0.041509163 -0.0011956497 0.008218209 0.027702913 0.016693281 -0.017700225 0.0038814452 -0.026715895
-0.004041885 -0.016465766 0.10197176 -0.050157428 0.0011991095 -3.525976e-05 -0.05916679 -0.117154166
0.013735068 0.020942576 0.017917054 -0.10448611 0.021968737 0.00076066126 -0.038407378 0.05020898
-0.013170663 0.047901366 0.04857994 -0.0045859325 0.013719499 -0.0022161962 0.07258583 -0.02747563
-0.0027679757 -0.020164674 0.010031313 0.0052041416 0.04339349 -0.023291975 -0.0007328539 -0.012822333
0.0019749985 0.0021690372 0.004919629 0.1233177 -0.0027054155 0.053983383 -0.04990696 -0.093425855
-0.008493163 -0.021132035 0.019130116 -0.05902448 -0.02294772 0.08758131 0.0008255828 0.0057851505
0.10349329 0.080513015 0.81275225 0.067599714 -0.10170202 -0.051568363 -0.11688858 0.0022921958
0.01956024 0.47800872 0.12751618 0.06270093 0.11344357 -0.101749435 -0.09381464 -0.02002788
0.10429255 0.09220846 0.087632515 -0.15123066 0.021904493 0.28577694 0.07965332 -0.10322543
0.0115058385 0.11753031 -0.035022233 0.07177037 -0.071606964 -0.068256825 0.05605624 0.08113141
0.0077218153 0.12074156 0.05714575 -0.0688683 -0.08645916 0.013068121 0.069477744 0.11640691
0.017656967 0.08593506 0.11139729 -0.07529216 0.039177373 -0.059970945 -0.022509024 -0.20351695
-0.009454899 0.12596329 -0.07608138 -0.007864769 0.0070802285 -0.1046164 -0.012129099 0.0060659554
0.117262684 -0.06165316 0.002990839 -0.047588505 0.117918365 -0.088992976 0.011762898 0.7149116
00000000: 6bb3 5dbd b850 27bb 1f3b b0bb ab39 f53d
00000010: 8e4d adbd fa18 44ba b74f d3bd f5c7 55b9
00000020: a68a ef3c 3b66 513b 6a2a a5b9 ae4d 6a3d
00000030: c0e4 513b 59a7 5abd f449 0d3c efc0 b3bc
00000040: 538c 303b 23d9 d13d 5294 9f3d 1470 d4bc
00000050: 434e e03a b0a5 86bb c9e2 e1bd 89a5 84bd
00000060: 4341 753c f10d 5a3c b828 113c a38f ad3d
00000070: 4e10 223c 6c10 093b a4c1 d2bc c627 093d
00000080: 0b0f bebc 347c 8e3d 85b8 d33d fdca 0c3d
00000090: 16fb 293c 9fd0 91b9 de5d 813d 94da 94bc
000000a0: a533 a5b9 f47d 51bc 7d0c eb3d a0b8 fb37
000000b0: d8e3 cf3c cc94 41bc 9c9c 02bb 8526 19bc
000000c0: 9f8e 96ba 22ef f83b 98dd bbba 97a4 f1bd
000000d0: 4f91 06bb beba 073d c017 1f3d ead4 5ebd
000000e0: 0a3c b7ba bf69 01bc e973 dabd e396 93bd
000000f0: 8e90 8d3d 86d4 4c3d 3b26 413b f5f4 cc3b
00000100: 28c8 ea3c 252a a33b c3f1 8d3c a867 cabd
00000110: 089a a53d bda9 313b 04ee e6bd a1c5 38bb
00000120: ed15 693d 6954 63bc 0577 5b3c 8da7 47bd
00000130: 135b b63c 9983 5cbd 1de7 16bc e613 8abb
00000140: c5ff 34bc 21a8 733d e476 0d3d 063b 10bd
00000150: bf6b a83a 72b3 ffb9 3e8d 2b3d f188 ce3c
00000160: 19ff 79bb 7b86 443c d11a 5e3c d6e4 c23d
00000170: f728 953c 94d8 96bb f979 94bc 4763 c03c
00000180: f4de 3a3d 0674 1e3c 4975 fabc c798 ae3d
00000190: e597 c53b 6d5c 5dbb a43b a33d e17a 5fbc
000001a0: 2a01 33bb 4668 24bc 55d6 ea3d ea0b 813b
000001b0: 46a1 d63c 298a 97bc dc12 bf39 cbd6 d3bb
000001c0: 6c28 753b 8514 e3bb b9cb 1f3c 785d 78bd
000001d0: 4845 883a c8f5 ed3c f6e2 8e3d 7490 72bd
000001e0: 9ee6 a0bb 7dda b5bc 05e6 c1bd ad68 d53d
000001f0: 1cca e33d 8cb8 17bd df4c b1bb 5f98 44bc
00000200: c93d 90bd 1c1a 7839 ef13 d5ba 1acc b43d
00000210: d87e b6bd c6d2 343b 7b33 ebbd 47a4 f1ba
00000220: 8305 2abd 59b7 9cba aba5 063c 38f1 e23c
00000230: 59c0 883c 1000 91bc d85f 7e3b 4bdb dabc
00000240: ca71 84bb 37e3 86bc 92d6 d03d e071 4dbd
00000250: 702b 9d3a e1e3 13b8 e058 72bd 86ee efbd
00000260: 0d09 613c c48f ab3c c9c6 923c d0fc d5bd
00000270: c8f7 b33c 1d67 473a 0e51 1dbd eea7 4d3d
00000280: c4c9 57bc 3934 443d c2fb 463d 9745 96bb
00000290: c0c7 603c 9a3d 11bb e1a7 943d 9314 e1bc
000002a0: ed66 35bb 6330 a5bc 605a 243c 8187 aa3b
000002b0: 5fbd 313d d0ce bebc fe1c 40ba c314 52bc
000002c0: fa6e 013b 6826 0e3b d734 a13b fe8d fc3d
000002d0: 574d 31bb ae1d 5d3d 3e6b 4cbd 0e56 bfbd
000002e0: e826 0bbc 171d adbc c3b6 9c3c a7c3 71bd
000002f0: dbfc bbbc d45d b33d ed6b 583a 5c91 bd3b
00000300: 4af4 d33d 02e4 a43d 8810 503f b871 8a3d
00000310: 2649 d0bd 5939 53bd 4863 efbd aa38 163b
00000320: cc3c a03c 8fbd f43e 9a93 023e 5869 803d
00000330: 1a55 e83d 0262 d0bd e421 c0bd 8211 a4bc
00000340: 5597 d53d cad7 bc3d ad78 b33d 36dc 1abe
00000350: 0d71 b33c 5b51 923e 4821 a33d db67 d3bd
00000360: fc82 3c3c bbb3 f03d 7973 0fbd 58fc 923d
00000370: aca6 92bd 3cca 8bbd 3a9b 653d 3a28 a63d
00000380: 4807 fd3b 5a47 f73d a911 6a3d d30a 8dbd
00000390: 8011 b1bd ac1b 563c 594a 8e3d bf66 ee3d
000003a0: 58a5 903c b9fe af3d 4324 e43d c732 9abd
000003b0: 7478 203d 18a4 75bd d864 b8bc bf66 50be
000003c0: b8e8 1abc 85fc 003e 8ed0 9bbd 3bdb 00bc
000003d0: 4301 e83b 2041 d6bd 21b9 46bc ecc4 c63b
000003e0: 6b27 f03d 0688 7cbd f401 443b 2aec 42bd
000003f0: 2f7f f13d f341 b6bd 2cb9 403c 7204 373f

fc3.bias f4 [5]
-0.34691402 -0.33618382 -0.32048598 -0.26381683 -0.235862
00000000: b79e b1be 4920 acbe bd16 a4be 0013 87be
00000010: cf85 71be
