model_weights/20epochsTransformerNet_1_0_1.pth (torch_old, 555731 bytes, 14 tensors)

encoder0.self_attn.in_proj_weight f4 [96, 32]
0	0x3e6f8b96	0.23393092
1	0x3e341e87	0.1758977
2	0x3e458459	0.19288768
3	0x3da9f37b	0.08298393
4	0x3d98257d	0.07429025
5	0x3d942862	0.07234265
6	0x3d6f45a7	0.058416035
7	0xbd800221	-0.06250406
8	0xbe296f6a	-0.16546407
9	0x3e154453	0.14576845
10	0x3d893bb7	0.06700843
11	0xbdc69a3e	-0.09697388
12	0x3dabec9d	0.0839474
13	0xbe378d14	-0.17924911
14	0x3dad5d78	0.084650934
15	0x3d062535	0.032750327
16	0xbdf112dd	-0.11771176
17	0xbe0bf23a	-0.13666621
18	0x3d9ffe1a	0.07812138
19	0x3de5acd3	0.11214604
20	0x3bfb0c0b	0.0076613477
21	0x3e2692c5	0.16266926
22	0x3e06d0fe	0.13165662
23	0xbde7fae1	-0.11327148
24	0x3e5326b2	0.2062023
25	0x3dc82243	0.0977216
26	0xbe2dc5f3	-0.16970043
27	0x3e3040f0	0.17212272
28	0xbe3c40f7	-0.18384157
29	0xbd84205f	-0.06451487
30	0x3cf45304	0.029824741
31	0xbe324baa	-0.17411676
32	0x3e0e1c28	0.13877928
33	0xbe38b29e	-0.18036887
34	0x3e3653cf	0.17805408
35	0x3d41085c	0.047127113
36	0xbdb73759	-0.089461036
37	0xbd9bc4c8	-0.076058924
38	0xbce04688	-0.027377382
39	0x3e372954	0.17886859
40	0xbd8ec919	-0.0697195
41	0xbdef306f	-0.1167916
42	0x3d1ea3d0	0.038730443
43	0x3e63c57d	0.22243305
44	0x3e1b6501	0.15175249
45	0xbdb33121	-0.08749605
46	0xbcb600e0	-0.022217214
47	0x3d697ad8	0.05700192
48	0x3e4735dd	0.19454141
49	0x3e3bb48b	0.1833059
50	0x3d8e44b4	0.06946698
51	0x3e4b58ab	0.19858043
52	0x3e2fae5e	0.1715636
53	0xbdba1b7c	-0.090872735
54	0xbda61123	-0.08108737
55	0xbe169f97	-0.14709316
56	0x3e32fed4	0.17480022
57	0x3e187c34	0.1489113
58	0xbdd7c034	-0.10534707
59	0x3cc48af5	0.023992041
60	0x3d408d6b	0.047009867
61	0x3cd67408	0.026178375
62	0xbd0a34c8	-0.033741742
63	0x3e27aaea	0.16373792
64	0xbd8151cf	-0.06314432
65	0x3e50caa9	0.20389809
66	0xbe1a9da2	-0.15099195
67	0xbcd464af	-0.025926916
68	0x3be356b2	0.006937825
69	0x3d8b9261	0.06815029
70	0xbd0ad571	-0.03389496
71	0xbe0525be	-0.13002679
72	0xbe448dae	-0.19194672
73	0xbe0facbc	-0.14030737
74	0x3e037b37	0.12839971
75	0xbdab8bf9	-0.08376307
76	0xbe604161	-0.2189994
77	0x3e448d70	0.19194579
78	0xbe247cda	-0.16063252
79	0x3d8a82d4	0.06763235
80	0x3e066782	0.13125423
81	0xbdd40830	-0.10353124
82	0x3e4c3ebf	0.1994581
83	0xbcc630fe	-0.024193283
84	0x3b94c83a	0.0045404704
85	0xbd468821	-0.048469666
86	0xbe18933c	-0.14899915
87	0xbc32f8ad	-0.010923547
88	0x3d2c77cd	0.04210644
89	0x3e495c3b	0.1966409
90	0x3d136de9	0.03599349
91	0xbe4ebda1	-0.20189525
92	0x3de80baf	0.113303535
93	0xbda051ce	-0.07828103
94	0x3dd362b9	0.10321564
95	0x3e2aad7d	0.16667743
96	0x3d52210f	0.05130106
97	0xbe15cfb8	-0.1463002
98	0xbe39295c	-0.18082184
99	0xbd6a82ba	-0.057253577
100	0x3dc0d7e2	0.094161764
101	0x3e39230f	0.1807978
102	0xbe01db75	-0.12681372
103	0xbd0017f6	-0.03127285
104	0x3d42e00d	0.047576953
105	0xbe3948ef	-0.18094228
106	0x3e20b14c	0.15692633
107	0x3dff4c75	0.12465755
108	0x3d3a75a8	0.045522362
109	0x3d14f1ca	0.0363634
110	0xbd8e2765	-0.06941108
111	0x3e557c65	0.20848234
112	0xbe13c552	-0.1443074
113	0xbbf36c0a	-0.0074286507
114	0x3ddbd8d2	0.107347146
115	0xbd400c1f	-0.04688656
116	0x3ce82d3e	0.028341886
117	0xbe362001	-0.17785646
118	0xbdb47fa8	-0.08813411
119	0x3e3a1419	0.18171729
120	0x3e431e86	0.19054613
121	0x3d44e972	0.048074193
122	0x3da307db	0.07960483
123	0x3da58149	0.080813
124	0x3be5a376	0.0070080115
125	0x3d329efa	0.043608643
126	0xbd8975ef	-0.06711947
127	0x3e699926	0.22812328
128	0x3d087811	0.03331763
129	0xbd7f7a59	-0.06237254
130	0xbda06a9d	-0.07832835
131	0xbe2ca68a	-0.16860405
132	0xbdb85c42	-0.09001972
133	0xbdbd5dac	-0.09246382
134	0xbbe3200e	-0.0069313115
135	0x3dd14559	0.10218305
136	0x3e6a659a	0.2289032
137	0xbe03598c	-0.12827128
138	0xbe3a6bb1	-0.18205144
139	0x3e26105b	0.16217177
140	0x3e0c1409	0.13679518
141	0xbd122926	-0.035683773
142	0xbdbf5309	-0.093420096
143	0xbdaea23a	-0.08527036
144	0x3cc7a776	0.024371844
145	0xbdff5074	-0.12466517
146	0x3d52ee52	0.05149681
147	0x3dfd8c81	0.123803146
148	0x3e4b917c	0.19879717
149	0x3d732c36	0.059368335
150	0x3ddc1c64	0.107476026
151	0x3d6c8596	0.057744585
152	0x3e6d9f70	0.23205352
153	0xbe16b07d	-0.14715762
154	0x3e2d913f	0.16949938
155	0xbe0bfcf0	-0.13670707
156	0xbd844b92	-0.064597264
157	0x3e0183b3	0.12647896
158	0x3ccf4a4e	0.025303986
159	0x3d7f5b3b	0.062342864
160	0x3e209725	0.15682657
161	0x3d6baf6f	0.057540353
162	0xbab57503	-0.0013844076
163	0x3df08ca2	0.117455736
164	0xbd54b366	-0.0519289
165	0xbd74609b	-0.059662443
166	0xbda448f3	-0.080217265
167	0xbd536e8b	-0.051619094
168	0x3e19c38f	0.15016006
169	0xbda6d142	-0.081453815
170	0x3dec504d	0.11538754
171	0xbdc7f27b	-0.09763046
172	0xbd6bbfa9	-0.05755583
173	0xbe09b814	-0.13449126
174	0xbd45c25c	-0.04828106
175	0x3e4a1cbe	0.19737527
176	0x3e6e5dfa	0.23278037
177	0xbd52e075	-0.05148359
178	0xbdbc667d	-0.091992356
179	0xbe055a3c	-0.13022703
180	0xbcea346c	-0.02858945
181	0x3dc2cb99	0.095114894
182	0xbe79401c	-0.24340862
183	0xbcd28619	-0.025698708
184	0x3e211899	0.1573204
185	0xbe5687a1	-0.20950176
186	0x3d21c0e8	0.03949061
187	0x3b167aed	0.0022961453
188	0x3df3cb4e	0.11904012
189	0x3d807933	0.06273117
190	0x3f082a6f	0.5318975
191	0x3dadb86d	0.08482442
192	0x3d04aa0c	0.03238873
193	0xbe1f3556	-0.1554769
194	0x3c820452	0.0158712
195	0x3e44ac9f	0.19206475
196	0xbe06e56e	-0.13173458
197	0x3e08ad5b	0.1334738
198	0x3e821135	0.25403753
199	0x3d9abf12	0.07555975
200	0xbc9d05e5	-0.01916785
201	0x3dad5ca0	0.084649324
202	0x3d00fff0	0.03149408
203	0x3e0f1df5	0.13976271
204	0xbabd866e	-0.0014459619
205	0xbe10d0f9	-0.14142217
206	0xbd26921a	-0.040666677
207	0xbe1385ea	-0.14406553
208	0xbb01b556	-0.0019791923
209	0xbd62bc81	-0.055355553
210	0xbdfff145	-0.124971904
211	0xbe345011	-0.17608668
212	0xbe5f0949	-0.21780886
213	0xbd07353c	-0.033009753
214	0xbd5b5fca	-0.05355815
215	0xbd83d39b	-0.06436845
216	0xbe698ed2	-0.22808388
217	0xbdad897f	-0.08473491
218	0x3e3ff90b	0.18747346
219	0x3e208527	0.15675794
220	0xbe872ce8	-0.26401448
221	0x3e0a58f4	0.13510495
222	0x3da4bc96	0.080437824
223	0xbdcbfea1	-0.09960676
224	0x3d6619d7	0.056176987
225	0x3df2d8ef	0.11857783
226	0xbcb84c4e	-0.022497322
227	0x3d1b6743	0.037940275
228	0xbdc1dc18	-0.09465808
229	0x3dff273a	0.12458654
230	0x3d49cf86	0.049270175
231	0x3e3b674d	0.18301125
232	0x3de0ea9c	0.10982248
233	0x3e3c1897	0.18368755
234	0x3c136047	0.008995122
235	0x3d9580f6	0.07299988
236	0xbddc7963	-0.1076534
237	0x3e2cb6fd	0.1686668
238	0xbe2919c5	-0.16513737
239	0xbe3000c6	-0.17187795
240	0xbe02d1de	-0.1277537
241	0xbdd698c2	-0.10478355
242	0xbd8f5f58	-0.07000607
243	0x3e406971	0.18790223
244	0xbc90f4ce	-0.017694857
245	0xbdbdf042	-0.09274341
246	0x3d1a68ae	0.037697487
247	0xbe5ccaf1	-0.21561791
248	0x3e22f72d	0.15914603
249	0x3d9576cb	0.072980486
250	0xbd7c07bf	-0.061530825
251	0x3e2163fb	0.15760796
252	0x3d5d56c4	0.054037824
253	0x3c239506	0.00998426
254	0x3dd5ec3a	0.10445447
255	0xbe0d4e83	-0.13799481

encoder0.self_attn.in_proj_bias f4 [96]
0	0xbd55bedf	-0.052183982
1	0xbd33f550	-0.04393512
2	0x3bae9d0f	0.0053287814
3	0xbcb78aaf	-0.022404997
4	0xbe0f038b	-0.13966195
5	0xbe8e290d	-0.27765694
6	0x3ded6f6d	0.115935184
7	0xbde53d26	-0.11193304
8	0x3d4725b3	0.048619937
9	0xbdb0a7fe	-0.08625792
10	0x3da7fc83	0.0820246
11	0x3d82380f	0.063583486
12	0x3d62fe9c	0.055418596
13	0x3d4ef01e	0.050521962
14	0xbdd1228b	-0.10211667
15	0x3bebf495	0.0072007873
16	0x3bc1c957	0.005913894
17	0x3c23bb58	0.009993397
18	0xbc22baf2	-0.009932267
19	0xbb918a8f	-0.0044415663
20	0xbe01221b	-0.12610666
21	0x3de51862	0.11186291
22	0xbecea764	-0.40362084
23	0xbeab5e82	-0.3347054
24	0xbd3ed726	-0.0465919
25	0xbdc4972c	-0.09599146
26	0xbda4dd9d	-0.08050082
27	0x3c4854ce	0.01222725
28	0xbc02b8ba	-0.007978613
29	0x3c654547	0.013993568
30	0x3c2d1b3c	0.010565575
31	0xbc865da1	-0.016402068
32	0xae2b09af	-3.88895e-11
33	0xafaf3864	-3.1872383e-10
34	0xae8c6e51	-6.386059e-11
35	0x2ea793ec	7.620557e-11
36	0x301b8e70	5.659109e-10
37	0x30a63369	1.2092701e-09
38	0x30180c0e	5.531441e-10
39	0xb0632185	-8.2629753e-10
40	0xafb4300c	-3.277595e-10
41	0xafb7f21c	-3.3459535e-10
42	0xaf49f0d5	-1.8366404e-10
43	0xaf843944	-2.405135e-10
44	0xb000ef28	-4.690599e-10
45	0x2f2892ee	1.5331711e-10
46	0x2fd2680d	3.827271e-10
47	0xae72f399	-5.5240788e-11
48	0xacd4f903	-6.0530483e-12
49	0xad67cba1	-1.31760445e-11
50	0x2e6df5a3	5.410573e-11
51	0x2f2d5a84	1.5766416e-10
52	0x2e3db0a8	4.3130527e-11
53	0xae87552a	-6.1542174e-11
54	0x302ad93f	6.2154365e-10
55	0xaf8094fb	-2.338892e-10
56	0x2e6ae212	5.340623e-11
57	0xae2363a3	-3.7150404e-11
58	0x2ec2b5bd	8.854382e-11
59	0xae441b2b	-4.458937e-11
60	0x2e4a9391	4.6060548e-11
61	0x2e20ef8a	3.659254e-11
62	0x2da31ef1	1.8544695e-11
63	0x2e415751	4.3960672e-11
64	0x3ccc0407	0.024904264
65	0xbda621ae	-0.08111893
66	0xbe4e578e	-0.20150587
67	0xbd97d83d	-0.07414291
68	0x3ddd2671	0.10798348
69	0x3e0ca4b1	0.137347
70	0xbe3ba070	-0.18322921
71	0x3e92f120	0.2869959
72	0x3c7177e1	0.014738054
73	0x3d063620	0.03276646
74	0x3ea0677b	0.3132895
75	0x3e5f6874	0.2181719
76	0xbe62a220	-0.22132158
77	0x3b216c3e	0.0024631168
78	0xbdae0b19	-0.084982105
79	0xbdb0f01a	-0.08639546
80	0xbc124120	-0.00892666
81	0x3d1dc7c9	0.038520608
82	0xbdb492a6	-0.088170335
83	0x3e0abe64	0.13549191
84	0xbe21afcb	-0.15789716
85	0xbeb26446	-0.34842128
86	0xbc884127	-0.01663263
87	0xbde3260e	-0.11091243
88	0xbe22ec03	-0.15910344
89	0xbdb5b60b	-0.088726126
90	0xbe078d95	-0.13237603
91	0x3e0d6f21	0.13811924
92	0x3d91b2de	0.07114194
93	0xbdc520f1	-0.09625424
94	0xbd95e348	-0.07318741
95	0xbca0ca4b	-0.01962771

encoder0.self_attn.out_proj.weight f4 [32, 32]
0	0xbe011d60	-0.12608862
1	0xbcec6b75	-0.028859833
2	0x3e1f800f	0.15576194
3	0xbdce99f4	-0.10087958
4	0xbe42af55	-0.19012196
5	0xbe488af3	-0.19584255
6	0x3da50a8f	0.080586545
7	0xbe7ac4a1	-0.2448907
8	0x3d84d4d4	0.06485906
9	0x3d8bc304	0.06824306
10	0xbe6cf9ef	-0.23142217
11	0xbe65bd71	-0.22435547
12	0x3cb4127b	0.021981468
13	0xbd179080	-0.03700304
14	0x3e315a0b	0.17319505
15	0x3e1f255d	0.15541597
16	0xbd85f56e	-0.065409526
17	0xbe06c1a0	-0.131598
18	0xbc5c35c4	-0.013440553
19	0x3d928d07	0.07155805
20	0x3e317e8a	0.17333427
21	0x3dfe6bdf	0.124229185
22	0xbe18d1a5	-0.14923723
23	0xbd286f2e	-0.041121654
24	0x3e18197d	0.14853473
25	0x3dcd17fb	0.100143395
26	0x3d6b1832	0.05739612
27	0xbe323d0b	-0.17406099
28	0xbe0b1aee	-0.13584492
29	0x3e009e94	0.12560493
30	0xbdb9c386	-0.09070496
31	0x3d41e1db	0.047334533
32	0x3df6095d	0.12013505
33	0xbd5b7026	-0.05357375
34	0x3ddfdb66	0.10930519
35	0xbdb94392	-0.09046091
36	0x3da59ae5	0.080861844
37	0xbc96cc53	-0.018407976
38	0xbd5dca8e	-0.05414825
39	0xbd3ee6ad	-0.04660671
40	0xbdd9bf5c	-0.10632202
41	0x3da30d8e	0.0796157
42	0x3e31bc4b	0.17356984
43	0x3e275ff5	0.16345198
44	0xbc94e6a1	-0.018176379
45	0x3e34bb55	0.17649586
46	0xbdb16c1d	-0.08663199
47	0x3d971f74	0.07379046
48	0x3dcd48bf	0.10023641
49	0x3daeec25	0.08541135
50	0x3d20d79e	0.03926813
51	0x3db01bcf	0.08599054
52	0xbc92f757	-0.017940206
53	0xbe975a54	-0.29561102
54	0x3e00b73b	0.12569897
55	0x3d652c06	0.055950187
56	0xbdf62b50	-0.1201998
57	0x3e201d3e	0.15636155
58	0xbe104c2e	-0.1409156
59	0x3d68e440	0.0568583
60	0x3cadb5a5	0.021204779
61	0x3d6a8500	0.057255745
62	0x3d39e4db	0.04538427
63	0xbe1431e7	-0.14472161
64	0x3d513f5a	0.051085807
65	0x3d75dca4	0.060024872
66	0xbde490cf	-0.111604325
67	0xbd825ab7	-0.06364959
68	0xbe0afd1c	-0.13573116
69	0xbd981c1a	-0.07427235
70	0x3d615ff5	0.055023152
71	0x3d5c840a	0.05383686
72	0xbd81dcab	-0.06340917
73	0x3e35f0af	0.17767595
74	0xbdcaa796	-0.09895246
75	0x3dd210f7	0.10257142
76	0xbd24d008	-0.040237457
77	0xbdc0e9fe	-0.094196305
78	0xbc671019	-0.014102959
79	0xbe10a160	-0.1412406
80	0xbdf976db	-0.12180873
81	0x3dfdef89	0.12399203
82	0xbd4dfb69	-0.05028859
83	0x3e18e3e5	0.14930685
84	0xbdb08548	-0.086191714
85	0x3da32c18	0.079673946
86	0xbe358f4c	-0.17730445
87	0xbe2e584c	-0.1702587
88	0xbe1563f8	-0.14588916
89	0xbd3c20f9	-0.045929883
90	0xbd9c80a5	-0.076417245
91	0x3dc1c3e4	0.09461191
92	0xbe008002	-0.12548831
93	0xbc165203	-0.009174827
94	0x3e2661e6	0.16248283
95	0xbd255050	-0.040359795
96	0xbd612022	-0.054962285
97	0xbe187181	-0.14887048
98	0xbe1a88df	-0.15091275
99	0xbe33b914	-0.1755107
100	0xbdcdac76	-0.1004266
101	0x3daaccd6	0.083398506
102	0xbe569ee4	-0.2095905
103	0xbe0f0215	-0.13965638
104	0x3e08cd3f	0.13359545
105	0xbd9ae884	-0.0756388
106	0xbdb212a5	-0.086949624
107	0xbe071535	-0.13191684
108	0xbd1dfca0	-0.038571
109	0xbd0c5eb0	-0.03426999
110	0xbda92db2	-0.08260669
111	0xbd9f2563	-0.07770803
112	0x3dd3e711	0.10346807
113	0xbcf89914	-0.03034643
114	0xbdb79fd6	-0.08966033
115	0xbd1038ad	-0.0352103
116	0x3d0163de	0.03158938
117	0xbe2963ac	-0.16541928
118	0xbdac7249	-0.08420236
119	0x3df11072	0.11770715
120	0x3df21972	0.118212596
121	0xbe0f38f1	-0.13986565
122	0x3d734896	0.059395395
123	0xbc2627b3	-0.010141301
124	0xbdb1c566	-0.08680229
125	0x3e029484	0.12751967
126	0xbe028fe1	-0.12750198
127	0xbe2d44d8	-0.16920793
128	0x3e4108f4	0.18851072
129	0x3de808dc	0.11329815
130	0x3dd98569	0.10621149
131	0x3e359c83	0.17735486
132	0xbd129c1d	-0.035793412
133	0xbe2c9461	-0.16853477
134	0x3da650ba	0.08120866
135	0x3d109f4f	0.03530818
136	0x3dc64ee1	0.09683014
137	0xbda98f8a	-0.08279331
138	0x3d60ebca	0.054912366
139	0xbe531369	-0.20612873
140	0x3cf98767	0.030460073
141	0xbe0323b1	-0.12806584
142	0x3d22b6f3	0.039725255
143	0x3db42c10	0.08797467
144	0xbd07d141	-0.033158544
145	0x3e0ceadb	0.13761465
146	0x3e2bdc00	0.16783142
147	0x3ced1912	0.028942619
148	0x3daa545f	0.08316874
149	0x3e3dea46	0.185464
150	0x3db2f5ec	0.08738312
151	0xbe0ce08c	-0.13757533
152	0x3d9ebe5c	0.07751152
153	0x3c5b615e	0.013389913
154	0xbe0809a2	-0.13284925
155	0xbd4ab593	-0.04948957
156	0x3dd3a418	0.10334033
157	0x3dcd0ab5	0.10011808
158	0xbd2877b6	-0.04112979
159	0xbe01ef3a	-0.12688914
160	0x3d8afdd3	0.067866944
161	0x3dce4881	0.10072423
162	0x3e28f837	0.16500936
163	0x3e078f6f	0.1323831
164	0x3e0c089b	0.13675158
165	0x3e1ebb06	0.15501031
166	0xbcd3f5a6	-0.02587397
167	0xbcb1c6e0	-0.021701276
168	0xbdfb716f	-0.12277495
169	0x3e1c9823	0.1529241
170	0xbc9fa4a3	-0.019487685
171	0xbdb15933	-0.086595915
172	0x3e034dc5	0.12822635
173	0x3e1c6530	0.15272975
174	0x3dc77488	0.097390234
175	0x3bc79c9d	0.006091668
176	0x3e4a405e	0.19751117
177	0xbd461a9e	-0.048365228
178	0xbca1a16d	-0.019730294
179	0xbdb56406	-0.088569686
180	0xbd6659f5	-0.056238133
181	0xbd672dc5	-0.056440134
182	0xbe54fe8a	-0.20800224
183	0xbdf0acc2	-0.11751701
184	0xbe1bea67	-0.15226136
185	0x3da832de	0.08212827
186	0x3c919726	0.017772269
187	0x3c187259	0.009304606
188	0xbddae02a	-0.10687287
189	0x3b37e5dc	0.002806059
190	0x3da0d1ff	0.078525536
191	0xbdd93532	-0.10605849
192	0xbc59e054	-0.013298113
193	0x3d5604d3	0.052250694
194	0x3e0b0de1	0.13579513
195	0xbd2a0ffc	-0.04151915
196	0xbdf8c0a2	-0.12146117
197	0xbdd05e51	-0.101742394
198	0xbe343650	-0.17598844
199	0x3d70f45e	0.058826797
200	0x3df0dddd	0.11761067
201	0xbdf8ef32	-0.12154998
202	0xbc2c82f8	-0.010529272
203	0x3d461d26	0.048367642
204	0xbe2d4c7c	-0.16923708
205	0xbd59b217	-0.053148355
206	0xbe128c8b	-0.14311425
207	0xbdce9704	-0.10087398
208	0xbdcd6668	-0.10029298
209	0xbd66f22f	-0.056383308
210	0xbd957366	-0.07297401
211	0x3d4c7432	0.0499155
212	0xbe22efd5	-0.15911801
213	0xbe0fef29	-0.14056076
214	0x3dfcbcf9	0.12340731
215	0xbd332ec6	-0.04374578
216	0x3e1533e6	0.14570579
217	0x3cced775	0.025249222
218	0x3dc10280	0.09424305
219	0x3da23d4c	0.07921848
220	0x3d4389e6	0.047738932
221	0xbdaf95fc	-0.08573529
222	0xbe2760ca	-0.16345516
223	0x3c3a1fa5	0.011360084
224	0x3de5f3a6	0.11228113
225	0xbda59194	-0.080844074
226	0x3e2a3a23	0.1662374
227	0xbc904e16	-0.01761536
228	0xbe0f6304	-0.14002615
229	0x3d7f4b2c	0.06232755
230	0xbe041749	-0.12899508
231	0x3c96a47a	0.018388975
232	0xbd156185	-0.036469955
233	0xbe039cf7	-0.12852846
234	0xbe1adde4	-0.15123707
235	0x3d3b4b9a	0.045726396
236	0xbcae517c	-0.02127909
237	0x3e275da0	0.16344309
238	0xbccbce5b	-0.024878671
239	0xbc1c8067	-0.009552098
240	0xbd5a387e	-0.05327653
241	0xbe056553	-0.13026933
242	0xbe1a5fff	-0.15075682
243	0x3ccb8b4c	0.024846695
244	0x3e1ef932	0.15524748
245	0x3e0f0036	0.13964924
246	0x3dd39771	0.103316195
247	0x3e2388da	0.15970173
248	0xbe2a453f	-0.16627978
249	0x3d37f16d	0.044907976
250	0x3e2ffe29	0.17186798
251	0xbe0694fc	-0.1314277
252	0xbe0ae8f6	-0.1356543
253	0x3e0b0fe7	0.13580285
254	0xbe2096a7	-0.1568247
255	0x3d3bb5f3	0.045827817

encoder0.self_attn.out_proj.bias f4 [32]
0	0xbe7862fa	-0.24256507
1	0x3e50a361	0.20374824
2	0x3e082042	0.13293555
3	0x3df04ee8	0.117338
4	0xbdc7a6a1	-0.09748579
5	0x3c842473	0.016130662
6	0x3db5b021	0.088714845
7	0xbda3f11e	-0.08004974
8	0xbd977884	-0.073960334
9	0x3d96b7d8	0.07359284
10	0xbd7e3846	-0.062065385
11	0x3e513fcc	0.20434493
12	0x3d880f1c	0.06643507
13	0x3dfc5b8c	0.12322149
14	0x3d9a0054	0.07519594
15	0xbcddef99	-0.027091788
16	0xbe02e427	-0.12782346
17	0x3e19b011	0.1500857
18	0xbcb979b2	-0.022641037
19	0x3e456971	0.19278504
20	0xbe509dcd	-0.20372696
21	0x3d4be833	0.04978199
22	0x3e15d293	0.14631109
23	0x3e449893	0.19198827
24	0xbe10cf72	-0.14141634
25	0x3e13a03f	0.14416598
26	0x3cd1d0ba	0.025612224
27	0x3d19ec49	0.037578855
28	0xbe926b09	-0.28597286
29	0x3e3fafc4	0.18719393
30	0xbea2b72d	-0.31780377
31	0x3d90fdc4	0.07079652

encoder0.linear1.weight f4 [2048, 32]
0	0xbc9936bd	-0.018702859
1	0x3e080122	0.13281682
2	0xbda6d4a0	-0.08146024
3	0xbe204cc0	-0.15654278
4	0xbd51283e	-0.05106377
5	0xbe0b71fa	-0.13617697
6	0xbdf96058	-0.12176579
7	0x3e199ae1	0.15000488
8	0x3c2c7001	0.010524751
9	0x3e0e4387	0.13892947
10	0x3d84cbd1	0.064841874
11	0x3dc64539	0.09681172
12	0x3dc74aef	0.09731089
13	0x3d347abb	0.044062357
14	0x3ce3f1ae	0.027825203
15	0x3e055d0a	0.13023773
16	0x3d02e1c2	0.03195358
17	0x3c1be453	0.009514886
18	0xbdf03104	-0.11728099
19	0x3d9a8004	0.07543948
20	0xbc9ad543	-0.01890052
21	0x3d3a9755	0.045554478
22	0xbe31ef81	-0.1737652
23	0xbe18c3c9	-0.14918436
24	0x3dbc909d	0.0920727
25	0x3e180e97	0.14849316
26	0xbe09cbd8	-0.13456666
27	0xbd2c437d	-0.04205655
28	0x3e309dd6	0.1724771
29	0x3e2898e2	0.1646457
30	0x3dd184b9	0.10230393
31	0x3e08ff18	0.1337856
32	0x3db5eb79	0.088828035
33	0x3e20e674	0.15712911
34	0x3db813a4	0.08988121
35	0x3d8e8f9f	0.06960987
36	0x3d2c2dde	0.04203593
37	0xbd5bbf1f	-0.053649064
38	0xbe16f7ab	-0.14742915
39	0x3c75c2c7	0.015000052
40	0xbe2d5556	-0.16927084
41	0xbdb4e72b	-0.08833154
42	0xbd12af33	-0.035811614
43	0x3ce111ea	0.027474362
44	0x3c5864bd	0.013207612
45	0xbdb8e2d9	-0.09027643
46	0xbe3242a3	-0.17408232
47	0xbe197e63	-0.14989619
48	0x3db5a91e	0.08870147
49	0x3d4aed7b	0.049542885
50	0xbe089c97	-0.13340984
51	0xbe1591ee	-0.14606449
52	0xbe016a2a	-0.12638155
53	0x3dd5306f	0.104096286
54	0x3da886fc	0.08228871
55	0xbd182bd4	-0.037151173
56	0x3def1e0b	0.11675652
57	0x3d7b2952	0.061318703
58	0x3e161c0d	0.14659138
59	0xbdf19744	-0.1179643
60	0x3c27d831	0.010244415
61	0xbdba9855	-0.09111086
62	0x3dd771e7	0.10519772
63	0xbe036b8a	-0.12833992
64	0x3e14f2c1	0.14545728
65	0x3e0d56e7	0.13802682
66	0x3bf790ac	0.007555088
67	0xbcfededc	-0.031112127
68	0xbe0da4b9	-0.13832368
69	0xbe349344	-0.17634302
70	0xbe07c0a1	-0.13257076
71	0xbd2bef8d	-0.0419765
72	0x3d409fb6	0.047027312
73	0x3e3233af	0.17402528
74	0xbe074cb8	-0.1321286
75	0xbd18f325	-0.037341256
76	0xbd14df81	-0.036345962
77	0xbe093aa3	-0.13401274
78	0x3deec282	0.11658193
79	0xbdcc8f9a	-0.09988327
80	0x3e03951f	0.12849854
81	0xbde8f082	-0.11373998
82	0x3ba9d884	0.0051832814
83	0x3bb9af2f	0.0056666355
84	0x3d8ba44d	0.06818447
85	0x3ddf50cb	0.10904082
86	0x3dc3f62a	0.095684364
87	0x3ca04c89	0.019567745
88	0xbd7a40f6	-0.061097108
89	0xbdfa8de5	-0.122340955
90	0x3d8a77c8	0.06761128
91	0x3ced208c	0.028946184
92	0xbe0bbc13	-0.13645963
93	0xbdc9b9c8	-0.09849888
94	0x3e2f57f7	0.171234
95	0x3d88a725	0.06672505
96	0x3d3417fe	0.043968193
97	0x3d909315	0.07059304
98	0x3dde8748	0.108656466
99	0xbade7045	-0.0016970715
100	0x3ddb5484	0.107094795
101	0x3d8535b0	0.06504381
102	0xbe0a468e	-0.13503477
103	0x3dcc4ac1	0.09975196
104	0xbdd5a88d	-0.10432539
105	0xbde60f68	-0.11233407
106	0xbe0cb970	-0.13742614
107	0xbe33f6e2	-0.17574647
108	0x3e1125d8	0.14174592
109	0xbe017c1a	-0.12644997
110	0xbdfb5d61	-0.1227367
111	0x3dd6f1de	0.10495351
112	0x3d91e782	0.07124235
113	0x3e14657e	0.14491841
114	0x3e1034fe	0.14082715
115	0x3dbf1850	0.09330809
116	0x3e00becb	0.12572782
117	0xbd8f72ab	-0.07004293
118	0xbdd8dbfc	-0.10588834
119	0x3ca1b20d	0.019738222
120	0x3ca3601c	0.01994329
121	0x3ddda1f6	0.10821907
122	0x3db55b5b	0.08855315
123	0x3e28749c	0.16450733
124	0xbcbd618c	-0.023117803
125	0xbd7ca716	-0.061682783
126	0xbdc696be	-0.096967205
127	0x3d083843	0.03325678
128	0x3dc3b9eb	0.095569454
129	0x3e1d65cc	0.15370864
130	0xbde8c50b	-0.11365708
131	0xbe22d084	-0.15899855
132	0x3d8d60ee	0.069032535
133	0xbe0822c3	-0.1329451
134	0x3d83c79d	0.064345576
135	0x3dc9fafb	0.09862324
136	0xbd8d0be4	-0.068870336
137	0x3d0a508b	0.033768218
138	0xbe30b5e5	-0.17256887
139	0x3e115174	0.14191228
140	0x3de798e8	0.113084614
141	0x3c322151	0.010872201
142	0x3dcc847b	0.09986206
143	0xbd90caa6	-0.07069902
144	0x3a76e3bc	0.00094180903
145	0x3e292213	0.16516905
146	0xbd368322	-0.04455865
147	0x3e254150	0.16138196
148	0x3cb85765	0.02250261
149	0x3da8fe4c	0.08251628
150	0x3dcb190f	0.09916889
151	0xbce85369	-0.028360086
152	0x3da8cfe7	0.08242779
153	0xbdccb741	-0.099958904
154	0x3dd6ac16	0.104820415
155	0xbdc8c2a8	-0.09802753
156	0x3da8d56a	0.082438305
157	0xbd849717	-0.064741306
158	0x3d3c3d22	0.04595674
159	0xbe02495b	-0.12723295
160	0x3da2b592	0.07944788
161	0xbdce518b	-0.10074147
162	0x3d61f989	0.055169616
163	0x3c8011df	0.015633522
164	0x3e0bb93b	0.13644879
165	0xbe0b76d0	-0.13619542
166	0xbda01fc7	-0.07818561
167	0xbdfaf433	-0.122536086
168	0xbc928c39	-0.017889129
169	0xbe1f05f2	-0.15529612
170	0xbdd5e42c	-0.10443911
171	0xbdcbfddc	-0.09960529
172	0xbcd7003a	-0.026245225
173	0xbe1349a2	-0.14383557
174	0xbb1e2c9b	-0.0024135474
175	0x3c591540	0.013249695
176	0x3e3b6249	0.18299212
177	0xbe118bc4	-0.14213473
178	0x3c27cfc3	0.010242405
179	0xbe004e15	-0.12529786
180	0xbdca4dbc	-0.09878108
181	0xbdd51fa0	-0.104064226
182	0x3cc6b6c4	0.024257071
183	0xbe37aee6	-0.17937812
184	0x3d9f44e3	0.07776811
185	0x3defa93f	0.11702203
186	0xbb9c5298	-0.004770588
187	0x3e2de36a	0.16981283
188	0x3dd48ee4	0.10378817
189	0x3d904e58	0.07046193
190	0x3e239856	0.1597608
191	0x3e0f22c5	0.13978107
192	0x3e251656	0.16121802
193	0xbdc7a7da	-0.09748812
194	0xbc8802dc	-0.016602926
195	0x3db0211b	0.08600064
196	0xbd7dac68	-0.061931998
197	0xbdd42a5b	-0.10359641
198	0xbba76e74	-0.0051096026
199	0x3df088ea	0.11744864
200	0xbce2243b	-0.027605167
201	0x3de773c2	0.11301376
202	0xbdd93b51	-0.10607017
203	0x3d91f9ea	0.071277454
204	0xbdfa53c4	-0.12223008
205	0xbdb78719	-0.08961315
206	0xbd9979eb	-0.07493957
207	0xbcad988c	-0.021190904
208	0xbd862253	-0.065495156
209	0xbe2ddeda	-0.16979542
210	0x3e2c4a47	0.1682521
211	0xbd2a6a4d	-0.041605283
212	0x3dbd8d93	0.09255519
213	0x3e184f15	0.14873917
214	0x3d77f926	0.06054034
215	0x3c980c16	0.01856045
216	0x3cbeb26c	0.023278438
217	0x3e2b6b63	0.16740184
218	0x3dcb4b83	0.09926512
219	0x3d90818e	0.070559606
220	0x3e21ad46	0.15788755
221	0x3d89c973	0.067278765
222	0x3cd3f92c	0.02587565
223	0x3e1b7170	0.15179992
224	0x3e06f925	0.13180979
225	0xbdf052bb	-0.117345296
226	0x3dd5092e	0.104021415
227	0xbd58aa32	-0.052896686
228	0xbc808edd	-0.015693123
229	0xbd2d248f	-0.042271193
230	0xbe19816b	-0.14990775
231	0x3e06f620	0.13179827
232	0x3dd751d0	0.10513651
233	0xbcd52aff	-0.026021479
234	0x3d56f3e0	0.05247867
235	0x3d1d898e	0.03846126
236	0xbb7f4763	-0.0038952462
237	0x3d9b3900	0.07579231
238	0xbe1bcc1d	-0.15214582
239	0x3db2233a	0.08698125
240	0xbd94c19f	-0.07263493
241	0xbdd4c742	-0.10389568
242	0xbd2d9cf2	-0.042386003
243	0x3d1e30d3	0.03862078
244	0x3cc2b068	0.023765758
245	0xbd74a474	-0.059727147
246	0x3e0ad7e5	0.1355892
247	0xbd6b3b5c	-0.057429656
248	0xbe14a134	-0.14514619
249	0x3c953b7a	0.018216837
250	0xbd44d545	-0.048054952
251	0xbd964e53	-0.07339158
252	0x3e35318e	0.17694685
253	0xbe0d192f	-0.13779138
254	0x3d940603	0.07227709
255	0x3e1f619f	0.15564583

encoder0.linear1.bias f4 [2048]
0	0xbd4a59ea	-0.049402155
1	0xbe05fbc7	-0.13084327
2	0xbd95e3bd	-0.07318828
3	0xbe2e5221	-0.17023517
4	0xbe1dac57	-0.15397774
5	0xbdc49f36	-0.096006796
6	0x3bf46f71	0.007459574
7	0x3d783153	0.060593914
8	0xbde8dfc9	-0.11370809
9	0xbe238d59	-0.15971889
10	0xbd8ea067	-0.06964188
11	0xbd3c0b13	-0.045909
12	0xbc80dd6d	-0.015730584
13	0x3c8733d8	0.016504213
14	0x3d296013	0.04135139
15	0x3debbb4c	0.115103334
16	0x3dc4dfef	0.096130244
17	0x3d952b7f	0.07283687
18	0x3d8443ff	0.06458282
19	0x3d9da9da	0.07698412
20	0xbd36209a	-0.044464685
21	0x3bb2e3ce	0.0054592853
22	0xbe30c810	-0.17263818
23	0x3cda3bb2	0.026639793
24	0xbd6b29df	-0.05741298
25	0x3d557b86	0.052119754
26	0x3c9d7213	0.019219434
27	0x3ce7446c	0.028230868
28	0xbcb03589	-0.021509903
29	0xbe2c2f7f	-0.16814993
30	0xbccb56e6	-0.02482171
31	0xbddfc9df	-0.10927176
32	0xbdf34905	-0.11879162
33	0xbd6e7997	-0.058221426
34	0xbe22515e	-0.15851352
35	0x3d0cbd52	0.034360237
36	0xbdad717a	-0.084689096
37	0xbd85899b	-0.06520387
38	0x3d7ef4be	0.062245123
39	0xbe30904b	-0.17242543
40	0xbd45f5a1	-0.048329953
41	0xbe18d52a	-0.14925066
42	0x3e05701d	0.13031049
43	0xbd93d3cc	-0.072181314
44	0xbd34a0e2	-0.044098742
45	0x3dd0b57e	0.10190867
46	0x3e2f9037	0.17144857
47	0x3dee0947	0.11622863
48	0x3dbfb610	0.093608975
49	0x3ae6b300	0.0017600954
50	0x3937c005	0.00017523773
51	0xbd6224fb	-0.05521105
52	0x3da82014	0.082092434
53	0xbddfa473	-0.10920038
54	0xbdf1765c	-0.117901534
55	0xbe34ea91	-0.17667605
56	0xbe2b1e19	-0.167107
57	0xbdd4ad8f	-0.10384666
58	0xbd3f2766	-0.046668433
59	0xbd46a5c4	-0.04849793
60	0xbe30260c	-0.17202014
61	0xbd5ba839	-0.053627227
62	0x3e25622e	0.16150734
63	0x3e2aaa14	0.16666442
64	0xbe1c1144	-0.15240961
65	0xbe0c4ce9	-0.13701214
66	0x3dc97512	0.098367825
67	0x3e364040	0.17797947
68	0xbd269692	-0.04067094
69	0xbd933e45	-0.07189611
70	0x3e12ad5d	0.14323945
71	0x3dca78be	0.09886311
72	0xbd54d12d	-0.051957298
73	0x3e11c568	0.14235461
74	0x3d395509	0.04524711
75	0x3dec7c5e	0.11547159
76	0x3c909778	0.01765035
77	0x3c13d0e5	0.009021972
78	0x3dab234e	0.08356343
79	0xbe28a7a3	-0.16470198
80	0x3e1ee1a1	0.15515758
81	0x3ce40ed0	0.027839094
82	0x3ddbbc77	0.10729306
83	0xbddabfc8	-0.106811106
84	0xbe29efde	-0.16595408
85	0xbdcbbb2d	-0.0994781
86	0xbc0f401b	-0.008743311
87	0xbd95995c	-0.073046416
88	0xbda32f68	-0.079680264
89	0xbcd9ee7d	-0.026602978
90	0xbcea92f5	-0.028634528
91	0x3cb4321d	0.021996552
92	0x3e22259c	0.1583466
93	0xbd67f40a	-0.05662922
94	0x3e23a510	0.15980935
95	0x3d5329de	0.0515536
96	0x3e28a817	0.16470371
97	0x3dfc21e9	0.12311155
98	0xbdf26c79	-0.11837096
99	0xbdd18a69	-0.10231478
100	0x3e136ea9	0.14397682
101	0xbdb19424	-0.08670834
102	0xbc86e34b	-0.016465804
103	0x3da69520	0.08133912
104	0x3e2356e6	0.15951118
105	0xbc0c44c4	-0.008561317
106	0x3de8219a	0.11334534
107	0x3dc1acb1	0.094567664
108	0x3dc69a7c	0.09697434
109	0x3e3109d4	0.17288905
110	0xbd0d3312	-0.034472533
111	0xbc791be5	-0.0152044045
112	0x3de8bb6c	0.11363873
113	0xbcecd18a	-0.02890851
114	0xbd4388c5	-0.047737855
115	0x3dc3a921	0.09553743
116	0x3dd74675	0.105114855
117	0x3c94e1f6	0.018174153
118	0x3df03981	0.11729718
119	0x3c99339a	0.018701363
120	0x3dc446fd	0.095838524
121	0x3defcdb9	0.1170916
122	0xbcc17b92	-0.023618493
123	0x3d2b4130	0.041810215
124	0x3d498329	0.04919735
125	0x3e062ea9	0.13103737
126	0xbe264d18	-0.16240346
127	0xbd1dc9b4	-0.038522437
128	0x3e05b02a	0.13055483
129	0xbd13dd5c	-0.036099777
130	0xbe240468	-0.16017306
131	0x3e3035e0	0.17208052
132	0xbdd186e8	-0.102308095
133	0x3e19854c	0.14992255
134	0xbd82a05d	-0.06378243
135	0xbd58667a	-0.052832104
136	0xbd5b6df7	-0.053571668
137	0xbe1a115e	-0.15045688
138	0xbd4e3b42	-0.05034948
139	0xbca71672	-0.020396445
140	0x3dcdc232	0.100468054
141	0xbdc4d7e1	-0.09611488
142	0xbcfa6c2c	-0.030569158
143	0xbcc2158f	-0.02369192
144	0xbe24c6df	-0.16091488
145	0x3e12bd40	0.14330006
146	0xbdf6d464	-0.12052229
147	0xbcd99ec5	-0.026564965
148	0x3dc6e9e2	0.09712578
149	0xbd2d2147	-0.042268064
150	0x3e177dc8	0.14794075
151	0x3e09626d	0.13416453
152	0x3e305eea	0.17223707
153	0x3ce096d1	0.027415665
154	0xbde2dbc4	-0.11077073
155	0x3ce249d3	0.027623093
156	0xbe0c9258	-0.137277
157	0xbbe01677	-0.0068386155
158	0xbd423e70	-0.047422826
159	0xbd0e6095	-0.034760077
160	0xbd6d7523	-0.05797304
161	0x3d84762e	0.064678535
162	0xbdf36a5f	-0.11885523
163	0x3d3f0e9d	0.046644796
164	0xbdbd722a	-0.09250291
165	0xbd994449	-0.074837275
166	0x3ccff28e	0.025384214
167	0x3e1fc456	0.1560224
168	0xbd2eef6a	-0.04270879
169	0x3c718a07	0.014742381
170	0xbc2d492e	-0.010576529
171	0xbe27a8a9	-0.16372932
172	0x3d63f5c9	0.05565432
173	0xbdbb756f	-0.09153258
174	0xbe21222e	-0.15735695
175	0x3e2928d5	0.16519482
176	0xbd689ba3	-0.05678905
177	0x3d8be98b	0.06831654
178	0xbd3f0d62	-0.046643622
179	0xbd5feaeb	-0.054667395
180	0x3dcb5f2e	0.099302635
181	0xbdc6a957	-0.09700268
182	0x3e276818	0.16348302
183	0xbbd5acb5	-0.0065208324
184	0xbe0790fc	-0.13238901
185	0x3bcd6182	0.0062677274
186	0x3b99bcf3	0.004691714
187	0x3dd74961	0.10512043
188	0x3e12c5a3	0.14333205
189	0xbe30735e	-0.17231509
190	0xbe11d495	-0.1424125
191	0xbd08e1ec	-0.03341858
192	0xbe05a0c3	-0.13049607
193	0x3dcd5f5d	0.10027955
194	0xbd79d5f4	-0.060995057
195	0x3ca33dd9	0.019926952
196	0x3ddc55bb	0.10758539
197	0x3dd66ed9	0.10470361
198	0xbda9932a	-0.082800224
199	0xbe2f8a52	-0.17142609
200	0x3ddd1ccb	0.107965074
201	0x3e2cc6a8	0.16872656
202	0xbda0e4e8	-0.078561604
203	0xbe0f3336	-0.13984379
204	0x3d915835	0.07096902
205	0xbd36e1f6	-0.044649087
206	0xbe272038	-0.16320884
207	0x3d5453ab	0.051837604
208	0xbd4cc834	-0.049995616
209	0x3dda06c3	0.10645821
210	0xbd1b214c	-0.03787355
211	0x3dcdc55a	0.100474074
212	0xbe283027	-0.16424619
213	0x3e26090d	0.1621439
214	0xbe0c2ff4	-0.13690168
215	0x3dc8eb53	0.098105095
216	0xbd7de13d	-0.061982382
217	0x3da5886d	0.08082662
218	0xbdbbe956	-0.09175365
219	0xbd15d5a1	-0.036580686
220	0xbe26d667	-0.16292726
221	0x3d8efe33	0.069820784
222	0x3c8f4721	0.017489972
223	0xbdca3bd1	-0.0987469
224	0x3e1d1fc2	0.15344146
225	0x3e07180c	0.13192767
226	0xbe1288f0	-0.1431005
227	0x3e019c71	0.12657334
228	0x3d32adfd	0.04362296
229	0xbd852697	-0.06501501
230	0x3daf206f	0.08551108
231	0x3e1f1035	0.15533526
232	0x3d635540	0.055501223
233	0xbdbcfc5f	-0.092278235
234	0xbd97a7f7	-0.074050836
235	0xbdb9217a	-0.09039588
236	0xbc396d0c	-0.011317503
237	0x3dcfb0c3	0.101411365
238	0xbe1d4a6d	-0.15360422
239	0x3d56d7fc	0.052452073
240	0xbde12dc2	-0.10995056
241	0x3ccf1256	0.025277298
242	0x3d3650c4	0.044510618
243	0xbe17951c	-0.14802974
244	0x3dccbacc	0.09996566
245	0x3d7f9cee	0.06240552
246	0xbdf08fe8	-0.11746198
247	0x3e0761c4	0.13220888
248	0x3bc9b1dc	0.0061552357
249	0xbc94d460	-0.018167675
250	0x3dc8a491	0.097970136
251	0x3d8f711f	0.07003998
252	0xbdbc6986	-0.091998145
253	0xbc7ebf23	-0.0155485
254	0x3e2515ba	0.1612157
255	0x3cf3cf53	0.029761946

encoder0.linear2.weight f4 [32, 2048]
0	0x3c73016c	0.014831882
1	0xbbbb6478	-0.005718764
2	0x3cabdecb	0.02098026
3	0x3c473d9b	0.012160684
4	0xbb8b4e0a	-0.0042512463
5	0xbc6026cc	-0.013681125
6	0x3cb43dc8	0.022002116
7	0xbd0413b2	-0.032245345
8	0xbcb3bd0e	-0.021940734
9	0x3b109d1f	0.0022066308
10	0xbbac7c70	-0.0052638575
11	0xbcf48239	-0.029847251
12	0x3c517cf2	0.012786137
13	0xbbbc24c3	-0.005741687
14	0x3cb2b52f	0.02181491
15	0x3bd98a35	0.00663879
16	0x3b6de177	0.0036297718
17	0x3c6a815f	0.014313071
18	0xbcecf2a3	-0.028924292
19	0xbcd3c2dd	-0.025849754
20	0x3b181cbf	0.0023210493
21	0xbc190c10	-0.009341255
22	0xbc39533f	-0.011311351
23	0xbcdf29d9	-0.027241634
24	0xbba40fd2	-0.0050067687
25	0xbca80302	-0.020509247
26	0x3ca920f3	0.020645594
27	0x3ca4abc7	0.020101441
28	0xbb92773d	-0.0044697807
29	0xbd5a9c24	-0.053371564
30	0xbc465d3f	-0.012107193
31	0xbbd53e22	-0.006507651
32	0x3ba9cbf0	0.005181782
33	0xbca4c2f3	-0.02011249
34	0xbc166bc2	-0.009180965
35	0x39183e2e	0.00014519013
36	0x3ba1f068	0.0049419887
37	0x3caa53de	0.020791944
38	0xba8f64c0	-0.001094006
39	0x3c816fff	0.015800474
40	0xbc92f91b	-0.017941048
41	0xbb49274e	-0.0030693593
42	0xbc5fe8fb	-0.013666387
43	0x3bb7659f	0.005596831
44	0x3c9ece36	0.019385438
45	0x3c39aa9c	0.01133218
46	0xbc7d1c71	-0.0154486755
47	0xbc327ca7	-0.010893977
48	0x3aa3943c	0.001248009
49	0x3b8c76a9	0.0042866063
50	0xbc88dd1c	-0.016706996
51	0x3af177ab	0.0018422505
52	0xbce977b8	-0.02849947
53	0xbc25d463	-0.010121438
54	0x3cb6b1ff	0.022301672
55	0x3c22e008	0.0099411085
56	0xbc23f9af	-0.01000826
57	0xbd550b51	-0.052012745
58	0x3cba8312	0.022767577
59	0xbcbda123	-0.023148125
60	0x3cabb33d	0.02095949
61	0x3cc39a72	0.023877356
62	0xbc0782ed	-0.008270961
63	0xbca8b554	-0.020594276
64	0x3cb467cf	0.022022156
65	0xbc34abe2	-0.011027308
66	0x3d041deb	0.032255094
67	0x3c9904a6	0.018678974
68	0x36a1a90a	4.8178526e-06
69	0xbc2f7299	-0.010708475
70	0xbcef6a4b	-0.02922549
71	0x3ca33099	0.019920634
72	0x3cc4a797	0.024005694
73	0xbd41761d	-0.047231782
74	0xbb1dd73f	-0.0024084595
75	0xbc06a374	-0.008217681
76	0xbc4278ff	-0.011869668
77	0xbbc3893c	-0.0059672873
78	0x3c764cb9	0.015032941
79	0xbc30134d	-0.010746789
80	0xbb386614	-0.0028137015
81	0xbccd4366	-0.025056552
82	0xbb154b90	-0.0022780634
83	0x3c2bc9f2	0.010485159
84	0xbc5e498e	-0.0135673415
85	0x3c022219	0.0079427
86	0xbbad1250	-0.005281724
87	0xbc742700	-0.014901876
88	0x3c985a52	0.018597756
89	0x38254239	3.940074e-05
90	0x3b6fc2f3	0.0036584705
91	0xbcbf1296	-0.023324292
92	0x3af510ee	0.0018697062
93	0x39370505	0.0001745411
94	0xbcb0787d	-0.021541828
95	0xbc98779e	-0.018611725
96	0xbc2adb95	-0.010428329
97	0xba67fb0a	-0.00088493584
98	0xbcc6d3b4	-0.02427087
99	0x3cb6d926	0.022320341
100	0xbd0d1942	-0.034447916
101	0xbcbd1be8	-0.023084596
102	0xbbd1d096	-0.006403039
103	0xbc964892	-0.018345151
104	0xbd7d69e1	-0.061868552
105	0x3caf1adb	0.02137511
106	0xbcf419e7	-0.029797507
107	0x3ca141b3	0.019684648
108	0x3c7080b9	0.014679127
109	0xbc58f3cb	-0.0132417185
110	0xbc39b36e	-0.011334283
111	0x3c530cc8	0.012881465
112	0x3c1a44dd	0.009415832
113	0xbb1f3f85	-0.0024299335
114	0xbbf57c46	-0.007491621
115	0xbcd608b7	-0.026127202
116	0xbc5fde9e	-0.013663916
117	0xbc72d15c	-0.014820423
118	0xbd0f94c6	-0.03505399
119	0xb96fa614	-0.00022854685
120	0xbcd00697	-0.025393767
121	0xbcb4a0da	-0.022049356
122	0xbc011278	-0.007877938
123	0x3c78eaca	0.015192697
124	0xbc2d69fd	-0.010584352
125	0xbc945781	-0.018108131
126	0xbc95f934	-0.018307306
127	0xbc6e2ec1	-0.014537514
128	0xbce03d5f	-0.027373014
129	0xbba01dcd	-0.004886365
130	0x3bd01a14	0.006350765
131	0x3b6bedd8	0.003599992
132	0xbc05cf43	-0.008167091
133	0x3ce06e0a	0.02739622
134	0x3b9a7ac8	0.0047143437
135	0xbc4a3ab0	-0.012343094
136	0xbc1a6292	-0.009422915
137	0xbb9ca797	-0.0047807205
138	0xbcf98f03	-0.030463701
139	0xbc8fb5f2	-0.017542813
140	0xbc91666c	-0.017749034
141	0xbc51c09c	-0.012802269
142	0x3bc0aef7	0.0058802324
143	0xbc962de7	-0.018332435
144	0xbc16c747	-0.009202785
145	0x3aab7df5	0.0013083803
146	0x3c33f69c	0.010984089
147	0x3cac6297	0.021043105
148	0x3ad91c42	0.0016564208
149	0xbc5ede05	-0.013602738
150	0x3b62423f	0.003452435
151	0xbbfb9f0a	-0.007678871
152	0xbce2d8a3	-0.027691191
153	0xbc3da622	-0.011575254
154	0xbccc1c36	-0.024915796
155	0x3c33b46a	0.010968307
156	0xbc9a2174	-0.01881478
157	0x3ac5e018	0.0015096692
158	0xbd4181cb	-0.04724292
159	0xbc93e887	-0.018055214
160	0x3bce6765	0.0062989467
161	0x3c14f870	0.009092435
162	0xbc3c4b4f	-0.011492564
163	0x3ac498bd	0.0014999133
164	0x3cca3477	0.02468322
165	0xbc5c77a1	-0.013456256
166	0xbb8bad29	-0.0042625857
167	0x3bc794b7	0.0060907262
168	0xbc3ac1d8	-0.011398755
169	0x3c1b3e3c	0.009475287
170	0x3cbed69a	0.02329569
171	0xbc07a1f7	-0.0082783615
172	0xbbf9bd05	-0.00762141
173	0xbcf6fe68	-0.030150607
174	0x3bdf860b	0.006821399
175	0x3ccc4f14	0.024940051
176	0xbc88fd75	-0.01672242
177	0xbb94bc11	-0.004539021
178	0xbc28b031	-0.010295914
179	0xb7388a4e	-1.0999456e-05
180	0x3c50a115	0.012733717
181	0xbcf60687	-0.03003241
182	0xbd5eee48	-0.05442646
183	0x3b3bbd42	0.0028646742
184	0x3cc17799	0.023616599
185	0xbd07faae	-0.03319805
186	0x3b2c77b4	0.0026316466
187	0xbcc9064e	-0.02453914
188	0xbc324f42	-0.010883154
189	0x3c4483fb	0.011994357
190	0xbcd2edfb	-0.025748244
191	0xbcf912f3	-0.030404544
192	0xba8379b9	-0.0010030783
193	0xbd1c3dcb	-0.038144868
194	0x3aae39ff	0.0013292431
195	0xbc8a34f8	-0.01687096
196	0xbcd9f01e	-0.026603755
197	0xbb2f8631	-0.0026782865
198	0xbab1887c	-0.0013544704
199	0x3b807e94	0.0039213393
200	0xbc77590d	-0.015096915
201	0x3c906352	0.017625485
202	0xbcd3b837	-0.025844676
203	0x3b6f7db6	0.0036543435
204	0xbca24997	-0.019810481
205	0x3d0e1302	0.034686096
206	0xbc279f2e	-0.0102308225
207	0x3d21cadd	0.039500106
208	0xbc71a510	-0.014748827
209	0xbd225a67	-0.039636996
210	0x3ca63f31	0.020293804
211	0xbd2306d2	-0.039801426
212	0xbccce62b	-0.025012096
213	0xbc516a06	-0.012781626
214	0x3b5b6f7b	0.0033483196
215	0xbd062c05	-0.032756824
216	0x3b55c4e1	0.003261857
217	0xbbe92f54	-0.0071162377
218	0x3cdca488	0.026933923
219	0x3bec1905	0.007205131
220	0xbc1d6a36	-0.009607842
221	0xbb38df1d	-0.0028209158
222	0xbd0c68f8	-0.034279794
223	0x3b58de93	0.003309165
224	0xbac09466	-0.0014692664
225	0x3c3d900e	0.01156999
226	0xbb325351	-0.0027210305
227	0xbd7cfbfb	-0.061763745
228	0xbd83c02b	-0.064331375
229	0xbc80a809	-0.015705125
230	0xbc447f76	-0.01199328
231	0x3ab3382c	0.0013673357
232	0xbc941866	-0.01807804
233	0xbb8488f9	-0.0040446487
234	0xbb8981af	-0.0041963677
235	0xbbeb97e8	-0.0071897395
236	0xbd1305b8	-0.035894126
237	0xbcb88e73	-0.022528863
238	0x3c941606	0.018076908
239	0xba9f06d7	-0.0012132776
240	0x3c36e4ca	0.011162946
241	0x3bc4ea55	0.00600938
242	0x3c5623af	0.013070031
243	0xbbf9ffb6	-0.00762936
244	0x3bf60134	0.0075074676
245	0x3cb45b43	0.022016173
246	0x3cf1241f	0.02943617
247	0xbbee923c	-0.007280616
248	0x3c328276	0.010895362
249	0x3aede4c3	0.0018149841
250	0xb972183e	-0.0002308795
251	0x3c19cc1e	0.009387044
252	0x3a8ede0a	0.0010899913
253	0x3beccd97	0.0072266567
254	0x3c81f719	0.015864896
255	0xbd2aa093	-0.04165704

encoder0.linear2.bias f4 [32]
0	0xbcf11e69	-0.029433446
1	0x3ba97a28	0.005172033
2	0x3c774b16	0.0150935855
3	0x3b87f64b	0.0041492335
4	0x3c9bfe60	0.019042194
5	0xbab5eff8	-0.001388072
6	0xbcd7b005	-0.02632905
7	0x3c654f3f	0.0139959445
8	0x3c19fbc6	0.009398406
9	0x3ae72ce7	0.0017637283
10	0x3c6cc65e	0.014451591
11	0xbbc62b8b	-0.006047671
12	0x3af0de8f	0.0018376875
13	0x3cb573cf	0.022149948
14	0xbaa8bb70	-0.0012873244
15	0xbc64f6f0	-0.01397489
16	0x3d16063b	0.036627036
17	0x3ce91ac9	0.028455155
18	0x3c94d419	0.018167542
19	0x3c89c952	0.01681963
20	0xbcb3d3b9	-0.021951543
21	0xbca49e79	-0.020095097
22	0x3bdc0c1b	0.0067153103
23	0xbc2ccab0	-0.010546371
24	0x3bef7cb8	0.007308569
25	0xbb2a1b1d	-0.0025956102
26	0xbc2ddf4a	-0.010612318
27	0x3c2dfae4	0.010618899
28	0x3cb6eafd	0.022328848
29	0x3a5382c5	0.00080684974
30	0x3cb56475	0.022142628
31	0x3c7afb4a	0.015318701

encoder0.norm1.weight f4 [32]
0	0x3fa0c5b7	1.2560338
1	0x3f7bf532	0.98421013
2	0x3f663300	0.8992157
3	0x3f6ce382	0.9253465
4	0x3f76f33a	0.96464884
5	0x3f6e60db	0.9311654
6	0x3f6fd2fe	0.93681324
7	0x3f7131a1	0.9421635
8	0x3f8bb608	1.0914927
9	0x3f6e0424	0.9297507
10	0x3f67cb77	0.9054484
11	0x3f7fae50	0.99875355
12	0x3f72bb43	0.9481699
13	0x3f72e42d	0.9487942
14	0x3f6b51ff	0.9192199
15	0x3f6e7bf1	0.9315787
16	0x3f98d105	1.1938788
17	0x3f6bda16	0.9212965
18	0x3f67a51d	0.9048632
19	0x3f77d80d	0.9681404
20	0x3f79b907	0.97547954
21	0x3f6854f7	0.90754646
22	0x3f65d005	0.8977054
23	0x3f7cbc00	0.98724365
24	0x3fa603ad	1.2969872
25	0x3f7541fe	0.9580382
26	0x3f6843ee	0.9072865
27	0x3f666966	0.90004575
28	0x3fa4b043	1.2866291
29	0x3f7f7ea3	0.9980261
30	0x3f9190b1	1.1372281
31	0x3f66bb84	0.90129876

encoder0.norm1.bias f4 [32]
0	0xbe2d0c8a	-0.16899315
1	0x3d942e28	0.07235366
2	0x3d02cb24	0.03193201
3	0x3d6b2596	0.05740889
4	0xbcda4ea4	-0.026648827
5	0x3cdd8a2b	0.027043423
6	0x3d07b2cd	0.033129502
7	0x3c90006a	0.017578322
8	0xbdc75f8e	-0.097350225
9	0x3c2ffed1	0.010741905
10	0xbce47241	-0.027886512
11	0x3d2fc4d1	0.042912308
12	0xbbd192b9	-0.0063956645
13	0x3dce21b6	0.100650236
14	0xba1b85ba	-0.00059327076
15	0x3c213360	0.009838909
16	0xbe1db813	-0.1540225
17	0x3dc77062	0.09738232
18	0x3c121d75	0.008918156
19	0x3de8c647	0.113659434
20	0xbe178ba3	-0.14799361
21	0x3bfad10d	0.0076543153
22	0x3d4c0528	0.049809605
23	0x3d808395	0.06275097
24	0xbe11ed4a	-0.14250675
25	0x3cd60f54	0.026130356
26	0x3c5a4379	0.013321751
27	0x3cf1aa32	0.0295001
28	0xbe3f7812	-0.18698147
29	0x3d8d7209	0.06906516
30	0xbe0d7dc3	-0.13817506
31	0x3d9d1ce7	0.07671528

encoder0.norm2.weight f4 [32]
0	0x3f42b537	0.7605776
1	0x3f7ed594	0.99544644
2	0x3f77b6c6	0.96763265
3	0x3f7c9f14	0.98680234
4	0x3f7713eb	0.9651477
5	0x3f74771e	0.9549426
6	0x3f7bcfe3	0.98364085
7	0x3f7ba46e	0.98297775
8	0x3f84081c	1.0314975
9	0x3f77ef58	0.96849585
10	0x3f79c3d6	0.97564447
11	0x3f6f89ab	0.9356944
12	0x3f742e91	0.95383555
13	0x3f559fcf	0.83446974
14	0x3f74074f	0.9532365
15	0x3f781abb	0.9691579
16	0x3f83c610	1.0294819
17	0x3f2ea1a9	0.68215424
18	0x3f772429	0.9653955
19	0x3f73801a	0.9511734
20	0x3f10e194	0.56594205
21	0x3f77ee4a	0.96847975
22	0x3f74b162	0.95583165
23	0x3f742bca	0.95379317
24	0x3f876a6e	1.0579355
25	0x3f6dc84a	0.9288374
26	0x3f7c94d8	0.9866462
27	0x3f7b6c68	0.9821229
28	0x3f7b409b	0.98145455
29	0x3f80cf00	1.0063171
30	0x3f777b01	0.96672064
31	0x3f4b6fe7	0.79467624

encoder0.norm2.bias f4 [32]
0	0x3ddcb30f	0.1077634
1	0xbd7dd722	-0.061972745
2	0x3c48288d	0.012216699
3	0xbd75d8fb	-0.06002138
4	0x3d1a60fd	0.03769015
5	0xbca4a466	-0.020097923
6	0xbd41c7ce	-0.04730969
7	0xbd2916c0	-0.04128146
8	0x3dedfe37	0.11620753
9	0xbca00b29	-0.019536572
10	0xbd1a428e	-0.037661128
11	0xbbba69fc	-0.005688904
12	0x3cfef8dd	0.031124527
13	0xbd9c0b8c	-0.0761939
14	0xba528e8f	-0.0008032107
15	0x3cbf1a6e	0.023328032
16	0x3e06353a	0.13106242
17	0xbdfaf36d	-0.12253461
18	0x3b4924df	0.0030692143
19	0xbc6d0db6	-0.014468601
20	0x3e12bdf3	0.14330272
21	0xbd2ade56	-0.041715942
22	0xbc905347	-0.017617835
23	0x3b99efac	0.0046977606
24	0x3dedaa7c	0.11604783
25	0xbd5fe5f9	-0.05466268
26	0xbc5544dc	-0.013016906
27	0xbd1a3fdd	-0.03765856
28	0x3d5d31a5	0.054002423
29	0xbd990b43	-0.07472851
30	0x3d43f46d	0.047840524
31	0xbdc13b6f	-0.09435164

fc0.weight f4 [5, 160]
0	0x3c84d62b	0.016215404
1	0xbc67e8dc	-0.014154639
2	0x3b48e087	0.0030651407
3	0xbc43e40f	-0.011956229
4	0x3c0fc173	0.008774149
5	0x3bd3c049	0.006462131
6	0xbb63c404	-0.0034754286
7	0xbc2c29bb	-0.010507996
8	0x3d34cdfb	0.04414175
9	0x3b16ef53	0.0023030832
10	0xbba23c2b	-0.0049510202
11	0x3c21bad6	0.009871205
12	0x3c0ae3f5	0.008477201
13	0x3b9db732	0.0048130983
14	0x3c3ca839	0.011514717
15	0x3bea1323	0.0071433946
16	0x3d641a36	0.05568906
17	0x3b425ea1	0.0029658454
18	0x3bb299e9	0.0054504764
19	0x3bd1309e	0.0063839694
20	0x3cd27ba7	0.025693728
21	0xbb2bbd97	-0.0026205534
22	0x3bfe70a6	0.0077648936
23	0x3c12a07b	0.008949394
24	0x3d6af200	0.057359695
25	0x3bd67ca8	0.006545622
26	0xbb29ab47	-0.0025889443
27	0xbc09dcb4	-0.008414436
28	0x3c8a4a53	0.016881144
29	0xbc9a3982	-0.01882625
30	0x3c10b7ff	0.008832931
31	0x3b9aaf99	0.00472064
32	0x3aaac106	0.0013027496
33	0x3a80a95a	0.0009816096
34	0x3a68df7c	0.00088833994
35	0x3a3ed122	0.0007279088
36	0x39accf98	0.00032961066
37	0x3a8c9cf1	0.0010727925
38	0x3a833c7e	0.0010012535
39	0x3a914c7c	0.0011085416
40	0x3a8a3fce	0.001054758
41	0x3a4372d5	0.0007455771
42	0x3aca64b0	0.0015441384
43	0x3aa860da	0.0012846247
44	0x3ae49306	0.0017438836
45	0x3aac90e5	0.001316574
46	0x3b06068e	0.0020450684
47	0x3a958222	0.001140658
48	0x3aa51dbe	0.0012597365
49	0x3acd77b9	0.0015675939
50	0x3aa9e690	0.001296239
51	0x3a7256e6	0.0009244516
52	0x3b0f4a52	0.0021864367
53	0x3ac32d1a	0.0014890761
54	0x3a6d87dd	0.0009061078
55	0x3a4d4158	0.00078298664
56	0x3a47a643	0.00076160225
57	0x3a989622	0.0011641423
58	0x3a8dba4c	0.0010812967
59	0x3a85aa95	0.0010197932
60	0x3ad686eb	0.0016367113
61	0x3ac8581d	0.0015285049
62	0x3ae4912b	0.0017438283
63	0x3ac8072b	0.0015260925
64	0x3b52a485	0.0032141518
65	0x3b067dc8	0.0020521749
66	0x3b2ace56	0.0026062927
67	0x3b04fb25	0.0020291295
68	0x3b35040c	0.002762082
69	0x3b09ced2	0.0021027816
70	0x3b1fe08d	0.0024395317
71	0x3b0bda31	0.002133977
72	0x3b29ae0a	0.002589109
73	0x3b2d5e8f	0.0026454066
74	0x3b2dfd4e	0.0026548686
75	0x3b2409c7	0.0025030242
76	0x3b0c10ec	0.002137239
77	0x3b364828	0.0027814005
78	0x3b4cde2e	0.003126036
79	0x3b205959	0.0024467318
80	0x3b13cfc5	0.002255426
81	0x3b508033	0.0031814694
82	0x3b0f7135	0.0021887545
83	0x3b1dde37	0.002408875
84	0x3b95b049	0.004568134
85	0x3b357680	0.002768904
86	0x3b025019	0.0019884168
87	0x3b125a8c	0.0022331802
88	0x3b0c5450	0.002141256
89	0x3b1da4c4	0.0024054507
90	0x3b1390ef	0.0022516807
91	0x3b3a2c56	0.0028407774
92	0x3b194648	0.0023387838
93	0x3b207b3a	0.0024487511
94	0x3b2ec78b	0.002666923
95	0x3b1a3d26	0.0023534982
96	0xbbafe840	-0.0053682625
97	0xbb8da063	-0.004322098
98	0xbb97d6b6	-0.00463375
99	0xbb834c72	-0.0040069157
100	0xbb874a64	-0.004128741
101	0xbb87a28c	-0.00413925
102	0xbb84946c	-0.0040460136
103	0xbb86aeed	-0.0041102082
104	0xbb8459cd	-0.0040390254
105	0xbb950ee5	-0.0045488947
106	0xbb9b5792	-0.004740664
107	0xbb9a60b6	-0.004711236
108	0xbb8f5af4	-0.004374856
109	0xbbb827c2	-0.005619974
110	0xbb7f6826	-0.003897199
111	0xbb8475f4	-0.0040423814
112	0xbb81a1ee	-0.003956071
113	0xbbbf419f	-0.00583668
114	0xbb861927	-0.004092354
115	0xbb8aec78	-0.004239615
116	0xbbf86f07	-0.007581595
117	0xbb8dcb9b	-0.00432725
118	0xbb768c07	-0.0037620084
119	0xbba3acd5	-0.0049949684
120	0xbb76f911	-0.0037685076
121	0xbb949a82	-0.0045350203
122	0xbb7fa147	-0.003900604
123	0xbb8167e7	-0.0039491537
124	0xbb8f950b	-0.004381781
125	0xbb7ae166	-0.003828132
126	0xbb94ea48	-0.00454453
127	0xbba58ee3	-0.005052434
128	0x3a9bf6b7	0.0011899088
129	0x3a5606fb	0.00081644923
130	0x3a8eb242	0.0010886865
131	0x3a555363	0.0008137731
132	0x3a11c916	0.0005561275
133	0x3abd7052	0.001445303
134	0x3ab7a484	0.0014010821
135	0x3a16ef6c	0.00057577225
136	0x3a7c707c	0.00096297986
137	0x3adbfa73	0.0016783014
138	0x3abceac8	0.0014413232
139	0x3a8154af	0.0009867157
140	0x3ab23707	0.0013596722
141	0x3a9a7aa4	0.0011785817
142	0x3a5d1893	0.0008434143
143	0x3ad8e4b8	0.0016547656
144	0x3a9360e4	0.0011244086
145	0x3adff11d	0.0017085407
146	0x3a82d952	0.0009982979
147	0x3ae28a1e	0.0017283594
148	0x3aec2018	0.0018014936
149	0x3adc553f	0.0016810073
150	0x3a223e0d	0.0006189056
151	0x3a5f1b91	0.00085108826
152	0x3a3f7733	0.0007303834
153	0x3aa94500	0.001291424
154	0x3abc5527	0.0014368639
155	0x3a4e7319	0.0007875427
156	0x3a34b286	0.0006893057
157	0x3a871432	0.0010305701
158	0x3aaa812e	0.0013008469
159	0x3a3f194e	0.00072898425
160	0xbbbf8689	-0.0058448953
161	0xbcaa20cc	-0.020767592
162	0xbc2371cd	-0.009975863
163	0xbca6f9d8	-0.020382807
164	0xbc039110	-0.008030191
165	0xbc1162a7	-0.008873618
166	0xbc89ae0f	-0.01680663
167	0xbc99902b	-0.018745502
168	0x3c81e3f0	0.01585576
169	0xbc3a7d33	-0.011382389
170	0xbc8c4ac7	-0.0171255
171	0xbbe2ca27	-0.006921071
172	0xbbfa9f3c	-0.0076483767
173	0xbc38eaa8	-0.011286415
174	0xbbba8c66	-0.0056930063
175	0xbbebe2c4	-0.0071986634
176	0x3cc9b0ae	0.02462038
177	0xbc819365	-0.015817354
178	0xbc0b149c	-0.0084888
179	0xbc0a3a08	-0.008436687
180	0xbbcf6e3b	-0.006330279
181	0xbc753801	-0.014966966
182	0xbbf4f1dd	-0.0074751214
183	0xbbc57fd2	-0.0060272003
184	0x3ce057eb	0.027385673
185	0xbc139197	-0.009006879
186	0xbc5b40e9	-0.013382175
187	0xbc8c9e3f	-0.017165301
188	0xbba454d1	-0.0050149937
189	0xbcc09a7c	-0.023511164
190	0xbc01420e	-0.007889284
191	0xbc46145a	-0.012089813
192	0x3ce3dbb0	0.027814716
193	0xbd9e12e7	-0.07718449
194	0xbc4b444d	-0.012406421
195	0xbd90aafc	-0.07063863
196	0x3c258381	0.010102154
197	0x39e7cc35	0.000442119
198	0xbd293790	-0.041312754
199	0xbd717588	-0.058949977
200	0x3e10c6ec	0.14138383
201	0xbc65cbcb	-0.014025639
202	0xbd283db1	-0.04107446
203	0x3c44f333	0.012020874
204	0x3bf4d58d	0.0074717463
205	0xbc190864	-0.009340379
206	0x3c6d368b	0.014478336
207	0x3bb21e6b	0.005435755
208	0x3e37c03b	0.17944424
209	0xbcb37efb	-0.021911135
210	0xbb961139	-0.00457969
211	0xba327d30	-0.00068088155
212	0x3d52d906	0.0514765
213	0xbd081bc8	-0.03322962
214	0x3b631660	0.0034650788
215	0x3ba5d5d4	0.0050608907
216	0x3e3639ec	0.17795533
217	0xbaf9ba44	-0.0019052704
218	0xbcfc85f6	-0.030825596
219	0xbd5762b0	-0.05258435
220	0x3d32abd8	0.043620914
221	0xbdbecb4c	-0.093161196
222	0x3c990772	0.018680308
223	0xbc3b39cf	-0.011427357
224	0x3c901127	0.017586304
225	0x3c58359a	0.013196373
226	0x3c5af5b5	0.013364245
227	0x3c57cc85	0.01317132
228	0x3c63a68c	0.013894688
229	0x3c5e2dc5	0.013560717
230	0x3c5ebc13	0.013594645
231	0x3c692c1c	0.014231708
232	0x3c58f9b5	0.013243129
233	0x3c67eab4	0.014155079
234	0x3c6a3ae1	0.014296264
235	0x3c6cf292	0.01446213
236	0x3c5f6977	0.013635985
237	0x3c835d6b	0.016035756
238	0x3c743163	0.014904353
239	0x3c71d1d3	0.014759499
240	0x3c5161e1	0.012779684
241	0x3c9f99fb	0.019482603
242	0x3c609ad7	0.013708792
243	0x3c663c44	0.014052454
244	0x3cc6a94b	0.024250647
245	0x3c645f5a	0.013938749
246	0x3c694527	0.014237679
247	0x3c5cc765	0.013475274
248	0x3c52320c	0.012829315
249	0x3c6d841c	0.014496829
250	0x3c50a2e9	0.012734153
251	0x3c54e7fc	0.0129947625
252	0x3c669d88	0.014075644
253	0x3c5a7427	0.013333357
254	0x3c654369	0.013993123
255	0x3c8cf149	0.017204897

fc0.bias f4 [5]
0	0xbe986ebd	-0.29771987
1	0xbd697a10	-0.057001173
2	0x3d0012d8	0.03126797
3	0x3dcd0a37	0.10011714
4	0x3e2ca0c3	0.168582
