model_weights/20epochsConvNet_1_0_1.pth (torch_old, 108695 bytes, 8 tensors)

conv1.weight f4 [10, 5, 4]
00000000: 8a2e b1bd ed45 8cbd 6ffa 033e 7898 283e
00000010: 9430 ccbd 4cf1 55be f3e0 a4bd a8f7 e43d
00000020: 6590 1c3e 56f0 583d 77cb b83c e4c7 113e
00000030: 8136 61bd efc7 b9bd 64ac 203e 16c4 3a3e
00000040: 51ff 59be 4990 8cbd 9ae2 3fbe ec72 95bd
00000050: 0230 cebc a2ae 233e da09 8b3c 208c 21be
00000060: e065 733d 1450 7abe 4d1e 8cbe be80 543c
00000070: 20aa 883d d860 ecbd 9ea8 bcbd 61a8 813d
00000080: 3c6f 2d3f e6d8 973d e16a ddbe a62e aa3d
00000090: 7a31 c83e c17a 37bd a8d1 f93c c430 f9bd
000000a0: 16cb 0cbe 7c87 ff3d 881e 09bd cf1a 5bbe
000000b0: c78c 2ebe c552 b83d 1ee2 3cbe 326e 92bb
000000c0: 664c 17be 1a47 e3bd 53df 1fbe 67fb 053e
000000d0: 8eb6 c2bd 0d19 2b3d 422f e73d 2ce1 f4ba
000000e0: c580 dd3c 4715 48be 40ab 5bbe c228 4fbe
000000f0: d3f6 49bc e3cb acbd 11d9 1b3e 2009 40be
00000100: f2c0 a6bd 82cf 14be 422f 743d de25 213e
00000110: cc89 8f3b becf 17be 6c78 b13d 2858 ffbc
00000120: 5f55 4cbe f182 84bd 08ea 3c3e 86bd 35be
00000130: 51ba c13a c06d 903e 8841 90bd 09d5 d2be
00000140: 9ae5 21be 87d2 203e a7f5 3cbd 77a1 0cbb
00000150: a410 97bc ae78 61bd 0846 8b3d 14f5 3cbd
00000160: 7107 b3bd 4ee0 11be 6275 e03c f28a f23c
00000170: 014c c1be 95e5 87bd c5bc 303e ea39 e43d
00000180: 8d31 f13e f5d5 a5be 3006 b6bc b2b6 493e
00000190: 223f 92bd 5beb 653d c0f1 58be 8c18 f03d
000001a0: 8060 983d e3a0 f3bd 8fc4 dcbd 526a 153e
000001b0: 9449 32bd 7287 f0bd eb3b 84be d3d0 083e
000001c0: 0bc1 f53d cd47 31bf 5754 26be 0791 503f
000001d0: 86fe 5cbd da5f a43e ba3e aabe 0228 cf3e
000001e0: d6cc e6bc 7cbc cb3d b927 4a3c d2f5 023c
000001f0: b4d9 9c3d a8fd 8e3d 4d10 2d3d fdc4 073e
00000200: e1f5 973d 3b11 803e c144 1dbd 5f7b 51be
00000210: 0ed4 e33d 840c 29be 274b 9b3c 5f3c 33be
00000220: 82a2 24be 3afc c8bc 7b16 2a3e 7419 073e
00000230: 4362 e2bd cf10 3fbe b3bc a9ba 9e32 563d
00000240: 4d79 4ebc 595b 3fbe be76 6a3c 9fb5 bbbd
00000250: 8d0e 7e3c 3d80 14be 153e 14bb 5110 b6bd
00000260: cbc0 d4be 4dd3 d4be 675c 753e be49 753e
00000270: 255b 9f3e fe00 9f3e 3a54 82bd db6f 81bd
00000280: fc97 b1bb cab3 08bd 55c0 27be 2f4b 94bd
00000290: 1d35 193d 8d33 6d3c 9125 59bd 474a 9abd
000002a0: a9f3 0fbe 4b87 8e3b 60b0 443d a416 85bd
000002b0: 3ef4 3cbe 58c7 263e 00b5 adbb 97c0 a4be
000002c0: 865b 5bbe 4860 143f eaed 743e 2dd3 5a3e
000002d0: 4a2e 60bc ceea 58be fd17 ac3b 14b1 0d3e
000002e0: d3aa 30be a9e4 06be e070 863d 7248 4fbe
000002f0: 6769 1cbe 5b41 ae3d 5f2e 653d 7095 d1bd
00000300: 1bec 16bf d85e 8dbd 4dd3 e63e 738d a7bd
00000310: e951 023e 5065 dbbe efe2 bc3e 78f1 81be
-0.08651455 -0.06849275 0.12888502 0.16464412 -0.09970203 -0.20892829 -0.08050718 0.11180049
0.15289457 0.052963577 0.022557957 0.14236408 -0.05498362 -0.090713374 0.15690762 0.18238863
-0.21288802 -0.06863458 -0.18738785 -0.0729731 -0.025169376 0.15984586 0.016972471 -0.1577611
0.059423327 -0.2444461 -0.27366868 0.012970148 0.06673074 -0.11541909 -0.09211849 0.06330944
0.67747855 0.07414417 -0.43245605 0.08309679 0.39100248 -0.0447948 0.03049548 -0.121675044
-0.13749346 0.124770135 -0.033476382 -0.21396945 -0.1704589 0.09000162 -0.18445632 -0.0044687027
-0.14775237 -0.11097546 -0.15612535 0.13084184 -0.09507476 0.041771937 0.112883106 -0.0018682829
0.027038941 -0.19539367 -0.21452045 -0.20230392 -0.012326914 -0.08437326 0.15219523 -0.18753481
-0.0814227 -0.14532283 0.05961538 0.15737101 0.0043804403 -0.14825341 0.08665547 -0.031169966
-0.19954441 -0.064702876 0.18448651 -0.17748079 0.0014780258 0.28208733 -0.07043749 -0.41178158
-0.15810242 0.1570531 -0.04613271 -0.0021458545 -0.018440552 -0.05504673 0.06800467 -0.046132162
-0.08741654 -0.14245722 0.027399722 0.02960727 -0.377533 -0.06635586 0.1725951 0.11143859
0.47108117 -0.323898 -0.022219747 0.19698599 -0.07140948 0.056132656 -0.2118597 0.11723432
0.07440281 -0.11895921 -0.10779678 0.14591339 -0.0435272 -0.11744584 -0.25826964 0.1336091
0.11999711 -0.69250184 -0.1624311 0.81471294 -0.05395367 0.3210438 -0.33250982 0.4046021
-0.028173845 0.0994806 0.012338572 0.007993178 0.07658711 0.06981975 0.042251874 0.13258739
0.074199446 0.25013146 -0.038395647 -0.20457219 0.111244306 -0.1650868 0.018956734 -0.17503498
-0.16077617 -0.024534333 0.16610138 0.13193303 -0.11053898 -0.18658756 -0.0012949914 0.052294366
-0.012602163 -0.1868719 0.014310537 -0.09165501 0.015506399 -0.14502044 -0.0022620012 -0.08889831
-0.4155334 -0.4156746 0.2396103 0.23953912 0.31124225 0.31055444 -0.06363721 -0.06320163
-0.0054197293 -0.033374585 -0.16381963 -0.07240903 0.03740417 0.014477623 -0.05301434 -0.075336985
-0.14057793 0.0043496243 0.048019767 -0.06498459 -0.18452546 0.16286981 -0.005301118 -0.32178184
-0.21421632 0.57959414 0.23918882 0.2136962 -0.013682911 -0.21183321 0.005251883 0.13837081
-0.17252664 -0.13173164 0.06564498 -0.2024248 -0.15274583 0.08508559 0.055952426 -0.10233581
-0.5895402 -0.06902856 0.45083085 -0.08181276 0.12726559 -0.42850733 0.36891887 -0.2537954

conv1.bias f4 [10]
00000000: e7bb 353e 1987 8fbc f376 8cbd e395 9fbd
00000010: 3bf3 5a3e 4a1e 8fbc a1af 0dbe 30b9 233c
00000020: e071 583e 820e 283d
0.1774746 -0.017520474 -0.06858625 -0.077922605 0.21381848 -0.017470498 -0.13836528 0.009992883
0.2113719 0.04102946

fc1.weight f4 [128, 140]
00000000: 2be9 963d ace5 263d 303d 46bd df77 343d
00000010: 8e7e 40bb 38a5 f6bb 2160 1d3d 9f31 8abd
00000020: ad66 90bd 8760 433d fd1c 983d d4f3 82bd
00000030: 8c62 21bc 934e 823d 6024 8abc 37df 803b
00000040: 309f 8b3d 0040 fd3b 5c74 4fbd e533 55bc
00000050: ff82 903c 6554 283c b567 2dbd 8e9d 8cbd
00000060: 16ee a7bd 9592 c4bc 78f1 95bd 2421 cc3c
00000070: a52f 78bd be5a 133c 4175 a33b a986 b2bd
00000080: b068 6f3d 493a 573d 82b4 be3c d635 363d
00000090: 3e82 613c 2339 563d 21e4 e5bc 7e5d 0f3d
000000a0: ca73 6a3c ee8b a53c f2a7 8fbc 42bb 75bd
000000b0: 7573 80b8 9983 a23d ed5a cc3c cabd 253d
000000c0: c148 acbb b014 473d 4384 b9bc 5f9c 963d
000000d0: 3738 3abd 1982 afbd 75e3 3abd d33e 22bd
000000e0: a417 e23c 7cf2 a0bc adeb 123d 05e4 873d
000000f0: b302 34bd f12f 343d aac0 64bd 90a0 363d
00000100: e6f5 893d ecd8 dfbc d223 883d 0474 8d3c
00000110: 9b78 46bd 8adf e43c e0be a4bc 4e76 62bd
00000120: 1350 b4bd 7f79 fb3c 98c5 a1bc 5073 28bd
00000130: c771 73bd 21ed f63c 7cee 00bd 14cf a1bd
00000140: cedf 9dbd 0a8f c63c f269 66bd 1db0 9abd
00000150: 7f8f afbc 4d14 9b3d 0b7b 15bd 6732 13bd
00000160: 9381 38bd 5e4e 9e3d e0d0 623d 13ce c8bc
00000170: 029d 5dbd a188 843d 5b17 0e3d 2d1b 493d
00000180: fc16 103c 95bb 20bd 4c28 963c e391 10bc
00000190: a721 653d b571 523d 8176 973d 424b 86bc
000001a0: 6a37 0ebd 00bc 433d a6ee 86bd 7204 7ebd
000001b0: 5f7e 31bd c451 c03c 53af bd3c a35a 3a3d
000001c0: 5a1f 92bd ecf8 a8bd 77a5 93bd a526 983d
000001d0: 2a80 c23b 78b9 723d d58f 063d b017 53bb
000001e0: 768c ecbc 0040 863d 182f 263d 7203 253d
000001f0: 4a6c 1fbd faf0 9bbc 3d5d 07bd bfde 9c3d
00000200: 8b49 a6bd 00bb 983d bb39 e43b 2803 67bd
00000210: 6980 4b3c b853 373c 9f97 d43c b1cf 77bd
00000220: 9575 83bb 5bd0 ad3d e5e4 8cbd 2a38 48bd
00000230: d8fe 493d 2018 7cbc 309e af3b d140 0ebd
00000240: 5150 603d 69da 8dbd 9048 853d 0e39 883c
00000250: 0ad5 d63b 9b4e f23c 777f bbbb 60d0 123c
00000260: 29ea 633d e2bc 9e3d cd2f 793c 4c8c c53a
00000270: 3f1e 72bd 5a9e 253d d7c2 11bd 039d 85bc
00000280: d118 52bd 63a0 b83d 4c84 7c3d 941f b33c
00000290: a750 c9bc 30e2 443d 2850 0b3d c2ae c33d
000002a0: 114d 853b 3b3a 883d 658b 6cbd 4d05 3ebd
000002b0: 24ae 243d a7c3 7cbd 6c2b 333d e23f 1ebd
000002c0: 0c54 ddba 91ae 97bb d201 233d f045 6a3d
000002d0: d2d8 223d c008 3bbd eece 423d 1c7a 4dbc
000002e0: 7631 6e3d 2536 2dbd 142d c03c 580e 47bc
000002f0: bfad 733d ff0b 24bd 029d f13c d5f9 80bd
00000300: 2c7b 67bd 3654 6abb cb72 5abd 9119 96bd
00000310: 6a66 1e3d 6e10 94bd b6a6 223a 215b 123d
00000320: b655 623b de4f 3ebd 7b13 8b3d f292 59bc
00000330: 68b5 20bd 15fe c2bd 424b a93d 05e9 0e3d
00000340: f51b cd3c a853 9f3c 4517 38bc 207e f03d
00000350: 22a3 823d f48e 9b3d 9d5d 473c 0687 82bc
00000360: bace 793d 56c8 6f3d 8a22 a23d ec5b 7d3d
00000370: c7d6 e3bc 42d8 8b3c 770d db3d 6f88 c93d
00000380: 4341 fcbc 3486 643d a9f8 303d dd2d 6cbd
00000390: 4c8b f43a a6df 243d 84e9 84bc c91c c3bd
000003a0: 6b8d 123c aac9 483d ca88 0e3d c5a2 02bc
000003b0: e63a adbd b6a3 7e3d 6111 91bd b043 5d3d
000003c0: 89f8 053c 747c 28bc b75c f4bb c595 66bd
000003d0: d5b9 393d 4e9a 673d 8901 efbc 2a86 813d
000003e0: 5521 9fbb eb29 c0bd 9738 3fbd 3188 153d
000003f0: 2060 733c b4ea acbd ea0b 853c 5d80 52bd
0.07368692 0.040746376 -0.048398197 0.04405963 -0.0029372307 -0.00752702 0.038421754 -0.06747746
-0.07050834 0.047699478 0.07427404 -0.06394163 -0.009850156 0.06362643 -0.016863048 0.0039328593
0.06817472 0.0077285767 -0.05064808 -0.013012861 0.017640589 0.0102740275 -0.04233523 -0.06865989
-0.08199708 -0.023995677 -0.07321447 0.024918146 -0.060592312 0.008993803 0.004988343 -0.08717091
0.058449447 0.05254582 0.023279432 0.044484936 0.013763962 0.052300584 -0.028062882 0.03500127
0.014309833 0.020208325 -0.017536137 -0.059993036 -6.125021e-05 0.079352565 0.0249457 0.0404642
-0.0052576964 0.048603714 -0.022646075 0.07354044 -0.045463767 -0.08569736 -0.045627076 -0.039610695
0.027599163 -0.019646876 0.03586929 0.06635288 -0.043947887 0.043991033 -0.0558478 0.044586718
0.067363545 -0.027325116 0.06647457 0.017267235 -0.048454862 0.027938623 -0.020110548 -0.055288605
-0.088043354 0.030697582 -0.01974754 -0.041125596 -0.05943468 0.030142369 -0.031477436 -0.07900825
-0.07708703 0.024238128 -0.05625338 -0.07553122 -0.021430729 0.075722314 -0.036494296 -0.03593674
-0.045045447 0.07729791 0.05537498 -0.024512326 -0.054104812 0.064713724 0.034690242 0.049098182
0.008794542 -0.039241392 0.018329762 -0.008823845 0.055940297 0.05137797 0.0739565 -0.016393308
-0.034720816 0.047786713 -0.06588487 -0.062015958 -0.043333407 0.023476489 0.02315489 0.045496594
-0.07134886 -0.08250603 -0.07209294 0.07429246 0.0059356885 0.059258908 0.032852013 -0.0032210164
-0.02887557 0.06555176 0.040572256 0.04028649 -0.038921632 -0.019035805 -0.033047903 0.07659673
-0.08119496 0.074575424 0.00696489 -0.056399494 0.012420752 0.011189394 0.025951205 -0.060500804
-0.0040118196 0.08487006 -0.06879596 -0.048881687 0.049315304 -0.015386611 0.0053594336 -0.034729782
0.054764096 -0.06926424 0.06507981 0.016628768 0.006556158 0.029578498 -0.005721982 0.008960813
0.055643234 0.0775087 0.0152091505 0.0015071719 -0.059110876 0.04043422 -0.035586204 -0.01631022
-0.051293198 0.09014966 0.061649606 0.021865644 -0.02457459 0.04806727 0.03401199 0.09554817
0.004068025 0.066517316 -0.057750124 -0.046391774 0.040205136 -0.061710026 0.043742582 -0.038635142
-0.001688601 -0.0046289642 0.039796658 0.057195604 0.039757557 -0.04566264 0.047560625 -0.01254132
0.05815264 -0.042287964 0.023458995 -0.012149416 0.05949187 -0.040050503 0.029493812 -0.06297652
-0.05651395 -0.003575576 -0.05333213 -0.07329095 0.03867189 -0.07229696 0.00062046514 0.03573144
0.003453595 -0.046462886 0.06790825 -0.013279663 -0.039235502 -0.095211186 0.082663074 0.034890193
0.025037745 0.01944907 -0.011236017 0.117428064 0.06378771 0.075956255 0.012168315 -0.015933525
0.060988165 0.058540665 0.07916744 0.06185524 -0.027812375 0.017070893 0.106959276 0.09840476
-0.030792838 0.05579205 0.04320589 -0.057660926 0.0018657236 0.04025235 -0.01622463 -0.09526975
0.0089448495 0.049020447 0.03479842 -0.007973378 -0.084584996 0.062167846 -0.07083393 0.05401963
0.008176931 -0.010283578 -0.0074573415 -0.056295175 0.04534324 0.05654364 -0.029175537 0.06324418
-0.0048562684 -0.09382995 -0.046684828 0.036506835 0.014854461 -0.084432036 0.016241033 -0.051391948

fc1.bias f4 [128]
00000000: 1099 823c b224 54bd 8083 d73c 86de a63c
00000010: 8364 1a3d 3140 0bbd b174 c4bd 9d13 8cba
00000020: 2984 843d 4ecf 063d 4a37 f33c d464 253d
00000030: f428 213b 8721 dcbb 210e b8bb b20e 103d
00000040: 8aa0 643d f0ec 803d 6918 053a 522a 053d
00000050: 9e1e 783c 5e66 a8bd e42e b3bd 5b97 4d3d
00000060: fa58 58bd 2f32 61bd 097c 043d f323 aabd
00000070: f87f 88bd 0003 fbbb 5955 c3bc 49de aabd
00000080: 03fc fdbc 8a60 843b f6ba 393c 24af a23d
00000090: ea33 cebb dc55 06bd 9dd1 9cbc 3d4d a93d
000000a0: 0fef ef3c a58b 893d 4c83 003c 2bc3 383d
000000b0: faa1 663d d16a 6a3d adea e2bd 8a2b 06bc
000000c0: c8b7 b03d efa6 6dbc 93d5 f9bc 5691 b43d
000000d0: d66a 03b9 3828 f2b9 48a5 653d e1d3 34bd
000000e0: 7e66 623d 8833 13bb 54c0 8a3d a907 debb
000000f0: 140c 1a3d 6d54 0b3e dfdc 88bd 1619 f2bc
00000100: 8240 463d 37d2 a43d cada ae3c e952 8dbd
00000110: dedc a1bd 6373 c1bc 7a2e 9dbd 9e78 67bd
00000120: 2eff 56bd 2d50 12bd de3e 52bd 9dc3 a4bc
00000130: a866 da3c b1d9 893b 31b5 863d 9755 19bd
00000140: 4fa7 a73d 9dff 37bd 4476 54bc 7265 5aba
00000150: 3c5f 963b 6072 adbd f195 063d 6da2 6c3d
00000160: 454c 88bb bb64 3ebd 94f2 0cbd 0998 9d3c
00000170: 84bd ba3d a356 0abd e6ad a2bd 6a41 793d
00000180: 21f3 51bd 3eee 7dbd 648a 923d 86df 83bc
00000190: da5b 6b3d 076b 4d3d 3099 f63a 809a 2dbd
000001a0: 839d 123d dd65 15bc 176c df3c c048 343d
000001b0: 196c 833d 4595 cfbc ede9 adbd f3a6 86bd
000001c0: 5514 e6bc ed37 943c 2606 a83d 421a 89bd
000001d0: b13d 2b3c 8c5b 09bd cdec a8bd e13f 86bd
000001e0: c4bf 9e3d d681 af3d 010b 843d 5065 ebbc
000001f0: 6465 6bbd 545e 4c3d e2ee cc3c a154 25bd
0.015942127 -0.051792808 0.026307821 0.02036978 0.03769351 -0.033996765 -0.095925696 -0.0010686998
0.0647052 0.032912545 0.02968945 0.04037936 0.002459106 -0.006717864 -0.0056169187 0.035170265
0.055817164 0.06295192 0.0005077185 0.032511063 0.015144018 -0.0822265 -0.08749178 0.050193172
-0.05281923 -0.0549795 0.03234485 -0.08307638 -0.06665033 -0.0076602697 -0.023844408 -0.08343179
-0.031003958 0.0040398287 0.011336079 0.07943562 -0.0062928097 -0.032796726 -0.01914292 0.08266685
0.029288797 0.06716088 0.007843804 0.045108 0.056306817 0.057230774 -0.11079917 -0.008189091
0.086288035 -0.014505132 -0.030497348 0.08816783 -0.00012532933 -0.00046187802 0.056065828 -0.044147376
0.055273525 -0.0022461135 0.06774965 -0.0067758155 0.037609175 0.13606425 -0.06682753 -0.029552978
0.048401363 0.08047908 0.021344561 -0.069005795 -0.07903455 -0.023614591 -0.0767488 -0.056511514
-0.052489452 -0.035720993 -0.051329486 -0.020112807 0.026660278 0.004206859 0.06577528 -0.03743514
0.081862085 -0.044921506 -0.01296765 -0.00083311566 0.0045889895 -0.08469081 0.03285784 0.05777209
-0.0041594827 -0.046482783 -0.034411028 0.019237535 0.091181785 -0.03377403 -0.07943325 0.0608534
-0.051257256 -0.061994784 0.07155302 -0.016097795 0.057460643 0.050150897 0.0018813964 -0.04238367
0.035794746 -0.009118524 0.027273221 0.044014692 0.06417102 -0.025339732 -0.084918834 -0.06574812
-0.028085867 0.018093074 0.08204298 -0.066944614 0.01045172 -0.03353457 -0.08248291 -0.06555153
0.0775142 0.08569686 0.06447411 -0.028734833 -0.05746974 0.049894646 0.025016252 -0.04036391

fc2.weight f4 [64, 128]
00000000: 1fed a1bd f909 8d3d 87bd 3b3d e538 ab3d
00000010: 0483 8abd fbac 3d3c 026c b73b b3a6 813d
00000020: 0697 82bd de6d c83c 154f 88bd 2849 983c
00000030: 8b56 a63d 501d 823d f845 823c ad9b 26bd
00000040: 81f9 a3bd 0b64 34bc 42ea c13d a904 9ebd
00000050: e589 10bc 67eb 8ebd 8fbb 9a3d 6ca4 233d
00000060: e460 333d 3da0 c5bd 20db 0b3c 1e6f e0bc
00000070: 7a2e 953d 3257 69bd 036f 373d 0766 40bd
00000080: 789e afbc 5804 88bd a8b0 a73d 7789 12bd
00000090: 613f 59bd 9450 23bd 7488 73bc b8ed 16bd
000000a0: 5809 a23d 30fe 4d3d a7dd 53bd cf48 7dbd
000000b0: cc26 d5bc 6d7c c73b c722 22bd 933a 823d
000000c0: ffb6 353c f51d 753d c0ad 693c a803 833d
000000d0: 010b c53d 9626 f23b f11f 1abc b7dc 2fbc
000000e0: 3498 0d3d 1f77 9dbc 7b49 763c ce3e c4b8
000000f0: 8381 153d 785f 7fbc 678c a3bd dd0b 3d3d
00000100: 90b5 8c3c 9805 d2bd 610b 8a3d 4b6d f2bc
00000110: f945 89bd 81c2 a6bd d20c 12bd 9348 783d
00000120: c1aa c53d 2f1f 31bd 9e68 aa3d 679d bf3b
00000130: 7983 843d b61a 033d e68c 673d b4b7 36bd
00000140: be1e 83bc 9bad 8bbd 4bd7 273d 89f4 c2bb
00000150: f903 acbd 7f62 17bd 1cdf 633d d968 cd3c
00000160: 85a8 953c fc58 a2bd 22bd c4bd ff13 843d
00000170: be57 7bbd c628 b5bc bd65 5e3d d0e7 753d
00000180: 9c6c 8c3d 8e9f 89bd 295c 653c 1a4e 8cbd
00000190: 618f 073b 4749 43be 8104 c43b 3325 b7bc
000001a0: 2dfe f13b 6f5f 51bd 8fd0 05bc 8864 f1bc
000001b0: e1c1 863d 129a 463b ead9 99bd 5d30 5b3d
000001c0: 5355 14bd 120e 683c eacb 12bb ea1d cd3c
000001d0: 847b 213d 80b1 3dbd 61f8 b3bd 4680 c7bc
000001e0: 2ca0 93bd f1a4 2dbc d095 7f3a 500d 84bd
000001f0: 54cb 19bd 6dc3 533d 07c5 08bd d41a 7cbc
00000200: 1234 193d 0049 ed3d a389 823d 5525 bcbc
00000210: 09c4 b3bc 499b 3e3c 7131 b63c 2a4b 363e
00000220: f67e 90bd e12b 183e 5c40 90be 3f54 d1bd
00000230: a3fd 143e 2e40 043e 5fef 4dbd e6ea c13c
00000240: 71cd 39be 3e5d 993d b56c a83d 7a2c a4bc
00000250: f596 b93d 3627 02be e328 fa3c 4563 aebc
00000260: 24ae a4bd c7f1 f1bd 89cf c8bc 41f3 adbd
00000270: 0d85 863d b370 713d e33d 2a3d f2f7 febd
00000280: 373f c2bc 08e4 443c fbaf a93d 0db3 d6bc
00000290: 335a 023d da53 913a b650 463d ac20 89bd
000002a0: 2e6e d73d 7ffc 993d 84ef dcbc 59df 1bbe
000002b0: df38 bb3c 354f e9bd 48d6 ccbd ffcd 6ebc
000002c0: 4a35 743c 7c83 e6bd 3ee7 b3bd 769b d2bc
000002d0: 5976 103e f397 c03d 6c97 503d 19af 32bc
000002e0: 95f8 80bd 1ab9 96bc cd21 3dbd 9d38 90bd
000002f0: 361c 81bd c896 36bc 01f0 27bd 3193 5bbd
00000300: ef89 be3d 6381 e6bd 8d64 6c3d d34f da3c
00000310: c2c8 adbd c406 1ebd 86b9 59bd 1d81 6f3d
00000320: 2af4 2f3e e01d c13b 557b c43c 4723 41bd
00000330: a702 a53d a2ab 75bd ccd6 38bd 53b7 4fbd
00000340: aa2f a7bd 8b71 2abc 2c5a 09be cbe1 25be
00000350: 2b1b 953c a10e 393d 1e64 d0bd 0806 513e
00000360: 6163 c9bd d082 0c3d 735d 343c 5bf1 453c
00000370: 5378 03be f316 083d a191 a1bd b40f a53d
00000380: be2b 973d 4c75 62bc c65d 843b 5c41 22bd
00000390: 30b3 1fbd 77f0 9abe 7335 843d d1c2 7fbd
000003a0: 4e85 0bbd a41b 5f3c 771e e8bd a2de f3bc
000003b0: 4ba5 aebd 2ca8 bc3d 0838 63bd 8562 b4bd
000003c0: 6040 eebd 1554 033c ed25 1cbd 22f9 c0bd
000003d0: 8456 4f3c 02cf 84bd daba a5bd 2848 23bd
000003e0: a0f7 3dbe ca8a 07be 4127 203e 10ec 5e3c
000003f0: 6e71 a93c 76fa f73a 7dff 313e 9761 9b3d
-0.079065554 0.06886668 0.045835044 0.08360461 -0.067632705 0.011576886 0.0055975923 0.063306235
-0.06376462 0.024466451 -0.06655709 0.018589571 0.081219755 0.06353247 0.015902504 -0.040675808
-0.080065735 -0.01101018 0.09468509 -0.077157326 -0.008821939 -0.06978493 0.07555305 0.039951727
0.043793574 -0.09649704 0.00853613 -0.027396735 0.07284255 -0.05696792 0.044783603 -0.0469723
-0.021437868 -0.066414535 0.081879914 -0.035775628 -0.05303896 -0.039871767 -0.014864076 -0.0368478
0.079119384 0.05029124 -0.051725056 -0.061837014 -0.026019476 0.0060878308 -0.039583948 0.063588284
0.011090993 0.059843022 0.014262617 0.06397182 0.096212395 0.0073898537 -0.0094070295 -0.010733775
0.03456898 -0.01922184 0.015032168 -9.3577066e-05 0.036500465 -0.015586726 -0.07985764 0.04615389
0.01717642 -0.10254973 0.067404516 -0.02959313 -0.06702799 -0.081425674 -0.035656758 0.060616087
0.09651709 -0.04324263 0.083207354 0.0058476212 0.06470389 0.032007895 0.056530856 -0.044608787
-0.01600587 -0.06820222 0.040976804 -0.005949561 -0.08399195 -0.036959168 0.055632696 0.02507441
0.018268833 -0.07927129 -0.09606387 0.064491265 -0.061362974 -0.022114169 0.054296244 0.060035527
0.06856653 -0.06719886 0.0139990235 -0.06850834 0.0020684826 -0.19070922 0.005981982 -0.022356605
0.0073850364 -0.051116403 -0.0081674 -0.029466882 0.06579948 0.0030304235 -0.07512267 0.05351292
-0.036214184 0.014163511 -0.0022399374 0.025038678 0.039424434 -0.046311855 -0.08787609 -0.024353158
-0.07208285 -0.010598407 0.0009749802 -0.06447852 -0.037547424 0.051700044 -0.033391025 -0.015387256
0.037403174 0.11586189 0.06373908 -0.02296702 -0.021944063 0.011633703 0.022240372 0.1780211
-0.07055466 0.14860488 -0.28174102 -0.10221147 0.1454988 0.12915108 -0.05027711 0.023671579
-0.18144776 0.07488488 0.08223859 -0.02004074 0.09061996 -0.1271027 0.030537074 -0.02128757
-0.08041027 -0.118136935 -0.024513023 -0.084936626 0.06568346 0.05894537 0.041562926 -0.124496356
-0.023711784 0.0120172575 0.08285519 -0.026208425 0.031824302 0.0011087612 0.048416816 -0.06695685
0.10519062 0.07518863 -0.026969679 -0.15221919 0.022854267 -0.11392061 -0.100018084 -0.0145754805
0.014905283 -0.112555474 -0.0878434 -0.025708895 0.14107646 0.09403982 0.050925657 -0.010906004
-0.06297413 -0.01839881 -0.046174813 -0.07042048 -0.06304209 -0.0111443475 -0.04100037 -0.05360717
0.093036525 -0.11255147 0.05771308 0.026649391 -0.08485557 -0.03858067 -0.053155445 0.05847274
0.17182985 0.005893454 0.02398459 -0.047152784 0.080571465 -0.059978135 -0.04512672 -0.05071194
-0.08163388 -0.010403047 -0.13413304 -0.16199414 0.018201431 0.045179967 -0.10175346 0.20412457
-0.09833408 0.03430444 0.011008608 0.012081469 -0.12838869 0.03322501 -0.07889105 0.08059636
0.0738139 -0.013821911 0.004039499 -0.039613113 -0.038989246 -0.30261585 0.06455507 -0.06244165
-0.034062676 0.01361743 -0.11333936 -0.029769246 -0.08527621 0.09211764 -0.055473357 -0.088078536
-0.11633372 0.008015652 -0.038122106 -0.09422518 0.012654904 -0.06484796 -0.0809228 -0.039863735
-0.18551493 -0.13236538 0.15639974 0.013606086 0.02068397 0.0018919248 0.17382617 0.07586973

fc2.bias f4 [64]
00000000: 0311 80bd 1b9f f4bd 25ca 21bd 0a20 f23d
00000010: 165a 433c f066 9abd f0b0 c6bd 29a3 1e3e
00000020: c6e0 a3bc 4262 433d e81b bf3c 1775 3ebd
00000030: 8eee 993c 201b a7bd fc95 083e b251 bf3d
00000040: e2cc 123a cb3f 8c3d 5344 6cbd 224c 4a3e
00000050: 4ca9 65bd 6b20 d5bb c78e 12bd 2f93 a5bc
00000060: 992a 52bd 40bc 90bd a166 c8bc af85 133e
00000070: 1737 74bd e094 90bd 0d39 f7bb 2b26 bbbc
00000080: b101 a7bc d2b5 be3d ff35 28bd a88f afbd
00000090: 0f5b 833c 13fb abbd f1ba 03be c220 123e
000000a0: d3a6 7db6 7681 c53d 1e1e afbd 95e9 e43d
000000b0: caa8 95bd 7967 82bd 3e4c f43d c926 9dbd
000000c0: f4da 053e 53b7 273d cad2 7abd d2bf a9bd
000000d0: 305f 5dbd eb9c 27bd b0f8 fd3d 7af1 95bc
000000e0: 97de 263c 5a45 76bd 84f9 b0bd e0e2 013e
000000f0: 0c33 453e 1cfd 313d c79a 55bd 17ac 013e
-0.06253245 -0.119444095 -0.03949942 0.11822517 0.011923334 -0.07539165 -0.09701717 0.15491928
-0.020004641 0.047701128 0.023328736 -0.046498384 0.01879051 -0.081594706 0.13338464 0.09341754
0.0005599988 0.06848105 -0.057682347 0.19755605 -0.056069657 -0.0065041087 -0.035780694 -0.020211784
-0.051310156 -0.07067156 -0.024463 0.14406465 -0.05962285 -0.07059646 -0.007544643 -0.022845348
-0.020386549 0.09312023 -0.04106712 -0.08572322 0.016034631 -0.08397498 -0.12864281 0.14270309
-3.7797042e-06 0.09643833 -0.08550666 0.11177365 -0.073075846 -0.06367392 0.119286045 -0.07673413
0.13071805 0.040946316 -0.06123618 -0.0828854 -0.054045856 -0.040921133 0.12400949 -0.018303622
0.0101849055 -0.060124733 -0.08641341 0.12684202 0.19257754 0.043454275 -0.05214956 0.12663303

fc3.weight f4 [5, 64]
00000000: 9c22 2e39 40d0 b6b8 5e62 4bb8 f713 0639
00000010: 5e56 e538 3936 6539 9d15 9dbd 2a65 5039
00000020: bc1e d5b8 42d8 c238 2b5f 8abd 536a 92b8
00000030: bb29 8b3d 5218 76ba bb1f afb5 4ecf cfb8
00000040: 1bec 47bd 7528 deb8 d1f3 9d35 132c d5b7
00000050: 5382 54b8 c714 863d fb2e 0d3d 77e9 0cbd
00000060: 107c 86bc c7b7 7abd be06 77b9 060f 7037
00000070: 60b2 02bd 9490 babd b532 0ab8 2e7c 673d
00000080: 1053 1739 35bf 0438 79f9 9fb6 4b3e bc3d
00000090: 66aa 493d 6fd5 bd38 f143 13bd 526f d738
000000a0: 9bd8 28b9 8dbd ab38 61bb dcbd a7ce b7b8
000000b0: 75e8 c835 a267 d03d 392f a238 6b80 80bd
000000c0: c5cb 50b9 a3f8 bf38 200b 11b9 10da a13d
000000d0: a187 c3b8 5e6d 1339 1973 ebb7 4b44 31b9
000000e0: 2b63 debc d7f3 0ebd 2891 10b8 55f8 2439
000000f0: f36b 5db7 7864 56b6 9d80 cbbd 596b df38
00000100: 7c95 4439 2d61 bf38 63f5 7838 4b67 3338
00000110: ad76 0839 186f a0b8 bd04 f63c 9d28 14b8
00000120: 7258 a536 7198 59b6 4019 083d 538b 0b38
00000130: bb6a 97bd c843 d73c 9425 34b9 7f93 25b9
00000140: 31b8 d03d 018e 47b8 5ced b6b8 29ff 8cb7
00000150: ffb3 c238 da6c a63d dc8a 043d 0203 1b3d
00000160: a6c3 473d ed8d 90bd 0f21 f2b9 d949 8c39
00000170: e879 093d f6d1 e43c 095d 95b8 fc29 9e3d
00000180: e1d7 0139 5187 e938 51ec 39b8 2d10 f4b9
00000190: 8c93 9abd d315 44b7 e856 8abd 9b59 ac38
000001a0: d91a 00b8 9797 7038 eaf3 993c 1dbe 13b8
000001b0: 3567 3038 06bd a6bd 10c0 2439 dd0d 953c
000001c0: 094c 7db8 b335 6039 a789 6fb9 bbaf b3bd
000001d0: 85cd 78b9 c3b2 60b8 2b55 b1b7 eeb1 c938
000001e0: bff4 7e3d 2707 80bd 18dd 7738 346e db36
000001f0: aab1 f738 e9f9 a636 1c8b f33d 0695 6a39
00000200: 4724 213a ba34 2f39 c303 d038 42af 3339
00000210: 7da5 35b9 a188 2739 ff1d c6bd 8ed6 4639
00000220: 3a10 d0b8 a55e 4eb8 5eb3 54bd c1cf 3339
00000230: fc2e bebd 8544 0b3d 96d1 7f36 3b9c dcb9
00000240: 33a6 493d 383d 8bb9 2c84 49b7 9bd4 6538
00000250: 5c9e 8339 bb49 a6bd eda7 3bbd c3e6 b53d
00000260: c531 ae3b 9ec4 53bc 0965 1cba b61d 4538
00000270: e53e dfbd 5403 a03d 42ce 2ab9 d3ae 8c3d
00000280: 65ab a339 f0fb 8a38 53f8 a839 4c24 6a3d
00000290: cfe4 27bd 1c4c 5b39 ea90 cbbc fa41 1b38
000002a0: 998f 0039 1fc7 df38 b88a 8abd f071 1ab9
000002b0: c686 9639 15bd ef3d d282 0f39 7b5b 733a
000002c0: 6da7 4c38 6bc7 bf39 9e90 b138 816a b6bd
000002d0: 781e 0339 79ee 4034 0ce6 6fb8 d1c0 1f39
000002e0: e613 543a d679 953d 6bc5 5c3a ccfa 8537
000002f0: ee67 1839 1243 0e39 6316 c73d 6471 34b8
00000300: 6d3e 853e d670 523f 4765 1739 a97f dc37
00000310: 422d 953a af5e ab39 7329 8d3d 6c2a 84b9
00000320: 71c4 c839 d31e 97b9 a639 283d 0896 873a
00000330: a6e5 bc3d f994 cfbd 9e1d 2eba adad 753a
00000340: 97ae 993d defa 47b9 8259 89b9 2ff7 8739
00000350: f4a1 db39 e2d7 29bd a78e 8f3c b6e0 debc
00000360: 0222 82bc 8838 98bd 367d c23e 93b4 25b9
00000370: e7c3 563d dc9f 183d fa1d 583a 80f9 c63b
00000380: c18b bfba cedd e3b9 c5e2 b33e 9b7f d9bb
00000390: 7f71 b23d 2d65 66b9 5e9c 0c3d 4c11 5aba
000003a0: 9ecd deb9 5797 00ba 16d6 d9bd b00d afb9
000003b0: 7e79 2dba b00a a63c ef35 633a 5d9b c63d
000003c0: ceae 01ba 244c 0c3a 934b f83c df5d 823d
000003d0: 9ed7 a838 7f6f 393a 1c52 00b7 6a88 5c3a
000003e0: facc ed3d 5af9 9b3c aa4f 873e 551a 90b9
000003f0: ece7 21ba 5bd8 36ba 98a1 02bd 0b98 a737
0.00016606826 -8.717226e-05 -4.8490583e-05 0.00012786673 0.00010935658 0.00021859341 -0.07670138 0.00019874112
-0.00010162356 9.290922e-05 -0.06756433 -6.981627e-05 0.06795069 -0.0009387779 -1.3047751e-06 -9.909143e-05
-0.048809152 -0.000105933206 1.1768371e-06 -2.5412102e-05 -5.0666113e-05 0.06546932 0.034468632 -0.034402337
-0.01641658 -0.06121042 -0.00023558267 1.4308613e-05 -0.031908393 -0.09109607 -3.294899e-05 0.05651491
0.00014431425 3.1649328e-05 -4.7676117e-06 0.09191569 0.04923477 9.0519774e-05 -0.035953466 0.00010272734
-0.0001610242 8.189222e-05 -0.10777927 -8.764612e-05 1.4968815e-06 0.101760164 7.733558e-05 -0.06274494
-0.00019912336 9.153902e-05 -0.00013832422 0.0790292 -9.3235874e-05 0.00014059755 -2.806778e-05 -0.00016905477
-0.027146896 -0.034900513 -3.4467463e-05 0.0001573277 -1.319776e-05 -3.1946965e-06 -0.099366404 0.00010653464
0.00018747704 9.12569e-05 5.935634e-05 4.2773125e-05 0.00013014181 -7.650087e-05 0.030031556 -3.5323774e-05
4.9276796e-06 -3.2424252e-06 0.033227205 3.326994e-05 -0.07393404 0.026277438 -0.00017180137 -0.00015790573
0.10191382 -4.757755e-05 -8.722648e-05 -1.6808119e-05 9.284168e-05 0.081262305 0.03235899 0.037844665
0.04877057 -0.0705832 -0.00046182467 0.00026757902 0.033563524 0.027932148 -7.122203e-05 0.07722852
0.0001238282 0.000111355104 -4.4327524e-05 -0.00046551359 -0.075476736 -1.1687592e-05 -0.06754857 8.2182894e-05
-3.0542582e-05 5.7361638e-05 0.018793065 -3.5224588e-05 4.205779e-05 -0.08141522 0.00015711808 0.018195087
-6.0390714e-05 0.00021382309 -0.00022844096 -0.08773752 -0.00023727685 -5.3572247e-05 -2.1139704e-05 9.617569e-05
0.062245127 -0.06251364 5.90953e-05 6.539538e-06 0.0001181097 4.976279e-06 0.118917674 0.00022371495
0.00061470683 0.00016708943 9.9189136e-05 0.00017136059 -0.00017323154 0.0001597726 -0.0967369 0.0001896268
-9.921235e-05 -4.9202372e-05 -0.05192887 0.00017148165 -0.09286305 0.034000892 3.8119956e-06 -0.0004207807
0.049230766 -0.00026557758 -1.2011307e-05 5.479586e-05 0.00025104254 -0.08119532 -0.045814443 0.08881905
0.0053159916 -0.012925295 -0.0005965983 4.699613e-05 -0.10900668 0.07813135 -0.000162893 0.068692826
0.00031217482 6.62728e-05 0.00032228473 0.05716352 -0.040989693 0.0002091382 -0.024849374 3.7016325e-05
0.00012260526 0.00010670558 -0.0676474 -0.0001472903 0.00028710644 0.117059864 0.00013686277 0.0009283346
4.8793318e-05 0.00036578937 8.466955e-05 -0.08907033 0.00012504484 1.7968149e-07 -5.719629e-05 0.00015235251
0.00080901233 0.07298629 0.00084217516 1.5971622e-05 0.00014534566 0.00013567161 0.09721067 -4.3020947e-05
0.2602419 0.82203424 0.00014438211 2.628549e-05 0.0011381286 0.00032686206 0.068926714 -0.0002520861
0.00038293333 -0.0002882393 0.041070603 0.0010344395 0.092234895 -0.10135836 -0.00066419865 0.0009371888
0.075040035 -0.00019071574 -0.00026197365 0.00025933373 0.000418916 -0.041465648 0.017524077 -0.02720676
-0.015885357 -0.074326575 0.37986153 -0.00015802895 0.05243292 0.03726183 0.0008244213 0.006072223
-0.0014613793 -0.0004346207 0.3513395 -0.006637526 0.08713054 -0.000219722 0.03432881 -0.00083186175
-0.00042496336 -0.0004905364 -0.10636537 -0.000333888 -0.000661753 0.020268768 0.00086673995 0.09697602
-0.00049470074 0.0005351922 0.030309474 0.06365561 8.051026e-05 0.0007073804 -7.648512e-06 0.0008412661
0.11611362 0.019039799 0.26427966 -0.0002748544 -0.00061762217 -0.00069749885 -0.03189239 1.9978752e-05

fc3.bias f4 [5]
00000000: c8c9 c0be 8db2 c0be abc8 c0be d969 c0be
00000010: 09de 423c
-0.37653947 -0.37636223 -0.37653098 -0.37580755 0.011893758
