model_weights/20epochsConvNet_1_0_2.pth (torch_old, 265838 bytes, 12 tensors)

conv1.weight f4 [10, 5, 4]
000000 b5 ec 51 be 15 ad 63 3d 7c 38 04 3e 59 c8 fd bd
       -0.20500453 0.055584986 0.12912172 -0.12391729
000010 a3 93 ab 3d cf 36 50 be d3 d7 05 3d 53 4d 26 3e
       0.08377769 -0.20333408 0.03267653 0.16240434
000020 4d 90 a5 bc 3d 36 2b 3e c0 7e 0f 3e b8 46 3d be
       -0.02021041 0.16719909 0.14013195 -0.18484008
000030 46 9c 29 be 16 f2 48 be fd 2a 41 3e d1 b7 44 3d
       -0.1656352 -0.19623598 0.18864055 0.048026863
000040 71 b5 97 be 8f 36 7c be 69 fe 28 3e 30 e6 1d be
       -0.29630616 -0.24630187 0.165033 -0.15419841
000050 dc e0 8b 3d 88 63 53 be 9c d0 f3 3c 22 3d 87 3d
       0.06829998 -0.20643437 0.029762559 0.06603457
000060 cd 02 45 bd 85 26 3a 3e 40 cc 28 bd 60 f6 c7 bd
       -0.048098374 0.18178757 -0.041210413 -0.09763789
000070 f1 a9 87 bd 4f d0 b4 bc 6a 4d 92 3a 82 c5 04 3e
       -0.066242106 -0.022071986 0.0011161987 0.12965968
000080 f5 77 93 be 7b 2b ac 3d e0 52 3f 3e b4 bc ae bd
       -0.28802457 0.08406731 0.18683958 -0.08532086
000090 45 ce d3 3e b1 38 62 3e b7 ad 70 bd c4 f6 95 be
       0.4136831 0.22091939 -0.058759417 -0.2928983
0000a0 79 df 8b bd c7 f2 31 bc 70 86 10 3d a4 ab ce bd
       -0.068297334 -0.010861105 0.03528446 -0.100913316
0000b0 93 67 53 bd 9a 3c 03 3e ac fa 59 3d 64 a8 26 3d
       -0.051612448 0.12816086 0.053217575 0.040687934
0000c0 d8 ee be 3d 04 43 d5 3d 90 e3 36 3c e5 d5 20 be
       0.093228996 0.10413173 0.011162654 -0.15706594
0000d0 d7 6e 17 3e f4 95 0f be 5a fb ac 3d 4e 23 df 3d
       0.14788376 -0.14022046 0.08446379 0.10895406
0000e0 44 16 44 3e c3 56 16 3e 52 ce f7 bd 27 23 1f 3f
       0.19149119 0.14681534 -0.12099899 0.62163013
0000f0 3b b2 10 be 4b 26 eb bc 46 15 b7 3d 54 40 25 3e
       -0.1413049 -0.028704783 0.089396045 0.1613782
000100 b8 bb 42 bc ca 58 fe 3d 0a d3 ed bd 39 52 ec bd
       -0.011885576 0.12419279 -0.11612518 -0.1153912
000110 b3 3a 28 be d7 0b 44 3c 22 d5 6b bd ba 17 b8 bb
       -0.16428642 0.011965713 -0.057576306 -0.005618063
000120 48 56 90 3d 9e d3 0d bd 94 8f 89 3e d5 55 19 be
       0.07047707 -0.034625642 0.26867354 -0.14974149
000130 99 6d 55 3e ec c1 75 3e 4c 50 c0 3e d5 cf cc 3e
       0.2084259 0.23999757 0.37561262 0.40002313
000140 1a 4f 2b be 10 84 b3 3d 21 52 23 3e 54 d9 30 be
       -0.16729394 0.08765423 0.15949298 -0.17270404
000150 33 85 ee bd 8b 4c 51 be 2f 07 2c be 61 6f e6 3d
       -0.116464995 -0.20439355 -0.16799615 0.112517126
000160 dd 5d 33 be 12 cf e6 3d e3 46 f4 3d f3 1b 22 be
       -0.17516275 0.11269964 0.11927583 -0.15830974
000170 49 a5 24 be d2 01 ab 3c 31 46 0d be 64 6e 15 be
       -0.16078676 0.020874891 -0.13796307 -0.14592892
000180 df 70 81 be f5 b5 7e be 14 cd 89 be 0e 64 36 3e
       -0.25281426 -0.24874099 -0.26914275 0.17811605
000190 24 bc 60 be 99 e8 59 be 01 18 50 bd e8 5e c7 3c
       -0.2194677 -0.21280135 -0.050804142 0.024337247
0001a0 1e 75 d3 3b e8 8e 78 3d e3 a1 6e 3d ae 1a cb 3d
       0.0064531704 0.06068316 0.058259856 0.09917198
0001b0 51 73 87 3d 83 71 79 3c ba aa 6b be 75 07 e1 bd
       0.06613792 0.015224817 -0.23014346 -0.109877504
0001c0 d4 33 41 be a0 7c 25 be 18 7d 2c 3d b9 a5 8c 3e
       -0.18867427 -0.16160822 0.042111486 0.27470186
0001d0 7d 67 63 3d b0 5f 37 3e 43 b1 3b be b4 9f 2b be
       0.055518616 0.17907596 -0.18329339 -0.1676014
0001e0 e7 ab 08 3d cc e3 b1 3d 21 5c 97 3d f8 b3 35 3b
       0.033367064 0.08686027 0.07390619 0.0027725678
0001f0 76 2c 93 bd ee eb 07 3e 00 1d 5e be 30 19 ed ba
       -0.071862146 0.13273594 -0.2169075 -0.0018089171
000200 47 8d 4b 3e e1 fb f2 3d f6 d3 02 be 47 97 0b 3e
       0.19878112 0.11864448 -0.12776169 0.13631926
000210 3f 82 d4 bd 6a a9 5a 3e 3e d8 54 be 4c cc 44 be
       -0.10376405 0.21353689 -0.20785615 -0.19218558
000220 13 bf 02 be 51 3c 3f be d6 f1 f7 3d 9f f8 21 be
       -0.12768202 -0.18675353 0.121066734 -0.15817498
000230 71 23 16 be 36 99 4d bd a2 73 d7 3d e5 f0 d7 3d
       -0.14661957 -0.05019494 0.10520102 0.10543994
000240 9c 58 77 3c df 50 68 be 38 8f 15 3e 6b 07 59 3c
       0.01509681 -0.226871 0.14605415 0.0132463975
000250 81 46 8c 3c 29 c5 5d 3c 66 49 65 be ee 2b 0f bd
       0.017123463 0.013535776 -0.2239128 -0.034954004
000260 f2 52 91 3e 5d 3f 1e be 01 4e 61 be b4 84 a1 be
       0.28383595 -0.15453859 -0.22002412 -0.31546557
000270 41 12 6b 3e b7 b2 8e 3e f7 cc 1c be 1a 00 6a 3e
       0.22956182 0.27870724 -0.15312563 0.22851601
000280 17 e4 76 bd 96 f3 09 be 48 2e 01 be 6f 82 f9 bd
       -0.060276117 -0.13471827 -0.12615311 -0.12183081
000290 6a 77 8d 3d 6d e2 34 3c a9 49 00 be 25 1c 87 bd
       0.06907542 0.011040312 -0.12528099 -0.06597165
0002a0 fc 33 16 3e bd ac e4 3c db 11 06 be 82 dd ad 3d
       0.14668268 0.0279144 -0.13092749 0.08489515
0002b0 05 e7 17 be e8 84 7d 3d 09 2d 65 be a6 58 27 3e
       -0.1483422 0.061894327 -0.22380461 0.1634241
0002c0 e7 4a 84 bc f3 de de 3e 1d c9 9f be bb e4 2d be
       -0.016148997 0.43529472 -0.31208125 -0.16981785
0002d0 05 d2 0e be 9c 09 2d bd 1f 0f d5 3d 68 2d a7 bd
       -0.13947304 -0.042245492 0.10403275 -0.081629574
0002e0 60 a0 d4 3d 92 3d 6e bd b1 00 33 be 47 3d 23 be
       0.103821516 -0.058164187 -0.17480733 -0.15941344
0002f0 4e 97 cc bd 78 2a 19 be c6 72 d3 3d 5e d5 2e 3e
       -0.099897966 -0.14957607 0.10324626 0.1707358
000300 e1 0d c8 3e 41 90 0b be 03 5f ed 3e 28 9a 90 3d
       0.3907309 -0.13629247 0.4636155 0.07060653
000310 60 3a ef bb 39 8e db 3b 7a 8e 33 3e a9 5c 19 be
       -0.00730066 0.006700304 0.17534819 -0.14976753

conv1.bias f4 [10]
000000 d1 95 68 bc 74 b7 a0 3e 09 a4 c7 3d 9b 15 08 3d
       -0.014195875 0.31389964 0.09748084 0.03322373
000010 94 d9 de 3d 04 d5 5c 3c 24 12 32 be 65 6a 0e 3e
       0.108813435 0.013478521 -0.17389733 0.13907774
000020 11 3f 71 3e fc c7 9f bd
       0.23559214 -0.07801816

fc0.weight f4 [64, 290]
000000 9d 98 d1 3c dd 1d 81 bb ab c5 52 3d ff fa 53 bd
       0.025585467 -0.0039403276 0.051458042 -0.05175304
000010 bf 9f 5c 3c 72 a1 61 3d 41 d6 13 bd a3 eb 45 3b
       0.013465821 0.055085607 -0.036093 0.0030200265
000020 d2 63 f1 3c 37 04 84 bb 83 1c 6d 3c e5 6c 22 bc
       0.029466543 -0.0040288228 0.01447213 -0.009913658
000030 24 4b 6e bd 78 56 01 bd 7a 7f e5 3c db 4b 16 3d
       -0.05817713 -0.031576604 0.028014887 0.036693435
000040 94 22 17 3d 2f 1c 13 bc dd 14 1b 3d fc 29 ff ba
       0.03689821 -0.008978887 0.037861694 -0.0019467468
000050 e4 d5 fb 3c 55 94 61 bd 4f 75 70 bc a9 18 0e 3c
       0.03074164 -0.0550731 -0.014676406 0.008672872
000060 c6 d5 a5 3b bb 3f 20 bc 12 fa 10 bd c6 aa b9 bc
       0.005060884 -0.0097808195 -0.035394736 -0.022664439
000070 7a 34 bd 3c d7 7b 0d bd 63 ac dc 3c fb b3 f4 bc
       0.023096312 -0.03454193 0.02693767 -0.029870978
000080 a0 45 3e bd 0d 54 19 bd 39 c2 0d bd 71 14 59 3d
       -0.04645312 -0.037433673 -0.034609053 0.05299801
000090 84 2c 18 bd 0a 7d 1b bd ff b1 bd bc 02 55 38 bc
       -0.03715183 -0.037961043 -0.023156164 -0.011250736
0000a0 ef 57 82 bc 31 b4 f5 bc 56 5b 29 b9 b8 e6 23 3d
       -0.01591107 -0.029993149 -0.00016151121 0.040014952
0000b0 a6 68 61 3c c7 d9 a7 bc 3f 2a 61 bd f4 bd 54 3d
       0.01375786 -0.020489587 -0.05497193 0.051938966
0000c0 e3 33 77 bd 93 33 fd bb a3 ba 5b bb e8 d4 4f bd
       -0.060352217 -0.0077270954 -0.0033527992 -0.050740153
0000d0 2c 57 4a bc 5b 23 71 3d 33 40 11 3d da 0e e7 bc
       -0.012349885 0.05887161 0.035461616 -0.028205324
0000e0 94 b4 cf bc a7 4b 8d b7 fe a1 bd ba 50 68 7d 3c
       -0.025354661 -1.6843738e-05 -0.0014467833 0.015466765
0000f0 92 a2 eb bb 6e 45 2f bd c8 66 0d 3d c5 32 dc 3c
       -0.0071910108 -0.042790823 0.034521848 0.026879678
000100 80 20 43 bd 0a a9 61 bd 4c 3b 24 bb 53 1e 65 3d
       -0.047638416 -0.05509285 -0.0025059758 0.055937123
000110 f0 4b 2d bc c3 0f c5 3c 37 14 6f bd 98 89 b5 3b
       -0.010577187 0.024055367 -0.058368888 0.005540084
000120 5a 1c 2d bd eb 89 49 bc 65 37 37 bd 2b 4c 38 3d
       -0.042263366 -0.012300949 -0.044730563 0.044994514
000130 e0 4c d1 3b e1 45 2e bd be d6 fd 3c 5d 59 d4 bc
       0.006387338 -0.04254711 0.030986186 -0.025921518
000140 f6 3e 34 3d 45 e2 d7 bc c1 4d 21 bd 91 24 86 bb
       0.044005357 -0.02635301 -0.039380793 -0.0040937145
000150 d8 10 df 3c c7 65 0a bd 37 9c c4 3c 08 da 12 3b
       0.027229711 -0.03378847 0.02400027 0.0022407789
000160 1c 9c 52 3d 4c e2 3b b9 14 33 11 3d 04 cd e3 bb
       0.05141841 -0.00017918012 0.035449103 -0.00695193
000170 13 1e 5c 3d 0c 2e 0b 3c 84 8b 38 bc cb b5 04 3d
       0.05373962 0.008494865 -0.011263732 0.032399934
000180 90 7f ed 3c 82 22 37 bd 30 ad 4a 3d ab 23 46 bd
       0.02899149 -0.044710644 0.04948157 -0.04837386
000190 d6 f2 87 bc ca 06 0e 3d f9 74 c9 bb fb 3b 1a bd
       -0.016595285 0.034674443 -0.0061479774 -0.037654858
0001a0 11 f6 a3 3c f6 98 c1 bc ba bb 31 3d d0 62 32 bd
       0.020014795 -0.023632508 0.04339192 -0.043551266
0001b0 c3 18 5e 3d cd 08 31 bd 48 a0 3d 3c 03 b7 2e bc
       0.054222833 -0.043221284 0.011573859 -0.010663751
0001c0 d6 00 b9 3c 98 38 06 3d 45 cb 9e 3b 1f 87 e1 ba
       0.022583406 0.032768816 0.004846009 -0.0017206407
0001d0 dd 41 4d 3d 46 e0 d7 3b 0d e1 fc bc 4a ee 5c bb
       0.05011164 0.006588015 -0.030869031 -0.0033711367
0001e0 9b 39 57 bb 08 46 43 bd 8d b4 bc 3c cf 6a 04 3d
       -0.0032840732 -0.04767421 0.023035312 0.032328423
0001f0 bb 8d e5 3b 4d 7e 8d 3c 9c d4 58 3b 01 80 0e bd
       0.007005421 0.017272139 0.003308571 -0.034790043
000200 fb 44 36 3d 95 47 53 3d 05 49 c2 3c a7 1e 87 bc
       0.04449938 0.051581938 0.023716459 -0.016494108
000210 0e c9 22 bd 61 2a 3f bc bc 40 35 bd 3c fa 80 bc
       -0.039742522 -0.011667819 -0.04425119 -0.015744321
000220 ae 5b 80 bc 64 c7 b8 3c 88 11 0b bc 46 73 11 3d
       -0.015668716 0.022556014 -0.0084880665 0.035510324
000230 5e 0e da 3c 00 b3 a6 3c 9a bb 44 bd 42 b8 3d 3b
       0.026618179 0.020349026 -0.048030473 0.0028948938
000240 a2 04 6e bc 48 e4 6a ba fd 39 e1 3c e6 5c 7a bb
       -0.014527472 -0.0008960408 0.027493471 -0.0038202344
000250 cb a6 06 bd 22 82 1e bd 77 67 67 bd 08 46 88 bc
       -0.03287391 -0.038698323 -0.056495156 -0.016634956
000260 c6 1b 32 3d be ea 0f bd de 44 51 bd 93 be 05 bd
       0.043483518 -0.035135977 -0.051091067 -0.03265245
000270 ef b1 52 bd b6 9d ed bb d7 08 ee 3c 34 66 9b bc
       -0.051439222 -0.0072514666 0.02905695 -0.018969633
000280 fa 5e 2e bd 45 be 25 3d 8f e8 5a 3c 1a 49 d7 3c
       -0.042571045 0.04046466 0.01336111 0.026279975
000290 74 1c 6b bd f1 8d 52 bd a5 86 5b 3d dd 5a f8 3c
       -0.057400182 -0.051404897 0.053595204 0.030316764
0002a0 b1 22 e6 3b 42 17 b7 3c 7c 75 25 bc f5 2d 4c bd
       0.0070231785 0.022349957 -0.010098811 -0.049848516
0002b0 a7 49 4c bc 69 82 4f bd ce 7f 10 3d 42 75 07 bd
       -0.012468732 -0.05066148 0.035278134 -0.03307081
0002c0 8e b7 4d bc 93 7f 6b 3c 9d 7f 9a 3c 16 46 f0 bc
       -0.01255597 0.014373678 0.018859679 -0.029330295
0002d0 b7 a0 e9 bc 1d 15 6d bd 3e 28 15 bd a9 15 4e bd
       -0.028519018 -0.057881463 -0.03641533 -0.050313625
0002e0 23 c5 22 bd e3 76 12 3d 98 1f 42 bc 4d 0f 6e bd
       -0.039738785 0.03575791 -0.011848353 -0.05812006
0002f0 68 fb ce 3c 4d 6e 96 bb 7a 9e b0 3c 96 15 4a bc
       0.025266364 -0.0045907856 0.021559943 -0.012334248
000300 4a d3 a0 3c 14 ec 5a bd 97 69 21 3d 57 87 ed 3b
       0.019632 -0.053447798 0.03940734 0.0072488
000310 8d 37 67 3d 8c da 83 bc 7a 8c b8 3c 89 fd 9a 3c
       0.05644946 -0.016095422 0.022527922 0.018919723
000320 50 2d e7 3c 6f 0f 4b 3c 02 f0 0a 3d a2 e0 34 bd
       0.028219849 0.012393816 0.033920296 -0.04415954
000330 6e 4e ff bc 86 21 59 bd 08 bf 38 3b e7 60 02 3d
       -0.031165328 -0.053010486 0.0028190035 0.031830695
000340 e9 17 29 bd 5a b5 6b bb 07 97 f6 3b 39 43 a6 bc
       -0.041282568 -0.0035966248 0.007525328 -0.020295726
000350 ba c8 87 bc 69 69 16 3c 1c 91 4d bd 80 94 62 3d
       -0.016575206 0.009180405 -0.050187215 0.055317402
000360 1b b4 33 3c e9 6a d5 bc c6 43 fc bc 6e 07 be bc
       0.010968233 -0.026051955 -0.030794036 -0.023196902
000370 fd ea 02 3d b2 2f 69 3d d5 53 88 3c 93 a7 28 bd
       0.031962384 0.05693025 0.016641537 -0.041175436
000380 a0 ff 41 3d e8 43 17 bc 53 3f c9 3c bf 23 02 3d
       0.047362924 -0.009232499 0.024566328 0.03177237
000390 b6 a4 de bc 95 4c 55 bd e3 0b 4b bd 38 09 57 bd
       -0.02717815 -0.052074987 -0.049571883 -0.052499026
0003a0 84 40 ab 3c ec cb 05 3d c1 5c d3 bc e7 b1 4c bd
       0.020904787 0.03266518 -0.025801064 -0.04997435
0003b0 5b 70 b3 3c fa 3d 46 3d f1 5b 39 bc 66 f0 95 3a
       0.021904161 0.04839895 -0.011313424 0.0011439442
0003c0 07 cd 73 bd 82 0a 46 bd 9a c0 28 bb 1e 40 2c bd
       -0.0595217 -0.048349865 -0.0025749565 -0.042053334
0003d0 a9 3c 20 3c 13 6c c9 bc c5 61 92 bb 63 43 02 3d
       0.0097800875 -0.024587667 -0.0044672214 0.031802546
0003e0 b9 76 36 bd 92 d8 3e bd 8b 1c 1d 3d 47 4f 62 bd
       -0.044546816 -0.046593256 0.0383573 -0.055251386
0003f0 28 27 3c bd 73 2d f6 3b 19 1b 9d bc ce d7 ac bb
       -0.04593578 0.007512742 -0.01917796 -0.0052747494

fc0.bias f4 [64]
000000 69 8e c7 3b 4a 33 10 3d 1b 16 89 bd fc 17 0c bd
       0.0060899747 0.035205163 -0.066936694 -0.03420256
000010 60 6d 17 bd 68 80 da bc d0 7f 60 bb b0 d1 42 3d
       -0.036969543 -0.026672557 -0.003425587 0.047563255
000020 e6 a0 50 3d 8f e1 26 bd fd 5e ad 3c 1c 01 c3 3b
       0.050934695 -0.040742453 0.021163458 0.00595106
000030 23 d2 31 3d 75 48 44 bd 8f 3f 2d 3d d6 92 21 bd
       0.043413293 -0.047920663 0.042296942 -0.039446674
000040 eb 60 22 bd ba 53 20 bc 2c 36 18 3d 18 57 4a 3b
       -0.03964321 -0.009785587 0.037161037 0.0030874666
000050 a4 73 6c bd 1c ae 4c bd e6 1d 38 3d 0d fd 5c 3c
       -0.05772747 -0.04997073 0.04495039 0.013488066
000060 4e fa 1d 3c f6 09 7a bd 64 c0 39 3c 84 da bf bc
       0.009642197 -0.061044656 0.011337373 -0.023419626
000070 98 84 02 bd 30 cc 25 bd 77 a0 e0 3b 0f 54 fd bb
       -0.031864733 -0.04047793 0.0068550664 -0.007730968
000080 ef 64 7c bd 33 8c 2b 3d 62 34 19 bd 3c 80 f3 bc
       -0.061619695 0.04188175 -0.03740347 -0.029724233
000090 23 a6 3f 3d 19 58 31 bd ba 3b f6 3c 47 50 0b bd
       0.0467893 -0.043296907 0.030057777 -0.034012105
0000a0 92 1d 79 bd 3d e0 e2 3c 48 39 2a 3c b2 4d 21 bd
       -0.060819216 0.027694816 0.0103896335 -0.039380737
0000b0 50 fc 46 3d 0b f9 f4 3c ac 8a ea bb e1 94 84 bd
       0.048580468 0.02990391 -0.0071576443 -0.06473709
0000c0 9a 31 5c bd 78 17 67 bd ee cd 00 3d 2d 98 7c bd
       -0.05375824 -0.056418866 0.03144639 -0.061668564
0000d0 02 3c 27 3c a0 37 96 bc b1 32 9d bd c5 b5 84 bd
       0.010207178 -0.018337071 -0.07675684 -0.06479982
0000e0 17 cf 55 3c 51 47 d1 bc e6 0c 15 bd 1e c4 1f bd
       0.013049862 -0.025546702 -0.036389254 -0.03900539
0000f0 b1 38 05 3c 70 30 0b bc cb 47 55 3c bb f0 12 3d
       0.008131192 -0.008495435 0.013017605 0.03587411

conv2.weight f4 [10, 1, 4]
000000 34 73 ad be 5f 99 31 3f 1d 68 13 3f 33 47 5d 3e
       -0.33876956 0.6937465 0.5758074 0.21609192
000010 97 1a 88 3e 31 52 d7 be 6d 66 71 3e 3a ea 1d 3f
       0.26582786 -0.42054895 0.23574229 0.61685526
000020 c0 ed a6 be 58 60 d0 bd 8c c8 11 be c0 75 4c be
       -0.32603264 -0.10174626 -0.14236659 -0.19966793
000030 58 cc 6e be c0 e1 aa bd 2a 44 e7 be 32 b9 aa be
       -0.23320138 -0.0834384 -0.45169193 -0.33344418
000040 16 40 83 3d 6d 84 4e 3f a4 29 22 3f 3c b5 57 3e
       0.06408708 0.80670816 0.6334479 0.21065229
000050 80 5d 17 3c 40 a0 b3 be c4 7d 83 be f8 fe 68 be
       0.009238601 -0.350832 -0.2568189 -0.22753513
000060 21 e8 ea be ad 37 cd be 00 bc 45 3e c1 a6 71 be
       -0.45880225 -0.4008154 0.19309998 -0.23598768
000070 0b 36 8c 3d c2 fa fb 3d 1b b8 ad be 95 fe d0 3e
       0.068462454 0.12303688 -0.33929524 0.4081923
000080 fa a6 77 bd 18 09 31 be 42 53 a9 be 04 b0 30 be
       -0.060461976 -0.17288625 -0.33071333 -0.17254645
000090 0f 65 6f be 1e 54 0a 3f 63 8e 9a be 9f 69 ec 3e
       -0.23378395 0.540346 -0.30186757 0.46174332

conv2.bias f4 [10]
000000 55 ce 6b be e7 46 d3 3e d6 c2 b7 be 50 45 39 be
       -0.23027928 0.41265032 -0.35890836 -0.18092847
000010 68 71 84 be f0 db da bd bf 25 c6 3e 6f 4c a6 be
       -0.25867772 -0.10686481 0.38700673 -0.3248019
000020 72 17 04 3f 52 f5 82 3e
       0.51598275 0.2557779

fc1.weight f4 [128, 300]
000000 e1 f2 66 bd b9 59 b6 3b cf 94 c9 3c c7 9c ce bc
       -0.05638397 0.005564895 0.02460709 -0.025221242
000010 80 b2 0b 3d df 6e 3c bc 90 67 f2 bc c7 ae 80 3c
       0.034105778 -0.011501043 -0.029590398 0.01570834
000020 d6 88 bd bc 29 9b 38 bd ec cd 39 bd 1d 46 29 bd
       -0.023136538 -0.045069847 -0.045362398 -0.04132663
000030 7d 89 4a 3c 87 e3 3b bc 87 a1 10 3c 1d 5f ca 3d
       0.012361881 -0.011467821 0.008827574 0.09881423
000040 c8 0e cf bc de ec be bc 32 1d e7 3c 3d 3b 36 bd
       -0.025275603 -0.023306306 0.028212164 -0.044490088
000050 53 29 58 3b f1 37 e8 3c 8a c3 24 3d 8f 84 78 bd
       0.0032983616 0.028346987 0.040225543 -0.060673293
000060 f2 67 ee bc 82 f7 03 3c 5a c1 59 bd 69 d3 d6 bc
       -0.0291023 0.008054616 -0.05316291 -0.026223855
000070 41 a7 ac 3c 90 06 e1 bb 09 6f b8 bc 7a 56 56 3d
       0.021075847 -0.0068672374 -0.022513883 0.052328564
000080 ff b8 aa 3c 71 3b dd 3a cd d9 40 3d 42 b0 2f 3c
       0.020840166 0.0016878677 0.04708271 0.0107231755
000090 3c 9d 21 bc 06 14 96 3c b8 1f 5b 3d 73 ad 8b 3d
       -0.009864148 0.018320095 0.053497046 0.06820192
0000a0 52 e6 77 bc 80 56 be bc 89 3d 0a 3d 56 05 87 bd
       -0.015130596 -0.023234606 0.03375009 -0.065928146
0000b0 e8 5b 7b 3d bf 82 bc bc 06 d7 bd bc 86 3f 86 3d
       0.061366946 -0.023011563 -0.02317382 0.06555085
0000c0 5a 30 69 bc 0c 89 02 bd 53 75 2a 3d 55 01 98 3c
       -0.014232719 -0.03186898 0.041615795 0.018555323
0000d0 ce 3b dc bc 1e 18 95 3d c0 73 3e bc 40 f9 36 bd
       -0.026883986 0.072799906 -0.011624277 -0.044671297
0000e0 c9 98 2a bd 6a b4 b4 3c bd cf 2d 3d d4 e6 72 3b
       -0.041649614 0.022058684 0.042434443 0.0037063854
0000f0 52 29 4b bd 20 8b 65 3d 10 9e af bc 30 f8 b9 3c
       -0.049599953 0.056040883 -0.021437675 0.022701353
000100 e0 a3 a9 bb 90 cc d8 3b 83 fa e0 bc 64 48 17 bc
       -0.005177006 0.0066161826 -0.027463203 -0.009233568
000110 a8 2d d1 bb 72 ac 2e 3d 4c 54 93 3c 2d 18 13 bd
       -0.0063836165 0.042644925 0.017984532 -0.035911728
000120 0c b8 7d bc 3e 0a 66 3d 9c 0e 46 3d b8 fe 02 bd
       -0.015485775 0.05616211 0.048353776 -0.0319812
000130 5c dc a4 bc 00 b7 56 ba 10 9c 0b 3d 80 db 47 3b
       -0.020124607 -0.0008190721 0.03408438 0.0030495822
000140 d8 c7 3c 3c f4 fb 5c bd ec 09 08 3d d8 93 4c 3d
       0.011522256 -0.05395122 0.033212587 0.049945682
000150 c8 94 e3 3c ca 74 14 bd 0e b8 14 bd b0 ea a4 3c
       0.027780905 -0.03624419 -0.03630834 0.020131439
000160 48 e5 bb 3c dd 40 2a bd 12 11 be bc dc a8 3a 3d
       0.022936478 -0.041565765 -0.0232015 0.045571193
000170 c4 93 ad bc a0 81 45 3c 0c 12 a7 3c 7c 58 54 3d
       -0.021188624 0.012054831 0.020394348 0.051842198
000180 f8 d5 8e bb 48 4e 41 bc d1 f4 da bc 00 a8 0e 38
       -0.004359003 -0.011798449 -0.026728066 3.40119e-05
000190 ee 57 db bc 9d 2f 1e bd a8 a1 21 3d 6a d3 ee bc
       -0.026775327 -0.038619626 0.039460808 -0.029153544
0001a0 c4 45 4e 3d 9c e6 c9 3c 3a 35 b5 bc b4 27 e7 bc
       0.050359502 0.024646096 -0.022120107 -0.028217174
0001b0 98 fb 8e bb 1e 19 42 bd 00 d9 4d 39 78 2b 76 3c
       -0.0043634884 -0.047387235 0.00019631162 0.015025012
0001c0 20 48 7b bb 30 ae 6f 3c 02 b2 66 bd 20 71 a7 3c
       -0.003834255 0.014628932 -0.056322105 0.020439684
0001d0 ce 1e 10 bd 00 ed 82 ba 40 f5 4c ba ec 91 97 3c
       -0.035185628 -0.0009988844 -0.00078185275 0.018502198
0001e0 1c b5 2d 3d 3b 42 4a 3c 2a fc 64 3d 7a 99 bc bb
       0.042409047 0.012344892 0.055904545 -0.0057556005
0001f0 1b bc 3c bd 7d 97 3f 3d 62 a0 8c bb e0 f4 2a bd
       -0.04607783 0.04677533 -0.00429158 -0.041737437
000200 46 51 83 bc e7 ed 20 bd 64 e2 36 3d 11 6d 5b 3c
       -0.016029965 -0.03928938 0.044649497 0.013392703
000210 f1 be 40 bc d2 fb 91 bc dd a9 63 3c 0e 38 d2 3d
       -0.011764274 -0.017820273 0.013895479 0.10264598
000220 cd 40 54 bd 5b 4e 8b 3c 12 45 31 bd 92 02 34 bd
       -0.05181961 0.017005136 -0.04327876 -0.043947764
000230 61 83 19 3c f2 8f 38 3c 0c 47 78 3d 9a 74 b7 3c
       0.009369702 0.011264788 0.06061463 0.022394467
000240 7d 3a a8 bb 7b 9c 0c bd 1c 23 c7 3c af 9c 01 3d
       -0.0051339255 -0.03432892 0.024308734 0.031643566
000250 e7 01 b6 3c 6a a0 5a 3d c0 96 02 3c 62 97 38 bd
       0.022217704 0.05337564 0.007970512 -0.045066245
000260 b0 58 2e 3c 0a a7 57 bd c0 cb cb 3b 20 22 0a bc
       0.010641262 -0.052649535 0.0062193573 -0.008430988
000270 40 f6 fd 3c 2e 5b 08 3d d4 8b 37 bc 9c cf d9 3c
       0.03100121 0.03329008 -0.011202771 0.026588254
000280 8c 15 d2 3c d0 60 66 3d a0 d8 e8 3a 48 6a ff 3c
       0.02564504 0.05624467 0.0017764755 0.031178609
000290 96 92 20 3d 48 62 3e 3d d8 97 39 3d 9a de 25 3d
       0.039202295 0.046480447 0.045310825 0.040495493
0002a0 ca cd 06 bd 7e 2f de bc 90 40 22 bc cb 00 54 bd
       -0.0329111 -0.027122255 -0.009903088 -0.05175857
0002b0 d8 8c a9 bc fc 7d 00 bd 06 ef 17 3d e0 65 0e 3b
       -0.020697042 -0.031370148 0.037093185 0.0021728203
0002c0 3d 75 36 bd 5c e1 45 bd 61 4d 18 bd 85 f0 01 bd
       -0.0445454 -0.048310623 -0.03718317 -0.031723518
0002d0 bd 2b 1f 3d a6 dc 1a bc 09 86 4f bd 38 ec d9 bc
       0.03886007 -0.009452021 -0.050664935 -0.026601896
0002e0 20 0c 77 3d 94 7a 78 3d ac dc 12 3d d9 c2 fb 3c
       0.060314298 0.060663775 0.03585498 0.030732559
0002f0 ce 54 6a 3d d6 3f d7 bc c3 d2 88 bc 9f bf 61 bb
       0.057209782 -0.026275557 -0.016702062 -0.003444649
000300 51 29 f9 bc ef fc a7 3c aa a2 87 bd 2c 7c 8e 3c
       -0.030415209 0.02050635 -0.066228226 0.017393194
000310 ec 0e 48 bd 03 e2 cb 3c bb 26 50 3c fd 80 31 3d
       -0.048842356 0.024888044 0.012704547 0.043335903
000320 fb 65 52 3d e3 83 12 bd f8 54 59 bd 0d 80 df bc
       0.051366787 -0.03577031 -0.05305955 -0.027282739
000330 ca 1b 0a 3c 31 e7 82 3c 19 8e d5 3c de 13 ed bc
       0.008429477 0.015979381 0.026068734 -0.028940137
000340 f2 81 af 3c 9f 54 e5 3c d3 fa e5 3b f9 37 f7 3c
       0.021424267 0.027994452 0.007018426 0.030178057
000350 ef b7 e7 bc 78 78 81 bb 28 0d bc 3b 30 af 30 bd
       -0.028285949 -0.0039511286 0.005738873 -0.04313582
000360 71 9f 29 bc 6d a3 10 bd 40 84 b6 3a 14 06 ab bc
       -0.010352955 -0.035312105 0.0013924912 -0.020876922
000370 64 aa 55 bc a8 e1 60 bd 0f df 60 bd c0 25 e7 bc
       -0.013041113 -0.054902703 -0.054900225 -0.028216243
000380 64 47 71 3d 01 ca 4a bd c0 b6 52 3d e4 f5 8d bc
       0.058905974 -0.049509052 0.051443815 -0.017329164
000390 d6 9f 0f 3d ae b2 2a bd e9 13 33 3d 57 11 8d b9
       0.03506454 -0.04167431 0.04372016 -0.00026906535
0003a0 20 ff 8a 3c f1 9f 1c 3c 33 f6 27 bc e9 3c c3 3c
       0.016967356 0.009559617 -0.01025157 0.023832755
0003b0 a6 ae 16 3c cb 92 1c 3d c4 a7 48 3d a7 da 74 ba
       0.009196913 0.03822593 0.04898812 -0.0009340443
0003c0 40 ef aa bc 62 1c 15 3d 1b 3a 5d 3d 87 55 9e 3b
       -0.020866036 0.03640402 0.05401049 0.004831973
0003d0 40 8b fb 3c 56 33 4f bd b1 a5 3e bd 0c 54 9d bb
       0.030706048 -0.050586067 -0.046544734 -0.004801279
0003e0 ba 7e 1a bd 27 43 8e 3c a9 6e 9f bc b8 2a 2f bd
       -0.037718512 0.017366005 -0.019461947 -0.04276535
0003f0 86 aa 83 3d cc 65 47 bd d1 6a 54 bd 9a 52 01 3d
       0.06429009 -0.048681065 -0.05185968 0.031572916

fc1.bias f4 [128]
000000 1c 29 6f 3c 4b 7c 9a 3c 76 11 92 3d f7 f4 97 3c
       0.014597204 0.018858096 0.07132237 0.018549426
000010 ef fb 5c 3c 64 b9 ec 3c 06 d1 d3 bc f6 3e 0e bd
       0.0134878 0.028896995 -0.025856506 -0.034728013
000020 1c d4 48 3d 74 0b 3e bd 74 5e cd 3b 6c 96 92 3c
       0.04903041 -0.04639764 0.006267363 0.017893992
000030 21 b9 ea 3c 6b 57 4b bc 17 3a 5b bd 31 0f 15 bd
       0.02865273 -0.012410979 -0.053522196 -0.03639144
000040 3c d2 da bc 07 95 15 3c 5e 72 67 3c c0 10 46 bb
       -0.026711576 0.009129769 0.014126388 -0.0030222386
000050 4e 81 fd bc ce b5 0e bc 6f e9 19 3d 52 a3 9a bc
       -0.030945446 -0.008710338 0.037576135 -0.018876705
000060 5f 5c ab 3c bb e7 b8 3b ad fd 1e 3d c3 0c ee bc
       0.02091807 0.005642859 0.038816143 -0.02905882
000070 d9 8e 29 3c 37 72 3c bb 0a fc 54 3d f8 ae 66 bc
       0.010348999 -0.00287546 0.051998176 -0.014079802
000080 6c 9b 46 3d f6 f7 4d bd 50 ef af 3c 6a 16 83 3c
       0.048488066 -0.050285302 0.021476418 0.016001899
000090 d6 6f 14 3d 2f b4 8a bb f2 df e0 bb f8 b0 44 bc
       0.036239468 -0.0042329053 -0.006862634 -0.012005083
0000a0 95 aa 3d 3d cd 1d e7 bb 3d 45 d0 3c 33 41 f7 3c
       0.046305258 -0.007053113 0.02542364 0.030182457
0000b0 c3 1e 9d 3c 5d 1c 4d bd e3 76 47 bd c0 b6 0a ba
       0.019179707 -0.050075877 -0.048697364 -0.0005291514
0000c0 b1 eb e9 3c d0 ab 38 bd 6e db 10 bc b4 e5 83 3d
       0.02855477 -0.04508573 -0.008841379 0.06440297
0000d0 7c 48 58 3d c9 51 04 bd d6 0f f3 3c e3 e0 00 3d
       0.0528035 -0.03230456 0.029670637 0.03146447
0000e0 b9 5b 49 bd 38 45 d9 bc fa 84 83 3d 90 ca 8c bc
       -0.04915974 -0.026522264 0.06421848 -0.017186433
0000f0 c0 94 ed 3c 1e 11 bf bc e9 af d2 bb b8 fd 9c bc
       0.029001594 -0.023323592 -0.0064296615 -0.019163951
000100 e0 d7 7b bc fc 79 af 3c 56 42 82 bc 17 43 84 3d
       -0.015371293 0.021420471 -0.015900772 0.06458109
000110 22 32 31 bd 63 3a c5 3b 78 cf 46 bd 0f 64 63 bd
       -0.0432607 0.006018923 -0.0485377 -0.055515345
000120 2c 54 d4 3c ff 3b 3c bd e9 fb 0a 3d eb fa 5b 3d
       0.025919043 -0.045955654 0.033931646 0.05370609
000130 9e 6f 29 bd 97 0f 3e 3c 87 ef 4b 3d 91 b5 00 bd
       -0.041366212 0.011600397 0.049788978 -0.031423155
000140 8a 86 17 3d 8e c4 70 bd 8c 2d ba bc 38 ab 42 bd
       0.03699354 -0.0587812 -0.022726797 -0.04752657
000150 8c 99 cf 3b 44 91 44 3b 8d 01 22 bc 9f 3e 14 3c
       0.006335443 0.0029993812 -0.009888065 0.009048133
000160 f8 1a 07 bd 8d 21 3a 3d 2b 14 99 3c 7a 52 90 bb
       -0.032984704 0.045442153 0.018686375 -0.004404363
000170 d1 8d 24 bb 39 3d 1e 3c e0 b3 ef bc 16 a2 1a 3d
       -0.0025108943 0.009658151 -0.029260576 0.037752233
000180 0e 14 dd 3c a6 66 86 bc 71 03 73 bd e1 6e e5 3c
       0.026987102 -0.016406368 -0.059329454 0.028006973
000190 66 95 90 bb 0b 5e 06 bd b2 f4 0d 3c f6 58 be bc
       -0.004412341 -0.03280453 0.008664297 -0.02323578
0001a0 a3 8e 3f 3d 8f c8 33 3d f3 06 e5 ba 78 40 9b 3d
       0.04676689 0.04389244 -0.0017473385 0.07580656
0001b0 c4 df f9 bc 6c a6 70 bc 98 88 7d 3d cc a5 88 3d
       -0.030502208 -0.014688116 0.061897844 0.06672248
0001c0 9e a9 a5 3c 7a f0 fd bc 48 7e 1b bd b3 76 0e bd
       0.020222481 -0.030998457 -0.037962228 -0.03478117
0001d0 9f e4 dd 3c 15 a7 38 3d da 70 dd 3c e9 d3 79 3c
       0.027086554 0.045081217 0.02703135 0.015248277
0001e0 79 ea 3f 39 ad c8 c8 bb 92 35 09 3d 51 d6 18 3d
       0.00018302527 -0.006127438 0.033498354 0.037313763
0001f0 c1 21 bc 3c c3 af 64 3c f7 68 64 bd 3c 6e 27 3d
       0.022965314 0.0139579205 -0.055764165 0.040876612

fc2.weight f4 [64, 128]
000000 d0 b5 c4 bb 1d c0 f5 3c 5d fc 8a 3c 92 e6 9f bd
       -0.006003119 0.029998833 0.01696604 -0.0780765
000010 d2 17 0b bd 2d 4e e6 3c bb 73 88 3d bc de b7 3d
       -0.033958264 0.028113449 0.06662699 0.0897803
000020 fa 9c 2e bd 44 ce 72 bd 05 fe 75 bd dc 10 8e bc
       -0.042630173 -0.05927874 -0.060056705 -0.017342024
000030 b3 65 86 3d fc de 45 3d 9f 9c 88 3c 51 ff 9f bd
       0.06562366 0.048308358 0.016676245 -0.078123696
000040 ce 1c 70 3d ae 6a c9 3c 84 b6 c2 bc c8 a4 08 bd
       0.05862122 0.024587002 -0.02376867 -0.033360273
000050 be b5 39 3c 6f 29 a8 3d 3f 0f ca 3c ec da 95 bd
       0.011334835 0.08211028 0.024665473 -0.07317147
000060 b0 58 9c 3d e7 3a 99 bd 8b 75 88 3d 38 e3 66 3c
       0.07634103 -0.07481938 0.066630445 0.014092259
000070 e6 6f 4b bc 35 e3 c4 bd e6 15 a1 3b 81 d9 aa bd
       -0.012416815 -0.09613649 0.0049159406 -0.08342267
000080 9a 2e 1a 3d fc 96 24 3d 20 f3 ad bd a3 e3 7d bd
       0.0376421 0.040183052 -0.08493638 -0.06198467
000090 4a 35 04 bd e5 dc 63 3d 2c 0d 10 3d 2e 98 99 bd
       -0.032277383 0.055630583 0.03516881 -0.07499729
0000a0 6c 95 51 bd 86 c6 01 3c 76 c6 cd bc b7 1a 08 3d
       -0.05116789 0.007920867 -0.025119048 0.033228602
0000b0 89 c8 b1 bd c0 0c 3f bc 02 87 9e 3d b8 61 66 bd
       -0.08680827 -0.011660755 0.077405944 -0.056245536
0000c0 ce 26 81 bb 75 04 36 3d 08 f5 51 bd 49 8f 67 3d
       -0.0039413935 0.044437844 -0.05125907 0.05653313
0000d0 d3 77 17 bc e6 70 6e bd 71 83 df bc cc 2e 90 bd
       -0.009244877 -0.058213137 -0.027284356 -0.07040176
0000e0 07 d6 9c 3d 6e 1d 91 bd 47 67 ad 3d 60 eb 24 3b
       0.0765801 -0.070856914 0.08466964 0.0025164708
0000f0 45 33 06 bd 5e 9a 89 bd dd 1b 24 bd e7 07 84 3d
       -0.03276374 -0.06718896 -0.040065635 0.0644682
000100 d0 b2 b6 3d d4 36 93 bc 66 2a 31 3d 0e c3 2d bd
       0.089208245 -0.01797048 0.043253325 -0.042422347
000110 85 f5 6e bd b1 47 09 3d 2a a1 9f 3d d8 91 91 3d
       -0.058339614 0.033515636 0.077944115 0.071078956
000120 03 4f 4b 3d 94 3e 21 3d 33 c7 0e 3d 1a 81 68 bd
       0.0496359 0.03936632 0.03485794 -0.056763746
000130 a8 e2 93 3c 7a 6f ac 3d b2 c4 04 bc f3 1d 9e 3d
       0.018052414 0.084197 -0.008103536 0.07720556
000140 41 86 7b bd f5 df 76 bb 0c 82 7d bd 12 f9 66 bd
       -0.06140733 -0.003767011 -0.0618916 -0.056389876
000150 f7 cc 46 3c 46 f4 85 3d 15 fe b8 3b 64 0f 82 3d
       0.012133828 0.06540732 0.0056455233 0.06350592
000160 00 e8 62 b8 eb a2 a6 bd a5 3b d6 3b b5 01 14 bd
       -5.4098666e-05 -0.08136543 0.006537872 -0.03613444
000170 38 51 2c 3d 40 64 5a 3d 03 5e 0e 3d 23 46 91 bd
       0.042069644 0.053318262 0.034757625 -0.07093456
000180 66 d1 87 bd f8 22 29 bd e2 a7 78 3c 71 89 5d 3d
       -0.066317365 -0.041293114 0.015176745 0.054086152
000190 8c c4 99 3d e4 69 5e bd 17 5b e3 bc b6 f7 01 bd
       0.075081915 -0.054300204 -0.027753396 -0.031730376
0001a0 7a 71 1c 3d e7 e1 1a bd 8f 59 07 bd 35 e1 77 3d
       0.038194157 -0.037813094 -0.033044394 0.06051751
0001b0 44 fc eb bc 6a 65 ff bc 89 29 d2 3c 84 2d 66 3d
       -0.028806813 -0.031176288 0.025654571 0.05619575
0001c0 82 f1 b9 3c 98 3a 82 bd 45 48 47 3a aa 1e 1d bd
       0.022698168 -0.06358832 0.00076020166 -0.03835932
0001d0 c6 af 53 ba 97 fe 82 3d 56 45 d9 bc 5c 51 88 bd
       -0.00080752035 0.063962154 -0.02652232 -0.06656143
0001e0 29 a8 08 bd 5f b9 7a 3b 98 28 aa bd 23 1c 13 bc
       -0.033363495 0.0038257462 -0.08308524 -0.008978876
0001f0 60 c2 77 bd e8 9a 63 bd 14 54 10 3d 94 3d 78 3d
       -0.060488105 -0.055567652 0.035236433 0.0606056
000200 58 82 2e bc a2 95 38 3d 6b 44 b0 3d c0 a7 a2 ba
       -0.010651194 0.045064576 0.086068 -0.0012409613
000210 c2 65 7e bd 70 45 e6 bb 8b 40 33 bd 80 a1 99 3c
       -0.062108763 -0.0070273206 -0.043762725 0.018753767
000220 b0 69 07 3d 86 d3 3c 3d f0 a6 7c 3c 58 c4 70 3c
       0.033059776 0.046100162 0.01542066 0.0146952495
000230 48 f3 ec 3c f0 42 49 3c 8c 0b 8c 3c 32 a2 43 3d
       0.0289246 0.012284026 0.01709535 0.047762103
000240 00 5b 93 bb 98 17 b0 bd b8 d2 96 bc 08 bf b1 3c
       -0.004496932 -0.0859825 -0.018411025 0.021697536
000250 a8 7b 3a 3c 39 29 28 bd ea c4 2b bd 68 98 08 bc
       0.011382021 -0.041054938 -0.04193584 -0.008337118
000260 99 ef ac 3d 1e 6f 82 bd 16 9f 53 3d e5 e3 96 bd
       0.08444137 -0.0636885 0.051665388 -0.07367686
000270 60 cf d5 bb 25 74 2e bd 80 15 51 3b 85 eb aa 3d
       -0.006524965 -0.042591233 0.0031903684 0.08345703
000280 dd 90 75 bd 48 47 bd 3c 58 44 05 bc 5e 7a 8f bd
       -0.059952606 0.023105279 -0.00813397 -0.070057616
000290 78 b3 a7 bd c6 9a a0 bd 1c ae 91 bd 60 4f f5 bb
       -0.08188528 -0.07842021 -0.07113287 -0.007486269
0002a0 20 5a ad 3b 32 84 40 3d e6 d6 2f 3d cc f4 d1 bc
       0.0052902848 0.04700107 0.042929552 -0.025629424
0002b0 fb e8 8c bd d8 61 16 bc 5a c3 59 3d 96 c2 67 3d
       -0.06880375 -0.009178601 0.053164817 0.056582056
0002c0 d9 31 40 bd ce c6 5d 3d 86 fd 56 bd 44 d0 c2 3c
       -0.04692254 0.054144673 -0.052487873 0.02378095
0002d0 b8 0f 20 bc 00 b6 46 ba a8 cc f6 bc 9f 60 8d 3d
       -0.009769373 -0.00075802207 -0.030126885 0.06903195
0002e0 49 c8 82 bd 1c 6b 14 3d d2 ac a4 bd 5a 22 66 3d
       -0.063858576 0.03623496 -0.08040775 0.056185104
0002f0 13 0b ad 3d 54 31 b8 3c b0 aa c3 bc 7c 67 a3 bd
       0.08449378 0.022484459 -0.023885101 -0.079787225
000300 a9 e1 b3 bd a4 03 e9 3c 13 34 a5 3d 12 9f e9 bc
       -0.08783276 0.028444119 0.08066573 -0.028518233
000310 f1 38 46 bd 2d 8e a8 bd 4a 3f 21 3d 95 97 4d bd
       -0.048394147 -0.08230243 0.039366998 -0.050193388
000320 68 a1 5b bd 00 13 bf b9 f5 3a 3b bd cf a4 88 bd
       -0.053620726 -0.00036444515 -0.045710523 -0.0667206
000330 ac 19 c8 3c 04 92 f5 3c 0c 03 87 3c 48 61 bb bc
       0.024426304 0.029976852 0.016480945 -0.022873536
000340 d5 9d 98 bd fd 90 a7 3d bc f2 aa bd 30 e3 55 bd
       -0.07451979 0.08181951 -0.08347079 -0.052218616
000350 e0 05 93 3b a6 0d 32 3d 00 ba 6e bd c0 62 fe bb
       0.0044867843 0.043470047 -0.058282852 -0.0077632368
000360 d6 03 43 bd 10 f0 90 bd 35 60 8a 3d 0e 66 a0 bd
       -0.04761108 -0.07077038 0.06756631 -0.078319654
000370 60 1d 2a bc 19 47 ab 3d 9e cd 5d 3d 18 68 91 bd
       -0.01038298 0.0836317 0.05415117 -0.070999324
000380 d7 fa 9f 3d 8e 90 59 3d 40 cf 78 bd 37 08 91 bd
       0.07811516 0.053116374 -0.060744524 -0.07081645
000390 d9 f6 85 3d e0 e7 fc 3b 5c 1b 89 3c 3b e7 b4 bd
       0.06541223 0.0077180713 0.016736679 -0.08833166
0003a0 08 c0 10 bc 0e 40 9e bd 0f 57 85 bd c6 d9 2c 3d
       -0.008834846 -0.07727061 -0.06510746 0.042199872
0003b0 39 e4 8b bd c6 55 56 3d 78 0f 48 bc ca b2 74 bd
       -0.068306394 0.052327894 -0.012210719 -0.05974082
0003c0 32 38 b1 bd 92 ff 49 bd 70 e4 37 bc 60 fd f1 bb
       -0.086532965 -0.049315996 -0.011223897 -0.007384941
0003d0 a8 b3 a4 bc 81 a3 3a bd a4 e2 9c 3c 92 27 8f bd
       -0.020105198 -0.045566086 0.01915104 -0.06989969
0003e0 90 4c 10 bd 82 22 3b 3d 09 06 56 bd 8c 2b ce 3c
       -0.035229266 0.045687206 -0.05225185 0.02516725
0003f0 98 55 a2 bd 89 d4 b2 3d 40 bd 0b 3b da 4a 84 bd
       -0.07926482 0.08731944 0.0021322519 -0.06459589

fc2.bias f4 [64]
000000 a2 20 1c bc 21 e8 1a bd 67 7b 23 bd fb 3e fa 3c
       -0.009529265 -0.03781903 -0.039912608 0.03054761
000010 58 2a 18 3e 0c 9b a7 3d 34 56 bc b8 21 b1 b9 3c
       0.14859903 0.0818387 -8.980595e-05 0.02266747
000020 53 e4 60 bd 16 c6 2c bd 7e d7 8a 3d e9 69 26 3d
       -0.054905247 -0.042181097 0.06779383 0.040628348
000030 85 3d 4d 3d 1a 8a e6 bb d4 3e 72 bc 6d c8 8e bd
       0.050107498 -0.007035506 -0.014785487 -0.06971822
000040 ad 6f 60 3c bd 31 88 3d 3f 87 1c bd f3 a4 b7 bc
       0.013698501 0.06650112 -0.03821492 -0.022417521
000050 4d 2b 8c 3c ae df 4b 3d 54 08 72 3d 9e c3 01 bd
       0.017110491 0.049773864 0.059089974 -0.031680696
000060 07 95 91 3c 48 71 0e 3d e2 0d aa bd 19 e4 fb bc
       0.017771257 0.034776002 -0.08303429 -0.030748414
000070 22 c3 9b bd b2 e3 bd bd 7a b7 71 3d 5e d6 46 bd
       -0.07605578 -0.09271945 0.059012868 -0.04854428
000080 9d b3 2e 3d ee 7e 3c bd e2 91 8f bd 73 91 8c bc
       0.04265176 -0.046019487 -0.07010247 -0.0171592
000090 14 62 69 bd 22 1f a1 bd 04 0a a0 bd bd 83 8c bd
       -0.0569783 -0.07867266 -0.0781441 -0.068610646
0000a0 c7 f4 05 3e f5 ac cc 3d d6 ac 0a 3d bc 91 ee bc
       0.13081656 0.099939264 0.033856235 -0.029122226
0000b0 42 97 4c bd 30 7d f7 3c 93 fa 9b bd 77 30 84 bc
       -0.04994894 0.030211061 -0.076161526 -0.016136391
0000c0 50 b1 f3 3b 88 fd 24 3e 22 18 19 3d 91 7d 96 3d
       0.007436909 0.1611234 0.03737653 0.07348169
0000d0 f8 7f c3 3d 8b 25 22 3e cf c7 ab bd 42 d7 dd bc
       0.095458925 0.15834634 -0.0838772 -0.027080182
0000e0 16 0a 1f 3d fa c0 89 bd dc bb 0b bd dd 40 16 bd
       0.038827978 -0.067262605 -0.034114704 -0.036682952
0000f0 fc dc e8 bb fc 13 75 3c 78 79 4f 3d 06 45 1e 3e
       -0.0071064215 0.014958378 0.05065295 0.15456018

fc3.weight f4 [5, 64]
000000 50 b5 cb 3c f4 67 fb bd ab ca c9 3d 92 e4 21 3d
       0.02486673 -0.12275687 0.09853109 0.039524622
000010 f7 8d b0 bd d8 f8 94 bc ee 08 e4 3c 22 e7 f3 3c
       -0.08620828 -0.018185064 0.02783629 0.029773299
000020 16 e5 a2 bd 09 ba cf 3c 15 0e e3 3c 4e 8d 6d 3c
       -0.07953851 0.025357263 0.027716676 0.014499022
000030 50 9f e5 bc ee 55 e2 bd c0 95 93 3d 52 9d a6 bd
       -0.028030068 -0.11051546 0.07206297 -0.08135475
000040 f3 25 b3 3d 7a b0 fa bc 80 b0 c9 3c fe 72 c0 3d
       0.087474726 -0.030601729 0.024620295 0.09396933
000050 d9 5c f7 3c 1e 89 de bd 04 1e d1 3c 10 56 e6 3d
       0.03019564 -0.10865997 0.025527008 0.11246884
000060 a0 26 49 bd c1 92 6c 3d 58 36 15 bd 5e 33 ec 3d
       -0.0491091 0.057757143 -0.03642878 0.11533235
000070 1b 1d 8c 3d b9 97 42 bd 18 b5 65 bd 75 a1 d0 3d
       0.06841489 -0.047507975 -0.056080908 0.101870455
000080 3a fb 8f bc aa 23 3d 3d 77 b9 d1 bd 44 22 1c 3c
       -0.017575849 0.04617659 -0.10240453 0.009529654
000090 6f cd e6 3d 35 c6 ca 3d de 76 eb bd 61 f4 fa ba
       0.11269652 0.09901086 -0.114972815 -0.0019146317
0000a0 45 08 f6 bc 9b d1 81 3b aa 36 84 3d db fa 3c bd
       -0.03003324 0.0039617545 0.06455739 -0.046137672
0000b0 c4 47 6d 3d 25 e6 d5 bd 80 a5 0a bd 1d af 37 bc
       0.05792977 -0.10444287 -0.03384924 -0.011211184
0000c0 4f b0 41 3d b5 40 b0 bd 5c e7 86 bc b6 fc ae bd
       0.04728728 -0.08606092 -0.016467743 -0.085442945
0000d0 26 fc 4c 3d 5a 2f 01 be 05 00 31 bd 00 34 f9 3b
       0.050045155 -0.1261572 -0.04321291 0.007605076
0000e0 fe 46 1c 3d 94 95 91 3c 40 fe 94 bc 8e fc 95 3d
       0.03815364 0.01777152 -0.018187642 0.073235616
0000f0 00 5f d5 3d 80 2d c5 3c f1 34 03 bd 5b 3b f5 bd
       0.104185104 0.024069548 -0.03203291 -0.11974212
000100 1f fd 54 3d 08 f8 90 bd 4d 6a a4 3d 9c 90 5a bd
       0.051999208 -0.07078558 0.08028088 -0.053360566
000110 5c bb b2 bd ea 64 75 3c fa 2f 36 bc ab ea b1 bd
       -0.08727142 0.014977673 -0.011119837 -0.086873375
000120 09 2b 6d bd 7e 5b 5c 3d 7d fe b4 3d f6 62 94 3d
       -0.05790237 0.05379819 0.08837602 0.07245438
000130 5a e9 32 bd d1 a7 ba bc 50 25 93 3c d2 49 4b 3c
       -0.043679573 -0.0227851 0.017962128 0.012407737
000140 c3 f6 da bc ac 4a e8 bb 1e 85 9b 3d 16 a9 9f bd
       -0.026728993 -0.0070889797 0.075937495 -0.077959225
000150 12 43 8b 3d 66 33 ac bd 3b ae ae 3c 28 f6 e4 3d
       0.06799902 -0.08408241 0.021323314 0.11179763
000160 9f 9f ee bc d0 62 6b 3d 1e ef 9f 3d f9 7e 60 3b
       -0.029128848 0.05746728 0.0780928 0.003425537
000170 5e b6 60 3d ac d3 06 3d 92 14 4f 3d cd 20 fe bd
       0.05486142 0.03291671 0.050556727 -0.124086
000180 0c 21 53 bd 42 c1 ec bd e9 87 9e 3d ca f9 16 bd
       -0.051545188 -0.115602985 0.077407666 -0.03685931
000190 6a 48 ca 3d 1b 0f 22 3d 9c 05 00 3d 33 54 f6 3d
       0.09877093 0.039565187 0.03125535 0.120277785
0001a0 ae b1 c9 bd 43 da d1 bd 80 f1 f6 3a cf 26 54 bd
       -0.09848343 -0.10246708 0.0018840283 -0.051794823
0001b0 49 eb 85 3d 5a 50 ad bd 34 28 69 bd 8d 56 9d bd
       0.06539018 -0.084625915 -0.056923106 -0.07682524
0001c0 51 07 94 bc cd 2d 04 be ed 56 11 3d 78 77 2f bd
       -0.018069895 -0.12908097 0.03548329 -0.042838544
0001d0 55 fa ed bc 45 6b c2 bd 21 2b 0e bd 0c da 3e bd
       -0.029050032 -0.09493116 -0.0347091 -0.046594664
0001e0 8b 39 5f 3d 57 e8 b1 3d 5c 1b 4b 3d cc e1 96 ba
       0.054498237 0.086868934 0.04958664 -0.0011511385
0001f0 d1 d3 ab 3c 89 79 10 3c 5e 07 28 3d f1 3f d1 bd
       0.020975025 0.008818039 0.04102265 -0.10217274
000200 93 1b 88 bb b6 09 a0 bd 20 3a 56 bb e9 89 5f 3d
       -0.0041536777 -0.07814352 -0.0032688454 0.05457488
000210 0d 9c f4 bd e6 71 60 bd a5 c4 8a 3d 29 f4 bd 3d
       -0.11943827 -0.054796122 0.06775788 0.092750855
000220 e9 de ac bd d7 04 96 bc 7a 34 7f bd 59 fc 8e 3d
       -0.08440954 -0.018312855 -0.062305905 0.06981725
000230 4d fc 51 bd a9 b1 15 bd a1 44 eb 3c 27 f6 a5 bd
       -0.051266003 -0.036546383 0.028719248 -0.081035905
000240 1f 96 be 3d 3e fa c3 3c 49 c6 41 3d 0d b4 94 3d
       0.09305977 0.023923036 0.04730824 0.072609045
000250 b4 12 c0 bd fa ea 22 3d 5b 2b ce bd 08 b2 ef 3d
       -0.09378567 0.039774872 -0.10066863 0.11703879
000260 08 f9 cd 3d cd da b6 bd bc 54 34 bd 58 e7 b3 bb
       0.100572646 -0.08928452 -0.04402612 -0.005490225
000270 d8 40 ea 3d 4e d3 43 3d 9d fd 16 3c 8b 8b f0 3d
       0.11438149 0.047808938 0.00921574 0.11745366
000280 3b 1c 99 3d 42 4b 4d 3d ce 07 97 bd 78 b0 d3 3c
       0.07476088 0.0501206 -0.073745355 0.025840983
000290 91 40 7c bc e5 4d cd bd f2 69 bd 3d b0 33 48 bc
       -0.015396253 -0.10024623 0.09248723 -0.0122193545
0002a0 60 98 7f bd 92 8a a3 bd ac 4e e3 3d 6a cc cc 3c
       -0.062401175 -0.079854146 0.1109899 0.024999816
0002b0 27 af bc 3d 52 2f e3 3c a0 9b 3f bd 70 59 ba bc
       0.09213095 0.027732525 -0.046779275 -0.022747725
0002c0 22 ba 28 3d 91 fa e1 bd c2 2d 71 3d 5e f4 57 3c
       0.041193135 -0.1103412 0.05888153 0.01318082
0002d0 68 99 ce bd ac 53 d9 bc 3f 5b 08 3e 40 f7 39 bc
       -0.10087854 -0.026529156 0.13316058 -0.011350453
0002e0 0e e1 51 3d bc 83 10 bd 6c 0f 00 3d 1d e3 47 bd
       0.05124002 -0.03528188 0.031264707 -0.048800576
0002f0 aa a5 e0 3d 67 88 8b 3c 59 c6 1f bd 9f 5a 4d bd
       0.10969098 0.017032815 -0.03900752 -0.05013525
000300 62 5c f7 3d ec 02 2d bd 3b 4f 82 3d 09 a1 67 be
       0.120781675 -0.042239115 0.06362768 -0.22620024
000310 89 81 89 bc d1 6d c3 bc 91 df cd 3d 88 65 69 3d
       -0.0167854 -0.023856075 0.100524075 0.056981593
000320 1f d6 76 3d 0c e0 e8 3d e6 83 15 3d 62 e0 71 3e
       0.060262796 0.113708586 0.03650274 0.23620752
000330 29 1e fb bd db c0 20 3e c2 3c 8b 3e 41 8a ce 3b
       -0.12261612 0.15698569 0.27194792 0.0063031022
000340 56 88 f9 bc 32 80 80 3e b1 4f 15 be e5 94 97 bd
       -0.030460518 0.25097805 -0.14581181 -0.07401446
000350 04 19 81 bd 9b 9b a1 3e 96 54 83 3d a1 f4 e1 bd
       -0.063035995 0.3156403 0.06412618 -0.110329874
000360 46 9c f1 3d 15 0d e9 3c ba c2 a6 bd 5c 10 cf 3c
       0.11797385 0.02844862 -0.0814261 0.025276355
000370 bb 32 b0 bd 94 94 4b 3e 4b 9a ec ba 64 33 c4 bc
       -0.08603426 0.19880897 -0.0018051354 -0.023950286
000380 e9 2e e0 bd 36 e3 26 3c 7d 15 09 be 47 53 9b 3e
       -0.109464474 0.010186007 -0.13387103 0.30336973
000390 4d eb 38 bd bf d5 ff 3d 14 0c b9 3d 83 ec 3e 3e
       -0.045146275 0.12491941 0.09035507 0.1864491
0003a0 d9 e7 56 bd 4b 92 e5 bd 48 54 02 bd 6c f2 87 bd
       -0.0524672 -0.11209544 -0.031818658 -0.06638035
0003b0 b1 10 25 be 3e 6c 35 be 50 7a fb bc 77 73 03 3f
       -0.16119649 -0.17717072 -0.030697972 0.5134806
0003c0 60 13 3b be fd d0 66 be dd e5 9f bd d7 33 e6 3d
       -0.1826911 -0.2254066 -0.07807515 0.112403564
0003d0 f8 b6 90 3e fa 93 5f bd 8d 51 d4 bd 5e 16 f4 bd
       0.28264594 -0.05458448 -0.10367117 -0.11918329
0003e0 d1 d1 99 be 6b ca d8 3d 70 bd cd bc 88 96 72 3d
       -0.3004289 0.10585483 -0.025114745 0.05922559
0003f0 c9 23 98 bd 82 c1 aa 3d 40 2c 4a 3d 93 57 64 3d
       -0.074287005 0.0833769 0.049358606 0.05574758

fc3.bias f4 [5]
000000 a3 ee 49 be b8 7c 20 be 77 98 85 be 0f fd 50 be
       -0.19719939 -0.15672576 -0.26092884 -0.20409034
000010 0c 22 11 3e
       0.14173144
