model_weights/40epochsConvNet_1_0_1.pth (torch_old, 108695 bytes, 8 tensors)

conv1.weight f4 [10, 5, 4]
-0.090434566 -0.057808638 0.13409577 0.1349316 -0.10651167 -0.18043785 -0.041055698 0.10382775
0.1409197 0.0047731684 0.0919042 0.15213159 -0.06637521 -0.19463171 0.22773956 0.2463884
-0.2633568 -0.074298106 -0.17415802 0.008998027 0.0097381305 0.14079528 -0.020724813 -0.1721885
0.0871345 -0.2550847 -0.20225005 0.025554774 0.10686785 -0.128416 -0.06418373 0.070342526
0.85159135 0.02956426 -0.42351678 0.08162674 0.4939814 0.028021036 -0.010145097 -0.2508207
-0.1475022 0.12836924 -0.04348626 -0.22397819 -0.18046764 0.105464965 -0.19446506 -0.03595404
-0.1555807 -0.08548565 -0.16386333 0.10220004 -0.17116946 0.05887881 0.12627631 -0.034951705
0.05573131 -0.22700965 -0.29314843 -0.23907878 -0.0077808704 -0.053112153 0.10143499 -0.19266288
-0.053890597 -0.04053296 0.0042398637 0.15009369 0.018147016 -0.048646413 0.057813007 -0.03938785
-0.23613384 -0.010194609 0.19376889 -0.19039331 -0.028206883 0.4697755 -0.030752815 -0.608363
-0.13541032 0.14440376 -0.0046072323 0.0024048656 -0.031351395 -0.07222226 0.08681539 -0.022164613
-0.11709 -0.15727586 0.040435866 0.042112004 -0.48113742 -0.16413091 0.23813996 0.20413579
0.59979457 -0.25328586 0.06673433 0.297143 -0.07514966 -0.018703334 -0.2247061 0.092782035
0.048273344 -0.17760925 -0.13077211 0.14695384 -0.03976868 -0.14368463 -0.28280327 0.13193072
0.14907937 -0.7562612 -0.15440959 1.0331547 -0.053454135 0.3169316 -0.48594606 0.54868454
-0.0062296935 0.08231396 0.023839375 0.027986446 0.046703354 0.060746692 0.00073418935 0.15169859
0.04377883 0.24417683 -0.027056906 -0.18517897 0.14256985 -0.18521103 0.043634176 -0.15625885
-0.095765695 -0.042585354 0.22348198 0.18803258 -0.11404669 -0.18695246 -0.008560402 0.042139143
-0.043856733 -0.20668507 0.029045777 -0.065552436 -0.045274824 -0.14263831 0.029710626 -0.08512273
-0.55605984 -0.5583758 0.33648568 0.33583722 0.42854375 0.42528683 -0.09832867 -0.09415169
0.014129037 -0.038694464 -0.13640654 -0.061735548 0.043212272 0.017904116 -0.033418003 -0.07179003
-0.1338368 0.035966787 0.02852037 -0.054746363 -0.28338772 0.14238286 -0.013587018 -0.40963864
-0.22018307 0.6605757 0.21906355 0.26458493 -0.043461584 -0.19747098 0.056235857 0.14914773
-0.17511608 -0.10185106 0.0697293 -0.2014266 -0.1675823 0.09504165 0.07294065 -0.12576677
-0.6495633 -0.22377796 0.5664156 -0.14816703 0.18558878 -0.5082249 0.52569413 -0.36392325
00000000: c235 b9bd c0c8 6cbd 6750 093e 822b 0a3e
00000010: ca22 dabd b3c4 38be 052a 28bd a5a3 d43d
00000020: 414d 103e 3d68 9c3b 4538 bc3d 62c8 1b3e
00000030: baef 87bd 894d 47be 8f34 693e 3e4d 7c3e
00000040: b4d6 86be 9b29 98bd 7b56 32be 766c 133c
00000050: ae8c 1f3c a32c 103e 15c7 a9bc 2f52 30be
00000060: 9373 b23d 769a 82be a31a 4fbe 3f58 d13c
00000070: 88dd da3d 7c7f 03be c272 83bd be0f 903d
00000080: e401 5a3f bf30 f23c 31d7 d8be ec2b a73d
00000090: 21eb fc3e 5f8c e53c 9f37 26bc 926b 80be
000000a0: d10a 17be 3a73 033e a61e 32bd 8a5a 65be
000000b0: 82cc 38be 04fe d73d d921 47be 8b44 13bd
000000c0: 8c50 1fbe 1a13 afbd cacb 27be 414e d13d
000000d0: 0c47 2fbe e82a 713d 944e 013e 8529 0fbd
000000e0: 8446 643d 3875 68be 8d17 96be 11d1 74be
000000f0: acf6 febb 218c 59bd 26bd cf3d 6b49 45be
00000100: 63bc 5cbd e405 26bd 8eee 8a3b 29b2 193e
00000110: 0da9 943c 7641 47bd 55cd 6c3d 2755 21bd
00000120: 12cd 71be 4a07 27bc 5a6b 463e 77f6 42be
00000130: 1f12 e7bc 6a86 f03e 54ed fbbc adbd 1bbf
00000140: 01a9 0abe 94de 133e 44f8 96bb f39a 1d3b
00000150: 526a 00bd 44e9 93bd 44cc b13d 9092 b5bc
00000160: e2cc efbd ec0c 21be 14a0 253d a37d 2c3d
00000170: a557 f6be ef11 28be f6da 733e f908 513e
00000180: 238c 193f afae 81be 02ac 883d 2123 983e
00000190: 11e8 99bd bc37 99bc 5b19 66be 8204 be3d
000001a0: 45ba 453d 33df 35be 20e9 05be 117b 163e
000001b0: 7ce4 22bd 1022 13be 97cb 90be d918 073e
000001c0: 43a8 183e 569a 41bf 8c1d 1ebe 6a3e 843f
000001d0: b9f2 5abd dc44 a23e eccd f8be 9776 0c3f
000001e0: 7522 ccbb 3994 a83d cb4a c33c d543 e53c
000001f0: 044c 3f3d 86d1 783d 9d76 403a e056 1b3e
00000200: 6e51 333d 7e09 7a3e 72a6 ddbc 8e9f 3dbe
00000210: d5fd 113e f6a7 3dbe c0b9 323d 5202 20be
00000220: ce20 c4bd fb6d 2ebd 76d8 643e 9d8b 403e
00000230: 5091 e9bd 7770 3fbe ee40 0cbc 189a 2c3d
00000240: 1ea3 33bd 40a5 53be 69f1 ed3c 5b40 86bd
00000250: 1872 39bd c70f 12be b363 f33c d354 aebd
00000260: f059 0ebf b7f1 0ebf da47 ac3e dbf2 ab3e
00000270: 166a db3e 32bf d93e 8b60 c9bd 9ad2 c0bd
00000280: 7a7d 673c 167e 1ebd 28ae 0bbe 6ade 7cbd
00000290: 5aff 303d a7ab 923c 51e1 08bd a706 93bd
000002a0: 840c 09be e951 133d 8da3 e93c b93d 60bd
000002b0: 3218 91be d0cc 113e 159c 5ebc 28bc d1be
000002c0: ac77 61be 7d1b 293f 3252 603e ad77 873e
000002d0: c604 32bd d535 4abe 9257 663d 2fba 183e
000002e0: a151 33be 4a97 d0bd 3cce 8e3d c642 4ebe
000002f0: b29a 2bbe 32a5 c23d e861 953d 01c9 00be
00000300: c849 26bf 0d26 65be 9d00 113f 19b9 17be
00000310: fc0a 3e3e 071b 02bf e493 063f 2654 babe

conv1.bias f4 [10]
0.18113498 0.051745325 -0.04199702 -0.064302035 0.23670779 0.024226129 -0.19671424 0.0021477942
0.18209663 0.004230981
00000000: 737b 393e e8f2 533d 1105 2cbd c9b0 83bd
00000010: 8763 723e e075 c63c 756f 49be 02c2 0c3b
00000020: 8a77 3a3e 0ba4 8a3b

fc1.weight f4 [128, 140]
0.073712066 0.039829146 -0.048498686 0.042424195 -0.0016379507 -0.0065318258 0.037815813 -0.06937129
-0.07024063 0.047426194 0.07479295 -0.06351167 -0.009807889 0.063393354 -0.012514374 0.0010659529
0.06760935 0.0058513843 -0.048468027 -0.025471138 0.02357412 0.010359477 -0.042865794 -0.074031234
-0.08210045 -0.02417617 -0.0700305 0.024002971 -0.061460093 0.008252552 0.005074421 -0.08929019
0.05977313 0.051102307 0.022137128 0.043231554 0.0140041495 0.051408526 -0.02845086 0.033461448
0.013776977 0.019130513 -0.01917315 -0.060985375 -0.00061955664 0.080401696 0.021386206 0.040167764
-0.004880525 0.049053136 -0.02519545 0.072527386 -0.04535287 -0.085689105 -0.047022328 -0.039738663
0.027288387 -0.020438759 0.03425625 0.0587705 -0.041207034 0.04203239 -0.05642819 0.04057145
0.0672344 -0.029145947 0.06578781 0.014753159 -0.047181368 0.026350938 -0.018494373 -0.059107263
-0.087125644 0.016354483 -0.015589395 -0.037830714 -0.05781136 0.019722886 -0.03219063 -0.080415554
-0.074842736 0.02272841 -0.054146 -0.07632004 -0.021754734 0.0753734 -0.03676246 -0.0360696
-0.046125956 0.07763821 0.05554368 -0.024735333 -0.054620363 0.064486936 0.034397647 0.049674664
0.0088710915 -0.039260507 0.017514963 -0.009879334 0.055375952 0.04860617 0.07393435 -0.01796324
-0.03564276 0.047845293 -0.06611195 -0.06365118 -0.04382807 0.021504996 0.022769103 0.044134922
-0.07239216 -0.083281316 -0.075335845 0.07383605 -0.0045540775 0.058668528 0.035366595 -0.0029140366
-0.03727684 0.06376198 0.038141333 0.040397607 -0.040940095 -0.01967421 -0.03420794 0.07643994
-0.08505057 0.07434375 -0.00050952024 -0.0521282 0.010644816 0.009584073 0.022240378 -0.061184492
-0.006251324 0.086465016 -0.070218906 -0.049197853 0.061657384 -0.018555012 0.008458284 -0.024658564
0.05235775 -0.06850994 0.07605018 0.038734056 0.010397257 0.031326387 -0.0024429127 0.016405132
0.032608334 0.05805538 -0.013066219 -0.018970467 -0.042951588 0.04670815 -0.05654975 -0.02333184
-0.041902483 0.093882576 0.033067334 0.015788838 -0.033722896 0.03878951 0.029334424 0.09611554
0.0058133355 0.06577663 -0.054347217 -0.051945344 0.036929376 -0.06021283 0.05364607 -0.03882462
-0.010556396 -0.003686853 0.039048437 0.06083565 0.046172768 -0.038566172 0.047587823 0.0016662998
0.042734552 -0.027256293 0.030533588 0.007047182 0.034197398 -0.044724222 0.032179277 -0.048895985
-0.063454665 0.0118463915 -0.06054753 -0.067071185 0.029459262 -0.07236295 -0.007252345 0.042835917
0.010206966 -0.036932718 0.059311137 -0.019577052 -0.034529258 -0.07506122 0.087626 0.023097338
0.048952013 0.011413328 -0.013657628 0.09214832 0.05841139 0.08824497 0.020425582 -0.03160837
0.037444282 0.08386956 0.050363004 0.049881857 -0.006186957 0.043706656 0.10439655 0.09929251
-0.030663157 0.0560229 0.040954243 -0.06649864 -0.0017036089 0.0359897 -0.024863854 -0.10459785
-0.0031747653 0.04853158 0.023523603 -0.0059111333 -0.085977525 0.066061705 -0.06138283 0.050459217
-0.0032204099 -0.00040157925 -0.0074668243 -0.04992854 0.034678187 0.045634158 -0.02797093 0.062439546
0.0010608712 -0.083823696 -0.035887316 0.023250327 0.0153764095 -0.0707348 0.009506331 -0.046799786
00000000: 5af6 963d e323 233d 8fa6 46bd fec4 2d3d
00000010: 81b0 d6ba ed08 d6bb c1e4 1a3d 8912 8ebd
00000020: 52da 8fbd f841 423d 0c2d 993d 6812 82bd
00000030: 45b1 20bc 60d4 813d 1709 4dbc 72b7 8b3a
00000040: c576 8a3d f8bc bf3b 6986 46bd d9a8 d0bc
00000050: 831e c13c ccba 293c 0b94 2fbd b09d 97bd
00000060: 4824 a8bd 1a0d c6bc 276c 8fbd e1a1 c43c
00000070: 94bd 7bbd b635 073c 5447 a63b c6dd b6bd
00000080: abd4 743d a750 513d ec58 b53c 9213 313d
00000090: a971 653c bf91 523d c711 e9bc df0e 093d
000000a0: d4b8 613c 98b7 9c3c 0311 9dbc cdcb 79bd
000000b0: be69 22ba a5a9 a43d 2032 af3c f486 243d
000000c0: d0ec 9fbb f1eb 483d b066 cebc 3d89 943d
000000d0: eec3 39bd c57d afbd 7c9a 40bd 02c5 22bd
000000e0: e58b df3c 2f6f a7bc 4850 0c3d 56b9 703d
000000f0: b5c8 28bd 282a 2c3d 3f21 67bd 402e 263d
00000100: 30b2 893d 7bc3 eebc c2bb 863d 3cb7 713c
00000110: 4041 41bd ecdd d73c 8381 97bc 751a 72bd
00000120: ee6e b2bd d6f9 853c a96a 7fbc 61f4 1abd
00000130: 9bcb 6cbd e491 a13c 52da 03bd e9b0 a4bd
00000140: 2647 99bd ee30 ba3c 32c8 5dbd ae4d 9cbd
00000150: fc36 b2bc 5e5d 9a3d 3c94 16bd b8bd 13bd
00000160: 92ee 3cbd c800 9f3d c581 633d c1a1 cabc
00000170: 9ab9 5fbd ba11 843d 8ce4 0c3d a977 4b3d
00000180: 0e58 113c a0cf 20bd 8a7b 8f3c eedc 21bc
00000190: e5d1 623d 4317 473d e46a 973d a527 93bc
000001a0: 25fe 11bd 6df9 433d b465 87bd 8d5b 82bd
000001b0: 1085 33bd 3f2b b03c 4586 ba3c d2c6 343d
000001c0: 5742 94bd 658f aabd ae49 9abd 5b37 973d
000001d0: 5f3a 95bb 694e 703d 90dc 103d 6cf9 3ebb
000001e0: 9aaf 18bd a495 823d 163a 1c3d f677 253d
000001f0: cdb0 27bd cf2b a1bc a01d 0cbd 8b8c 9c3d
00000200: fe2e aebd 8941 983d 5391 05ba 6184 55bd
00000210: 9867 2e3c 8406 1d3c 7431 b63c 979c 7abd
00000220: e8d7 ccbb 9214 b13d eece 8fbd b083 49bd
00000230: 748c 7c3d ae00 98bc 9d94 0a3c c200 cabc
00000240: 1475 563d f04e 8cbd 32c0 9b3d 9aa7 1e3d
00000250: 4259 2a3c 1950 003d 4619 20bb 0e64 863c
00000260: 5190 053d 7acb 6d3d b213 56bc f467 9bbc
00000270: 01ee 2fbd 0c51 3f3d b6a0 67bd 6a22 bfbc
00000280: f0a1 2bbd 8245 c03d 9d71 073d 9857 813c
00000290: 0521 0abd c0e1 1e3d bf4e f03c 39d8 c43d
000002a0: cb7d be3b e6b5 863d 309b 5ebd a4c4 54bd
000002b0: 4243 173d baa1 76bd fbbb 5b3d 9106 1fbd
000002c0: bcf4 2cbc 219f 71bb 41f1 1f3d cd2e 793d
000002d0: a81f 3d3d 90f7 1dbd 73eb 423d be67 da3a
000002e0: 6d0a 2f3d 9748 dfbc 9321 fa3c 0cec e63b
000002f0: 9212 0c3d bf30 37bd 6bce 033d 2847 48bd
00000300: 85f4 81bd 5e17 423c b000 78bd 9e5c 89bd
00000310: 8d54 f13c 0733 94bd 14a5 edbb b774 2f3d
00000320: 1e3b 273c c346 17bd 3cf0 723d 0e60 a0bc
00000330: 8d6e 0dbd b2b9 99bd 4375 b33d a136 bd3c
00000340: e881 483d f8fe 3a3c 3ec4 5fbc 42b8 bc3d
00000350: c840 6f3d c7b9 b43d 8d53 a73c c777 01bd
00000360: 2d5f 193d cec3 ab3d 7049 4e3d eb50 4c3d
00000370: f5bb cabb c005 333d dccd d53d df59 cb3d
00000380: 4d31 fbbc 4578 653d a3bf 273d 7030 88bd
00000390: a14b dfba f069 133d 48af cbbc 6637 d6bd
000003a0: b90f 50bb 0dc9 463d 92b4 c03c 2eb2 c1bb
000003b0: fc14 b0bd 5c4b 873d 906c 7bbd 53ae 4e3d
000003c0: 830d 53bb 0e8b d2b9 43ac f4bb de81 4cbd
000003d0: b70a 0e3d e2ea 3a3d 4b23 e5bc 9cc0 7f3d
000003e0: ee0c 8b3a c2ab abbd 94fe 12bd 7877 be3c
000003f0: 56ed 7b3c 68dd 90bd 71c0 1b3c 22b1 3fbd

fc1.bias f4 [128]
0.013953396 -0.034338277 0.027850345 0.019038076 0.03538838 -0.032504622 -0.07756888 0.019993668
0.06475045 0.06330716 0.039979506 0.019475797 0.0051671187 0.010640287 -0.007477916 0.047776997
0.05521469 0.08625181 0.008225577 0.03317605 0.030762458 -0.10539898 -0.08802388 0.05104994
-0.052535888 -0.042028468 0.017129324 -0.085828826 -0.056630943 -0.0091901515 -0.024844714 -0.08813937
-0.03182983 0.034299433 0.011526358 0.09017016 -0.008624037 -0.008130493 -0.021845039 0.09203638
0.04849605 0.06375202 0.004949785 0.040802862 0.061488852 0.093174584 -0.13451384 -0.015392386
0.08724392 -0.004983255 -0.031814136 0.087432876 0.022789529 0.0068029235 0.066131786 -0.049239863
0.0534568 0.008614327 0.06606678 -0.008495485 0.018615011 0.13015606 -0.07415939 -0.03466361
0.047537457 0.108082704 0.020948898 -0.04958779 -0.083495945 -0.027118437 -0.078642614 -0.03663488
-0.04141847 -0.027242193 -0.050514165 -0.029275468 0.02925318 0.002925101 0.059938483 -0.03833743
0.07910246 -0.047741637 -0.004327383 0.031027768 0.0035152535 -0.08689694 0.037556175 0.07620989
-0.0026328783 -0.04681963 -0.049784344 0.020505592 0.10835735 -0.044094447 -0.07995381 0.06821832
-0.052969728 -0.06286058 0.06544354 -0.0170185 0.054601856 0.00046184135 0.0009897029 -0.044711243
0.036349606 -0.009916954 0.026198603 0.055269893 0.06191678 -0.02485819 -0.09226261 -0.067470916
-0.004384369 0.028520552 0.05579034 -0.061238136 0.00408622 -0.034857478 -0.085597634 -0.067902744
0.053237237 0.069898784 0.10267897 -0.033065513 -0.054391887 0.045434482 0.03572203 -0.041997142
00000000: c99c 643c 4ba6 0cbd 6826 e43c bdf5 9b3c
00000010: 68f3 103d 9123 05bd 6fdc 9ebd c3c9 a33c
00000020: e29b 843d 2fa7 813d 8dc1 233d b58b 9f3c
00000030: ef50 a93b 9954 2e3c 4e09 f5bb d0b1 433d
00000040: cc28 623d caa4 b03d 92c4 063c 9ce3 073d
00000050: 8d01 fc3c 6cdb d7bd dd45 b4bd be19 513d
00000060: df2f 57bd 0b26 2cbd cc52 8c3c 06c7 afbd
00000070: d9f5 67bd 4a92 16bc 2487 cbbc 6a82 b4bd
00000080: ff5f 02bd 907d 0c3d 0dd9 3c3c 22ab b83d
00000090: d54b 0dbc c235 05bc 5ef4 b2bc 927d bc3d
000000a0: cba3 463d 6b90 823d ce31 a23b e720 273d
000000b0: bcdb 7b3d 51d2 be3d ffbd 09be 5930 7cbc
000000c0: f1ac b23d 934a a3bb 8a4f 02bd 0210 b33d
000000d0: 1bb1 ba3c 0feb de3b 1a70 873d bdaf 49bd
000000e0: 84f5 5a3d 1b23 0d3c 054e 873d a630 0bbc
000000f0: 827e 983c a147 053e e1e0 97bd 6efb 0dbd
00000100: a3b6 423d 775a dd3d 069d ab3c 911c 4bbd
00000110: ecff aabd 7c27 debc 610f a1bd 750e 16bd
00000120: 6aa6 29bd 052b dfbc f1e7 4ebd 1bd3 efbc
00000130: 5da4 ef3c 0db3 3f3b 0e82 753d b607 1dbd
00000140: 7800 a23d bc8c 43bd b8cc 8dbb f22d fe3c
00000150: 2b60 663b 06f7 b1bd 81d4 193d ee13 9c3d
00000160: 5e8c 2cbb f1c5 3fbd abea 4bbd 58fb a73c
00000170: 75ea dd3d 619c 34bd d3be a3bd 0cb6 8b3d
00000180: c9f6 58bd 0cbd 80bd 4307 863d 626a 8bbc
00000190: 32a6 5f3d 4c23 f239 ebb8 813a 2323 37bd
000001a0: 53e3 143d b87a 22bc 749e d63c af62 623d
000001b0: 739c 7d3d 67a3 cbbc 2ef4 bcbd 312e 8abd
000001c0: c1aa 8fbb efa3 e93c 6984 643d d7d4 7abd
000001d0: b3e5 853b b7c6 0ebd d04d afbd 9810 8bbd
000001e0: 4a0f 5a3d 1827 8f3d 5a49 d23d b46f 07bd
000001f0: 07ca 5ebd 8219 3a3d 4351 123d 3205 2cbd

fc2.weight f4 [64, 128]
-0.079087846 0.057633527 0.062251203 0.08337819 -0.06963216 0.007265003 0.040769253 0.057654418
-0.05986671 0.0060198517 -0.1070367 -0.01385339 0.104563884 0.068687394 0.016820725 -0.04149784
-0.1132355 0.0005274998 0.09051851 -0.0800065 0.011660712 -0.10226721 0.0760993 0.040340405
0.011938803 -0.15802592 -0.037193608 -0.027375458 0.08531446 -0.056968063 0.044768162 -0.0579551
-0.021116944 -0.103252314 0.0888981 -0.06794241 -0.06506103 -0.09099482 -0.0050150477 -0.048389763
0.0638417 0.035015315 -0.051930506 -0.1281923 -0.02902045 -0.057359178 -0.063199736 0.058492295
0.040450707 0.026621467 0.015029653 0.058623463 0.10206288 0.03771833 -0.028030237 -0.018293483
0.030241868 -0.051530417 0.007120148 -0.0006953247 0.042341862 0.0047743483 -0.09471301 0.047606405
0.03852178 -0.12855202 0.09712357 -0.06366742 -0.07095476 -0.11172873 -0.03565818 0.11668849
0.08949737 -0.021149188 0.08486333 0.00037189797 0.071144275 0.031625886 0.055709217 -0.046607282
-0.04406667 -0.07583819 -0.014923701 -0.09224776 -0.08400304 -0.03796512 0.024470493 0.019673364
0.0057095187 -0.09356936 -0.09087481 0.06415416 -0.09903991 -0.023860976 0.06137597 0.030600155
0.06739428 -0.055022303 -0.0017192131 -0.06857778 -0.026837222 -0.26276216 0.0073573757 -0.023475429
0.0066479407 -0.05193619 -0.002710938 0.04432716 0.06817157 0.011232468 -0.093428195 0.052868575
-0.09955095 -0.023050271 0.030694023 -0.0032865983 0.018910829 -0.043732196 -0.105458334 -0.024320954
-0.071322024 -0.02783346 0.037696153 -0.064090766 -0.037053667 0.07051819 -0.02269564 -0.017128082
0.03660806 0.07731323 0.17156796 -0.023116969 0.012614654 -0.0012780784 0.11140159 0.19920948
-0.068431504 0.08411571 -0.3655901 -0.19185492 0.22571787 0.1515568 -0.043707807 0.017950477
-0.2838092 0.0795995 0.080210626 -0.023800919 0.1692914 -0.27103963 0.032550287 -0.020411097
-0.13553374 -0.36567187 -0.1598172 -0.084966116 0.1095911 0.05894512 0.041232612 -0.13839503
-0.023100806 -0.08192905 0.113724306 -0.100045696 -0.0157458 -0.1252604 0.07674643 -0.12173626
0.032096528 0.03432114 -0.027782407 -0.32153422 0.01072575 -0.2296338 -0.17825066 -0.013505887
0.066445276 -0.19850048 -0.08638318 -0.04357154 0.13607691 0.21063198 -0.025469882 -0.0006041349
-0.06418437 -0.10836063 -0.053748902 -0.07066371 -0.03810948 0.005544443 -0.08652791 -0.038229633
0.15804797 -0.20829974 0.19657996 -0.05457664 -0.092616186 -0.13868335 -0.053173874 0.21243712
0.20419952 0.065832324 0.03654491 -0.04887882 0.12975945 -0.06129113 -0.04574167 -0.059308633
-0.1518337 -0.025886642 -0.26035348 -0.33891684 0.018119685 0.041746877 -0.179735 0.19709542
-0.17754829 -0.0459343 -0.0140954135 0.011761099 -0.22699833 0.03911623 -0.056110363 -0.017978821
0.07217508 0.023425376 0.055236276 -0.03967587 -0.115169846 -0.41579175 0.069245994 -0.06565237
-0.034666914 0.0092944065 -0.12468987 0.17105325 -0.07982956 0.115960814 -0.16906494 -0.08813464
-0.25137034 -0.07103336 0.068959646 -0.17457812 -0.03343383 -0.059082434 -0.14756736 -0.039208155
-0.20555004 -0.16963628 0.23407795 0.014875403 0.015986511 0.07428967 0.2026218 0.07180742
00000000: cff8 a1bd 2211 6c3d 1efb 7e3d 2fc2 aa3d
00000010: 4e9b 8ebd 430f ee3b a9fd 263d 0a27 6c3d
00000020: cc36 75bd 2d42 c53b 0f36 dbbd 54f9 62bc
00000030: 9725 d63d faab 8c3d 9ecb 893c a4f9 29bd
00000040: 04e8 e7bd ea47 0a3a c561 b93d 73da a3bd
00000050: 920c 3f3c 7971 d1bd f3d9 9b3d fb3b 253d
00000060: f89a 433c 8cd1 21be 5358 18bd 7f42 e0bc
00000070: 59b9 ae3d 5857 69bd d25e 373d 5462 6dbd
00000080: 71fd acbc f375 d3bd 3510 b63d 6425 8bbd
00000090: b83e 85bd 7e5b babd 4555 a4bb 5834 46bd
000000a0: 70bf 823d 386c 0f3d 15b5 54bd d844 03be
000000b0: 4bbc edbc 75f1 6abd dd6e 81bd 9e95 6f3d
000000c0: a4af 253d 4315 da3c ef3e 763c 281f 703d
000000d0: 5806 d13d 897e 1a3d ab9f e5bc 37dc 95bc
000000e0: cbbd f73c 8f11 53bd 2150 e93b 7346 36ba
000000f0: a96e 2d3d 2372 9c3b e5f8 c1bd effe 423d
00000100: 04c9 1d3d 24a3 03be b9e8 c63d 1064 82bd
00000110: bb50 91bd 08d2 e4bd 500e 12bd 60fa ee3d
00000120: 664a b73d 1041 adbc d3cc ad3d 4dfb c239
00000130: 17b4 913d 258a 013d 592f 643d 47e7 3ebd
00000140: 417f 34bd 0e51 9bbd 8a82 74bc 65ec bcbd
00000150: c909 acbd 5081 1bbd 5876 c83c 092a a13c
00000160: ea16 bb3b 4ba1 bfbd 931c babd 4263 833d
00000170: 70d5 cabd 1878 c3bc 5e65 7b3d 2dad fa3c
00000180: 0306 8a3d 115f 61bd 3857 e1ba 8272 8cbd
00000190: bcd9 dbbc c388 86be 2416 f13b 8b4f c0bc
000001a0: f8d6 d93b 0bbb 54bd fea9 31bb 6590 353d
000001b0: 899d 8b3d 6308 383c 4857 bfbd b88c 583d
000001c0: 5ee1 cbbd ecd3 bcbc 0872 fb3c f863 57bb
000001d0: e2ea 9a3c 8820 33bd 8afa d7bd bd3c c7bc
000001e0: 4811 92bd ff02 e4bc 4867 1a3d 0542 83bd
000001f0: 96c5 17bd d76b 903d 35ec b9bc 3150 8cbc
00000200: 55f2 153d 6656 9e3d 83af 2f3e cc5f bdbc
00000210: b2ad 4e3c 3285 a7ba 8426 e43d 92fd 4b3e
00000220: d125 8cbd db44 ac3d a02e bbbe 9e75 44be
00000230: 9622 673e b531 1b3e f506 33bd e10c 933c
00000240: 714f 91be 1005 a33d 7845 a43d 25fa c2bc
00000250: ba5a 2d3e b5c5 8abe 7353 053d 2c35 a7bc
00000260: 5bc9 0abe 5839 bbbe 1fa7 23be b702 aebd
00000270: 4c71 e03d 7070 713d 87e3 283d 6db7 0dbe
00000280: e73d bdbc 6bca a7bd 4ae8 e83d c2e4 ccbd
00000290: 56fd 80bc 4344 00be 3b2d 9d3d dc50 f9bd
000002a0: a677 033d 5394 0c3d ee97 e3bc 22a0 a4be
000002b0: 0ebb 2f3c 1f25 6bbe 5787 36be cc47 5dbc
000002c0: 7614 883d b643 4bbe aae9 b0bd 1278 32bd
000002d0: bf57 0b3e e9af 573e 37a6 d0bc cf5e 1eba
000002e0: 1873 83bd 2eec ddbd cf27 5cbd 23b8 90bd
000002f0: b018 1cbd 29ae b53b 8b35 b1bd ad96 1cbd
00000300: 54d7 213e 874c 55be 424c 493e c18b 5fbd
00000310: 8ead bdbd 0203 0ebe d9cc 59bd 1e89 593e
00000320: ae19 513e 19d3 863d 1eb0 153d 2835 48bd
00000330: a9df 043e 680c 7bbd 9e5b 3bbd 9ced 72bd
00000340: 4b7a 1bbe 3910 d4bc 0d4d 85be 8286 adbe
00000350: bc6f 943c c6fe 2a3d 740c 38be 62d3 493e
00000360: 38cf 35be 9b25 3cbd 73f0 66bc a0b1 403c
00000370: 4072 68be 5738 203d fbd3 65bd 5248 93bc
00000380: 87d0 933d 93e6 bf3c 6f3f 623d 2a83 22bd
00000390: 2bde ebbd a8e2 d4be d8d0 8d3d c074 86bd
000003a0: e5fe 0dbd 9147 183c 675d ffbd 9528 2f3e
000003b0: ae7d a3bd dd7c ed3d 5c1f 2dbe ef7f b4bd
000003c0: 9db3 80be f079 91bd b73a 8d3d 9bc4 32be
000003d0: e9f1 08bd 6c00 72bd e61b 17be bb98 20bd
000003e0: b67b 52be 22b5 2dbe 21b2 6f3e f6b7 733c
000003f0: 25f6 823c 2f25 983d 177c 4f3e c50f 933d

fc2.bias f4 [64]
-0.040894166 -0.054870863 -0.04432188 0.1053435 0.0016886602 -0.06740217 -0.09885804 0.13589118
-0.030563619 0.046621766 0.019230848 -0.025289636 0.010624234 -0.088019244 0.10251777 0.077325895
-0.0069638435 0.04607905 -0.054646105 0.2018549 -0.04473892 -0.012338153 -0.044419896 -0.026274946
-0.055444896 -0.07446017 0.0073191896 0.12145387 -0.06328934 -0.072594345 -0.011146681 -0.025604304
-0.016062753 0.09079222 -0.013471385 -0.08805264 0.010397138 -0.1110936 -0.13795549 0.13989557
0.0053873425 0.09143016 -0.0875383 0.098913126 -0.057566367 -0.06937095 0.11754716 -0.08700142
0.123234935 0.060067777 -0.048035778 -0.0858997 -0.048795488 -0.06152645 0.11881087 -0.016806785
0.0062177842 -0.0605199 -0.071625106 0.09553927 0.19006743 0.03991317 -0.055715863 0.13046992
00000000: a480 27bd 45c0 60bd dc8a 35bd 55be d73d
00000010: 0956 dd3a 260a 8abd 1676 cabd 0f27 0b3e
00000020: 8e60 fabc 77f6 3e3d 038a 9d3c 362c cfbc
00000030: 4411 2e3c 6f43 b4bd d6f4 d13d 0a5d 9e3d
00000040: f430 e4bb 63bd 3c3d 98d4 5fbd 0db3 4e3e
00000050: 2840 37bd f725 4abc a3f1 35bd 8e3e d7bc
00000060: 301a 63bd 937e 98bd d0d5 ef3b cebc f83d
00000070: d79d 81bd 58ac 94bd 92a0 36bc 1ec0 d1bc
00000080: 0996 83bc 45f1 b93d 16b7 5cbc f154 b4bd
00000090: c258 2a3c 0b85 e3bd 3444 0dbe c940 0f3e
000000a0: 4e88 b03b bc3f bb3d 4847 b3bd f792 ca3d
000000b0: b6ca 6bbd 5b12 8ebd 91bc f03d cd2d b2bd
000000c0: 9962 fc3d a109 763d 2ac1 44bd 2fec afbd
000000d0: c7dd 47bd 2903 7cbd 1d53 f33d 62ae 89bc
000000e0: 8ebe cb3b b7e3 77bd 2fb0 92bd 18aa c33d
000000f0: 09a1 423e fe7b 233d 5136 64bd e899 053e

fc3.weight f4 [5, 64]
0.00013542673 2.8467963e-05 -2.194504e-05 0.0002352557 7.221633e-05 -2.9746458e-05 -0.076441996 -6.290007e-05
0.00018257022 -2.0422829e-05 -0.06644102 -5.8911657e-05 0.067174084 -0.000117267635 6.40573e-05 8.606825e-05
-0.047279835 6.208956e-05 6.227302e-05 -0.00020251426 2.80582e-05 0.06463369 0.0321223 -0.0332209
-0.013900914 -0.060581997 -0.00011260853 0.0002680858 -0.031151513 -0.09071395 0.0002373918 0.056218557
5.9492555e-05 -4.080073e-05 0.00013201355 0.09150337 0.04862987 9.712941e-05 -0.034002453 1.2798079e-05
-0.00010581374 0.00010891274 -0.107497536 2.011645e-05 3.8090373e-05 0.10087391 0.00010276702 -0.060105324
-8.188139e-05 -6.192841e-05 -5.1291612e-05 0.078516334 -0.00019461391 -3.775352e-05 3.5347166e-05 -8.216875e-06
-0.026556294 -0.034804508 8.293803e-05 -6.8272e-05 -0.00016060106 -6.126437e-05 -0.09881864 -3.311232e-05
0.0002937418 -0.000298451 0.00013163347 8.9786525e-05 -0.00013981774 0.00010138171 0.029821085 8.666742e-05
0.00045454764 -9.356738e-07 0.032196343 -0.00020796453 -0.073105514 0.02348178 -8.1006496e-05 -0.0004002955
0.10036779 -0.00039043892 -0.00010975779 9.549967e-05 7.89017e-05 0.08049346 0.030115698 0.036691144
0.045827266 -0.06998638 -0.00018455443 0.00022402323 0.032718446 0.027689377 -5.5589783e-08 0.07690375
9.858053e-05 -0.00013548757 0.000101727564 -0.00044244755 -0.07485469 0.0003631219 -0.06548237 -0.00014718443
-7.7827346e-05 0.00022940233 0.0186624 0.00036480572 -0.00012019422 -0.080545925 7.854271e-05 0.016095577
5.422792e-05 0.00011448358 0.00012832404 -0.08722175 -6.199577e-05 -3.014573e-06 0.00017917762 7.8516474e-05
0.061606083 -0.062414184 0.00022281619 6.622183e-06 0.00022885556 -0.00020547758 0.118370295 9.702278e-05
0.0006322106 -0.00035085055 -0.00015121652 0.00013914873 -0.00015731978 3.9155775e-06 -0.096469514 -3.020739e-05
9.1848524e-05 0.0001374575 -0.050862364 2.300341e-05 -0.09201621 0.031531457 -6.610164e-05 -0.000237498
0.0478685 3.8993763e-05 -9.064375e-05 -0.00017804034 6.6416396e-05 -0.08035383 -0.042826466 0.08756463
0.004778899 -0.012517787 -0.00043488652 -8.97112e-05 -0.10809029 0.07793603 1.3138726e-05 0.06839256
-4.485735e-05 0.00015256135 0.00081922003 0.05685013 -0.040404372 0.00017828918 -0.022970006 0.000119254524
-2.0791404e-05 0.00016704462 -0.06738345 -5.8315432e-05 7.131735e-05 0.116170414 4.718817e-05 0.0004908394
-3.94318e-05 0.00034390175 0.0004909613 -0.08853845 0.00016172165 9.800811e-05 1.9739985e-06 2.7304219e-05
0.00071072305 0.07288964 0.0007320677 -0.0001432544 2.1521351e-05 0.000115842144 0.09666645 7.2560333e-06
0.46968544 1.4279374 -6.755911e-05 -0.00011388581 -0.0002456488 -0.00011991365 0.0686839 -0.00033193495
-0.000103662176 -7.20795e-05 0.0401 -6.39348e-05 0.09186001 -0.100127734 -6.214419e-05 -0.00024854625
0.07362361 -0.0001521257 -8.2498074e-05 6.799189e-05 0.00011685866 -0.041043065 0.016436491 -0.026152793
-0.013783462 -0.07373114 0.6613598 1.8256342e-05 0.05174148 0.037156776 9.302021e-05 0.0059919325
-0.00011142205 -9.733781e-05 0.60618836 -0.0065542874 0.086496465 9.60009e-06 0.032745056 -0.00010877014
-0.00012030391 7.490655e-05 -0.10616107 -5.1934363e-05 -1.3882014e-05 0.019528579 -4.1657827e-06 0.0951024
-0.00012362804 0.000459334 -8.312832e-05 0.06315499 -4.612282e-05 -9.162474e-05 -0.000102672326 -7.317877e-05
0.11552111 0.018948803 0.3777246 -0.00038050482 5.9632825e-05 -0.00018906634 -0.03143637 -2.1293533e-06
00000000: 5601 0e39 7cce ee37 9d16 b8b7 f9ae 7639
00000010: d972 9738 0888 f9b7 9f8d 9cbd 38e9 83b8
00000020: 5270 3f39 b151 abb7 3b12 88bd e917 77b8
00000030: 9192 893d 95ed f5b8 8056 8638 8a7f b438
00000040: 80a8 41bd 1436 8238 9398 8238 025a 54b9
00000050: 875e eb37 ab5e 843d ac92 033d a312 08bd
00000060: a9c0 63bc d424 78bd 3f28 ecb8 de8d 8c39
00000070: 7531 ffbc 3cc8 b9bd 60ec 7839 6e45 663d
00000080: a587 7938 7321 2bb8 1e6d 0a39 1e66 bb3d
00000090: 1d30 473d f4b1 cb38 2846 0bbd 55b7 5637
000000a0: 52e8 ddb8 1568 e438 ab27 dcbd bfbf a837
000000b0: 3ac3 1f38 fb96 ce3d a084 d738 0031 76bd
000000c0: bdb7 abb8 90df 81b8 f321 57b8 2ccd a03d
000000d0: 4611 4cb9 8959 1eb8 bb41 1438 36db 09b7
000000e0: 968c d9bc 2c8f 0ebd 04ef ad38 402d 8fb8
000000f0: 0567 28b9 0f7b 80b8 6d61 cabd 15e2 0ab8
00000100: 5b01 9a39 6a79 9cb9 1707 0a39 c64b bc38
00000110: 0a9c 12b9 e49c d438 594b f43c 38c1 b538
00000120: 5a50 ee39 042b 7bb5 50e0 033d 0e11 5ab9
00000130: 58b8 95bd dd5c c03c 08e2 a9b8 c1de d1b9
00000140: a18d cd3d d3b3 ccb9 c42d e6b8 ff46 c838
00000150: 0778 a538 c1d9 a43d 32b5 f63c 7449 163d
00000160: 5fb5 3b3d 0555 8fbd f484 41b9 c7e7 6a39
00000170: c703 063d d5d4 e23c 9dc1 6eb3 b77f 9d3d
00000180: 05bd ce38 ab11 0eb9 9256 d538 4ef8 e7b9
00000190: 6a4d 99bd 6561 be39 9f1b 86bd 8555 1ab9
000001a0: 3d37 a3b8 b88b 7039 e4e1 983c 6543 bf39
000001b0: c810 fcb8 43f5 a4bd 4cb7 a438 dfda 833c
000001c0: c972 6338 e716 f038 b98e 0639 51a1 b2bd
000001d0: ba03 82b8 f84d 4ab6 a0e1 3b39 36a9 a438
000001e0: a956 7c3d 04a6 7fbd c4a3 6939 1e34 de36
000001f0: f2f8 6f39 7875 57b9 206c f23d b578 cb38
00000200: efba 253a 5df2 b7b9 e08f 1eb9 74e8 1139
00000210: 35f6 24b9 8e62 8336 cf91 c5bd e065 fdb7
00000220: cd9e c038 7722 1039 0e55 50bd 72f7 c037
00000230: ff72 bcbd 2127 013d 0ca0 8ab8 e208 79b9
00000240: c311 443d 3c8d 2338 fe17 beb8 57b0 3ab9
00000250: 0849 8b38 8c90 a4bd ce6a 2fbd 1655 b33d
00000260: 4f98 9c3b 6717 4dbc 7b01 e4b9 5523 bcb8
00000270: 715e ddbd ed9c 9f3d 666e 5c37 6611 8c3d
00000280: 3625 3cb8 e0f8 1f39 edc0 563a afdb 683d
00000290: 0e7f 25bd 23f3 3a39 982b bcbc 4918 fa38
000002a0: 3369 aeb7 b328 2f39 5600 8abd b897 74b8
000002b0: 3690 9538 c1ea ed3d e9eb 4538 adab 003a
000002c0: 9363 25b8 b64d b439 dbb3 003a a653 b5bd
000002d0: d393 2939 b489 cd38 0979 0436 5d0b e537
000002e0: d14f 3a3a 2a47 953d 3be8 3f3a 8f36 16b9
000002f0: c088 b437 47f0 f238 0ff9 c53d da78 f336
00000300: 9c7a f03e a7c6 b63f 85ae 8db8 fbd5 eeb8
00000310: 6cca 80b9 277a fbb8 25aa 8c3d 8e07 aeb9
00000320: 3565 d9b8 6329 97b8 e63f 243d bc14 86b8
00000330: 1a21 bc3d c50f cdbd 6853 82b8 504f 82b9
00000340: fac7 963d ef83 1fb9 d102 adb8 de96 8e38
00000350: 0412 f538 c61c 28bd d2a5 863c 623e d6bc
00000360: 08d4 61bc 5a00 97bd e04e 293f 3225 9937
00000370: e0ee 533d b431 183d d813 c338 f957 c43b
00000380: 42ab e9b8 d721 ccb8 292f 1b3f 59c5 d6bb
00000390: 0f25 b13d 1310 2137 ae1f 063d 861b e4b8
000003a0: ab4b fcb8 2617 9d38 fa6a d9bd 19d4 59b8
000003b0: cce6 68b7 66fa 9f3c cdc7 8bb6 0cc5 c23d
000003c0: 26a2 01b9 c4d2 f039 2d55 aeb8 6757 813d
000003d0: 0074 41b8 a826 c0b8 c951 d7b8 8e77 99b8
000003e0: 5596 ec3d 853a 9b3c 1e65 c13e 7e7e c7b9
000003f0: 421e 7a38 1c40 46b9 6cc3 00bd 03e6 0eb6

fc3.bias f4 [5]
-0.37633714 -0.37647197 -0.37671867 -0.37657732 -0.0019063164
00000000: 43af c0be efc0 c0be 45e1 c0be bece c0be
00000010: 5ddd f9ba
