model_weights/40epochsConvNet_1_0_0.pth (torch_old, 105482 bytes, 10 tensors)

conv1.weight f4 [10, 5, 4]
0	0x3d05d9f0	0.032678545
1	0x3dc728f4	0.09724608
2	0x3d0810b8	0.03321907
3	0x3ddb2562	0.107004896
4	0x3ce6d51c	0.02817779
5	0xbd91dca9	-0.07122166
6	0x3d472024	0.048614636
7	0x3d8e4233	0.0694622
8	0x3d85c9ca	0.06532629
9	0xbdde075a	-0.10841246
10	0x3bb458c1	0.0055037444
11	0x3c2e40aa	0.010635534
12	0x3f029110	0.510026
13	0xbdc90005	-0.09814457
14	0xbedca2ed	-0.43093053
15	0xbe1cf1bb	-0.15326588
16	0x3ebd6ad8	0.36995578
17	0x3d721e6c	0.059111044
18	0x3e935951	0.2877908
19	0x3eb42d61	0.3519087
20	0xbe1c8fc5	-0.15289219
21	0x3dff4b53	0.12465539
22	0xbc58e034	-0.013237048
23	0x3d0c69c1	0.034280542
24	0xbd88aa52	-0.06673111
25	0xbdaef318	-0.0854246
26	0xbd95fff2	-0.07324208
27	0x3ddfc2c4	0.109258205
28	0x3db86bc6	0.09004931
29	0x3d0980db	0.03357015
30	0xbdec1d94	-0.11529079
31	0x3e0f6af3	0.14005642
32	0x3eaaeeef	0.33385417
33	0xbea43d81	-0.32078174
34	0xbe6d9950	-0.23203015
35	0xbe41f2ca	-0.18940273
36	0x3e92c157	0.28663132
37	0xbe2374bd	-0.15962501
38	0xbf184717	-0.59483474
39	0x3d0521ae	0.032502823
40	0xbe5ec712	-0.21755627
41	0xbd92718f	-0.07150566
42	0xbe62de01	-0.22155
43	0xbd2e22ad	-0.04251354
44	0xbe329715	-0.17440446
45	0xbbce03bb	-0.006287066
46	0xbd86725b	-0.0656478
47	0xbe13a9c3	-0.14420228
48	0x3e38bca0	0.18040705
49	0xbcfac212	-0.030610118
50	0x3cedbc5e	0.029020485
51	0xbd6c0c56	-0.057628952
52	0xbea2296f	-0.31672236
53	0x3ea7b9ae	0.3275885
54	0xbeb20031	-0.3476577
55	0xbf2a176f	-0.66442007
56	0xbde51219	-0.111850925
57	0x3f1e776f	0.6190099
58	0xbf3d2772	-0.73888314
59	0x3cdb8c82	0.026800398
60	0xbe1723e3	-0.14759783
61	0x3d5d2efc	0.053999886
62	0x3e4e63b4	0.20155221
63	0x3d4f7ec7	0.050658014
64	0x3d6111a5	0.054948468
65	0xbe744947	-0.23856078
66	0xbce57408	-0.02800943
67	0x3c3c8520	0.011506349
68	0x3dc4196e	0.09575163
69	0xbe112ed8	-0.14178026
70	0x3dd36c68	0.10323411
71	0x3da1a84a	0.07893427
72	0xbe1fccbf	-0.15605448
73	0xbeed8615	-0.4639136
74	0xbe63a292	-0.22229984
75	0x3f4e40a6	0.80567396
76	0xbebcf780	-0.36907578
77	0xbeaba134	-0.33521426
78	0xbf103706	-0.5633396
79	0x3e8a6654	0.27031195
80	0x3de77a0a	0.11302574
81	0xbd95a24e	-0.07306348
82	0xbe4f6bf3	-0.20256023
83	0xbdf6cda7	-0.12050944
84	0xbd3cd39d	-0.046100248
85	0xbc6a15af	-0.014287396
86	0xbb93c29a	-0.0045092823
87	0x3dc8e8e1	0.09810043
88	0xbae88b73	-0.0017741754
89	0x3d7997d6	0.060935818
90	0xbce81b8e	-0.028333452
91	0xbdcecaf6	-0.100973055
92	0xbdcf55c7	-0.101237826
93	0xbe457aae	-0.1928508
94	0xbdd84fba	-0.10562082
95	0x3ec48724	0.38384354
96	0x3bb7fb24	0.005614655
97	0x3e6df52b	0.23238055
98	0x3c9c6f22	0.019095961
99	0x3ed43331	0.41445306
100	0xbdcb947a	-0.09940429
101	0x3dd4f750	0.103987336
102	0x3e3ab587	0.1823331
103	0xbe4636f0	-0.19356894
104	0x3e0f1bdd	0.13975473
105	0xbd8a67b1	-0.06758059
106	0x3e02266b	0.12709968
107	0x3d9e696e	0.07734953
108	0xbd766700	-0.060156822
109	0x3dc6cbf3	0.09706869
110	0x3e22b0ee	0.15887806
111	0x3e2c6e29	0.16838898
112	0x3e7f5e00	0.24938202
113	0xbdc885ca	-0.09791143
114	0xbe36d6e9	-0.17855419
115	0xbe23d066	-0.15997466
116	0x3e88557f	0.26627728
117	0xbe19ff22	-0.15038732
118	0xbe96e652	-0.29472595
119	0xbe931b0c	-0.28731573
120	0x3d8400b2	0.06445445
121	0xbc5579bb	-0.013029511
122	0x3de7c2a2	0.1131642
123	0x3e0b8c78	0.13627803
124	0xbe2b2899	-0.16714706
125	0xbe0ce687	-0.13759814
126	0x3db55279	0.08853621
127	0xbe54e6f2	-0.20791224
128	0x3a3749bd	0.0006991884
129	0xbd5d5d4f	-0.054044064
130	0x3dba00a0	0.090821505
131	0x3ccff010	0.025383025
132	0x3db6ac1f	0.08919548
133	0xbea49c59	-0.32150534
134	0xbc23383e	-0.00996214
135	0xbda7342f	-0.0816425
136	0xbe3a2be5	-0.18180807
137	0x3e3f3c9c	0.18675464
138	0xbed72325	-0.42019
139	0x3e2ac8dc	0.16678184
140	0x3cb08470	0.021547526
141	0xbdb2f651	-0.087383874
142	0x3e2588b8	0.16165435
143	0x3dbd3191	0.0923797
144	0x36e07df9	6.6903854e-06
145	0xbdcd5faf	-0.10028016
146	0xbdc4ff8f	-0.096190564
147	0x3d512557	0.051061
148	0xbb3bbe71	-0.0028647447
149	0x3d62f340	0.055407763
150	0x3cee062f	0.029055683
151	0x3cffc490	0.031221658
152	0xbdfd8fa2	-0.123809114
153	0x3e34b6c6	0.17647848
154	0x3e2c1266	0.16803893
155	0x3ea9c2e9	0.33156517
156	0xbd85cfce	-0.06533776
157	0x3ed8d0e1	0.42346862
158	0x3ec07017	0.37585518
159	0xbeccf5e7	-0.4003136
160	0x3e31736b	0.17329185
161	0x3e1bede6	0.1522747
162	0x3c0c669c	0.008569386
163	0xbe514542	-0.20436576
164	0x3dddd4d4	0.10831609
165	0x3d42a390	0.047519267
166	0x3e0f8b83	0.14018063
167	0xbdb3c26a	-0.08777316
168	0xbd9caa94	-0.07649723
169	0x3e1d2f10	0.15349984
170	0xbb3a2056	-0.0028400621
171	0xbdf6be76	-0.12048046
172	0xbd94a217	-0.07257479
173	0x3f0f91c2	0.56081784
174	0xbebcf1ea	-0.36903316
175	0xbf23164e	-0.6370591
176	0x3d02e49f	0.03195631
177	0x3f01ca1b	0.50699013
178	0xbcd7db53	-0.0263497
179	0xbea7cee4	-0.32775033
180	0xbe4efbb6	-0.20213208
181	0x3dc00f51	0.093779214
182	0x3de7b0e1	0.11313034
183	0xbd13bfd1	-0.036071602
184	0x3c98bf71	0.018645974
185	0xba906ea7	-0.0011019305
186	0xbd764dec	-0.060132906
187	0xbdd05bde	-0.10173772
188	0xbdb7e138	-0.08978504
189	0xbc31be59	-0.010848605
190	0xbe46df80	-0.19421196
191	0xbd5a20a3	-0.05325378
192	0x3d16c25e	0.036806457
193	0xbe958931	-0.2920623
194	0x3e12f0f6	0.14349732
195	0xbe98b949	-0.2982886
196	0x3aa69881	0.0012710245
197	0xbf1f7be6	-0.6229843
198	0xbea52b5a	-0.32259637
199	0x3efc4261	0.49269393

conv1.bias f4 [10]
0	0xbde48078	-0.11157316
1	0x3e3d9615	0.18514283
2	0x3e28c67f	0.1648197
3	0xbbfa6bd4	-0.0076422486
4	0x3e06cbac	0.13163632
5	0xbe13ed1a	-0.14445916
6	0x3d2c7c30	0.042110622
7	0x3c28b08e	0.010296
8	0xbdd15c92	-0.102227345
9	0x3d6813bd	0.05665945

conv2.weight f4 [10, 10, 4]
0	0x3c2af9f3	0.010435569
1	0x3e592d98	0.21208799
2	0xbe72c0a4	-0.23706299
3	0xbd8a7b0f	-0.06761753
4	0xbd073e4f	-0.033018406
5	0xbccea800	-0.025226593
6	0xbdfd5c1d	-0.12371085
7	0xbe148dbc	-0.14507192
8	0x3d9786a6	0.07398729
9	0xbe463901	-0.19357683
10	0x3ce33401	0.027734758
11	0x3e85633e	0.26052278
12	0x3e1d7f5f	0.1538062
13	0xbd2bd2f8	-0.041949242
14	0x3e001cb3	0.12510948
15	0x3e50dd8d	0.20397015
16	0x3e459c48	0.19297898
17	0xbe895435	-0.26822057
18	0x3e7d44f8	0.2473334
19	0xbe08e46d	-0.13368388
20	0x3cd3d01a	0.025856066
21	0xbdfac1b2	-0.12243976
22	0x3e085699	0.13314284
23	0x3d412baf	0.0471608
24	0xbd6d7477	-0.057972398
25	0x3dd5f6f2	0.10447492
26	0x3e241641	0.16024114
27	0x3e280594	0.16408378
28	0xbe1a0ac7	-0.15043174
29	0x3cfdd0c1	0.03098333
30	0x3e4e9643	0.20174508
31	0x3e0c704d	0.13714714
32	0xbd723b1e	-0.05913841
33	0xbe2f29a9	-0.17105736
34	0xbe3ca14a	-0.18420902
35	0x3e15e466	0.14637908
36	0xbd870521	-0.06592775
37	0x3dcf8c4a	0.1013418
38	0xbe643822	-0.22287038
39	0x3d8e007e	0.069336876
40	0x3df4fde6	0.1196249
41	0xbdc39e1f	-0.095516436
42	0xbda7cd89	-0.081934996
43	0x3e9005f5	0.28129545
44	0xbdded10b	-0.108797155
45	0xbcde6cc0	-0.027151465
46	0xbe12bef9	-0.14330663
47	0xbdddfb7f	-0.10838985
48	0xbde1a39a	-0.11017533
49	0xbdf08368	-0.11743814
50	0xbe63be0a	-0.22240463
51	0xbdea7acc	-0.11449203
52	0x3d485b6b	0.048915308
53	0x3d576247	0.05258396
54	0x3ad22b8f	0.001603471
55	0xbdab7315	-0.083715595
56	0x3da44b8f	0.08022224
57	0x3e3ad767	0.18246232
58	0xbc8535d7	-0.016261024
59	0x3dae78d7	0.08519142
60	0x3d20fba7	0.039302494
61	0xbda33e02	-0.079708114
62	0xbd470d06	-0.048596404
63	0x3db29ad8	0.0872094
64	0xbd6ff7f5	-0.05858608
65	0xbde21b17	-0.11040323
66	0xbada07cc	-0.0016634404
67	0x3db235e6	0.087016866
68	0xbca4d480	-0.02012086
69	0xbd3255bf	-0.043538805
70	0x3d25b616	0.040456854
71	0xbe0c45c8	-0.13698494
72	0x3da121c8	0.078677714
73	0xbd8d5c99	-0.06902427
74	0x3c8cb6db	0.017177036
75	0xbe0ed429	-0.1394812
76	0x3e327c01	0.17430116
77	0x3d4fb140	0.05070615
78	0x3ce3e00f	0.0278168
79	0xbd14b06f	-0.036301073
80	0xbe4118d1	-0.18857123
81	0x3e06064c	0.1308834
82	0x3da4f9fb	0.080554925
83	0xbe8861cc	-0.26637113
84	0x3c9d353d	0.019190425
85	0xbdb8664b	-0.09003886
86	0x3da53f61	0.08068729
87	0x3dfd63a9	0.12372524
88	0xba4c7923	-0.0007800033
89	0x3e98ed3e	0.298685
90	0x3d336752	0.043799706
91	0xbe654449	-0.2238933
92	0xbe443322	-0.1916013
93	0xbe05e148	-0.13074219
94	0x3e60e7d0	0.2196343
95	0x3ea1f5ab	0.31632742
96	0x3c9957f7	0.018718703
97	0x3e1bdd56	0.15221152
98	0x3c956968	0.018238738
99	0xbe399b21	-0.18125583
100	0x3dcc23bc	0.09967753
101	0x3cd04a87	0.025426162
102	0x3e2b69b9	0.16739549
103	0x3cc1bd7d	0.023649925
104	0x3c08df6d	0.00835405
105	0x3cf3c07b	0.029754868
106	0x3df892bb	0.121373616
107	0xbc7e43dd	-0.01551911
108	0x3d71a858	0.058998436
109	0xbdef6bb3	-0.11690464
110	0x3e0dd59c	0.13851017
111	0x3dcb2265	0.099186696
112	0x3ea80d71	0.32822755
113	0x3e908304	0.28224957
114	0xbe50e7f6	-0.20400986
115	0xbe121f60	-0.14269781
116	0xbe26bb96	-0.16282496
117	0xbe87866f	-0.26469752
118	0x3d6aa7a7	0.057288792
119	0x3e8de8c3	0.27716646
120	0x3e0224f3	0.12709408
121	0xbe5db727	-0.21651898
122	0xbd5ca9d3	-0.053872894
123	0x3e8ab41e	0.27090544
124	0x3e32916a	0.17438284
125	0xbe0d3150	-0.13788342
126	0xbe73948b	-0.23787133
127	0x3dc157aa	0.09440549
128	0xbd85b1de	-0.06528066
129	0xbde9b103	-0.114107154
130	0x3e77be2d	0.2419364
131	0x3e5841b7	0.21118818
132	0x3e00305f	0.12518452
133	0x3e205b83	0.15659909
134	0xbd370efc	-0.044692025
135	0x3df0777b	0.11741539
136	0x3e06c5fe	0.13161466
137	0x3e8f8b67	0.28036043
138	0xbd9d9369	-0.07694132
139	0x3df45848	0.11930901
140	0x3e6ea202	0.23303989
141	0xbd51b779	-0.051200364
142	0x3e8657d6	0.26238889
143	0x3d85830c	0.06519136
144	0x3da6e58c	0.08149251
145	0xbdf7bcdf	-0.12096571
146	0x3d2c6897	0.042091932
147	0x3e1e8179	0.15479077
148	0x3d5336d0	0.051565945
149	0x3c954a03	0.018223768
150	0x3dfbbc1d	0.12291739
151	0x3d88d708	0.06681639
152	0xbeb04c34	-0.34433138
153	0xbc8fc736	-0.017551046
154	0x3bf74c4e	0.007546938
155	0x3e51ede7	0.20500909
156	0x3c92021b	0.01782327
157	0x3e6e91f9	0.23297872
158	0xbd399f58	-0.045317978
159	0x3dced553	0.10099282
160	0xbeca6436	-0.3952958
161	0x3d88bc59	0.066765495
162	0x3e855f90	0.2604947
163	0xbd88ff3a	-0.066893056
164	0x3ce4b397	0.027917666
165	0x3ed1f809	0.41009548
166	0xbe0d2e2f	-0.13787149
167	0xbee2eb05	-0.4431993
168	0xbe65213a	-0.22375956
169	0x3f0b263c	0.54355216
170	0x3eed5c2a	0.46359378
171	0xbd0f7bdb	-0.035030227
172	0x3e467aa7	0.19382726
173	0xbef012a8	-0.46889234
174	0xbf0ac1cc	-0.5420196
175	0xbded6939	-0.11592335
176	0xbd3a0ef0	-0.0454244
177	0xbce46ef6	-0.027884942
178	0x3e89c061	0.26904586
179	0x3e624238	0.22095573
180	0xbdf68a1e	-0.120380625
181	0xbd0241d8	-0.031801075
182	0xbd136343	-0.035983335
183	0xbde38d48	-0.11110932
184	0x3e8b7e6a	0.27244884
185	0xbd674e84	-0.056471363
186	0x3d8ad9b1	0.067798026
187	0x3daa6278	0.08319563
188	0x3e278a00	0.16361237
189	0x3d6847bb	0.056709033
190	0xbeb5a7b9	-0.35479525
191	0xbd3d8e71	-0.04627842
192	0xbdc1d4cd	-0.09464417
193	0x3ef6f615	0.4823462
194	0x3e30ee51	0.1727841
195	0xbeb70573	-0.35746345
196	0x3e2dc668	0.16970217
197	0xbe4d1719	-0.20028342
198	0xbe63cf1f	-0.22246979
199	0xbe803091	-0.25037053
200	0x3e97ac8d	0.29623833
201	0x3dd2970c	0.10282716
202	0x3c874517	0.016512437
203	0x3e153e53	0.14574556
204	0x3e671eb4	0.22570306
205	0xbdcda9d7	-0.1004216
206	0x3e6520ce	0.22375795
207	0xbd7ac400	-0.061222076
208	0x3dd17fdc	0.10229465
209	0x3e9fc2ab	0.31203207
210	0x3e724521	0.23659183
211	0x3da5e490	0.081002355
212	0x3d171e66	0.036894225
213	0xbe10f200	-0.14154816
214	0x3ccac467	0.024751855
215	0x3d941690	0.07230866
216	0xbcec5e5c	-0.028853588
217	0xbde473fc	-0.11154935
218	0x3e5014a7	0.20320378
219	0xbd39e50a	-0.045384444
220	0x3e5a137d	0.21296497
221	0xbb902e36	-0.00440004
222	0xbe03ab0b	-0.12858216
223	0xbd60a77c	-0.054847226
224	0xbd820b8d	-0.063498594
225	0x3e064829	0.13113464
226	0xbc9cbefb	-0.019134035
227	0x3dda3faf	0.10656678
228	0x3c05a5c4	0.008157197
229	0xbdd1095a	-0.10206862
230	0x3d8e2e6a	0.069424465
231	0x3d302a8c	0.043009326
232	0x3c371b1c	0.011175897
233	0x3dde28b5	0.10847608
234	0xbe2015ea	-0.1563336
235	0xbe2755b7	-0.16341291
236	0xbbfb10e8	-0.0076619275
237	0x3e315ca0	0.1732049
238	0x3e77b07f	0.24188422
239	0x3d6a67fb	0.05722807
240	0x3dd84307	0.105596595
241	0xbd3b22aa	-0.045687355
242	0x3c99d1f5	0.018776873
243	0x3e919415	0.2843329
244	0x3bc012ec	0.0058616307
245	0xbd8fbff1	-0.07019032
246	0x3cc32709	0.023822324
247	0x3e16ef64	0.14739758
248	0xbd3ff5a4	-0.04686512
249	0x3dd2afe7	0.10287457
250	0x3e9b38eb	0.30316862
251	0x3c81d68d	0.015849376
252	0x3ddbee5b	0.10738822
253	0x3d7f0c50	0.0622676
254	0xbdc6bbf1	-0.09703816
255	0x3cad1a19	0.021130608

conv2.bias f4 [10]
0	0xbd96a1b2	-0.0735506
1	0xbe2d6417	-0.16932712
2	0x3ded5090	0.11587632
3	0x3e50d462	0.20393518
4	0xbd1913a5	-0.03737225
5	0xbde41941	-0.11137629
6	0xbd3591fe	-0.044328682
7	0xbcc1c35b	-0.023652723
8	0xbe1bd7a8	-0.15218985
9	0xbe05f678	-0.13082302

fc1.weight f4 [128, 130]
0	0xbc061ca3	-0.008185538
1	0xbdb03459	-0.086037345
2	0x3d3b2051	0.045685116
3	0x3d8a4db7	0.06753104
4	0x3d5f20c7	0.05447462
5	0xbd353609	-0.044240985
6	0xbcaa25f6	-0.020770054
7	0xbd9988ed	-0.0749682
8	0xbc046506	-0.0080807265
9	0xbcd1170d	-0.025523687
10	0xbd773dff	-0.06036186
11	0xbce79318	-0.028268382
12	0x3d051198	0.03248748
13	0x3da3af94	0.07992473
14	0xbc2367a0	-0.009973437
15	0x3b849d05	0.0040470385
16	0x3cef4a38	0.029210195
17	0x3d54d8cd	0.05196457
18	0xbd4f0c5e	-0.050548904
19	0x3ca1e926	0.019764494
20	0x3c8219f8	0.015881523
21	0xbd97e2c0	-0.07416296
22	0xbd9ab19c	-0.075534075
23	0x3d6414b3	0.055683803
24	0x3da802d7	0.08203667
25	0xbd981bb3	-0.07427158
26	0x3d3e0215	0.046388704
27	0xbb4d0fc7	-0.0031289922
28	0xbd5477b9	-0.05187199
29	0xbcd90bd6	-0.026494902
30	0x3d1624ec	0.036656305
31	0xbd939fb2	-0.07208194
32	0xbdb8f679	-0.09031386
33	0xbdaff9d3	-0.08592572
34	0xbd85b38f	-0.06528389
35	0x3bc06a45	0.0058720433
36	0xbd82d1ee	-0.06387697
37	0xbd2c5788	-0.042075664
38	0x3cb90d54	0.022589363
39	0x39d82e42	0.00041233195
40	0xbd5acd7e	-0.05341863
41	0x3d6530b6	0.055954657
42	0xbdbf2972	-0.09334077
43	0x3d31e10b	0.04342751
44	0xbd02416e	-0.03180068
45	0x3c90f92d	0.017696941
46	0xbdab1c34	-0.08354989
47	0x3d2bcba9	0.041942272
48	0x3c93d74d	0.018047
49	0xbd810a06	-0.0630074
50	0x3d16e4e4	0.03683938
51	0x3d94975d	0.07255433
52	0x3cb313cc	0.021860026
53	0xbd59f907	-0.053216007
54	0xbd5272e8	-0.051379114
55	0xbd101320	-0.03517449
56	0xbd1e632a	-0.03866879
57	0xbc69c94d	-0.014269185
58	0x3ccee16a	0.02525397
59	0xbd9c2b4e	-0.07625447
60	0xbcc6634f	-0.024217276
61	0x3c08322c	0.008312743
62	0xb6de0db4	-6.617711e-06
63	0xbcd1e21e	-0.025620516
64	0xbb2295a2	-0.0024808426
65	0x3ca419e3	0.020031875
66	0xbdb943ca	-0.09046133
67	0xbcba241f	-0.022722302
68	0x3ad091e4	0.001591262
69	0x3cea627c	0.028611414
70	0x3d770594	0.060308054
71	0xbd6d0f30	-0.057875812
72	0xbca767c8	-0.020435229
73	0x3aa8ab39	0.0012868411
74	0x3c8eeb09	0.017446058
75	0x3c559894	0.013036866
76	0xbd8369e9	-0.06416685
77	0xbdc015ab	-0.09379133
78	0x3ce4fa26	0.027951311
79	0xbc8fedee	-0.017569508
80	0xbdb5f0db	-0.0888383
81	0x3c5fae1b	0.01365235
82	0xbdbac5da	-0.091197684
83	0xbd6470ed	-0.055771757
84	0x3d3e3f8e	0.04644733
85	0x3d87f94f	0.06639349
86	0xbd6c8303	-0.05774213
87	0xbd842b6b	-0.06453594
88	0x3d4523a3	0.04812969
89	0x3ccbbad9	0.02486937
90	0x3d013dc8	0.03155306
91	0x3d3ef3bd	0.046619166
92	0x3d7d0846	0.06177547
93	0x3cf18ad9	0.029485153
94	0xbd9fe890	-0.0780803
95	0xbc071881	-0.008245588
96	0x3c208436	0.009797147
97	0x3ca5d148	0.020241395
98	0x3b820d38	0.003968861
99	0xbd8858d8	-0.066575706
100	0x3d8f7b81	0.070059784
101	0xbcdfb99e	-0.027310189
102	0x3c8bef59	0.017081903
103	0xbd8bebd7	-0.06832092
104	0x3c4859ad	0.012228412
105	0xbd2d8534	-0.04236336
106	0x3d4e2a89	0.050333533
107	0xbd52e593	-0.05148847
108	0x3d53c37b	0.051700097
109	0xbd1274a5	-0.035755772
110	0x3d226128	0.039643437
111	0xbc34e481	-0.011040808
112	0x3d851338	0.06497806
113	0x3d667cc9	0.05627135
114	0x3d801a4e	0.06255017
115	0x3d3a4dc2	0.045484312
116	0xbd8bb7b6	-0.068221495
117	0xbc782fee	-0.015148146
118	0x3d235128	0.03987232
119	0xbcdec3ba	-0.02719294
120	0xbd37ee36	-0.04490491
121	0xbd46dc4e	-0.048549943
122	0xbd99158f	-0.07474815
123	0x3d0c4d42	0.034253366
124	0xbdaaf70a	-0.083479
125	0xbd413a8b	-0.04717497
126	0xbd93e9f4	-0.072223574
127	0x3da8412c	0.082155555
128	0x3cf31b06	0.029675972
129	0x3d9f0b3e	0.07765816
130	0x3d971803	0.07377627
131	0xbcafd557	-0.021464033
132	0x3d26a907	0.04068854
133	0xbcb4902b	-0.0220414
134	0x3d522479	0.051304314
135	0x3d96ac98	0.073571384
136	0xbb80c1a2	-0.003929333
137	0x3d96ea97	0.07368963
138	0x3a915c93	0.0011090211
139	0x3ca15f4a	0.019698758
140	0xbd3bcda9	-0.04585043
141	0x3d9b0f71	0.075713046
142	0x3d717d52	0.058957405
143	0x3c3ae105	0.011406188
144	0xbd670683	-0.056402694
145	0xbce98222	-0.028504435
146	0xbc865cf7	-0.016401751
147	0xbd642dfb	-0.055707913
148	0xbdaab6cf	-0.08335649
149	0xbd711617	-0.058858957
150	0x3da6351d	0.08115599
151	0x3d617a16	0.05504807
152	0xbd9b8f52	-0.075956956
153	0xbce355e0	-0.02775091
154	0x3cbea01b	0.023269704
155	0xbb304056	-0.0026893816
156	0xbd8e88ae	-0.06959663
157	0xbcc17e2b	-0.023619732
158	0x3d95b967	0.07310753
159	0x3d93d814	0.07218948
160	0x3d7db31c	0.06193839
161	0xbd9a1b79	-0.07524771
162	0x3b84f135	0.0040570744
163	0x3b4b81b3	0.0031052649
164	0x3d3a5c44	0.045498148
165	0xbd8b8b16	-0.06813638
166	0x3ba7f63d	0.0051257894
167	0x3cb2cf17	0.021827264
168	0xbd880f44	-0.06643537
169	0xbd9218cc	-0.07133636
170	0x3d528d35	0.051404197
171	0x3dac7b1e	0.0842192
172	0x3ca26dd4	0.01982776
173	0xbdadca0f	-0.08485805
174	0x3d2c386b	0.042045992
175	0x3d6515ed	0.055929113
176	0x3d9861ba	0.07440515
177	0x3bea8409	0.007156853
178	0x3c299751	0.010351018
179	0xbd8321c1	-0.064029224
180	0xbaef992d	-0.0018279903
181	0x3bb3ed84	0.0054909606
182	0xbc0a162e	-0.00842814
183	0x3bcd84c7	0.006271932
184	0xbbf359bf	-0.00742647
185	0x3d2d9321	0.04237664
186	0x3c18137a	0.009281987
187	0x3da055ad	0.07828841
188	0xbaae5041	-0.0013299064
189	0xbdac5690	-0.08414948
190	0xbcb9f2c6	-0.022698771
191	0x3dac8a36	0.08424799
192	0xbd732bea	-0.05936805
193	0xbd14874d	-0.036261845
194	0xbc437328	-0.011929311
195	0x3a3b0a50	0.00071350206
196	0x3bfcc885	0.0077143335
197	0x3cc85b6e	0.02445766
198	0x3d36a94b	0.044595044
199	0xbda06e17	-0.07833498
200	0xbd2e5ab2	-0.042566963
201	0x3cceb12b	0.025230965
202	0x3cc1a5c3	0.023638612
203	0xbd9f8512	-0.07789053
204	0x3d0710ed	0.032975126
205	0x3bcfb849	0.006339107
206	0xbd85af27	-0.06527548
207	0x3d1b24f2	0.03787703
208	0xbd4b233a	-0.04959414
209	0x3cb411fc	0.021981232
210	0x3b0d3ab2	0.0021549878
211	0xbd55934e	-0.052142434
212	0xbbe4f2d7	-0.0069869566
213	0x3d7c2c1d	0.061565507
214	0xbcb38ddb	-0.021918228
215	0xbbac767d	-0.0052631483
216	0xbc34769a	-0.011014605
217	0xbd6f0a23	-0.058359277
218	0xbc0a2e3a	-0.008433873
219	0xbd9b9391	-0.075965054
220	0xbd926b7a	-0.07149406
221	0x3d134031	0.03594989
222	0xbd299231	-0.041399185
223	0x3b957cb5	0.0045619854
224	0xbd89b835	-0.06724588
225	0x3d14f920	0.036370397
226	0xbc28b399	-0.010296726
227	0x3d4de879	0.05027053
228	0xbd76bf54	-0.06024106
229	0x3c97a849	0.018512862
230	0x3ca4983d	0.020092124
231	0x3d94b0df	0.07260298
232	0xbc9b9259	-0.018990682
233	0x3d45d6e0	0.048300624
234	0xbd87b019	-0.06625385
235	0x3d1fd107	0.039017703
236	0xbd02c7be	-0.03192877
237	0x3d608a21	0.05481923
238	0xbce584c0	-0.028017402
239	0xbd30127c	-0.042986378
240	0xbd9f3d3a	-0.0777535
241	0xbcd09a56	-0.025464218
242	0xbc36c151	-0.011154489
243	0x3d3af158	0.04564032
244	0xbd8efe60	-0.06982112
245	0xbb4874a8	-0.003058711
246	0xbd9303ca	-0.07178457
247	0x3d51b669	0.05119935
248	0x3d5b76d2	0.053580113
249	0x3d680d59	0.056653354
250	0x3d2db24d	0.04240637
251	0xbda3035e	-0.079596266
252	0xba999a7f	-0.0011719017
253	0x3d988a96	0.07448308
254	0x3d66e27d	0.05636834
255	0x3d8b0d7c	0.06789681

fc1.bias f4 [128]
0	0xbd114550	-0.035466492
1	0x3d98faeb	0.07469734
2	0xbcc08b2f	-0.023503868
3	0x3d1838ac	0.03716342
4	0x3c916c05	0.017751703
5	0xbd9ef37a	-0.07761283
6	0x3b90b676	0.0044162823
7	0x3cf68f5e	0.03009766
8	0x3caaf79a	0.020870019
9	0x3d842398	0.064521015
10	0x3c8b57fa	0.017009724
11	0x3d38a23d	0.045076597
12	0xbdb542da	-0.088506415
13	0x3d9c279f	0.076247446
14	0x3d7f16f7	0.06227776
15	0x3cfad0f2	0.030617211
16	0x3c9782c5	0.018494973
17	0xbc8dd48b	-0.017313262
18	0xbd03a46b	-0.032139223
19	0xbbc3e8c8	-0.0059786774
20	0x3d98d398	0.07462233
21	0xbd4fefc5	-0.05076577
22	0xbc2b78ec	-0.010465842
23	0xbd8311fa	-0.06399913
24	0x3cd068b4	0.025440551
25	0x3d52ae2b	0.05143563
26	0xbac34c98	-0.0014900146
27	0x3d94be6f	0.07262885
28	0x3cfc40b2	0.030792568
29	0x3d3a9174	0.04554887
30	0xbd7f1c8e	-0.06228309
31	0x3d1c4ef0	0.03816122
32	0xbd25d8e3	-0.040490042
33	0xbcc857f9	-0.024456011
34	0xbd86d3d4	-0.06583372
35	0x3c81ad40	0.015829682
36	0xbd0ca99c	-0.03434144
37	0xbd97afee	-0.07406603
38	0xbd74e575	-0.05978914
39	0xbc0896b5	-0.008336713
40	0x3db810cc	0.08987579
41	0x3d9ee9e8	0.07759458
42	0xb7c4fc37	-2.3482467e-05
43	0x3ca12fe5	0.019676158
44	0x3da2b23e	0.07944153
45	0xbd334056	-0.043762527
46	0xbda9ec81	-0.08297063
47	0xbdb97e78	-0.09057325
48	0x3d707550	0.058705628
49	0xbd93ba03	-0.07213213
50	0xbc0529e7	-0.008127666
51	0xbd49e3cb	-0.049289506
52	0x3bdd08b2	0.0067454213
53	0x3d4333dc	0.04765688
54	0xbc3f85cf	-0.011689617
55	0xbd8471b3	-0.06466999
56	0xbc14f2d6	-0.0090911
57	0x3d9ea3d5	0.07746092
58	0x3da4933c	0.08035895
59	0xbd85e57f	-0.065379135
60	0xbcd53bcc	-0.02602949
61	0x3dacf806	0.08445744
62	0xbda20726	-0.0791152
63	0x3cc3419b	0.023834994
64	0xbd2f1f6c	-0.042754576
65	0x3d1cb8e5	0.038262267
66	0xbd298cbe	-0.041393988
67	0xbd7b0816	-0.06128701
68	0xbdb96cde	-0.09053968
69	0x3c514f5c	0.012775268
70	0x3d9de123	0.07708957
71	0x3d491ab0	0.049097717
72	0x3dbd47d2	0.09242214
73	0xbd87aaa4	-0.06624344
74	0x3d1b65ac	0.03793876
75	0x3bb6ba9b	0.0055764443
76	0xbd76805a	-0.060181
77	0x3d3a776b	0.045524042
78	0x3d8a12dd	0.06741879
79	0x3d32a6ad	0.043615986
80	0xbd1289e7	-0.035776045
81	0xbda21e70	-0.07915962
82	0x3dbf65af	0.093455665
83	0xbc794e6a	-0.015216449
84	0xbd59c5ad	-0.053167034
85	0xbd167614	-0.0367337
86	0x3d2dd378	0.042438
87	0xbda45163	-0.08023336
88	0xbd51b3c8	-0.051196843
89	0x3dac7470	0.08420646
90	0xbd7c9fff	-0.06167602
91	0x3cb3bccb	0.02194061
92	0xbdb4e205	-0.08832172
93	0xbd5f6c9b	-0.054546934
94	0xbd8aec08	-0.06783301
95	0x3dcdcdff	0.10049056
96	0x3c27b7b6	0.010236671
97	0x3bb33cd8	0.0054698996
98	0xbd295e7f	-0.041349884
99	0xba9918de	-0.0011680385
100	0xbd8951ba	-0.06705041
101	0xbd3ddd62	-0.046353705
102	0x3d049429	0.03236786
103	0xbd8431b6	-0.06454794
104	0x3d2db236	0.042406283
105	0x3c463f23	0.012100014
106	0x3d979cea	0.07402976
107	0x3b67d014	0.0035371827
108	0xbda5a18b	-0.080874525
109	0xbbfaa395	-0.007648895
110	0x3b88da57	0.0041764188
111	0xbd55ffa9	-0.05224577
112	0x3d7bd162	0.06147898
113	0x3d08bc96	0.033382975
114	0x3d77f3ec	0.060535356
115	0xbd8b3e86	-0.06799035
116	0xbdc8e2cb	-0.09808882
117	0xbcde089b	-0.027103713
118	0x3dcb9f02	0.09942438
119	0xbd8fe0ad	-0.070252754
120	0x3d14c042	0.036316164
121	0x3c437d46	0.011931723
122	0x3dd7f756	0.105452225
123	0x3d617731	0.05504531
124	0xbd843da1	-0.06457067
125	0xbdbaae95	-0.0911533
126	0xbc523957	-0.012831054
127	0x3c395789	0.011312374

fc2.weight f4 [64, 128]
0	0xbd7507c0	-0.059821844
1	0x3d86aa6e	0.06575476
2	0x3d99eb71	0.0751561
3	0xbd823161	-0.063570745
4	0xbda056b0	-0.07829034
5	0xbbfc2ff0	-0.0076961443
6	0xbcc10402	-0.023561481
7	0x3d720642	0.059088
8	0x3c7437bd	0.014905867
9	0xbda65292	-0.08121218
10	0xbd787aa0	-0.06066382
11	0x3d05beda	0.032652713
12	0xbd67aeda	-0.056563236
13	0xbd877b38	-0.06615299
14	0x3d06faba	0.032953955
15	0xbdab68db	-0.08369609
16	0xbd1f385a	-0.0388721
17	0x3d2fd830	0.04293078
18	0xbd0e6355	-0.0347627
19	0xbbfadd66	-0.0076557873
20	0x3bf4afc3	0.0074672415
21	0x3d8f8aaf	0.07008874
22	0x3cf1ba28	0.029507712
23	0x3c481b28	0.012213506
24	0xbd9857f1	-0.074386485
25	0xbd475e57	-0.048673954
26	0x3d87c36f	0.06629073
27	0xbc0e1eee	-0.008674366
28	0x3da2b740	0.079451084
29	0x3d682a86	0.05668118
30	0x3c332ab0	0.01093547
31	0xbc6ac3ab	-0.014328877
32	0x3da633df	0.081153624
33	0xbc20a802	-0.009805681
34	0xbd70b786	-0.05876877
35	0xbd0ba8e1	-0.034096602
36	0x3d927143	0.07150509
37	0xbd9993a1	-0.07498861
38	0x3d8d89e4	0.06911066
39	0xbbb14032	-0.005409264
40	0x3d885c74	0.06658259
41	0x3ce1a010	0.027542144
42	0xbdad2228	-0.084537804
43	0xbd09ad4c	-0.033612534
44	0x3d9ca9e9	0.07649595
45	0xbd6a37e7	-0.05718222
46	0x3d9c50f6	0.076326296
47	0xbd841ac6	-0.06450419
48	0x3d57b839	0.052665923
49	0xbda45c48	-0.08025414
50	0x3d0e3388	0.034717113
51	0x3d8cfa10	0.06883633
52	0x3d80ed4a	0.06295259
53	0x3daa90f9	0.083284326
54	0x3d485efb	0.048918705
55	0xbd8f4786	-0.06996064
56	0xbc92881f	-0.017887173
57	0xbd2dfeb9	-0.04247925
58	0xbbd32eba	-0.006444779
59	0xbd4aed2b	-0.049542587
60	0x3d8b5dca	0.06804998
61	0x3d36fddc	0.044675693
62	0x3d18078b	0.03711657
63	0x3c2009f4	0.009767998
64	0xbc9973c5	-0.018731961
65	0xbac77b09	-0.0015219162
66	0x3c0ea876	0.008707156
67	0xbd1f9c28	-0.03896728
68	0xbd84688d	-0.06465254
69	0x3bc06465	0.005871343
70	0x3d07b596	0.03313216
71	0xbd97e0ac	-0.074159
72	0xbda43f91	-0.08019937
73	0xbcc230e9	-0.023704963
74	0xbc0b51ca	-0.008503387
75	0xbb52d0ee	-0.0032167989
76	0xbd80b61d	-0.06284735
77	0xbd44a7a1	-0.048011426
78	0xbcae950e	-0.02131131
79	0xbd92513f	-0.07144403
80	0xbdad13bc	-0.0845103
81	0x3d6d3e2c	0.05792062
82	0x3c06b2d6	0.008221349
83	0xbb8ae007	-0.004238132
84	0xbd7c4b7a	-0.061595418
85	0x3d99b39b	0.0750496
86	0xbda302d1	-0.079595216
87	0x3a066300	0.00051264465
88	0xba205880	-0.0006116703
89	0x3c3c8c98	0.01150813
90	0x3d34029b	0.043947797
91	0xbcdd2e76	-0.026999693
92	0xbd4deabd	-0.050272692
93	0xbc18c7d8	-0.00932499
94	0x3c4aaad9	0.012369835
95	0x3d7c9ae7	0.061671164
96	0x3d94ae51	0.07259811
97	0xbd3da96b	-0.046304148
98	0xbd99a055	-0.07501284
99	0x3da50e17	0.08059328
100	0xbd24ad09	-0.04020408
101	0xbdbe75d1	-0.092998154
102	0x3d0b7e08	0.03405574
103	0xbb971c9e	-0.0046115657
104	0x3c0601e8	0.008179165
105	0x3cc700b3	0.024292326
106	0x3cb48d05	0.0220399
107	0xbb82e891	-0.003995009
108	0xbccaa7d0	-0.024738222
109	0x3d5641a0	0.05230868
110	0xbd885974	-0.06657687
111	0x3d9f23be	0.07770489
112	0xbda7534e	-0.08170186
113	0x3dadcfa7	0.08486872
114	0x3d370cd2	0.04468996
115	0x3d426973	0.047463845
116	0x3d0bd451	0.034138028
117	0xbc976cb5	-0.018484453
118	0xbd9dabd9	-0.07698793
119	0x3d8fd4b0	0.07022989
120	0x3d22e963	0.039773356
121	0xbd677aef	-0.056513723
122	0x3cc5d6ff	0.02415037
123	0xbd8c6def	-0.06856906
124	0x3d6f623f	0.058443304
125	0x3d1b774a	0.03795556
126	0x3d9047cc	0.07044944
127	0x3db1e867	0.08686905
128	0x3d86a06d	0.065735675
129	0x3c44736d	0.01199041
130	0xbcce9891	-0.025219234
131	0x3d969e40	0.073544025
132	0x3c2f146c	0.010686021
133	0xbdafea25	-0.085895814
134	0xbdabbc2e	-0.08385502
135	0x3d2c11d1	0.04200918
136	0x3d6e62a4	0.05819954
137	0xbd46ea50	-0.0485633
138	0xbd5ce755	-0.053931553
139	0xbd8c2a82	-0.06844045
140	0xbcc64188	-0.02420117
141	0x3cabee15	0.02098755
142	0x3d08257a	0.033238865
143	0xbd33c61c	-0.043890104
144	0x3b4021ea	0.002931709
145	0x3da376b3	0.079816245
146	0xbd3f8f96	-0.046767794
147	0xbcec2690	-0.028826982
148	0xbdbc1075	-0.091828264
149	0x3bf052cc	0.007334089
150	0xba39d255	-0.0007088532
151	0xbc76f458	-0.0150729045
152	0xbb4d5596	-0.003133153
153	0xbca243c7	-0.01980771
154	0x3c34cc07	0.011034972
155	0x3d1b5dbd	0.037931193
156	0x3d731407	0.05934527
157	0xba63cac5	-0.0008689578
158	0x3c5a5be7	0.013327575
159	0x3d0ec074	0.034851506
160	0xbd92f754	-0.0717608
161	0xbd01fe57	-0.031736698
162	0xbb97ec7a	-0.0046363445
163	0xbd634927	-0.055489685
164	0x3daa7740	0.083235264
165	0xbbc32f1a	-0.0059565427
166	0xbbd2d149	-0.00643364
167	0xbc86ad6e	-0.01644012
168	0xbd872da5	-0.06600503
169	0x3d12e688	0.035864383
170	0x3ba44590	0.0050131753
171	0x3b0a0ad5	0.0021063585
172	0xbd71cff3	-0.059036206
173	0xbda4d742	-0.0804887
174	0xbd6933c0	-0.05693412
175	0xbd54e155	-0.051972706
176	0xbcdfdaf3	-0.027326083
177	0x3c54028b	0.012940059
178	0x3d404f82	0.046950825
179	0x3d6f98d2	0.05849535
180	0x3c40dc53	0.011771279
181	0xbd5df4a2	-0.05418838
182	0xbaa8b173	-0.0012870267
183	0x3cc6bfd0	0.024261385
184	0xbd15973c	-0.03652118
185	0xbc4f847a	-0.012665862
186	0x3ce19375	0.027536133
187	0x3d59b813	0.053154062
188	0xbc3cae4d	-0.011516166
189	0xbd363b5e	-0.04449021
190	0x3d8c1a72	0.068409815
191	0x3da71b27	0.08159476
192	0x3c9ca98f	0.01912382
193	0x3d9e11e5	0.07718257
194	0xbd4a5ead	-0.049406696
195	0x3d4d4774	0.05011697
196	0x3cd051be	0.025429603
197	0xbc309059	-0.010776603
198	0x3d469dac	0.04849021
199	0xbb4c9135	-0.003121448
200	0x3c9d2b22	0.019185606
201	0x3a92c355	0.001119713
202	0xbb44a74b	-0.003000694
203	0xbda73bcf	-0.081657045
204	0x3d59ce45	0.05317523
205	0x3d3a2759	0.04544768
206	0x3da1e246	0.07904486
207	0x3dac4c8c	0.08413038
208	0xbc0b80d2	-0.0085146
209	0x3d633f53	0.055480313
210	0xbdb06655	-0.08613268
211	0x3d42f72e	0.04759901
212	0x3c5f8dcf	0.01364465
213	0x3d414575	0.04718538
214	0x3d249b3c	0.040187106
215	0xbcc5c217	-0.0241404
216	0xbd97ca5e	-0.07411645
217	0xbd28b3f8	-0.041187257
218	0x3d449b89	0.047999892
219	0x3cc506b8	0.024051055
220	0xbc67b5cc	-0.014142465
221	0x3d0b3453	0.033985447
222	0x3d835fed	0.06414781
223	0x3d9143e3	0.070930265
224	0x3c89fccb	0.016844174
225	0x3d561238	0.05226347
226	0x3cc153e2	0.023599569
227	0xbd4f911f	-0.050675508
228	0xbd8d4c11	-0.06899274
229	0x3c0ec4e6	0.008713936
230	0xbcc67b94	-0.024228849
231	0x3d8c8870	0.06861961
232	0x3cfd7222	0.030938212
233	0x3c5fff72	0.013671743
234	0x3d3c99a9	0.04604498
235	0xbd02e838	-0.031959742
236	0x3c39659a	0.011315728
237	0x3cfd23dd	0.03090089
238	0xbbeab7da	-0.00716303
239	0x3c9681f5	0.018372515
240	0xbcee97c5	-0.029125104
241	0x3d8821dd	0.06647084
242	0xbd8771a3	-0.06613471
243	0x3d39a214	0.045320585
244	0xbdbd1c42	-0.092339054
245	0x3adc20ac	0.0016794405
246	0x3d83e5e9	0.06440336
247	0xbd1d2eb0	-0.038374603
248	0x3cc3c05e	0.023895439
249	0xbd7032c8	-0.05864218
250	0xbd5ccba3	-0.05390514
251	0x3c703c6d	0.014662844
252	0x3d0ed60b	0.034872096
253	0x3d577dd8	0.05261025
254	0xbc884ea1	-0.016639056
255	0xbc955040	-0.018226743

fc2.bias f4 [64]
0	0xbdcb5358	-0.09928006
1	0xbe01b921	-0.12668277
2	0x3d04a0f0	0.032380044
3	0x3d58ee08	0.05296138
4	0xbd856b99	-0.06514663
5	0xbd280f01	-0.041029934
6	0x3cccf587	0.02501942
7	0x3ded3032	0.11581458
8	0xbdc4007d	-0.09570406
9	0x3dd26248	0.10272652
10	0xbd1e8c35	-0.03870793
11	0xbd063444	-0.032764688
12	0xbdddca10	-0.10829556
13	0xbd746e93	-0.059675764
14	0x3e065c0f	0.13121055
15	0x3bd701e7	0.006561506
16	0x3d9fe4d2	0.07807316
17	0x3d25806e	0.040405683
18	0xbda8edf6	-0.082485124
19	0x3e7fd5ab	0.24983852
20	0x3d1f26ba	0.038855292
21	0x3d35af25	0.044356484
22	0x3c8e9bc8	0.017408267
23	0xbd0760da	-0.03305135
24	0x3d105e76	0.035246335
25	0xbdb71386	-0.08939271
26	0xbdd49e5f	-0.103817694
27	0xbd926f50	-0.071501374
28	0x3d329914	0.043603018
29	0x3da08f82	0.07839872
30	0x3d1f55dd	0.038900245
31	0xbde0b77e	-0.10972498
32	0xbd498e1b	-0.049207788
33	0x3cd8a7b3	0.026447153
34	0xbd4b3484	-0.04961063
35	0x3a1d0ece	0.0005991281
36	0xbc86e2eb	-0.016465625
37	0x3d597b8f	0.05309635
38	0xbdcffe72	-0.101559535
39	0x3cd8aeab	0.026450476
40	0xba377299	-0.00069979724
41	0x3ca29273	0.019845223
42	0x3d1081b5	0.03527995
43	0xbc03a519	-0.008034968
44	0xbc95e8b7	-0.018299444
45	0x3d2d1d17	0.04226407
46	0x3d60263f	0.054723974
47	0x3e0b4ab4	0.13602716
48	0x3dc77098	0.097382724
49	0xbc1cbd09	-0.009566554
50	0xbd4c57e8	-0.04988852
51	0xbcb2ee29	-0.02184208
52	0x3dc7b65f	0.097515814
53	0xbd8b0030	-0.06787145
54	0x3c803c6d	0.015653813
55	0x3e57eea5	0.2108713
56	0x3a030d4c	0.0004999235
57	0x3d54d9b5	0.051965434
58	0xbdb7ed84	-0.089808494
59	0xbce4b5e1	-0.027918758
60	0xbda20587	-0.079112105
61	0xbdabe70b	-0.08393677
62	0x3d6c4c41	0.05768991
63	0xbc68b4cb	-0.014203261

fc3.weight f4 [5, 64]
0	0xbd5da79e	-0.05411493
1	0xb9ad5b40	-0.00033065118
2	0xb99904a2	-0.00029185886
3	0x3df403f9	0.1191482
4	0xbdad372c	-0.08457789
5	0x366a7eea	3.494259e-06
6	0xbdd2abfe	-0.10286711
7	0x39cba094	0.00038838817
8	0x3ce6a01d	0.02815252
9	0xb92e5ad1	-0.00016627765
10	0x3a945a6f	0.0011318455
11	0x3d686375	0.056735475
12	0x3a2ab107	0.00065113645
13	0xbd5612b8	-0.052263945
14	0x394beb43	0.0001944723
15	0xba9a41f4	-0.0011768923
16	0xb9bcb3e1	-0.00035992175
17	0x3dd13d42	0.10216762
18	0x3d9f2eff	0.07772636
19	0xbbc2626b	-0.0059321425
20	0x381030c8	3.4377706e-05
21	0xb9dcc65a	-0.00042109453
22	0xbddf4ba5	-0.109031
23	0xbd83dae6	-0.06438236
24	0x3a3590e8	0.0006926195
25	0x3a055e00	0.00050875545
26	0x3a861119	0.0010228484
27	0x3dad5d19	0.084650226
28	0x3ac20ca1	0.0014804789
29	0x396642f8	0.00021959457
30	0xbb8d8bfd	-0.0043196664
31	0x3ba74521	0.0051046764
32	0xbca4a31f	-0.020097313
33	0x3d8dd854	0.06926027
34	0x3dcddb5d	0.10051606
35	0x3d07ca05	0.033151645
36	0x3a3f2fb3	0.00072931795
37	0x374ca3f9	1.2197525e-05
38	0x3d80e3bd	0.06293438
39	0xba3dbe64	-0.0007238148
40	0xb906a2a1	-0.0001283982
41	0xbb2d31e3	-0.002642744
42	0x3dead686	0.11466698
43	0x3841d013	4.620857e-05
44	0x3b725ba2	0.0036980887
45	0xbb3b2fd1	-0.0028562436
46	0xb999b983	-0.0002932065
47	0xba6c7e08	-0.00090214657
48	0x39606d1d	0.00021402953
49	0x36b33b27	5.341502e-06
50	0x395207df	0.00020030093
51	0xbdefc24e	-0.117069826
52	0xba56bac0	-0.000819128
53	0x3ba181c3	0.004928799
54	0x3d1cbb85	0.03826477
55	0xbc23761e	-0.009976892
56	0xb91b0973	-0.00014785472
57	0xbb362e2b	-0.0027798514
58	0xbdda6fe4	-0.10665873
59	0xbd923fe9	-0.07141096
60	0x3d8a6b64	0.067587644
61	0x3d4cd486	0.050007366
62	0xb9a905a4	-0.00032238394
63	0x3a4fcf8b	0.00079273497
64	0x3ceab0fd	0.028648848
65	0xb9d81e82	-0.0004122146
66	0xb9d8b970	-0.00041336892
67	0xbdc938e9	-0.09825308
68	0x3da58393	0.080817364
69	0x392b5039	0.00016337716
70	0xbde63ac5	-0.11241678
71	0xb82189ed	-3.8513845e-05
72	0x3d648623	0.055791985
73	0xb9d448e4	-0.000404901
74	0x3ad6edc5	0.0016397765
75	0xbd45d24d	-0.04829626
76	0x3aa3ed94	0.0012506717
77	0xbd58409c	-0.05279599
78	0xb86e7956	-5.6856625e-05
79	0xbaea2f4a	-0.0017866876
80	0xba1de501	-0.0006023199
81	0x3d72c0ee	0.059266023
82	0x3d0cc3f6	0.03436657
83	0xbc0d55e8	-0.008626439
84	0x390f3166	0.00013655945
85	0xb917a20e	-0.00014460852
86	0x3d26daf4	0.040736154
87	0x3cce03ba	0.025148261
88	0x3a9859b3	0.0011623412
89	0x3a27fc2e	0.0006408122
90	0x3acd5cd6	0.0015667926
91	0x3dc2b28d	0.09506712
92	0x3b22d150	0.0024843998
93	0xb84eed81	-4.933542e-05
94	0xbbc3ac63	-0.005971478
95	0x3be86375	0.0070919343
96	0x3d2f1f5c	0.042754516
97	0x3c1dfd8a	0.009642968
98	0xbce4bd93	-0.027922427
99	0x3dac46e8	0.08411962
100	0x3a37f5dc	0.0007017532
101	0xb93b3d0e	-0.00017856454
102	0x3da2c0fb	0.07946964
103	0xba48df72	-0.00076626905
104	0xb8cf501c	-9.885451e-05
105	0xbb7cfdc9	-0.0038603416
106	0x3dea96a2	0.11454512
107	0x39966e1a	0.00028692262
108	0x3bb4ee88	0.005521599
109	0xbb8ee537	-0.0043608206
110	0xb9bdc898	-0.00036198343
111	0xbaa852f4	-0.0012842105
112	0x38ae439e	8.309561e-05
113	0x38a85ded	8.028359e-05
114	0x388d97b9	6.7516645e-05
115	0xbd74398f	-0.059625205
116	0xba7c5867	-0.000962621
117	0x3be2eb16	0.006924997
118	0x3d8dfed0	0.06933367
119	0xbc6598bd	-0.014013466
120	0x3697a4a9	4.5193196e-06
121	0xbb81d160	-0.003961727
122	0xbdc1e234	-0.09466973
123	0x3dd406e0	0.10352874
124	0x3de1d328	0.11026603
125	0xbd17b88c	-0.037041232
126	0xb8c9cb3b	-9.6222815e-05
127	0x3a9afc4f	0.0011824461
128	0xbd903772	-0.07041825
129	0xba4b80e7	-0.00077630434
130	0xba251dc5	-0.00062986865
131	0x3db3d924	0.08781651
132	0xbdb66846	-0.08906607
133	0x3a335dfb	0.0006842312
134	0xbdea93d7	-0.114539795
135	0xba0a477c	-0.0005274934
136	0xbd26fd14	-0.040768698
137	0xba09bc06	-0.0005254153
138	0x3bb050e9	0.005380739
139	0x3cdff30f	0.027337579
140	0x3b46a7f4	0.003031251
141	0xbc9027da	-0.017597128
142	0xb9122b87	-0.0001393986
143	0xbbc08332	-0.0058750147
144	0xbb0fb078	-0.0021925252
145	0xbc8526e7	-0.016253902
146	0x3dd06e5c	0.101772994
147	0xbce7d63d	-0.028300399
148	0x39fef681	0.00048630315
149	0x3abcb3a8	0.0014396803
150	0xbd6e2d4d	-0.05814867
151	0xbdeee729	-0.11665184
152	0x3b36f8b4	0.0027919235
153	0x3b0b0107	0.002121033
154	0x3b9ece78	0.0048463903
155	0xbdd5c2f1	-0.10437573
156	0x3c05d7fa	0.008169169
157	0x3a5f47d8	0.00085174805
158	0xbca18b63	-0.019719785
159	0x3cbff04d	0.023430014
160	0xbc3c9c98	-0.011511944
161	0x3d4376f9	0.047720883
162	0x3d490fae	0.04908722
163	0xbb9151ad	-0.0044347853
164	0x3b16ec82	0.0023029153
165	0xb94f573b	-0.00019773554
166	0x3d9443e6	0.07239513
167	0xbb3c564b	-0.0028737958
168	0xb9a1ac83	-0.00030836844
169	0xbc52d860	-0.012868971
170	0x3c238c82	0.00998223
171	0x3a8165a4	0.000987221
172	0x3c9233b7	0.017846925
173	0xbc58301e	-0.013195066
174	0xb98c37eb	-0.00026744543
175	0xbb77fc1c	-0.0037839478
176	0x3a182b0b	0.0005804754
177	0xba4f6c29	-0.00079125405
178	0x39ee7649	0.00045483027
179	0x3dfbb76f	0.122908466
180	0xbb7898a6	-0.0037932782
181	0x3cc06f30	0.023490518
182	0xbd4b19bb	-0.049585085
183	0xbd3c2fc3	-0.045943987
184	0xbad89b6b	-0.001652581
185	0xbc4d863b	-0.01254421
186	0x3c9ca850	0.019123226
187	0xbd6f19d7	-0.058374252
188	0xbcb38493	-0.021913802
189	0x3db35dd4	0.08758131
190	0xb9eff924	-0.00045771257
191	0x3aee6113	0.0018186889
192	0x3dd3ee88	0.103482306
193	0x3d752f87	0.05985978
194	0x3f913fe5	1.1347624
195	0x3d89f12b	0.06735452
196	0xbdd034a2	-0.10166289
197	0xbb109274	-0.002205995
198	0xbdeee3e1	-0.11664558
199	0xbaa3662b	-0.0012466362
200	0x3c9f9fb6	0.019485336
201	0x3f2cb9cc	0.67471004
202	0x3db13463	0.0865257
203	0x3d7f82bc	0.062380537
204	0x3dcc31c5	0.0997043
205	0xbdd050f8	-0.101716936
206	0xbda865f5	-0.08222572
207	0xbcdc0104	-0.026855953
208	0x3da45674	0.08024302
209	0x3dbce6ac	0.09223685
210	0x3db31da2	0.087458864
211	0xbdf1f095	-0.118134655
212	0x3ae319b2	0.0017326383
213	0x3eb542ac	0.3540243
214	0x3da383dd	0.07984135
215	0xbdd376e0	-0.10325408
216	0x3aed5dbf	0.0018109604
217	0x3dd2e105	0.10296825
218	0xbcfa146b	-0.030527314
219	0x3d92f5ab	0.07175764
220	0xbd8625ce	-0.065501794
221	0xbd85f7bb	-0.065413915
222	0x3d0ca890	0.03434044
223	0x3d621154	0.055192307
224	0x3bfe94d0	0.0077692047
225	0x3df6fbc1	0.12059737
226	0x3d6bea5a	0.057596542
227	0xbd8d2fda	-0.068938926
228	0xbda51364	-0.08060339
229	0xb9edd2d3	-0.0004536124
230	0x3d8e18a8	0.069382966
231	0x3db0a6fc	0.086256
232	0x3a539123	0.0008070638
233	0x3d6f0a5b	0.058359485
234	0x3de3f57e	0.11130808
235	0xbb62a1e5	-0.003458136
236	0x3ca11fe4	0.019668527
237	0xbd73630f	-0.05942064
238	0xba8d96de	-0.0010802408
239	0xbe4ac478	-0.1980151
240	0xba08a555	-0.00052126247
241	0x3df74009	0.120727606
242	0xbda0114e	-0.078158006
243	0xbbff6d56	-0.0077950163
244	0x3c230c8c	0.009951722
245	0xbdcd8e56	-0.10036914
246	0xbc44c12f	-0.012008949
247	0xbc395c58	-0.01131352
248	0x3e2a0526	0.16603526
249	0xbd79ff24	-0.061034337
250	0x3b43d14d	0.0029879392
251	0xbd411eb0	-0.047148407
252	0x3df14622	0.11780955
253	0xbdb641f3	-0.088992976
254	0xba474fcb	-0.00076031376
255	0x3f7fe0b1	0.99952227

fc3.bias f4 [5]
0	0xbebdf7b4	-0.37103045
1	0xbebca33c	-0.36843288
2	0xbeb38ead	-0.3506979
3	0xbe9040e9	-0.28174523
4	0xbe82f0e1	-0.255744
