model_weights/40epochsTransformerNet_1_0_0.pth (torch_old, 156367 bytes, 14 tensors)

encoder0.self_attn.in_proj_weight f4 [96, 32]
000000 08 4b d5 3b fd d7 dd bc 0a b7 a1 3d 59 8b 37 be
       0.0065091886 -0.02708053 0.0789624 -0.1792425
000010 6a 28 44 3e 22 d7 48 3e bc 86 0c be 15 65 c5 3d
       0.19156042 0.19613317 -0.13723272 0.096384205
000020 2f ad 74 bd e3 94 a5 bd 76 79 1b 3e 60 85 98 bd
       -0.059735473 -0.080850385 0.15183052 -0.07447314
000030 df c9 ec bd 05 b9 9a 3d 43 83 6b 3d 33 75 44 bc
       -0.11561941 0.07554821 0.057498228 -0.011990833
000040 be 00 80 bb 0a b3 18 3d f8 93 32 bd 6e 3c 33 3c
       -0.0039063385 0.03728012 -0.043598145 0.0109397005
000050 3a d0 32 3e b0 96 2b 3e b0 52 b6 3d c5 3e 0a be
       0.17462245 0.16756701 0.0890249 -0.13500507
000060 70 d1 ee 3d c9 a8 ec bd 9c a8 a2 3d 73 0b f3 bd
       0.11661041 -0.11555631 0.07942316 -0.11867418
000070 24 59 fa bd b3 a3 cc 3d 41 79 82 3e c7 11 24 3d
       -0.122240335 0.09992161 0.25483134 0.040056016
000080 13 2d 56 3d 0e 66 8a bd 2c 22 c3 3b 55 86 5a 3e
       0.05228908 -0.06757747 0.0059550013 0.21340306
000090 25 ce 36 3e 89 ee 3f be a4 86 0e 3d 5d a5 1c be
       0.17852075 -0.18743338 0.034796372 -0.15297456
0000a0 4b f8 12 3e 1b 02 40 be 34 2f 39 be 7d 6a e0 3d
       0.14352529 -0.18750803 -0.18084413 0.10957811
0000b0 e8 1e 4a be 56 b4 cc bd 7b 49 29 be 94 fa ac 3d
       -0.19738352 -0.09995334 -0.16531937 0.084462315
0000c0 5d bb 33 3d 18 78 cd 3d 2c 26 a9 bd 92 81 df bd
       0.043879855 0.10032672 -0.08259234 -0.109133855
0000d0 32 5d a8 bd 5a 60 71 3d 97 cf b6 bd 33 d2 cf bd
       -0.082209006 0.05892978 -0.08926313 -0.10147514
0000e0 f4 bf 06 be 06 3c 95 bd 80 f1 c7 3d d2 c7 25 be
       -0.13159162 -0.07286839 0.09762859 -0.16189507
0000f0 56 5a b1 3d 19 49 21 3e 7b 4d 22 3e 42 1a 12 3e
       0.08659808 0.15750541 0.15849869 0.14267829
000100 b4 50 3a 3e f4 86 84 bd f7 75 61 3d 3c e6 22 3e
       0.18194848 -0.06471053 0.05504414 0.1590814
000110 e1 d3 26 bd e1 68 c2 bd 7e b4 21 3d 89 ff db 3d
       -0.040729407 -0.0949266 0.03947877 0.10742099
000120 8a 2e 05 be 69 7a ac 3d 08 c1 10 be b5 a8 54 3d
       -0.13006034 0.084217854 -0.14136136 0.051918704
000130 fb cf 9e 3d 38 43 3e 3e af 53 f9 bd 37 70 ac 3d
       0.07754513 0.1858033 -0.121741645 0.08419841
000140 d9 7b 42 3e be eb 45 bd 97 9a 06 be 99 90 41 be
       0.18992557 -0.048320524 -0.13144909 -0.18902816
000150 98 f4 14 3e 15 e8 00 be 7b 0d 7a be fc cc 4a bd
       0.1454643 -0.12588532 -0.24419205 -0.049511895
000160 85 64 ad 3d bf 7b c6 bd b9 fd 0e 3d f7 2b d7 3c
       0.08466438 -0.096915714 0.034909938 0.026266081
000170 08 af 3e 3e a9 06 47 3e 51 1e 37 3e 79 74 65 3e
       0.18621457 0.19436134 0.17882659 0.22407712
000180 c1 6b 11 be ee 5c 0f be 65 54 89 bd f8 c3 27 3d
       -0.14201261 -0.14000294 -0.0670555 0.040958375
000190 ea 12 ef 3d 28 a2 24 bc ef fd 55 be d3 d7 5a 3c
       0.116735294 -0.010048427 -0.20897649 0.013357121
0001a0 1a 91 6c 3e 83 1d 47 3e e4 00 e2 3d 64 bf 2c 3e
       0.23102227 0.19444852 0.11035326 0.16869885
0001b0 43 c8 35 3e b7 1d 95 bd b1 75 f6 3d 3b 41 c2 3d
       0.17752175 -0.07281058 0.120341666 0.09485098
0001c0 b1 4c 58 be 14 e3 e4 bd e1 bc 10 3d ab 90 54 3e
       -0.21123005 -0.11176124 0.03533638 0.20758311
0001d0 ac df 19 be e5 9f 3a be 15 d4 4a be 08 7b a1 bc
       -0.1502673 -0.18225057 -0.19807465 -0.019711986
0001e0 22 fa 45 3e 56 3f 43 be ac 66 89 3d f6 39 b4 bc
       0.193337 -0.1906713 0.06709036 -0.022000294
0001f0 02 2a 00 be 4f 8e 44 3e 01 5e 14 3e 5d f0 4f bd
       -0.12516025 0.19194911 0.14488985 -0.050766338
000200 8c 23 b2 3d 94 ec 8f bd 96 2f 9c bc c3 bd e5 3d
       0.08698186 -0.070275456 -0.01906566 0.11217835
000210 78 c5 3e 3d 79 36 54 3e 44 08 31 3e 71 c1 a5 bc
       0.04657504 0.20723905 0.1728831 -0.020233842
000220 d4 60 ea 3d 7e 54 2d bd b4 23 4d 3e ed 6d 48 3e
       0.1144425 -0.042316906 0.20033151 0.19573183
000230 21 6e 66 3e bf 44 64 be c8 91 2a be ab ef 30 be
       0.22502948 -0.2229185 -0.16657174 -0.17278926
000240 20 41 91 bc 9f 2d 79 bc bc 4c 11 3e 39 0e 58 3d
       -0.01773125 -0.015208631 0.14189428 0.05274794
000250 eb 72 01 be da 1a 02 3e 27 ec dd bd e4 fb 55 3e
       -0.12641494 0.12705556 -0.10836058 0.2089687
000260 13 5e a6 bd 90 e5 68 3d d1 41 1a bd 68 43 ae bc
       -0.08123412 0.056859553 -0.037660424 -0.021272376
000270 30 35 05 be 66 ec 32 3d 81 c7 6b 3d c5 40 c9 bd
       -0.1300857 0.04368248 0.05756331 -0.09826807
000280 b2 1b e0 bd c3 9d f5 bd 6d 1c 59 be 29 b5 5c 3d
       -0.109427825 -0.11992981 -0.2120225 0.053883705
000290 4a 14 db 3d 5c f5 19 3e 5b f8 ca 3d f7 fb e6 3d
       0.10697229 0.15035003 0.09910651 0.11278527
0002a0 cf 14 c5 3d a6 6e db 3d b0 e0 61 be 5c a3 23 3d
       0.096231095 0.10714464 -0.22058368 0.039950714
0002b0 10 0d 4b bd 28 dd 0f be e0 a5 3b be db 7f 07 3d
       -0.049573004 -0.14049208 -0.18324995 0.033080917
0002c0 28 fc 7f bd 3d 43 2d bd 8d 38 33 be d8 91 82 3c
       -0.062496334 -0.04230045 -0.17502041 0.015938684
0002d0 f1 04 b0 3d 52 a1 45 3e 4c 1a 91 3d 93 5d 40 ba
       0.085946925 0.1929982 0.07085094 -0.00073381624
0002e0 cf ba 19 3e 75 89 11 3e c2 15 25 3e 83 d5 23 3e
       0.15012668 0.14212592 0.16121581 0.15999417
0002f0 84 db 1c be be 25 93 3d 3f 58 59 3d aa c3 4c be
       -0.15318114 0.07184933 0.053062674 -0.19996515
000300 73 be 77 bd f7 29 88 3d b9 b1 62 3c 66 f8 af 3d
       -0.06048436 0.06648629 0.013836318 0.085923
000310 9a b3 c8 3d 79 a7 dc 3d cd 10 e3 3d 48 5e f9 3d
       0.09799881 0.107741304 0.11087189 0.12176186
000320 86 c8 81 3d 06 dc 3e 3e 2a 03 35 3e b1 55 5b 3e
       0.06337075 0.1863862 0.17676988 0.21419407
000330 df 4c 2a 3d 85 06 a1 3d ba 2f 3b 3e 4c df d1 3c
       0.041577216 0.078625716 0.18279925 0.025619172
000340 2c e9 0f bd 32 72 3a 3e 94 99 11 3e 8e 39 86 3d
       -0.03513448 0.18207625 0.14218742 0.065539464
000350 7d d6 c4 bd 38 74 2a be 2a 9f 26 be e2 e4 53 3d
       -0.09611223 -0.16645896 -0.16271654 0.05173195
000360 93 4e f0 3d 6a b2 31 be a4 a4 ce bd 6f 00 37 3e
       0.11733737 -0.17353216 -0.100899965 0.17871259
000370 aa 3e 0d 3e 18 e1 17 3e 22 06 a0 3d 53 86 6f 3e
       0.13793436 0.1483196 0.0781367 0.23391084
000380 ea 01 88 bd f2 8e 16 3e 2a f8 3d 3e 66 38 bd 3d
       -0.0664099 0.14702967 0.18551698 0.09239273
000390 d7 77 03 be 0b 6b 5b 3d cd d8 3c bd d6 4c 7b 3d
       -0.12838684 0.05356888 -0.046105195 0.061352573
0003a0 97 5b 83 3d 89 25 06 3c 7a 12 0a be 53 b7 ed 3c
       0.06413954 0.00818766 -0.13483611 0.02901808
0003b0 5d eb 0d be c5 5a 24 be 9a ad f5 3c 01 e1 1d be
       -0.13859315 -0.16050251 0.029990006 -0.15417863
0003c0 c9 86 39 3e ba ec 50 3a 85 37 66 bd 09 11 1d be
       0.18117823 0.00079698453 -0.05620529 -0.1533853
0003d0 a9 5b 4a bd 7c 7a 07 be 97 3b 4f 3d 98 9c 11 3e
       -0.04940382 -0.13230318 0.05059394 0.14219892
0003e0 d4 74 0c 3d cf 39 0a be be 85 0f be 0e dc 16 3d
       0.034291103 -0.13498615 -0.14015862 0.036830954
0003f0 71 12 b9 3c 1d 9d ea 3d 81 52 b4 3d ed ce ad 3d
       0.022591801 0.11455748 0.08804799 0.084867336

encoder0.self_attn.in_proj_bias f4 [96]
000000 57 eb ac bd de 8b f7 3b 17 4e e6 bd f1 f6 70 bd
       -0.08443325 0.0075545153 -0.11245363 -0.05882925
000010 a5 85 ea bc 48 82 92 bc 62 4e b8 bd c0 26 22 bd
       -0.02862818 -0.017884389 -0.08999325 -0.039587736
000020 54 f9 75 3e 75 8e 62 bd ca 52 56 be 8b dc 6c 3d
       0.24020892 -0.05531164 -0.20930019 0.057827514
000030 cb fc 05 3b 41 22 45 bb 47 a2 ae 3c 46 ad 8a 3c
       0.0020444866 -0.0030080231 0.021317614 0.016928326
000040 95 c7 0e bc 12 08 38 3d bb ca 4d bc 23 0f 5d 3b
       -0.008714576 0.04492957 -0.012560542 0.0033730946
000050 3e 60 c0 3e 21 44 58 be b8 a8 df 3e 40 2a aa be
       0.37573427 -0.21119739 0.4368341 -0.3323536
000060 e6 3c ee 3b 7d d3 c7 bd fb 62 57 bc 16 12 18 bd
       0.0072704433 -0.09757135 -0.013146157 -0.037126623
000070 6a 31 2f 3f 70 e9 06 bc 79 b8 49 be f9 2b 44 bf
       0.68434775 -0.008234367 -0.19699277 -0.76629597
000080 64 d7 48 2d 25 56 5a 2f b2 1a 18 af e6 5b 00 ad
       1.141651e-11 1.9857589e-10 -1.3833804e-10 -7.296363e-12
000090 9f 47 73 af 3f 9f 16 2f ef bb 00 2f 84 25 d4 2e
       -2.2126166e-10 1.3698996e-10 1.17083e-10 9.647308e-11
0000a0 f0 9f cc ad 63 14 dd ae 06 33 e1 2f b2 0b 4d 30
       -2.3263141e-11 -1.0053538e-10 4.0963516e-10 7.4595186e-10
0000b0 82 d7 b0 ad 0b 29 c4 ae fd 66 70 ae c9 b1 16 2e
       -2.0104588e-11 -8.920339e-11 -5.4661154e-11 3.4263956e-11
0000c0 06 6a d8 ae 4b 3b 14 af 66 34 65 af 78 04 65 af
       -9.841376e-11 -1.3481587e-10 -2.0846044e-10 -2.0829016e-10
0000d0 f0 92 35 31 aa 3f 4d 30 2b fa 2c 31 5e 82 48 b1
       2.642249e-09 7.466904e-10 2.5171498e-09 -2.9177936e-09
0000e0 22 10 97 2e 54 39 01 2f 2b 71 95 ae 1a 1a dc 2e
       6.869551e-11 1.1752849e-10 -6.795838e-11 1.0009078e-10
0000f0 4f db 67 30 56 b2 c6 af 64 7c 3e 30 ba fd be ad
       8.4348967e-10 -3.6142705e-10 6.9298367e-10 -2.1713176e-11
000100 df 97 e8 bc 37 bd 17 be 57 a9 dc bd f8 ad 7b bd
       -0.02839273 -0.14818273 -0.107744865 -0.061445206
000110 e9 11 57 bd 79 9e 88 3b 4b aa 43 3d 88 96 5b 3d
       -0.052507315 0.004169282 0.047769826 0.053610355
000120 77 27 bf 3e e8 9e 4d 3e 85 1a e0 bd aa ef 13 be
       0.37334797 0.20080149 -0.10942558 -0.14446893
000130 3e 4d 95 bc e1 4c 45 be 0f 4b 78 3d 86 57 42 3d
       -0.018225309 -0.19267608 0.060618456 0.04744675
000140 fc 99 00 be c4 df a5 bd 7b 46 a5 bd 99 5c 48 3d
       -0.1255874 -0.080993205 -0.08070084 0.048916433
000150 57 71 46 be 1d 03 71 be 0f 1f 14 3e e3 ac 68 be
       -0.19379173 -0.23536344 0.14464973 -0.22722201
000160 b9 6b b1 3d 6e 7b 70 be 8b b5 29 3e 23 c4 98 3d
       0.086631246 -0.23484585 0.1657316 0.07459285
000170 32 2b 94 3e bd 6f e4 be ff 11 87 be 7c 48 41 be
       0.28939205 -0.446165 -0.26380917 -0.18875307

encoder0.self_attn.out_proj.weight f4 [32, 32]
000000 06 5d 88 3d b2 bc f0 bd 3f 1d 3e 3e a9 89 b8 bd
       0.06658368 -0.11754741 0.18565844 -0.090106316
000010 86 07 09 3e 52 fd 06 3e 57 e4 33 3e 09 bd cb bd
       0.13381776 0.13182572 0.17567573 -0.09948165
000020 6e 07 90 be d8 5a 09 3d ec 26 93 3d 20 bb 72 39
       -0.28130668 0.0335339 0.07185158 0.00023148628
000030 89 ad 17 3e 55 0b a1 bd 32 3f 7d 3d ba d3 c7 3d
       0.14812292 -0.078634895 0.061827846 0.097571805
000040 83 0c 08 be 84 19 3a be 49 8b 97 3d 9d 05 fc bd
       -0.13286023 -0.18173796 0.073996134 -0.12305758
000050 2d 57 27 3e 52 7d 00 3d 5d 05 4b be 56 fb 29 3e
       0.16341849 0.031369515 -0.19826265 0.16599783
000060 e3 c4 06 bd be 55 ae bb 19 e7 cf bd 5e 4c a6 3d
       -0.03290261 -0.00532028 -0.101515 0.08120035
000070 b5 16 69 be 10 e7 90 3d 18 b2 d4 3d 22 0f 37 3e
       -0.22762568 0.07075322 0.10385531 0.17876866
000080 20 2c 99 3d 65 dd 46 be 38 71 27 3d 96 a5 ad 3c
       0.07479119 -0.19420393 0.04087946 0.021197122
000090 bc ad da bd 26 5f 4c 3d f8 ff 2c 3e 22 16 bf bd
       -0.106776685 0.049895428 0.1689452 -0.093303934
0000a0 e1 3a 97 3e ec d8 bf 3b 12 26 a4 3c 5d da 22 bd
       0.2953711 0.0058547165 0.020037685 -0.03975903
0000b0 dd 00 99 3d da 45 23 be e1 a3 e7 3d 2b 7f 8c ba
       0.07470868 -0.15944615 0.11310554 -0.0010719051
0000c0 12 dd 83 bc ab 63 16 3c c4 dd 94 bd 11 1b 41 be
       -0.016096625 0.009179036 -0.07268861 -0.18857981
0000d0 99 ea 93 bc d5 4d 53 be 6e f4 0d bd 49 c3 63 be
       -0.0180562 -0.2063516 -0.034656934 -0.22242464
0000e0 46 96 08 be df ef 2f be 55 0a 59 3e 2a 85 47 3e
       -0.13338575 -0.17181347 0.21195348 0.19484392
0000f0 c8 30 a4 3e bf b7 c3 be 7b df 51 be c1 e8 8b bc
       0.32068467 -0.38226125 -0.20495407 -0.01707876
000100 95 a6 02 be 49 19 43 be 2a eb d5 3c 9a 59 d2 3d
       -0.12758859 -0.19052614 0.026113112 0.102709964
000110 86 bf d9 3d 69 3f 1b 3d 32 cd 14 be da a5 2f bd
       0.10632233 0.03790227 -0.14531401 -0.042882778
000120 aa bd 29 3e a2 bd bf 3d 0f f1 b5 bd 8e a9 98 3b
       0.16576257 0.093623415 -0.08883869 0.0046588844
000130 22 49 ed 3d 1a 14 80 3c 27 6d 32 3e cc 82 7f bd
       0.115862146 0.015634585 0.17424451 -0.062380597
000140 42 78 44 3d 0c 15 0d bc 41 2c 6d bd 41 92 be bd
       0.04796625 -0.008610975 -0.057903532 -0.093052395
000150 d7 85 e6 bd f9 c1 ff bd cb 84 91 bc 7d ad 61 3d
       -0.11255997 -0.12488169 -0.017763516 0.055097092
000160 2f 2f 57 3d 67 ed a8 3d eb bb 38 be 7d 0b 0f be
       0.052535232 0.08248406 -0.18040435 -0.13969226
000170 95 13 02 3e 63 e5 40 be a0 38 c8 3d 88 f0 32 3d
       0.12702782 -0.18837504 0.09776425 0.04368642
000180 0e 78 46 bd a9 44 0c 3e bb b9 10 be 03 71 05 be
       -0.048454337 0.13698067 -0.1413335 -0.13031392
000190 2e 00 80 bd 92 ba be 3c 71 db ae bd 25 13 b8 3c
       -0.06250034 0.023282323 -0.08537949 0.022470066
0001a0 7c 71 04 be cd 71 ad bd ff 1a fa 3d ee aa b6 3d
       -0.12933916 -0.084689714 0.1221218 0.08919321
0001b0 fe 86 c8 bd 07 a1 26 be 0b 69 c8 bd 28 6d de 3d
       -0.09791373 -0.16272365 -0.0978566 0.10860664
0001c0 f2 54 45 3e 79 fc 11 3e cb 55 39 3e 36 3c 0e be
       0.19270685 0.14256467 0.18099134 -0.13890156
0001d0 65 f3 59 be 46 bc 34 be 79 e7 f7 bd 9c 5b 3d 3d
       -0.21284254 -0.17649946 -0.12104697 0.046229944
0001e0 5e 95 a3 bc b4 0b b4 3c 3c 56 92 3d e0 b6 57 bd
       -0.019968685 0.021978237 0.07145354 -0.052664638
0001f0 ac 6d a2 3a d0 d0 b9 3d cf 83 f2 3d 12 df 0b 3e
       0.0012392304 0.09073031 0.11841547 0.13659313
000200 f8 64 e8 bd 43 66 08 be 09 07 14 be 26 1d ad 3a
       -0.11347383 -0.1332026 -0.14455809 0.001320754
000210 b6 8b e0 bd a1 ec 61 bc fc 73 d6 3d 0e 16 f8 bd
       -0.10964148 -0.013789327 0.10471341 -0.121135816
000220 af fc ae bd f0 6b d8 bd 56 9d 03 bd c5 03 09 be
       -0.08544289 -0.105674624 -0.03213247 -0.13380344
000230 ce 2f 7e bd 5f 5a 79 3d 4d 4c e6 3d 5a 21 ee 3b
       -0.06205731 0.0608772 0.11245022 0.0072671594
000240 94 3e b6 3d e1 70 27 3e b8 3b e5 3d 2f 7d dc bd
       0.088986546 0.16351654 0.11193031 -0.107660644
000250 90 2d ac 3d 93 50 2b 3e 0c bd f0 bd bb 74 01 3e
       0.08407128 0.16729955 -0.11754808 0.12642185
000260 9b 9a e2 3d 58 ec 80 bd da 88 01 3e d3 ab f2 bc
       0.11064645 -0.06295079 0.12649861 -0.029622948
000270 61 81 b8 bd be 4e de 3d 9e 55 c7 3d 6b 50 f5 bd
       -0.09009052 0.10854863 0.09733127 -0.11978229
000280 ef 8f 25 3e a4 7b e2 3d 45 ca a4 bd 0a ec 00 3e
       0.16168188 0.11058739 -0.08046392 0.12590042
000290 35 e9 0d 3d f7 c9 49 bb 1c ad 14 be ef 28 2d 3e
       0.03464623 -0.0030790546 -0.14519161 0.16910146
0002a0 ea 14 76 3c fd 35 24 be 33 e5 cc 3b d2 d9 32 3e
       0.015019635 -0.1603622 0.0062529086 0.17465904
0002b0 54 ed 37 3d 19 81 18 3e 13 14 bc bc 2c 99 95 3d
       0.044904068 0.14892997 -0.02295879 0.07304606
0002c0 4e 65 d3 3d 17 8d 02 3e 3f cf 46 3e fc f1 e9 bc
       0.10322057 0.12749134 0.19414996 -0.02855777
0002d0 91 93 0e be 37 43 49 3e a2 63 23 be 35 4d 1a 3e
       -0.1392348 0.19654547 -0.15955976 0.15068515
0002e0 1e c4 13 be 44 cb 68 3e 2b 1e ba 3c 83 b9 69 3d
       -0.14430282 0.2273379 0.022719463 0.057061683
0002f0 fe 44 68 be f4 80 96 3e 3b d7 b1 bd dc 03 6b 3d
       -0.22682568 0.29395258 -0.0868363 0.057376727
000300 96 19 be bd 9f de 3a 3d b6 7f b3 3d 73 21 90 bd
       -0.09282224 0.045622464 0.08764593 -0.0703763
000310 59 6a 9f 3d 9a f8 87 bb 0e 45 e9 3d 37 af b8 bd
       0.07783956 -0.0041495087 0.11390124 -0.090177946
000320 1d c8 e6 bd 50 c7 83 3d 5c 4e 22 be a8 f0 de bc
       -0.11268637 0.064345 -0.15850204 -0.027214363
000330 09 97 9d 3d 38 73 d5 3d 92 53 0a be bf b3 db 3d
       0.07694823 0.10422367 -0.13508442 0.10727643
000340 ab dd e6 3d c8 1b b2 3c f5 6d e9 3d fc 63 6a 3d
       0.112727486 0.021741763 0.11397926 0.05722426
000350 3f e8 11 3e 51 0c 2b 3e ef 26 07 be 87 38 ce bd
       0.14248751 0.16703917 -0.13198446 -0.100693755
000360 63 e7 37 bc b0 ef 42 bd 9d 6c 7f 3d 69 de 71 3d
       -0.0112246005 -0.047591865 0.06235944 0.059049997
000370 06 fe 03 bd e6 72 97 3d b7 ed 70 bd bb 9b 1d be
       -0.032224678 0.07394962 -0.058820453 -0.15391438
000380 3f f4 98 ba ed 3d 6e bb c1 ec 38 be dd e1 19 bc
       -0.0011669471 -0.0036352829 -0.18059064 -0.009392229
000390 6d 97 f6 3d 2f 4f 6c 3c a7 51 9b 3d 48 bc ec 3d
       0.12040601 0.014423176 0.07583933 0.11559349
0003a0 13 60 7e 3e 67 b5 a5 3d 28 d6 2a be 90 15 15 be
       0.24841337 0.080912404 -0.16683257 -0.14559007
0003b0 33 1b 20 3e 11 ff b6 bb be f7 dc 3d a8 34 d3 3d
       0.15635376 -0.0055846055 0.107894406 0.10312778
0003c0 6f ab cc 3d cb f6 db bd b9 41 2a bd c2 04 2b 3c
       0.09993636 -0.107404314 -0.041566584 0.010438146
0003d0 f7 04 61 3d e1 9b 5c be cf d4 8b bd c3 63 d4 3c
       0.054936375 -0.21543838 -0.068276994 0.025926476
0003e0 04 a9 a7 3d 9f 0d 03 bd 0f b3 dd 3d a7 a0 44 3e
       0.08186534 -0.031995412 0.10825168 0.19201909
0003f0 ee 06 87 3e 24 92 8a be aa 18 5e bd 45 5e 89 bd
       0.26372474 -0.2706462 -0.05422274 -0.067074336

encoder0.self_attn.out_proj.bias f4 [32]
000000 c1 2c f2 bd 36 c4 86 3e 67 c9 f2 bb 6d 70 d5 3c
       -0.118249424 0.26321572 -0.007409263 0.026054585
000010 27 1a ad bd 66 13 c1 bd ac 16 bb bd 91 3c 45 3e
       -0.08452254 -0.09427528 -0.09135184 0.19261386
000020 97 f7 d6 3c 6f c7 8f 3d aa 2f d5 3d c0 4a ba 3c
       0.026241107 0.07020461 0.10409482 0.022740722
000030 12 a6 53 bd 89 8f 29 3e a0 09 bf 3d 5d c6 7a 3e
       -0.05167205 0.1655866 0.09328008 0.24489732
000040 0b c5 ad bd 9f 20 15 3e a8 5d 83 3d e5 7d 28 3e
       -0.084848486 0.14563225 0.06414348 0.16454275
000050 60 5c 35 be 76 f1 f4 3d e2 cc 4f 3d 89 8b 95 3d
       -0.1771102 0.119601175 0.0507325 0.07302005
000060 cc 42 14 be 14 83 44 bc 65 9f b5 bd 5e 99 90 3d
       -0.14478606 -0.011994142 -0.08868293 0.070605025
000070 6b 39 95 be 61 3e 30 3e 38 98 b6 be d8 a5 09 3d
       -0.2914537 0.17211296 -0.3566301 0.033605427

encoder0.linear1.weight f4 [512, 32]
000000 61 70 83 3c 97 b1 18 3e 5d a4 78 bd 3a c9 c2 bd
       0.016044797 0.14911495 -0.060703624 -0.09511037
000010 c0 37 9c bd be f6 3e 3d 04 2c 18 3e 02 ea dc 3d
       -0.07627821 0.04662203 0.1486054 0.10786821
000020 b7 30 d8 bb 8f 56 a1 bd b2 f8 bc bc b1 68 6e 3d
       -0.006597604 -0.07877838 -0.023067806 0.05820531
000030 11 8e 3b 3d c5 b2 34 3d c1 f6 81 3d 82 8c e3 bd
       0.045789782 0.0441158 0.06345893 -0.11110784
000040 c2 b7 0d 3e 7b 2b ef 3c 90 7e 9c 3d 77 16 ab 3d
       0.1383963 0.029195538 0.076413274 0.08353894
000050 7d 71 15 be 30 14 15 3d 94 97 0c be 99 3c 0b 3e
       -0.14594074 0.036396205 -0.13729697 0.13597335
000060 37 65 18 3e d1 e0 e5 bd 4f f2 1a bd 07 e4 b4 bd
       0.1488236 -0.11224521 -0.03782874 -0.08832555
000070 76 63 f7 3d f0 22 30 be 8b 97 a4 bd 1b 32 82 bd
       0.120795175 -0.17200828 -0.08036717 -0.06357213
000080 d6 15 e8 bd 35 c5 9e bd 54 ac 53 3d 98 86 73 3d
       -0.1133229 -0.07752458 0.051678017 0.05945453
000090 f7 39 42 bc 63 0e f5 3d 6c e5 0d be 3c 63 c7 bd
       -0.01185464 0.11965635 -0.13857049 -0.09735724
0000a0 89 29 87 3d c8 3b 1f be 46 6e db 3d 81 82 e7 bd
       0.06599719 -0.15550148 0.10714392 -0.113041885
0000b0 91 20 11 be f3 0f 19 be df db a5 bd 01 9b b8 3c
       -0.1417258 -0.1494749 -0.08098578 0.02253485
0000c0 dd 7f 1b 3e 49 0d 85 bd 95 5c 3c bd a7 59 f5 bc
       0.15185495 -0.064966746 -0.04598673 -0.029949976
0000d0 a7 87 d0 bd 14 dd 29 3d 17 82 a9 bc 4a 40 ce 3d
       -0.10182124 0.041470602 -0.020691914 0.10070856
0000e0 ab d5 b7 3b 60 40 cf bc b8 4d c1 bd 17 73 e3 3d
       0.005610188 -0.025299251 -0.09438652 0.11105936
0000f0 1f 17 ed bd 0e 41 ed 3d db 50 0e 3e 24 a1 7f 3d
       -0.115766756 0.11584674 0.13898031 0.062409535
000100 04 07 da bd 3a 8c 19 3e 67 62 e6 3d fd bc c7 3d
       -0.106458694 0.14994898 0.112492375 0.097528435
000110 33 f6 f3 3d bb 64 2d be 93 67 ac bd 84 47 92 3d
       0.11912193 -0.16932957 -0.08418193 0.07142547
000120 f5 e4 42 be b0 70 4e bd f8 9d 1b be f4 76 1f be
       -0.19032653 -0.050400436 -0.15196979 -0.15572721
000130 65 b6 21 3d f4 bd f7 3d e7 b3 fc bd 49 1e 1d 3e
       0.039480586 0.120967776 -0.12339001 0.15343584
000140 42 39 08 3e 55 72 b0 bd af 8d 8c 3d 5b 26 07 be
       0.13303092 -0.08615557 0.068629615 -0.13198225
000150 35 eb 13 be 1c de 1a 3e 5b c8 11 3e 0f 8d 9b bd
       -0.14445193 0.1512379 0.14236586 -0.07595264
000160 8f bf 0c 3e e0 69 d3 3c 93 b8 92 3c 95 83 0c be
       0.13744949 0.025807321 0.017910277 -0.1372207
000170 b3 4e 8b bc 08 31 40 3e 10 7d 0d be b7 80 8f bd
       -0.0170053 0.18768704 -0.13817239 -0.07006972
000180 3e 94 0c bd d4 82 04 bd 26 0b 59 3b a1 6d d2 bc
       -0.034321062 -0.03235133 0.0033118217 -0.02568704
000190 ee b9 34 be 8f 84 ae bd 1d 66 34 3d 45 dd 76 b9
       -0.17649052 -0.08521377 0.044042695 -0.00023542818
0001a0 29 e7 11 bd f8 c5 01 be 1e ea b6 3d fc 44 b0 bd
       -0.035620842 -0.12673175 0.08931373 -0.08606908
0001b0 7b 53 e6 bd b1 23 8e bc 14 5f 08 3e b6 93 15 3e
       -0.112463914 -0.017351003 0.1331752 0.14607129
0001c0 52 88 e2 bb 85 9b a7 bd 59 ea 09 3e 76 f1 17 3e
       -0.0069132233 -0.0818396 0.13468303 0.14838204
0001d0 25 05 68 bc af d5 d8 3d 72 ed d1 bc 00 ab 1a be
       -0.014161383 0.10587632 -0.025625918 -0.15104294
0001e0 22 5a 42 3d 08 b5 1b 3e 76 17 87 3c 69 b3 32 bd
       0.04744924 0.15205777 0.01649068 -0.04362813
0001f0 ab 2e a4 bd 13 44 d8 3d 50 26 8c 3b f6 f5 d4 3d
       -0.08016714 0.10559859 0.004277028 0.10398476
000200 f4 01 92 3d eb b5 0c 3e dc 57 9f 3d 74 f3 e8 3d
       0.07129279 0.13741271 0.0778043 0.1137456
000210 2c c7 6c bd 49 c5 cb bc 84 f7 9d 3d cf 32 91 bc
       -0.057807133 -0.024874346 0.077132255 -0.017724423
000220 5d cf a0 3d 75 63 93 bd b9 ef a1 3d 9b 1e e6 3d
       0.078520514 -0.07196704 0.079070516 0.11236306
000230 b5 d8 a2 3d e1 4b 3a 3d 70 4f ca 3c 72 bd 47 bc
       0.0795149 0.04548252 0.024696082 -0.012191163
000240 2b 2b 60 3d 17 2a b8 3d 8e c8 fe 3d 71 80 29 3e
       0.05472867 0.08992403 0.124405965 0.16552903
000250 08 a0 9c 3d 35 49 8f bd f4 be 06 be 12 d4 d1 3d
       0.07647711 -0.06996385 -0.1315878 0.10245527
000260 77 0f 2f be 43 7d 0d be 28 c0 2a be 5a 7c 85 3d
       -0.17095743 -0.13817315 -0.16674864 0.06517859
000270 69 53 70 3c 94 a5 14 3e 71 41 9c bd af 2a d9 bd
       0.014668324 0.14516288 -0.076296695 -0.106038444
000280 e0 a7 b7 3d 3c 86 f7 3d 6a 38 ac bc 8e 65 99 bd
       0.089675665 0.1208615 -0.021022994 -0.07490073
000290 da be 2c be 08 53 96 3d 7e 84 e8 bc ff c4 a3 3d
       -0.16869679 0.07340056 -0.02838349 0.079965584
0002a0 f4 ea 4b be a5 b7 02 3d c6 e7 8e 3d d9 16 02 3c
       -0.19913846 0.03191342 0.06977801 0.007940018
0002b0 2f 48 d1 bd 1f 47 03 3e 61 02 64 3d 24 13 3b 3e
       -0.10218846 0.128201 0.05566633 0.1826902
0002c0 b1 49 54 be 61 c5 42 3d b1 dc 84 3b 19 20 7d bb
       -0.20731236 0.047551516 0.004054629 -0.0038623868
0002d0 4a 53 71 bd 7d 55 4e bd ed d2 db 3c 7d 37 1e be
       -0.05891732 -0.050374497 0.026833976 -0.15450855
0002e0 9e a2 90 ba d9 5f ab bc 44 c1 cc 3d 7a 10 ba bd
       -0.0011034792 -0.020919727 0.099978 -0.09085174
0002f0 56 2d db bd ad d6 95 bd bc 24 e6 3d be f0 64 bc
       -0.107020065 -0.07316337 0.11237475 -0.013973413
000300 b8 82 a9 bd 44 40 d3 bc 0a c2 37 3e ba d2 03 be
       -0.08276886 -0.02578748 0.17945114 -0.12873355
000310 7f 9f 1f 3d c9 79 fa 3d 30 c8 3d 3c 97 29 83 bd
       0.038970467 0.1223026 0.011583373 -0.06404417
000320 91 e6 e6 bd 0f 8c d4 bd 48 bf e4 bd 22 83 2e 3e
       -0.11274446 -0.103782766 -0.111692965 0.1704221
000330 89 99 f7 bd 4f 52 72 bb 2b 03 02 3d 30 f4 0d be
       -0.120898314 -0.003697533 0.031741302 -0.13862681
000340 c7 93 90 bc 35 6e 80 bc 2e 56 ff 3d aa c3 98 3d
       -0.01764859 -0.01567755 0.12467609 0.07459195
000350 32 12 ba 3d e3 3e f2 3d 70 ad 23 be 73 c4 3f 3e
       0.09085502 0.11828401 -0.1598413 0.18727283
000360 b5 b0 45 be eb f2 ab bd 2e c6 e6 3c af 40 2e 3e
       -0.1930569 -0.08395942 0.028170671 0.17016862
000370 a2 fe 47 be 47 2a 20 3c 93 05 81 bd e6 c9 00 be
       -0.19530728 0.009775705 -0.06299891 -0.12577018
000380 64 a3 a4 3d 44 3b 80 3d e9 9c 1f 3e 09 62 a9 3d
       0.08038977 0.06261304 0.155872 0.08270652
000390 98 34 1a 3e ac 6f 90 bd f3 20 0f bc 71 d0 a7 3d
       0.15059125 -0.0705255 -0.008735883 0.08194054
0003a0 dc 16 38 be 21 22 b7 bc 66 ec e8 bb d5 9e 5e bd
       -0.1797747 -0.022355141 -0.007108259 -0.054350693
0003b0 6f 07 b8 bd 34 49 2f 3e 9f 29 0e be 5a d4 09 be
       -0.08985793 0.17117769 -0.13883065 -0.13459912
0003c0 4d 5c 2d 3e a9 a1 a2 bd bc c9 14 3e 61 f1 2e bc
       0.16929741 -0.079409905 0.1453008 -0.010677666
0003d0 69 77 38 bd 49 b5 c0 3c 78 4f d2 bd b5 12 1a 3e
       -0.045035753 0.023523943 -0.10269064 0.15046199
0003e0 2c ae eb 3d af 9c d0 3d 01 53 1c 3d 62 d6 12 3d
       0.1150783 0.10186135 0.038165096 0.035848983
0003f0 ea 10 e0 3d f2 c7 19 3d cc 7f 20 3d 44 af 23 3e
       0.10940726 0.0375442 0.039184377 0.15984827

encoder0.linear1.bias f4 [512]
000000 c7 31 95 bd 55 1b 32 be 9a 4b ee bc 4e eb 14 be
       -0.07284885 -0.17393239 -0.029088784 -0.14542887
000010 23 3b eb bd 6b 4c 2c 3e 35 23 92 3c 55 07 1d be
       -0.11485889 0.16826026 0.017839054 -0.15334828
000020 19 20 31 be 31 ce ee bd 7d 18 ad bd 35 23 b2 bc
       -0.172974 -0.11660422 -0.084519364 -0.021745304
000030 8e 83 91 3d 16 ee f9 3d 76 38 41 3e 13 a3 82 bd
       0.0710517 0.122036144 0.18869194 -0.0637876
000040 a1 e0 0b bd 76 36 c0 bd b7 94 22 be 0d ae 04 be
       -0.03414977 -0.093853876 -0.15877043 -0.1295702
000050 99 7c 77 bd 43 f3 c3 bd 01 60 04 3e da 44 8a bd
       -0.06042156 -0.09567883 0.12927248 -0.06751414
000060 3f d1 5a 3d 77 c0 68 bd b0 04 2b 3e 53 62 20 3e
       0.05342221 -0.056824174 0.16701007 0.15662508
000070 96 ba 37 3e cb e2 72 3d 44 2c 22 3e 1f 00 3d 3d
       0.1794227 0.059298318 0.15837198 0.046142694
000080 d3 5f 24 be 0a da 04 3e f4 cf 31 bc ba 9c 93 bd
       -0.16052179 0.129738 -0.010852803 -0.072076276
000090 3c 20 e0 bb 7c 41 eb bc 85 6d 90 bd 94 4b 0f be
       -0.00683978 -0.028717749 -0.07052139 -0.13993675
0000a0 17 aa 53 bd 90 76 b8 bd 75 c0 19 be a2 67 29 be
       -0.051675882 -0.09006989 -0.15014823 -0.16543439
0000b0 3f df 0c be 9c ed 8f 3d eb 5c 91 bd e1 4a 54 bd
       -0.13757037 0.07027742 -0.07097801 -0.051829223
0000c0 78 b5 bb 3d dc 6c 3d 3c df d9 1b 3e 1a 4b 02 be
       0.09165472 0.011561599 0.1521983 -0.12723961
0000d0 ba a5 2a be 8a 9a 33 3e ec 26 06 3e bb 17 25 be
       -0.16664782 0.1753942 0.13100785 -0.16122334
0000e0 5b 51 fc 3d 10 ef c3 3c 31 b6 ba 3d 6a 01 04 3e
       0.12320205 0.023917705 0.091167815 0.12891164
0000f0 cb fe 41 3d bb 8c de bc 27 4e d6 bc 21 e5 ce bd
       0.04736213 -0.027166715 -0.026160313 -0.101022966
000100 40 01 1c 3e e1 66 31 3e 12 4d 08 be bb 55 58 bd
       0.15234852 0.17324401 -0.1331065 -0.052816134
000110 a9 b7 13 bd 4c 0e 8c bd 53 0b bb 3d a0 47 6a bd
       -0.036063824 -0.068386644 0.09133019 -0.057197213
000120 31 bb 0a 3e d2 34 ae bd c3 a8 22 be c4 34 cf 3b
       0.1354797 -0.085061684 -0.1588469 0.006323429
000130 fe 65 f9 bd 61 3b d6 bd 2f 57 dc 3d 9e 3e ee bd
       -0.121776566 -0.104605444 0.107588165 -0.11633037
000140 46 b1 fb bc 49 f1 25 3e fb 55 5d 3d 59 74 eb 3d
       -0.030724179 0.16205324 0.054037075 0.11496801
000150 fd 7d f9 bd 3e 35 cf bd cc 42 89 bd 95 56 8e bd
       -0.121822335 -0.10117577 -0.067021936 -0.06950108
000160 45 5c 8a 3d 33 4b 59 bd 2f ad 0d 3e 1e 03 df 3c
       0.0675588 -0.05305023 0.13835596 0.027223166
000170 bf da e2 3c 09 b5 84 bd 4f c4 5a 3d 52 62 1c 3e
       0.027692197 -0.06479842 0.05340987 0.15271881
000180 ae 9b 86 3d ba 1d 96 bd a1 4c 12 be 5e ed f2 bd
       0.06572662 -0.07329889 -0.14287044 -0.118616804
000190 85 5d d0 3d 30 71 c7 3d 6c 8d 4b bd c9 b7 57 bd
       0.101740874 0.09738386 -0.049695417 -0.052665506
0001a0 68 28 ef bd 36 03 8f bd 3a 55 09 3e 17 c0 39 3e
       -0.11677629 -0.06983034 0.13411418 0.18139683
0001b0 29 50 00 bc 76 9d a0 bc d7 2c 68 bc b4 d7 3a 3d
       -0.007831612 -0.019606333 -0.014170847 0.045615867
0001c0 76 e5 17 be 8a cc af 3d b8 ec 0a bd 02 67 83 bd
       -0.14833626 0.085839346 -0.03391716 -0.064161316
0001d0 83 8e 1d 3e dd ce c2 3d 6f 3c d9 bd 41 6c 9d 3c
       0.15386395 0.09512112 -0.1060723 0.019216659
0001e0 cb a8 b9 3d d1 2b 52 bc f1 7c 30 be 65 5e 68 3d
       0.09065398 -0.012827829 -0.17235161 0.056730647
0001f0 bf 09 1d 3d 38 a0 36 3e 83 21 26 bc 26 49 9d bd
       0.038339373 0.17834556 -0.010139826 -0.076799676
000200 23 99 ba bd 0c 0b b7 bd 17 a4 2a 3e d4 fc 08 be
       -0.0911124 -0.08937654 0.16664158 -0.13377696
000210 01 dc fb 3d 2f 68 12 be 98 b0 a8 3d 30 11 26 3e
       0.12297822 -0.14297555 0.082368076 0.16217494
000220 d2 d9 50 bd 5a 43 2f be eb f6 06 ba 16 07 a7 bd
       -0.05098898 -0.17115536 -0.0005148488 -0.081556484
000230 ac 1e 6f bd eb d7 e5 3d a5 92 da bd a6 4b 15 bd
       -0.05837886 0.11222824 -0.106725015 -0.036449097
000240 c8 9a 5d 3c 29 ff c2 bd 1a 4f e0 bd df 37 3d 3b
       0.013525672 -0.09521324 -0.109525874 0.0028872413
000250 71 b9 01 3e cb 45 08 3e 11 90 7c 3d bb c3 99 3d
       0.12668397 0.13307874 0.06166083 0.07508036
000260 05 d0 04 3e ef f6 d4 bd 5d 10 15 3e 3f 0e ed 3c
       0.12969978 -0.10398661 0.14557023 0.028937457
000270 fb 0a f1 3d 81 da d1 3d 48 35 34 bd 12 fe df 3d
       0.117696725 0.102467544 -0.043996125 0.10937132
000280 aa 5b 38 3d b0 fe 2d be 53 08 37 3d d1 1a a4 bd
       0.045009293 -0.16991687 0.044685673 -0.08012927
000290 ac 5f fe bc 6d 27 13 3e 61 c9 89 bd ff 4e 16 be
       -0.03105148 0.14370508 -0.06727863 -0.14678572
0002a0 75 54 98 3d ed 90 43 bc 42 8b e7 3d d8 9c 5d 3d
       0.07437984 -0.0119364085 0.11305858 0.054104656
0002b0 88 48 3d 3a c4 96 8b 3d 47 6b 0c be e6 74 87 3c
       0.0007220586 0.06815866 -0.13712798 0.016535234
0002c0 cb cf 4e 3e 14 11 03 bd c5 fb 9e bb f8 67 f2 3d
       0.20196454 -0.03199871 -0.0048517906 0.11836237
0002d0 81 41 79 3c 9d 7f c0 bd 72 73 0c bd 31 38 d3 3b
       0.015213371 -0.0939934 -0.034289785 0.0064459075
0002e0 c8 1f f1 3d b4 2a 87 bd 53 51 a3 bd 68 ff 9c bd
       0.1177364 -0.06599942 -0.07974496 -0.076659024
0002f0 43 f3 7f 3d e5 b7 20 3e 49 f2 50 bb 36 88 85 bd
       0.06248785 0.1569515 -0.0031882694 -0.06520121
000300 b7 e2 da bd 76 a4 05 3e e9 fb dc bd 9a ed 01 be
       -0.10687774 0.13051018 -0.107902355 -0.12688294
000310 60 4e 92 bd 1b 2c 11 3c a2 8d 96 bd 4a 61 b1 3d
       -0.07143855 0.008860613 -0.07351233 0.086611345
000320 41 a7 a2 3d ed 8f d5 bd a7 23 53 bb d2 43 08 be
       0.079420574 -0.10427842 -0.0032217295 -0.13307121
000330 a8 0f ca 3c 25 e3 51 3d 05 fb 79 3c 29 b9 95 3d
       0.024665669 0.051242013 0.015257602 0.07310707
000340 5e a8 f6 3d f9 94 62 bd 19 96 a9 3d c5 b5 cc bd
       0.12043832 -0.055317853 0.08280582 -0.09995607
000350 b1 53 20 bb 32 06 25 3e b1 a6 0a 3e 76 8a 16 3e
       -0.0024463946 0.16115645 0.1354015 0.14701256
000360 fa 4a cf bb ad 32 fc 3b dd 55 cc bd ca d4 1f 3e
       -0.0063260766 0.0076964707 -0.099773146 0.15608516
000370 28 e9 20 be b9 99 9d 3d 52 2d 72 3c 43 e0 14 3e
       -0.15713942 0.07695336 0.014781313 0.14538674
000380 4f c6 14 3e a2 46 1f bb cf da 03 3d 40 53 ee bd
       0.14528774 -0.0024303575 0.032191094 -0.116369724
000390 df ec 1a bd e0 4d ba 3d 84 2e f3 bd 4a fe b0 3d
       -0.037823554 0.09096885 -0.118741065 0.08642252
0003a0 e7 c7 0e 3d e5 04 c1 3d fa 02 11 be 5f cb bb bd
       0.03485861 0.09424762 -0.14161292 -0.09169649
0003b0 55 c9 28 bd be e6 08 3e 46 24 48 bc c7 b3 44 bc
       -0.04120763 0.13369271 -0.0122156795 -0.012005753
0003c0 34 dc 3c 3d 46 8e 16 3d a4 71 f2 bd 31 dc b6 bc
       0.04610844 0.036756776 -0.118380815 -0.022321792
0003d0 32 48 4b 3d 74 e7 0e bd 99 9b b4 bc 76 8f 96 bd
       0.049629398 -0.0348887 -0.022046851 -0.07351582
0003e0 db 5f 2a 3c 7c 39 04 3e 40 72 01 be ce be 98 bd
       0.01039883 0.12912554 -0.12641239 -0.07458268
0003f0 2a ac 89 3d 87 24 df 3d a3 f0 2d 3e 48 79 4e 3d
       0.06722291 0.10895639 0.16986327 0.05040863

encoder0.linear2.weight f4 [32, 512]
000000 5a 77 60 3d 09 ff bf bc f3 54 f8 bc 57 fb 5e bd
       0.054801323 -0.02343704 -0.030313944 -0.054438915
000010 ca 62 03 bd bf ab ae bd 40 c9 94 bd 8f 54 21 bc
       -0.032076634 -0.08528852 -0.07264948 -0.0098468205
000020 d9 4d dd 3c 34 f1 46 bc b4 84 7a bc c2 7e 29 bd
       0.02701466 -0.012142468 -0.015290428 -0.04138065
000030 7c 20 f3 3c 98 2f 21 bd b5 7e 36 bd 19 98 76 3a
       0.029678576 -0.03935203 -0.04455443 0.00094068196
000040 2a f8 51 bd 59 47 3c bd 26 11 19 bd fe 04 5e 3b
       -0.05126206 -0.04596648 -0.03736987 0.0033877487
000050 63 f8 bb bc fb 12 26 bd 4f 71 b3 3c 45 32 35 bd
       -0.022945588 -0.040545445 0.021904616 -0.044237394
000060 1c ae 2d bd e8 d7 29 bd d1 3b 38 bd 43 73 78 bc
       -0.04240237 -0.04146567 -0.04497892 -0.015164199
000070 3e b6 8b bc 15 c7 05 bd 67 cc fc bc b8 81 d0 3c
       -0.017054673 -0.032660563 -0.030859185 0.02545248
000080 64 03 8f 3c a2 25 dc 3c 7c 36 30 3d 18 92 59 bd
       0.017457671 0.026873413 0.04302071 -0.05311784
000090 c6 6a 98 bc 19 ef c0 bc c3 79 50 bc cb d8 b3 3c
       -0.018605601 -0.02355151 -0.012724343 0.02195396
0000a0 b9 06 4e bd 67 6a c6 bc fb 0a 2a bd c6 34 58 ba
       -0.05029938 -0.024220658 -0.041514378 -0.000824761
0000b0 2a 42 64 bd 86 81 8a 3d 81 0c c4 bd ae 92 e4 bd
       -0.05572716 0.06762986 -0.095726974 -0.111607894
0000c0 c6 d6 a9 bc 17 c0 3f 3c 72 24 93 bd 86 d4 b5 bc
       -0.020732295 0.011703513 -0.07184686 -0.022196066
0000d0 6a f0 61 3a 2f 67 76 bd 06 69 08 bd 7d 3c 90 bb
       0.00086188933 -0.060156997 -0.033303283 -0.004401742
0000e0 f4 61 f1 3c d8 98 0b bd 34 3e b3 bd c5 15 7e bd
       0.029465653 -0.03408131 -0.08752099 -0.06203248
0000f0 44 53 37 3c 43 2c 92 bd 1d 2a 9a 3c 53 85 9b 3c
       0.011189286 -0.071373485 0.01881891 0.018984472
000100 b9 65 f7 bb f6 4c 6e bd 11 d7 b8 bb c3 fc 40 3d
       -0.007549968 -0.058178864 -0.0056408723 0.047116052
000110 a2 dd 18 bd 0c af c3 bc 0b 71 1e 3c 13 d4 55 3c
       -0.03732074 -0.02388718 0.009670506 0.013051051
000120 a0 49 eb 3c b5 d3 70 bc 47 6c b8 bc ff 79 ee bc
       0.02872163 -0.014698912 -0.022512568 -0.029110907
000130 c6 64 a5 bd 2d e7 6f bd 7b 54 82 bc 28 86 0f bd
       -0.08075862 -0.058570076 -0.015909424 -0.03504005
000140 3b c2 18 bd 7c dd 99 bc 3d c6 77 bd 9d 69 21 bd
       -0.037294608 -0.01878237 -0.06049179 -0.03940736
000150 7d 5e cb bc 1b 3b 57 bd 7f 4d 8b 3b a8 e5 8f bd
       -0.024825329 -0.0525466 0.0042511816 -0.07026225
000160 ab 46 db bd 92 f9 ac bc b6 a7 9e bd 0b a6 81 bc
       -0.10706838 -0.021115098 -0.07746832 -0.015826246
000170 76 f3 dc bd aa e5 11 3d f7 9a 81 bc f4 13 47 bd
       -0.10788624 0.035619415 -0.015820963 -0.048603013
000180 43 47 21 bd f2 aa cd 3c 25 d6 eb 3a f8 6f 8c bd
       -0.0393746 0.025105927 0.0017992897 -0.06857294
000190 2e 10 32 bd 47 0e b8 bc f5 77 26 bd 58 bd a3 bb
       -0.04347246 -0.022467745 -0.040641744 -0.004996937
0001a0 8b 41 a1 bb 7a da e6 bc 62 7e a2 bc 90 8c eb bd
       -0.0049211434 -0.02818035 -0.019835655 -0.115014195
0001b0 bf db c0 3c eb e3 e1 bd 3e 14 07 3d 08 cd 43 3d
       0.023542283 -0.110298 0.03297829 0.047802955
0001c0 fd 82 ae 3c 42 fa ce 3c 9f 3b 8a bd a7 97 15 bc
       0.021302694 0.025265817 -0.06749653 -0.009130395
0001d0 52 b8 0f be 04 3f 00 bd 2d f9 2a bd d9 4c 5c bc
       -0.14035156 -0.031310096 -0.04174154 -0.013446056
0001e0 8a 0b b7 bc 96 3f 96 bb 1b 16 a6 bc 18 ea 5f bd
       -0.02234437 -0.0045852168 -0.020274213 -0.05466661
0001f0 3d c6 f5 bd 5b 2b fd bc bb fc 5e 3c 9b 7e 04 bb
       -0.120007016 -0.030904463 0.01361006 -0.0020217064
000200 e3 43 c1 bb c9 ff 0a bd 6c c9 69 3c 25 35 bc bb
       -0.0058979853 -0.033935342 0.014269214 -0.00574364
000210 25 8d 82 b7 b0 46 a2 3b 17 8f cd bd 9f e8 e2 3c
       -1.5562933e-05 0.0049522743 -0.10037058 0.027698813
000220 43 ff 56 bd a4 53 b6 bc 51 c0 0c bb 29 68 c1 bd
       -0.05248953 -0.02225668 -0.0021476934 -0.09443695
000230 53 4a cf bc f1 47 a1 3c 19 75 f4 bc 44 9f 69 bd
       -0.025303995 0.019687625 -0.029840993 -0.057036653
000240 03 ac 1c bd b7 ec 3b bb 7b c7 8b bd 5c 56 93 bb
       -0.03824998 -0.0028675029 -0.06825157 -0.004496379
000250 04 4f 07 bc a0 69 51 3d dc c0 5f bd 84 5a eb 3b
       -0.008258585 0.051126122 -0.054627284 0.007182421
000260 07 d6 27 3d 64 6f 82 bd be d5 55 3c ec 2a f4 3c
       0.040975597 -0.06368902 0.013051448 0.029805623
000270 dd 8f b4 bd 9b e5 0a 3d 4b 13 0f 3c ff bb b5 bc
       -0.08816502 0.033910375 0.008732627 -0.02218437
000280 09 ec d0 3c 5a ec a8 bc 17 ae 02 bc a0 a1 9e 3d
       0.025503175 -0.020620514 -0.007976077 0.07745671
000290 e3 32 23 3d 36 85 ce bd 8f e9 5e 3c 38 a8 27 bb
       0.03984345 -0.10084002 0.013605489 -0.0025582444
0002a0 50 2e 3a bd 94 1d a8 bd f0 58 55 bc d2 88 ab bc
       -0.045454323 -0.082087666 -0.013021693 -0.020939264
0002b0 4c 4e 7d 3c 8a c8 9a bd be c4 3d bc cc a9 8a bd
       0.015460562 -0.07557781 -0.0115825515 -0.067706674
0002c0 97 51 4d bd dc 89 00 3d 66 ee 42 3c 1f 12 30 bd
       -0.05012664 0.031381473 0.011897659 -0.04298603
0002d0 85 a7 f3 3c 6a 8f 71 bd 3f f1 83 bd 2b 7c 14 bd
       0.029742965 -0.05897466 -0.064424984 -0.03625123
0002e0 7c ac ff bb f1 e1 15 bb e8 b1 2d 3d ad d9 56 3a
       -0.007802544 -0.0022870267 0.042405993 0.00081958884
0002f0 2f 6d 28 bc 26 62 b2 bd 22 61 9d bc fd e6 91 bc
       -0.010279938 -0.087101266 -0.019211356 -0.01781034
000300 31 97 10 bd 06 e8 ab bc 04 05 b3 bc 22 3a 49 bd
       -0.035300437 -0.02098466 -0.021852978 -0.049127705
000310 76 03 af bb 08 64 c6 bc 58 ad 39 bd 63 be c6 bd
       -0.0053409887 -0.02421762 -0.04533133 -0.09704282
000320 fc 61 20 ba 1d c5 0c bd cb 07 ac bd b6 e6 7f bd
       -0.00061181164 -0.03436767 -0.08399924 -0.062475882
000330 4b d6 45 bd ee c6 b5 3c 9f e5 5b 3c 22 2f b9 bd
       -0.04830007 0.022189584 0.013421445 -0.09042193
000340 79 94 3d bd ef e6 8c bc 3f 5d c8 bd 51 94 3e bd
       -0.046284173 -0.017199961 -0.0978341 -0.046528164
000350 1f c7 91 bd 13 ca bc bc f4 83 fe bc a6 90 8f 3c
       -0.071180575 -0.023045575 -0.03106878 0.017525028
000360 4a f5 9d 3c 23 7e 99 3d 1f 38 f9 bc e2 b1 84 bd
       0.019282002 0.07494762 -0.030422268 -0.06479241
000370 49 ac 8a bd fd bf 8e 3b b4 41 8d bd 48 bc 4e bc
       -0.06771142 0.004356383 -0.068972975 -0.012618132
000380 d7 14 83 bd ea 51 6a bb 16 92 45 bc a4 0b 80 bd
       -0.06400459 -0.003575439 -0.012058755 -0.0625222
000390 88 5d e7 bc 3c f6 b2 bd fe 09 ab bd 92 66 8a bd
       -0.028242841 -0.08738372 -0.08351515 -0.06757845
0003a0 56 8c b8 3b 35 2d 83 3c 87 a6 ef bc cc 47 35 bc
       0.0056319637 0.016012767 -0.029254211 -0.011064481
0003b0 ee 67 12 3c a4 46 ae bd c0 34 ec bd 85 50 24 bd
       0.008935912 -0.085095674 -0.11533499 -0.040115852
0003c0 bf 6a 0c 3d 62 c8 1a bd cb 10 ab bd 08 1c ae bc
       0.03428149 -0.037788756 -0.083528124 -0.0212536
0003d0 06 20 98 3b b5 55 85 bc f5 48 14 bc d2 bb 71 bd
       0.0046424894 -0.01627622 -0.009050597 -0.05901701
0003e0 27 65 2c 3c 06 92 2d bb 0f 6e 81 3b dc 9d 72 3d
       0.0105221635 -0.0026484742 0.0039498876 0.059232578
0003f0 3e ea 1f bc a5 3e 87 bd a1 52 85 bc 19 1d 2a 3d
       -0.0097604375 -0.06603745 -0.016274752 0.041531656

encoder0.linear2.bias f4 [32]
000000 07 23 ab bd 10 26 8e bd 93 18 69 bc 16 d6 20 3d
       -0.0835629 -0.069408536 -0.01422705 0.03926667
000010 df 0b c3 bc 25 34 3c 3d 51 de 12 bd c9 3a ef 3a
       -0.023809372 0.045948166 -0.03585655 0.0018251772
000020 f1 16 b0 3d 1d 5c 97 bd 33 9b a9 bd 20 5b 45 bd
       0.08598126 -0.07390616 -0.08281555 -0.048182607
000030 cd a3 48 bc d7 84 9c 3d 7b fa 30 bd 05 f0 70 3d
       -0.012246084 0.07642525 -0.043207627 0.05882265
000040 8a b8 3c 3d b5 c0 d2 3d bb f9 5f bd ef 50 63 3d
       0.046074428 0.10290662 -0.05468152 0.055497106
000050 59 08 78 bd 3e 79 93 3c 36 0d 25 3c 06 29 49 3b
       -0.060554836 0.018002149 0.0100739505 0.0030694618
000060 a1 8d ae 3d 35 36 1d bd a7 00 b8 bd 1d b4 f2 3a
       0.08523107 -0.038381774 -0.089844994 0.0018516813
000070 47 98 20 3d 55 da 11 3d d2 83 bc bd 20 dc d1 bc
       0.039207723 0.03560861 -0.0920483 -0.02561766

encoder0.norm1.weight f4 [32]
000000 54 8b 90 3f 1a 54 8c 3f 0a 1c 60 3f 83 02 6c 3f
       1.129252 1.0963166 0.87542784 0.9219133
000010 28 db 63 3f 42 66 78 3f 02 4f 58 3f 79 2c 83 3f
       0.8900628 0.97031033 0.84495556 1.0247947
000020 e3 75 80 3f 3f a1 71 3f 52 50 66 3f 9b ab 6b 3f
       1.0035976 0.94386667 0.8996631 0.92058724
000030 48 25 5b 3f d2 6f 6f 3f 91 f5 63 3f 9d ee 93 3f
       0.8560376 0.9353 0.8904658 1.1557194
000040 da 56 98 3f d6 45 75 3f 48 e2 6a 3f 64 a9 7c 3f
       1.1901505 0.95809686 0.9175153 0.9869597
000050 6f 7f 89 3f 3d d1 73 3f 04 6d 61 3f 70 cf 75 3f
       1.0742015 0.9524115 0.8805697 0.9601965
000060 5d 6b a0 3f 83 eb 69 3f 9d b1 5a 3f bf 58 65 3f
       1.2532765 0.9137499 0.85427266 0.8958854
000070 91 a1 a9 3f 81 51 7c 3f d0 10 8a 3f d9 9f 6d 3f
       1.3252431 0.98561865 1.0786381 0.92822033

encoder0.norm1.bias f4 [32]
000000 1e 27 59 be 3c 9d 8a 3d 79 23 34 bc d8 cc 8b 3d
       -0.21206328 0.06768271 -0.010994785 0.0682618
000010 91 8f fc bd 65 3e df bc ca 60 e8 bd ca 70 2d 3d
       -0.123320706 -0.027251432 -0.11346586 0.042343892
000020 8c 9f 98 bc 7f a7 4c 3d f7 00 06 3a 36 c2 1b 3d
       -0.018630765 0.049964424 0.0005111838 0.03802701
000030 40 07 e2 bd c5 96 66 3d bc ce 21 3d 2b 90 54 3e
       -0.11036539 0.05629613 0.039503798 0.2075812
000040 57 4f 31 be 3e 93 16 3e aa e0 b4 3d 1e 2a 90 3d
       -0.17315422 0.14704606 0.08831914 0.07039283
000050 9c 5c 71 be 26 42 fe 3d c6 77 5e 3d 7b e7 43 3d
       -0.23570484 0.124149606 0.054313444 0.04782818
000060 e1 88 07 bc 40 c5 0c 3d 24 8a 36 bd 0a fc c8 3d
       -0.008272381 0.0343678 -0.044565335 0.09813698
000070 3c 13 1a be 96 90 00 3e e1 9f 26 be fe c6 32 3d
       -0.150464 0.12555155 -0.16271926 0.043646805

encoder0.norm2.weight f4 [32]
000000 53 bf 28 3f a7 06 71 3f b1 ac 75 3f de 97 6a 3f
       0.6591694 0.94150776 0.9596663 0.9163798
000010 b2 ee 72 3f 1d 66 60 3f e3 e4 35 3f 58 1c 62 3f
       0.9489547 0.8765581 0.7105238 0.883245
000020 a5 9b 7a 3f d8 cd 72 3f d7 de 71 3f ea 13 7c 3f
       0.97893745 0.9484534 0.9448065 0.98467886
000030 16 1e 74 3f 0d 1e 55 3f f2 00 78 3f a1 22 1c 3f
       0.9535841 0.8324898 0.9687644 0.6099034
000040 cd af 79 3f 7c 66 0f 3f 6e 37 72 3f b1 6e 55 3f
       0.97533876 0.56015754 0.9461583 0.83372027
000050 e0 83 18 3f 51 b1 57 3f d4 dd 6f 3f 85 e8 7a 3f
       0.59576225 0.8425494 0.9369786 0.98011047
000060 70 df 86 3f 34 ed 76 3f 02 d6 39 3f 2c 5a 72 3f
       1.0536938 0.96455693 0.72592175 0.9466884
000070 1c 78 80 3f b2 d8 5d 3f f1 36 40 3f ec 0d 79 3f
       1.0036654 0.86658776 0.75083834 0.9728687

encoder0.norm2.bias f4 [32]
000000 92 b5 3a 3e 54 2c d8 bc 40 c0 c4 3b b1 50 05 bd
       0.18233326 -0.026388325 0.0060043633 -0.032547656
000010 5b d4 41 bb 66 14 df 3c 17 dd 12 3e 6a c8 d3 bd
       -0.0029576037 0.027231406 0.14342152 -0.1034096
000020 f8 45 17 3e ec 96 a6 bc ba 89 91 bb b4 cd 1c bb
       0.14772785 -0.020335637 -0.004441467 -0.002392632
000030 72 b2 1c bd f8 66 f3 bd f1 56 1e bd 70 36 41 be
       -0.038256116 -0.11884874 -0.038657133 -0.18868423
000040 1e 90 8a 3d 41 a9 2f be c2 f2 1b bd 54 8c cd bd
       0.067657694 -0.17154409 -0.03807331 -0.10036531
000050 d8 e6 26 3e 43 0c cd bd 8b 0e 52 bd 0c 2c 14 bd
       0.16298997 -0.10012104 -0.0512834 -0.03617482
000060 4c f0 c8 3d b0 65 d1 3c d7 b0 07 3e 56 d2 0d bd
       0.09811458 0.025561184 0.13251053 -0.03462442
000070 d5 68 a1 3d 2e 6b 00 be ab aa 22 3e b1 1a f2 bb
       0.07881323 -0.12540886 0.15885417 -0.007388436
