model_weights/50epochs_1.0.2.pth (torch_old, 265714 bytes, 12 tensors)

conv1.weight f4 [10, 5, 4]
0	0xbbb270c8	-0.0054455735
1	0xbe4a97c1	-0.19784452
2	0x3de6c986	0.11268906
3	0x3cd48e5f	0.025946794
4	0xbe60f5a3	-0.21968703
5	0xbe09199a	-0.13388672
6	0xbe832bd1	-0.25619367
7	0xbd4fd827	-0.05074325
8	0xbe72d235	-0.23713
9	0x3e9782da	0.2959202
10	0x3d2e347d	0.042530525
11	0xbeab071c	-0.33403862
12	0xbd9a5c3e	-0.07537125
13	0x3edc387f	0.43011853
14	0xbec7089a	-0.3887375
15	0xbea9f025	-0.33191028
16	0xbf066af7	-0.52506965
17	0xbf124677	-0.5713877
18	0x3d8bfe40	0.06835604
19	0x3eb19480	0.3468361
20	0x3d7badb7	0.061444964
21	0x3decd3db	0.11563846
22	0xbdb48268	-0.088139355
23	0x3d25c003	0.04046632
24	0x3dce145e	0.100624785
25	0x3db39855	0.087692894
26	0xbe8e5b6e	-0.2780413
27	0x3c998773	0.018741345
28	0x3e07b916	0.13254198
29	0x3e193d77	0.14964853
30	0xbede9d2b	-0.43479285
31	0xbe42e5f9	-0.1903304
32	0xbe069bbc	-0.13145345
33	0x3e142e75	0.14470847
34	0x3eb2e1b8	0.34937835
35	0xbe39801d	-0.18115278
36	0xbe83451b	-0.2563866
37	0xbe99a2f4	-0.30007136
38	0x3f4de642	0.8042947
39	0x3ddda72e	0.108229026
40	0xbe0f6752	-0.14004257
41	0x3c530d41	0.012881578
42	0x3e086b3b	0.13322155
43	0xbd115d8b	-0.0354896
44	0x3e460edf	0.1934161
45	0xbe6c1f39	-0.23058785
46	0x3ed22daa	0.41050464
47	0x3babaaad	0.005238852
48	0x3e9783b8	0.2959268
49	0xbe6b3c89	-0.22972311
50	0x3e28140e	0.164139
51	0x3d71ff51	0.05908138
52	0xbf0d54b3	-0.55207366
53	0xbed591ce	-0.41712803
54	0x3d7bc65d	0.06146847
55	0xbedc1b82	-0.42989737
56	0x3ed42ca6	0.41440314
57	0x3cfe2220	0.031022131
58	0xbd9e0409	-0.077156134
59	0x3e092701	0.13393785
60	0xbe39f580	-0.18160057
61	0xbe1bf140	-0.15228748
62	0xbe16d743	-0.14730553
63	0xbe118d53	-0.14214067
64	0xbe8eb9f1	-0.27876237
65	0xbe30c618	-0.17263067
66	0xbd361517	-0.044453707
67	0xbe143052	-0.14471558
68	0x3dd216d9	0.10258264
69	0xbe8de014	-0.2771002
70	0x3e0a5c72	0.13511828
71	0xbe824e51	-0.25450376
72	0xbe34bd12	-0.1765025
73	0xbf73471b	-0.95030373
74	0xbe9a65a4	-0.3015567
75	0xbdf95dd1	-0.12176097
76	0xbf3c9f8c	-0.7368095
77	0x3d921878	0.07133573
78	0xbe5bede7	-0.21477471
79	0xbdc5390f	-0.09630024
80	0xbce3f7b1	-0.02782807
81	0x3d40369a	0.046927072
82	0xbc596cec	-0.013270598
83	0xbcf88742	-0.030337933
84	0x3e11a5ab	0.14223354
85	0xbd8baf12	-0.068205014
86	0xbe08eafd	-0.13370891
87	0xbe31e733	-0.17373352
88	0x3ef1a608	0.47196984
89	0xbbf47199	-0.007459831
90	0x3da5c573	0.08094301
91	0xbcc9ad78	-0.02461885
92	0x3f0f3f04	0.5595553
93	0xbdcd3c61	-0.10021282
94	0x3e89bdaf	0.2690253
95	0x3e2f16db	0.17098562
96	0x3e2dd3ad	0.16975279
97	0xbdb2a206	-0.0872231
98	0xbd6f330b	-0.058398288
99	0x3e6291ee	0.2212598
100	0xbe139d7d	-0.14415546
101	0xbd29f8b7	-0.04149696
102	0xbe08cae0	-0.1335864
103	0xbdfe398d	-0.12413321
104	0xbd8393e0	-0.06424689
105	0xbdd5f2a4	-0.10446671
106	0x3ddd0e7a	0.10793777
107	0xbe072686	-0.1319829
108	0x3abfe8f4	0.0014641569
109	0xbe047790	-0.12936234
110	0xbce7c8fd	-0.02829408
111	0xbe0bf11f	-0.13666199
112	0x3d733cdf	0.059384223
113	0x3d56d099	0.052445028
114	0x3ccf4bf4	0.025304772
115	0xbe621735	-0.22079165
116	0x3dc12677	0.09431165
117	0x3f2a7869	0.6658998
118	0x3d2d9a74	0.042383626
119	0xbf85f6e9	-1.0465976
120	0x3dbee04d	0.09320126
121	0xba26f798	-0.0006369292
122	0x3e7d0a5e	0.24710986
123	0xbe0e0439	-0.13868798
124	0x3e8413e0	0.25796413
125	0xbbf8911c	-0.0075856578
126	0x3d5f315c	0.054490432
127	0xbd242d90	-0.040082514
128	0x3d6335c2	0.05547119
129	0x3e1c56d2	0.15267494
130	0xbd8514e1	-0.06498123
131	0xbda9c4a6	-0.08289461
132	0x3c91b279	0.017785298
133	0x3ea23bcb	0.31686243
134	0x3d4f4852	0.05060608
135	0xbee07361	-0.43838027
136	0x3d0eb8a0	0.03484404
137	0x3f2f9cf5	0.6859887
138	0xbf1885ad	-0.59578973
139	0xbf049e7b	-0.5180432
140	0xbd91ee08	-0.07125479
141	0xbe123294	-0.14277107
142	0xbdf684fb	-0.12037083
143	0x3e0b0c94	0.13579017
144	0xbe602cc8	-0.21892083
145	0xbe9a2414	-0.3010565
146	0xbe406b62	-0.18790963
147	0xbd289a6d	-0.041162897
148	0x3e7cd5ee	0.24690983
149	0xbe6375ae	-0.2221286
150	0x3bee977d	0.0072812424
151	0x3e9b47c5	0.30328193
152	0x3d8d26c3	0.06892159
153	0xbe3c96d9	-0.18416919
154	0xbe8e6593	-0.2781187
155	0x3ec565f9	0.3855436
156	0xbea7cd5a	-0.32773858
157	0xbec62f5b	-0.38708004
158	0xbef10dd9	-0.47080877
159	0xbcc5fad0	-0.024167448
160	0x3df046b5	0.11732236
161	0x3d737bc2	0.059444197
162	0xbd8802a9	-0.066411324
163	0xbdf368c3	-0.11885216
164	0xbd75ae81	-0.059980873
165	0x3cd6d87e	0.026226278
166	0xbe2327f2	-0.15933207
167	0xbe69e79b	-0.22842257
168	0x3d9935cc	0.07480964
169	0xbd618359	-0.055056904
170	0x3ac86a24	0.0015290421
171	0xbdc91fad	-0.09820495
172	0xbea2cb98	-0.31795955
173	0x3c9decd6	0.019277971
174	0xbef35b30	-0.47530508
175	0x3e425bba	0.18980303
176	0x3e47b92f	0.19504236
177	0xbe4b8ee8	-0.19878733
178	0x3f0acd3c	0.5421941
179	0x3df7701e	0.120819315
180	0xbdcbdebf	-0.09954595
181	0xbd8fe577	-0.07026189
182	0x3dd8c4b7	0.105843954
183	0x3c9916ab	0.018687567
184	0xbdbd5a27	-0.09245711
185	0x3da953a1	0.08267904
186	0x3e447bf5	0.19187911
187	0x3b33a3c1	0.0027410837
188	0xbe62d25e	-0.22150561
189	0x3dee5827	0.116379075
190	0xbd92a502	-0.07160379
191	0x3e871694	0.26384413
192	0x3f074e98	0.528543
193	0xbe7ee40f	-0.24891685
194	0xbe1f53ae	-0.15559265
195	0x3db7e603	0.08979418
196	0xbd0f6fed	-0.03501885
197	0x3ec20d2f	0.37900683
198	0x3efbfce2	0.49216372
199	0xbd0c492a	-0.034249462

conv1.bias f4 [10]
0	0xbdb0bf75	-0.086302675
1	0xbef4916d	-0.477672
2	0x3e1a6b5e	0.1508002
3	0x3d5d7e85	0.054075737
4	0xbdbf2d11	-0.093347676
5	0xbdc5e095	-0.09661976
6	0xbe89014a	-0.26758796
7	0x3e02cb85	0.12772949
8	0xbccb61d7	-0.024826927
9	0xbee59dfb	-0.44847092

fc0.weight f4 [64, 290]
0	0xbaaf8168	-0.0013390006
1	0x3b6d238d	0.003618452
2	0x3d1b934f	0.03798228
3	0xbc8efbdf	-0.017454086
4	0x3b8fb0c9	0.004385088
5	0x3c8538ee	0.016262498
6	0xbc2428e8	-0.010019518
7	0xbaea3ee1	-0.0017871523
8	0xbbf77713	-0.0075520365
9	0xbbaf1989	-0.00534362
10	0x3d20c875	0.03925367
11	0x3aaa4701	0.0012991132
12	0xbd5977d6	-0.0530928
13	0xbcb06de3	-0.021536773
14	0x3cb17780	0.021663427
15	0xbc09ba36	-0.008406213
16	0x3da97c45	0.08275656
17	0x3d3b6046	0.04574611
18	0x3c1f2552	0.009713488
19	0xbd4861f6	-0.048921548
20	0xbab91b0d	-0.0014122442
21	0x3b50d3b0	0.0031864457
22	0x3b269f74	0.0025424631
23	0xbdaa6cae	-0.0832151
24	0xbd2c674a	-0.04209069
25	0xbd0da484	-0.034580722
26	0xbdcd8910	-0.10035908
27	0xbcd41be7	-0.025892211
28	0xbcc7d4c3	-0.024393445
29	0x3c3cf30e	0.011532558
30	0x3b64c9b6	0.0034910268
31	0x3a8c1028	0.0010685967
32	0x3ba8d6d8	0.0051525645
33	0xbcc2fc0f	-0.023801832
34	0x3cc57657	0.02410428
35	0xbd4cf470	-0.0500378
36	0x3d828897	0.06373709
37	0xbd2f69c0	-0.04282546
38	0x3cd80ef0	0.02637431
39	0x3ca151be	0.019692298
40	0xbce62d06	-0.02809764
41	0xbd29e4f8	-0.041478127
42	0xbc5ff127	-0.013668335
43	0x3d89de06	0.06731801
44	0x3cf0e12f	0.02940425
45	0x3cc76b1b	0.024343064
46	0x3c03ab98	0.008036517
47	0xbccc45fa	-0.024935711
48	0x3d76b894	0.06023462
49	0xbd613d6f	-0.05499023
50	0x3c960295	0.018311778
51	0x3d8e904b	0.069611154
52	0x3cecfe62	0.028929893
53	0x3d258fdf	0.04042041
54	0x3af01465	0.0018316625
55	0x3db4f41a	0.08835621
56	0x3da2b318	0.07944316
57	0x3e3d3d1b	0.18480341
58	0x3cac1470	0.02100584
59	0x3b089a3e	0.0020843889
60	0xbcfc95ca	-0.030833144
61	0x3d4bf87f	0.04979753
62	0x3da59390	0.08084786
63	0xbcc90359	-0.02453773
64	0x3cc7c075	0.024383763
65	0xbcfea12f	-0.031082718
66	0xbc961f48	-0.018325463
67	0xb8fad976	-0.00011961434
68	0xbdabd88d	-0.08390913
69	0x3d470bca	0.048595227
70	0x3d2734b3	0.040821742
71	0x3c8da390	0.017289907
72	0x3d79ef32	0.06101913
73	0xbcb1ce0c	-0.021704696
74	0x3cf481c9	0.029847043
75	0xbcb77792	-0.022395883
76	0x3cf7bf23	0.030242508
77	0xbd5b254f	-0.053502377
78	0xbc397fde	-0.01132199
79	0x3c82b8cf	0.015957264
80	0x3d7b9dd1	0.061429802
81	0xbca9cb40	-0.0207268
82	0x3db58d99	0.08864898
83	0xbd2bc356	-0.041934334
84	0x3c549132	0.01297407
85	0xbdaaaed8	-0.0833413
86	0x3dda435b	0.10657378
87	0x3d7bcde0	0.061475635
88	0xbcce111f	-0.025154648
89	0x3cc13ba0	0.023588002
90	0x3b26a97a	0.0025430606
91	0xbd977a71	-0.07396401
92	0x3c1377cd	0.009000731
93	0x3bba8adf	0.0056928243
94	0x3c655df0	0.013999447
95	0x3d4b7b5c	0.04967819
96	0xbccf0d8a	-0.02527501
97	0xbc32bbbc	-0.010909017
98	0x3b4fdc52	0.0031717014
99	0xbddccbe9	-0.1078108
100	0xbd52e35c	-0.051486358
101	0x3cded06a	0.027198989
102	0xbda0e167	-0.07855492
103	0xbc118a23	-0.008883032
104	0x3d804360	0.06262851
105	0x3b153c9f	0.0022771729
106	0x3cf87360	0.030328453
107	0xbd11f73e	-0.03563618
108	0xbd995cca	-0.07488401
109	0x3c37bb54	0.011214096
110	0xbd24665c	-0.04013668
111	0xba0dabbe	-0.0005404315
112	0xbcc64ee1	-0.024207534
113	0xbcb941dc	-0.022614412
114	0xbc9d3522	-0.019190375
115	0x3c1a87a6	0.009431755
116	0x3c237c8b	0.009978424
117	0xbd19d299	-0.037554357
118	0xbc432f80	-0.01191318
119	0x3d015515	0.03157528
120	0xbca999e3	-0.020703262
121	0x3d2e3e6b	0.042539995
122	0x3c10fe60	0.00884971
123	0xbbddbdf1	-0.0067670275
124	0x3d749ef9	0.05972192
125	0xbc9eadb5	-0.01936994
126	0xbd77e70b	-0.060523074
127	0xbc60a62b	-0.0137114925
128	0xbcf7564a	-0.030192513
129	0x3d4ca3e0	0.04996097
130	0xbd2a3566	-0.04155483
131	0x3b43acb8	0.0029857587
132	0x3ca12dab	0.019675096
133	0x3ccbb280	0.024865389
134	0x3c4a4bc8	0.012347169
135	0xbc4cd0d8	-0.012500964
136	0xbc7b53d9	-0.015339815
137	0x3cabefe7	0.020988418
138	0xbb1cd19c	-0.0023928648
139	0x3c0d8c34	0.008639384
140	0xbd85c301	-0.06531335
141	0xbcf93362	-0.030420009
142	0xbcddf5c9	-0.027094739
143	0x3be56bbc	0.0070013683
144	0x3dc111f5	0.09427253
145	0x3d266e58	0.040632576
146	0x3c840db1	0.01611981
147	0x3c619444	0.013768259
148	0xbcb8b970	-0.022549361
149	0x3d59c4e7	0.053166296
150	0x3c73ecf3	0.014888036
151	0x3c28332d	0.0102661075
152	0x3cd3a49c	0.025835328
153	0x3c3c1e7c	0.011481877
154	0xbd5cc001	-0.053894047
155	0x3cb25a04	0.021771438
156	0xbd1c0e13	-0.03809936
157	0xbcf45567	-0.02982588
158	0x3d1e0eee	0.038588457
159	0x3bc0ea41	0.0058873002
160	0xbd223326	-0.03959956
161	0x3d943f04	0.07238582
162	0x3c731f4b	0.014839004
163	0x3d2afc8a	0.041744746
164	0xbc8dfb16	-0.017331641
165	0x3c9cc0d9	0.019134926
166	0x3d0c3145	0.034226675
167	0x3dacac29	0.084312744
168	0x3dd769cd	0.10518227
169	0x3c87783b	0.016536823
170	0xbd2fe74f	-0.042945202
171	0xbc528e6e	-0.012851341
172	0x3d39f938	0.04540369
173	0xbc857c8e	-0.016294744
174	0xbc189f58	-0.009315334
175	0x3c9b8647	0.018984927
176	0x3ce788f5	0.028263548
177	0xbd579dc3	-0.052640688
178	0x3caa8591	0.020815643
179	0xbc13e438	-0.00902658
180	0x3b07546d	0.0020649687
181	0xbc74ae69	-0.014934161
182	0x3c857501	0.016291143
183	0x3d8a7190	0.067599416
184	0x3ae584fe	0.0017510948
185	0xbc9f9110	-0.01947835
186	0x3d100d3e	0.03516888
187	0xbd4956bd	-0.049154986
188	0x3d7e4f3e	0.06208729
189	0xbc96fd6e	-0.018431392
190	0x3c9faa3d	0.019490356
191	0x3d0d44a8	0.034489304
192	0x3cadf10b	0.021233102
193	0x3ca3520a	0.01993658
194	0x3c9de0f9	0.019272314
195	0xbd376c16	-0.044780813
196	0xbce68574	-0.028139807
197	0xbcb893a4	-0.022531338
198	0xbc8d7f20	-0.017272532
199	0xbd9f9b0d	-0.077932455
200	0x3d4c99f8	0.049951524
201	0xbd84e20b	-0.06488427
202	0x39b82610	0.00035123574
203	0xbb473f1b	-0.0030402604
204	0xbd422e00	-0.04740715
205	0xbd55a325	-0.05215754
206	0x3c0969c8	0.008387037
207	0x3d7c2a8c	0.061564013
208	0x3d952cba	0.072839215
209	0xbb8d596b	-0.004313638
210	0x3d0e1418	0.03468713
211	0x3c2a2a0d	0.010386002
212	0xbd0ae02a	-0.033905186
213	0xbda443a2	-0.080207124
214	0xbd4abcac	-0.049496338
215	0xbd26c75b	-0.040717464
216	0xbce85a6a	-0.028363425
217	0x3d74954d	0.059712697
218	0x3d1712d5	0.036883194
219	0x3d82e592	0.06391443
220	0xba96e272	-0.0011511578
221	0xbd546b18	-0.051859945
222	0xbca5a72b	-0.020221313
223	0x3c08a8a6	0.00834099
224	0x3cd2439a	0.025667
225	0xbcb27863	-0.02178592
226	0x3c8887b3	0.016666269
227	0xbb92e895	-0.0044832923
228	0xbc312001	-0.010810853
229	0xbd37a6a4	-0.044836655
230	0xbd21dc04	-0.039516464
231	0x3d7166ed	0.05893605
232	0x3c7dcd3d	0.015490827
233	0x3bf430cf	0.0074521075
234	0x3d3f12f2	0.046648927
235	0xbd77b8a8	-0.060478836
236	0x3d8cb80f	0.06871044
237	0xbc84983d	-0.016185874
238	0xbd498b45	-0.049205083
239	0x3c57e5ec	0.013177376
240	0xbb9f2cd9	-0.004857641
241	0xbd2df5bf	-0.04247069
242	0xb91a5c50	-0.00014720974
243	0xbb352299	-0.002763903
244	0xbcba2957	-0.02272479
245	0x3c8173e3	0.01580233
246	0x3cf77fbc	0.030212276
247	0xbcea248b	-0.028581878
248	0x3cfc6624	0.030810423
249	0x3cfe1cc4	0.031019576
250	0x3d9832c3	0.07431557
251	0xbd728be1	-0.05921543
252	0x3c890cde	0.016729768
253	0xbce86714	-0.028369464
254	0x3dfd8539	0.12378926
255	0xbd298f8b	-0.04139666

fc0.bias f4 [64]
0	0xbd9b4db9	-0.07583184
1	0xbc4c9884	-0.012487534
2	0x3d47bb6d	0.048762728
3	0xbe08f338	-0.1337403
4	0xbcdc199e	-0.026867684
5	0x3d3d83db	0.046268325
6	0xbd627e49	-0.055296216
7	0xbc05ce2c	-0.008166831
8	0xbd0705d6	-0.03296455
9	0xbd093bd3	-0.03350432
10	0xbcb6e80f	-0.022327451
11	0xbdac9ff0	-0.08428943
12	0xbd09821e	-0.033571355
13	0xbd9d5c96	-0.07683675
14	0x3a4e30f3	0.00078655704
15	0x3d3047c3	0.043037187
16	0xbd462cbe	-0.048382513
17	0x3c1c34fe	0.009534119
18	0xbd356a66	-0.044290923
19	0xbd76fd81	-0.060300354
20	0xbcf64800	-0.03006363
21	0xbdb5497f	-0.08851909
22	0x3b15c441	0.0022852572
23	0xbd92e31f	-0.07172226
24	0x3cbfd791	0.02341822
25	0x3c7b104c	0.01532371
26	0x3ccb2d44	0.024801858
27	0xbd547dcf	-0.051877793
28	0xbdb11082	-0.08645727
29	0x3b0ad733	0.0021185398
30	0x3c665689	0.0140587175
31	0xbd97ed2c	-0.07418284
32	0xbca8a933	-0.020588493
33	0xbda4e133	-0.08050766
34	0xbba61736	-0.005068685
35	0xbd8ea574	-0.069651514
36	0x3af9dfbe	0.0019063873
37	0xbd749e1a	-0.05972109
38	0xbca05a38	-0.01957427
39	0xbd34b548	-0.044118196
40	0xbc8d039f	-0.01721364
41	0xbc7df14a	-0.015499422
42	0xba819b39	-0.0009888179
43	0xbc1f39f6	-0.009718409
44	0x3d401ac3	0.046900522
45	0x3d0ec5cc	0.034856603
46	0x3c1147c7	0.008867211
47	0x3c5cd70b	0.013479005
48	0xbd3a5209	-0.04548839
49	0x3cfbfbd1	0.030759724
50	0xbcaa9366	-0.020822238
51	0x3cf4afc7	0.029868973
52	0xbdb18735	-0.08668367
53	0xbd8e05ee	-0.06934725
54	0xbd2d546a	-0.04231683
55	0xbd9b8742	-0.07594158
56	0x3c924142	0.017853383
57	0x3d0406d5	0.032233078
58	0xbbd223e0	-0.006412968
59	0xbdaca07a	-0.08429046
60	0x3cafcdd1	0.021460446
61	0x3c99908b	0.018745681
62	0x3c56b229	0.013104
63	0xbcc1f988	-0.023678556

conv2.weight f4 [10, 1, 4]
0	0xbf2baa07	-0.67056316
1	0x3f669666	0.9007324
2	0xbe695952	-0.22787979
3	0xbd211ddf	-0.039335128
4	0xba61d2fe	-0.0008614509
5	0x3f014876	0.5050119
6	0x3c177ee1	0.009246559
7	0x3e1f0d41	0.155324
8	0xbf0effb2	-0.5585891
9	0x3d7eab11	0.06217486
10	0x3f261035	0.6486848
11	0xbefedb62	-0.4977675
12	0xbe8c4940	-0.27399635
13	0xbf26ca99	-0.6515289
14	0x3f4774d2	0.7791263
15	0xbef57f2b	-0.47948584
16	0x3f9482c2	1.1602404
17	0x3e72c0c5	0.23706348
18	0xbf63758b	-0.8885123
19	0x3f9be40b	1.2178968
20	0xbee3ddd3	-0.44505176
21	0xbea6b0f4	-0.3255688
22	0xbe84cec3	-0.25938997
23	0x3f1bc15d	0.60841924
24	0xbeadad46	-0.3392126
25	0x3d4bd417	0.04976281
26	0x3ed6cb9d	0.4195222
27	0x3f0381ea	0.5137011
28	0x3e6d3c4f	0.23167537
29	0xbf342656	-0.70370996
30	0x3f3ba268	0.7329469
31	0xbe95323c	-0.29139888
32	0x3ec5c90b	0.38629946
33	0xbf19cf62	-0.60082066
34	0x3f5eacf0	0.8698263
35	0xbe8d8468	-0.2764008
36	0xbb42142f	-0.002961408
37	0x3eef637c	0.46755588
38	0x3d468d75	0.048474748
39	0x3d2727b1	0.040809337

conv2.bias f4 [10]
0	0x3de0a1ac	0.109683365
1	0x3dd80075	0.10546962
2	0x3e9e8648	0.30961823
3	0x3e689efd	0.22716899
4	0xbd9d7bbb	-0.07689615
5	0xbe3ed486	-0.18635759
6	0xbe461de4	-0.1934734
7	0xbd940e25	-0.0722926
8	0xbd392c99	-0.045208547
9	0x3e89c94c	0.2691139

fc1.weight f4 [128, 300]
0	0x3d31d2f5	0.043414075
1	0xbd10d5d3	-0.03536017
2	0xbd1a40e1	-0.03765953
3	0x3cd7a930	0.026325792
4	0xbcf6247a	-0.03004669
5	0xbb04ab4f	-0.002024371
6	0xbc83873c	-0.016055696
7	0xbbea3441	-0.0071473424
8	0xbcb659f8	-0.022259697
9	0xbd126582	-0.035741337
10	0xbcc2309c	-0.02370482
11	0x3c4cb1fd	0.012493608
12	0xbd3af63e	-0.04564499
13	0xbd6dcedb	-0.0580586
14	0x3d4aad37	0.049481597
15	0xbbeac43c	-0.0071645062
16	0x3d0198ae	0.031639747
17	0xbd6590fd	-0.056046475
18	0x3d340b8b	0.04395632
19	0x3caccb4b	0.021093031
20	0xbcd9617b	-0.02653574
21	0xbc8af25e	-0.016961273
22	0xba443227	-0.000748428
23	0x3cd41e95	0.025893489
24	0xbd262b17	-0.040568437
25	0x3c1a859d	0.00943127
26	0xbc945f1b	-0.018111756
27	0xbc9645af	-0.018343775
28	0x3d367805	0.044548053
29	0xbd73187c	-0.059349522
30	0x3cd7e460	0.026354015
31	0x3d4fd24d	0.050737668
32	0xbbd55fc3	-0.00651166
33	0xbcde8017	-0.027160687
34	0x3d0aa4a8	0.033848435
35	0xbd17bc68	-0.037044913
36	0xbc958ccb	-0.018255612
37	0x3b83f7a9	0.004027326
38	0xbd02f254	-0.031969383
39	0xba8f47aa	-0.0010931392
40	0x3a087b2a	0.0005206341
41	0x3d1c2f38	0.03813097
42	0x3c3f1cea	0.0116646085
43	0xbd21d01e	-0.039505117
44	0xbccdf052	-0.025139008
45	0x3d0e3e78	0.034727544
46	0x3c8fbff6	0.017547589
47	0xbd74464b	-0.05963735
48	0xba2cad4e	-0.00065871037
49	0xbd641712	-0.055686064
50	0xbd16fe22	-0.036863454
51	0xbc6e0be0	-0.014529198
52	0x3d4f8626	0.050665043
53	0x3d5ba9ee	0.053628854
54	0xbd37e5a5	-0.04489674
55	0x3ca20491	0.019777568
56	0xbc8062a4	-0.015672036
57	0xbc414af4	-0.011797655
58	0x3cbd2a3f	0.023091434
59	0x3d27e963	0.04099406
60	0xbcf996f8	-0.030467495
61	0xbd79a7a3	-0.060950886
62	0xbc2cdf5f	-0.010551303
63	0x3c7d239a	0.015450383
64	0xbd12ad9f	-0.03581011
65	0xbd64ac6f	-0.055828508
66	0xbd027ca3	-0.031857144
67	0xbd167c1b	-0.03673945
68	0x3d1869a0	0.037210107
69	0xbd6510fa	-0.055924393
70	0x3d171969	0.036889467
71	0x3c559796	0.013036629
72	0xbd6bbc54	-0.05755265
73	0x3c96449e	0.018343266
74	0x3d4101d8	0.0471209
75	0x3b793ea4	0.0038031721
76	0x3c2f1259	0.010685527
77	0xbd63e6ed	-0.05564015
78	0xbc6b780f	-0.014371886
79	0x3ce8df5c	0.028426819
80	0x3c29ab8f	0.010355844
81	0x3d4711bd	0.0486009
82	0xbd5e2c2d	-0.054241348
83	0x3be0370e	0.0068425005
84	0x3b35b210	0.0027724542
85	0xbbeca6ee	-0.007222048
86	0x3ccfeac3	0.025380498
87	0xbc53d355	-0.012928803
88	0xbd38d2bc	-0.045122847
89	0xbc6d913e	-0.0144999605
90	0xbd0902ba	-0.033449866
91	0x3cf6b1f6	0.030114155
92	0x3c290545	0.010316198
93	0x3cca38ab	0.024685225
94	0xbd04d267	-0.032427218
95	0xbd3e7d4f	-0.046506222
96	0xbcfff62b	-0.031245312
97	0xbc6ee04d	-0.014579845
98	0xbd145f44	-0.036223665
99	0xba99745d	-0.0011707653
100	0xbc259e36	-0.010108521
101	0xbcaec16b	-0.021332463
102	0x3c007703	0.007840875
103	0x3cf08d4e	0.029364254
104	0x3c9a582e	0.018840875
105	0xbd5e4df3	-0.054273557
106	0xbc56ec7d	-0.013117907
107	0xbd12702e	-0.035751514
108	0x3d405db3	0.04696436
109	0xbd17b713	-0.037039828
110	0x3b536e44	0.0032261768
111	0x3c57ca64	0.013170812
112	0x3c2d23da	0.01056763
113	0x3d049928	0.032372624
114	0x3cb07ae2	0.02154297
115	0x3c9160c8	0.017746344
116	0x3b1d7d87	0.002403112
117	0x3c636d60	0.0138810575
118	0xbd4b17fc	-0.04958342
119	0x3d418a91	0.047251288
120	0xbd12bc89	-0.035824332
121	0xbd73db28	-0.059535176
122	0x3b3a4cd3	0.0028427138
123	0x3c4b2135	0.012398054
124	0xbd677ae7	-0.056513693
125	0xbd5a90f0	-0.05336088
126	0xbcebdea6	-0.02879269
127	0x3c388cd8	0.0112640485
128	0xbc0a7031	-0.0084496
129	0x3d4e120a	0.050310172
130	0x3cffdf5e	0.03123444
131	0xbcddcdc8	-0.027075663
132	0x3cca7b48	0.024716988
133	0x3ca96a6d	0.02068063
134	0x3d517d96	0.05114516
135	0xbaf232a7	-0.001847823
136	0x3cd3e735	0.025867084
137	0xbd5f1e15	-0.054472048
138	0x3cf48b82	0.029851679
139	0x3b83fc7a	0.0040279003
140	0x3d37fb87	0.04491761
141	0x3bcc939d	0.006243183
142	0xbca6d9f9	-0.02036761
143	0xbd6b1163	-0.05738963
144	0x3cfc0811	0.030765565
145	0xbd26f027	-0.04075637
146	0xbc066f0b	-0.008205186
147	0x3c6c7436	0.014432004
148	0xbbc273ca	-0.0059342133
149	0xbb01b617	-0.0019792372
150	0x3bdb82dc	0.0066989493
151	0x3d32a276	0.043611966
152	0x3d463917	0.04839429
153	0xbc9cff0f	-0.01916459
154	0xbc6f12e6	-0.014591908
155	0x3b850848	0.004059825
156	0x3ab98fb7	0.001415721
157	0xbd1c5106	-0.038163207
158	0x3ca70d74	0.020392157
159	0xbc44185c	-0.011968698
160	0x3bfafc5e	0.007659479
161	0x3d59ab37	0.0531418
162	0x3d171456	0.03688463
163	0x3d6054ee	0.054768495
164	0x3d23a4ff	0.039952274
165	0x3c825fbf	0.015914796
166	0x3cd44c84	0.025915392
167	0x3ca6502a	0.020301897
168	0xbd495787	-0.04915574
169	0x3c735c40	0.014853537
170	0x3d39d2c9	0.045367036
171	0x3d14532b	0.036212128
172	0x3cff7355	0.031182924
173	0x3c50324a	0.012707302
174	0xbad141f5	-0.0015965091
175	0x3d6a8dd4	0.057264164
176	0xbaf0d377	-0.0018373568
177	0x3c6bc5b7	0.014390401
178	0xbcd43107	-0.025902284
179	0xbd3eb7ec	-0.04656212
180	0x3d087ca1	0.03332198
181	0x3d056b88	0.032573253
182	0x3cce4443	0.025179034
183	0xbd4bf3d5	-0.049793083
184	0x3cdbe838	0.026844129
185	0xbb92d0cc	-0.004480457
186	0xbcf6a814	-0.030109443
187	0x3ca4e205	0.020127306
188	0x3c987ba7	0.01861365
189	0x3d3e511c	0.04646407
190	0x3ca4bfc3	0.02011097
191	0xbca8ac98	-0.020590112
192	0x3d502c31	0.050823394
193	0xbbaf999d	-0.0053588883
194	0x3d0bce79	0.034132455
195	0xbb3306fa	-0.002731739
196	0x3d40887d	0.047005165
197	0x3d347e2d	0.044065643
198	0x3a3caaee	0.00071971014
199	0x3d35ff1d	0.044432748
200	0xbd5baefb	-0.05363367
201	0xbd3cf805	-0.046134967
202	0x3c563289	0.013073572
203	0x3d0ce6ce	0.0343998
204	0x3d0e8659	0.034796093
205	0xbc354e9d	-0.011066106
206	0x3c6fc42e	0.014634175
207	0x3d535836	0.051597796
208	0xbc95e1b0	-0.018296093
209	0xbd038f61	-0.03211916
210	0x3cb84907	0.02249576
211	0x3cfef734	0.031123735
212	0xbd10a1cd	-0.035310555
213	0xbc7126b0	-0.0147186965
214	0xbd1109a8	-0.0354096
215	0x3d24e12c	0.040253803
216	0x3c3deb5e	0.01159176
217	0xbc8d78af	-0.01726946
218	0x3c671370	0.014103755
219	0x3cf16242	0.029465798
220	0x3d23f1f1	0.040025655
221	0xbbdecfca	-0.0067996727
222	0xbcff8147	-0.031189574
223	0xbca69d26	-0.020338606
224	0xbd48b628	-0.049001843
225	0x3d256778	0.04038188
226	0xbcf58e2d	-0.029975021
227	0x3d5744a4	0.052555695
228	0x3d2bf47a	0.041981198
229	0x3bf65bcc	0.0075182673
230	0x3c60b654	0.013715345
231	0x3c973119	0.018456029
232	0x3d51a1b4	0.051179603
233	0xbd10f3de	-0.03538882
234	0xbc9c0622	-0.019045893
235	0xbd3f1207	-0.04664805
236	0xbd2efca3	-0.042721402
237	0xbc72a46c	-0.014809709
238	0xbcfcf1d6	-0.030877035
239	0x3d045ed3	0.032316994
240	0x3cae856c	0.021303855
241	0x3d4d7060	0.050155997
242	0x3ce606fe	0.028079506
243	0x3c9e2ecc	0.019309424
244	0xbd6c7249	-0.05772618
245	0xbcf52c4c	-0.029928349
246	0x3d2ede44	0.042692438
247	0x3c554f0a	0.013019333
248	0xbb7fe6a4	-0.0039047385
249	0x3d078322	0.033084042
250	0xbd131fe8	-0.0359191
251	0xbbe1d8f0	-0.006892316
252	0xbc1b38ab	-0.00947396
253	0xbcd86e09	-0.026419656
254	0xbd324207	-0.04352
255	0x3cd5ad5c	0.02608364

fc1.bias f4 [128]
0	0x3d3e2e8b	0.046431106
1	0xbd123d37	-0.03570291
2	0x3ba29585	0.004961672
3	0xbd274220	-0.040834546
4	0xbc4e73f3	-0.012600887
5	0x3d596542	0.053075083
6	0x3ca5e710	0.02025178
7	0xbd70d8b8	-0.05880043
8	0x3beb002a	0.0071716504
9	0xbd81fdf3	-0.06347265
10	0xbbc69eb4	-0.0060613994
11	0x3d35f097	0.044418897
12	0x3d1ab380	0.03776884
13	0x3c971e31	0.018447014
14	0xbd4bb357	-0.04973158
15	0xbd0c18dd	-0.0342034
16	0xbd12f691	-0.035879675
17	0xbca54fbb	-0.02017962
18	0x3b6b13d6	0.0035869977
19	0xbd563f61	-0.052306537
20	0xbd20ced1	-0.039259735
21	0x3c67f8b3	0.014158416
22	0xbd1e8ad3	-0.03870661
23	0x3d4abe66	0.049497984
24	0xbad64780	-0.0016348213
25	0x3c7e9492	0.015538352
26	0xbb8dc565	-0.00432651
27	0xbcb6345f	-0.02224177
28	0x3d955c4b	0.07292994
29	0xbcc0cf3f	-0.023536323
30	0xbc94fcd7	-0.01818697
31	0xbc820e21	-0.015875878
32	0x3d10f0be	0.03538584
33	0x3d82e08f	0.063904874
34	0xbd351257	-0.044206943
35	0x3ccdb156	0.025108974
36	0x3cc91a66	0.02454872
37	0xbc56183f	-0.013067304
38	0x3c29b3c6	0.010357803
39	0x3b53aa68	0.0032297615
40	0x3c1db65b	0.009625996
41	0xbc70fdad	-0.0147089185
42	0x3c89bf33	0.016814804
43	0xbb766fbb	-0.0037603218
44	0x3cb55ee2	0.02213997
45	0x3d546d17	0.05186185
46	0xbbe0f1b6	-0.0068647517
47	0x3d0ef44e	0.034900956
48	0x3d2fe8e1	0.0429467
49	0xb97f7454	-0.0002436203
50	0xbcac73a5	-0.021051237
51	0xbc249f28	-0.010047711
52	0x3bd994f5	0.0066400715
53	0x3cf66657	0.030078096
54	0x3d149751	0.03627712
55	0xbc7c09db	-0.015383209
56	0x3cfdf1a3	0.03099901
57	0x3cc34f3b	0.023841491
58	0xbc88c3d4	-0.01669494
59	0x3d91c48e	0.07117568
60	0x3c99a075	0.01875327
61	0x3d323e4d	0.043516446
62	0x3d1cc5df	0.038274642
63	0xbd6be596	-0.057591997
64	0xbc872e44	-0.016501553
65	0x3ca58d5b	0.020209005
66	0x3d19f4df	0.037587043
67	0xbb9e1ff7	-0.004825588
68	0x3cb05b78	0.02152799
69	0xbc0b2b0d	-0.008494151
70	0xbd29bd74	-0.041440442
71	0xbd22e886	-0.039772533
72	0xba52df49	-0.00080441363
73	0x3d68de2b	0.0568525
74	0x3c34cde6	0.011035418
75	0x3cf1e6fc	0.029529087
76	0x3bccb3ef	0.0062470357
77	0xbd95d072	-0.073151484
78	0x3c905ff7	0.017623885
79	0xbd5594fd	-0.05214404
80	0x3c6ddcf6	0.014518013
81	0x3c154107	0.009109742
82	0x3d11b32f	0.035571273
83	0x3cf6c7bd	0.03012454
84	0xbcf8cb14	-0.030370273
85	0xbcf1eb5b	-0.029531172
86	0x3cda61d6	0.02665798
87	0xbd677a20	-0.05651295
88	0x3db66c19	0.08907337
89	0xbd19ba5b	-0.037531238
90	0x3d2fcb58	0.042918533
91	0x3c67c344	0.014145676
92	0xbbd308cc	-0.0064402577
93	0x3ca62cec	0.020285092
94	0xbc5c07b3	-0.01342957
95	0x3b6b86c5	0.0035938483
96	0x3d429e62	0.047514327
97	0xbb0e3c11	-0.0021703283
98	0x3c06f870	0.008237943
99	0x3d31eb0b	0.043437045
100	0x3d45d8f4	0.048302606
101	0xbd38bb3d	-0.04510044
102	0x3d570a12	0.05249984
103	0xbc028674	-0.007966626
104	0x3d4baf4f	0.049727734
105	0x3cfe802e	0.03106698
106	0x3c1c3813	0.0095348535
107	0xbb4866c5	-0.0030578834
108	0xbd597278	-0.05308768
109	0xbd643cf0	-0.055722177
110	0xbd018856	-0.03162416
111	0xbcb0df7c	-0.02159094
112	0xbd621e71	-0.055204812
113	0x3d048326	0.032351635
114	0xbd9b6d81	-0.075892456
115	0xbc2ca683	-0.010537746
116	0x3bb77fda	0.005599958
117	0xbd48a384	-0.048984066
118	0x3d60d806	0.054893516
119	0xbd1f4395	-0.03888281
120	0x3b9a078b	0.004700606
121	0xbd364edb	-0.044508796
122	0x3c2ec25a	0.010666454
123	0xbd8add61	-0.06780506
124	0x3b0d8a21	0.0021597224
125	0x3d5b8f8f	0.053603705
126	0x3cdcf731	0.026973339
127	0xbd389cd7	-0.04507145

fc2.weight f4 [64, 128]
0	0xbdaaeecf	-0.083463304
1	0xbd968151	-0.07348884
2	0x3b93e6b7	0.0045135873
3	0x3d7f9e5a	0.062406875
4	0xbc29f331	-0.010372923
5	0x3d8492f7	0.06473344
6	0x3d84b7ae	0.064803466
7	0xbe71ca58	-0.23612344
8	0x3b80b9ac	0.003928384
9	0xbdf85a6c	-0.121266216
10	0x3d9a0708	0.07520872
11	0xbd50945c	-0.050922737
12	0xbde85f54	-0.113463074
13	0x3d7b3c76	0.061336957
14	0xbdc5e226	-0.09662275
15	0xbd853443	-0.06504109
16	0x3a13bf89	0.0005636146
17	0xbd71c607	-0.059026744
18	0x3c898e3c	0.016791455
19	0xbe01b9a2	-0.1266847
20	0xbd97cffc	-0.07412717
21	0xbd22865b	-0.039678913
22	0xbe181641	-0.14852239
23	0x3dad7660	0.08469844
24	0xbdb36f24	-0.08761433
25	0x3a455569	0.0007527681
26	0x3d892adb	0.06697627
27	0xbc51f524	-0.012814794
28	0x3cfc6b9f	0.030813036
29	0x3c9ed7ca	0.019390006
30	0xbe40c26b	-0.18824165
31	0xbd15cf03	-0.036574375
32	0xbe1f127c	-0.15534395
33	0xbb294dde	-0.0025833766
34	0xbdf43bd3	-0.11925473
35	0xbc016b45	-0.00789911
36	0xbd2bfa47	-0.04198673
37	0x3d5cc734	0.053900912
38	0xbc976c29	-0.018484192
39	0x3c211666	0.009832
40	0x3dac589f	0.08415341
41	0xbdaef301	-0.08542443
42	0xbda8cb36	-0.082418844
43	0x3d3da7e8	0.046302706
44	0xbdb0ac8a	-0.08626659
45	0xbd9d6b7a	-0.07686515
46	0x39227b5b	0.00015495477
47	0xbd902d8f	-0.070399396
48	0x3dc494fb	0.09598728
49	0xbe0482be	-0.12940499
50	0x3c998b6c	0.01874324
51	0xbc1d2f10	-0.00959374
52	0x3d47361c	0.048635587
53	0x3dadaf7a	0.08480735
54	0xbcc1c467	-0.023653222
55	0xbd3af03e	-0.04563927
56	0x3dcf6c6c	0.10128102
57	0x3d33a34d	0.043856908
58	0xbd0e0eb2	-0.034681983
59	0xbd843e1e	-0.064571604
60	0x3d9d76d9	0.07688684
61	0x3d03dce2	0.032193072
62	0xbc080df9	-0.008304113
63	0xbcac1df8	-0.021010384
64	0xbd154d9e	-0.036450975
65	0xbd9cf2b1	-0.07663477
66	0xbdb8b61d	-0.0901911
67	0xba0f29cb	-0.0005461245
68	0x3c1f7755	0.009733041
69	0xbe2e083e	-0.16995332
70	0xbd1a8579	-0.037724946
71	0xbd539764	-0.05165805
72	0xbc164417	-0.009171507
73	0x3c121101	0.008915187
74	0x3cee2a3a	0.02907287
75	0xbbb8f293	-0.0056441515
76	0x3d7245b0	0.05914849
77	0x3dae3e5b	0.08507987
78	0xbc916a4e	-0.017750885
79	0xbbff3b35	-0.0077890405
80	0x3c9be573	0.019030308
81	0xbd3340d7	-0.043763008
82	0x3dba695d	0.09102128
83	0xbd6a6f4e	-0.057235055
84	0xbd3e8ec8	-0.046522886
85	0x3d91b504	0.07114604
86	0x3db0aaf3	0.08626356
87	0x3d9dcaba	0.07704683
88	0x3c9cd2bc	0.019143455
89	0xbd6c6e03	-0.057722103
90	0xbc774b79	-0.015093678
91	0xbd92a25b	-0.07159873
92	0x3d97fdd1	0.074214585
93	0x3d3a31d2	0.04545767
94	0x3c30e4cc	0.010796737
95	0xbd24c122	-0.04022325
96	0x3ca20686	0.019778501
97	0x3dbcad2e	0.09212719
98	0xbddec8b6	-0.10878126
99	0x3ccb883c	0.024845235
100	0x3d8270d1	0.06369174
101	0xbd6e5d54	-0.058194473
102	0x3c58d8a8	0.013235249
103	0xbd746039	-0.059662078
104	0xbd632258	-0.055452675
105	0xbe29f68d	-0.16597958
106	0xbd0016f3	-0.031271886
107	0x3c6287fe	0.013826368
108	0x3d723914	0.059136465
109	0x3cf0d627	0.02939899
110	0xbd6b76b9	-0.05748627
111	0xbc9f9a81	-0.019482853
112	0x3daf61c4	0.08563569
113	0x3d4319ae	0.047631912
114	0xbdc2bc09	-0.09508521
115	0xbd1b1f5a	-0.037871696
116	0xbc0dc55c	-0.008653011
117	0xbd2b2160	-0.041779876
118	0xbd2e833c	-0.042605624
119	0xbbac35b1	-0.005255424
120	0x3d84fa3a	0.064930394
121	0x3cdf684b	0.02727141
122	0xbd80aed5	-0.062833466
123	0x3d03f323	0.032214295
124	0x3d2dcbfa	0.042430855
125	0xbddc118f	-0.107455365
126	0x3c14c6e7	0.009080625
127	0xbc99be55	-0.018767515
128	0xbcb624e0	-0.02223438
129	0x3c7494aa	0.014928022
130	0x3d51bbf2	0.05120463
131	0x3ccac3f6	0.024751645
132	0xbda1e283	-0.07904532
133	0x3c4a59be	0.012350498
134	0xbd188b52	-0.03724224
135	0xbd8c570c	-0.068525404
136	0xbc5b5f25	-0.013389383
137	0xbc9c084a	-0.019046921
138	0xbcf21a35	-0.029553512
139	0xbd0ef549	-0.03490189
140	0x3d6fd712	0.058554716
141	0xbd024423	-0.03180326
142	0xbe446ed4	-0.19182903
143	0x3d315bf8	0.0433006
144	0x3dbc67ee	0.091995105
145	0x3db32aff	0.08748435
146	0xbe188f9e	-0.14898536
147	0x3d9d346c	0.07676014
148	0xbd739e58	-0.05947718
149	0x3cd0ac06	0.025472652
150	0x3cd57624	0.02605731
151	0xbddbe5bf	-0.1073718
152	0xbdeda509	-0.116037436
153	0xbd0d3238	-0.03447172
154	0x3d89a524	0.06720951
155	0xbc8d8243	-0.017274028
156	0xbd3a5571	-0.04549164
157	0x3d2fee49	0.042951856
158	0xbc2f9196	-0.010715863
159	0x3d8ab743	0.06773236
160	0x3d704379	0.058658097
161	0x3d2883b5	0.04114123
162	0xbcde2f9a	-0.027122308
163	0xbe427b4b	-0.18992345
164	0xbcc33391	-0.0238283
165	0x3d4143c7	0.047183778
166	0x3d4f2bfa	0.05057905
167	0x3d3470e3	0.04405297
168	0xbd2b8d7e	-0.041882984
169	0xbd0859a4	-0.033288613
170	0xbc492a37	-0.012278131
171	0xbd3ddf69	-0.04635564
172	0x3c41ac46	0.011820858
173	0xbd486e54	-0.048933342
174	0xbe0ec093	-0.13940649
175	0x3d72db84	0.059291378
176	0x3c6d8cbd	0.014498887
177	0xbba374a5	-0.0049882703
178	0xbd1ee7ec	-0.038795397
179	0x3d33cc9f	0.043896314
180	0x3c497dba	0.012298042
181	0xbc00f7f4	-0.007871617
182	0x3ca82312	0.020524535
183	0x3d393112	0.045212813
184	0x3d8c5c38	0.06853527
185	0x3da7fd30	0.082025886
186	0xbd008e01	-0.031385425
187	0x3ca256ce	0.019816782
188	0x3904a741	0.00012650808
189	0x3d199999	0.037499998
190	0xbc588072	-0.0132142175
191	0xbd059ba3	-0.03261913
192	0xbb09f258	-0.002104899
193	0xbdae6ef5	-0.08517257
194	0x3deeb72a	0.116560295
195	0x3cc4aa08	0.024006858
196	0x3baa8f83	0.005205096
197	0x3b909177	0.004411872
198	0xbc87566c	-0.016520701
199	0xbe9513f1	-0.29116777
200	0x3db0b444	0.08628133
201	0x3ceda15e	0.02900761
202	0x3d694310	0.05694872
203	0x3cca01e3	0.024659103
204	0x3d9f1797	0.07768171
205	0x3d20d854	0.039268807
206	0xbd741c54	-0.05959733
207	0xbd8bcd44	-0.06826261
208	0xbda89350	-0.08231223
209	0xbd201d61	-0.039090518
210	0xbd082078	-0.03323409
211	0x3bd78926	0.0065776287
212	0x3cebad30	0.028769106
213	0x3c8254f7	0.015909655
214	0xbd604d22	-0.05476106
215	0xbd321f97	-0.043487158
216	0x3c8db2f2	0.017297242
217	0x3cfb3159	0.03066318
218	0xbd811bdf	-0.06304144
219	0x3da5400d	0.08068857
220	0xbdb2b65f	-0.08726191
221	0xbc7ad472	-0.01530944
222	0xbe17bf75	-0.14819129
223	0xbd4b9c26	-0.04970946
224	0xbd079db7	-0.033109393
225	0x3d2ee19d	0.04269563
226	0xbe2b2e7b	-0.1671695
227	0xbe84fe9c	-0.25975502
228	0xbc17ae86	-0.009257918
229	0xbad37dd0	-0.0016135518
230	0x3d91b7f7	0.07115167
231	0x3cb606b1	0.022219988
232	0x3dac738b	0.084204756
233	0xbcef77a4	-0.029231854
234	0x3d8fe949	0.070269175
235	0x3d78ad78	0.060712308
236	0x3c975f9e	0.018478211
237	0x3c8dff57	0.01733367
238	0xbd08a861	-0.033363704
239	0x3d96470c	0.0733777
240	0xbd0866b9	-0.03330109
241	0xbe903a39	-0.2816942
242	0xbeb15f21	-0.3464289
243	0xbd5926c8	-0.0530155
244	0xbdf3a769	-0.11897165
245	0xbe32924d	-0.17438622
246	0xbd88af03	-0.06674006
247	0xbea97ae4	-0.3310157
248	0x3d6721e0	0.05642879
249	0xbd7f73d3	-0.062366318
250	0x3bffa847	0.0078020426
251	0xbea66f25	-0.32506672
252	0xbc4c915d	-0.012485829
253	0x3d8e3004	0.06942752
254	0x3da14ff8	0.07876581
255	0x3d4b8934	0.049691394

fc2.bias f4 [64]
0	0xbd47f2fb	-0.04881571
1	0x3e15adb5	0.14617045
2	0xbd379396	-0.044818483
3	0xbdd1111e	-0.10208343
4	0xbdbc2b20	-0.09187913
5	0xbd9e9aba	-0.077443555
6	0xbd99f1d0	-0.07516825
7	0x3dbbf27f	0.09177112
8	0x3e2315b5	0.1592625
9	0x3d6bf34b	0.05760507
10	0xbdc19a8a	-0.09453304
11	0x3d237e0b	0.039915126
12	0xbd63c7d2	-0.055610485
13	0x3dd8de52	0.10589279
14	0x3c2843bc	0.010270055
15	0x3e314ef3	0.17315273
16	0x3cc4157d	0.023936028
17	0xbc260bd6	-0.010134658
18	0x3de6aad9	0.11263055
19	0x3d7927eb	0.060829084
20	0xbd5272ea	-0.05137912
21	0xbc41e2a3	-0.01183382
22	0x3daab4bf	0.08335256
23	0xbd56c937	-0.052437987
24	0xbda12324	-0.07868031
25	0xbd6abf5c	-0.0573114
26	0x3db56e45	0.08858923
27	0xbce85e0c	-0.028365158
28	0x3de3d10f	0.11123859
29	0x3e078fde	0.13238475
30	0xbd86b3fc	-0.06577298
31	0x3e0e125a	0.13874188
32	0xbcfd844a	-0.03094687
33	0xbc399760	-0.0113275945
34	0x3d8943c1	0.06702376
35	0x3d250946	0.040292047
36	0x3da1eb8e	0.079062566
37	0x3dc7bf64	0.09753302
38	0xbd9dc99c	-0.077044696
39	0x3d4c6160	0.04989755
40	0xbde6f120	-0.1127646
41	0x3dbf852e	0.09351574
42	0xbdf0f2db	-0.11765071
43	0x3dd8e7d8	0.10591096
44	0xbdc629c1	-0.09675933
45	0xbd0aa999	-0.033853147
46	0xbd310adc	-0.043223247
47	0x3ddd176d	0.10795484
48	0x3c4bbaae	0.012434645
49	0x3dc9cb13	0.098531865
50	0x3d8f7dbc	0.07006404
51	0x3d6c71cb	0.05772571
52	0x3e674e2f	0.22588418
53	0x3dc56f62	0.09640385
54	0x3cf9beed	0.030486548
55	0x3dc99c23	0.09844234
56	0xbd4c02b0	-0.04980725
57	0xbdae9408	-0.085243285
58	0x3d60a0bb	0.054840785
59	0x3da3dc43	0.08000996
60	0x3e14e315	0.1453975
61	0xbcfc047d	-0.030763859
62	0x3d922657	0.07136219
63	0x3cd5f481	0.026117565

fc3.weight f4 [5, 64]
0	0x38fab98d	0.000119554905
1	0x39729a08	0.000231363
2	0xb901d3be	-0.00012381279
3	0x3d950acf	0.07277452
4	0x3d8fb54e	0.07017003
5	0xbd06557e	-0.032796375
6	0xbd6bdd2b	-0.05758397
7	0xb90799f9	-0.00012931963
8	0x3845dfd2	4.717691e-05
9	0x393e01a4	0.00018120423
10	0xbd77575b	-0.060386043
11	0x3924e457	0.00015725322
12	0x3d0548e0	0.032540202
13	0xb86b0309	-5.6031193e-05
14	0xb884eb9c	-6.338136e-05
15	0xba2fd65e	-0.00067076634
16	0x381e05d6	3.767557e-05
17	0x3c844ad6	0.016148966
18	0xb92f5266	-0.00016719996
19	0xb9b92192	-0.00035310962
20	0xbdaa2797	-0.083083324
21	0xb8e48b50	-0.00010897836
22	0x36e0da7c	6.701155e-06
23	0xb7680d08	-1.3831312e-05
24	0x3de8721a	0.11349888
25	0x38cc8006	9.751324e-05
26	0xb881e827	-6.194441e-05
27	0x36fbd3dc	7.5050466e-06
28	0x3848297a	4.7722344e-05
29	0xb7aa2dea	-2.028696e-05
30	0xba782456	-0.00094658637
31	0x390e3bd7	0.00013564467
32	0xbd5c9020	-0.053848386
33	0xbbc946e0	-0.006142482
34	0x3bc45280	0.00599128
35	0xb99044f8	-0.00027517206
36	0xbd1f9272	-0.03895802
37	0x3886e564	6.432345e-05
38	0x3d7e9d17	0.06216153
39	0xb8311dfe	-4.222802e-05
40	0x3de59de6	0.11211757
41	0x3896196a	7.157291e-05
42	0x398d7f0c	0.00026988273
43	0x388b2b29	6.636076e-05
44	0xbdf5b808	-0.11997992
45	0x37019a04	7.724859e-06
46	0xbcfc6798	-0.030811116
47	0xb789e2dd	-1.6437314e-05
48	0x3ce7c476	0.028291922
49	0xb5edbca0	-1.7712773e-06
50	0xb9ea780d	-0.00044721403
51	0x3d1f0263	0.038820636
52	0xb97c19b8	-0.00024042174
53	0xb8f59a76	-0.00011711281
54	0x3b6a6d76	0.003577081
55	0x3a039bb5	0.00050204556
56	0xb90a4b9b	-0.00013188871
57	0xbc5c918f	-0.013462438
58	0xb8967a74	-7.175366e-05
59	0xb97feb0b	-0.00024406255
60	0x39902f8b	0.00027501243
61	0x3d7a1f80	0.061065197
62	0x39014d48	0.00012331188
63	0x392c9754	0.00016459572
64	0xb9016f69	-0.00012343902
65	0xba5e9645	-0.000849102
66	0x38bfe26c	9.149764e-05
67	0x3e7bbaac	0.24582928
68	0x3ee57fd6	0.44824094
69	0x3c0db647	0.008649415
70	0x3c573c95	0.0131370025
71	0xb7360618	-1.0849464e-05
72	0x39691392	0.00022227902
73	0x37b5bd90	2.1665153e-05
74	0x3ed53c9e	0.4164781
75	0x38abe9a6	8.197436e-05
76	0xbde11f3d	-0.10992286
77	0xb9714540	-0.00023009349
78	0x373d39c4	1.12787275e-05
79	0xb944e451	-0.00018777071
80	0x3996ced0	0.00028764317
81	0x3d84ab6d	0.064780094
82	0x38b3f793	8.5814994e-05
83	0xb8339288	-4.2813394e-05
84	0xbb0d888c	-0.002159628
85	0x394675b0	0.00018926593
86	0xb8eaf0ae	-0.000112028196
87	0xb8452924	-4.7006775e-05
88	0xbd070e48	-0.032972604
89	0x3991cdb7	0.00027809825
90	0x397903ff	0.00023747979
91	0xb9d16d50	-0.0003994503
92	0xb9931680	-0.0002805479
93	0x38895bb7	6.549752e-05
94	0x3bf7416c	0.0075456407
95	0xb9a93e6b	-0.00032280697
96	0x3d2cb908	0.042168647
97	0x3ca0f918	0.019650027
98	0x3d805464	0.06266096
99	0x3947b0ac	0.00019043934
100	0x3db08a28	0.08620101
101	0x39928732	0.00027948018
102	0xbdd9aa77	-0.10628217
103	0x38be43f6	9.072565e-05
104	0x3d78a185	0.060700912
105	0xb9908af3	-0.00027569346
106	0x3a375ffe	0.00069952
107	0x39dabbfd	0.00041720262
108	0x3d8dc73d	0.06922767
109	0xb8551a03	-5.0807383e-05
110	0x3f075063	0.52857035
111	0x38bbc5ed	8.9537214e-05
112	0xbda9aa45	-0.082844295
113	0x3852391e	5.0121096e-05
114	0xb97355aa	-0.00023206198
115	0xbd9293df	-0.071571104
116	0x399e446b	0.00030187084
117	0xba373fdb	-0.0006990411
118	0xbdf80ab7	-0.12111419
119	0x3a2fed08	0.00067110406
120	0xb98d537d	-0.0002695582
121	0x3ea65211	0.32484487
122	0xb8537ae4	-5.042077e-05
123	0x381baf98	3.7118414e-05
124	0x391cd120	0.00014955224
125	0x3d18b73c	0.03728412
126	0x39e5d77b	0.0004383883
127	0xb9e487fc	-0.00043588865
128	0xbe9a02cf	-0.30080268
129	0x3b07728c	0.002066764
130	0xbc3611b7	-0.011112622
131	0xbcd7fa77	-0.026364548
132	0xbdfe6611	-0.12421811
133	0xbdd72df6	-0.10506813
134	0xbdf8be6a	-0.121456936
135	0xba8ea29e	-0.0010882204
136	0x3a5490fa	0.00081087614
137	0xbb0a46f2	-0.0021099416
138	0xbe323772	-0.17403963
139	0xbb7db71d	-0.003871388
140	0x3cf62a6c	0.030049525
141	0x3d0d1f0b	0.034453433
142	0x3aab6af5	0.001307814
143	0x3e65f897	0.22458111
144	0xbd42538a	-0.04744295
145	0xbc893900	-0.016750813
146	0xbc6d9092	-0.0144998
147	0xbc41eb4d	-0.011835885
148	0xbd830f98	-0.06399459
149	0xbc9138c5	-0.017727265
150	0xbb0c8e73	-0.002144721
151	0x3c8a3d02	0.016874794
152	0x3dcc78b4	0.0998396
153	0xbf17fa50	-0.5936632
154	0xbc63ce8b	-0.013904224
155	0x3cf7716d	0.030205453
156	0x3bffb798	0.0078038685
157	0xb9b7a5ec	-0.000350281
158	0xbdf18247	-0.117924266
159	0xbb374c32	-0.0027969
160	0x3a99cf80	0.0011734813
161	0xbda97746	-0.08274703
162	0x3d26795c	0.04064308
163	0xbc583e38	-0.013198428
164	0xbca58cbb	-0.020208707
165	0x392ca7b2	0.0001646567
166	0xbdd3ad03	-0.10335734
167	0xbc2c1d30	-0.010505006
168	0xbc27fa0c	-0.010252487
169	0x3c8743db	0.016511848
170	0x3f6204e9	0.8828874
171	0xbf632f38	-0.88743925
172	0xbde5ac24	-0.11214474
173	0x39db4933	0.00041825473
174	0xbe6a317e	-0.22870442
175	0xbbc0e9ac	-0.005887231
176	0x3cf925db	0.030413559
177	0xbcaaab0b	-0.020833513
178	0xb9d7b643	-0.0004114379
179	0x3d2d056a	0.04224149
180	0xbd3367d7	-0.0438002
181	0x3f406108	0.7514806
182	0x3cda5554	0.026652016
183	0x3e7f36a8	0.24923193
184	0x3c84f8c1	0.016231896
185	0xbe0cf8d1	-0.13766791
186	0xb8715501	-5.7538044e-05
187	0x3abef176	0.001456781
188	0xbcbc0040	-0.022949338
189	0xbdf7de8d	-0.12102995
190	0xbcbb66f8	-0.022876248
191	0x3d2536f1	0.0403356
192	0x3ecc46f3	0.3989788
193	0x3b33f509	0.0027459285
194	0x3baff1f6	0.00536942
195	0x3cd1f1b5	0.02562795
196	0x3ca27c50	0.019834667
197	0xbd40e89e	-0.04709684
198	0xbc5708b7	-0.013124636
199	0x38acd6d0	8.241611e-05
200	0xb9384fc9	-0.0001757733
201	0xba19f493	-0.0005872931
202	0xbd2b1dcf	-0.041776475
203	0x3c442533	0.01197176
204	0xbb4c1f8c	-0.0031146733
205	0xbc43d3ef	-0.011952384
206	0xb84620bd	-4.723737e-05
207	0x3f84649a	1.0343201
208	0x3bb84c58	0.0056243353
209	0x3ccc9dc5	0.024977574
210	0xbc02e441	-0.00798899
211	0xbbd24441	-0.006416828
212	0xbd9834ad	-0.07431922
213	0x3ba1c42d	0.004936716
214	0xbabb5bc6	-0.0014294318
215	0xbae8f461	-0.0017773026
216	0xbda75d00	-0.08172035
217	0xbd8969f8	-0.06709665
218	0x3b8dd71a	0.0043286206
219	0xbbbef88f	-0.0058279703
220	0xbb5b1d52	-0.0033434224
221	0xb978857a	-0.00023700847
222	0xbc63aca5	-0.013896142
223	0xbb0da8c3	-0.0021615482
224	0xbdab7abe	-0.083730206
225	0x3d8fbd9e	0.070185885
226	0xbc952fb8	-0.01821123
227	0x3a74ee4b	0.000934337
228	0xbd4e9e3b	-0.05044387
229	0xba4f6beb	-0.00079125044
230	0x3cfbdd4b	0.03074517
231	0xba8c5802	-0.0010707381
232	0xbda60f55	-0.08108393
233	0xbc094c4a	-0.008380005
234	0xbe0b6925	-0.13614328
235	0x3f149ff3	0.58056563
236	0x3de5e904	0.11226085
237	0x39b543f0	0.00034573628
238	0xbc141da1	-0.009040267
239	0xbb87d7b6	-0.004145588
240	0x3cc35302	0.023843292
241	0xbb230bd0	-0.0024878867
242	0xba8d1205	-0.0010762817
243	0x3de62d46	0.11239104
244	0xbb4555c9	-0.0030110946
245	0x3f5fcc5e	0.87421215
246	0xbd46f5ca	-0.048574246
247	0x3f57c4bf	0.84284586
248	0xbb7e0c81	-0.0038764777
249	0xbdcc1d34	-0.099665076
250	0xb9a6feb1	-0.00031851747
251	0x3a309ba5	0.000673706
252	0xbba4fa10	-0.0050346926
253	0x3d0319c2	0.032006986
254	0xb982564f	-0.00024859837
255	0xbb93de2c	-0.004512569

fc3.bias f4 [5]
0	0xbec25de0	-0.37962246
1	0xbec298d8	-0.38007236
2	0xbeb901e1	-0.36134246
3	0xbebfc900	-0.37458038
4	0xbea20c0f	-0.31649825
