model_weights/60epochsTransformerNet_1_0_1.pth (torch_old, 555731 bytes, 14 tensors)

encoder0.self_attn.in_proj_weight f4 [96, 32]
00000000: b332 663e 6654 3b3e f522 2f3e 2887 9c3d
00000010: 38e0 773d 067b 933d 9c50 063d fd92 85bd
00000020: 20a8 27be 3e3b 183e d27a 383d 5488 bfbd
00000030: af84 a73d 7666 35be f197 983d d01d 003d
00000040: b2c1 02be 8e34 08be ef90 203d 689a d23d
00000050: 0e1c acbb 98b2 2d3e 903b d43d e39c debd
00000060: 0b9e 443e 1ae3 dc3d 2788 31be c7e8 2c3e
00000070: 1413 65be 6aa3 6abd 74bf af3b 65b2 33be
00000080: 7101 023e 2679 42be 9736 173e 0f37 f93c
00000090: 9bab e1bd 84ac b9bd d409 5abd 5f15 283e
000000a0: b388 b7bd 3df1 f8bd 1606 403b bfba 5c3e
000000b0: 7e31 203e a8f8 d9bd dc2f 08bd 39db 263d
000000c0: 4b8f 263e a895 303e 151c b53c 9bef 323e
000000d0: 2159 3d3e f03c c9bd 5a49 d0bd 4eff 1fbe
000000e0: e97e 323e c973 0e3e f4cc 19be 511b 403c
000000f0: 6bc7 073d c419 993c ef76 51bd 22c4 0a3e
00000100: 8ec2 1dbd 196c 4a3e d546 17be 59e2 97bc
00000110: 400d 8f3c 7b34 983d 773b 88bc 79c7 fcbd
00000120: 3fb6 41be 1a3e 11be 1d19 033e 5bef a1bd
00000130: c438 58be d679 443e fbb9 26be 0cb0 893d
00000140: 3d2f 113e f51a dabd a9d2 4d3e dd75 6cbc
00000150: 2ffc 8c3c 73fb 51bd b0d8 0bbe a5e0 f0bb
00000160: 874c 6a3d c25e 463e deaa 383c ff11 44be
00000170: 187f 003e 7ea3 aebd 30bf db3d 93c1 2d3e
00000180: b1bb 493d 890c 00be f112 38be 01df 4fbd
00000190: 720d bc3d c611 4f3e 3c83 debd 3ee1 fbbc
000001a0: 8dee 553d 10e4 28be 39c8 1a3e 7d77 fc3d
000001b0: edba 603d 2cac 6d3d 46a8 49bd 76fc 4d3e
000001c0: 6b48 22be d86f 7c3b 57d5 9d3d 8a70 64bd
000001d0: 269e 993c e4f4 2bbe 3d4a a7bd 9752 353e
000001e0: 8301 1f3e 0ba6 613d dc2d 963d 70fe ad3d
000001f0: 3f93 7ebb 568c 803d ed52 e0bc c567 663e
00000200: 419a 4e3d 30b0 9cbd eb30 94bd 0f65 23be
00000210: 6722 c0bd b13d b8bd 2f09 d8bc bef7 d03d
00000220: 1807 7b3e 0a02 fcbd 0f6d 2fbe cfb8 3a3e
00000230: f634 123e feb6 aebc a080 a3bd 54fa bcbd
00000240: 0851 bcbb 71b5 f3bd 3990 693d 63d0 1a3e
00000250: fd78 623e 9e8a 203d b4e7 ba3d 4ffc 983d
00000260: dfa6 973e 39a1 0fbe 6ca6 2a3e 4012 0ebe
00000270: b38c 19be 6247 073e f313 1f3e 8cb1 cc3d
00000280: 6c03 133e a98c 3fbd 44ac 2e3c e553 e03d
00000290: 977c 24bd af87 b63a bde3 0abe 1243 7dbd
000002a0: a0ee 0c3e 446f 95bd 2f68 303e 2bd5 90bd
000002b0: 6e3b 01be 5fb3 aebd efd8 f8bc 4e81 fe3d
000002c0: e91d 5a3e 7a1b b5bc e9e3 7abd 8d87 d6bd
000002d0: c9dc a43c d64f 273d 8473 91be 532f 7c3c
000002e0: 442d 5b3e 408c 3bbe 45d1 34bd 1c2b b5bc
000002f0: b456 ad3d c322 2c3d accc 353f 9b3d ef3d
00000300: 0dcc 443d 6f0c 15be 6605 373c a5f8 493e
00000310: cd81 88bd 8674 b43d bc0c 913e e710 9b3d
00000320: 252c 873b da5c 6f3d 5d94 ba3b 57fd 133e
00000330: 2d94 8b3d 8935 1cbe b71f 37bd a80a dcbd
00000340: 73a0 ffbb f3f1 81bd 7c21 eebd 5c0e 1cbe
00000350: cbb6 2ebe 7534 1bbd cc73 dfbc 8df5 6fbd
00000360: 1c7c 33be 8065 d6bd 1fd8 3b3e 16b7 313e
00000370: 54e3 b9be 2f2e 1d3e 72fc 323e 9699 a7bd
00000380: 07b7 523d 924e a23d a7ac f5bc f1d7 df3c
00000390: a71d e8bd 811e 1c3e d9e8 5a3b f9f5 2f3e
000003a0: badb c73d c48e 423e 457f 193d b1c3 8c3d
000003b0: fb9b 04be 328a 393e 44ab 20be d66c 51be
000003c0: 08ff 12be 07f7 c9bd 8a87 97bd 9cd9 363e
000003d0: 0e3e 7bbc 59da d1bd 6355 fe3a 00e9 50be
000003e0: ac12 0c3e d9c5 b43d bf94 b1bd 784b 113e
000003f0: 46fc c23d 548d 3ebc 5558 473d 52f9 06be
0.22480278 0.18293914 0.17103179 0.076429665 0.060516566 0.07201199 0.03279172 -0.065221764
-0.16372728 0.14866349 0.045039006 -0.093521744 0.08179604 -0.17714867 0.074508555 0.03127843
-0.12769201 -0.13301298 0.03920072 0.10283357 -0.005252368 0.1696266 0.10362923 -0.108697675
0.19200914 0.10785504 -0.17337094 0.16885673 -0.22370559 -0.05728475 0.005363399 -0.17548521
0.12695862 -0.18991527 0.14766918 0.030421762 -0.11019059 -0.09066108 -0.05323203 0.16414402
-0.0896162 -0.121553876 0.0029300503 0.21555613 0.1564388 -0.106431305 -0.033248767 0.04073641
0.162656 0.1724459 0.022108117 0.17474215 0.18491031 -0.09826076 -0.10170241 -0.15624735
0.17431225 0.13911356 -0.1501959 0.011725263 0.033149164 0.018689044 -0.051138815 0.13551381
-0.03851562 0.19767798 -0.14773114 -0.018540548 0.017462373 0.07431885 -0.016629918 -0.12342734
-0.18917178 -0.14183846 0.12802549 -0.079069816 -0.21115404 0.19187102 -0.16281883 0.067230314
0.14178176 -0.10649673 0.20099892 -0.014432398 0.017210094 -0.05126519 -0.13656878 -0.0073509985
0.05720189 0.19372085 0.011271207 -0.1914749 0.12548482 -0.085272774 0.107298255 0.16968374
0.049251262 -0.12504782 -0.17975976 -0.050749782 0.09182252 0.20221624 -0.10864875 -0.030747052
0.052229453 -0.16493249 0.15115441 0.12327478 0.054865766 0.058025524 -0.049232744 0.20115837
-0.15847938 0.0038518813 0.07706707 -0.055771388 0.018752169 -0.16792637 -0.08168457 0.17707287
0.1552792 0.05508999 0.07332966 0.08495796 -0.003884509 0.06276767 -0.027383292 0.22500522
0.050440077 -0.076507926 -0.07235893 -0.1595652 -0.09381562 -0.08996142 -0.026371567 0.10203503
0.24514425 -0.123050764 -0.17131446 0.18234561 0.14278015 -0.021327492 -0.07983518 -0.09227434
-0.0057469644 -0.118998416 0.057022307 0.15118556 0.22116466 0.039194696 0.09126225 0.07469999
0.296195 -0.14026345 0.16665047 -0.1387415 -0.14995079 0.13210824 0.15534954 0.09994802
0.14356774 -0.046765003 0.0106611885 0.109535016 -0.04015788 0.0013925935 -0.13563438 -0.06183154
0.13762903 -0.07296613 0.17227243 -0.070719086 -0.12620327 -0.08530306 -0.03037688 0.12427007
0.21300472 -0.022107828 -0.06125251 -0.10475073 0.02012481 0.04084762 -0.28408444 0.015392142
0.21403986 -0.1831522 -0.044144887 -0.022115283 0.08463803 0.04202534 0.7101543 0.11681672
0.04804616 -0.14555524 0.011170721 0.19723757 -0.066653825 0.088112876 0.28330028 0.07571583
0.0041251355 0.05843816 0.005693956 0.1445211 0.06815372 -0.15254797 -0.04470798 -0.1074422
-0.0078011095 -0.06344976 -0.116274804 -0.15239853 -0.17061917 -0.037891824 -0.027276896 -0.058583785
-0.17527813 -0.10468578 0.18344162 0.17354998 -0.3630625 0.15349649 0.17479113 -0.08183591
0.05144408 0.07925142 -0.029989554 0.027324649 -0.11333781 0.15246011 0.0033402948 0.17183675
0.097587064 0.18999773 0.03747489 0.06873263 -0.12950127 0.18119124 -0.15690333 -0.20451674
-0.14355099 -0.0986157 -0.07398899 0.17856449 -0.015334619 -0.10246725 0.0019404109 -0.20401382
0.13678998 0.08826799 -0.08670949 0.14188945 0.095207736 -0.011630375 0.048668224 -0.13181046

encoder0.self_attn.in_proj_bias f4 [96]
00000000: a784 9bbd c466 adbd 63bc 113c 197c 0dbd
00000010: 6799 12be 1831 b2be a5c6 1b3e 578b 19be
00000020: 5f76 613d f9d7 05be 26a5 073e efd6 bd3d
00000030: 8934 673d 0193 3d3d 3656 d9bd 60d1 933b
00000040: d663 ac3c a367 8d3c 8ab9 8ebc 5f0c 08bc
00000050: c7f4 6dbe ea4a 873e 556c 38bf 7898 2ebf
00000060: e815 a4bd 299e 20be 8fc8 14be 73b6 753b
00000070: 5e49 e3bc f06f bd3c d008 b73c f664 fdbc
00000080: e13d 51ae e47b af2e 2404 96af 4730 f12e
00000090: 5f00 0131 d2f9 0f31 1eff d42e 279c 5fb0
000000a0: 2a4c 1db0 4f89 ffae 1f4b 0cb0 3bb0 d4af
000000b0: c618 68b1 6e3a af30 0914 3e31 3ba6 23b0
000000c0: 5542 3b2f 022e 0c2e e55e 592f 758f 2f2e
000000d0: 9341 972f 017f c32d 68a1 0030 81a8 6eb0
000000e0: 303b 92ad b08a a42f 51c7 50af 0143 ca2c
000000f0: 20f4 872f 6791 392f 8c00 c6ae 0d86 6caf
00000100: e1f4 04bc 74e8 c9bd 01ff 7ebe 4854 02be
00000110: 001f d73d 6755 063e 49a2 e1bd 03fd a13e
00000120: 3029 033d b368 ff3d 428b c03e 7562 913e
00000130: 7243 6abe 9cc9 823c 40d0 b2bd d27f 44bd
00000140: 3f7a a0bd e945 873d 717a d8bd dc25 1c3e
00000150: e9d9 51be ece9 efbe ca9d e7bb 1879 2abe
00000160: ecb3 5bbe 0916 27be b6f0 38be 04ca 653e
00000170: 5301 7039 3800 33be deb7 4abd 0eb7 05bc
-0.07593661 -0.084668666 0.008895013 -0.034542177 -0.14316331 -0.3480308 0.15212496 -0.1499456
0.055044528 -0.13070668 0.13246593 0.09269511 0.056446586 0.046282772 -0.106121466 0.0045110434
0.0210437 0.017261332 -0.017422456 -0.008303731 -0.23237906 0.26424342 -0.720403 -0.682014
-0.08011991 -0.15685333 -0.14529632 0.0037492781 -0.027744945 0.023124665 0.02234307 -0.030931931
-4.7576058e-11 7.980086e-11 -2.7287783e-10 1.0967987e-10 1.8772182e-09 2.0951245e-09 9.685962e-11 -8.1348833e-10
-5.7224503e-10 -1.16204484e-10 -5.1038457e-10 -3.8687795e-10 -3.3774525e-09 1.2749533e-09 2.7660028e-09 -5.953528e-10
1.7031117e-10 3.1873178e-11 1.9769748e-10 3.991781e-11 2.7513333e-10 2.2225334e-11 4.67955e-10 -8.6823354e-10
-1.6624563e-11 2.992997e-10 -1.8988301e-10 5.7486242e-12 2.4729818e-10 1.6877309e-10 -9.004095e-11 -2.15117e-10
-0.008115024 -0.0985879 -0.24901964 -0.12727463 0.1050396 0.13118516 -0.110172816 0.31638345
0.0320217 0.12471142 0.37606245 0.2839543 -0.22877291 0.015965275 -0.08731127 -0.04797346
-0.078358166 0.06605131 -0.10570229 0.15248817 -0.20493282 -0.46858156 -0.0070683705 -0.16647756
-0.21455353 -0.16317 -0.18060574 0.22440344 0.00022888677 -0.17480552 -0.049491756 -0.008161319

encoder0.self_attn.out_proj.weight f4 [32, 32]
00000000: 9c72 01be 87f9 f5bc c8e1 333e aff3 b4bd
00000010: 85d4 31be 506b 5fbe ee7a 133d 119d 7fbe
00000020: 9628 623d 94a5 6e3d 0bb0 80be a7d3 74be
00000030: f6cf dd3b b5d9 f1bc 22a0 203e b4ac 013e
00000040: b8c4 34bd 5ebd 00be 0809 71bc 3f7b 943d
00000050: bbd8 0e3e 3d84 733d 1687 26be 7e57 5fbd
00000060: 0c77 1b3e bda7 df3d 8ce3 643d 7b3a 3dbe
00000070: c7c8 09be c78e da3d 4ccc c0bd 3707 393d
00000080: db4b 063e f6fd 86bd c18a bb3d 55c0 babd
00000090: 4d3e 9f3d 7669 5bbc a3d4 55bd 4a5f 10bd
000000a0: 20d1 9ebd 893c bb3d 10fe 583e 60a7 3f3e
000000b0: 12ea 02bd 5329 283e cb0d b8bd 3141 713d
000000c0: 6342 a63d 008c ba3d ff9b ef3c 3626 db3d
000000d0: a00b 03bd c645 a1be 79e8 b33d 91ca 3a3d
000000e0: d20b 12be 2f09 0a3e 72a3 1bbe 3d42 8b3d
000000f0: a7e7 603c d9d8 883d eb6f f13c c664 18be
00000100: f02e 723d 92f5 393d 3fd7 01be cd5a 80bd
00000110: 01f4 02be aea2 99bd 77f7 363d 1622 903d
00000120: bf1b ddbc f6dd 463e 3ebe 66bd 3614 033e
00000130: c4f6 63bc 7650 b1bd cfcd 5abc 8d34 ccbd
00000140: a490 09be a383 043e a7c2 7ebd d040 2d3e
00000150: 6569 f7bd 0aba fc3b 1576 66be cd6f 46be
00000160: 14ed 32be 8155 78bd 4c79 b8bd 339e ce3d
00000170: ceda 02be 1fac 183b 8fe9 1a3e 6569 48bd
00000180: d279 20bd 70d5 1abe d247 20be a4f6 2fbe
00000190: cc43 a2bd 8468 da3d 1df8 86be 0076 e3bd
000001a0: 7b8b 0c3e 07f6 94bd 3fbe aebd d1ee 07be
000001b0: 93d3 aebd 92eb f3bc 15e8 b6bd e49d e9bd
000001c0: 51cb f43d a379 0fbd aeca b3bd 4059 02bd
000001d0: 5a0b ad3c 284e 4ebe 8521 acbd 3eec d13d
000001e0: 031a ee3d c8f5 ffbd f8cd 673d 03cc 10bc
000001f0: d49e a8bd e5c3 063e 70f4 fcbd e294 30be
00000200: e254 483e 2736 ed3d d027 d53d bb73 353e
00000210: ff32 06bc 398b 08be d4ba 9e3c 98f5 853d
00000220: 25ae a33d 2a07 b7bd 7f18 a53c 848f 70be
00000230: 1a0f 6b3b 7bbf d4bd 4de8 283d 621f a23d
00000240: 1a00 90bc 557c 043e 2044 353e 986f 153c
00000250: 810f e83d 3271 803e 9704 9c3d 830d fcbd
00000260: 4f72 b63d 61ce f33c 8191 ecbd bd31 8ebd
00000270: f7fe d53d 92d9 e53d c9a5 f0bc f195 03be
00000280: 043c 863d 0cab d83d 97b8 2b3e 8e92 053e
00000290: 5659 173e a9c0 3c3e b8e0 67bd 99e0 8ebb
000002a0: c4fa fbbd 0610 1a3e fca9 d0bc 9d31 b4bd
000002b0: fbb8 cb3d 9011 1a3e 3a8d c53d dc43 c8bc
000002c0: e138 443e e8bb 51bd d637 7bbc 600d bfbd
000002d0: 8f4a 64bd f3e9 7bbd c2f1 3cbe 43bd e6bd
000002e0: ab32 11be 0639 b13d 4267 c23c a5f4 2b3c
000002f0: b218 dabd 7a1c 393a 5d59 aa3d e485 d1bd
00000300: 56ca 05bc 9a86 5a3d b237 033e ee42 2fbd
00000310: 9184 ddbd 0daa a5bd 03c1 4fbe c333 9c3d
00000320: a9f6 fb3d 0ca6 f5bd 474a 7fbc 688c 353d
00000330: eba3 4abe a49f 53bd 373b 12be f241 00be
00000340: 7194 c9bd b3e5 72bd 9897 90bd 77c1 3f3d
00000350: 8566 11be 9128 cfbd 461c 043e 2f30 17bd
00000360: 8cfa 113e d6b1 063d 7274 b13d 5485 c03d
00000370: fdba 763d a925 abbd cca1 1abe 893f 0c3c
00000380: 8bdd dd3d 9064 83bd 1c2c 383e 9043 89bc
00000390: cc45 23be a736 613d 4c8a 9fbd 9b34 22bb
000003a0: f62c a8bd 06bf 0fbe 41af 37be ba46 fd3c
000003b0: 4c10 ecba 43a6 153e a1f1 52bc 2ff7 193b
000003c0: 6edc c6bc 0864 0fbe 553a 0cbe d26a 0a3c
000003d0: 804a 293e 8a4c 073e f40b 323e 6708 273e
000003e0: 1afa 16be a02f 883d 9bd3 2e3e 3ba9 edbd
000003f0: f7bd fdbd 2c46 0b3e 3fd8 0cbe 9290 543d
-0.12641376 -0.03002621 0.17566597 -0.088355415 -0.17366226 -0.2181828 0.036005907 -0.2496226
0.055214487 0.058263376 -0.2513431 -0.23908864 0.0067691756 -0.029522756 0.15686086 0.12663537
-0.044132918 -0.12572238 -0.014711626 0.0725007 0.13949864 0.059452284 -0.16262469 -0.0545268
0.15182132 0.109206654 0.055881068 -0.1847934 -0.13455497 0.10671764 -0.094139665 0.045172896
0.13114874 -0.06591408 0.091573246 -0.09118716 0.07775555 -0.013391843 -0.05220474 -0.035247125
-0.07754731 0.091424055 0.21190667 0.18716192 -0.031961508 0.16422014 -0.08987006 0.058900062
0.08118131 0.09108734 0.02924919 0.107006475 -0.03199351 -0.31498545 0.08784575 0.04560334
-0.14262322 0.13480066 -0.15199068 0.06799743 0.013727105 0.066819854 0.029472312 -0.14882192
0.059126794 0.04540021 -0.12679766 -0.06267319 -0.12788393 -0.07501732 0.044669595 0.070377514
-0.02699077 0.19420609 -0.056333773 0.12800679 -0.013913814 -0.08657925 -0.013354733 -0.09970961
-0.13434082 0.1294084 -0.062197354 0.16919255 -0.12080649 0.0077126073 -0.22505982 -0.19378586
-0.1747325 -0.060628418 -0.090075105 0.10088768 -0.1277878 0.0023295952 0.15128158 -0.048928637
-0.039178677 -0.15120482 -0.15652397 -0.1718393 -0.079230875 0.10664466 -0.2636117 -0.11106491
0.13725083 -0.072734885 -0.0853238 -0.13274695 -0.08536448 -0.029775415 -0.08930985 -0.11407068
0.11952842 -0.03502811 -0.087788925 -0.031823397 0.021123577 -0.20147002 -0.08404831 0.10250138
0.11626055 -0.12498051 0.05659291 -0.008837703 -0.08233419 0.13160665 -0.1235131 -0.17244294
0.1956363 0.11582594 0.10407984 0.17719929 -0.008190869 -0.13334359 0.019376196 0.06540984
0.079922 -0.08936913 0.020153282 -0.23492247 0.0035867156 -0.103880845 0.041237164 0.07916142
-0.017578173 0.12938054 0.17701769 0.009120844 0.11331082 0.2508636 0.07618063 -0.12307265
0.089085214 0.029761495 -0.1155119 -0.069430806 0.10449021 0.11223139 -0.029375928 -0.12850167
0.06554416 0.105794996 0.16769634 0.13044187 0.14780173 0.18432869 -0.056610793 -0.00436027
-0.12303689 0.15045175 -0.02547168 -0.087985255 0.099473916 0.15045762 0.096460775 -0.02444642
0.19162323 -0.051204592 -0.015333137 -0.09328723 -0.055735167 -0.06150241 -0.18451598 -0.112665676
-0.14179485 0.086534545 0.023730878 0.0104953395 -0.106492415 0.0007061433 0.08317826 -0.10230616
-0.008165916 0.053351022 0.12814215 -0.04278844 -0.10816301 -0.08089075 -0.20288472 0.0762706
0.12302906 -0.119945616 -0.015581674 0.044323355 -0.19789092 -0.051665917 -0.14280401 -0.12525156
-0.09842766 -0.05930109 -0.07060164 0.04681536 -0.14199264 -0.10115159 0.1290141 -0.036911186
0.14255732 0.03288444 0.08664788 0.0940043 0.06023692 -0.083567925 -0.15100783 0.00856007
0.108332716 -0.06415665 0.17985576 -0.01675585 -0.15944594 0.05498376 -0.0779005 -0.0024750594
-0.082117006 -0.14037713 -0.17937948 0.030917514 -0.0018010228 0.14614205 -0.012874992 0.002349328
-0.024275031 -0.14003003 -0.13694127 0.0084483195 0.16532326 0.13212791 0.17387372 0.16311799
-0.14743844 0.06649709 0.17072909 -0.11604544 -0.123897485 0.13600987 -0.13754366 0.051895685

encoder0.self_attn.out_proj.bias f4 [32]
00000000: 8741 5fbe 8e11 903e eb25 653e af85 e93d
00000010: 6854 22be ccbb 04bd 5b37 833d 1cdf 18be
00000020: 055f c6bc 079b 123e 9112 a1bd 89a8 c93e
00000030: 8c32 5d3d f445 b73d e0f8 3d3e 5609 2cbd
00000040: 3512 b0bd 11b3 fd3d 8e7b 97bd 8f9d 343e
00000050: 250f 3dbe 3b9f 963d e202 1a3e b095 893e
00000060: 7e7a e1bd 3687 6d3e a7c9 013d 4465 87bc
00000070: 55b7 5fbe aae8 073e dc7a a6be 8618 b73c
-0.2180234 0.28138393 0.22377746 0.11402451 -0.15852511 -0.03240566 0.064070426 -0.1492886
-0.02421523 0.1431695 -0.078648694 0.39386395 0.054003283 0.089488894 0.1855197 -0.04200109
-0.08597223 0.1238767 -0.07396613 0.17638229 -0.18462808 0.073545896 0.15040162 0.26872015
-0.11009692 0.2319611 0.03168645 -0.01652778 -0.2184728 0.13272348 -0.3251561 0.02235056

encoder0.linear1.weight f4 [2048, 32]
00000000: 6838 93bc d326 093e bdf1 a3bd af26 22be
00000010: 7919 4fbd 717b 0bbe 5f42 fdbd 8765 173e
00000020: cc75 643c d33d 0f3e a334 843d 1da7 c93d
00000030: 565f c53d dd2e 2f3d f877 f13c 412c 043e
00000040: 1246 0d3d 1593 073c b47f f3bd ea5e 963d
00000050: 718a 8dbc 1f81 3d3d 4e13 31be 57f7 17be
00000060: c51e cf3d 1fc3 183e e8d3 09be 211a 39bd
00000070: aede 333e 4a4b 253e 14b5 cc3d 500e 073e
00000080: e4ab b53d c0df 203e 1da7 b73d efd9 8e3d
00000090: 27c9 2f3d e9a1 56bd 75a0 16be f3d0 7d3c
000000a0: 9b74 2fbe 8fac b3bd f7b2 13bd fce3 d23c
000000b0: 072c 2b3c 64e2 b3bd 7b19 33be bbfb 18be
000000c0: 6aaf b23d 7543 533d d287 08be 981e 15be
000000d0: 7c60 03be 71b8 d63d 3701 a83d a721 1abd
000000e0: 4c15 ee3d 1f46 7d3d cb8f 163e 3e39 f2bd
000000f0: 1182 173c 3341 b9bd 9502 d83d 76bb 02be
00000100: 5a13 153e abf8 0f3e 2338 033c 9056 00bd
00000110: b5a3 0fbe 3eb6 33be e516 08be d252 32bd
00000120: 4d2a 3a3d 3e64 333e cabb 07be 8312 08bd
00000130: 53e4 16bd 2640 08be af88 f43d cbf8 ccbd
00000140: 9213 013e 9ade e8bd 2335 7d3b 3e41 c33b
00000150: 4a63 873d d1b9 e23d 7409 c43d c97e b93c
00000160: 4645 80bd 6f2c f6bd af5e 893d be9c e33c
00000170: 0084 0dbe 5be0 cabd d1a5 2b3e cd18 873d
00000180: a6c7 2b3d 63c5 8b3d 96c8 dc3d 742f 90ba
00000190: 21c6 d93d b9e8 863d 4b66 08be 749f d13d
000001a0: 1719 dbbd 5a5b e7bd 8cc1 0abe a22a 38be
000001b0: c2df 113e 8a6a fabd dcaf febd dbec d83d
000001c0: 34ab 8c3d c5bf 153e 2292 133e a7d3 bd3d
000001d0: c70f fb3d 10fd 90bd 5144 d5bd 6bb8 813c
000001e0: eeb5 9b3c 3ea5 d93d 0a06 b83d 222a 293e
000001f0: ab5a bebc 1527 77bd cb4d c4bd 0a0b 0c3d
00000200: b545 bb3d e925 203e 391c e4bd f0d8 23be
00000210: fde0 8a3d b2d4 06be e4c0 823d 3d37 c33d
00000220: 215c 8dbd 1bc1 0e3d 4e0b 32be e336 133e
00000230: 8298 e33d ff4d 733c c0a7 cf3d 05d6 92bd
00000240: 3830 7f39 4ce1 2d3e cabb 37bd c1b0 263e
00000250: e7b7 aa3c fd1e a93d e307 cb3d 02a9 ddbc
00000260: 0261 a33d 61b6 cabd d5a1 d83d 86aa cebd
00000270: ec2f a03d 87d0 82bd 2b91 313d f311 02be
00000280: 827f b33d b58c d0bd 54e5 5b3d a979 723c
00000290: 77e1 053e cc88 0cbe 3af8 9fbd fcb3 ffbd
000002a0: 8df6 1fbc 3c73 21be 9470 cdbd c348 d1bd
000002b0: d0e2 a4bc 1725 13be e305 26bb eebc 2e3c
000002c0: a06d 373e 90c1 12be 46da 623c 7043 01be
000002d0: 0ddc c0bd e9d7 d3bd 705d be3c ef28 3dbe
000002e0: 69a3 a73d 5143 e63d ce8d 92bb dfa4 2c3e
000002f0: dc44 e83d 4e0b 8e3d 0de1 1d3e aa8b 103e
00000300: c5d0 243e b684 c4bd bc32 8cbc 510f b23d
00000310: 235e 7ebd 78a8 d2bd c3ff 89bb 1ff7 ef3d
00000320: 640d 03bd aefc ea3d 9e41 dcbd 8548 953d
00000330: a582 ffbd 1c3c b2bd 0156 99bd fe6d b1bc
00000340: ccec 8dbd a0fb 2cbe a1ae 2a3e ca70 25bd
00000350: 05c5 bb3d cead 193e f9ad 7a3d 6654 a53c
00000360: 7c79 a43c c501 2d3e 58c8 c93d 9988 913d
00000370: 21c7 1e3e e8ec 8e3d 3ed2 b63c 97ff 1c3e
00000380: 0ac7 173e cfb8 e7bd 0a49 df3d 20d3 6bbd
00000390: 7258 53bc 92e8 31bd 8e44 1ebe 97d9 f83d
000003a0: d595 f63d 72c4 c7bc f7bf 463d 6669 293d
000003b0: b173 0c3b 296f 8f3d 4818 13be b8cf a83d
000003c0: e97a 29bd 37f7 d7bd ecad 50bd 637b 1d3d
000003d0: f2cd 263d 8b35 82bd 55f9 113e b522 5ebd
000003e0: 394d 28be 4f2a 703c cccf 82bd 8102 a0bd
000003f0: 9cbe 463e 1aa1 09be ddec 6c3d c4ac 0e3e
-0.017971233 0.13393717 -0.08005092 -0.15835069 -0.050561402 -0.13621308 -0.12366175 0.14784823
0.013944101 0.13988428 0.06455352 0.098463275 0.096373245 0.0427693 0.02947615 0.12907507
0.034490652 0.008274813 -0.11889592 0.07342322 -0.017277928 0.046265718 -0.1729252 -0.14840446
0.10113291 0.14918183 -0.13459742 -0.045190934 0.17565414 0.16142002 0.099954754 0.13189054
0.08870676 0.15710354 0.08967421 0.06975161 0.042916443 -0.052400503 -0.14709647 0.015491712
-0.17134325 -0.08773147 -0.036059346 0.025743477 0.010447509 -0.08783415 -0.17490189 -0.14939778
0.08724864 0.051578004 -0.13333061 -0.14562452 -0.12829775 0.10484398 0.08203357 -0.03762975
0.11625156 0.06183445 0.1470329 -0.11827324 0.009247319 -0.09045639 0.105473675 -0.12766823
0.14558163 0.14059703 0.0080089895 -0.031332552 -0.14027293 -0.17549989 -0.13289984 -0.043536015
0.045450497 0.17518708 -0.1325523 -0.03322078 -0.03683884 -0.1330572 0.11940133 -0.10008391
0.12605122 -0.11370583 0.0038636408 0.005958705 0.06610735 0.11070598 0.095721155 0.022643464
-0.06263213 -0.12020194 0.067075126 0.027784701 -0.13819885 -0.09906074 0.16762473 0.06596527
0.041938446 0.06824758 0.10780446 -0.001100047 0.10633493 0.06587357 -0.13320272 0.102354914
-0.10698145 -0.11296721 -0.13550395 -0.17985013 0.14245513 -0.12227352 -0.12435886 0.105920516
0.06868592 0.14623936 0.14411214 0.09268885 0.12258869 -0.07079518 -0.10413421 0.015835008
0.01900765 0.106272206 0.08985527 0.16519979 -0.023236593 -0.060340006 -0.0958515 0.034190215
0.09144155 0.15639462 -0.111381955 -0.16000724 0.06781194 -0.13167074 0.06384447 0.0953202
-0.06902338 0.03485213 -0.17387125 0.14376406 0.11113073 0.014850139 0.10139418 -0.07169727
0.00024336658 0.16980475 -0.044856824 0.16278364 0.020839645 0.08257864 0.09913614 -0.027058128
0.07977487 -0.09898067 0.10577742 -0.100911185 0.0782164 -0.0638743 0.043351334 -0.1270216
0.087645546 -0.10183088 0.0536855 0.014799514 0.1307429 -0.13724059 -0.07811017 -0.12485501
-0.009763372 -0.15766615 -0.10031238 -0.10218956 -0.020127684 -0.14369617 -0.0025333099 0.010665162
0.17912912 -0.1433165 0.013845986 -0.12623382 -0.09416971 -0.10343916 0.023237914 -0.18472646
0.08185465 0.11243308 -0.004472471 0.16859768 0.11341259 0.0693575 0.15417881 0.14115778
0.16095264 -0.09595625 -0.017114036 0.086943276 -0.062101495 -0.10286039 -0.0042113974 0.117170565
-0.031995192 0.11473976 -0.10754703 0.07289223 -0.1247609 -0.08702871 -0.07487107 -0.021658894
-0.06929931 -0.16892862 0.16668178 -0.040390767 0.09168438 0.15007707 0.06120107 0.020181846
0.02007746 0.16895206 0.09852666 0.07106132 0.15505649 0.0697878 0.022317048 0.15331875
0.14822021 -0.11314546 0.10902603 -0.05757439 -0.012899505 -0.043434687 -0.15455839 0.12150877
0.12040297 -0.024385665 0.048522916 0.04136028 0.0021431262 0.07003624 -0.14364731 0.08242744
-0.041376982 -0.10545199 -0.050947115 0.03844775 0.04072375 -0.06357869 0.14255269 -0.054232318
-0.16435708 0.014658525 -0.0638729 -0.078129776 0.19408649 -0.13440362 0.057843078 0.13933092

encoder0.linear1.bias f4 [2048]
00000000: a43c 3fbd b06f 07be f9f4 93bd a368 30be
00000010: f76e 1ebe eee1 c0bd c617 e43b 6db1 923d
00000020: 3465 ecbd 1b5d 25be 3cbd 8abd 5d3c 41bd
00000030: 04c6 75bc 355b 893c c934 273d e1bb f13d
00000040: 0ef2 c63d 0867 8c3d 7b8a 763d c7d6 9a3d
00000050: eca2 3bbd acfd cb3b 49c6 32be 1ceb cb3c
00000060: 039b 64bd 88b5 593d 3481 9d3c ff11 df3c
00000070: 19cd ddbc eb68 28be bc9d bebc 4cbc cebd
00000080: de44 f3bd 4d07 73bd 3dba 20be 914d 053d
00000090: 68fc acbd 4a49 86bd a174 833d 208e 2ebe
000000a0: c4a6 46bd db40 15be 9381 043e 81c1 9abd
000000b0: 4680 46bd d995 cf3d 6b22 2f3e 1747 eb3d
000000c0: f414 c03d 7995 863b 9d97 faba dcf5 60bd
000000d0: 6747 ab3d 15a2 dcbd 8b36 f4bd fce4 44be
000000e0: 6540 28be 3b63 d0bd 90e5 3dbd 44ae 4cbd
000000f0: 3f44 30be aea2 60bd fe69 253e 3fac 263e
00000100: 5486 1cbe 2b8b 0ebe 3a30 c83d 886d 363e
00000110: 8e92 20bd ad76 91bd e360 153e 16d4 c73d
00000120: 9160 4dbd 13f7 0e3e 724b 303d 7466 cf3d
00000130: 7636 943c 417c 163c c091 aa3d c077 29be
00000140: 3d21 1d3e 59b9 dd3c 9900 d33d 0117 dcbd
00000150: ccbc 2bbe 0b8f cabd c001 38bc 467d 93bd
00000160: 277e a1bd b436 e5bc 0ddf e5bc 6c29 b53c
00000170: e15d 243e c2f2 53bd 8c63 213e f8f1 493d
00000180: ffd1 2d3e d091 fb3d ff8b d3bd 28af d0bd
00000190: a10d 133e ac80 b1bd 654e 36bc 022c ac3d
000001a0: 8c6f 263e 5582 6ebb 3094 ec3d 02e0 b83d
000001b0: 317c c53d 74c8 2e3e fd29 0fbd 474e 7ebc
000001c0: 7186 e83d 841a c9bc 7358 42bd 2fd0 c33d
000001d0: a892 d43d 9063 a53c 835c ed3d 9e70 a33c
000001e0: 0c36 c73d 3b3e f23d 26a7 bdbc 4b5b 243d
000001f0: f727 573d 6a14 053e 35cd 26be 994c 1dbd
00000200: 24c0 033e 0534 1abd c338 22be dbb8 2e3e
00000210: 11f6 d0bd fb51 1b3e b352 85bd 4380 6dbd
00000220: 2ce4 62bd 5a84 20be ac39 4fbd 452f 9ebc
00000230: 7431 cd3d 810a c2bd bad1 f4bc 7b3c debc
00000240: c9dc 2dbe 88ca 123e ec0b f4bd 3d4c e2bc
00000250: 666a c23d e8b5 34bd 676b 133e 83a2 073e
00000260: e6d3 333e c1e2 ed3c 68b5 e2bd 78dc e63c
00000270: b568 13be 9ec3 e1bb 1bd3 33bd cdd8 0bbd
00000280: a17d 73bd 1325 853d 8255 f3bd 3648 3e3d
00000290: 836a cfbd e596 9dbd be32 d63c 4fb0 1f3e
000002a0: e6b4 43bd d240 543c 3d9f 27bc 29f1 26be
000002b0: 14fa 4b3d 68d6 b5bd 9296 22be 9a39 293e
000002c0: 3596 6bbd 90ad 8b3d 52cb 33bd a9c0 60bd
000002d0: 175f c83d 0d2e d0bd 4ca1 283e b42e 46bc
000002e0: 465a 07be 8245 85ba 9a97 af3b d164 d93d
000002f0: 7b50 133e ad28 30be e1ad 12be b43d 06bd
00000300: c0b5 06be e40f ca3d fd3c 8bbd 7d91 a63c
00000310: 6d82 e23d 1c02 d13d c9c3 a8bd 2575 2fbe
00000320: cc10 c63d 3ca0 293e 9571 9ebd 692b 0dbe
00000330: aed7 913d 1f22 46bd e031 28be 1831 103d
00000340: 7523 4cbd bbf4 df3d 05c7 17bd 6980 cc3d
00000350: 6cf1 24be 159d 233e 0d55 09be 6861 b83d
00000360: f0de 7abd 8a65 973d 7ad1 bcbd aa91 2dbd
00000370: b50d 27be 10d1 973d 2c60 953c fca9 c8bd
00000380: af20 1c3e 08a6 0b3e 491d 13be 6fe7 093e
00000390: d4d0 413d 4fd7 83bd b74d b03d 596f 1f3e
000003a0: 03bc 613d 7204 c6bd 4416 a9bd 39dc b8bd
000003b0: 7833 64bc 73b9 cd3d 34ee 1dbe eda8 533d
000003c0: ab97 ebbd d286 d03c 2540 323d 352a 14be
000003d0: 0e08 cc3d 9234 7b3d 4c63 f2bd 601a 063e
000003e0: a440 033b cbe8 78bc 8157 bf3d 17a9 8d3d
000003f0: 8146 bbbd bb5b 80bc 3505 253e d348 c63c
-0.04668869 -0.13226199 -0.07224459 -0.17227416 -0.15472017 -0.09418093 0.006960842 0.071627475
-0.115427405 -0.16148798 -0.06774375 -0.047176708 -0.015000824 0.016767124 0.040821824 0.11803413
0.09714137 0.06855589 0.06019066 0.07560497 -0.04580967 0.0062253084 -0.17458452 0.024892382
-0.055811893 0.053151637 0.019226648 0.02723026 -0.027075337 -0.16446273 -0.023268573 -0.100945085
-0.1187837 -0.059333134 -0.15696044 0.032544676 -0.0844658 -0.065569475 0.064187296 -0.17046404
-0.048498884 -0.14575522 0.12940054 -0.07556439 -0.048462175 0.10136003 0.17102973 0.11488169
0.093789965 0.004107174 -0.0019118671 -0.05492197 0.08363228 -0.10773102 -0.11924466 -0.19227976
-0.16430815 -0.10175177 -0.046361506 -0.04997088 -0.17213534 -0.054842643 0.16153714 0.16276644
-0.15285617 -0.13920276 0.097748235 0.1781522 -0.039202265 -0.07102714 0.1458774 0.09757249
-0.05014092 0.13961439 0.0430407 0.10126963 0.018092375 0.009184898 0.08328581 -0.16549587
0.1534471 0.02706592 0.10302848 -0.10746575 -0.16771239 -0.098905645 -0.011230886 -0.072016284
-0.0788539 -0.027980186 -0.02806046 0.022114478 0.16051437 -0.051745184 0.1576063 0.049303025
0.16974638 0.12283671 -0.103294365 -0.101896584 0.14360668 -0.0866712 -0.011127089 0.08406831
0.1625349 -0.0036393602 0.11551702 0.09027101 0.09642828 0.17068654 -0.034952153 -0.015521592
0.11353768 -0.024548776 -0.047447633 0.09561192 0.10379535 0.020189077 0.11589911 0.019951161
0.097271055 0.11828276 -0.023150992 0.040126126 0.052528348 0.12996069 -0.16289218 -0.038403127
0.12866265 -0.037647266 -0.15841965 0.17062704 -0.102031834 0.15167992 -0.06509914 -0.057983648
-0.055393383 -0.15675488 -0.05059211 -0.01930965 0.10019198 -0.0947466 -0.029885162 -0.027128449
-0.16978754 0.14335072 -0.119163364 -0.027624244 0.0949295 -0.04411879 0.1439644 0.13245587
0.17561302 0.029038789 -0.11069757 0.0281813 -0.14395411 -0.0068897745 -0.043902498 -0.034142304
-0.05944598 0.06501212 -0.11881544 0.046455584 -0.101277374 -0.076947965 0.026147243 0.155946
-0.04777994 0.0129549075 -0.010230836 -0.16302933 0.04979904 -0.08878785 -0.1587775 0.1652588
-0.057516295 0.06820214 -0.043895073 -0.054871235 0.09783762 -0.101650335 0.1646778 -0.012096096
-0.1321803 -0.001016781 0.0053586485 0.10614932 0.1438617 -0.17203017 -0.14324142 -0.03277369
-0.1315527 0.09866312 -0.06798742 0.020333046 0.11060033 0.102054805 -0.08240468 -0.17134531
0.096711725 0.16565031 -0.07736508 -0.13786091 0.07121216 -0.048372384 -0.16425276 0.03520307
-0.049838502 0.109353505 -0.037055034 0.0998543 -0.1610772 0.15977891 -0.1341135 0.09002954
-0.061247766 0.07392414 -0.09219642 -0.042375244 -0.16313823 0.074129224 0.018234335 -0.09798047
0.15246843 0.13637555 -0.1436664 0.13467191 0.047318295 -0.06437551 0.08608573 0.1556982
0.055110943 -0.096688166 -0.082562 -0.09026379 -0.013928287 0.10045137 -0.15422899 0.051674772
-0.11503538 0.025454912 0.043518204 -0.14469226 0.09962474 0.06132943 -0.118353456 0.13095999
0.0020027542 -0.015192221 0.09342862 0.06917017 -0.09144307 -0.01566874 0.16115268 0.024204647

encoder0.linear2.weight f4 [32, 2048]
00000000: 4da6 953c 8a54 b1bb 258b ad3c 71b3 8a3b
00000010: 2cd4 8e3b 3ce6 b5bc 33eb c63c 6961 56bd
00000020: 9fbf c2bc e0b7 103c b6c4 acbb 2396 e8bc
00000030: 240d 503c 038f b1bb b849 0d3d e9a9 9a3b
00000040: 952b f03b ce49 803c 59a3 febc 20dc 3dbc
00000050: f89b de3b e8c4 b6bc 31f5 e7bb 031c fdbc
00000060: 644c 5fbc 58e6 86bc 023a db3c 7faa 5a3c
00000070: 9c9a 98bb 1ee8 8abd 10d5 b5bc e102 cabc
00000080: 0d79 283c adb7 b6bc 000f b4bc 486d 153c
00000090: 90be fb3b c2b5 0b3d 8d31 483b 5d0c b43c
000000a0: 781f c5bc 2e0a 05bc f285 e3bb 9032 c23b
000000b0: fdbd ee3c 78ee 83bb 0a99 eebc 4257 68bc
000000c0: ed72 ae3b 8c03 a13b f64a cfbc 1069 b53b
000000d0: 6fa5 32bd 5cdb 57bc bad5 d03c aa38 db3b
000000e0: c996 d4bc a3bd 97bd 93ef ec3c abfd 95bc
000000f0: 3f24 df3b dfd7 123d 7fa4 2aba 43aa dabc
00000100: 1f3f 813c c250 60bc 1911 fb3c 340f 703c
00000110: 2f6f 28bc 5b43 c5b8 bfc4 20bd 4911 663c
00000120: 2ff5 9e3c 96dd 58bd abb2 81bb 0d3c 24bc
00000130: c199 0abc a4ba aebb bd42 0f3c 7e36 13bc
00000140: b116 713c 4d99 e8bc e635 583b 8fdc 883c
00000150: e5da 2fbc 2f68 9f3b d246 a6bb 3bcd 03bd
00000160: 19d7 f93c f8f0 933b 6c0a 00bc e186 8abc
00000170: 4559 c6bb d94e bcbc 44fd 31bc 2ab3 adbc
00000180: bd47 2bbc 24c8 183c 9907 28bd 5a3d d83c
00000190: c9f4 0bbd 192d 00bc 659e 57bc 3b39 01bd
000001a0: fe7c 9dbd 00b9 cd3c 2a04 ffbc 9eaa 9f3b
000001b0: 4a3f c93c 7c6f a7bc 4bc1 49bc 3445 b43c
000001c0: e764 813c 038a 0e3b 5def 7fbb ba1a e7bc
000001d0: e5b2 69bb 4de0 7abc 1651 59bd bce9 41bc
000001e0: 0b8e b0bc 4a89 3dbc 7c21 05bc 55fb 813c
000001f0: 3b07 42bc 29a3 07bd d000 81bc 1e60 41bc
00000200: 4374 0abd 08b4 e0bb 4ac0 66bc a1d3 e63b
00000210: e9bf c8ba 9e50 dc3c d07a 493c a02b d4bc
00000220: d0c4 5bbc 6ec6 56bc 28d8 2dbd b631 05bd
00000230: 5fac 94bc e6f7 7abc 81ce 84ba e53f c6bc
00000240: f449 99bc 87c2 f93b c219 e83b 94d4 b63c
00000250: 740b 9c3c 2300 88bc ad86 893c c983 b33a
00000260: 451c fcbc abff 6ebc cb10 dabc 64c9 943b
00000270: c20a bfbc 6676 a33a 4031 83bd bbaf a9bc
00000280: 65c6 2ebb b486 da3b 5ede 6fbc 044b a83a
00000290: c207 2f3c 6823 5ebc 4fbf 32bb 3fb5 183c
000002a0: 003c 92bc 07bd c93c fee4 d23c efb1 8cbb
000002b0: 1b5b 88bc ef73 0bbd a97a 2b3c 3ec0 cf3c
000002c0: 9a85 90bc 912e 1ebc 39ea a7bc 0648 1c3c
000002d0: c434 36bc aa99 00bd 1889 93bd 59cd 3e3c
000002e0: 560a c83c 7b1b 35bd a7e5 943a 1e0f e1bc
000002f0: 688e afbc 4932 253c 02ba d1bc 23cf 16bd
00000300: e364 e5bb de32 0dbd fb5f 57bc 4620 e3bc
00000310: b92c ecbc b834 49bc ecf8 90bb 488f e6bb
00000320: 1434 73bb 5a32 8c3c 143a 0bbd 72a0 d93a
00000330: c567 6bba 2fa7 cb3c 4dc4 53bc a26a e53c
00000340: d4d5 c0bc 1726 4dbd 1845 c33c 2948 55bd
00000350: 41f4 31bd 2e09 54bc 7c8c 85bb f1eb 4abd
00000360: 31cd 313c 4421 dbbc 9c3d c93c ab48 8ebb
00000370: e363 e73a 326e fbbb 2cd8 49bd b336 a73b
00000380: 30d3 31bc 350b 8d3c 0207 68bc a7a9 b9bd
00000390: 9501 b9bd fede b3bc 7e2b 5dbc 7167 343c
000003a0: 173c 7fbb 86db 2dbc 3a0a c5bb 9892 96ba
000003b0: cd06 52bd 90e1 d9bc 0ee9 b03c d653 76bb
000003c0: 8220 2cbc 8e60 b8ba 36d1 8f3c 0c1a 87ba
000003d0: 65fe 2c3c e2fc ba3c cb32 123d b4c5 de3b
000003e0: ca41 493c a94b b33a 0c6a 013c e231 1c3c
000003f0: a62c 19bb bfcc ae3c 42d9 133c 0eaf 2abd
0.018267775 -0.005411689 0.021184513 0.004232817 0.004358789 -0.02220451 0.024282074 -0.05233899
-0.023773013 0.008832902 -0.005272473 -0.028391903 0.0126984455 -0.0054186597 0.03449413 0.004719962
0.007329414 0.015660193 -0.03108375 -0.011588126 0.0067934953 -0.02231069 -0.0070787896 -0.030897146
-0.013629053 -0.016467258 0.026761059 0.0133463135 -0.0046571027 -0.06782554 -0.022196323 -0.024659576
0.010282767 -0.02230438 -0.021979809 0.009120293 0.007682629 0.034108885 0.0030547113 0.021978552
-0.024062857 -0.008120103 -0.0069434578 0.0059264377 0.029143328 -0.0040262304 -0.02912571 -0.01418096
0.005323759 0.004913753 -0.025304299 0.005536206 -0.0436148 -0.013174858 0.025492538 0.0066901045
-0.025950806 -0.07409217 0.028922832 -0.018309435 0.006809741 0.035850402 -0.0006509497 -0.026692515
0.015777169 -0.013691129 0.030647801 0.014652062 -0.0102804145 -9.406238e-05 -0.03925013 0.014042207
0.019404022 -0.052945696 -0.0039580665 -0.010024083 -0.008459509 -0.005332308 0.008743939 -0.00898516
0.014714883 -0.028393412 0.003299111 0.016706733 -0.010733341 0.0048647146 -0.0050743604 -0.032178145
0.030498074 0.0045148097 -0.007814985 -0.016910018 -0.006053122 -0.022986816 -0.010863606 -0.021203596
-0.010454115 0.009325061 -0.04102287 0.026396442 -0.034168992 -0.007823252 -0.013160323 -0.03154872
-0.07689856 0.025112629 -0.031129915 0.004872634 0.024566311 -0.020438902 -0.012314151 0.022005655
0.015795184 0.0021749742 -0.0039052584 -0.028210986 -0.0035659608 -0.015312267 -0.053055845 -0.011835512
-0.021552106 -0.011568377 -0.008125659 0.015866915 -0.011842544 -0.033114586 -0.015747458 -0.011802701
-0.033802282 -0.006857399 -0.014083931 0.007044271 -0.0015315983 0.02689391 0.012297347 -0.025899708
-0.013413623 -0.013108833 -0.04244247 -0.03251811 -0.0181486 -0.015317893 -0.0010132344 -0.02420039
-0.018712021 0.0076220664 0.0070831487 0.022318162 0.01904843 -0.016601628 0.016787851 0.0013695891
-0.030775199 -0.014587323 -0.026619336 0.004540609 -0.02332056 0.0012471199 -0.06405878 -0.020713678
-0.0026668545 0.00666889 -0.014640419 0.0012839739 0.010683002 -0.013558246 -0.0027274673 0.009320556
-0.017850876 0.024626268 0.025743958 -0.0042936723 -0.016645005 -0.03404611 0.010466256 0.025360223
-0.017641831 -0.009654657 -0.020497428 0.009538656 -0.011120979 -0.031396545 -0.07203883 0.011645638
0.024418991 -0.04421566 0.0011359946 -0.027473029 -0.02143021 0.01008279 -0.02560139 -0.036818635
-0.007000552 -0.03447234 -0.013145442 -0.02772535 -0.02882992 -0.012280636 -0.004424205 -0.0070361234
-0.0037109898 0.017113853 -0.033990934 0.0016603603 -0.00089800014 0.024859993 -0.01292522 0.028004948
-0.023539461 -0.050085153 0.023836657 -0.05207077 -0.04344583 -0.012941642 -0.004075585 -0.049541418
0.010852144 -0.02674926 0.02456551 -0.004342159 0.001765367 -0.0076730484 -0.049278423 0.005102956
-0.010853574 0.017217258 -0.014161827 -0.09065562 -0.09033505 -0.021956917 -0.013499139 0.0110109905
-0.0038945728 -0.0106114205 -0.006013182 -0.001148778 -0.051276017 -0.026596814 0.021595504 -0.0037586591
-0.010505797 -0.0014066861 0.017555814 -0.0010307445 0.010558699 0.022825662 0.03569297 0.0067984704
0.012283752 0.0013679165 0.007898819 0.009533377 -0.002337256 0.021337865 0.009023966 -0.04167085

encoder0.linear2.bias f4 [32]
00000000: 2f0f d4bc b86b a9bc ab40 423c e4d0 acbc
00000010: 84f3 b73c 302d 33bb f5b7 34bd 0f2f 9fbb
00000020: 93e3 663d 8789 a9bb 7fd5 3eba 58b6 b6bb
00000030: 7c2d 023b 4591 ad3c f066 623b 069f 5abc
00000040: b231 b53d ca2a d23c 4d8a 5b3c 8ca7 7e3c
00000050: ee06 85bc 2cb0 0bbd e85f d33b 2218 4abc
00000060: a28f 6d3d cbba 91bb 5d0e b3bc 838c 00bc
00000070: 9de0 3f3d cf2f 0abd 83c4 f13c 6b02 713c
-0.025886146 -0.020681247 0.011856238 -0.0210957 0.022454984 -0.0027340166 -0.044120748 -0.0048579047
0.056369375 -0.0051738652 -0.0007279738 -0.0055759363 0.0019863537 0.021187434 0.0034546219 -0.013343578
0.08847369 0.025655169 0.013399673 0.015542876 -0.016238656 -0.034103557 0.006450642 -0.012334855
0.057998307 -0.0044473163 -0.021857435 -0.007846001 0.046845067 -0.033737 0.02951265 0.014710049

encoder0.norm1.weight f4 [32]
00000000: a85b b53f ab51 6d3f 80a6 583f f4dd 583f
00000010: 69c4 6c3f 5910 5c3f 84ab 5b3f 27ed 643f
00000020: 444d 9f3f b5c0 653f c180 533f bc50 6e3f
00000030: ce16 6f3f fe3c 663f 3ba2 533f 90b9 5e3f
00000040: 25c1 a83f aa35 5b3f bfca 523f 69e4 693f
00000050: 189d 813f 20fd 4f3f a699 5a3f 020c 743f
00000060: 1d50 c33f 291b 6e3f cba1 5d3f 59ea 563f
00000070: aff4 c63f 1a6a 763f 3dda 8b3f 653d 533f
1.4168596 0.9270274 0.8462906 0.84713674 0.924872 0.85962445 0.8580859 0.89424366
1.2445455 0.8974717 0.8261834 0.9309194 0.9339417 0.89936817 0.8266942 0.87001896
1.3183943 0.8562876 0.82340616 0.9136415 1.0126066 0.81245613 0.853907 0.9533082
1.5258824 0.93010193 0.86575 0.83951336 1.5543422 0.9625565 1.0925976 0.82515556

encoder0.norm1.bias f4 [32]
00000000: 4198 8abe 6f6d c4b9 1a3a 123d f2a9 693d
00000010: d47a fcbc 0ea5 df3b 5254 083d 156c 6e3b
00000020: c5f6 74bd d015 eebb 4adb 22bd 95b8 683d
00000030: 125c 15bb e741 013e 21b1 043c dba0 803c
00000040: 192b 34be 970c f63d 7d7d 263b 3535 123e
00000050: f482 47be 04aa 1b3c be1c 8a3d 2f86 533d
00000060: 509a e7bd 35f9 013d d0ac 46ba b580 9a3c
00000070: e52d 6dbe 6e2a 533d dba4 04be 0df8 9c3d
-0.27069286 -0.00037465568 0.03569994 0.057046838 -0.030820288 0.006825096 0.03328354 0.003638034
-0.05980565 -0.007265784 -0.03975991 0.056816656 -0.0022790474 0.12622796 0.008098871 0.015701702
-0.17594565 0.1201412 0.0025404387 0.1427811 -0.19483548 0.009500984 0.067437634 0.05164164
-0.1130873 0.031731803 -0.00075788517 0.0188602 -0.23162039 0.051554136 -0.12953512 0.076644994

encoder0.norm2.weight f4 [32]
00000000: 8d41 023f c4a6 7f3f 7d3c 773f fd2f 7e3f
00000010: 0eb0 763f 0a11 713f 37f7 7c3f d9e6 783f
00000020: de89 853f 3ee8 773f cda5 793f 040a 6e3f
00000030: 5a0c 6e3f 49c2 2b3f ff28 733f 720c 773f
00000040: a8fb 823f 79e7 d63e 0738 763f db45 6a3f
00000050: cf09 9c3e 3a4b 793f c930 723f 7caf 733f
00000060: 4e40 863f f2a5 5a3f c9c4 7b3f b6e3 7a3f
00000070: 3048 7d3f 05bc 823f 2500 743f 7c37 173f
0.5088127 0.9986384 0.9657667 0.99291974 0.9636239 0.94166625 0.9881472 0.97227246
1.0432699 0.9683875 0.97518617 0.9298403 0.92987597 0.6709333 0.9498443 0.96503365
1.0233049 0.41973475 0.9617924 0.9151284 0.30476233 0.9738041 0.9460569 0.9518964
1.0488374 0.8540946 0.98347145 0.9800371 0.98938274 1.0213629 0.9531272 0.5906904

encoder0.norm2.bias f4 [32]
00000000: 69b6 443e 6141 c5bb 55d8 943c c93f a739
00000010: fae6 033d 6aef 33bd ee30 46bb f39b 223c
00000020: efd1 9b3c 0956 02bc 4e9e 1e3b c893 aebb
00000030: edb8 7b3d 2575 23be 861c 45bb ff8e 073d
00000040: d96d 243d bed7 54be c714 893c 5a58 76bd
00000050: ff32 4a3e 31e5 e0bb 765a 34bd 428c 53bb
00000060: 49a8 d53c 7a54 febd 4f3a 253c ef9d 083c
00000070: 20e1 a03c 4ae6 d53a f8ff 203d 8769 3ebe
0.19210209 -0.0060197567 0.018169561 0.00031900246 0.0322027 -0.043929495 -0.0030241567 0.0099248765
0.019021003 -0.007955083 0.0024203244 -0.0053276755 0.061455656 -0.15962656 -0.0030076816 0.033095356
0.04014382 -0.20785424 0.01673354 -0.060142852 0.19746016 -0.0068632592 -0.044031583 -0.0032279645
0.026081221 -0.124184564 0.010084703 0.008338436 0.019638598 0.0016319242 0.03930661 -0.18594943

fc0.weight f4 [5, 160]
00000000: 370f a23c 790d d3bc c22f cd3b 3f9e d5bc
00000010: 70ee 333c 58e0 b43b 3ccb 69bc 71b4 a7bc
00000020: 475d 8b3d 336e 84bb a74a 89bc d1c1 ea3b
00000030: 4132 fb3b 9c9f 833b 86a8 653c f99b c53b
00000040: ae5f 913d 492e 533b 1d8f be3a 70d6 9d3b
00000050: 8f7f 1c3d 7d42 49bc 94aa b93b 4d26 363c
00000060: 7e74 8c3d a76a 923b 3fb7 c3bb df4b 9abc
00000070: 21ff 183d 62b2 24bd ba0b d23b 1f8c 773b
00000080: 7415 bb3a 4cba 353a 1f07 4e3a 750c d039
00000090: 0742 ed39 b292 dc39 67f9 b339 5613 2d3a
000000a0: 1619 cd39 0b79 323a 990b 293a 51d1 2b3a
000000b0: 9935 183a b038 843a 3474 5b3a 1643 673a
000000c0: b514 423a 9f51 a73a a881 323a 1775 1c3a
000000d0: daa2 1a3b 7d8c 3c3a 9a9e 673a c054 703a
000000e0: c3b6 fb39 cb2c 4e3a d6dc 0a3a 43f9 173a
000000f0: 9592 d739 eab9 2f3a a16a 5e3a 6f8e 4f3a
00000100: 2ece 6a3b b546 0f3b c751 e03a 6bfa e03a
00000110: 1420 cd3a 6ad0 f63a bf85 cf3a 7a36 c13a
00000120: d53a cf3a 6360 e03a 0c75 f53a e52c e53a
00000130: fc9a db3a a3ba 203b 053b 073b 2a42 c33a
00000140: e9df c73a c7d1 773b 7a8f d43a 4f44 063b
00000150: c06d ad3b 8dcf e53a 3735 ef3a 43e7 e43a
00000160: 31c0 e33a 6e44 023b 5612 e43a 62e2 b63a
00000170: 886b d93a d834 df3a 9f91 e03a 6ceb 313b
00000180: 4f33 f8bb eaf4 6cbb ad7c 79bb 7e42 75bb
00000190: bc96 65bb ad95 83bb ff83 75bb c522 82bb
000001a0: de85 72bb 099c 79bb 40ee 87bb 0c24 86bb
000001b0: 9b1d 6cbb a0fa b6bb 5ce8 79bb cceb 77bb
000001c0: a426 78bb c1c6 14bc d323 80bb 8b3d 87bb
000001d0: 578d 4bbc 104c 8bbb 2f47 87bb 7b20 81bb
000001e0: b5b9 63bb 03cf 90bb df3e 77bb c9ad 7abb
000001f0: 5311 67bb 8e9e 75bb 49e1 7ebb 93de cbbb
00000200: 7454 cb3a 75d1 8e39 2d26 fc39 6cc9 343a
00000210: 8f93 343a bc39 373a aa6b 093a fd19 363a
00000220: bbde 663a f211 623a 4be5 353a 276c 7e3a
00000230: 8018 1f3a 5962 343a 45b4 243a ecaf 8c3a
00000240: 0f90 823a a11a d53a 496c 183a a41e 393a
00000250: 2f03 1e3b a88b 113a 7d74 703a 0d84 263a
00000260: eb9a 573a c255 433a 297d 7e3a ce55 3d3a
00000270: ca53 813a a05c 293a 4c6e 143a faea 923a
00000280: 8fdf 20bc 5052 9abc fb1c eebb 05fd 9bbc
00000290: 5950 8bbb b4f7 dcbb 85e4 85bc 6723 7cbc
000002a0: efb9 8c3c ae8d 30bc ba9f 86bc 30d7 e9bb
000002b0: 0d5f e1bb b845 36bc 7c70 85bb e023 e3bb
000002c0: 4688 923c 103d a3bc e8d7 eebb 1fd0 f1bb
000002d0: 0df8 68bc d58e 55bc 2800 e8bb ec73 a1bb
000002e0: 4a62 863c 20c0 02bc 1e27 3dbc e1c1 6bbc
000002f0: d446 933b 49c7 c1bc f1d4 d9bb ef86 57bc
00000300: abc0 033d 21c1 ccbd 4207 09bb 7f9f d2bd
00000310: e412 8c3c eed4 b33a 9dbe 82bd 44b0 99bd
00000320: 2f71 4c3e c52d e9bc ec92 84bd 8940 b93b
00000330: e0e5 d13b 59ce 23bc 7488 e43c 24f7 873b
00000340: 5b57 553e 8d8f e0bc 6276 1bbc ab54 b7ba
00000350: 1959 903d 55e3 5cbd b22b bf3a 8b2d 5d3c
00000360: 7da3 503e d448 56bb d423 14bd 4a83 97bd
00000370: 3bb1 db3d 295a 15be c039 2e3c ab98 62bc
00000380: 9f01 b13c 2b2c 3c3c 0a66 383c a78d 2d3c
00000390: f5bc 363c 045c 473c 85bd 3d3c b95b 3b3c
000003a0: f6ba 383c b3ea 3c3c 19f6 3a3c 740a 4b3c
000003b0: 3d97 403c ac08 863c ff10 3f3c 9430 403c
000003c0: 8f6d 3b3c 4bbe da3c c02f 353c a157 4c3c
000003d0: 43f0 133d ab49 3b3c ab35 403c 5d0c 433c
000003e0: 0d00 363c 594b 513c 6a42 2f3c 0c81 433c
000003f0: ec25 393c 37f3 2f3c 564d 413c 83cc 9b3c
0.019782646 -0.02576326 0.0062617967 -0.026076434 0.010982141 0.005519908 -0.014269646 -0.020471783
0.068049006 -0.004041457 -0.01675923 0.007164218 0.007665903 0.0040168297 0.01401723 0.0060305563
0.070983276 0.0032223633 0.0014538501 0.0048168227 0.038207587 -0.012283918 0.0056660865 0.01111753
0.068581566 0.0044682804 -0.0059727724 -0.018835006 0.037352685 -0.04020918 0.0064100893 0.0037772728
0.0014273361 0.00069323624 0.00078593375 0.00039682133 0.00045253357 0.00042070966 0.0003432736 0.00066023075
0.00039119337 0.0006808198 0.00064485666 0.0006554323 0.00058063265 0.0010087695 0.00083715026 0.0008821947
0.0007403598 0.0012765414 0.00068094814 0.00059683755 0.0023595602 0.0007192565 0.0008835584 0.0009167902
0.0004801062 0.0007864951 0.00052971893 0.0005797336 0.00041117208 0.00067034236 0.0008484517 0.00079176476
0.003582846 0.0021862213 0.0017114215 0.0017164474 0.0015649819 0.0018830423 0.0015832706 0.0014740967
0.001581038 0.0017118569 0.0018726899 0.0017484693 0.0016754563 0.0024525307 0.0020634544 0.0014897038
0.0015249226 0.0037814246 0.0016217076 0.0020487492 0.0052926242 0.0017533168 0.0018250112 0.0017463941
0.0017376003 0.0019877213 0.0017400484 0.0013952965 0.0016587833 0.0017029298 0.0017133242 0.002714838
-0.007574476 -0.0036156722 -0.0038068697 -0.0037423666 -0.0035032472 -0.0040156455 -0.003746271 -0.00397143
-0.003700606 -0.003808739 -0.0041482747 -0.0040936526 -0.0036028388 -0.005584076 -0.0038132882 -0.0037829755
-0.0037864828 -0.00908059 -0.0039105206 -0.0041272095 -0.012423835 -0.0042510107 -0.004128359 -0.0039406396
-0.0034748141 -0.004419209 -0.0037726683 -0.0038250557 -0.0035258129 -0.003747854 -0.0038891605 -0.0062216013
0.001551284 0.00027240408 0.0004809363 0.0006896469 0.0006888443 0.0006989499 0.00052421784 0.00069466216
0.0008806993 0.000862389 0.00069387694 0.0009705447 0.00060690194 0.000688111 0.0006282966 0.0010733581
0.0009961146 0.0016258546 0.00058144756 0.0007061756 0.0024110784 0.00055521214 0.00091726315 0.00063520746
0.00082246837 0.00074514386 0.00097079814 0.0007222564 0.000986689 0.00064606406 0.00056621875 0.0011208944
-0.0098189255 -0.018838078 -0.0072666383 -0.019041548 -0.0042515215 -0.0067433957 -0.016344318 -0.0153893
0.017178504 -0.010775967 -0.016433585 -0.007136248 -0.006877786 -0.011125021 -0.004072247 -0.006931767
0.017887246 -0.019926578 -0.0072889216 -0.0073795463 -0.014219296 -0.013034542 -0.0070800968 -0.004927149
0.01640429 -0.0079803765 -0.011544971 -0.014389486 0.0044945274 -0.023654597 -0.006647699 -0.013154729
0.032166164 -0.09997774 -0.0020908867 -0.10284328 0.017098852 0.0013720074 -0.06384013 -0.07504323
0.19965051 -0.028464207 -0.064733356 0.005653445 0.006405577 -0.009997928 0.027897097 0.0041493345
0.20834105 -0.0274122 -0.009488674 -0.0013987025 0.07048244 -0.05392774 0.0014585166 0.013499628
0.20374866 -0.0032697218 -0.03616698 -0.07398088 0.107271634 -0.14585175 0.010633886 -0.013830344
0.021607218 0.01148514 0.011254797 0.010592855 0.011153449 0.012167934 0.0115808295 0.011435443
0.011275044 0.011530566 0.011411213 0.012392629 0.011754808 0.016361557 0.011661767 0.011730332
0.011439695 0.026702067 0.011058748 0.012472064 0.036117803 0.011431138 0.011731545 0.011904803
0.011108411 0.012774312 0.010696987 0.011932623 0.011300545 0.010739139 0.0117982235 0.019018417

fc0.bias f4 [5]
00000000: f104 98be da0c bcbd 770e 88bd 36d0 10bd
00000010: 4868 813d
-0.2969127 -0.09182139 -0.06643384 -0.035354815 0.06318718
