model_weights/60epochsConvNet_1_0_2.pth (torch_old, 265838 bytes, 12 tensors)

conv1.weight f4 [10, 5, 4]
-0.22927012 0.042723764 0.15429893 -0.13808094 0.027341038 -0.2051437 0.008733373 0.16628604
-0.0623359 0.15052477 0.21683332 -0.18015666 -0.20202975 -0.1851454 0.16293444 0.05227708
-0.3503623 -0.3386907 0.26889735 -0.35808477 0.11026633 -0.181802 0.08061477 0.065491825
0.031760212 0.12508409 0.021348473 -0.099972084 -0.13372464 -0.066453144 0.005430669 0.083725706
-0.34562194 0.041165225 0.21453921 0.026979882 0.48977748 0.28478545 -0.12714615 -0.43014213
-0.012621896 -0.014655339 0.019475464 -0.10515504 0.025339803 0.10235508 0.051058915 0.07940692
0.24173665 0.17179763 0.039226227 -0.18985249 0.078180335 -0.16292624 0.05542724 0.07347106
0.24334604 0.038738593 -0.10643399 0.7525621 -0.12889466 -0.021137103 0.018485857 0.103841946
-0.034910273 0.055453926 -0.13759074 -0.117054604 -0.34319127 0.09502602 -0.18584251 -0.0081934845
0.13866264 -0.030757463 0.35957226 -0.21059825 0.21232188 0.11904768 0.33952987 0.501502
-0.16725902 0.07854092 0.15690596 -0.19749865 -0.11540099 -0.17084861 -0.1716025 0.05506736
-0.17384851 0.099459745 0.11711892 -0.2359863 -0.18229458 -0.061362926 -0.14041276 -0.1537691
-0.52023095 -0.22864795 -0.5453857 0.2497574 -0.22043893 -0.2129505 -0.05229053 0.03874537
-0.060154993 0.016474996 0.057002585 0.07623131 -0.06584847 -0.025464846 -0.23235984 -0.236993
-0.1876108 -0.18650144 0.015363126 0.2457655 0.17315944 0.16551621 -0.4434547 -0.1921424
0.028172709 0.12145337 0.068645395 -0.0049053687 -0.06440234 0.10932479 -0.22211944 -0.008946885
0.16268791 0.053097297 -0.13433285 0.12846026 -0.10038885 0.15524729 -0.29297653 -0.20040667
-0.21692885 -0.22461595 0.3106313 -0.13154308 -0.09701445 -0.055981275 0.11528622 0.09465947
0.0604124 -0.158423 0.11627503 0.05285146 0.18781278 -0.08603969 -0.2815749 0.011776606
0.29835904 -0.054171946 -0.23863365 -0.41219866 0.2395773 0.25837862 -0.29334378 0.26474115
-0.03698166 -0.1446465 -0.17777501 -0.16227457 0.0078015015 -0.05204374 -0.18044156 -0.07622831
0.14850938 0.08753656 -0.18796454 0.12147412 -0.117414586 0.014578581 -0.22524898 0.055554826
0.11336907 0.41880798 -0.5066852 -0.101692095 -0.10325293 -0.04030352 0.10190009 -0.093934685
0.1051128 -0.04399092 -0.16001953 -0.16287732 0.020340465 -0.09202733 0.012425137 0.09523079
0.5684515 -0.07391153 0.6060075 0.12521586 0.013177352 0.06707709 0.25013098 -0.15788837
00000000: c9c5 6abe 1dff 2e3d 8a00 1e3e 1765 0dbe
00000010: 50fa df3c 3111 52be 6c16 0f3c e346 2a3e
00000020: ee53 7fbd 2a23 1a3e 8e09 5e3e fd7a 38be
00000030: e3e0 4ebe c196 3dbe 49d8 263e 7e20 563d
00000040: b062 b3be de68 adbe eaac 893e e356 b7be
00000050: 50d3 e13d 4e2a 3abe 5b19 a53d 9420 863d
00000060: ff16 023d 0b16 003e fee2 ae3c 2abe ccbd
00000070: 1def 08be 9618 88bd c1f3 b13b 6278 ab3d
00000080: 5cf5 b0be de9c 283d 2bb0 5b3e ea04 dd3c
00000090: 1dc4 fa3e 66cf 913e 9a32 02be 973b dcbe
000000a0: 12cc 4ebc f21c 70bc 028b 9f3c 875b d7bd
000000b0: 6b95 cf3c 8a9f d13d 2723 513d 18a0 a23d
000000c0: d089 773e b8eb 2f3e aeab 203d b168 42be
000000d0: 031d a03d 23d6 26be ac07 633d ff77 963d
000000e0: b42f 793e 5cac 1e3d 10fa d9bd e9a7 403f
000000f0: f6fc 03be b827 adbc a76f 973c 16ab d43d
00000100: 13fe 0ebd a823 633d 96e4 0cbe 53ba efbd
00000110: c4b6 afbe 019d c23d 804d 3ebe f73d 06bc
00000120: 94fd 0d3e 13f7 fbbc db19 b83e 11a7 57be
00000130: e86a 593e 45cf f33d dcd6 ad3e 6f62 003f
00000140: f345 2bbe 10da a03d f5ab 203e 163d 4abe
00000150: 5b57 ecbd f0f2 2ebe 91b8 2fbe 508e 613d
00000160: 5805 32be 8db1 cb3d 0bdc ef3d 65a6 71be
00000170: 6eab 3abe b157 7bbd 5dc8 0fbe a675 1dbe
00000180: db2d 05bf b022 6abe 669e 0bbf 67c0 7f3e
00000190: beba 61be b20f 5abe 982e 56bd 77b3 1e3d
000001a0: 1565 76bd 92f6 863c 8b7b 693d 291f 9c3d
000001b0: 90db 86bd a79b d0bc bdef 6dbe 4bae 72be
000001c0: 0c1d 40be 3cfa 3ebe 9fb5 7b3c f4a9 7b3e
000001d0: b550 313e 157d 293e 7f0c e3be fac0 44be
000001e0: 74ca e63c 8bbc f83d f595 8c3d 37bd a0bb
000001f0: 60e5 83bd ade5 df3d 4773 63be f595 12bc
00000200: a997 263e 8d7c 593d 8d8e 09be 168b 033e
00000210: ab98 cdbd 25f9 1e3e 0501 96be 6837 4dbe
00000220: 9922 5ebe b901 66be 110b 9f3e 3bb3 06be
00000230: 83af c6bd 9f4c 65bd 2f1b ec3d d3dc c13d
00000240: fe72 773d a439 22be 9a21 ee3d c67a 583d
00000250: fe51 403e 9435 b0bd 962a 90be aaf2 403c
00000260: 84c2 983e 67e3 5dbd 615c 74be b40b d3be
00000270: c053 753e 344a 843e 2831 96be 278c 873e
00000280: 157a 17bd 361e 14be a70a 36be 4e2b 26be
00000290: bda3 ff3b d12b 55bd acc5 38be 971d 9cbd
000002a0: d812 183e 5e46 b33d c779 40be 6cc7 f83d
000002b0: 0f77 f0bd 00db 6e3c aba7 66be 758d 633d
000002c0: 0b2e e83d 006e d63e 1fb6 01bf f243 d0bd
000002d0: 4676 d3bd 4e15 25bd ffb0 d03d d460 c0bd
000002e0: 6145 d73d d32f 34bd 29dc 23be 50c9 26be
000002f0: 0ca1 a63c d378 bcbd cd92 4b3c 5c08 c33d
00000300: 0a86 113f ee5e 97bd 4f23 1b3f 9638 003e
00000310: d2e5 573c b75f 893d 2b11 803e 7dad 21be

conv1.bias f4 [10]
0.023971416 0.34464595 0.15935305 0.067886524 0.10872176 0.017416187 -0.15992594 0.16425608
0.37271783 -0.074924015
00000000: b45f c43c 6f75 b03e 722d 233e 1708 8b3d
00000010: 84a9 de3d 64ac 8e3c a0c3 23be bf32 283e
00000020: dfd4 be3e c371 99bd

fc0.weight f4 [64, 290]
0.025623897 -0.0035739343 0.051676128 -0.052607007 0.013599689 0.05507046 -0.035946194 0.0024274106
0.02941557 -0.0033219424 0.014458579 -0.010426111 -0.05810471 -0.03164555 0.028748734 0.035457794
0.036716036 -0.008633949 0.03721562 -0.0024121017 0.030791963 -0.055142492 -0.014427616 0.0077602547
0.0053389887 -0.009281869 -0.035374433 -0.02351777 0.023136286 -0.035777245 0.026683247 -0.030764485
-0.04576053 -0.038768414 -0.034761347 0.052943848 -0.03640929 -0.039951533 -0.023254463 -0.011349213
-0.01513828 -0.031535313 -0.00088410126 0.039118893 0.015325068 -0.021766575 -0.054940313 0.05154038
-0.059528682 -0.008680713 -0.003469925 -0.050965384 -0.011501333 0.057941895 0.035103645 -0.02885049
-0.023769388 -0.0010254559 0.0008707024 0.013885015 -0.0076566725 -0.043491747 0.03622124 0.025859904
-0.048807923 -0.05575185 -0.0006058822 0.05405332 -0.011356606 0.022631936 -0.056835745 0.005460483
-0.04290849 -0.013105983 -0.041714855 0.04325734 0.006128929 -0.04317339 0.032004535 -0.025522126
0.042805836 -0.027285468 -0.037083674 -0.00533771 0.025897583 -0.035524894 0.025803868 0.0023497855
0.051037647 -0.0006050845 0.034424096 -0.006922537 0.053797245 0.008439778 -0.012883511 0.031965096
0.028914956 -0.04490398 0.04791186 -0.04882214 -0.016262442 0.035483465 -0.0066188476 -0.037212633
0.020528674 -0.02358632 0.042559825 -0.043874323 0.05500978 -0.04274258 0.009587699 -0.010303521
0.022651881 0.031793926 0.0026054166 -0.0025620444 0.050068583 0.00618916 -0.030957123 -0.0035590034
-0.003291576 -0.0480247 0.023107942 0.03231198 0.007024766 0.017060405 0.003472058 -0.03477231
0.044589426 0.051342834 0.02318762 -0.016848804 -0.0401158 -0.012032294 -0.044077612 -0.016011454
-0.015767055 0.022320643 -0.00897616 0.03552467 0.026562424 0.020255718 -0.048069693 0.0030208272
-0.014327551 -0.0007861146 0.027103892 -0.0036508553 -0.03290447 -0.038580906 -0.056834504 -0.016571134
0.043620713 -0.034941867 -0.051369064 -0.032616846 -0.05154472 -0.007030519 0.02854804 -0.019185849
-0.04263494 0.040419344 0.01301536 0.02646979 -0.057481166 -0.051195856 0.053198613 0.030029811
0.007113315 0.02249398 -0.010560642 -0.049796574 -0.012205061 -0.050398942 0.03523658 -0.032948896
-0.012615411 0.014512164 0.018795364 -0.02937251 -0.02859344 -0.057876024 -0.03646973 -0.050181843
-0.03984564 0.035858907 -0.011891723 -0.058129262 0.02524609 -0.0045129904 0.021573426 -0.012256195
0.01957514 -0.05344403 0.039366614 0.0072130663 0.056586847 -0.016120438 0.02257624 0.019005546
0.028211156 0.012438705 0.033821262 -0.042503335 -0.0327731 -0.05224107 0.0023492705 0.032346535
-0.043173634 -0.0033199158 0.008442287 -0.019621601 -0.018829763 0.00974272 -0.050203055 0.056410354
0.009133479 -0.025904322 -0.030854741 -0.021200612 0.029842636 0.05734688 0.016737247 -0.04119005
0.04574592 -0.008801619 0.024988757 0.032676555 -0.029346664 -0.051625207 -0.050182123 -0.052229013
0.020655515 0.03175662 -0.02511911 -0.050080758 0.02151177 0.047360484 -0.011562232 0.0020096556
-0.060477022 -0.049361605 -0.0024560909 -0.042225625 0.009704533 -0.025629085 -0.0050002816 0.03227811
-0.045047317 -0.047587503 0.038389195 -0.055458587 -0.046117395 0.0065232064 -0.020150205 -0.004960875
00000000: 35e9 d13c ab38 6abb 59aa 533d 727a 57bd
00000010: 3bd1 5e3c 9091 613d 513c 13bd 3115 1f3b
00000020: ecf8 f03c f2b4 59bb ade3 6c3c 47d2 2abc
00000030: 34ff 6dbd c49e 01bd 7782 eb3c 313c 113d
00000040: 8e63 163d 6875 0dbc 686f 183d 5a14 1ebb
00000050: 6d3f fc3c 18dd 61bd cf61 6cbc bc49 fe3b
00000060: aff2 ae3b fb12 18bc c8e4 10bd 57a8 c0bc
00000070: 4f88 bd3c 298b 12bd d396 da3c cd05 fcbc
00000080: 656f 3bbd a1cb 1ebd ea61 0ebd a6db 583d
00000090: e821 15bd 38a4 23bd 2580 bebc 0df2 39bc
000000a0: 8c06 78bc 2c2b 01bd 08c3 67ba 223b 203d
000000b0: fe15 7b3c d14f b2bc 1809 61bd 011c 533d
000000c0: 59d4 73bd 8d39 0ebc ae67 63bb 14c1 50bd
000000d0: 1670 3cbc 7b54 6d3d d7c8 0f3d dd57 ecbc
000000e0: 05b8 c2bc 9768 86ba d93f 643a f97d 633c
000000f0: d3e4 fabb 6724 32bd b95c 143d 26d8 d33c
00000100: d1ea 47bd 0d5c 64bd 11d4 1eba 0467 5d3d
00000110: 0f11 3abc 9c66 b93c 99cc 68bd daed b23b
00000120: d0c0 2fbd 7aba 56bc 32dd 2abd 9c2e 313d
00000130: 2fd5 c83b 95d6 30bd 3017 033d c713 d1bc
00000140: 2c55 2f3d c685 dfbc 0de5 17bd f5e7 aebb
00000150: 2b27 d43c 8d82 11bd a262 d33c dcfe 193b
00000160: da0c 513d 899e 1eba 4800 0d3d 73d6 e2bb
00000170: 805a 5c3d ff46 0a3c 5d15 53bc d5ed 023d
00000180: 0fdf ec3c 3ced 37bd 3a3f 443d b9f9 47bd
00000190: d038 85bc 1c57 113d ebe2 d8bb 466c 18bd
000001a0: c02b a83c 1938 c1bc 3653 2e3d 90b5 33bd
000001b0: ef51 613d d812 2fbd b915 1d3c 19d0 28bc
000001c0: 7090 b93c 593a 023d a3bf 2a3b f9e7 27bb
000001d0: b714 4d3d 70ce ca3b cb99 fdbc 2b3e 69bb
000001e0: 7bb7 57bb 8cb5 44bd de4c bd3c 9159 043d
000001f0: 0230 e63b 43c2 8b3c 788b 633b 696d 0ebd
00000200: 67a3 363d dd4c 523d f7f3 bd3c 8106 8abc
00000210: 7750 24bd 1923 45bc ba8a 34bd 742a 83bc
00000220: e929 81bc c8d9 b63c be10 13bc 5182 113d
00000230: 7199 d93c 52ef a53c bae4 44bd 12f9 453b
00000240: 1bbe 6abc 4213 4eba fb08 de3c 3043 6fbb
00000250: d6c6 06bd 0307 1ebd 4ccb 68bd 30c0 87bc
00000260: a2ab 323d 341f 0fbd 5e68 52bd 3e99 05bd
00000270: 8e20 53bd 4560 e6bb 94dd e93c a42b 9dbc
00000280: faa1 2ebd c18e 253d 603e 553c 2cd7 d83c
00000290: 5f71 6bbd bfb2 51bd cae6 593d 1401 f63c
000002a0: d016 e93b 4c45 b83c 8b06 2dbc 7ef7 4bbd
000002b0: bcf7 47bc 1f6f 4ebd 3b54 103d 6cf5 06bd
000002c0: deb0 4ebc 6dc4 6d3c bcf8 993c 9e9e f0bc
000002d0: ca3c eabc 690f 6dbd 4961 15bd 7a8b 4dbd
000002e0: 2f35 23bd cae0 123d 80d5 42bc f318 6ebd
000002f0: e3d0 ce3c b5e1 93bb c1ba b03c 35ce 48bc
00000300: 0b5c a03c 21e8 5abd e33e 213d 965b ec3b
00000310: 9cc7 673d 020f 84bc cff1 b83c 85b1 9b3c
00000320: 151b e73c b6cb 4b3c 2a88 0a3d fa17 2ebd
00000330: 163d 06bd bbfa 55bd 38f6 193b cd7d 043d
00000340: d6d6 30bd f292 59bb 8551 0a3c 7bbd a0bc
00000350: e040 9abc ee9f 1f3c b8a1 4dbd 8b0e 673d
00000360: 96a4 153c 4d35 d4bc 15c3 fcbc e8ac adbc
00000370: 8b78 f43c 90e4 6a3d 8d1c 893c e6b6 28bd
00000380: 1360 3b3d aa34 10bc 39b5 cc3c dad7 053d
00000390: 6a68 f0bc f474 53bd c58b 4dbd 17ee 55bd
000003a0: c135 a93c 3b13 023d 97c6 cdbc 7b21 4dbd
000003b0: 7439 b03c 11fd 413d 846f 3dbc 6db4 033b
000003c0: c1b6 77bd 652f 4abd 5ef6 20bb c7f4 2cbd
000003d0: c3ff 1e3c 16f4 d1bc 67d9 a3bb 0d36 043d
000003e0: 8983 38bd 1deb 42bd fd3d 1d3d 8b28 63bd
000003f0: 98e5 3cbd 9fc0 d53b 0b12 a5bc d68e a2bb

fc0.bias f4 [64]
0.00568039 0.032431483 -0.06891693 -0.037117753 -0.042033095 -0.03965991 -0.0054079066 0.04510058
0.050698984 -0.04243628 0.018254148 0.006068313 -0.061131887 -0.048637506 0.038709644 -0.042767834
-0.043042127 -0.011217208 0.032683484 0.0029676987 -0.062513314 -0.050407942 0.038098715 0.011841251
0.006056211 -0.062258873 0.009675676 -0.02571971 -0.039855313 0.03631725 0.009848524 0.009869493
-0.060646046 0.03938137 -0.038561992 -0.029496737 0.04387904 -0.04517805 0.028793957 -0.03469945
-0.062971614 0.026342554 -0.0046119755 -0.03898096 0.03498704 0.027242424 -0.01295464 -0.13640644
-0.055323217 -0.05869738 -0.01998012 -0.08431078 0.015916396 -0.029355446 -0.040783834 -0.06443832
-0.033614215 -0.026882302 -0.044243038 -0.041487426 0.0034501983 -0.014528516 0.0057021366 0.03587411
00000000: 9122 ba3b e0d6 043d 5224 8dbd c908 18bd
00000010: e52a 2cbd 6e72 22bd cf34 b1bb 63bb 383d
00000020: bda9 4f3d aad1 2dbd b989 953c b3d8 c63b
00000030: 6e65 7abd 1f38 47bd 018e 1e3d 532d 2fbd
00000040: f14c 30bd 61c8 37bc 1edf 053d b97d 423b
00000050: fb06 80bd 8f78 4ebd 660d 1c3d ce01 423c
00000060: 2e73 c63b 2903 7fbd ba86 1e3c 24b2 d2bc
00000070: 533f 23bd 66c1 143d b45b 213c a7b3 213c
00000080: fd67 78bd 5c4e 213d 2ef3 1dbd 24a3 f1bc
00000090: 82ba 333d 9e0c 39bd 4ee1 eb3c 0321 0ebd
000000a0: 43f7 80bd 57cc d73c 0e20 97bb 80aa 1fbd
000000b0: 924e 0f3d 812b df3c b33f 54bc 21ae 0bbe
000000c0: 999a 62bd aa6c 70bd 59ad a3bc 21ab acbd
000000d0: 1a63 823c d57a f0bc f30c 27bd 3df8 83bd
000000e0: 0faf 09bd 4638 dcbc 3038 35bd b8ee 29bd
000000f0: b91c 623b 0309 6ebc fdd8 ba3b bbf0 123d

conv2.weight f4 [10, 1, 4]
-0.3707399 0.91622794 0.70247465 0.2682586 0.30277315 -0.49926585 0.31508693 0.7877031
-0.32603264 -0.10174626 -0.14236659 -0.19966793 -0.23320138 -0.0834384 -0.45169193 -0.33344418
0.06939845 1.0306984 0.857567 0.27288955 0.009238601 -0.350832 -0.2568189 -0.22753513
-0.58718467 -0.46102244 0.1025503 -0.30390954 0.04927963 0.067024544 -0.32989037 0.5488628
-0.06548572 -0.20939693 -0.40165997 -0.18740712 -0.24341524 0.6484139 -0.3368195 0.6584035
00000000: 9fd1 bdbe ea8d 6a3f 61d5 333f 3159 893e
00000010: 1505 9b3e c69f ffbe 1353 a13e e9a6 493f
00000020: c0ed a6be 5860 d0bd 8cc8 11be c075 4cbe
00000030: 58cc 6ebe c0e1 aabd 2a44 e7be 32b9 aabe
00000040: c620 8e3d eded 833f 8389 5b3f 2eb8 8b3e
00000050: 805d 173c 40a0 b3be c47d 83be f8fe 68be
00000060: bc51 16bf 220b ecbe e405 d23d 089a 9bbe
00000070: 70d9 493d 2a44 893d 64e7 a8be 4682 0c3f
00000080: 611d 86bd 266c 56be 60a6 cdbe a7e7 3fbe
00000090: d841 79be 74fe 253f 9b73 acbe 228d 283f

conv2.bias f4 [10]
-0.25821114 0.18018728 -0.35890836 -0.18092847 -0.28308037 -0.10686481 0.2810699 -0.20934914
0.37498677 0.08983861
00000000: 4034 84be 0483 383e d6c2 b7be 5045 39be
00000010: e9ef 90be f0db dabd 65e8 8f3e 9f5f 56be
00000020: 44fe bf3e 4efd b73d

fc1.weight f4 [128, 300]
-0.056084782 0.007274085 0.027294869 -0.02469141 0.0341153 0.008232939 -0.0025761535 0.016669532
-0.021837477 -0.046681415 -0.043056946 -0.042135846 0.008717024 -0.016712615 3.943301e-05 0.075466275
-0.019529073 -0.014896799 0.027634256 -0.04665378 -0.00016928125 0.0341353 0.04224818 -0.04132784
-0.032284413 0.0019530108 -0.045908507 -0.0129203135 0.03412654 -0.0010096323 -0.02266687 0.06168627
0.029477058 0.0060431547 0.05121109 0.025049109 0.004569721 0.039393295 0.056906153 0.07565292
-0.011241799 -0.02378928 0.034869075 -0.07150447 0.039850887 -0.015425133 -0.012737923 0.071299344
-0.014204963 -0.039294563 0.03184739 0.0064166295 -0.006970522 0.081450604 -0.0115080625 -0.05283559
-0.04386508 0.023269271 0.048380516 0.034854554 -0.049599953 0.056040883 -0.021437675 0.022701353
-0.005177006 0.0066161826 -0.027463203 -0.009233568 -0.0063836165 0.042644925 0.017984532 -0.035911728
-0.015485775 0.05616211 0.048353776 -0.0319812 -0.020124607 -0.0008190721 0.03408438 0.0030495822
0.011522256 -0.05395122 0.033212587 0.049945682 0.027780905 -0.03624419 -0.03630834 0.020131439
0.022936478 -0.041565765 -0.0232015 0.045571193 -0.021188624 0.012054831 0.020394348 0.051842198
-0.004359003 -0.011798449 -0.026728066 3.40119e-05 -0.026775327 -0.038619626 0.039460808 -0.029153544
0.050359502 0.024646096 -0.022120107 -0.028217174 -0.0043634884 -0.047387235 0.00019631162 0.015025012
-0.003834255 0.014628932 -0.056322105 0.020439684 -0.035185628 -0.0009988844 -0.00078185275 0.018502198
0.04274721 0.014988595 0.059325147 -0.005064022 -0.046535995 0.06753531 0.028373102 -0.040610444
-0.014530415 -0.04109824 0.047350585 0.012523159 -0.015653893 -0.023668272 0.0071002524 0.07275931
-0.044253014 0.026633557 -0.044006426 -0.046497207 0.004418018 0.011200862 0.06264018 0.04080275
-0.008061559 -0.032312892 0.027936203 0.050360553 0.05259386 0.060313255 0.007970512 -0.045066245
0.010641262 -0.052649535 0.0062193573 -0.008430988 0.03100121 0.03329008 -0.011202771 0.026588254
0.02564504 0.05624467 0.0017764755 0.031178609 0.039202295 0.046480447 0.045310825 0.040495493
-0.0329111 -0.027122255 -0.009903088 -0.05175857 -0.020697042 -0.031370148 0.037093185 0.0021728203
-0.0445454 -0.048310623 -0.03718317 -0.031723518 0.03832963 -0.0066059134 -0.052755408 -0.024715561
0.058210142 0.063302554 0.029500335 0.03362835 0.053562988 -0.023477921 -0.014743122 -0.0031633403
-0.028130205 0.019983867 -0.07194795 0.008231297 -0.044583052 0.020012964 0.013252147 0.044049874
0.056326665 -0.038552158 -0.0398759 -0.02896988 -0.00035166708 0.0036119877 0.017706899 -0.03475687
0.009983858 0.031043317 0.0068155965 0.031743705 -0.028348364 -0.0039464636 0.012136083 -0.035526395
-0.010370701 -0.034802694 0.0012297677 -0.021565322 -0.01304128 -0.055338543 -0.060277306 -0.027083695
0.0451478 -0.053521138 0.055057306 -0.017324965 0.0350641 -0.041344073 0.043162685 0.0027621598
0.028236339 0.00015467484 -0.013642859 0.0098674055 0.0045735235 0.043019336 0.04901003 0.004115822
-0.01921075 0.03526768 0.054239202 0.004787725 0.031173054 -0.056147616 -0.054697778 -0.0052768695
-0.03631386 0.01827143 -0.020155458 -0.04109134 0.06659232 -0.046055924 -0.06740905 0.034356467
00000000: 28b9 65bd 735b ee3b 7d99 df3c a445 cabc
00000010: 7cbc 0b3d 73e3 063c afd4 28bb 8b8e 883c
00000020: 82e4 b2bc 0335 3fbd 7b5c 30bd a396 2cbd
00000030: d9d1 0e3c e5e8 88bc df64 2538 108e 9a3d
00000040: 6ffb 9fbc b411 74bc 3c61 e23c 0918 3fbd
00000050: 1781 31b9 75d1 0b3d 6d0c 2d3d 6247 29bd
00000060: a93c 04bd 2bfc ff3a 8f0a 3cbd b9af 53bc
00000070: 45c8 0b3d a355 84ba dfaf b9bc beaa 7c3d
00000080: df79 f13c a805 c63b b8c2 513d ca33 cd3c
00000090: 99bd 953b dd5a 213d 6d16 693d ebef 9a3d
000000a0: 862f 38bc bce1 c2bc e0d2 0e3d f070 92bd
000000b0: af3a 233d b2b9 7cbc b9b2 50bc 6405 923d
000000c0: efbb 68bc 56f3 20bd 6972 023d 9742 d23b
000000d0: fa68 e4bb 93cf a63d 508c 3cbc 226a 58bd
000000e0: dfab 33bd 339f be3c a62a 463d a6c3 0e3d
000000f0: 5229 4bbd 208b 653d 109e afbc 30f8 b93c
00000100: e0a3 a9bb 90cc d83b 83fa e0bc 6448 17bc
00000110: a82d d1bb 72ac 2e3d 4c54 933c 2d18 13bd
00000120: 0cb8 7dbc 3e0a 663d 9c0e 463d b8fe 02bd
00000130: 5cdc a4bc 00b7 56ba 109c 0b3d 80db 473b
00000140: d8c7 3c3c f4fb 5cbd ec09 083d d893 4c3d
00000150: c894 e33c ca74 14bd 0eb8 14bd b0ea a43c
00000160: 48e5 bb3c dd40 2abd 1211 bebc dca8 3a3d
00000170: c493 adbc a081 453c 0c12 a73c 7c58 543d
00000180: f8d5 8ebb 484e 41bc d1f4 dabc 00a8 0e38
00000190: ee57 dbbc 9d2f 1ebd a8a1 213d 6ad3 eebc
000001a0: c445 4e3d 9ce6 c93c 3a35 b5bc b427 e7bc
000001b0: 98fb 8ebb 1e19 42bd 00d9 4d39 782b 763c
000001c0: 2048 7bbb 30ae 6f3c 02b2 66bd 2071 a73c
000001d0: ce1e 10bd 00ed 82ba 40f5 4cba ec91 973c
000001e0: b317 2f3d b992 753c edfe 723d 18f0 a5bb
000001f0: 879c 3ebd f44f 8a3d b56e e83c 2357 26bd
00000200: fa10 6ebc a156 28bd b0f2 413d f02d 4d3c
00000210: 983c 80bc f7e3 c1bc 3ca9 e83b d502 953d
00000220: a642 35bd 9e2e da3c 1540 34bd db73 3ebd
00000230: 05c5 903b d283 373c 7f49 803d c920 273d
00000240: a114 04bc 865a 04bd 77da e43c de46 4e3d
00000250: a96c 573d 080b 773d c096 023c 6297 38bd
00000260: b058 2e3c 0aa7 57bd c0cb cb3b 2022 0abc
00000270: 40f6 fd3c 2e5b 083d d48b 37bc 9ccf d93c
00000280: 8c15 d23c d060 663d a0d8 e83a 486a ff3c
00000290: 9692 203d 4862 3e3d d897 393d 9ade 253d
000002a0: cacd 06bd 7e2f debc 9040 22bc cb00 54bd
000002b0: d88c a9bc fc7d 00bd 06ef 173d e065 0e3b
000002c0: 3d75 36bd 5ce1 45bd 614d 18bd 85f0 01bd
000002d0: 88ff 1c3d 6b76 d8bb 0e16 58bd 4a78 cabc
000002e0: c26d 6e3d c5a4 813d b0aa f13c e1bd 093d
000002f0: dd64 5b3d c554 c0bc 238d 71bc 0b50 4fbb
00000300: 5171 e6bc 35b5 a33c 7259 93bd 90dc 063c
00000310: b89c 36bd 3af2 a33c 881f 593c a46d 343d
00000320: cab6 663d dee8 1dbd e954 23bd 3e52 edbc
00000330: f55f b8b9 19b7 6c3b 0f0e 913c 385d 0ebd
00000340: 5693 233c 8e4e fe3c 5e55 df3b b005 023d
00000350: d43a e8bc 5651 81bb 6cd6 463c 2084 11bd
00000360: dfe9 29bc 458d 0ebd 2830 a13a c2a9 b0bc
00000370: 18ab 55bc abaa 62bd 56e5 76bd a0de ddbc
00000380: e6ec 383d fb38 5bbd c583 613d 16ed 8dbc
00000390: 609f 0f3d 6758 29bd 5bcb 303d 5a05 353b
000003a0: e54f e73c 3630 2239 4c86 5fbc e6aa 213c
000003b0: 7fdd 953b 0b35 303d bebe 483d 04de 863b
000003c0: dd5f 9dbc d874 103d ed29 5e3d 59e2 9c3b
000003d0: a25e ff3c 0bfb 65bd c70a 60bd 97e9 acbb
000003e0: d8bd 14bd f7ad 953c 0f1d a5bc 654f 28bd
000003f0: 8e61 883d 23a5 3cbd c20d 8abd 5eb9 0c3d

fc1.bias f4 [128]
0.01621562 0.018622803 0.06649441 0.008728666 0.011333426 0.02652293 -0.025856506 -0.018737791
0.041873265 -0.04556575 0.027183106 0.014517365 0.030243779 0.0061976686 -0.055611532 -0.039134726
-0.029519275 0.008777884 0.011081964 -0.0030222386 -0.03354562 -0.01457328 0.03268156 -0.00912808
0.013282397 0.0012196122 0.037073422 -0.019111237 0.0063406243 0.0009087865 0.049329344 -0.014079802
0.049514886 -0.05304232 0.02473906 0.015341891 0.03330359 -0.0025538993 -0.013842109 -0.022329394
0.04390868 -0.016403116 0.0236969 0.031947672 0.023051683 -0.02916149 -0.05165226 -0.002256781
0.02824933 -0.038190484 -0.011636741 0.04862364 0.05052448 -0.03656878 0.023441968 0.036362085
-0.04721866 -0.02779754 0.052592255 -0.017113894 0.0321506 -0.019777106 -0.0062573194 -0.021951362
-0.021681897 0.020409394 -0.015916673 0.066212304 -0.05118903 0.0020802512 -0.047790572 -0.052750256
0.023228036 -0.058272257 0.019980982 0.056631383 -0.041271437 0.018086363 0.054485865 -0.03497053
0.020486139 -0.060482416 -0.023916604 -0.030130941 0.0040809186 0.008847653 0.004351717 0.023104455
-0.032984704 0.045062773 0.02107473 -0.007448027 0.0017687664 0.0065947752 -0.032399263 0.03694304
0.010537277 -0.01637293 -0.06075681 0.051125456 -0.0075401105 -0.031573523 0.012189778 -0.025457997
0.04460958 0.050288357 -0.009656535 0.07098364 -0.030603116 -0.014471155 0.06174752 0.067218184
0.02597614 -0.0350153 -0.0402521 -0.036731146 0.024636628 0.03985554 0.046234064 0.011054139
-0.002136265 -0.008425476 0.031630404 0.021269618 0.04752727 0.00827786 -0.059883498 0.029961936
00000000: 9fd6 843c d98e 983c 392e 883d ae02 0f3c
00000010: d6af 393c 9e46 d93c 06d1 d3bc ff7f 99bc
00000020: 4d83 2b3d 27a3 3abd 1baf de3c 3eda 6d3c
00000030: cdc1 f73c d015 cb3b ebc8 63bd bc4b 20bd
00000040: 68d2 f1bc 1dd1 0f3c 2091 353c c010 46bb
00000050: 2267 09bd c4c4 6ebc 19dd 053d f18d 15bc
00000060: 699e 593c 65db 9f3a 4dda 173d 2b8f 9cbc
00000070: 03c5 cf3b a13b 6e3a 910d 4a3d f8ae 66bc
00000080: 1fd0 4a3d e742 59bd 92a9 ca3c 8e5c 7b3c
00000090: 5869 083d 525f 27bb 03ca 62bc 22ec b6bc
000000a0: 97d9 333d d45f 86bc 0020 c23c 90db 023d
000000b0: e2d6 bc3c 14e4 eebc 5291 53bd 81e6 13bb
000000c0: 246b e73c a06d 1cbd 08a8 3ebc 9529 473d
000000d0: c2f2 4e3d 25c9 15bd 5f09 c03c 69f0 143d
000000e0: 5b68 41bd abb7 e3bc fa6a 573d 7032 8cbc
000000f0: 59b0 033d 9903 a2bc 330a cdbb 58d3 b3bc
00000100: 3c9e b1bc 9a31 a73c af63 82bc 519a 873d
00000110: 97ab 51bd d354 083b 0cc0 43bd a710 58bd
00000120: b948 be3c e4ae 6ebd 28af a33c 4ff6 673d
00000130: 3d0c 29bd da29 943c 922c 5f3d 423d 0fbd
00000140: 8cd2 a73c 69bc 77bd c1ec c3bc 2ad5 f6bc
00000150: 3ab9 853b bff5 103c d998 8e3b 8e45 bd3c
00000160: f81a 07bd be93 383d eaa4 ac3c 940e f4bb
00000170: f4d5 e73a fc18 d83b 17b5 04bd 9651 173d
00000180: 8ba4 2c3c 8620 86bc 22dc 78bd ed68 513d
00000190: 0813 f7bb 3d53 01bd a2b7 473c 4a8d d0bc
000001a0: 89b8 363d 2afb 4d3d 7236 1ebc df5f 913d
000001b0: 63b3 fabc 6c18 6dbc f8ea 7c3d b0a9 893d
000001c0: eacb d43c 346c 0fbd 63df 24bd 6673 16bd
000001d0: c1d2 c93c 903f 233d ee5f 3d3d 6b1c 353c
000001e0: 9400 0cbb 020b 0abc e28e 013d 9f3d ae3c
000001f0: f4ab 423d dc9f 073c 6648 75bd bc72 f53c

fc2.weight f4 [64, 128]
-0.02105723 0.029993283 0.023985598 -0.07576869 -0.022962682 0.03375372 0.06662699 0.09597755
-0.040550273 -0.059224438 -0.06066476 -0.017356591 0.07142631 0.053692818 0.016711524 -0.07904679
0.0585929 0.031549275 -0.027675932 -0.033360273 0.01125412 0.08378975 0.014957589 -0.072716966
0.072512634 -0.07584804 0.06672987 0.013940737 -0.012488342 -0.09911362 0.007570455 -0.08342267
0.0396176 0.038805846 -0.08450097 -0.06200085 -0.032238528 0.053041175 0.03064225 -0.078079484
-0.044971697 0.015344218 -0.025254952 0.038991142 -0.08787439 -0.011168157 0.07738608 -0.056277025
-0.0005571234 0.04248727 -0.055767935 0.043740112 0.0154385865 -0.054422386 -0.024810918 -0.06684955
0.07657268 -0.066095136 0.07835657 0.0025165512 -0.023664545 -0.067858286 -0.040061958 0.06296279
0.11592638 -0.018030148 0.043253075 -0.040976934 -0.06629485 0.03359665 0.08131138 0.071078524
0.048849564 0.03616238 0.039649863 -0.062489305 0.018052414 0.08276648 -0.010114427 0.07734271
-0.06672309 -0.00073316775 -0.061856348 -0.056277663 0.03280719 0.06724863 0.005645035 0.057606533
-5.4098666e-05 -0.08154784 0.006336133 -0.042435788 0.046933282 0.053174645 0.03773655 -0.07093955
-0.06573937 -0.042074263 0.015187101 0.05500341 0.07494168 -0.054242797 -0.027286641 -0.039817195
0.038194157 -0.041843697 -0.036549624 0.07199121 -0.028806996 -0.030172974 0.025445256 0.058641423
0.020294333 -0.063796155 -0.00021772555 -0.037361592 0.003714244 0.062463533 -0.023656659 -0.041314665
-0.006074819 0.0076031922 -0.08305784 -0.0012331118 -0.060546808 -0.056806598 0.03654502 0.06160248
-0.010651194 0.045064576 0.086068 -0.0012409613 -0.062108763 -0.0070273206 -0.043762725 0.018753767
0.033059776 0.046100162 0.01542066 0.0146952495 0.0289246 0.012284026 0.01709535 0.047762103
-0.004496932 -0.0859825 -0.018411025 0.021697536 0.011382021 -0.041054938 -0.04193584 -0.008337118
0.08444137 -0.0636885 0.051665388 -0.07367686 -0.006524965 -0.042591233 0.0031903684 0.08345703
-0.059952606 0.023105279 -0.00813397 -0.070057616 -0.08188528 -0.07842021 -0.07113287 -0.007486269
0.0052902848 0.04700107 0.042929552 -0.025629424 -0.06880375 -0.009178601 0.053164817 0.056582056
-0.04692254 0.054144673 -0.052487873 0.02378095 -0.009769373 -0.00075802207 -0.030126885 0.06903195
-0.063858576 0.03623496 -0.08040775 0.056185104 0.08449378 0.022484459 -0.023885101 -0.079787225
-0.08783276 0.028444119 0.08066573 -0.028518233 -0.048394147 -0.08230243 0.039366998 -0.050193388
-0.053620726 -0.00036444515 -0.045710523 -0.0667206 0.024426304 0.029976852 0.016480945 -0.022873536
-0.07451979 0.08181951 -0.08347079 -0.052218616 0.0044867843 0.043470047 -0.058282852 -0.0077632368
-0.04761108 -0.07077038 0.06756631 -0.078319654 -0.01038298 0.0836317 0.05415117 -0.070999324
0.07811516 0.053116374 -0.060744524 -0.07081645 0.06541223 0.0077180713 0.016736679 -0.08833166
-0.008834846 -0.07727061 -0.06510746 0.042199872 -0.068306394 0.052327894 -0.012210719 -0.05974082
-0.086532965 -0.049315996 -0.011223897 -0.007384941 -0.020105198 -0.045566086 0.01915104 -0.06989969
-0.035229266 0.045687206 -0.05225185 0.02516725 -0.07926482 0.08731944 0.0021322519 -0.06459589
00000000: 3680 acbc 79b4 f53c 727d c43c 9d2c 9bbd
00000010: 3c1c bcbc 5741 0a3d bb73 883d e18f c43d
00000020: 0b18 26bd 5395 72bd 9d7b 78bd 692f 8ebc
00000030: f547 923d 00ed 5b3d 9be6 883c 49e3 a1bd
00000040: 1cff 6f3d d039 013d a3b8 e2bc c8a4 08bd
00000050: 3363 383c f699 ab3d ad10 753c a2ec 94bd
00000060: 8181 943d 3856 9bbd aca9 883d b067 643c
00000070: e79b 4cbc 15fc cabd 9411 f83b 81d9 aabd
00000080: 1146 223d e1f2 1e3d d80e adbd 9af4 7dbd
00000090: 8c0c 04bd b441 593d 7505 fb3c 23e8 9fbd
000000a0: 3e34 38bd 5166 7b3c 79e3 cebc 2db5 1f3d
000000b0: 7df7 b3bd a5fa 36bc 987c 9e3d bd82 66bd
000000c0: eb0b 12ba 2207 2e3d eb6c 64bd d528 333d
000000d0: 20f2 7c3c 02ea 5ebd 4440 cbbc 6be8 88bd
000000e0: 23d2 9c3d e35c 87bd 6979 a03d b9ec 243b
000000f0: 26dc c1bc 49f9 8abd 0218 24bd a3f2 803d
00000100: cf6a ed3d f6b3 93bc 232a 313d 6ed7 27bd
00000110: 98c5 87bd a49c 093d 9586 a63d 9e91 913d
00000120: 7b16 483d 011f 143d e567 223d c9f4 7fbd
00000130: a8e2 933c 7981 a93d fbb6 25bc db65 9e3d
00000140: 1ea6 88bd 0e32 40ba 155d 7dbd 6883 66bd
00000150: d560 063d a6b9 893d fcf9 b83b d4f4 6b3d
00000160: 00e8 62b8 8e02 a7bd 569f cf3b 26d1 2dbd
00000170: 1d3d 403d a8cd 593d a491 1a3d c148 91bd
00000180: 5da2 86bd 1056 2cbd 52d3 783c 414b 613d
00000190: 067b 993d b22d 5ebd 3c88 dfbc 5b17 23bd
000001a0: 7a71 1c3d 4c64 2bbd 0fb5 15bd 2170 933d
000001b0: a6fc ebbc 502d f7bc 9272 d03c fd31 703d
000001c0: 4d40 a63c 8fa7 82bd 424d 64b9 7808 19bd
000001d0: ad6a 733b c3d9 7f3d 9ccb c1bc 9139 29bd
000001e0: 460f c7bb 3324 f93b 3b1a aabd 5ea0 a1ba
000001f0: eeff 77bd 09ae 68bd 3bb0 153d e252 7c3d
00000200: 5882 2ebc a295 383d 6b44 b03d c0a7 a2ba
00000210: c265 7ebd 7045 e6bb 8b40 33bd 80a1 993c
00000220: b069 073d 86d3 3c3d f0a6 7c3c 58c4 703c
00000230: 48f3 ec3c f042 493c 8c0b 8c3c 32a2 433d
00000240: 005b 93bb 9817 b0bd b8d2 96bc 08bf b13c
00000250: a87b 3a3c 3929 28bd eac4 2bbd 6898 08bc
00000260: 99ef ac3d 1e6f 82bd 169f 533d e5e3 96bd
00000270: 60cf d5bb 2574 2ebd 8015 513b 85eb aa3d
00000280: dd90 75bd 4847 bd3c 5844 05bc 5e7a 8fbd
00000290: 78b3 a7bd c69a a0bd 1cae 91bd 604f f5bb
000002a0: 205a ad3b 3284 403d e6d6 2f3d ccf4 d1bc
000002b0: fbe8 8cbd d861 16bc 5ac3 593d 96c2 673d
000002c0: d931 40bd cec6 5d3d 86fd 56bd 44d0 c23c
000002d0: b80f 20bc 00b6 46ba a8cc f6bc 9f60 8d3d
000002e0: 49c8 82bd 1c6b 143d d2ac a4bd 5a22 663d
000002f0: 130b ad3d 5431 b83c b0aa c3bc 7c67 a3bd
00000300: a9e1 b3bd a403 e93c 1334 a53d 129f e9bc
00000310: f138 46bd 2d8e a8bd 4a3f 213d 9597 4dbd
00000320: 68a1 5bbd 0013 bfb9 f53a 3bbd cfa4 88bd
00000330: ac19 c83c 0492 f53c 0c03 873c 4861 bbbc
00000340: d59d 98bd fd90 a73d bcf2 aabd 30e3 55bd
00000350: e005 933b a60d 323d 00ba 6ebd c062 febb
00000360: d603 43bd 10f0 90bd 3560 8a3d 0e66 a0bd
00000370: 601d 2abc 1947 ab3d 9ecd 5d3d 1868 91bd
00000380: d7fa 9f3d 8e90 593d 40cf 78bd 3708 91bd
00000390: d9f6 853d e0e7 fc3b 5c1b 893c 3be7 b4bd
000003a0: 08c0 10bc 0e40 9ebd 0f57 85bd c6d9 2c3d
000003b0: 39e4 8bbd c655 563d 780f 48bc cab2 74bd
000003c0: 3238 b1bd 92ff 49bd 70e4 37bc 60fd f1bb
000003d0: a8b3 a4bc 81a3 3abd a4e2 9c3c 9227 8fbd
000003e0: 904c 10bd 8222 3b3d 0906 56bd 8c2b ce3c
000003f0: 9855 a2bd 89d4 b23d 40bd 0b3b da4a 84bd

fc2.bias f4 [64]
-0.017269135 -0.03781903 -0.05128269 0.03198654 0.1320122 0.07003943 0.0034114951 0.021062467
-0.05490155 -0.04643005 0.06053125 0.05390669 0.048978824 -0.008319858 -0.011485823 -0.069660954
0.006218224 0.07460352 -0.02905759 -0.013328914 0.014129968 0.077391975 0.057167202 -0.03167295
0.027191257 0.03099844 -0.08303429 -0.030748414 -0.077884585 -0.09297916 0.06073784 -0.052110165
0.04897502 -0.049034175 -0.06243008 0.0006814485 -0.058846053 -0.082299665 -0.053074915 -0.07804295
0.13614647 0.10580835 0.033726294 -0.010180423 -0.056510337 0.025137603 -0.076161526 0.0024087972
0.003881822 0.17299755 0.021915864 0.07306727 0.08079169 0.16624655 -0.05758359 -0.027080182
0.035775512 -0.061969046 -0.034114704 -0.034401484 -0.0050614467 0.049105227 0.049266744 0.15940467
00000000: 0078 8dbc 21e8 1abd cc0d 52bd 5104 033d
00000010: 352e 073e d570 8f3d 6493 5f3b 328b ac3c
00000020: 73e0 60bd 702d 3ebd 9eef 773d 43cd 5c3d
00000030: 059e 483d 0450 08bc 092f 3cbc 67aa 8ebd
00000040: 3ec2 cb3b bbc9 983d 2f0a eebc 8461 5abc
00000050: 6281 673c af7f 9e3d 2828 6a3d 7fbb 01bd
00000060: 33c0 de3c 71f0 fd3c e20d aabd 19e4 fbbc
00000070: f481 9fbd dc6b bebd 3ec8 783d 7871 55bd
00000080: 089a 483d 0fd8 48bd afb6 7fbd 3ca3 323a
00000090: 8f08 71bd ba8c a8bd 1565 59bd fbd4 9fbd
000000a0: fb69 0b3e 0cb2 d83d 9524 0a3d cacb 26bc
000000b0: 6277 67bd 60ed cd3c 93fa 9bbd e9dc 1d3b
000000c0: 2b66 7e3b 4526 313e e688 b33c 4ba4 953d
000000d0: 1d76 a53d 893c 2a3e c5dc 6bbd 42d7 ddbc
000000e0: 5889 123d 41d3 7dbd dcbb 0bbd 92e8 0cbd
000000f0: 7eda a5bb 9022 493d edcb 493d fa3a 233e

fc3.weight f4 [5, 64]
0.01685313 -0.12275687 0.080255315 0.009500775 -0.053841293 -0.018009149 0.020268928 0.00078279263
-0.07953851 0.0012925166 0.01224594 -0.0001598125 -0.026496649 -0.07133427 0.029526606 -0.081352495
0.03694813 -0.004922566 0.033202924 0.060651965 0.030149525 -0.07792651 0.01619723 0.11246855
-0.023697682 0.01660599 -0.03642878 0.11533235 0.068333514 -0.011798821 -0.031659573 0.10171379
-0.020460343 0.045630783 -0.040513515 -0.010917923 0.11098483 0.098098785 -0.082013324 0.00062983047
-0.03870493 -0.024396239 0.06455115 -0.028580945 0.035913404 -0.06201682 -0.03384924 -0.003888143
0.00249998 -0.072660945 -0.0018935357 -0.047219314 0.0063007795 -0.09004096 -0.022207242 0.007605076
0.015555164 0.0084258085 -0.018187642 0.054692723 0.048402943 0.028363133 -0.020680279 -0.098451644
0.02536891 -0.07078558 0.071374565 -0.013277465 -0.06721785 -0.003405284 -0.01125889 -0.03503796
-0.05790237 0.021283038 0.06468867 0.053233348 -0.03172982 -0.033159792 0.013488583 0.012395418
-0.013494178 0.019653456 0.050773025 -0.051581502 0.067652866 -0.08033793 0.017958662 0.111797385
-0.020953698 0.02490081 0.0780928 0.003425537 0.054799385 0.005530906 0.022521775 -0.1239735
-0.028132092 -0.115051486 0.029396307 -0.019439926 0.098592475 0.040024396 0.018380012 0.07845164
-0.0767088 -0.07171973 0.0018936995 -0.017979123 0.038730077 -0.04496895 -0.056923106 -0.041521028
0.0061171795 -0.09734988 0.017097158 -0.04718234 -0.024609564 -0.074464634 -0.042080306 -0.046594664
0.024062598 0.05897398 0.04958664 0.025382288 0.007120181 0.019091494 0.0038327617 -0.08510705
-9.141441e-05 -0.07814352 0.011181329 0.051357955 -0.09041995 -0.051676314 0.05122136 0.07298989
-0.08440954 0.0150452405 -0.04961405 0.04541073 -0.04072263 -0.02942774 0.027063224 -0.08103054
0.07407317 0.01615336 0.56783694 0.05282768 -0.09394584 0.02557533 -0.07806915 0.11703848
0.07640851 -0.087705955 -0.04402612 -0.005490225 0.11429623 0.0133127 0.010701772 0.11738683
0.052631322 0.05041084 -0.068125196 0.0072775013 -0.014476178 -0.10025529 0.1475983 0.00067803945
-0.060026128 -0.0786213 0.11099926 -0.0006848589 0.07981347 0.057935953 -0.046779275 -0.034084093
0.020331595 -0.090555795 0.051416166 0.013955593 -0.07866252 -0.008362298 0.71085685 -0.011350453
0.0112812165 -0.019481072 0.031264707 -0.031047922 0.24161446 -0.010532274 -0.056532957 -0.05542884
0.14042796 -0.042239115 0.054003213 -0.23773736 0.0042455224 -0.012440391 0.09113924 0.07114209
0.060262796 0.17368077 0.04202085 0.4064996 -0.137775 0.16749126 0.45791584 0.006294218
-0.022589583 0.41590825 -0.107667804 -0.06421454 -0.06308748 0.3089238 0.07295953 -0.110330194
0.13193049 0.060252775 -0.0814261 0.025276355 -0.08603611 0.2028839 -0.0071111596 -0.023957388
-0.10152168 0.009692983 -0.141746 0.5102947 -0.04583834 0.12472009 0.11022289 0.18026027
-0.037553657 -0.1344174 -0.031808123 -0.094828814 -0.16392262 -0.18568829 -0.030697972 0.8133434
-0.21857952 -0.23135778 -0.06074557 0.09891588 0.27764362 -0.053948417 -0.032596175 -0.11918329
-0.33158344 0.0940102 -0.025114745 0.07466592 -0.069116265 0.06640792 0.041108478 0.053027317
00000000: 930f 8a3c f467 fbbd e65c a43d 23a9 1b3c
00000010: b088 5cbd ec87 93bc 060b a63c 5334 4d3a
00000020: 16e5 a2bd a969 a93a 32a3 483c 5793 27b9
00000030: 800f d9bc b417 92bd c8e1 f13c 239c a6bd
00000040: ec56 173d 7a4d a1bb caff 073d 326e 783d
00000050: 23fc f63c ef97 9fbd 0eb0 843c e955 e63d
00000060: a421 c2bc 4909 883c 5836 15bd 5e33 ec3d
00000070: 71f2 8b3d d84f 41bc 78ad 01bd 524f d03d
00000080: 739c a7bc 58e7 3a3d 80f1 25bd 17e1 32bc
00000090: 044c e33d 04e8 c83d 9af6 a7bd 351b 253a
000000a0: 1089 1ebd 9fda c7bc 6533 843d 9622 eabc
000000b0: ef19 133d 5905 7ebd 80a5 0abd 37d0 7ebb
000000c0: b4d6 233b 43cf 94bd 8430 f8ba 0a69 41bd
000000d0: c576 ce3b 6567 b8bd f6eb b5bc 0034 f93b
000000e0: 16db 7e3c 670c 0a3c 40fe 94bc 7a05 603d
000000f0: 2a42 463d cd59 e83c b069 a9bc 04a1 c9bd
00000100: 76d2 cf3c 08f8 90bd d42c 923d b989 59bc
00000110: 83a9 89bd 2f2b 5fbb 3577 38bc f783 0fbd
00000120: 092b 6dbd c459 ae3c 7e7b 843d 360b 5a3d
00000130: 21f7 01bd 90d2 07bd 38ff 5c3c 2716 4b3c
00000140: af16 5dbc 4900 a13c 60f7 4f3d 2047 53bd
00000150: 968d 8a3d 3688 a4bd 0b1e 933c 07f6 e43d
00000160: 17a7 abbc c9fc cb3c 1eef 9f3d f97e 603b
00000170: 5275 603d 9a3c b53b 967f b83c d2e5 fdbd
00000180: 4675 e6bc 1da0 ebbd 86d0 f03c 7b40 9fbc
00000190: daea c93d 9ff0 233d ae91 963c 41ab a03d
000001a0: 8119 9dbd cbe1 92bd 0336 f83a f448 93bc
000001b0: 6ea3 1e3d 5d31 38bd 3428 69bd f411 2abd
000001c0: 9f72 c83b 605f c7bd 570f 8c3c 4542 41bd
000001d0: ff99 c9bc ea80 98bd 665c 2cbd 0cda 3ebd
000001e0: ed1e c53c b38e 713d 5c1b 4b3d 84ee cf3c
000001f0: 6850 e93b c465 9c3c 122f 7b3b 9b4c aebd
00000200: bdb5 bfb8 b609 a0bd e531 373c b85c 523d
00000210: 182e b9bd 8baa 53bd 7dcd 513d b97b 953d
00000220: e9de acbd 5080 763c 1a38 4bbd 9a00 3a3d
00000230: c6cc 26bd 7212 f1bc b2b3 dd3c 57f3 a5bd
00000240: adb3 973d 0d54 843c c35d 113f d661 583d
00000250: ad66 c0bd 5b83 d13c b8e2 9fbd dfb1 ef3d
00000260: 117c 9c3d 2e9f b3bd bc54 34bd 58e7 b3bb
00000270: 2414 ea3d 831d 5a3c 7c56 2f3c 8268 f03d
00000280: f193 573d 997b 4e3d 3985 8bbd 1b78 ee3b
00000290: 7e2d 6dbc a552 cdbd 0224 173e 75be 313a
000002a0: f5dd 75bd 3404 a1bd 9453 e33d 1a88 33ba
000002b0: 3f75 a33d 404e 6d3d a09b 3fbd c39b 0bbd
000002c0: 728e a63c 5175 b9bd c299 523d 00a6 643c
000002d0: d119 a1bd 0502 09bc b7fa 353f 40f7 39bc
000002e0: dad4 383c c596 9fbc 6c0f 003d 3658 febc
000002f0: c869 773e 8f8f 2cbc 1a8f 67bd 5a09 63bd
00000300: 59cc 0f3e ec02 2dbd 7932 5d3d 6c71 73be
00000310: 061e 8b3b c8d2 4bbc 36a7 ba3d f2b2 913d
00000320: 1fd6 763d 5fd9 313e 0e1e 2c3d b720 d03e
00000330: e414 0dbe d482 2b3e f273 ea3e ba3f ce3b
00000340: ca0d b9bc edf1 d43e f080 dcbd ea82 83bd
00000350: 0234 81bd 432b 9e3e ce6b 953d ccf4 e1bd
00000360: c918 073e 9dcb 763d bac2 a6bd 5c10 cf3c
00000370: b333 b0bd ccc0 4f3e bb04 e9bb 4942 c4bc
00000380: 99ea cfbd 51cf 1e3c dd25 11be aca2 023f
00000390: fcc0 3bbd 3f6d ff3d 8abc e13d 2696 383e
000003a0: ddd1 19bd b7a4 09be 3c49 02bd 9c35 c2bd
000003b0: 55db 27be 1225 3ebe 507a fbbc 4637 503f
000003c0: 4fd3 5fbe 0ee9 6cbe 59d0 78bd 6994 ca3d
000003d0: 4e27 8e3e 04f9 5cbd 9183 05bd 5e16 f4bd
000003e0: 4ec5 a9be 6b88 c03d 70bd cdbc 72ea 983d
000003f0: d48c 8dbd e000 883d 5d61 283d 2c33 593d

fc3.bias f4 [5]
-0.27419707 -0.2536462 -0.30017728 -0.23675835 0.17648959
00000000: 8f63 8cbe eadd 81be d6b0 99be c870 72be
00000010: b0b9 343e
