model_weights/60epochs_1.0.3.pth (torch_old, 265874 bytes, 12 tensors)

conv1.weight f4 [10, 5, 4]
0	0x3eab8e56	0.3350703
1	0x3c6dbf5e	0.0145109575
2	0x3e202aff	0.15641402
3	0xbd163b1a	-0.036677457
4	0x3ebcbaf8	0.36861396
5	0xbe12fac0	-0.14353466
6	0xbdf49784	-0.11942962
7	0xbd895317	-0.06705301
8	0x3e6a5ace	0.22886202
9	0x3dc5a4b4	0.09650555
10	0x3ded5752	0.11588921
11	0xbe2b322b	-0.16718356
12	0x3caf537a	0.02140211
13	0x3f3b042c	0.7305324
14	0xbe56c12c	-0.20972127
15	0xbed30829	-0.41217163
16	0xbdbe76d9	-0.09300012
17	0xbdcaa3dc	-0.09894535
18	0xbe3ccdd8	-0.18437898
19	0x3e9f9145	0.3116552
20	0xbd695560	-0.056966186
21	0x3e504d9c	0.20342106
22	0x3db13d69	0.08654291
23	0x3e15dedf	0.146358
24	0xbca3f8d2	-0.020016108
25	0x3e40b4d3	0.18818979
26	0xbe2c2dec	-0.16814393
27	0x3df38ab0	0.11891687
28	0x3da3f1c4	0.080050975
29	0x3d656572	0.05600495
30	0xbe19348c	-0.14961451
31	0x3db08994	0.08619991
32	0x3d2c382b	0.042045753
33	0x3e15dbe4	0.14634663
34	0x3db4f843	0.08836415
35	0xbd55e5f1	-0.052221242
36	0x3ed6f03e	0.41980165
37	0xbe063668	-0.13106692
38	0x3e98ee6a	0.29869395
39	0x3f1225c6	0.5708889
40	0x3db78352	0.08960594
41	0x3d1f6d7a	0.038922764
42	0x3d5baf6b	0.05363409
43	0xbdcca791	-0.09992898
44	0xbdc8f4c8	-0.09812313
45	0xbe1c62dd	-0.15272088
46	0xbc3417ff	-0.010992049
47	0xbd8b0cf7	-0.06789582
48	0x3d01a942	0.031655557
49	0x3e887f1d	0.2665948
50	0x3e8a7bec	0.2704767
51	0xbdba292a	-0.09089883
52	0x3dfdeb22	0.12398364
53	0x3cd8f47e	0.02648377
54	0x3ebc2b12	0.3675161
55	0xbd843e13	-0.06457152
56	0x3e307a57	0.17234169
57	0x3dfadfce	0.122497186
58	0x3ea9e116	0.3317954
59	0xbe8f2780	-0.27959824
60	0x3d25bb7e	0.04046201
61	0xbd9c51a8	-0.07632762
62	0x3dfcdb2f	0.123464935
63	0xbe622be7	-0.2208706
64	0xbc5d615d	-0.013511983
65	0x3e85fbd0	0.2616868
66	0x3e0ca1c9	0.13733591
67	0xbc1ca3a9	-0.009560504
68	0xbdf982ac	-0.12183127
69	0x3cd80bec	0.026372872
70	0x3dbf37a9	0.09336788
71	0xbef4b7af	-0.4779639
72	0xbe08b674	-0.1335085
73	0xbe8eb092	-0.27869087
74	0xbf092a0d	-0.5357979
75	0x3e67bb52	0.22630051
76	0x3e68766a	0.22701421
77	0x3dd146a1	0.102185495
78	0x3e9e03ed	0.3086237
79	0x3d91292d	0.07087932
80	0x3d2bc8ca	0.041939534
81	0x3c9ec0fe	0.019379135
82	0x3e4fc76b	0.20290916
83	0x3e2997f9	0.16561879
84	0x3e5361be	0.20642754
85	0x3dd92292	0.10602297
86	0x3e27aaaf	0.16373704
87	0xbdadb50b	-0.08481797
88	0x3da50839	0.08058209
89	0xbd8d6e5e	-0.069058165
90	0x3c571d3c	0.013129529
91	0xbd8bc099	-0.068238445
92	0x3f1286cc	0.57236934
93	0x3d5b3f0b	0.05352692
94	0xbf2176e3	-0.6307203
95	0x3c912e43	0.017722255
96	0x3f146009	0.5795904
97	0xbdb835f0	-0.08994663
98	0xbef2538c	-0.47329366
99	0x3e0adc9e	0.13560721
100	0x3de1f045	0.11032156
101	0x3d7891e1	0.060685996
102	0xbe4858d5	-0.19565137
103	0xbe9a40ed	-0.3012766
104	0xbe3e1008	-0.18560803
105	0x3e232f75	0.15936072
106	0x3d824ab7	0.06361907
107	0xbe2f0f63	-0.17095713
108	0xbcc83246	-0.024438035
109	0xbeb2f047	-0.34948942
110	0x3d55bc37	0.05218145
111	0xbdcae310	-0.0990659
112	0xbe434972	-0.19070986
113	0x3da757fa	0.08171077
114	0xbbc47dff	-0.005996465
115	0xbcfa9b4a	-0.030591626
116	0xbdee4a9c	-0.11635324
117	0x3d1c7749	0.038199697
118	0xbf4eefc4	-0.80834603
119	0x3e587d7f	0.21141623
120	0xbdffefc5	-0.12496904
121	0x3d802bb6	0.06258337
122	0x3cc5fba6	0.024167847
123	0xbde4a603	-0.11164477
124	0xbe4bf884	-0.1991902
125	0xbed1aa7a	-0.40950376
126	0xbbcfa295	-0.00633652
127	0x3d20ca5b	0.03925548
128	0x3cfc233e	0.030778524
129	0xbd7d261e	-0.06180393
130	0xbce4c0a2	-0.027923886
131	0x3b8fd771	0.0043896963
132	0xbe436a5e	-0.19083545
133	0xbc1a432d	-0.00941543
134	0x3e229982	0.15878871
135	0xbeb456b4	-0.352224
136	0x3f22ddb8	0.63619566
137	0x3ebe24ea	0.37137538
138	0xbf53a347	-0.82671016
139	0xbe6c8ae6	-0.2309986
140	0x3e3f7ea8	0.1870066
141	0xbd728946	-0.059212945
142	0xbe1766e1	-0.14785339
143	0x3ba59767	0.005053449
144	0xbd788d38	-0.06068155
145	0xbc4c9124	-0.012485776
146	0xbe1f50fe	-0.1555824
147	0x3db7b040	0.08969164
148	0x3d8795f9	0.06620402
149	0x3e4b8228	0.1987387
150	0x3bafa458	0.0053601675
151	0x3df521ad	0.11969314
152	0x3ea56459	0.32303122
153	0xbe2f96bc	-0.17147344
154	0x3dd70fa4	0.1050103
155	0xbf662fb5	-0.89916545
156	0xbd9de323	-0.077093385
157	0x3d34b182	0.044114597
158	0xbd80a4ad	-0.062814094
159	0x3eefff12	0.4687429
160	0xbe8752dc	-0.26430404
161	0xbdec44f6	-0.11536591
162	0xbd85d1d1	-0.0653416
163	0xbcc1e601	-0.023669245
164	0xbe915993	-0.28388652
165	0xbd33f305	-0.043932933
166	0xbdcdf60e	-0.10056697
167	0xbd656b84	-0.056010738
168	0x3ddacc8c	0.106835455
169	0xbe9ac55c	-0.30228698
170	0xbe5fa3fd	-0.218399
171	0x3ed77122	0.420785
172	0xbcfbfcdb	-0.03076022
173	0xbe9d301a	-0.3070076
174	0xbf098b2f	-0.53728
175	0x3e8495a7	0.25895426
176	0xbf1e0bda	-0.61736834
177	0xbeb857ed	-0.36004582
178	0x3e7fdf7e	0.24987599
179	0x3da6f6a0	0.08152509
180	0xbe08dc6c	-0.13365334
181	0xbd9a675f	-0.07539248
182	0x3e519cba	0.20469943
183	0xbea29fc8	-0.31762528
184	0x3cb685ec	0.022280656
185	0x3c1e939d	0.009678748
186	0x3d6d3cdf	0.05791938
187	0xbda66e5b	-0.081265174
188	0x3d3d33fa	0.046192147
189	0xbc8ef24b	-0.017449519
190	0xbe8e97f5	-0.2785031
191	0xbeefda81	-0.46846393
192	0x3e2b946f	0.16755842
193	0x3eafb249	0.34315708
194	0x3edc6884	0.4304849
195	0x3dbbe946	0.09175353
196	0xbe0fc634	-0.14040452
197	0xbea9623a	-0.33082753
198	0x3d9acbfd	0.07558439
199	0x3f1daf6a	0.61595786

conv1.bias f4 [10]
0	0xbe86e5c4	-0.26347172
1	0xbf1fca6b	-0.6241824
2	0xbdacf5be	-0.08445309
3	0xbe137b25	-0.14402445
4	0xbe36a1e3	-0.17835192
5	0x3e285edc	0.16442436
6	0xbea79dd3	-0.32737598
7	0x3dbd7b28	0.09252006
8	0x3d5d8859	0.05408511
9	0x3bc65117	0.006052147

fc0.weight f4 [64, 290]
0	0x3d87cafd	0.06630514
1	0x3d1089b9	0.035287593
2	0xbc2d6ca5	-0.010584985
3	0xbbb20a29	-0.00543334
4	0xb9e9ba3b	-0.00044579976
5	0xbb449138	-0.0029993784
6	0xbc911885	-0.017711887
7	0x3d026f26	0.03184428
8	0xbd1ae683	-0.03781749
9	0x3d4c0347	0.049807813
10	0x3d0f4431	0.03497714
11	0x3d79d9e8	0.060998827
12	0xbd748888	-0.05970052
13	0xbd618c73	-0.055065583
14	0x3bdf47be	0.0068139723
15	0xbb851746	-0.0040616123
16	0x3d78a2f0	0.060702264
17	0x3d2148a3	0.039375912
18	0xbd580a71	-0.052744333
19	0xbb1fbf5c	-0.0024375534
20	0x3bf8d9ae	0.007594309
21	0x3d6f6d08	0.05845359
22	0xbd006127	-0.03134265
23	0xbd375832	-0.044761844
24	0x3d5c2fb5	0.053756434
25	0xbd6d5b66	-0.057948492
26	0xbd0e64a2	-0.03476394
27	0xbd0da12f	-0.034577545
28	0xbd26cb08	-0.04072097
29	0xbdd5665c	-0.10419914
30	0xbcc73bb9	-0.02432047
31	0x3c3728f6	0.011179199
32	0xbd18ca0b	-0.03730206
33	0xbd07ca12	-0.033151694
34	0xbd3d02fc	-0.046145424
35	0xbd4885dc	-0.048955783
36	0x3ab6c000	0.0013942719
37	0xbcdd0556	-0.026980083
38	0x3d0e88f4	0.034798577
39	0xbd01b6f5	-0.031668622
40	0x3ce32b88	0.027730718
41	0x3cfea785	0.031085739
42	0xbd8a5c12	-0.06755842
43	0x3d19661e	0.037450902
44	0x3d35e992	0.044412203
45	0x3d21a51e	0.03946411
46	0xbd1ed1a5	-0.03877415
47	0xbc6f2f72	-0.014598714
48	0xbd7226a6	-0.05911889
49	0x3cc40cf8	0.023931965
50	0xbcd30616	-0.025759738
51	0x3d264bf5	0.040599782
52	0x3d170e64	0.03687896
53	0x3d44e934	0.048073962
54	0x3a266f95	0.00063490245
55	0x3d81bd76	0.06334965
56	0x3d3bf9af	0.045892414
57	0x3e132fcd	0.14373703
58	0xbd9ef9a7	-0.07762461
59	0x3d2a1860	0.041527152
60	0x3d1f0d78	0.038831204
61	0xbd56541c	-0.052326307
62	0xbd2d2dc5	-0.042279977
63	0xbcc822e9	-0.024430709
64	0xbc486bdd	-0.012232748
65	0xbd7f3527	-0.06230655
66	0x3d7c4a3a	0.061594225
67	0xbbb3b648	-0.005484376
68	0x3db7fceb	0.08983787
69	0xbd61b2d8	-0.0551022
70	0xbc5dfa17	-0.013548396
71	0xbc0661dd	-0.008202043
72	0xbd446d08	-0.047955543
73	0xbc6a9f61	-0.014320225
74	0x3c38ffcf	0.011291458
75	0x3d7eae41	0.0621779
76	0xbd535c1f	-0.051601525
77	0x3bc3ff57	0.0059813666
78	0x3d1d09b1	0.03833932
79	0x3d491141	0.04908872
80	0xbd93590a	-0.07194717
81	0xbd062bbe	-0.03275656
82	0x3cf0206e	0.029312339
83	0xbba1bff7	-0.004936214
84	0xbd3d50a8	-0.046219498
85	0x3d43b9f3	0.047784757
86	0xbc9ce733	-0.019153213
87	0xbd7f5f42	-0.062346704
88	0x3d920d2e	0.0713142
89	0x3c92896f	0.0178878
90	0x3d3bcb52	0.0458482
91	0xbca0b11d	-0.019615704
92	0x3da3d5fd	0.079997994
93	0xbd1fc250	-0.03900367
94	0x3c07acaf	0.008280917
95	0x3d8aa424	0.067695886
96	0x3c44b72a	0.01200656
97	0x3c85f110	0.0163503
98	0xbc7fb0a8	-0.015606083
99	0xbbc9c1b3	-0.006157124
100	0xbb59efb4	-0.0033254446
101	0xbd371c8a	-0.04470495
102	0xbd49befb	-0.0492544
103	0xbd82d992	-0.063891545
104	0xbcbffb9d	-0.023435408
105	0xbd6a87ea	-0.057258524
106	0xbcad5d09	-0.021162527
107	0xbbcf782c	-0.0063314643
108	0xbd6fe2a1	-0.05856574
109	0xbd773826	-0.06035628
110	0xbd1e3425	-0.038623948
111	0x3c2815ac	0.010259073
112	0x3d2f9e17	0.042875376
113	0x3b560610	0.0032657422
114	0x3cfe0f64	0.031013198
115	0x3c1f0b28	0.00970725
116	0xbd87eca5	-0.06636933
117	0xbd1d34c3	-0.038380396
118	0xbc19bf94	-0.009384055
119	0x3c8d80af	0.017273275
120	0x3caec205	0.02133275
121	0x3c57644a	0.013146469
122	0xbcbe16cf	-0.023204235
123	0xbd197b8e	-0.037471347
124	0x3d7b41ce	0.061342053
125	0xbcefad5a	-0.029257465
126	0x3d84afde	0.064788565
127	0x3d1075e8	0.035268694
128	0xbc3d30aa	-0.011547247
129	0xbc4d27ff	-0.012521743
130	0x3cba1368	0.022714332
131	0x3cebf7ef	0.028804747
132	0xbd803255	-0.062596
133	0xbd15384c	-0.036430642
134	0xba88e23b	-0.0010443398
135	0xbd8621bb	-0.06549402
136	0xbc7fa0a4	-0.015602265
137	0x3c36305e	0.01111993
138	0x3c99f18b	0.018791934
139	0xbd3ce1de	-0.04611384
140	0xbc93ac4a	-0.01802649
141	0x3c4d2cc6	0.012522882
142	0x3bfed275	0.0077765533
143	0xbda8be45	-0.08239416
144	0xbd288bbc	-0.041148886
145	0x3d23a7bb	0.039954882
146	0x3c04b9f2	0.008100973
147	0x3d191415	0.037372667
148	0x3d560d80	0.05225897
149	0xbd354f03	-0.044264805
150	0xbd16427c	-0.0366845
151	0xbd3ac54b	-0.04559831
152	0x3d7d22d9	0.06180081
153	0xbcebf298	-0.028802201
154	0x3cc29a7f	0.02375531
155	0xbdb87362	-0.090063825
156	0x3bda6fdc	0.0066661667
157	0xbcf1bca9	-0.029508905
158	0xbcf53839	-0.029934036
159	0x3c87e6b8	0.016589507
160	0xbd3895ed	-0.045064855
161	0xbd3d9a80	-0.04628992
162	0xbdb86d63	-0.09005239
163	0x3ccb0da8	0.024786785
164	0xbd28d0b6	-0.041214667
165	0xbd617354	-0.055041626
166	0xbd4b1de3	-0.04958905
167	0xbd31a7d4	-0.043372944
168	0xbcb7093f	-0.022343276
169	0x3c0c059c	0.008546259
170	0xbcb79282	-0.022408728
171	0xbde70481	-0.11280156
172	0x3d3d250a	0.0461779
173	0x3ac7262a	0.0015193869
174	0xbd0bfede	-0.034178607
175	0xbd4bb4d5	-0.049733
176	0x3c440713	0.011964577
177	0x3c0a7d49	0.008452722
178	0x3d3c83d4	0.04602416
179	0xbab2ff14	-0.0013656341
180	0x3d35408b	0.044251006
181	0xbb14812e	-0.0022660005
182	0x3d14bd31	0.03631324
183	0xbd801dde	-0.06255697
184	0xbc4adaa9	-0.012381234
185	0x3cddf1b9	0.027092801
186	0xbb6a5572	-0.0035756496
187	0x3d9c6d00	0.076379776
188	0xbb2e743b	-0.0026619572
189	0x3d85def2	0.06536664
190	0xba994b86	-0.0011695481
191	0x3db3e331	0.08783568
192	0x3d9c9e15	0.07647339
193	0xbd20304e	-0.039108567
194	0x3d1df3aa	0.038562454
195	0x3c0566db	0.008142198
196	0x3cb5e463	0.02220363
197	0xbd9e8b6a	-0.07741435
198	0x3d79a6a7	0.060949948
199	0x3b813dea	0.0039441483
200	0xbb7d4038	-0.0038643014
201	0xbd09f3cd	-0.033679772
202	0xbcc6be56	-0.024260681
203	0xbccb01b6	-0.02478109
204	0x3c846e45	0.016165862
205	0x3ce3a038	0.02778636
206	0x3d595667	0.053060915
207	0xbca8ed18	-0.020620868
208	0x3bf8d8b7	0.007594194
209	0x3d7c0887	0.06153157
210	0xbbfe8d3f	-0.0077683027
211	0x3c88282c	0.016620718
212	0x3c896d10	0.016775638
213	0xbc30aa60	-0.010782808
214	0x3ca18146	0.019714963
215	0x3d2f8dff	0.042860027
216	0xbd88077d	-0.06642053
217	0x3bcdddb8	0.0062825345
218	0xbc40a2a4	-0.011757527
219	0x3bf1f73c	0.007384209
220	0xbd82a234	-0.06378594
221	0xbd31339a	-0.0432621
222	0x3d08b415	0.033374865
223	0xbc978a56	-0.01849858
224	0xbc1e55da	-0.009664023
225	0x3b617222	0.0034400304
226	0x3cb1725d	0.021660978
227	0xbd1b1c3e	-0.03786873
228	0x3ca287aa	0.01984008
229	0x3d0a563b	0.033773642
230	0xbd46f8fb	-0.04857729
231	0x3e0e0e85	0.13872726
232	0xbce3c44f	-0.027803568
233	0x3d58562e	0.052816562
234	0xbd413dad	-0.04717796
235	0x3d0a4583	0.033757698
236	0x3d176e8b	0.036970656
237	0xbd2081d7	-0.039186325
238	0x3c519b63	0.012793395
239	0x3d5b0ddc	0.053480014
240	0xbd974bbf	-0.07387494
241	0x3dae0c2d	0.08498416
242	0xbca97539	-0.020685779
243	0x3c52d07b	0.012867088
244	0xbd041bab	-0.03225295
245	0xbd939ddc	-0.07207844
246	0x3d0b632c	0.034030125
247	0x3d829536	0.06376116
248	0x3ce190b3	0.027534818
249	0x3cdb5ece	0.026778605
250	0xbc2058a7	-0.009786761
251	0x3d67543e	0.056476824
252	0xbcd7363c	-0.026270978
253	0x3c4c0b0e	0.0124538075
254	0x3c93995f	0.018017469
255	0xbcf115d0	-0.029429346

fc0.bias f4 [64]
0	0xbd042950	-0.03226596
1	0xbebd961f	-0.37028596
2	0xbce51185	-0.027962456
3	0x3d71e5f4	0.05905719
4	0x3cab94ce	0.020944979
5	0xbdabd4f9	-0.08390231
6	0xbc09b237	-0.008404306
7	0xbd8a5275	-0.06754009
8	0x3d208c0a	0.03919605
9	0xbc8d2056	-0.017227333
10	0xbd924cff	-0.07143592
11	0x3ca58f5d	0.020209963
12	0xbcf97bdc	-0.030454569
13	0x3c4bdf6f	0.012443407
14	0xbc956b8a	-0.018239755
15	0xbd197613	-0.03746612
16	0xbd1416cd	-0.036154557
17	0xbd0f12e3	-0.03493012
18	0x3d4b27ae	0.04959839
19	0xbb075426	-0.0020649522
20	0xbca9da35	-0.020733932
21	0xbd222e21	-0.039594773
22	0x3b43099f	0.0029760373
23	0xbdc1a026	-0.09454374
24	0xbdb11378	-0.086462915
25	0xbdae532c	-0.085119575
26	0xbc93ece6	-0.018057298
27	0xbd13d293	-0.03608949
28	0xbda5b41c	-0.08090994
29	0xbdabfc5e	-0.083977446
30	0xbcfe52fa	-0.031045426
31	0x3db0633a	0.08612676
32	0xbc9e9664	-0.019358821
33	0xbc217520	-0.009854585
34	0xbde8fc35	-0.1137623
35	0xbcb1cbcd	-0.021703625
36	0xbdabc2d9	-0.083867736
37	0xbd66b128	-0.056321293
38	0xbc8373b4	-0.016046382
39	0x3c66ac74	0.014079202
40	0xbd8fd1ff	-0.070224755
41	0xbcaf95a0	-0.021433651
42	0xbbd95f7d	-0.0066336975
43	0xbd0cd268	-0.034380347
44	0xbcdd3ad4	-0.02700559
45	0x3d1c7b6e	0.03820365
46	0x3d525a33	0.051355552
47	0xbd3dfed9	-0.04638562
48	0x3cec780e	0.02886584
49	0x3d89cb48	0.06728226
50	0x3caed2bc	0.02134072
51	0xbd0fd5bf	-0.035115954
52	0x3c02fec1	0.007995308
53	0xbbfe5d3c	-0.0077625792
54	0x3c4dc0c8	0.01255817
55	0xbd4d8f7e	-0.050185673
56	0xbec47bec	-0.38375795
57	0x3daed8fd	0.08537481
58	0xbcfbaf54	-0.030723251
59	0x3e73bc8a	0.2380239
60	0x3d19f652	0.037588425
61	0x3bb44d2a	0.0055023627
62	0x3b808b3e	0.003922849
63	0xbc4dc660	-0.012559503

conv2.weight f4 [10, 1, 4]
0	0xbf1141ad	-0.5674084
1	0xbefa498c	-0.48884237
2	0xbdc47179	-0.09591956
3	0x3f196469	0.5991884
4	0x3f219d5a	0.63130724
5	0x3f7f0f37	0.9963259
6	0xbf3bc8c7	-0.73353237
7	0x3f43acd0	0.76435566
8	0xbeae2957	-0.34015915
9	0xbefb9239	-0.49134997
10	0xbe90fb31	-0.28316644
11	0xbef49025	-0.47766224
12	0x3edc2a67	0.430011
13	0xbedc856a	-0.43070537
14	0xbe683d50	-0.22679639
15	0xbd5c8885	-0.053841133
16	0x3eee5f9f	0.46557328
17	0x3fa871b8	1.3159704
18	0xbfa5469c	-1.2912173
19	0xbeabe544	-0.33573353
20	0x3e708c3f	0.23491
21	0xbecafa8c	-0.39644277
22	0x3e6a8933	0.229039
23	0xbdc699ac	-0.09697279
24	0xbd17cce0	-0.03706062
25	0xbed97cfc	-0.42478168
26	0xbea8b878	-0.32953238
27	0xbee88930	-0.45417166
28	0x3efeb982	0.49750906
29	0xbf13c9a0	-0.5772953
30	0x3ebbcc57	0.36679336
31	0xbd9fea37	-0.07808345
32	0xbeeeea8e	-0.46663326
33	0xbe9b728b	-0.30360827
34	0xbf062760	-0.5240383
35	0x3f0b6d47	0.5446362
36	0x3e8a20e7	0.26978227
37	0x3d529717	0.05141362
38	0x3d7ace7c	0.061232075
39	0xbe71cdf2	-0.23613718

conv2.bias f4 [10]
0	0xbd882df2	-0.066493884
1	0xbe52eaab	-0.20597331
2	0xb8ab0f13	-8.156723e-05
3	0xbe2a8734	-0.16653138
4	0x3da4bb64	0.080435544
5	0xbd216e52	-0.03941185
6	0xbcb1ea00	-0.021718025
7	0xbf01a306	-0.5063938
8	0xbe8d114b	-0.27552256
9	0xbe1142e8	-0.14185679

fc1.weight f4 [128, 300]
0	0xbd6c4280	-0.057680607
1	0x3d695f74	0.056975797
2	0x3c9fef13	0.01952318
3	0xbd43accf	-0.047772225
4	0x3d5759e1	0.05257595
5	0xbcfc50a8	-0.030800179
6	0xbd475a11	-0.04866988
7	0xbd530144	-0.05151488
8	0xbb769884	-0.0037627527
9	0x3cb28c1b	0.021795323
10	0xbb4b0a80	-0.00309816
11	0xbcd654c1	-0.02616346
12	0x3cffbc70	0.031217784
13	0xbc00168a	-0.007817874
14	0xbd5a1b6a	-0.0532488
15	0x3d64cf63	0.055861842
16	0xbcc5c78f	-0.024143009
17	0xbd1f3ad2	-0.038874455
18	0xbb8b2cd9	-0.0042472896
19	0xbc610091	-0.013733045
20	0x3c978f3a	0.018500913
21	0x3d4f540b	0.05061726
22	0x3b9f8765	0.004868435
23	0x3d1443ed	0.03619759
24	0xbd065db1	-0.032804195
25	0x3acc8eb9	0.00156065
26	0xbd1c116e	-0.03810256
27	0x3d401996	0.0468994
28	0xbd2aadf1	-0.04166979
29	0x3d234f5e	0.039870612
30	0x3d6cdb28	0.05782619
31	0x3d0d249f	0.034458753
32	0x3cc83685	0.02444006
33	0x3d0f9f0c	0.03506379
34	0x3b9d2118	0.004795205
35	0xbd598cc7	-0.05311277
36	0xbd57e084	-0.05270435
37	0xbd04be98	-0.032408327
38	0x3cb5c9d8	0.022190973
39	0xbd4a3e42	-0.04937578
40	0x3c1fe837	0.009759954
41	0x3d349be6	0.04409399
42	0xbd2b5aac	-0.04183452
43	0xbb7d5ec9	-0.0038661233
44	0x3d2b25e9	0.0417842
45	0xbb315249	-0.0027057102
46	0x3d49f132	0.049302287
47	0xbacbc5c4	-0.001554661
48	0x3bd99b57	0.0066408324
49	0xbd6f90e2	-0.05848778
50	0xbd33dd27	-0.04391208
51	0x3bc194b4	0.0059076194
52	0xbbeeca1c	-0.007287277
53	0xbd4add7e	-0.049527638
54	0x3d1a7348	0.037707597
55	0xbd2dffb4	-0.042480186
56	0xbcdededf	-0.027205883
57	0x3c8a3766	0.01687212
58	0x3c5ed1ed	0.013599855
59	0xbd25e148	-0.040498048
60	0xbd5162a9	-0.05111948
61	0x3d6bd53d	0.057576407
62	0x3d09033a	0.033450343
63	0x3cb4a29c	0.022050194
64	0xbc9487a5	-0.018131087
65	0xbc9c2a20	-0.019063056
66	0x3ce3b387	0.027795566
67	0x3cdd4ef5	0.027015189
68	0xbb38b02c	-0.0028181178
69	0xbc4e2ff0	-0.012584671
70	0xbc8e948b	-0.017404815
71	0xbd654a19	-0.05597887
72	0xbd1e47db	-0.038642745
73	0x3d53806a	0.051636137
74	0xbd683f7a	-0.05670116
75	0x3c937529	0.018000202
76	0x3ce0c87e	0.027439352
77	0x3d51c6e8	0.051215082
78	0xbc38e608	-0.0112853125
79	0xbc2357b8	-0.009969644
80	0xbd367a0f	-0.044549998
81	0x3ba25e46	0.004955086
82	0xbcddf0d0	-0.027092367
83	0xbc27dcc0	-0.010245502
84	0x3cc95db8	0.024580821
85	0xbc3bc1d5	-0.011459787
86	0x3b1b22cc	0.0023671864
87	0x3ce558ac	0.027996384
88	0xbd1c7f2c	-0.038207218
89	0xbbea6253	-0.0071528344
90	0x3d0827f7	0.03324124
91	0x3d6895f6	0.05678364
92	0x3b022afd	0.0019862049
93	0x3c4ce8f5	0.012506713
94	0xbd192567	-0.037389185
95	0xbc18f658	-0.009336077
96	0x3c688a5c	0.014193144
97	0x3c3e4737	0.011613659
98	0xbc433e51	-0.011916713
99	0xbab6bc00	-0.0013941526
100	0x3d229ebf	0.039702173
101	0xbd15b78c	-0.036551997
102	0xbc8556b1	-0.01627669
103	0x3d11a285	0.03555538
104	0x3cb95fb0	0.022628635
105	0xbb835a70	-0.0040085837
106	0x3d5fd24d	0.054643918
107	0xbcd6c658	-0.026217625
108	0x3caac59c	0.02084618
109	0xbc93d93c	-0.018047921
110	0xbd27dbbb	-0.040981036
111	0xbc9faf58	-0.01949279
112	0xbd297199	-0.0413681
113	0xbb9787f0	-0.0046243593
114	0x3d66f0e8	0.05638209
115	0x3d22ef6d	0.039779115
116	0x3ce537a9	0.027980642
117	0xbd57a24b	-0.05264501
118	0x3c752e2d	0.014964622
119	0x3c2f09ed	0.010683519
120	0xbd4055ea	-0.046956934
121	0xbcd38e0c	-0.02582457
122	0x3d4720c1	0.04861522
123	0x3d4d1ccc	0.05007629
124	0x3b132113	0.0022450134
125	0xbd4fd340	-0.050738573
126	0x3d3af9a1	0.04564822
127	0xbd02b126	-0.031907223
128	0x3c96b38b	0.01839616
129	0xbd4c877e	-0.049933903
130	0x3d1a82a2	0.037722237
131	0x3c25f11d	0.010128287
132	0x3cb3156c	0.0218608
133	0xbce6ba18	-0.028164908
134	0x3d1cd25e	0.03828656
135	0xbd35542c	-0.044269726
136	0xbd61d49f	-0.055134412
137	0xbd1a737b	-0.037707787
138	0x3d1661ae	0.03671425
139	0xbd462c28	-0.048381954
140	0xbd2aa1e6	-0.041658305
141	0x3d024bd3	0.031810593
142	0xbc595809	-0.013265618
143	0x3cf67cc5	0.030088792
144	0xbc79a3c9	-0.015236803
145	0x3c1b993b	0.009496982
146	0x3a6944bd	0.00088984874
147	0x3d19083c	0.03736137
148	0xbc98510d	-0.018593336
149	0xbd161d42	-0.036648996
150	0x3bf32f23	0.0074213906
151	0xbad22963	-0.0016034063
152	0xbd649d02	-0.055813797
153	0x3d4be84e	0.04978209
154	0xbd67faf1	-0.0566358
155	0xbcc0cab3	-0.023534155
156	0x3d0bd464	0.0341381
157	0x3d5df8c5	0.054192323
158	0xbd4f082d	-0.050544906
159	0x3cd3bd53	0.025847113
160	0xbc359436	-0.0110826995
161	0xbbc43881	-0.005988181
162	0xbc677989	-0.014128097
163	0x3d3a0095	0.04541071
164	0x3cb1070b	0.021609804
165	0xbd2fc383	-0.042911064
166	0xbbe3eef6	-0.0069559766
167	0x3cd7147f	0.02625489
168	0xbca2f037	-0.019889934
169	0xbd6c5905	-0.057702083
170	0xbd69fac1	-0.057123903
171	0xbd3eb2d3	-0.04655726
172	0x3d3c04e1	0.04590309
173	0xbd64cbed	-0.05585854
174	0xbc4d666b	-0.012536625
175	0x3d0d4d7d	0.034497727
176	0x3d417a63	0.047235858
177	0x3c8c875b	0.017154386
178	0xbd271688	-0.04079297
179	0xbd0ca57a	-0.0343375
180	0xbb0cea70	-0.002150204
181	0xbd4aba0f	-0.049493846
182	0xbd6aa928	-0.057290226
183	0x3d05515c	0.032548293
184	0x3cc81098	0.024421975
185	0x3d6b6190	0.05746609
186	0xbcaa58a2	-0.020794217
187	0x3d0cc010	0.034362853
188	0x3cb9b580	0.022669554
189	0x3d2d3652	0.042288132
190	0x3d4463ae	0.047946624
191	0xbc101d84	-0.0087961
192	0xbcf0fa48	-0.029416218
193	0xbcf7ead8	-0.03026335
194	0xbcd1dc9c	-0.02561789
195	0xbd10aad9	-0.035319183
196	0x3d1d1966	0.0383543
197	0x3d1d51f0	0.03840822
198	0x3d0e20ce	0.034699254
199	0xbd16daac	-0.036829636
200	0xbd321ae1	-0.043482665
201	0x3cb4ada0	0.022055447
202	0xbce2fb49	-0.027707713
203	0x3d4204c0	0.04736781
204	0xbc0f92c0	-0.008763015
205	0x3b4ba0a0	0.0031071082
206	0xbc7a3dd4	-0.01527353
207	0xbd165f90	-0.03671223
208	0xbcb0b580	-0.021570921
209	0xbd0b5dec	-0.034025118
210	0xbd120ef7	-0.035658803
211	0xbc7c95af	-0.015416547
212	0xbba3b905	-0.0049964213
213	0xbd2dff71	-0.042479936
214	0xbd4ea9be	-0.050454848
215	0x3cb49116	0.022041839
216	0x3c11d11b	0.008899952
217	0x3d383d20	0.04498017
218	0xbcf4b86d	-0.029873097
219	0x3bbe8c82	0.0058150897
220	0x3ce9f162	0.028557483
221	0x3d4018df	0.04689872
222	0xbccf5eaf	-0.025313703
223	0xbd45abaf	-0.048259433
224	0x3cbb53e5	0.022867152
225	0xbcd46416	-0.025926631
226	0xbd6c3dd3	-0.057676148
227	0xbcf9b438	-0.030481443
228	0x3c324acd	0.010882092
229	0x3c1ea4fe	0.009682892
230	0xbc6596a8	-0.01401297
231	0x3d0c3373	0.034228753
232	0x3cc6f0ac	0.024284683
233	0x3d0b8e32	0.034071155
234	0xbc9bebf7	-0.019033415
235	0x3d44f969	0.04808942
236	0x3a625f5f	0.0008635427
237	0x3c140698	0.009034775
238	0xbbf5270a	-0.0074814605
239	0x3d32e97b	0.043679696
240	0x3d5436ed	0.051810194
241	0x3c455469	0.012044051
242	0xbcef52ff	-0.02921438
243	0x3d205cfa	0.03915117
244	0x3ccc85b5	0.0249661
245	0xbccf16c3	-0.025279408
246	0xbc8cd986	-0.017193567
247	0x3c41a3ba	0.011818821
248	0xbd5bf004	-0.053695694
249	0xbd679e45	-0.056547422
250	0xbd20ce4b	-0.039259236
251	0x3cd1276c	0.025531493
252	0xbbc22b4f	-0.005925573
253	0x3d7db248	0.0619376
254	0x3cfb0c53	0.030645525
255	0x3cd278d9	0.02569239

fc1.bias f4 [128]
0	0xbbb25493	-0.005442211
1	0xbbfcb6ad	-0.0077122063
2	0xbdbef05e	-0.0932319
3	0xbd041ae0	-0.032252192
4	0xbc95c476	-0.018282156
5	0x3a820e46	0.0009922467
6	0x3e9a50b8	0.3013971
7	0x3df92b9d	0.12166522
8	0x3d255396	0.040362917
9	0xbdcc1d4d	-0.09966526
10	0x3d40d591	0.047078673
11	0x3bbddeaa	0.005794366
12	0x3ccd977e	0.025096651
13	0xbc86823b	-0.01641952
14	0x3c3b9d67	0.011451102
15	0x3cfe9161	0.031075181
16	0x3c09b8d3	0.008405882
17	0xbd191ae4	-0.03737916
18	0x3cc7c473	0.024385666
19	0xbe2c2991	-0.16812731
20	0xbc8d750b	-0.017267724
21	0xbd2f685c	-0.042824134
22	0xbd0c0123	-0.03418077
23	0xbe2209d1	-0.15824057
24	0x3c6270e6	0.013820862
25	0xbd3384f9	-0.043827984
26	0xbc181531	-0.009282396
27	0xbd0f4c8f	-0.03498512
28	0xbccd50a4	-0.025062867
29	0x3ccabb8b	0.02474763
30	0x3d235d7f	0.039884087
31	0xbcaab1d1	-0.020836743
32	0xbbbdbfb7	-0.0057906765
33	0xbe05dc8f	-0.13072418
34	0xbd5712fb	-0.052508336
35	0x3d3b4aa6	0.045725487
36	0xbc97ef63	-0.018546766
37	0xbdaf5773	-0.085616015
38	0xbe379f2e	-0.17931816
39	0xbc3d2cbc	-0.01154631
40	0xbd98dd7c	-0.0746412
41	0xbe0b2cf5	-0.13591368
42	0xbd300575	-0.042973954
43	0x3d387cca	0.045040883
44	0x3ce818f9	0.02833222
45	0xbe22efde	-0.15911815
46	0xbd16a5dd	-0.036779273
47	0xbce06892	-0.027393613
48	0x3c3de8c7	0.011591143
49	0xbce88fed	-0.028388942
50	0xbe0995d2	-0.13436058
51	0xbd4583b0	-0.04822129
52	0x3dd4e5c9	0.103953905
53	0xbd68a2bb	-0.056795817
54	0xbde7ad9d	-0.11312411
55	0xbdc15515	-0.09440056
56	0xbd1eb8fe	-0.03875064
57	0xbe0e0770	-0.13870025
58	0xbd5a9847	-0.05336788
59	0x3d85f7a2	0.06541373
60	0xbce105c7	-0.027468575
61	0xbd44c177	-0.048036065
62	0xbd02c8c8	-0.03192976
63	0x3d58b863	0.05291022
64	0xbe2092d3	-0.15681009
65	0x3c91bf80	0.01779151
66	0x3baeb340	0.005331427
67	0xbce8e332	-0.028428648
68	0xbe1c0bb3	-0.15238838
69	0x3d0ad445	0.033893842
70	0xbe195381	-0.1497326
71	0x3e990f4a	0.29894477
72	0x3e640b80	0.22270012
73	0x3cb21e82	0.021743063
74	0xbd76b8a6	-0.06023469
75	0xbe4edd3e	-0.20201585
76	0x3d2d2e7f	0.04228067
77	0xbd6effd8	-0.05834946
78	0x3da77dc7	0.08178287
79	0xbd039c7d	-0.03213166
80	0xbe1833d5	-0.14863522
81	0xbc9145d2	-0.017733488
82	0xbcad9d17	-0.02119307
83	0x3cab5a32	0.020917032
84	0xbd698e56	-0.057020508
85	0x3de95cd2	0.11394657
86	0xbde2b003	-0.11068728
87	0xbc685c25	-0.014182125
88	0xbd963fe7	-0.07336407
89	0xbdcd7694	-0.100323826
90	0xbceac488	-0.028658167
91	0xbd81d9a5	-0.063403405
92	0x3e21eb28	0.15812361
93	0xbd17ce4a	-0.037061967
94	0x3df26e19	0.11837406
95	0xbccaabda	-0.024740148
96	0xbd64a85f	-0.055824634
97	0x3c799e96	0.015235564
98	0xbd504784	-0.050849453
99	0x3d0032af	0.031298336
100	0xbe18bfda	-0.14916936
101	0xbd978fea	-0.07400496
102	0x3c9bd8fa	0.01902436
103	0xbd310989	-0.043221984
104	0xbe054eda	-0.1301836
105	0xbc8ba357	-0.01704566
106	0x3d1a8eed	0.03773396
107	0xbdc84530	-0.097788215
108	0xbd4aa75a	-0.049476005
109	0xbb6afb4b	-0.0035855349
110	0x3d9248f5	0.07142822
111	0x3cd600bf	0.026123403
112	0x3c51c983	0.012804392
113	0x3cc4051b	0.023928216
114	0xbe5288dc	-0.2056002
115	0xbc7b229a	-0.015328074
116	0xbded1b84	-0.11577514
117	0x3c4b73ce	0.012417747
118	0xbe20c587	-0.1570035
119	0x3c95f379	0.018304573
120	0xbd02cffe	-0.031936638
121	0x3d000200	0.031251907
122	0x3b687b30	0.0035473816
123	0xbc17aac4	-0.009257022
124	0xbe046432	-0.12928846
125	0xbc90a3f1	-0.017656298
126	0xbe2a951c	-0.16658443
127	0x3cec985b	0.028881242

fc2.weight f4 [64, 128]
0	0xbd9a8115	-0.07544152
1	0x3d6c1fc7	0.057647493
2	0xbe0227eb	-0.1271054
3	0xbcfa9e72	-0.03059313
4	0x3d772d27	0.060345795
5	0xbd3757a8	-0.04476133
6	0xbdb89397	-0.090125255
7	0x3d296cd9	0.04136357
8	0xbc319de7	-0.0108408695
9	0x3d01e133	0.031708907
10	0xbcb10052	-0.021606598
11	0xbd582c41	-0.05277658
12	0x3d47e4ee	0.04880231
13	0xbc425f91	-0.011863605
14	0xbb1fd46b	-0.0024388086
15	0xbc121f5d	-0.00891861
16	0xbb95f8a8	-0.0045767613
17	0xbc045a13	-0.008078116
18	0x3d8d9653	0.06913438
19	0xbe398719	-0.18117942
20	0xbc96dc4a	-0.018415589
21	0xbd70ded1	-0.058806244
22	0x3cf81c17	0.030286832
23	0xbe337c3a	-0.17527857
24	0x3d23d7da	0.040000774
25	0xbc5caea6	-0.013469374
26	0xbda2fc80	-0.07958317
27	0x3c5eac18	0.013590835
28	0x3b2f40ae	0.0026741433
29	0x3ccc2fb8	0.024925098
30	0x3c0e253a	0.008675868
31	0xbb80f08d	-0.003934926
32	0x3c8426da	0.016131807
33	0x3d6d42d1	0.05792505
34	0xbd5e8499	-0.054325674
35	0xbc75033c	-0.014954384
36	0x3d846751	0.064650185
37	0xbe30288a	-0.17202964
38	0xbc9243b2	-0.017854545
39	0xbdaad889	-0.08342082
40	0x3d0193d5	0.031635124
41	0xbc2bc0c9	-0.010482975
42	0x3d256a19	0.040384386
43	0xbda77254	-0.08176103
44	0x3cbd559c	0.02311211
45	0xbe6a1532	-0.22859648
46	0xbdb64b43	-0.08901074
47	0x3c285ac4	0.010275546
48	0x3cd84625	0.026400635
49	0x3d917547	0.07102447
50	0x3d4418b3	0.047875118
51	0xbc7fea24	-0.015619788
52	0xbd4ef4d8	-0.05052647
53	0x3bfc4b96	0.0076994402
54	0xbe429964	-0.19003826
55	0xbdef9c1b	-0.11699697
56	0x3aa2430d	0.0012379602
57	0xbcebc971	-0.028782578
58	0xbe10af9e	-0.14129493
59	0xbd11c077	-0.03558394
60	0x3d528847	0.051399495
61	0xbd009152	-0.03138859
62	0x3ce65e12	0.028121028
63	0xbd8aac91	-0.06771196
64	0xbd22cf93	-0.03974874
65	0x3c3f1100	0.011661768
66	0xbe004f9e	-0.12530372
67	0x3d813a2a	0.06309922
68	0xbbb5cbcc	-0.005547976
69	0xbbd89b3a	-0.0066103013
70	0x3da74509	0.08167464
71	0xbdb9ba4a	-0.09068735
72	0xbdc15f1f	-0.09441971
73	0xbb985454	-0.0046487246
74	0x3d84a4e8	0.06476766
75	0x3cf6b310	0.03011468
76	0xbdb4812f	-0.08813702
77	0xbe27cde4	-0.16387135
78	0x3c5738bd	0.013136086
79	0xbcea4992	-0.028599534
80	0x3d2d3cef	0.04229444
81	0xbddd7984	-0.10814193
82	0x3d98bcb2	0.07457866
83	0x3d097f72	0.033568807
84	0x3abe2c69	0.0014509085
85	0xbb9f6f00	-0.004865527
86	0xbababa6f	-0.0014246235
87	0xbd11f8be	-0.03563761
88	0x3cb04d0f	0.02152112
89	0x3cc214fa	0.023691643
90	0xbd4463f5	-0.04794689
91	0xbd083b49	-0.033259664
92	0xbcbe9114	-0.023262538
93	0xbd8a0d28	-0.067407906
94	0x3d2b3e29	0.041807327
95	0x3d87e681	0.06635762
96	0x3cbc3de7	0.022978736
97	0x3ce7db00	0.02830267
98	0xbdb00581	-0.085948
99	0xbd3d9ef6	-0.046294175
100	0x3ba03b7e	0.0048899045
101	0x3b80843f	0.003922015
102	0x3bb352c1	0.0054725115
103	0x3c3f3333	0.011669922
104	0x3ca23004	0.019798286
105	0xbb83849d	-0.0040136115
106	0x39660e9d	0.00021939953
107	0xbdd742f9	-0.10510821
108	0x3da203db	0.079108916
109	0xbdaa53c7	-0.083167605
110	0x3d4f2afd	0.050578106
111	0x3d1d1f01	0.038359646
112	0x3d95cdf5	0.07314674
113	0x3d87e776	0.066359445
114	0x3d366b44	0.04453589
115	0xbd760d56	-0.060071312
116	0x3d4154a2	0.047199853
117	0xbd626f10	-0.0552817
118	0xbe55757c	-0.20845598
119	0x3d709caf	0.058743175
120	0xbda22743	-0.07917645
121	0x3c312abb	0.01081341
122	0x3d2e9af3	0.04262824
123	0x3b6429aa	0.0034814873
124	0x3bfe58a9	0.007762034
125	0x3dc4a0f5	0.096010126
126	0x3c7ed9f5	0.015554895
127	0x3b7dc9e5	0.0038725075
128	0x3d9ada07	0.07561117
129	0x3c4de890	0.012567654
130	0xbc072f33	-0.008250999
131	0xbd35d465	-0.04439201
132	0x3c8c4ed0	0.017127424
133	0xbdab6e74	-0.08370677
134	0xbbf48424	-0.0074620415
135	0xbd4c85f1	-0.049932424
136	0xbd08b3f4	-0.03337474
137	0xbd428b7a	-0.047496296
138	0xbd81f841	-0.06346179
139	0x3d03d6c9	0.032187257
140	0x3d5ce6ec	0.05393116
141	0xbd8aa062	-0.06768872
142	0xbbf9b45e	-0.0076203784
143	0xbca87e9d	-0.020568186
144	0xbb9f52be	-0.0048621586
145	0x3d14074c	0.03613977
146	0x3c2ca558	0.010537468
147	0xbd58880f	-0.05286413
148	0xbd3b9c45	-0.045803327
149	0xbc62e27a	-0.0138479415
150	0x3c7d843b	0.015473421
151	0xbd6dd63c	-0.058065638
152	0xbd18b0ac	-0.037277862
153	0xbd2e26d7	-0.04251751
154	0xbdb2f805	-0.08738712
155	0xbd8329a2	-0.06404425
156	0xbd040e12	-0.03223998
157	0x3d890ef6	0.06692307
158	0x3cc48270	0.023987979
159	0x3cae9033	0.021308994
160	0x3d5e63e2	0.054294474
161	0xbdb5b13e	-0.08871697
162	0xbd508a0e	-0.05091291
163	0xbd5e8145	-0.0543225
164	0x3c823eec	0.015899144
165	0x3d2f2d69	0.042767916
166	0xbca0fac5	-0.019650826
167	0x3d8ff416	0.070289776
168	0xbd03b08c	-0.03215079
169	0x3ceff4a1	0.029291453
170	0xbd0f054a	-0.034917153
171	0xbd27f10a	-0.041001357
172	0xbc4214d6	-0.011845788
173	0x3cfc2991	0.03078154
174	0xbcc7374e	-0.024318364
175	0xbd58af97	-0.05290183
176	0xbd3aa5d1	-0.04556829
177	0x3bc6c211	0.006065615
178	0xbd46fe66	-0.048582457
179	0xbccacf7c	-0.02475714
180	0x3b95a842	0.004567177
181	0xbd381b2e	-0.044947796
182	0xbcbdfa55	-0.023190657
183	0xbda047d8	-0.07826203
184	0xbd18b2aa	-0.037279762
185	0xbd87801b	-0.06616231
186	0xbd9dc8a3	-0.07704284
187	0x3d89a202	0.06720354
188	0xbd8c4102	-0.06848337
189	0xbd6aaa13	-0.0572911
190	0xbbf670f0	-0.0075207874
191	0x3d1bad1a	0.03800688
192	0x3c055161	0.008137078
193	0xbd458d14	-0.048230246
194	0xbcc8e19c	-0.024521641
195	0x3c75301d	0.014965084
196	0x3d8da7ab	0.06916746
197	0xbd860fbb	-0.06545969
198	0xbd914a43	-0.070942424
199	0x3c482a29	0.012217083
200	0xbd1f68f5	-0.038918454
201	0x3da7d4d0	0.08194888
202	0x3c994c1c	0.01871305
203	0xbd0c3358	-0.034228653
204	0xbd09aad8	-0.033610195
205	0xbdb2e650	-0.08735335
206	0x3da504df	0.0805757
207	0xbc9dd858	-0.0192682
208	0xbda23e1e	-0.07922004
209	0x3c4d4668	0.012528993
210	0xbc6f0a2f	-0.01458983
211	0x3da05fff	0.0783081
212	0x3c174c7e	0.009234546
213	0xbd99bb0e	-0.07506381
214	0x3c823ccf	0.015898136
215	0x3ab5b881	0.001386419
216	0x3d49ae9d	0.04923879
217	0xbd98642f	-0.074409835
218	0x3d329dfb	0.043607693
219	0x3bcca3d0	0.006245114
220	0x3d9f0d8c	0.07766256
221	0xbc42927d	-0.011875746
222	0xbd852d0f	-0.06502735
223	0x3d20bc1b	0.03924189
224	0x3d91e844	0.07124379
225	0xbbafaf02	-0.0053614387
226	0x3c344808	0.011003502
227	0xbd442eb1	-0.04789609
228	0x3c245ef6	0.010032406
229	0xbd96d0b1	-0.073640235
230	0x3c3d08dc	0.011537757
231	0x3c77e7e4	0.015130971
232	0x3da5e437	0.08100169
233	0xbd5457d3	-0.05184157
234	0x3c8f85a7	0.017519785
235	0x3d6b9abc	0.057520613
236	0x3ce6536c	0.02811595
237	0x3dab67d0	0.0836941
238	0xbbafc77b	-0.005364356
239	0xbd78216f	-0.06057876
240	0xbd1162a0	-0.035494447
241	0xbd78db5f	-0.060756084
242	0xbd3ccf42	-0.046096094
243	0x3c294344	0.010330979
244	0x3d26d4db	0.04073034
245	0xbda89258	-0.08231038
246	0xbd91b6ab	-0.07114919
247	0x3da655b1	0.08121813
248	0x3a25c856	0.0006324103
249	0xbd0410bc	-0.03224252
250	0xbdab75ac	-0.083720535
251	0x3d896de4	0.06710413
252	0xbd3e9a49	-0.046533857
253	0x3d91efc0	0.07125807
254	0xbd46e264	-0.048555747
255	0xbceebbcf	-0.029142288

fc2.bias f4 [64]
0	0x3e94b8cb	0.29047236
1	0xbe0f68f8	-0.14004886
2	0x3e9aba1e	0.3022012
3	0xbe0977bb	-0.1342458
4	0xbe23ff03	-0.16015248
5	0x3e98d0c1	0.29846767
6	0xbdcffe6f	-0.10155951
7	0xbe0db553	-0.13838701
8	0x3e944a37	0.2896287
9	0x3e95afe0	0.29235744
10	0x3f035cd0	0.51313496
11	0xbdadd16d	-0.084872104
12	0xbdc28add	-0.09499142
13	0x3e9c2aca	0.30501395
14	0x3c19471b	0.009355332
15	0xbe1ee1c9	-0.15515818
16	0xbdfb007a	-0.1225595
17	0xbdeef2b9	-0.116673894
18	0xbdd90da6	-0.10598306
19	0xbdcb3c19	-0.09923572
20	0x3d14cc57	0.036327686
21	0xbe10370b	-0.14083497
22	0xbde50157	-0.11181896
23	0x3e9b30fd	0.30310813
24	0x3e96c2fb	0.29445633
25	0xbd9a55ec	-0.075359195
26	0xbdaa2d32	-0.083094016
27	0xbe2547ac	-0.16140622
28	0xbd7ee504	-0.062230125
29	0xbe10e830	-0.14151073
30	0x3e59eb7c	0.21281236
31	0xbdcaddc2	-0.09905578
32	0xbdfe0313	-0.1240293
33	0xbd943928	-0.07237464
34	0x3e9b2f99	0.30309752
35	0xbd9ead78	-0.0774793
36	0xbe018258	-0.12647378
37	0xbe395bfa	-0.18101493
38	0xbe0d61a6	-0.13806781
39	0xbdce14fc	-0.10062596
40	0xbe3e0778	-0.18557537
41	0x3ed30d7f	0.41221234
42	0xbdc20ad8	-0.094747245
43	0xbe292244	-0.16516978
44	0x3e9a7710	0.30168962
45	0xbdae6c9b	-0.085168086
46	0x3ed400d9	0.41406897
47	0xbd5e243b	-0.05423377
48	0xbdd23720	-0.102644205
49	0xbe2bd2a0	-0.16779566
50	0xbdfeb059	-0.124359794
51	0xbd9e9c82	-0.07744695
52	0xbd8774c3	-0.066140674
53	0xbdf823fb	-0.12116238
54	0xbdae4fd7	-0.08511322
55	0xbe0d8c95	-0.13823159
56	0x3e9222f3	0.2854229
57	0x3e9a190c	0.30097234
58	0xbe315184	-0.17316252
59	0xbdad1492	-0.08451189
60	0x3e94a897	0.29034874
61	0x3e9d86e1	0.30766967
62	0x3e92d0f4	0.28675044
63	0x3e912214	0.28346312

fc3.weight f4 [5, 64]
0	0xb755840d	-1.2726535e-05
1	0x3ca9a879	0.020710217
2	0xb8624394	-5.3945536e-05
3	0x3ad54579	0.0016271315
4	0xbb449c16	-0.003000026
5	0x38e2a0d7	0.000108064785
6	0x3dcfa16d	0.101382114
7	0x3d999bcc	0.07500419
8	0xb6591e83	-3.235328e-06
9	0x3872d7b8	5.78982e-05
10	0x3918e358	0.00014580542
11	0xbc484983	-0.012224558
12	0xbd19bb9e	-0.03753244
13	0xb724dd9f	-9.826762e-06
14	0xb852ffb1	-5.0306033e-05
15	0x39fd2a0f	0.00048287257
16	0xbd9223b8	-0.07135719
17	0xbdf5f052	-0.12008728
18	0x3dd90f9f	0.105986826
19	0xbde8c14e	-0.11364995
20	0x398812e5	0.0002595402
21	0xbac49dcb	-0.0015000639
22	0xbdc61e6d	-0.09673772
23	0x37777cff	1.475145e-05
24	0xb82b122a	-4.0786494e-05
25	0xbd691262	-0.056902297
26	0xbd9421c3	-0.07233002
27	0x3dab7c64	0.08373335
28	0x3ce9436a	0.028474528
29	0xbda8a125	-0.08233861
30	0x38f553a1	0.000116980875
31	0xb8e6566c	-0.00010983352
32	0xbd2bc017	-0.041931238
33	0xbd2395e2	-0.03993786
34	0x37eed56b	2.8471191e-05
35	0x3dc38aaf	0.09547936
36	0x3df418b0	0.11918771
37	0xbd0cb766	-0.03435459
38	0xbdbdcba3	-0.09267356
39	0xbd796f8c	-0.060897395
40	0xbdb033ac	-0.08603606
41	0x37d3e16e	2.5258134e-05
42	0x3cc43570	0.023951262
43	0x3c3178bc	0.010832008
44	0x38b32300	8.5419044e-05
45	0x3d01c6fb	0.031683903
46	0xb803e5f9	-3.1447013e-05
47	0xb8964585	-7.1655064e-05
48	0xbdc20558	-0.094736755
49	0xbd34dc35	-0.04415532
50	0xbdbdaafc	-0.09261128
51	0x398b372b	0.0002655325
52	0x3cf46fe9	0.02983852
53	0x3de4e5ac	0.11176619
54	0xbd8f0774	-0.069838434
55	0xbd01b834	-0.03166981
56	0xb76c6189	-1.4089405e-05
57	0xb8a2b01f	-7.757567e-05
58	0x3baf912b	0.0053578815
59	0xbc12b0d3	-0.008953291
60	0xb8b8489a	-8.787327e-05
61	0xb68c52f2	-4.1819812e-06
62	0x376051d8	1.3370496e-05
63	0x3803dfe7	3.144136e-05
64	0x38d92b0e	0.00010355386
65	0x3dd1532e	0.102209434
66	0x3904a7f3	0.00012651067
67	0x3d2d9e68	0.042387396
68	0x3bb0bad2	0.0053933645
69	0x3833a17a	4.2827312e-05
70	0xbd800e03	-0.062526725
71	0x3d91324d	0.07089672
72	0xb986b36f	-0.0002569216
73	0xb9089418	-0.0001302514
74	0xb747a084	-1.1898697e-05
75	0x3d906c05	0.07051853
76	0xbcf1da80	-0.029523134
77	0x391a6271	0.00014723257
78	0x3957a07c	0.00020563783
79	0x3d36141e	0.04445278
80	0x3db5f3b4	0.08884373
81	0x3ddfe3ec	0.109321445
82	0xbddf8747	-0.10914474
83	0x3cde8e5c	0.027167492
84	0xb81eaa94	-3.7829e-05
85	0xba5c15a6	-0.000839556
86	0x3d6e4518	0.05817136
87	0xb74a7ebf	-1.2069649e-05
88	0xb91ab2a0	-0.00014753127
89	0x3dc2d052	0.0951239
90	0x3db8cfff	0.09024047
91	0xbd2ef153	-0.042710613
92	0xbd00fe5a	-0.03149257
93	0xbb27cdce	-0.0025604847
94	0x389939f9	7.306407e-05
95	0xb8b73fe2	-8.738019e-05
96	0x3dc1a1d6	0.09454696
97	0x3c806433	0.015672779
98	0x396a885d	0.00022366778
99	0xbd916e93	-0.071011685
100	0x3da51dcf	0.08062326
101	0xbd9a52d8	-0.075353324
102	0xbda52ad5	-0.0806481
103	0xbd7e3af5	-0.062067945
104	0x3c84ef90	0.016227514
105	0xb92d5c3f	-0.0001653293
106	0xbce0bc1e	-0.027433451
107	0xbcc37d40	-0.023863435
108	0x37cb5c99	2.4242605e-05
109	0xbd5740f8	-0.052552193
110	0x38c0b318	9.188632e-05
111	0x3788025c	1.6213562e-05
112	0x3dcc7dc7	0.099849276
113	0x3d10dd1d	0.03536712
114	0xbdc9adcf	-0.098476045
115	0x3a1ddb36	0.00060217397
116	0xbc99797d	-0.018734688
117	0x3def15e0	0.11674094
118	0xbdb4c63b	-0.08826872
119	0x3d3459e3	0.044031035
120	0xb7e51882	-2.731034e-05
121	0x388ec947	6.8085785e-05
122	0x3dc63483	0.096779846
123	0x3dcaf2aa	0.09909566
124	0x38ef4f39	0.000114111645
125	0xb88cf2f8	-6.720977e-05
126	0x37ddbe4a	2.6433863e-05
127	0x38d2de6f	0.00010055012
128	0x37eb4dd8	2.8050432e-05
129	0x3dcfd63b	0.10148283
130	0x388b868a	6.653096e-05
131	0xbd4d38ca	-0.050102986
132	0xbdbad297	-0.09122198
133	0xb80bfdc2	-3.3376513e-05
134	0xbd3a6815	-0.045509417
135	0x3ce0e716	0.02745394
136	0x38736399	5.8028472e-05
137	0xb83547f1	-4.3220763e-05
138	0x398b110f	0.00026524856
139	0xbcfb5641	-0.030680778
140	0xbd0cdfb9	-0.034393046
141	0x3759c7c7	1.2980722e-05
142	0x39479a94	0.00019035704
143	0xbd94c6d7	-0.07264488
144	0xbccd7170	-0.025078505
145	0x3d76346d	0.06010859
146	0x3da8aa52	0.08235611
147	0xbd432ec0	-0.047652006
148	0x3858bc24	5.1673633e-05
149	0x3da73b13	0.081655644
150	0x3d5a79f4	0.05333896
151	0x38bc5eb4	8.9821784e-05
152	0xb847227c	-4.7477413e-05
153	0x3de2b332	0.11069335
154	0xbda71776	-0.08158772
155	0x3d08024b	0.03320531
156	0x3d0970c1	0.033554796
157	0xbdca98f4	-0.09892455
158	0x3a0dde3d	0.0005411839
159	0x3671a573	3.6008103e-06
160	0x3db0720e	0.08615504
161	0xbdac494d	-0.084124185
162	0x391dc103	0.00015044589
163	0x3d97c901	0.07411385
164	0xbd1db38a	-0.0385013
165	0xbd5a38a5	-0.053276677
166	0xbdafe00a	-0.08587654
167	0x3d3f3a18	0.046686262
168	0x3dbe90b7	0.09304946
169	0x39e040e6	0.00042772962
170	0xbcbd37bf	-0.02309787
171	0x3caeea25	0.021351883
172	0x37e6ebdc	2.7527967e-05
173	0xbd2b6205	-0.041841526
174	0xb8b5397d	-8.6414606e-05
175	0xb7cf1a13	-2.4688465e-05
176	0xbd3d40d2	-0.046204396
177	0xbcab48b5	-0.020908693
178	0xbcd24195	-0.025666038
179	0x3b28925b	0.0025722
180	0x3d8a845a	0.06763525
181	0x3c28449d	0.010270265
182	0xbcf78e4e	-0.030219223
183	0xbd87a89e	-0.06623958
184	0x3816cf30	3.5955745e-05
185	0x37ea5e10	2.7938775e-05
186	0xbb634cad	-0.0034683153
187	0x3c65af7a	0.014018888
188	0xb8a04be0	-7.643527e-05
189	0xb8ebf0d0	-0.00011250528
190	0x38fd03dc	0.00012064699
191	0xb6b16004	-5.2861888e-06
192	0x38ecdd0c	0.0001129453
193	0x3d5549da	0.052072383
194	0xb8e8bfb6	-0.00011098331
195	0x3db63f5b	0.08898803
196	0x3bd1d682	0.006403745
197	0xb907b6bf	-0.00012942681
198	0x3c315748	0.010824032
199	0xbd99954f	-0.074991815
200	0x36e6c3b5	6.8773174e-06
201	0xb9b21170	-0.00033963798
202	0x3fbbcd8b	1.4672102
203	0x3a213d71	0.0006150818
204	0xbda74fcc	-0.08169517
205	0x389c5c12	7.455809e-05
206	0xb82d1a77	-4.127106e-05
207	0xbd6b0d66	-0.057385825
208	0x3d4668a0	0.048439622
209	0xbc9a9d56	-0.018873852
210	0xbce45c73	-0.027876114
211	0x3d31ce50	0.043409646
212	0x3d4fdff9	0.050750706
213	0xbbadebe2	-0.0053076604
214	0x3d82c7ae	0.06385742
215	0xb91dee5e	-0.00015061485
216	0x386a9dbe	5.5936856e-05
217	0x3d21e6fb	0.03952692
218	0x3d8d2271	0.06891335
219	0x3d28a355	0.04117139
220	0xbdae0765	-0.08497504
221	0xbda706da	-0.08155604
222	0x3f5563f6	0.83355653
223	0x38afea23	8.3882616e-05
224	0x3bd4039e	0.0064701578
225	0x3d6b3b92	0.057429858
226	0x379de307	1.8821576e-05
227	0x3d65282c	0.055946514
228	0x3d846ac5	0.06465677
229	0xbc0362a0	-0.0080191195
230	0xbcf7ca8b	-0.030247947
231	0xbd52c560	-0.051457763
232	0x3d8def01	0.06930352
233	0x3f965f4b	1.1747831
234	0x3d50c8b6	0.050972663
235	0xbc1a4e82	-0.009418132
236	0x38781723	5.9149355e-05
237	0xbdedc5b7	-0.11609977
238	0x3f97d939	1.1863166
239	0x377c23a9	1.5028673e-05
240	0x3d4d09e3	0.050058257
241	0x3d0e90b1	0.034805957
242	0x3dc2db8a	0.0951453
243	0x3c456f65	0.012050484
244	0x3bd2d8d2	0.0064345384
245	0x3de38fc8	0.111114085
246	0x3c930a04	0.017949112
247	0xbd6be7f7	-0.057594266
248	0xb91c10bf	-0.00014883558
249	0xb91e42d2	-0.00015092947
250	0x3dee4ad6	0.116353676
251	0x3d1f2f8a	0.038863696
252	0x3870de6c	5.7427605e-05
253	0xb93de433	-0.00018109455
254	0x38ebe79e	0.00011248815
255	0xb8ea7db7	-0.00011181406

fc3.bias f4 [5]
0	0xbec0c159	-0.37647513
1	0xbec0c3dc	-0.3764943
2	0xbec0aabc	-0.3763026
3	0xbec0c4ba	-0.3765009
4	0xbec0d723	-0.37664136
