model_weights/60epochsConvNet_1_0_0.pth (torch_old, 105482 bytes, 10 tensors)

conv1.weight f4 [10, 5, 4]
0.037908368 0.07355531 0.03265679 0.09200472 0.025641492 -0.07450508 0.03812496 0.051916618
0.068649724 -0.04643479 0.056693815 0.005410769 0.5220892 -0.044705063 -0.46731025 -0.18453246
0.3793946 0.06336154 0.32703465 0.36450046 -0.08750992 0.10866909 -0.023934899 0.032464154
-0.07400932 -0.09826738 -0.083248004 0.09137107 0.099806085 0.0012916727 -0.1271669 0.13602968
0.40987054 -0.38514632 -0.3118934 -0.17008942 0.3474382 -0.16837072 -0.68614846 0.008066519
-0.21031077 -0.072713315 -0.21309781 -0.03245156 -0.19186625 -0.02099608 -0.06344476 -0.10124217
0.1865303 -0.028650975 0.020913577 -0.05120119 -0.33954942 0.358687 -0.38014492 -0.68707895
-0.06880459 0.680426 -0.8435374 0.03540546 -0.15269807 0.029796815 0.19728749 0.07699228
0.055133358 -0.2301862 -0.030531432 0.022745369 0.094456054 -0.14501463 0.091451004 0.06897362
-0.116968304 -0.5778517 -0.23468198 0.8983407 -0.3522188 -0.35019806 -0.6218931 0.26481628
0.115290076 -0.09108289 -0.18884388 -0.14553888 -0.026225043 -0.020268813 0.013972343 0.06729637
-0.003941896 0.07889288 -0.020592846 -0.11944538 -0.10541818 -0.19625157 -0.06879162 0.4311898
-0.0045945793 0.19892545 0.011165206 0.44363979 -0.06561925 0.09801636 0.17590697 -0.20132266
0.11377581 -0.07148118 0.13903189 0.0721835 -0.021909343 0.09848575 0.16121407 0.16534218
0.309053 -0.084821746 -0.1626161 -0.14641461 0.32365245 -0.17450684 -0.35124132 -0.34887367
0.056506373 -0.017418468 0.10113524 0.12256792 -0.15875551 -0.14272477 0.07035648 -0.19687483
-0.009664804 -0.08204083 0.08056212 0.028299704 0.1239455 -0.29362014 -0.017257804 -0.13723405
-0.13107055 0.23368724 -0.44029614 0.15630057 0.020106144 -0.0641489 0.14330082 0.09596249
0.00010168612 -0.06907834 -0.0861797 0.03266935 0.0066616205 0.058789276 0.0056293053 0.05022324
-0.102944955 0.22095796 0.20657481 0.34572148 -0.08963568 0.43517026 0.42071787 -0.43777955
0.19440086 0.13379578 0.018718597 -0.20288831 0.13791934 0.08027689 0.1299784 -0.08604783
-0.05241118 0.19860524 -0.016448554 -0.15476924 -0.15836217 0.61470836 -0.38004997 -0.70174533
0.034473553 0.5464473 -0.011654362 -0.37268734 -0.19270258 0.09896979 0.11838743 -0.03735636
0.03532691 0.003989591 -0.05408153 -0.08076974 -0.10680464 -0.008957831 -0.17066135 -0.05785828
0.02943986 -0.28491098 0.14815788 -0.32596326 -0.00045200245 -0.7022937 -0.3166363 0.57684046
00000000: ce45 1b3d 2ba4 963d 20c3 053d f86c bc3d
00000010: 1b0e d23c 1f96 98bd eb28 1c3d 85a6 543d
00000020: 3a98 8c3d 6832 3ebd c637 683d d24c b13b
00000030: a3a7 053f a81c 37bd 4a43 efbe 14f6 3cbe
00000040: 0240 c23e b2c3 813d 1671 a73e ce9f ba3e
00000050: 6738 b3bd e68d de3d 1f13 c4bc 22f9 043d
00000060: 3392 97bd 6840 c9bd ee7d aabd c120 bb3d
00000070: 2267 cc3d 584d a93a 0a38 02be 5d4b 0b3e
00000080: 8dda d13e e631 c5be 7eb0 9fbe ec2b 2ebe
00000090: 6be3 b13e 6069 2cbe 6da7 2fbf 6f29 043c
000000a0: b55b 57be b8ea 94bd 5036 5abe edeb 04bd
000000b0: 9678 44be f9ff abbc 54ef 81bd 0e58 cfbd
000000c0: cd01 3f3e 73b5 eabc f352 ab3c 57b8 51bd
000000d0: 6cd9 adbe d3a5 b73e 5ba2 c2be 68e4 2fbf
000000e0: 6ce9 8cbd 6630 2e3f 11f2 57bf 5105 113d
000000f0: e25c 1cbe 7318 f43c bb05 4a3e 21ae 9d3d
00000100: 84d3 613d eeb5 6bbe 0e1d fabc 7f54 ba3c
00000110: 2d72 c13d b77e 14be aa4a bb3d 0b42 8d3d
00000120: 148d efbd 17ee 13bf 7950 70be a8f9 653f
00000130: 0656 b4be 294d b3be 6334 1fbf 0096 873e
00000140: 341d ec3d ab89 babd 4a60 41be 2508 15be
00000150: e7d5 d6bc c80a a6bc 41ec 643c aed2 893d
00000160: 052b 81bb 9792 a13d 54b2 a8bc c89f f4bd
00000170: 7de5 d7bd 2cf6 48be 9fe2 8cbd e9c4 dc3e
00000180: 208e 96bb 1db3 4b3e 45ee 363c c124 e33e
00000190: 6363 86bd cdbc c83d f520 343e 8727 4ebe
000001a0: 4b03 e93d ba64 92bd 605e 0e3e f1d4 933d
000001b0: 397b b3bc e6b2 c93d 4d15 253e 764f 293e
000001c0: 323c 9e3e 06b7 adbd d684 26be b6ed 15be
000001d0: c6b5 a53e ecb1 32be e7d5 b3be 929f b2be
000001e0: 3a73 673d 2db1 8ebc fe1f cf3d e404 fb3d
000001f0: ce90 22be 7126 12be 0f17 903d 8e99 49be
00000200: 2059 1ebc 0605 a8bd c1fd a43d c8d4 e73c
00000210: 23d7 fd3d 6155 96be 3d60 8dbc 1587 0cbe
00000220: 5c37 06be b54b 6f3e 7f6e e1be 420d 203e
00000230: a4b5 a43c 8060 83bd 73bd 123e fb87 c43d
00000240: 5240 d538 f278 8dbd fc7e b0bd 4cd0 053d
00000250: b949 da3b 06cd 703d 0976 b83b e2b6 4d3d
00000260: ced4 d2bd ce42 623e 5988 533e 6802 b13e
00000270: e992 b7bd a3ce de3e 5568 d73e a424 e0be
00000280: 0511 473e c301 093e be57 993c f4c1 4fbe
00000290: ba3a 0d3e 3668 a43d 0f19 053e d839 b0bd
000002a0: 1bad 56bd 2c5f 4b3e 1ebf 86bc d47b 1ebe
000002b0: b129 22be 875d 1d3f e995 c2be 95a5 33bf
000002c0: 2434 0d3d f8e3 0b3f f0f1 3ebc e0d0 bebe
000002d0: d353 45be acb0 ca3d 1c75 f23d fc02 19bd
000002e0: f3b2 103d 1dbb 823b 9884 5dbd 9b6a a5bd
000002f0: 64bc dabd dec3 12bc d9c1 2ebe cefc 6cbd
00000300: dc2b f13c dadf 91be b3b6 173e a8e4 a6be
00000310: befa ecb9 85c9 33bf 271e a2be d1ab 133f

conv1.bias f4 [10]
-0.10698913 0.21355902 0.14222293 0.009427654 0.14035538 -0.124363646 0.058180813 0.0044060135
-0.13972642 0.04287314
00000000: 1e1d dbbd 37af 5a3e e3a2 113e 7276 1a3c
00000010: 52b9 0f3e 5eb2 febd 014f 6e3d 5260 903b
00000020: 7114 0fbe bf9b 2f3d

conv2.weight f4 [10, 10, 4]
0.024342688 0.19329165 -0.21150914 -0.07163958 -0.033198487 -0.04097026 -0.15100963 -0.17471766
0.0687282 -0.15433705 0.06281583 0.33586758 0.20155779 -0.080020696 0.15239207 0.21789382
0.20506516 -0.2852209 0.27653635 -0.1711679 0.0014985614 -0.11366669 0.1524157 0.04856158
-0.04481171 0.121286504 0.18950252 0.20472747 -0.12261356 0.07704901 0.20469013 0.20887022
-0.045735873 -0.19791661 -0.23388283 0.12568957 -0.11902964 0.08676895 -0.25109452 -0.000289912
0.108561315 -0.1374907 -0.08040782 0.36170906 -0.11282467 -0.045957588 -0.1429602 -0.10027125
-0.11312377 -0.15523948 -0.22101209 -0.12688531 0.057827823 0.10053833 0.0022397302 -0.10366393
0.11592017 0.21128611 0.030277664 0.13770355 0.049243044 -0.08378955 -0.056480687 0.060818303
-0.048494436 -0.102592394 0.010017019 0.09433461 -0.037055526 -0.070804395 0.037528854 -0.1629886
0.045826316 -0.094765015 0.014474481 -0.11527037 0.17215124 0.057791475 0.06430692 -0.050359555
-0.14430365 0.19697191 0.069857076 -0.2895433 0.040885467 -0.046630863 0.08505746 0.102061294
-0.03838157 0.3354853 0.06388929 -0.25669393 -0.17832142 -0.13970974 0.19760372 0.35067213
0.017941685 0.16780238 0.022489866 -0.24243985 0.13032487 0.03465063 0.21180753 0.023877874
-0.0078007043 0.027446652 0.10590574 -0.043613296 0.050255954 -0.16666885 0.19494951 0.11763522
0.3815116 0.2883848 -0.22661309 -0.13972278 -0.15300542 -0.25225547 0.071744815 0.28360215
0.063535996 -0.24982575 -0.018976817 0.3120743 0.22080153 -0.19803157 -0.27356833 0.14897884
-0.021941638 -0.13387321 0.22274193 0.21326575 0.12692642 0.14489672 -0.025474185 0.0924043
0.122793734 0.318945 -0.06705463 0.15635031 0.23268966 -0.0533961 0.33093977 0.024712782
0.09673939 -0.13664998 0.046766695 0.16745576 0.026012314 0.041591793 0.10946588 0.09239574
-0.39481655 -0.01503082 0.013152681 0.212922 0.011636908 0.2429387 -0.032023918 0.080568954
-0.383044 0.085020736 0.24485624 -0.11301011 0.015560477 0.48683035 -0.17122011 -0.52834415
-0.25770587 0.60707784 0.5227252 -0.06625861 0.1878862 -0.5532581 -0.59422225 -0.0800541
-0.057325657 -0.045548856 0.2878765 0.22020794 -0.10240138 -0.028428046 -0.079186864 -0.11106702
0.2601364 -0.08179815 0.09915096 0.1157881 0.1726754 0.0380051 -0.3261375 -0.0457214
-0.1233613 0.4971831 0.22276108 -0.40991363 0.24342902 -0.21394946 -0.26442116 -0.2598641
0.3612894 0.12470702 0.024203185 0.18555611 0.29113397 -0.093496494 0.2365358 -0.0710014
0.10435701 0.37017423 0.23356077 0.07498953 0.063354164 -0.18971698 -0.0009108803 0.12145878
-0.026906867 -0.15602908 0.1920663 -0.081606984 0.3208838 0.01976304 -0.13092013 -0.050931524
-0.054668162 0.08920942 -0.020489464 0.12171691 -0.015203751 -0.124689706 0.047144648 0.040698413
0.063143335 0.10782731 -0.18024024 -0.2281399 -0.04719691 0.1704555 0.21541835 -0.0007505339
0.114645645 -0.023562917 0.0518287 0.3033406 0.027475944 -0.07323807 0.0013541862 0.160369
-0.046702016 0.09660236 0.3361807 0.043018125 0.13072239 0.0693808 -0.0866802 0.036752425
00000000: 516a c73c 3fee 453e da95 58be c6b7 92bd
00000010: 23fb 07bd 6ed0 27bd 45a2 1abe 30e9 32be
00000020: 5fc1 8c3d 880a 1ebe 96a5 803d d6f6 ab3e
00000030: 2a65 4e3e e4e1 a3bd ab0c 1c3e 8f1f 5f3e
00000040: 9afc 513e 7908 92be 2c96 8d3e a346 2fbe
00000050: 606b c43a 15ca e8bd dc12 1c3e 82e8 463d
00000060: 7c8c 37bd 0f65 f83d f30c 423e 14a4 513e
00000070: d11c fbbd dfcb 9d3d 4a9a 513e 13e2 553e
00000080: 8a55 3bbd a7aa 4abe fb7e 6fbe c4b4 003e
00000090: d0c5 f3bd ebb3 b13d 768f 80be 54ff 97b9
000000a0: 6555 de3d 5dca 0cbe dbac a4bd ee31 b93e
000000b0: 9f10 e7bd 063e 3cbd 2964 12be 035b cdbd
000000c0: 6fad e7bd 19f7 1ebe fe50 62be 39ee 01be
000000d0: dedc 6c3d 0ae7 cd3d 70c8 123b c14d d4bd
000000e0: 8e67 ed3d 635b 583e dd08 f83c 2902 0d3e
000000f0: 13b3 493d db99 abbd 4b58 67bd 9d1c 793d
00000100: 1aa2 46bd f61b d2bd 6c1e 243c 8132 c13d
00000110: 89c7 17bd e501 91bd dbb7 193d 7ce6 26be
00000120: 60b4 3b3d 2914 c2bd 6026 6d3c df12 ecbd
00000130: 6a48 303e c1b6 6c3d 59b3 833d d245 4ebd
00000140: 56c4 13be 01b3 493e 3a11 8f3d 053f 94be
00000150: 8577 273d 0100 3fbd 9b32 ae3d 8305 d13d
00000160: fe35 1dbd bbc4 ab3e 63d8 823d 636d 83be
00000170: e499 36be 1210 0fbe a158 4a3e 4c8b b33e
00000180: 71fa 923c 63d4 2b3e ab3c b83c 2742 78be
00000190: e273 053e d2ed 0d3d 13e4 583e 889b c33c
000001a0: 0d9d ffbb cdd7 e03c 1ce5 d83d dba3 32bd
000001b0: 30d9 4d3d 3dab 2abe d8a0 473e bcea f03d
000001c0: 7d55 c33e 2ca7 933e 430d 68be 7d13 0fbe
000001d0: 74ad 1cbe a127 81be f2ee 923d 4d34 913e
000001e0: 291f 823d 52d2 7fbe 4575 9bbc 34c8 9f3e
000001f0: cc19 623e cac8 4abe 2611 8cbe e98d 183e
00000200: f3be b3bc 0f16 09be 7616 643e 5662 5a3e
00000210: 00f9 013e ce5f 143e 3daf d0bc 773e bd3d
00000220: 487b fb3d c24c a33e f053 89bd 4c1a 203e
00000230: 3346 6e3e deb5 5abd f070 a93e 7672 ca3c
00000240: 4d1f c63d f9ed 0bbe 6f8e 3f3d 8679 2b3e
00000250: c717 d53c 285c 2a3d a62f e03d fa39 bd3d
00000260: 6525 cabe d443 76bc 587e 573c 3a08 5a3e
00000270: bba8 3e3c ecc4 783e 832b 03bd 5601 a53d
00000280: 581e c4be 5a1f ae3d 98bb 7a3e d871 e7bd
00000290: 5ff1 7e3c d441 f93e 5354 2fbe 9041 07bf
000002a0: 06f2 83be 7469 1b3f 52d1 053f 98b2 87bd
000002b0: 3d65 403e 53a2 0dbf f31e 18bf 67f3 a3bd
000002c0: 4fce 6abd 7091 3abd 8c64 933e 317e 613e
000002d0: d1b7 d1bd efe1 e8bc b92c a2bd 1b77 e3bd
000002e0: 9930 853e ca85 a7bd a90f cb3d 5022 ed3d
000002f0: d2d1 303e 3cab 1b3d 7ffb a6be 5d46 3bbd
00000300: d9a4 fcbd c98e fe3e 7b1b 643e 33e0 d1be
00000310: 7545 793e 9115 5bbe 3662 87be e80c 85be
00000320: edfa b83e 6566 ff3d c245 c63c 6c02 3e3e
00000330: 830f 953e 177b bfbd 7136 723e 2f69 91bd
00000340: 21b9 d53d 7a87 bd3e 8e2a 6f3e 1c94 993d
00000350: d4bf 813d 2b45 42be 24c8 6eba 61bf f83d
00000360: ca6b dcbc 16c6 1fbe 07ad 443e 9021 a7bd
00000370: e24a a43e 19e6 a13c ed0f 06be 939d 50bd
00000380: b9eb 5fbd 6eb3 b63d 85d9 a7bc b746 f93d
00000390: 2719 79bc 515d ffbd bf1a 413d 61b3 263d
000003a0: 4b51 813d 91d4 dc3d e690 38be 829d 69be
000003b0: 8c51 41bd e38b 2e3e a196 5c3e 7abf 44ba
000003c0: 56cb ea3d 0507 c1bc 554a 543d 764f 9b3e
000003d0: 3b15 e13c d7fd 95bd f37e b13a c537 243e
000003e0: 9d4a 3fbd 75d7 c53d e01f ac3e c633 303d
000003f0: 17dc 053e 8517 8e3d 6485 b1bd b689 163d

conv2.bias f4 [10]
-0.08337981 -0.1602522 0.10387725 0.2088505 -0.053880423 -0.13515645 -0.04071937 -0.05883316
-0.17155902 -0.13459149
00000000: 09c3 aabd 2719 24be 98bd d43d e8dc 553e
00000010: b8b1 5cbd 7466 0abe 5bc9 26bd 0afb 70bd
00000020: 2bad 2fbe 5ad2 09be

fc1.weight f4 [128, 130]
-0.008302677 -0.08611838 0.045598388 0.067441024 0.054378234 -0.044364095 -0.020854102 -0.07502836
-0.008159898 -0.025859129 -0.060435306 -0.02857987 0.0324228 0.0798192 -0.010068668 0.00394208
0.029108 0.051855348 -0.05064201 0.0196809 0.015794542 -0.07424397 -0.0755627 0.05563952
0.082022935 -0.07428345 0.045903653 -0.0034432109 -0.05194882 -0.026577726 0.036577314 -0.07216336
-0.09049786 -0.08604066 -0.06548782 0.005618905 -0.06461298 -0.042553812 0.02186914 -0.00026398612
-0.053850386 0.05561141 -0.09366365 0.043062024 -0.03219543 0.017317982 -0.08386494 0.04153093
0.017274799 -0.06375428 0.035939593 0.07189857 0.021267703 -0.053260736 -0.05141304 -0.035231456
-0.038715553 -0.014348304 0.025102671 -0.076295726 -0.024286268 0.008259096 -0.00086656783 -0.025621828
-0.0031925868 0.019583646 -0.090960294 -0.023026384 0.0012694782 0.028282868 0.05998673 -0.058258466
-0.02080314 0.00095573725 0.01707203 0.0124358265 -0.06459202 -0.094291866 0.027256366 -0.017769981
-0.08899747 0.013483333 -0.091359325 -0.05596829 0.046148606 0.06621324 -0.057945013 -0.064664915
0.04721283 0.024610937 0.030780816 0.04632557 0.061563984 0.029276008 -0.078286774 -0.00845561
0.009575446 0.02001795 0.0037624603 -0.066798754 0.06972436 -0.027695999 0.016787663 -0.06864244
0.0114596905 -0.042593118 0.05015498 -0.051668134 0.051486757 -0.03607233 0.039301645 -0.0112566305
0.06477939 0.05546719 0.061609656 0.044761553 -0.06903146 -0.015516686 0.039786212 -0.027198337
-0.04491057 -0.048552964 -0.07475565 0.0341435 -0.08349774 -0.04717366 -0.072329774 0.08170437
0.029497696 0.07725641 0.073465995 -0.021425901 0.03413838 -0.030131295 0.04822618 0.06300062
-0.0196623 0.059087638 7.083231e-05 0.009110917 -0.04593365 0.07177442 0.054851692 0.016400915
-0.05077057 -0.026354011 -0.0133719975 -0.05463849 -0.07904488 -0.06314767 0.0894639 0.06513154
-0.06612383 -0.024610829 0.033499625 -0.00041111946 -0.07284495 -0.02170925 0.06213494 0.07639584
0.060034737 -0.08705746 0.006453462 -0.0011892834 0.04226016 -0.06702329 0.0046901456 0.020085393
-0.073664315 -0.073727064 0.049241178 0.09484677 0.015444735 -0.083458595 0.040378604 0.037653748
0.07370264 0.01362871 -0.0017759992 -0.06518145 0.0040163947 0.0019061101 -0.0022866451 0.009295675
-0.014354793 0.045288607 0.0065003512 0.07891174 -0.0019293923 -0.08736526 -0.018798906 0.09023906
-0.061901454 -0.03227636 -0.025546383 -0.008427143 0.017741406 0.03523988 0.049087238 -0.06779289
-0.038580824 0.04062502 0.023134807 -0.078441076 0.032207854 0.021313008 -0.066989586 0.04112118
-0.039519276 0.011783116 0.020549383 -0.04369386 -0.0025393157 0.06975785 -0.023248311 0.0033101114
0.008912781 -0.07231742 -0.013781031 -0.078374416 -0.07567907 0.040984213 -0.03261025 0.0078263655
-0.054702 0.039470416 -0.006355053 0.06588355 -0.052376725 0.017372236 0.027402699 0.07416285
-0.021982772 0.042959027 -0.05233169 0.02494476 -0.011310723 0.05287797 -0.03155107 -0.02829309
-0.0824126 -0.03264527 -0.0017668523 0.032521937 -0.082641065 -0.0027228247 -0.070206955 0.051225044
0.059965927 0.051628705 0.048840202 -0.0787941 -0.0035442754 0.077275306 0.057568394 0.0645883
00000000: f407 08bc d55e b0bd 60c5 3a3d 851e 8a3d
00000010: b6bb 5e3d 20b7 35bd 39d6 aabc 78a8 99bd
00000020: 18b1 05bc 86d6 d3bc 038b 77bd 5520 eabc
00000030: c5cd 043d 4078 a33d 0ef7 24bc 902c 813b
00000040: e773 ee3c 4666 543d ff6d 4fbd d739 a13c
00000050: 8e63 813c 390d 98bd 9ec0 9abd 44e6 633d
00000060: a4fb a73d ec21 98bd 7805 3c3d 7ea7 61bb
00000070: 49c8 54bd 88b9 d9bc 18d2 153d 62ca 93bd
00000080: f156 b9bd 1636 b0bd 7a1e 86bd cb1e b83b
00000090: cf53 84bd e84c 2ebd e926 b33c 9e67 8ab9
000000a0: 3992 5cbd cac8 633d bad2 bfbd ce61 303d
000000b0: 5bdf 03bd 71de 8d3c 62c1 abbd 561c 2a3d
000000c0: e183 8d3c 9b91 82bd 6535 133d 8f3f 933d
000000d0: 9b39 ae3c ee27 5abd 7b96 52bd dc4e 10bd
000000e0: 3394 1ebd 2615 6bbc 1ea4 cd3c ef40 9cbd
000000f0: fff3 c6bc 2951 073c 622a 63ba dee4 d1bc
00000100: b83a 51bb e26d a03c 6449 babd d4a1 bcbc
00000110: 9f64 a63a 79b1 e73c a5b4 753d 6ea0 6ebd
00000120: 596b aabc 718a 7a3a a4da 8b3c a3bf 4b3c
00000130: d248 84bd 181c c1bd be48 df3c 5a92 91bc
00000140: 4e44 b6bd 33e9 5c3c 991a bbbd 013f 65bd
00000150: 5206 3d3d cf9a 873d c057 6dbd 0a6f 84bd
00000160: 3e62 413d e09c c93c 0d28 fc3c e2bf 3d3d
00000170: 842a 7c3d 3dd4 ef3c d154 a0bd 6689 0abc
00000180: 55e2 1c3c affc a33c 9c93 763b c9cd 88bd
00000190: a5cb 8e3d b8e2 e2bc 4886 893c 6894 8cbd
000001a0: 6dc1 3b3c 1f76 2ebd 4f6f 4d3d f7a1 53bd
000001b0: c7e3 523d 94c0 13bd c3fa 203d bb6d 38bc
000001c0: 0fab 843d 9031 633d 685a 7c3d e457 373d
000001d0: 5e60 8dbd b339 7ebc def6 223d 0ccf debc
000001e0: 25f4 37bd 79df 46bd 7d19 99bd 0eda 0b3d
000001f0: dd00 abbd 2b39 41bd a221 94bd 9f54 a73d
00000200: 27a5 f13c 9c38 9e3d 5775 963d 5f85 afbc
00000210: b0d4 0b3d e8d5 f6bc d188 453d 7806 813d
00000220: d512 a1bc e105 723d cf8b 9438 f545 153c
00000230: ec24 3cbd 78fe 923d 2bac 603d 365b 863c
00000240: cdf4 4fbd 5ee4 d7bc 3916 5bbc 9ccc 5fbd
00000250: 48e2 a1bd 9153 81bd d938 b73d af63 853d
00000260: ee6b 87bd a69c c9bc e736 093d 858b d7b9
00000270: bc2f 95bd 99d7 b1bc 3581 7e3d 6c75 9c3d
00000280: fce6 753d 2e4b b2bd 9077 d33b bbe1 9bba
00000290: fd18 2d3d 8243 89bd cbaf 993b 1f8a a43c
000002a0: 51dd 96bd 37fe 96bd 1eb1 493d 063f c23d
000002b0: ea0b 7d3c 57ec aabd 0964 253d d13a 1a3d
000002c0: 69f1 963d f44a 5f3c a5c8 e8ba da7d 85bd
000002d0: f69b 833b 71d6 f93a 8adb 15bb e34c 183c
000002e0: 5e30 6bbc 8c80 393d e600 d53b 7a9c a13d
000002f0: aae3 fcba 8fec b2bd 2a00 9abc 42cf b83d
00000300: 618c 7dbd 3734 04bd a646 d1bc 0012 0abc
00000310: 6d56 913c b157 103d b30f 493d 00d7 8abd
00000320: ed06 1ebd 6c66 263d 3585 bd3c b7a5 a0bd
00000330: 62ec 033d 9e98 ae3c d631 89bd af6e 283d
00000340: f7de 21bd f80d 413c 2e57 a83c 55f8 32bd
00000350: a66a 26bb 34dd 8e3d 3e73 bebc 74ee 583b
00000360: ea06 123c 281b 94bd d5c9 61bc c482 a0bd
00000370: a1fd 9abd 10df 273d 5392 05bd 283a 003c
00000380: 340f 60bd bbab 213d 0c3e d0bb f4ed 863d
00000390: fa88 56bd 3850 8e3c a07b e03c b1e2 973d
000003a0: 3715 b4bc cef5 2f3d c159 56bd f458 cc3c
000003b0: 9c50 39bc 9296 583d b23b 01bd e9c6 e7bc
000003c0: f0c7 a8bd 0cb7 05bd ba95 e7ba b935 053d
000003d0: b83f a9bd 6b71 32bb aac8 8fbd 5ad1 513d
000003e0: d59e 753d 9f78 533d aa0c 483d cd5e a1bd
000003f0: 1347 68bb 8442 9e3d d6cc 6b3d df46 843d

fc1.bias f4 [128]
-0.035709135 0.07774825 -0.023940569 0.03669053 0.017729077 -0.07803002 6.0841463e-05 0.029582579
0.01848349 0.06468645 0.01695051 0.04601686 -0.08881996 0.067929775 0.05684448 0.030093472
0.018101338 -0.017656434 -0.032533266 0.0022582992 0.06574038 -0.05675615 -0.010447896 -0.06427295
0.025467562 0.05212987 -0.0020266082 0.07232174 0.028665451 0.04087323 -0.062318955 0.03770284
-0.040591683 -0.024358548 -0.06336107 0.015974514 -0.03468413 -0.082409635 -0.058082707 -0.005033451
0.09509796 0.07406678 -0.0023010438 0.022615599 0.07727977 -0.043901596 -0.08373426 -0.09099712
0.058799732 -0.0723334 -0.009422895 -0.049498353 0.01028051 0.053339496 -0.00900224 -0.06484679
-0.009336203 0.077082604 0.07848324 -0.06435515 -0.020525537 0.08292812 -0.066573665 0.029661814
-0.037580974 0.027499259 -0.037748784 -0.06906552 -0.09075989 0.02404384 0.07920558 0.043759678
0.09347395 -0.07012352 0.044848926 0.0050607873 -0.05634459 0.05541925 0.06785907 0.043520086
-0.036498662 -0.07996143 0.09350261 -0.021166615 -0.05498909 -0.036816858 0.041819267 -0.08049326
-0.058074366 0.08108784 -0.05986014 0.02190921 -0.08873088 -0.054797627 -0.067978494 0.10472625
0.00968977 0.011023425 -0.039388567 -0.0011801852 -0.06581003 -0.048667304 0.02140583 -0.062493097
0.041742302 0.009259548 0.06764908 0.0043204837 -0.08103724 -0.00611751 0.0042741527 -0.051449344
0.06377754 0.035281755 0.060094286 -0.06996519 -0.09856252 -0.02718975 0.09960909 -0.06146038
0.032950282 0.01943692 0.10038443 0.059853766 -0.06033262 -0.09846 -0.013041183 0.009938505
00000000: be43 12bd 793a 9f3d 031f c4bc cf48 163d
00000010: 923c 913c 34ce 9fbd 0630 7f38 2a57 f23c
00000020: b06a 973c 547a 843d ccdb 8a3c 2d7c 3c3d
00000030: 3de7 b5bd c41e 8b3d c2d5 683d 9686 f63c
00000040: 4249 943c 3aa4 90bc 9a41 05bd f9ff 133b
00000050: e4a2 863d 2379 68bd a72d 2bbc 89a1 83bd
00000060: 59a1 d03c 2186 553d d8d0 04bb 6c1d 943d
00000070: cfd3 ea3c b06a 273d 2942 7fbd 4b6e 1a3d
00000080: 7743 26bd 948b c7bc 73c3 81bd fcdc 823c
00000090: f210 0ebd 62c6 a8bd 22e8 6dbd a6ef a4bb
000000a0: b8c2 c23d 53b0 973d 1ccd 16bb 5944 b93c
000000b0: db44 9e3d 29d2 33bd de7c abbd b35c babd
000000c0: fdd7 703d 8923 94bd 7c62 1abc c9be 4abd
000000d0: 966f 283c 847a 5a3d 227e 13bc 65ce 84bd
000000e0: e0f6 18bc 7cdd 9d3d d2bb a03d a2cc 83bd
000000f0: 2c25 a8bc 38d6 a93d c657 88bd 55fd f23c
00000100: 82ee 19bd 2046 e13c 789e 1abd 3972 8dbd
00000110: 52e0 b9bd 96f7 c43c 8936 a23d 593d 333d
00000120: 456f bf3d ec9c 8fbd 82b3 373d f6d4 a53b
00000130: 96c9 66bd 4cff 623d b2f9 8a3d 1e42 323d
00000140: 9f7f 15bd d1c2 a3bd 4c7e bf3d 9c65 adbc
00000150: 3d3c 61bd 46cd 16bd ae4a 2b3d a6d9 a4bd
00000160: 63df 6dbd 6211 a63d e82f 75bd f27a b33c
00000170: 89b8 b5bd 7a73 60bd 4f38 8bbd b77a d63d
00000180: d7c1 1e3c 989b 343c e855 21bd 72b0 9aba
00000190: 69c7 86bd 5e57 47bd 475b af3c c3f8 7fbd
000001a0: faf9 2a3d 5cb5 173c 9a8b 8a3d d892 8d3b
000001b0: daf6 a5bd 6575 c8bb 310e 8c3b 8cbc 52bd
000001c0: cd9d 823d 9a83 103d 6d25 763d e949 8fbd
000001d0: 26db c9bd 0abd debc daff cb3d e1bd 7bbd
000001e0: e0f6 063d 2d3a 9f3c 5a96 cd3d 3929 753d
000001f0: 561f 77bd 65a5 c9bd b0aa 55bc 1cd5 223c

fc2.weight f4 [64, 128]
-0.059821844 0.06561777 0.0751561 -0.063570745 -0.07829034 -0.0076961443 -0.023569956 0.059088
0.014395176 -0.0816459 -0.06066382 0.032550182 -0.056563236 -0.06615884 0.032953955 -0.08382154
-0.039111044 0.04293078 -0.0347627 -0.007856606 0.0074656163 0.07001612 0.029507712 0.012213506
-0.07438677 -0.04867419 0.06629073 -0.008674201 0.0792152 0.056567576 0.01093547 -0.014825429
0.081153624 -0.010290676 -0.05879591 -0.03411961 0.07150509 -0.074992575 0.06910967 -0.005793483
0.06613806 0.027542144 -0.08509926 -0.033874664 0.07622636 -0.05718222 0.076326296 -0.06450419
0.052665923 -0.08025414 0.0344661 0.06883633 0.06260146 0.083284326 0.048853777 -0.06996064
-0.017887173 -0.04247925 -0.0066639693 -0.049607925 0.06803577 0.04431352 0.035848234 0.009694283
-0.018884111 -0.0016632153 0.008415329 -0.03961304 -0.06465254 0.005857699 0.03300462 -0.0742523
-0.081150785 -0.024368968 -0.008797238 -0.0032167989 -0.0628683 -0.04801353 -0.022159139 -0.07144403
-0.0845103 0.05792062 0.008051136 -0.004870529 -0.061665554 0.0750496 -0.079595216 0.00051264465
-0.0006116703 0.010971611 0.043580733 -0.026999693 -0.050272692 -0.00932499 0.012369835 0.061044756
0.07259811 -0.046304446 -0.07501284 0.08059328 -0.04020408 -0.09322523 0.033624947 -0.0048972648
0.008174569 0.024260787 0.021627452 -0.003995009 -0.024738222 0.051908184 -0.06657687 0.07770489
-0.08172435 0.08486872 0.04468996 0.04657153 0.03338385 -0.018484453 -0.07773394 0.06996485
0.039470606 -0.056513723 0.023604896 -0.068573534 0.058331646 0.03795556 0.07044944 0.08686905
0.06568567 0.013002853 -0.025351023 0.07339833 0.010749825 -0.08516604 -0.08444803 0.042009275
0.05317286 -0.046622824 -0.054835632 -0.065219074 -0.024189504 0.016836144 0.033917308 -0.034208838
0.0007240901 0.0795595 -0.042820428 -0.03330773 -0.09424623 0.0024510296 -0.0007048668 -0.014811707
-0.0044278274 -0.014126041 0.010888768 0.03647576 0.060253322 -0.00059797795 0.013303145 0.030888401
-0.07152158 -0.035065822 -0.0064029195 -0.052106064 0.08336439 0.0016128859 -0.0075613596 -0.016485237
-0.06625951 0.028131621 0.003105608 0.001964383 -0.056638274 -0.08059676 -0.05666208 -0.05006575
-0.0271878 0.013005702 0.04216791 0.053094123 0.012178326 -0.057875868 -0.004931977 0.021508131
-0.036740456 -0.012640547 0.026377892 0.048970077 -0.011064054 -0.043774262 0.06190118 0.07981878
0.012036164 0.07144589 -0.049949855 0.051154055 0.026480572 -0.007841475 0.04697932 0.0014122978
0.026406018 -0.0059387265 -0.0051231235 -0.08149409 0.051677715 0.04292316 0.070961036 0.08409374
-0.008453598 0.055471517 -0.07938482 0.039884787 0.011529986 0.049049508 0.03991596 -0.02545762
-0.07050756 -0.04468125 0.04376103 0.024040274 -0.014451806 0.034953974 0.064511485 0.066384256
0.016675996 0.054201942 0.026200479 -0.050681014 -0.077042304 0.015185715 -0.022049915 0.06494671
0.032397944 0.016289625 0.04300086 -0.030609649 0.011475767 0.03548629 -0.0067723016 0.0190553
-0.016500747 0.06734721 -0.06613678 0.04127891 -0.09342159 0.002539195 0.059790276 -0.0404803
0.02551896 -0.05951559 -0.055864688 0.01682879 0.03804412 0.048734386 -0.01599023 -0.01770638
00000000: c007 75bd 9c62 863d 71eb 993d 6131 82bd
00000010: b056 a0bd f02f fcbb c815 c1bc 4206 723d
00000020: bfd9 6b3c f735 a7bd a07a 78bd 5753 053d
00000030: daae 67bd 497e 87bd bafa 063d a1aa abbd
00000040: e732 20bd 30d8 2f3d 5563 0ebd feb8 00bc
00000050: 21a2 f43b 9d64 8f3d 28ba f13c 281b 483c
00000060: 1758 98bd 965e 47bd 6fc3 873d 3c1e 0ebc
00000070: 943b a23d 67b3 673d b02a 333c 5be6 72bc
00000080: df33 a63d 399a 28bc fbd3 70bd 01c1 0bbd
00000090: 4371 923d b595 99bd 5f89 8d3d 42d7 bdbb
000000a0: 6473 873d 10a0 e13c 8548 aebd 29c0 0abd
000000b0: 911c 9c3d e737 6abd f650 9c3d c61a 84bd
000000c0: 39b8 573d 485c a4bd 532c 0d3d 10fa 8c3d
000000d0: 3235 803d f990 aa3d e61a 483d 8647 8fbd
000000e0: 1f88 92bc b9fe 2dbd 6d5d dabb ae31 4bbd
000000f0: 5656 8b3d 1882 353d 99d5 123d c5d4 1e3c
00000100: dab2 9abc 3f00 daba 73e0 093c 4841 22bd
00000110: 8d68 84bd f1f1 bf3b da2f 073d 9711 98bd
00000120: 6232 a6bd 6ea1 c7bc 4a22 10bc eed0 52bb
00000130: 18c1 80bd d6a9 44bd 1587 b5bc 3f51 92bd
00000140: bc13 adbd 2c3e 6d3d e9e8 033c f598 9fbb
00000150: 0595 7cbd 9bb3 993d d102 a3bd 0063 063a
00000160: 8058 20ba 46c2 333c b681 323d 762e ddbc
00000170: bdea 4dbd d8c7 18bc d9aa 4a3c 110a 7a3d
00000180: 51ae 943d bba9 3dbd 55a0 99bd 170e a53d
00000190: 09ad 24bd dfec bebd 50ba 093d 3c79 a0bb
000001a0: a1ee 053c 8fbe c63c 0e2c b13c 91e8 82bb
000001b0: d0a7 cabc ad9d 543d 7459 88bd be23 9f3d
000001c0: 195f a7bd a7cf ad3d d20c 373d cac1 3e3d
000001d0: 81bd 083d b56c 97bc f932 9fbd bb49 8f3d
000001e0: eeab 213d ef7a 67bd 0e5f c13c 4870 8cbd
000001f0: 2aed 6e3d 4a77 1b3d cc47 903d 67e8 b13d
00000200: 3586 863d eb09 553c f3ac cfbc dd51 963d
00000210: 0920 303c 886b aebd 17f3 acbd eb11 2c3d
00000220: c9cb 593d 93f7 3ebd 549b 60bd 9491 85bd
00000230: 1129 c6bc f4eb 893c e0ec 0a3d 911e 0cbd
00000240: ddd0 3d3a 17f0 a23d 7964 2fbd b06d 08bd
00000250: 2b04 c1bd 74a1 203b cfc6 38ba cdac 72bc
00000260: 4f17 91bb e970 67bc ce66 323c 9b67 153d
00000270: 30cc 763d 9fc1 1cba 6ff5 593c ac09 fd3c
00000280: e879 92bd 2ea1 0fbd 95cf d1bb 2b6d 55bd
00000290: f3ba aa3d 7867 d33a 48c5 f7bb 0c0c 87bc
000002a0: 11b3 87bd 4974 e63c 7587 4b3b e1bc 003b
000002b0: 89fd 67bd ea0f a5bd 7f16 68bd be11 4dbd
000002c0: f3b8 debc de15 553c 42b8 2c3d 3979 593d
000002d0: 9a87 473c 3f0f 6dbd 6c9c a1bb d231 b03c
000002e0: 297d 16bd 4c1a 4fbc 7316 d83c d994 483d
000002f0: 0246 35bc a44c 33bd 178c 7d3d 0778 a33d
00000300: 5533 453c 3952 923d 3898 4cbd ea86 513d
00000310: c9ed d83c 8879 00bc 636d 403d da1c b93a
00000320: 6f51 d83c a699 c2bb e0df a7bb 60e6 a6bd
00000330: 03ac 533d 32d0 2f3d 0554 913d 5739 ac3d
00000340: f680 0abc 1a36 633d 8294 a2bd 3b5e 233d
00000350: 44e8 3c3c 23e8 483d eb7e 233d 808c d0bc
00000360: 4566 90bd b003 37bd c43e 333d 1cf0 c43c
00000370: 45c7 6cbc e62b 0f3d 991e 843d 78f4 873d
00000380: 199c 883c db02 5e3d 63a2 d63c e596 4fbd
00000390: 5bc8 9dbd 81cd 783c 06a2 b4bc c802 853d
000003a0: b5b3 043d d271 853c ab21 303d 16c1 fabc
000003b0: db04 3c3c 125a 113d 2fea ddbb dc19 9c3c
000003c0: 932c 87bc 56ed 893d b872 87bd 1314 293d
000003d0: d253 bfbd 9f68 263b a6e6 743d acce 25bd
000003e0: 230d d13c 9fc6 73bd 5fd2 64bd 88dc 893c
000003f0: 27d4 1b3d b59d 473d f1fd 82bc f80c 91bc

fc2.bias f4 [64]
-0.09972519 -0.12311694 0.04718601 0.049557973 -0.06638316 -0.04615143 0.016410938 0.11742483
-0.09945249 0.11617423 -0.036278423 -0.033403177 -0.10615724 -0.06292258 0.13650458 0.007211501
0.08079638 0.03721526 -0.083824605 0.2432581 0.0551068 0.04725118 0.01533684 -0.034842025
0.03465634 -0.08499629 -0.099500984 -0.07334909 0.046238378 0.0786841 0.034211252 -0.10987649
-0.052227966 0.023059148 -0.0523639 -0.0030975696 -0.016638462 0.0560724 -0.104010694 0.028879922
0.013914693 0.015876325 0.03334141 -0.01050065 -0.019213019 0.04414919 0.06162427 0.13780634
0.10898326 -0.007427891 -0.049062595 -0.025977155 0.09823106 -0.062582724 0.014414444 0.20543176
0.0054239538 0.05235372 -0.09083535 -0.03280005 -0.08146575 -0.083975844 0.055417955 0.0069918246
00000000: b83c ccbd bc24 fcbd 1e46 413d 4dfd 4a3d
00000010: e5f3 87bd 4809 3dbd 3b70 863c 6e7c f03d
00000020: bfad cbbd c1ec ed3d af98 14bd c5d1 08bd
00000030: f868 d9bd 8edd 80bd dbc7 0b3e 744e ec3b
00000040: 9378 a53d 076f 183d 3cac abbd a718 793e
00000050: abb7 613d 748a 413d 5f47 7b3c 83b6 0ebd
00000060: cef3 0d3d 8912 aebd 2cc7 cbbd 0c38 96bd
00000070: 7464 3d3d 2125 a13d 1921 0c3d ed06 e1bd
00000080: feec 55bd 8ae6 bc3c 877b 56bd 9800 4bbb
00000090: 624d 88bc 2cac 653d 8f03 d5bd 9695 ec3c
000000a0: 74fa 633c 110f 823c 0191 083d eb0a 2cbc
000000b0: 9f64 9dbc c8d5 343d bb69 7c3d 1b1d 0d3e
000000c0: 9e32 df3d aa65 f3bb dcf5 48bd 0bce d4bc
000000d0: 5e2d c93d 5f2b 80bd 8f2a 6c3c b45c 523e
000000e0: 6cbb b13b db70 563d e207 babd 5859 06bd
000000f0: 84d7 a6bd 87fb abbd f0fd 623d ad1b e53b

fc3.weight f4 [5, 64]
-0.054087445 2.1906849e-06 -0.00010578888 0.11869822 -0.084486134 7.952042e-05 -0.10207328 5.0966533e-05
0.02698255 -5.4599564e-05 0.000106480766 0.05670113 -1.7495406e-05 -0.051766932 1.3158931e-05 2.4906485e-05
8.7975553e-07 0.10162089 0.0776149 -0.00014234774 8.224643e-05 0.00011249491 -0.10869561 -0.064140335
-2.6495783e-05 -0.00013082944 3.7937614e-05 0.08453179 0.00011481382 -4.719379e-05 -6.3125284e-05 0.00019075887
-0.017833259 0.06885678 0.0996264 0.03224627 -9.523536e-06 -0.00017783929 0.06266779 -1.4838134e-05
4.7789596e-05 -0.00010604583 0.11448547 -0.00011886974 0.00014647293 -0.00017845588 -2.0249923e-05 -5.4015276e-05
-4.7329977e-05 -0.00024140133 0.00014982308 -0.11662006 -0.00012812795 0.00015705693 0.038041312 -0.0003253884
-0.00011565522 -8.332953e-05 -0.10653985 -0.070808634 0.06697266 0.05000545 -1.4992611e-05 -3.331265e-05
0.028628735 0.00022724032 -0.0002897517 -0.0978147 0.080727704 -1.6909368e-06 -0.111500695 -0.00014591351
0.05465047 0.00015104146 0.00040313223 -0.048260152 0.00023126193 -0.05229586 -0.00038691776 -0.00015516226
-0.00010007852 0.058813702 0.034265816 -0.0012108348 -6.284712e-05 0.00045387735 0.040409014 0.025002562
0.00014570325 7.676131e-05 8.828252e-05 0.094953015 0.00026596565 0.0001971436 -0.000395485 0.0007853951
0.04068582 0.009602597 -0.027109679 0.08327623 7.2572425e-06 0.00011029134 0.07919976 -0.00031132158
0.00015121035 -0.00035413262 0.11432112 -7.6892706e-05 0.00026395 -0.00019038146 -0.000111764384 3.6103e-05
0.000116183604 -3.6968922e-05 8.811786e-05 -0.059200447 -0.00017549691 0.0006944727 0.06914311 -0.001055115
-0.00037324268 -0.00017853701 -0.09455068 0.10290569 0.110060446 -0.03703873 0.00012757888 0.00032038958
-0.07039153 0.0006285514 -0.0008144624 0.087408945 -0.08897391 0.0003195322 -0.11366372 -8.687592e-05
-0.03949573 6.921049e-05 0.001098275 0.02730543 0.00044246743 -0.017353645 -0.0007061357 -0.00088427006
-0.0005416642 -0.015795501 0.10165592 -0.0048692687 8.186313e-05 0.0017852739 -0.05782054 -0.11640577
0.0003433377 0.00031965406 0.00086209126 -0.10425594 0.0014561391 -8.124784e-05 -0.0027733927 0.0029209987
-0.0097089885 0.04747669 0.049327206 -0.004450478 -0.00013481066 0.00019279036 0.07214489 -0.00047108726
-6.843416e-05 -0.0018969964 0.009944307 0.00032828626 0.0019817064 -0.0019077575 -0.0003709987 -0.0005663506
0.0002355605 -0.00014633292 -0.00031090464 0.12270044 -0.001025807 0.0031014357 -0.049355417 -0.0062613827
-0.0014920512 -0.001683237 0.01903658 -0.05775287 -0.021341247 0.087578826 3.43772e-05 0.0006535215
0.10345508 0.039510757 1.3133022 0.067143254 -0.1015747 -0.00088610855 -0.116364285 -0.0006524202
0.019524487 0.78458554 0.060878437 0.062350594 0.07156546 -0.10150496 -0.061995372 -0.018568225
0.053873427 0.092284545 0.08734674 -0.09507389 0.000700106 0.39090723 0.07972728 -0.103241846
0.0020320192 0.08076367 -0.020702193 0.07171429 -0.04653179 -0.04680558 0.020922916 0.03673996
0.007576881 0.12017216 0.05762255 -0.06902771 -0.0651441 0.00031609327 0.06929863 0.05320868
-0.0004876592 0.043355625 0.11115602 -0.00047925097 0.00540121 -0.041068427 -0.0004908985 -0.15756886
0.0005398704 0.09540012 -0.06501278 -0.0077615157 0.0011365263 -0.07952026 -0.011970227 -0.01706342
0.18771604 -0.04629346 0.0029361323 -0.046690736 0.11757905 -0.088990435 -0.00016502406 1.1623334
00000000: cc8a 5dbd ae03 1336 f9da ddb8 0d18 f33d
00000010: 1107 adbd 33c4 a638 cc0b d1bd e6c4 5538
00000020: 820a dd3c d601 65b8 6d4e df38 723f 683d
00000030: 19c3 92b7 9009 54bd 2ec5 5c37 45ee d037
00000040: 5728 6c35 9d1e d03d 90f4 9e3d 2e43 15b9
00000050: b77b ac38 3feb eb38 ce9b debd 025c 83bd
00000060: 4343 deb7 432f 09b9 341f 1f38 011f ad3d
00000070: 33c8 f038 f2f1 45b8 2162 84b8 7206 4839
00000080: 0e17 92bc c904 8d3d ed08 cc3d aa14 043d
00000090: 47c7 1fb7 5f7a 3ab9 f857 803d 4df1 78b7
000000a0: b071 4838 ec64 deb8 5c77 ea3d b549 f9b8
000000b0: 8796 1939 e31f 3bb9 61de a9b7 768e 62b8
000000c0: 2d84 46b8 ad20 7db9 d419 1d39 7fd6 eebd
000000d0: 165a 06b9 a6af 2439 35d1 1b3d e498 aab9
000000e0: ec8b f2b8 33c1 aeb8 9131 dabd 1e04 91bd
000000f0: f628 893d 84d2 4c3d c688 7bb7 30b9 0bb8
00000100: cf86 ea3c 5c47 6e39 d1e9 97b9 1353 c8bd
00000110: 9154 a53d 25f4 e2b5 7a5a e4bd 5c00 19b9
00000120: 2cd9 5f3d e260 1e39 7e5b d339 70ac 45bd
00000130: e77e 7239 2f34 56bd 39db cab9 0db3 22b9
00000140: 3fe1 d1b8 a3e6 703d 505a 0c3d e0b4 9eba
00000150: cacc 83b8 63f6 ed39 ec83 253d 2cd2 cc3c
00000160: ebc7 1839 eafa a038 5124 b938 ba76 c23d
00000170: 4e71 8b39 55b8 4e39 1959 cfb9 f9e2 4d3a
00000180: 2da6 263d 3654 1d3c 1e15 debc ba8c aa3d
00000190: 3d83 f336 364c e738 7c33 a23d e038 a3b9
000001a0: 388e 1e39 e0aa b9b9 3121 ea3d 7541 a1b8
000001b0: c562 8a39 22a1 47b9 0c63 eab8 4d6d 1738
000001c0: 99a7 f338 140f 1bb8 eacb b838 2b7c 72bd
000001d0: 9805 38b9 460d 363a e79a 8d3d c94b 8aba
000001e0: c9af c3b9 aa35 3bb9 c9a3 c1bd 38c0 d23d
000001f0: 5f67 e13d ecb5 17bd b2c6 0539 f6f9 a739
00000200: 6f29 90bd 5fc5 243a a581 55ba 7603 b33d
00000210: f437 b6bd e386 a739 86c8 e8bd 2831 b6b8
00000220: 46c6 21bd 1925 9138 fef3 8f3a a3af df3c
00000230: f9fa e739 3b29 8ebc f71b 39ba 5cce 67ba
00000240: 78fe 0dba 9165 81bc fb30 d03d 638e 9fbb
00000250: efad ab38 daff e93a 3bd5 6cbd 2666 eebd
00000260: 0202 b439 3e97 a739 f7fd 613a 2384 d5bd
00000270: ecdb be3a 9a63 aab8 cfc1 35bb 3a6e 3f3b
00000280: 7312 1fbc eb76 423d 530b 4a3d 51d5 91bb
00000290: f65b 0db9 c527 4a39 b3c0 933d 43fc f6b9
000002a0: 4f84 8fb8 a3a4 f8ba 72ed 223c d61d ac39
000002b0: 84df 013b b80d faba 9a82 c2b9 2577 14ba
000002c0: ca00 7739 f270 19b9 ea00 a3b9 5e4a fb3d
000002d0: 5f74 86ba 7541 4b3b e828 4abd 492c cdbb
000002e0: ee90 c3ba 10a0 dcba 9af2 9b3c 468e 6cbd
000002f0: d7d3 aebc 875c b33d 3d30 1038 1651 2b3a
00000300: 42e0 d33d 08d6 213d 491a a83f 6782 893d
00000310: 6506 d0bd bd49 68ba 6650 eebd 2e07 2bba
00000320: d1f1 9f3c 99da 483f ab5b 793d 5663 7f3d
00000330: e990 923d d5e1 cfbd dcee 7dbd 641c 98bc
00000340: 62aa 5c3d aeff bc3d d9e2 b23d 1ab6 c2bd
00000350: 5187 373a fe24 c83e 0e48 a33d 7670 d3bd
00000360: a02b 053b 6c67 a53d a597 a9bc f1de 923d
00000370: 1e98 3ebd 35b7 3fbd 8966 ab3c a47c 163d
00000380: 7c47 f83b d21c f63d 9f05 6c3d 665e 8dbd
00000390: 456a 85bd 52b9 a539 71ec 8d3d 58f1 593d
000003a0: 83ac ffb9 ab95 313d c4a5 e33d fa43 fbb9
000003b0: a2fc b03b 5e37 28bd a4af 00ba bb59 21be
000003c0: 1786 0d3a 2361 c33d 6c25 85bd 5054 febb
000003d0: 7ff7 943a 85db a2bd c51e 44bc 96c8 8bbc
000003e0: a238 403e 369e 3dbd 206c 403b c93e 3fbd
000003f0: 49cd f03d 9e40 b6bd 4f0a 2db9 57c7 943f

fc3.bias f4 [5]
-0.37626165 -0.37545267 -0.37256417 -0.30192444 -0.27431437
00000000: 5ea5 c0be 553b c0be bbc0 bebe d795 9abe
00000010: ef72 8cbe
