model_weights/60epochsConvNet_1_0_1.pth (torch_old, 108695 bytes, 8 tensors)

conv1.weight f4 [10, 5, 4]
-0.09913724 -0.045578815 0.13819553 0.14233103 -0.114245355 -0.16526332 -0.00026549725 0.13363412
0.11876223 -0.026618721 0.115198135 0.1880575 -0.093969174 -0.24829777 0.26244593 0.30674988
-0.2695343 -0.0776252 -0.17529853 0.01271208 0.024403842 0.14637022 -0.02446818 -0.17021178
0.08384873 -0.2560321 -0.17315958 0.027386334 0.12390491 -0.13728355 -0.03972497 0.09053726
0.92700326 -0.012644358 -0.4307721 0.13160826 0.52743083 0.07344718 -0.014433774 -0.32369375
-0.15486445 0.13610922 -0.050848473 -0.23134044 -0.18782179 0.12826997 -0.2018273 -0.053286597
-0.1546858 -0.032987677 -0.1692312 0.092411585 -0.23300397 0.068449944 0.16371413 -0.04313224
0.08723351 -0.25679994 -0.358213 -0.27129412 -0.009816633 -0.016899165 0.056907143 -0.2011353
-0.037131716 -0.0037756192 -0.019443724 0.14138536 0.000594613 -0.040014103 0.024686838 -0.04793588
-0.21942347 0.045168746 0.2192324 -0.19864969 -0.07350856 0.57889074 0.006166306 -0.7167462
-0.12686378 0.14811386 0.009615701 -0.00556936 -0.060264803 -0.051814705 0.09745263 0.008471657
-0.12551202 -0.14967412 0.042451777 0.038564213 -0.55392677 -0.23403901 0.3110778 0.23067917
0.67103595 -0.21566354 0.1251616 0.36140022 -0.05829119 -0.048629522 -0.21689165 0.09692726
0.056463007 -0.17905848 -0.12978686 0.13960281 -0.024647662 -0.11670515 -0.29785606 0.13294671
0.16910295 -0.7738681 -0.17387488 1.0613985 -0.06401227 0.3007768 -0.5532902 0.6170909
-0.012473582 0.052135173 0.030446675 0.026250703 0.032427307 0.05198503 -0.015216511 0.12399745
0.04294927 0.23259914 -0.024656046 -0.21115115 0.16021387 -0.17554122 0.044558052 -0.14638579
-0.040667444 -0.05787687 0.28220612 0.2995075 -0.112942696 -0.19487512 0.001785156 0.03960965
-0.06622721 -0.23168227 0.053709272 -0.031249043 -0.072389916 -0.104620725 0.04126055 -0.07921921
-0.65989435 -0.66183543 0.4183398 0.4213281 0.510437 0.50561637 -0.11943998 -0.114489675
0.029346533 -0.030314704 -0.112515606 -0.046916172 0.0552712 0.016863793 -0.0284643 -0.06231621
-0.13024223 0.01536802 0.030652838 -0.03962908 -0.3667522 0.09859665 0.005870824 -0.45596662
-0.23124184 0.6926026 0.21920899 0.3130077 -0.06313419 -0.18804461 0.06756836 0.15779118
-0.1647858 -0.07609979 0.07595713 -0.19236057 -0.15750405 0.12804037 0.055744547 -0.12825787
-0.66297674 -0.24948154 0.57065123 -0.15903369 0.19280382 -0.53386825 0.62932557 -0.43352783
00000000: 7708 cbbd dab0 3abd 2183 0d3e 3abf 113e
00000010: 78f9 e9bd ca3a 29be 7032 8bb9 62d7 083e
00000020: 9d39 f33d 810f dabc 00ed eb3d 2592 403e
00000030: e972 c0bd c541 7ebe 505f 863e 520e 9d3e
00000040: 6600 8abe f6f9 9ebd 7581 33be 5446 503c
00000050: 91ea c73c 13e2 153e 7e71 c8bc ff4b 2ebe
00000060: e2b8 ab3d a416 83be bf50 31be 4e59 e03c
00000070: dcc1 fd3d 0f94 0cbe a6b6 22bd 996b b93d
00000080: 1650 6d3f 482a 4fbc 298e dcbe 51c4 063e
00000090: b505 073f 7a6b 963d a37b 6cbc 30bb a5be
000000a0: c994 1ebe 3760 0b3e 7d46 50bd 82e4 6cbe
000000b0: 5b54 40be 3459 033e d1ab 4ebe 0c43 5abd
000000c0: f465 1ebe 161e 07bd f24a 2dbe 4942 bd3d
000000d0: 9898 6ebe 7c2f 8c3d ada4 273e 6fab 30bd
000000e0: 7ca7 b23d 487b 83be b267 b7be 10e7 8abe
000000f0: f1d5 20bc 1e70 8abc 7717 693d 69f6 4dbe
00000100: 6d17 18bd 6170 77bb 7248 9fbc 53c7 103e
00000110: cedf 1b3a d4e5 23bd 0d3c ca3c 6a58 44bd
00000120: 8cb0 60be dd02 393d 757e 603e d36a 4bbe
00000130: a88b 96bd 2f32 143f b90e ca3b ae7c 37bf
00000140: 94e8 01be 29ab 173e 2c8b 1d3c 2e7f b6bb
00000150: 3ad8 76bd a83b 54bd 3f95 c73d b4cc 0a3c
00000160: 3986 00be 2c44 19be eae1 2d3d 82f5 1d3d
00000170: 25ce 0dbf eca7 6fbe 9745 9f3e 2937 6c3e
00000180: 03c9 2b3f e7d6 5cbe 5d2a 003e 7309 b93e
00000190: bec2 6ebd c02f 47bd d818 5ebe cd81 c63d
000001a0: c145 673d 1b5b 37be d9e6 04be 0af4 0e3e
000001b0: e5e9 c9bc 1c03 efbd 9780 98be 2f23 083e
000001c0: 5329 2d3e 381c 46bf 420c 32be e8db 873f
000001d0: dd18 83bd 6bff 993e 6da4 0dbf abf9 1d3f
000001e0: ff5d 4cbc b18b 553d 4e6b f93c b70b d73c
000001f0: 7fd2 043d 41ee 543d ac4e 79bc 60f2 fd3d
00000200: 93eb 2f3d 782e 6e3e 7afb c9bc 0238 58be
00000210: 1b0f 243e 14c1 33be 8182 363d 28e6 15be
00000220: e892 26bd 4c10 6dbd 527d 903e 0c59 993e
00000230: 804e e7bd 588d 47be e5fb e93a ba3d 223d
00000240: 22a2 87bd 1e3e 6dbe 41fe 5b3d fefd ffbc
00000250: 2a41 94bd 6443 d6bd d300 293d ae3d a2bd
00000260: d6ee 28bf 0c6e 29bf a230 d63e 51b8 d73e
00000270: 00ac 023f 1370 013f f39c f4bd 9079 eabd
00000280: 2468 f03c 8b56 f8bc 956e e6bd 2c2b 40bd
00000290: 0e64 623d f025 8a3c f72d e9bc 483f 7fbd
000002a0: 385e 05be 26ca 7b3c a91b fb3c 1a52 22bd
000002b0: f2c6 bbbe 0aed c93d 0b60 c03b 7574 e9be
000002c0: a9ca 6cbe 674e 313f 5278 603e 8c42 a03e
000002d0: 804c 81bd c48e 40be 4861 8a3d 0394 213e
000002e0: 9cbd 28be 35da 9bbd 698f 9b3d 2bfa 44be
000002f0: be48 21be 041d 033e 6554 643d 0856 03be
00000300: d8b8 29bf 1778 7fbe 3316 123f bad9 22be
00000310: 5d6e 453e 97ab 08bf 7b1b 213f 5cf7 ddbe

conv1.bias f4 [10]
0.20115389 0.042796146 -0.022440791 -0.04179437 0.22341761 0.010992624 -0.20730333 0.012149008
0.14704697 -0.019198898
00000000: 49fb 4d3e 034b 2f3d c0d5 b7bc 9330 2bbd
00000010: 96c7 643e 681a 343c 5347 54be a20c 473c
00000020: 7b93 163e 0247 9dbc

fc1.weight f4 [128, 140]
0.07210586 0.038506206 -0.04853837 0.041478395 -0.0013345511 -0.0059780674 0.03844569 -0.06840426
-0.070490174 0.047129776 0.07591998 -0.064446315 -0.009912619 0.06312567 -0.014732414 -0.0002508789
0.061640847 0.0046678665 -0.04577326 -0.03009835 0.023497833 0.011113986 -0.036853775 -0.07448733
-0.08267841 -0.024590049 -0.071345516 0.02522279 -0.062352415 0.007361625 0.00438461 -0.091388896
0.059325617 0.04961849 0.020912709 0.040500533 0.012565072 0.05028938 -0.02930708 0.03151751
0.012638699 0.017398419 -0.02229778 -0.06273113 -0.0023546033 0.082456954 0.018960215 0.038103115
-0.005621714 0.050285224 -0.025857214 0.07120192 -0.045647368 -0.087128386 -0.049808223 -0.03919456
0.023714852 -0.023665853 0.033524696 0.054206837 -0.04128407 0.040326297 -0.056678306 0.039321464
0.067768656 -0.029911231 0.064630516 0.011538671 -0.045793273 0.02647398 -0.024487296 -0.06161463
-0.08610711 0.009658635 -0.015821736 -0.036807638 -0.0540449 0.020984745 -0.033608153 -0.08156505
-0.0711779 0.015414114 -0.052868012 -0.07623087 -0.021898253 0.07438941 -0.036802553 -0.036075596
-0.046814468 0.07704489 0.05571845 -0.024166537 -0.054744914 0.06432686 0.033924993 0.050126683
0.009390746 -0.039103128 0.015840594 -0.01150647 0.054337386 0.04829829 0.073985696 -0.019034902
-0.036011685 0.04782531 -0.06539829 -0.06524919 -0.044405486 0.017676828 0.023561733 0.044104446
-0.07678521 -0.087241724 -0.077321246 0.07404625 -0.0102948155 0.056766804 0.0360576 -0.0020190503
-0.03852262 0.061353438 0.035970896 0.03973244 -0.043770157 -0.019741602 -0.035053473 0.07048912
-0.087829255 0.074111015 -0.004156092 -0.05301544 0.009251185 0.012371284 0.021708526 -0.06316692
-0.008612523 0.08306678 -0.071300305 -0.050020706 0.061953243 -0.021291053 0.004967281 -0.028136581
0.04689983 -0.067523584 0.07780714 0.039068066 0.010012527 0.027449682 0.00039639077 0.011644321
0.02625574 0.047195338 -0.01472282 -0.03303078 -0.03643456 0.045928616 -0.05175137 -0.024999771
-0.041108303 0.0842772 0.026682787 0.0066489633 -0.03637657 0.039257936 0.02919891 0.08832722
0.0035692127 0.06741783 -0.050308846 -0.052072123 0.037360694 -0.05960357 0.06086371 -0.037819535
-0.016036 -0.00558452 0.036684133 0.06190269 0.045694962 -0.04110809 0.04662046 0.018199591
0.04569718 -0.01919747 0.03679113 0.008855202 0.031613436 -0.044490498 0.027291015 -0.04056921
-0.063899614 0.014855304 -0.06632498 -0.06428561 0.028534451 -0.06822622 -0.01055089 0.043121777
0.0067352424 -0.033137884 0.05370055 -0.019169109 -0.038728897 -0.0602294 0.083312474 0.0124728065
0.0475964 0.014205331 -0.008976128 0.081618704 0.06681176 0.08364461 0.015955798 -0.0420175
0.038223367 0.076487206 0.050921448 0.0436769 -0.015885452 0.031178162 0.0949805 0.094909035
-0.022574717 0.056017183 0.046173032 -0.059993908 0.0008363508 0.033264916 -0.024056269 -0.10159742
0.002031225 0.04552227 0.018284298 -0.004519579 -0.0859971 0.062862426 -0.06098783 0.0586673
-0.0049619265 0.0008548985 -0.010248773 -0.046394832 0.020941053 0.0391227 -0.029111309 0.059257668
-0.007041686 -0.07973731 -0.047833245 0.023775823 0.019657573 -0.07268942 -0.0008001834 -0.046624735
00000000: 3dac 933d afb8 1d3d 2bd0 46bd 40e5 293d
00000010: 1bec aeba aae3 c3bb 3a79 1d3d 8817 8cbd
00000020: 275d 90bd 270b 413d ef7b 9b3d 6efc 83bd
00000030: 8a68 22bc 0848 813d 3960 71bc 6588 83b9
00000040: 1d7b 7c3d e7f4 983b be7c 3bbd d190 f6bc
00000050: 877e c03c 7017 363c fcf3 16bd d08c 98bd
00000060: 4c53 a9bd 1271 c9bc 991d 92bd 06a0 ce3c
00000070: 3f65 7fbd c939 f13b c6ac 8f3b 1a2a bbbd
00000080: 6bff 723d c23c 4b3d 2151 ab3c e3e3 253d
00000090: bbdd 4d3c 3dfc 4d3d 6715 f0bc 8118 013d
000000a0: 8c12 4f3c 2187 8e3c d5a9 b6bc 2e79 80bd
000000b0: b04f 1abb 31df a83d 7452 9b3c 0312 1c3d
000000c0: 5b36 b8bb e1f7 4d3d 82d2 d3bc 50d2 913d
000000d0: bcf8 3abd 5e70 b2bd b503 4cbd 7a8a 20bd
000000e0: a645 c23c e4de c1bc 3151 093d fd07 5e3d
000000f0: 7c19 29bd 302d 253d 8327 68bd 8b0f 213d
00000100: 4bca 8a3d 6608 f5bc 015d 843d b20c 3d3c
00000110: ba91 3bbd f6df d83c 9599 c8bc 9f5f 7cbd
00000120: ed58 b0bd 403f 1e3c 969c 81bc 9bc3 16bd
00000130: 2f5e 5dbd 33e8 ab3c b4a8 09bd 940b a7bd
00000140: b8c5 91bd 7b8b 7c3c 218c 58bd ee1e 9cbd
00000150: f763 b3bc 7a59 983d 46be 16bd 01c4 13bd
00000160: 87c0 3fbd b6c9 9d3d 0839 643d e7f8 c5bc
00000170: 343c 60bd cdbd 833d eff4 0a3d a351 4d3d
00000180: a5db 193c 9a2a 20bd 22c4 813c a285 3cbc
00000190: e190 5e3d 6ed4 453d d085 973d 15ef 9bbc
000001a0: fd80 13bd 79e4 433d 8aef 85bd 5ea1 85bd
000001b0: 87e2 35bd ffce 903c 8904 c13c dda6 343d
000001c0: 9041 9dbd caab b2bd 9a5a 9ebd 8fa5 973d
000001d0: 96ab 28bc 4f84 683d 22b1 133d 0b52 04bb
000001e0: e5c9 1dbd be4d 7b3d 3856 133d 7cbe 223d
000001f0: 5648 33bd 24b9 a1bc 3b94 0fbd 9a5c 903d
00000200: d3df b3bd 84c7 973d d42f 88bb b826 59bd
00000210: 4892 173c edb0 4a3c 14d6 b13c a85d 81bd
00000220: 8a1b 0dbc ea1e aa3d e505 92bd 83e2 4cbd
00000230: afc2 7d3d 936a aebc 93c4 a23b b07e e6bc
00000240: 091a 403d ce49 8abd 5a59 9f3d d605 203d
00000250: 950b 243c 28de e03c abd2 cf39 d2c7 3e3c
00000260: 4716 d73c e64f 413d fc37 71bc 484b 07bd
00000270: 683c 15bd a51f 3c3d 3ff9 53bd 52cc ccbc
00000280: 2e61 28bd 8699 ac3d dc95 da3c 8cdf d93b
00000290: 99ff 14bd eecc 203d 8d32 ef3c e7e4 b43d
000002a0: 74e9 693b 5c12 8a3d a610 4ebd 9449 55bd
000002b0: 8707 193d df22 74bd 3a4c 793d a8e8 1abd
000002c0: ee5d 83bc 59fe b6bb 1a42 163d ad8d 7d3d
000002d0: a42a 3b3d f560 28bd 18f5 3e3d 4f17 953c
000002e0: f72c 3b3d 0344 9dbc 4cb2 163d 6915 113c
000002f0: 177d 013d ab3b 36bd 6891 df3c e62b 26bd
00000300: cddd 82bd a963 733c 64d5 87bd 2da8 83bd
00000310: 15c1 e93c 30ba 8bbd a4dd 2cbc 76a0 303d
00000320: 4fb3 dc3b 97bb 07bd 1cf5 5b3d 8908 9dbc
00000330: 31a2 1ebd 1ab3 76bd bb9f aa3d be5a 4c3c
00000340: 71f4 423d 7abd 683c 9c10 13bc b527 a73d
00000350: 9bd4 883d de4d ab3d bcb5 823c 8b1a 2cbd
00000360: 1b90 1c3d 53a5 9c3d 0293 503d 8de6 323d
00000370: 3522 82bc 5869 ff3c 2385 c23d ab5f c23d
00000380: 9dee b8bc 4672 653d ef1f 3d3d 2cbc 75bd
00000390: 8d3e 5b3a cb40 083d a711 c5bc 4f12 d0bd
000003a0: 4d1e 053b 8f75 3a3d f4c8 953c fa18 94bb
000003b0: 3f1f b0bd 04be 803d 60ce 79bd 1f4d 703d
000003c0: a897 a2bb 441b 603a 78ea 27bc 8208 3ebd
000003d0: 928c ab3c 203f 203d d77a eebc 2bb8 723d
000003e0: f2bd e6bb 514d a3bd cbec 43bd 84c5 c23c
000003f0: eb08 a13c 31de 94bd 66c3 51ba 94f9 3ebd

fc1.bias f4 [128]
0.011284115 -0.032231364 0.03571376 0.018085768 0.036684442 -0.030563518 -0.056581635 0.022211794
0.059407335 0.08226096 0.034255803 0.0044563944 0.005433408 0.008994294 -0.013142775 0.05750661
0.054795656 0.11621466 0.009432543 0.033823825 0.026784986 -0.10931506 -0.08739055 0.048053052
-0.050030272 -0.02784685 0.0030524489 -0.08815375 -0.05904891 -0.010891066 -0.02578349 -0.09872339
-0.032845005 0.052395117 0.01138493 0.08711511 -0.012246234 0.0009809984 -0.0256475 0.1030268
0.06726876 0.059021033 0.0033305378 0.043157753 0.06535933 0.09430539 -0.14117004 -0.019307725
0.08196159 -0.0029919813 -0.03352861 0.08756158 0.030274536 0.018018069 0.07173976 -0.050248012
0.051843837 0.019677214 0.06043446 -0.008926108 -0.00015057702 0.12664951 -0.07643857 -0.038002778
0.05008546 0.11566677 0.025811302 -0.032657348 -0.08663232 -0.026469778 -0.07997815 -0.017806286
-0.023437949 -0.019087516 -0.052352976 -0.028191414 0.032411285 0.0020035298 0.057826165 -0.037261102
0.07694099 -0.052691545 -0.00041940485 0.04389409 0.0020415913 -0.088666625 0.036014795 0.07756034
-0.0034183876 -0.038211986 -0.05896376 0.021233233 0.10522074 -0.06652482 -0.077715315 0.07201835
-0.054325525 -0.06190438 0.061569348 -0.017606601 0.04792806 -0.011897011 0.000794526 -0.045246977
0.035958827 -0.007587578 0.025489016 0.06255701 0.065043904 -0.028366406 -0.09009067 -0.067865506
0.0076876 0.041139122 0.037830546 -0.05720444 0.0054573175 -0.035386596 -0.091351226 -0.06975115
0.04619315 0.06459694 0.12116785 -0.037093844 -0.052389573 0.043432668 0.0319321 -0.042644378
00000000: 02e1 383c 0905 04bd 9748 123d 9b28 943c
00000010: 6d42 163d 5860 fabc 25c2 67bd 82f5 b53c
00000020: 1b55 733d 6f78 a83d d04f 0c3d f206 923b
00000030: bb0a b23b ce5c 133c cb54 57bc 0d8c 6b3d
00000040: 6971 603d f401 ee3d f48a 1a3c da8a 0a3d
00000050: 306c db3c 93e0 dfbd d1f9 b2bd 47d3 443d
00000060: 8bec 4cbd 141f e4bc 980b 483b f489 b4bd
00000070: 45dd 71bd 7170 32bc e637 d3bc 7d2f cabd
00000080: 7c88 06bd 439c 563d dc87 3a3c 6869 b23d
00000090: 6ea4 48bc d894 803a b51a d2bc b7ff d23d
000000a0: 34c4 893d 0ac0 713d 2745 5a3b 2fc6 303d
000000b0: 1ddb 853d 2f23 c13d e18e 10be 3c2b 9ebc
000000c0: 7adb a73d 1e15 44bb 4c55 09bd 7c53 b33d
000000d0: 4e02 f83c a19a 933c 4cec 923d dcd0 4dbd
000000e0: 345a 543d 1c32 a13c 208a 773d cf3e 12bc
000000f0: 36e4 1db9 69b0 013e d38b 9cbd cda8 1bbd
00000100: 6926 4d3d b3e2 ec3d 3972 d33c b6c3 05bd
00000110: 496c b1bd 26d7 d8bc 96cb a3bd 7dde 91bc
00000120: f100 c0bc 6c5d 9cbc 1370 56bd aef1 e6bc
00000130: b2c1 043d a74d 033b 21db 6c3d 199f 18bd
00000140: 3d93 9d3d 17d3 57bd 91e3 dbb9 4aca 333d
00000150: 38cc 053b d996 b5bd 4084 133d f5d7 9e3d
00000160: 0707 60bb 2c84 1cbd fc83 71bd 51f1 ad3c
00000170: f97d d73d 2a3e 88bd 3529 9fbd 5b7e 933d
00000180: 7184 5ebd 728f 7dbd 2430 7c3d b83b 90bc
00000190: 3750 443d aeeb 42bc bd47 503a e554 39bd
000001a0: 9049 133d 38a1 f8bb 57ce d03c e41d 803d
000001b0: bd35 853d aa60 e8bc 7581 b8bd 12fd 8abd
000001c0: 43e8 fb3b 7f81 283d 34f4 1a3d 344f 6abd
000001d0: 4cd3 b23b 89f1 10bd 5a16 bbbd b1d9 8ebd
000001e0: 0735 3d3d 674b 843d da26 f83d b7ef 17bd
000001f0: 7396 56bd 74e6 313d 3ccb 023d dfab 2ebd

fc2.weight f4 [64, 128]
-0.077998854 0.04585327 0.08763017 0.08308473 -0.0785887 0.0005419112 0.049990565 0.05956091
-0.053847566 -0.00083686085 -0.1186608 -0.04054138 0.104835585 0.055528063 0.01711272 -0.03140831
-0.13590442 0.008371462 0.08728162 -0.082387604 0.014201873 -0.10867174 0.0775089 0.040775903
-0.027148891 -0.20420672 -0.07058577 -0.027454613 0.07804411 -0.056968063 0.044855535 -0.05979239
-0.020873183 -0.12584193 0.08547838 -0.072460555 -0.07595528 -0.1165766 0.008372712 -0.040850982
0.068724684 0.024142634 -0.051925123 -0.1549747 -0.029834213 -0.08047236 -0.06360517 0.05201568
0.04209456 -0.0062754992 0.01568514 0.051255137 0.090618655 0.05092001 -0.024898835 -0.020236691
0.026280455 -0.06479623 0.0030453093 -0.0013900409 0.052155234 0.008127064 -0.103505634 0.039858736
0.038014498 -0.13087139 0.08409042 -0.078530945 -0.07761981 -0.118561395 -0.03565695 0.13240798
0.08269798 -0.0019965293 0.078539595 -0.0003458102 0.06901869 0.03185831 0.055767298 -0.047008786
-0.051441062 -0.08640486 -0.05392948 -0.121709675 -0.08400304 -0.038835652 -0.012518492 0.01205939
0.021167457 -0.076891534 -0.07914521 0.068883955 -0.11669373 -0.019358968 0.06154696 0.032405347
0.067311294 -0.036812644 -0.016702801 -0.06890761 -0.048414808 -0.26527703 0.008842656 -0.029088479
0.0042574406 -0.051241957 0.0062220655 0.069589764 0.06833321 -0.0042867297 -0.08040203 0.052017435
-0.12808983 -0.040467776 0.029889416 -0.016625801 0.012783347 -0.042089347 -0.1236003 -0.02414014
-0.0587769 -0.019416535 0.06628239 -0.06437147 -0.031630266 0.076626234 -0.035259362 -0.018389452
0.04036166 0.042072397 0.21365313 -0.023074612 0.032737125 -0.01607758 0.13283755 0.17480442
-0.094198845 0.05094787 -0.41308647 -0.24122216 0.23514315 0.15456426 -0.033359475 0.05360856
-0.35696974 0.082361646 0.11843715 -0.02714008 0.23511216 -0.31278887 0.03826588 -0.019500392
-0.18943402 -0.5070917 -0.20184341 -0.08498986 0.10789806 0.05894512 0.040452357 -0.1394155
-0.022756523 -0.14178795 0.12027753 -0.14088967 -0.059627764 -0.18522419 0.12415812 -0.112538785
0.022781517 0.0016727477 -0.028229577 -0.3664802 0.0049479958 -0.26254728 -0.19578096 -0.018974787
0.090774596 -0.27897546 -0.08553587 -0.06244578 0.12848292 0.26689437 -0.047172703 0.028017718
-0.084526695 -0.1461955 -0.052819837 -0.07061485 0.0027935314 -0.006231066 -0.1319918 -0.021428572
0.14983755 -0.2425652 0.19898666 -0.08952519 -0.101880826 -0.17510971 -0.053173874 0.25851634
0.23541865 0.09636574 0.033463355 -0.07003267 0.14239612 -0.06131345 -0.044304397 -0.0641887
-0.19527121 -0.052158244 -0.35020995 -0.39743719 0.018108668 0.03978592 -0.2367408 0.15866746
-0.1409385 -0.070451565 -0.012136241 0.025196066 -0.3077733 0.041544188 -0.050206784 -0.007119604
0.07180579 0.06724164 0.068586335 -0.03998064 -0.17625368 -0.34632638 0.0739316 -0.07612747
-0.03807352 0.011616859 -0.09697429 0.24821758 -0.06188246 0.08550191 -0.16159746 -0.08826282
-0.2900384 -0.10957712 0.10921796 -0.23487596 -0.058883008 -0.054371074 -0.21190755 -0.03846867
-0.16933382 -0.1596407 0.28131664 0.015007475 0.02940092 0.10661612 0.1926969 0.06897705
00000000: ddbd 9fbd a3d0 3b3d 7277 b33d 5428 aa3d
00000010: 1df3 a0bd 0c0f 0e3a e8c2 4c3d 24f6 733d
00000020: 448f 5cbd c860 5bba 6f04 f3bd b80e 26bd
00000030: 0ab4 d63d 6571 633d fa2f 8c3c 00a6 00bd
00000040: 872a 0bbe 7528 093c b5c0 b23d d5ba a8bd
00000050: f9ae 683c 4a8f debd fcbc 9e3d a204 273d
00000060: 5a67 debc 911b 51be 468f 90bd 7fe8 e0bc
00000070: 97d5 9f3d 5857 69bd 70ba 373d dde8 74bd
00000080: 3dfe aabc b5dc 00be 4a0f af3d 3366 94bd
00000090: 718e 9bbd b6bf eebd b32d 093c 5c53 27bd
000000a0: 87bf 8c3d c6c6 c53c 70af 54bd b0b1 1ebe
000000b0: e166 f4bc b1ce a4bd 6d43 82bd 650e 553d
000000c0: 586b 2c3d b4a2 cdbb 1f7e 803c e8f0 513d
000000d0: 4696 b93d 8091 503d a4f8 cbbc 6bc7 a5bc
000000e0: 1c4a d73c e3b3 84bd d093 473b 0832 b6ba
000000f0: baa0 553d 6127 053c c3fa d3bd ea42 233d
00000100: 17b5 1b3d 2603 06be 9937 ac3d d5d4 a0bd
00000110: 23f7 9ebd 51d0 f2bd 060d 12bd f595 073e
00000120: 8f5d a93d 34d8 02bb 5ed9 a03d dc4d b5b9
00000130: ac59 8d3d dc7d 023d 406c 643d 498c 40bd
00000140: ddb3 52bd 08f5 b0bd 29e5 5cbd ec42 f9bd
00000150: c909 acbd 2212 1fbd 5c1a 4dbc bf94 453c
00000160: 6067 ad3c 4f79 9dbd e216 a2bd 0813 8d3d
00000170: 1ffd eebd b396 9ebc aa18 7c3d 78bb 043d
00000180: 81da 893d dbc8 16bd 50d4 88bc 6f1f 8dbd
00000190: 9b4e 46bd 64d2 87be cae0 103c f64a eebc
000001a0: 0082 8b3b 16e3 51bd 78e2 cb3b 1485 8e3d
000001b0: 48f2 8b3d b277 8cbb d2a9 a4bd 3c10 553d
000001c0: fb29 03be 8ac1 25bd a6da f43c d532 88bc
000001d0: 3e71 513c e165 2cbd 2722 fdbd 8bc1 c5bc
000001e0: 0cc0 70bd 6d0f 9fbc 10bf 873d 30d5 83bd
000001f0: bd8e 01bd 37ee 9c3d 1f6c 10bd 7aa5 96bc
00000200: 4552 253d 1b54 2c3d e3c7 5a3e f806 bdbc
00000210: 5d17 063d 21b5 83bc 9106 083e eeff 323e
00000220: 53eb c0bd b7ae 503d 1280 d3be f102 77be
00000230: 5ec9 703e 1846 1e3e f2a3 08bd a694 5b3d
00000240: bdc4 b6be 39ad a83d 2d8f f23d e054 debc
00000250: 3ec1 703e dd25 a0be afbc 1c3d 49bf 9fbc
00000260: fefa 41be c3d0 01bf 0ab0 4ebe 2a0f aebd
00000270: a8f9 dc3d 7070 713d 5fb1 253d f0c2 0ebe
00000280: e36b babc dc30 11be 1154 f63d 6245 10be
00000290: 3e3c 74bd 69ab 3dbe 9d46 fe3d bc7a e6bd
000002a0: 4ea0 ba3c 1940 db3a b741 e7bc 4ba3 bbbe
000002b0: cc22 a23b 996c 86be ce7a 48be 0371 9bbc
000002c0: 08e8 b93d dfd5 8ebe 6e2d afbd 25c7 7fbd
000002d0: 0791 033e 61a6 883e 2a38 41bd 6a85 e53c
000002e0: 551c adbd 46b4 15be 9d59 58bd 859e 90bd
000002f0: ae13 373b f82d ccbb dc28 07be f98a afbc
00000300: 046f 193e 0363 78be 29c3 4b3e fc58 b7bd
00000310: e5a6 d0bd f64f 33be d9cc 59bd 415c 843e
00000320: 9611 713e 675b c53d df10 093d 4a6d 8fbd
00000330: 4ad0 113e d023 7bbd 8778 35bd 5d75 83bd
00000340: 2df5 47be e2a3 55bd b84e b3be e37c cbbe
00000350: a158 943c 90f6 223d 2e6c 72be b979 223e
00000360: 2f52 10be e948 90bd 16d7 46bc fb67 ce3c
00000370: 7694 9dbe 3d2a 2a3d a1a5 4dbd 914b e9bb
00000380: ea0e 933d fcb5 893d fe76 8c3d bdc2 23bd
00000390: d87b 34be b151 b1be 7369 973d b8e8 9bbd
000003a0: fbf2 1bbd a354 3e3c 759a c6bd c02c 7e3e
000003b0: 7678 7dbd a01b af3d ce79 25be 23c3 b4bd
000003c0: ea7f 94be f869 e0bd aaad df3d 5383 70be
000003d0: 4f2f 71bd 34b4 5ebd 4bfe 58be 5391 1dbd
000003e0: d865 2dbe da78 23be bc08 903e eae1 753c
000003f0: 33da f03c 8d59 da3d 5652 453e d743 8d3d

fc2.bias f4 [64]
-0.028428882 -0.052246302 -0.027265912 0.115728386 -0.0042731715 -0.064862706 -0.0995236 0.13117051
-0.041709278 0.047237217 0.015542175 -0.038291972 0.0050501744 -0.09095142 0.07963597 0.070708394
-0.011599382 0.03475562 -0.051209446 0.17712164 -0.04623324 -0.015953857 -0.05225563 -0.03102937
-0.05792077 -0.07735592 0.009299105 0.11174211 -0.06700172 -0.07517164 -0.008038381 -0.02888271
-0.01291496 0.08536291 -0.011431244 -0.090995975 0.007873514 -0.10867803 -0.14383118 0.14242248
0.014965447 0.08856882 -0.08888154 0.093209624 -0.04685948 -0.071484335 0.11524601 -0.09237739
0.12095828 0.055982415 -0.040954452 -0.08858801 -0.049542543 -0.060725886 0.115615994 -0.019895926
0.0050128037 -0.062599435 -0.06702994 0.08891407 0.16652577 0.04075844 -0.057518017 0.13727926
00000000: b0e3 e8bc 3800 56bd c35c dfbc 0103 ed3d
00000010: f605 8cbb bdd6 84bd 07d3 cbbd 9051 063e
00000020: 59d7 2abd d07b 413d 9ba4 7e3c 0bd8 1cbd
00000030: ef7b a53b bd44 babd 2f18 a33d 90cf 903d
00000040: 560b 3ebc e95b 0e3d ffc0 51bd 605f 353e
00000050: 115f 3dbd aab1 82bc 000a 56bd 4e31 febc
00000060: 543e 6dbd c86c 9ebd 465b 183c 0cd9 e43d
00000070: 3338 89bd 97f3 99bd 6ab3 03bc 6f9b ecbc
00000080: 4599 53bc c0d2 ae3d 1d4a 3bbc 195c babd
00000090: e9ff 003c 9692 debd 7b48 13be 33d7 113e
000000a0: a231 753c 9263 b53d 8607 b6bd b0e4 be3d
000000b0: baef 3fbd 6166 92bd 1a06 ec3d 5b30 bdbd
000000c0: fab8 f73d d14d 653d dbbf 27bd a16d b5bd
000000d0: 1fed 4abd b5bb 78bd 14c8 ec3d c8fc a2bc
000000e0: 7242 a43b 2234 80bd fe46 89bd 9418 b63d
000000f0: bb85 2a3e 52f2 263d 0398 6bbd ef92 0c3e

fc3.weight f4 [5, 64]
6.42293e-05 0.0001886825 -4.1247116e-05 -2.2195032e-05 0.00013930093 -6.4653046e-05 -0.07632381 0.00017948517
-3.2221207e-05 9.564974e-06 -0.065385826 0.000112885384 0.06670854 0.00020175507 0.00016152175 5.470859e-05
-0.04601901 -1.2105893e-05 5.0801387e-05 1.0702088e-05 3.721456e-05 0.064041816 0.029138202 -0.0319437
-0.012030607 -0.059985824 0.00021717267 -0.000112825655 -0.030558035 -0.090133265 -9.384821e-06 0.055960655
3.3952518e-05 -0.00013668045 0.000114871444 0.09065315 0.04827498 -6.4497006e-05 -0.0325969 0.0001587792
2.690587e-05 -8.014482e-05 -0.107337706 0.00036548972 -0.00013789699 0.10069033 -5.8443904e-05 -0.058446746
0.00020863958 -6.21722e-05 4.2176383e-05 0.078080185 -5.253063e-05 0.00012841276 0.0001229761 9.8661636e-05
-0.026311116 -0.0344057 -0.00025674634 0.00011533767 4.143215e-05 0.00021552574 -0.09850839 -3.3658432e-06
-4.77984e-05 -1.0368847e-05 -3.3804113e-06 -9.157611e-06 -0.000120904566 -4.180991e-05 0.029719958 3.75003e-05
-0.00012978363 -6.9334514e-05 0.031189011 0.00021442678 -0.07252229 0.022587508 0.0002664313 -0.00027740223
0.09907708 -0.00030168387 3.6088783e-05 -0.00028907572 0.00020230091 0.07994001 0.02733414 0.035462674
0.043440074 -0.06939621 0.0004206994 2.2444674e-05 0.032135744 0.027201492 -0.00011433355 0.07663612
0.00011397143 -2.583525e-05 0.00013705209 -0.0005227228 -0.07450992 -0.00023217368 -0.06387258 0.00015442357
5.25839e-05 -0.00027891775 0.018559607 5.4223376e-05 -0.0001521492 -0.080362804 5.935247e-05 0.014822527
-4.9285325e-05 0.000106270825 -3.6189416e-05 -0.086771704 9.914173e-05 3.939422e-06 0.00015012606 3.81013e-05
0.061349686 -0.06199354 -0.00048156918 8.8712775e-05 -0.00013409315 1.9287258e-05 0.11805941 -0.00016082085
-6.992901e-05 -0.0006110259 -0.00015484165 -8.569994e-05 -0.00023649815 -0.00012305414 -0.096365966 -5.0123763e-05
-0.00015674144 1.100824e-05 -0.049822047 0.00027294978 -0.091427304 0.030472359 -1.7107346e-05 -0.00020681745
0.04667872 -0.00013725039 -5.3878707e-06 -8.653728e-05 2.893438e-05 -0.07976279 -0.03876042 0.08629027
0.0052150325 -0.012172312 0.0013076063 -0.00017972237 -0.1074051 0.07749374 -0.00010902112 0.068122126
4.789061e-05 -8.246324e-05 0.00052355195 0.056226708 -0.04006864 -0.00041988556 -0.020699259 3.155763e-05
-0.0003096031 0.00018730013 -0.06722583 -6.342117e-05 -7.368192e-05 0.11598626 0.00013405664 0.00014467319
0.00010060079 5.522625e-05 0.0003222503 -0.088089496 0.00023024087 -6.6570814e-05 -0.00014084029 -8.776611e-05
0.0006751861 0.072485656 -0.0003404713 -0.0001875788 -5.0588875e-05 0.00011442137 0.09636569 -3.235855e-05
0.5350818 1.6788765 4.4149707e-05 -0.00019278162 0.00012623452 0.00014448015 0.068566374 -9.178949e-05
-0.00017270561 0.000106441 0.039169252 0.0001483377 0.091561265 -0.09963773 8.467918e-05 -0.00021730876
0.07244908 0.00040361928 -0.00012171087 -3.0996605e-05 -8.759955e-05 -0.04049074 0.014237067 -0.025205344
-0.012496837 -0.0731401 0.7778783 -1.7919607e-05 0.051198438 0.03692162 0.00010567529 0.005889478
0.00022696896 -0.00015047143 0.6975714 -0.006159567 0.08613167 0.00020107023 0.031159848 -3.5768568e-05
1.544546e-05 -4.0609622e-05 -0.10603004 -3.147366e-05 -8.052007e-05 0.019390536 -0.00015147186 0.0944055
-1.036937e-05 0.00023139658 0.00031892193 0.062845424 2.9648256e-05 0.00010168176 -3.822022e-06 4.7416015e-05
0.11527806 0.01865777 0.4126713 -4.4995395e-05 5.1696803e-05 6.675444e-06 -0.031163182 -0.00027867145
00000000: d8b2 8638 13d9 4539 c100 2db8 782f bab7
00000010: 4f11 1239 5796 87b8 a84f 9cbd 2f34 3c39
00000020: 4225 07b8 4079 2037 01e9 85bd e1bc ec38
00000030: 7d9e 883d 378e 5339 2a5e 2939 e776 6538
00000040: 6e7e 3cbd 6a1a 4bb7 9313 5538 1e8d 3337
00000050: d416 1c38 5b28 833d 3db3 ee3c 66d7 02bd
00000060: 061c 45bc b2b3 75bd d8b8 6339 d09c ecb8
00000070: d854 fabc ca97 b8bd 8073 1db7 0037 653d
00000080: 3d68 0e38 e151 0fb9 23e7 f038 5ca8 b93d
00000090: fcbb 453d 9142 87b8 5484 05bd f87d 2639
000000a0: eab3 e137 6c13 a8b8 dfd3 dbbd 339f bf39
000000b0: 7198 10b9 bb36 ce3d aa21 75b8 db65 6fbd
000000c0: 43c6 5a39 7262 82b8 8ce6 3038 81e8 9f3d
000000d0: 5654 5cb8 8aa6 0639 25f3 0039 90e8 ce38
000000e0: 698a d7bc feec 0cbd e99b 86b9 71e1 f138
000000f0: 6fc7 2d38 c0fe 6139 c4be c9bd bfe0 61b6
00000100: 247b 48b8 dcf5 2db7 06db 62b6 a4a3 19b7
00000110: 258e fdb8 0d5d 2fb8 4577 f33c a449 1d38
00000120: 8716 08b9 af67 91b8 1980 ff3c c0d7 6039
00000130: 9186 94bd 7009 b93c ceaf 8b39 4c70 91b9
00000140: ede8 ca3d 532b 9eb9 095e 1738 168f 97b9
00000150: bd20 5439 97b7 a33d d9eb df3c 4f41 113d
00000160: 38ee 313d 9a1f 8ebd 5191 dc39 9247 bc37
00000170: c5a0 033d aad5 de3c 5bc6 efb8 66f3 9c3d
00000180: f203 ef38 c7b8 d8b7 a4b5 0f39 5507 09ba
00000190: a898 98bd a673 73b9 a1cf 82bd c3ec 2139
000001a0: 888d 5c38 b53b 92b9 510a 983c e86d 6338
000001b0: 3d8a 1fb9 4195 a4bd 3bf1 7838 2fda 723c
000001c0: b7b7 4eb8 b7dd de38 17ca 17b8 5db5 b1bd
000001d0: 50ea cf38 612f 8436 286b 1d39 f6ce 1f38
000001e0: cf49 7b3d f0ec 7dbd 1f7b fcb9 4f0b ba38
000001f0: 5b9b 0cb9 12cb a137 22c9 f13d 05a2 28b9
00000200: daa6 92b8 412d 20ba fd5c 22b9 ceb9 b3b8
00000210: 7dfc 77b9 1808 01b9 855b c5bd fb3b 52b8
00000220: f65a 24b9 08b0 3837 3412 4cbd b31a 8f39
00000230: 3d3e bbbd 2ba1 f93c bf81 8fb7 23dd 58b9
00000240: 2f32 3f3d dfea 0fb9 75c9 b4b6 597b b5b8
00000250: 1cb8 f237 ac5a a3bd 3fc3 1ebd f4b8 b03d
00000260: dde2 aa3b 606e 47bc fd63 ab3a db73 3cb9
00000270: 34f7 dbbd 0ab5 9e3d 45a2 e4b8 9d83 8b3d
00000280: 27de 4838 1df0 acb8 fa3e 093a fa4d 663d
00000290: 041f 24bd 1624 dcb9 7e91 a9bc bf5c 0438
000002a0: 3a52 a2b9 ff65 4439 b2ad 89bd fb00 85b8
000002b0: ae85 9ab8 348a ed3d 8e91 0c39 6ab3 1739
000002c0: a3f9 d238 bca2 6738 b4f3 a839 4468 b4bd
000002d0: d06c 7139 ef9b 8bb8 87ae 13b9 120f b8b8
000002e0: f9fe 303a 5c73 943d 4981 b2b9 cdb0 44b9
000002f0: 642f 54b8 81f5 ef38 605b c53d bab8 07b8
00000300: 1ffb 083f 6de5 d63f 632d 3938 6c25 4ab9
00000310: d25d 0439 987f 1739 876c 8c3d 1b7f c0b8
00000320: 4f18 35b9 1439 df38 f06f 203d 198b 1b39
00000330: 7984 bb3d de0e ccbd ca95 b138 60dd 63b9
00000340: 2f60 943d dd9c d339 073f ffb8 5a02 02b8
00000350: a6b5 b7b8 9ed9 25bd 9642 693c 707b cebc
00000360: 89bf 4cbc 7aca 95bd 0823 473f 1052 96b7
00000370: 74b5 513d 203b 173d fd9d dd38 86fc c03b
00000380: 84fe 6d39 dec7 1db9 0a94 323f 31d6 c9bb
00000390: cd65 b03d 61d6 5239 f042 ff3c 3506 16b8
000003a0: df90 8137 4054 2ab8 4726 d9bd 9602 04b8
000003b0: e2dc a8b8 e7d8 9e3c 6bd4 1eb9 ac57 c13d
000003c0: 1bf8 2db7 0ca3 7239 fa34 a739 1ab5 803d
000003d0: 25b5 f837 fb3d d538 eb3e 80b6 8fe0 4638
000003e0: e716 ec3d 2ed8 983c a749 d33e 70b9 3cb8
000003f0: 05d5 5838 a1fd df36 ee49 ffbc a61a 92b9

fc3.bias f4 [5]
-0.37635478 -0.37677172 -0.3766615 -0.3768212 -0.0057331966
00000000: 93b1 c0be 39e8 c0be c7d9 c0be b5ee c0be
00000010: 8add bbbb
