tb_logs/ConvNet_1_0_2_bach/version_0/checkpoints/epoch=20.ckpt (torch_old, 695676 bytes, 24 tensors)

momentum_buffer f4 [10, 5, 4]
00000000: 0eab a63d 4840 f43c 6437 2f3d 9d0a 0b3e
00000010: 731a 37bc c20b 1ebc 90ee 41bc d405 cc3b
00000020: 9ac8 8cbc a492 77bc aae6 8dbc c5c5 0ebc
00000030: aae6 8dbc aae6 8dbc aae6 8dbc aae6 8dbc
00000040: aae6 8dbc aae6 8dbc aae6 8dbc aae6 8dbc
00000050: 58a0 18be 25d3 aebd ebfc 1abe ac29 b4bd
00000060: f4dc 723c 02b7 0a3b a255 a83c 553f d53b
00000070: aa55 3e3c 945f 1f3c 60df 133d ea16 a13c
00000080: f88e c03c f88e c03c f88e c03c f88e c03c
00000090: f88e c03c f88e c03c f88e c03c f88e c03c
000000a0: f0b7 cd3b 4159 0b3c 3b0b 113e faef 493b
000000b0: d379 a7bb dea9 c03a 18e9 953a 44f5 683a
000000c0: 0084 c9b9 ee5f 8c3a 0084 c9b9 7a5e 3d3a
000000d0: 0084 c9b9 0084 c9b9 0084 c9b9 0084 c9b9
000000e0: 0084 c9b9 0084 c9b9 0084 c9b9 0084 c9b9
000000f0: 0a97 e7bd cc2b 983c 6240 de3c 166c 363d
00000100: f175 88bc 323d 193b 3dd3 acbb 0a6d 743b
00000110: ee4c 00bc c2aa 2e3b 35df f5bb 39b9 2b3b
00000120: 4cd0 823b 4cd0 823b 4cd0 823b 4cd0 823b
00000130: 4cd0 823b 4cd0 823b 4cd0 823b 4cd0 823b
00000140: 7a1a 39be 73ec 29bd 1064 19be 8b5a 4dbd
00000150: e8a2 07ba 13ab b7bb 43f2 a6ba c8af 1d3a
00000160: 7c0f bf3b b32d a73b b874 303c 1aa2 3b3c
00000170: d6dc 413c d6dc 413c d6dc 413c d6dc 413c
00000180: d6dc 413c d6dc 413c d6dc 413c d6dc 413c
00000190: 2269 1bbe 1660 15ba f0c1 b6bc 2ae6 3cbc
000001a0: 003e 4137 ee35 88bb b096 a43a c2fd ee3b
000001b0: 6003 4aba 0630 cc3a 00d4 b63b c043 803b
000001c0: c043 803b c043 803b c043 803b c043 803b
000001d0: c043 803b c043 803b c043 803b c043 803b
000001e0: 48e0 74bc c091 33be a680 273c 5ae3 e9bd
000001f0: 441e e93c 20d6 a03c 11b1 5b3c 9a92 c83c
00000200: 6f40 983c d2ed 243c 8889 7a3c faaa 9b3c
00000210: 68da 943c 68da 943c 68da 943c 68da 943c
00000220: 68da 943c 68da 943c 68da 943c 68da 943c
00000230: 8e4d 963c a497 51be cec0 193c 3a5b 4dbd
00000240: 80c0 af3c 9494 f83b 1480 ba3c 0cbc 9e3c
00000250: e005 893c ea56 4c3c a835 873c 5146 fa3c
00000260: a835 873c a835 873c a835 873c a835 873c
00000270: a835 873c a835 873c a835 873c a835 873c
00000280: 2875 003d 94be bfbc 5efc d83c bebb 59bc
00000290: 154f d9bb 5cb9 53bc a2ff 51bc 1e31 6bbc
000002a0: c753 8b3b 696a 63bb 7c93 26bc 6c9b f2ba
000002b0: 63e7 7fba 63e7 7fba 63e7 7fba 63e7 7fba
000002c0: 63e7 7fba 63e7 7fba 63e7 7fba 63e7 7fba
000002d0: ee83 31bd db21 993d 54e2 60bd da06 debd
000002e0: 1824 353b f539 053c fa7e 5d3c 1d39 0c3c
000002f0: be72 ce3a be72 ce3a 4037 eb3b 9687 743c
00000300: be72 ce3a be72 ce3a be72 ce3a be72 ce3a
00000310: be72 ce3a be72 ce3a be72 ce3a be72 ce3a
0.08138095 0.029815808 0.042777434 0.13578267 -0.01117574 -0.009646358 -0.011836663 0.0062262807
-0.017185498 -0.015110645 -0.017321903 -0.008714144 -0.017321903 -0.017321903 -0.017321903 -0.017321903
-0.017321903 -0.017321903 -0.017321903 -0.017321903 -0.14904916 -0.085363664 -0.15135543 -0.08797011
0.014823187 0.002116621 0.020548645 0.006507794 0.011617104 0.009727377 0.0361017 0.019664247
0.023505673 0.023505673 0.023505673 0.023505673 0.023505673 0.023505673 0.023505673 0.023505673
0.0062780306 0.0085051665 0.1416444 0.0030813203 -0.005110958 0.0014699062 0.0011437265 0.0008886645
-0.00038436055 0.0010709742 -0.00038436055 0.0007223856 -0.00038436055 -0.00038436055 -0.00038436055 -0.00038436055
-0.00038436055 -0.00038436055 -0.00038436055 -0.00038436055 -0.11308105 0.018575571 0.02713031 0.044536673
-0.016657801 0.0023382423 -0.005274205 0.0037296438 -0.0078308415 0.0026652073 -0.007503415 0.002620293
0.003992116 0.003992116 0.003992116 0.003992116 0.003992116 0.003992116 0.003992116 0.003992116
-0.18076506 -0.04148526 -0.14979577 -0.050135177 -0.0005174116 -0.0056051104 -0.0012736995 0.0006015268
0.0058307033 0.0051018833 0.010770015 0.011452222 0.011832437 0.011832437 0.011832437 0.011832437
0.011832437 0.011832437 0.011832437 0.011832437 -0.15176824 -0.0005698217 -0.022309273 -0.011529485
1.1518132e-05 -0.0041568195 0.0012557115 0.007293434 -0.00077061914 0.0015578277 0.0055794716 0.0039143264
0.0039143264 0.0039143264 0.0039143264 0.0039143264 0.0039143264 0.0039143264 0.0039143264 0.0039143264
-0.014946051 -0.17536068 0.010223543 -0.11420317 0.028456815 0.019633353 0.013408915 0.024483968
0.018585412 0.010066466 0.015291579 0.019002426 0.01817055 0.01817055 0.01817055 0.01817055
0.01817055 0.01817055 0.01817055 0.01817055 0.018347528 -0.20468003 0.009384347 -0.05013583
0.021454096 0.0075860713 0.02276615 0.019376777 0.016726434 0.012471894 0.016505077 0.030551108
0.016505077 0.016505077 0.016505077 0.016505077 0.016505077 0.016505077 0.016505077 0.016505077
0.03136173 -0.023406304 0.026487526 -0.01328939 -0.0066317418 -0.012922611 -0.012817295 -0.014354972
0.0042519304 -0.0034700877 -0.010166999 -0.0018509454 -0.00097619573 -0.00097619573 -0.00097619573 -0.00097619573
-0.00097619573 -0.00097619573 -0.00097619573 -0.00097619573 -0.04333871 0.074771605 -0.054903343 -0.108411506
0.0027639922 0.008131494 0.013519043 0.008558539 0.0015750749 0.0015750749 0.007178217 0.014924904
0.0015750749 0.0015750749 0.0015750749 0.0015750749 0.0015750749 0.0015750749 0.0015750749 0.0015750749

momentum_buffer f4 [10]
00000000: 545e 9f3d ee42 d8bd 6c52 e23a 64ea 92bc
00000010: 00ba 59bd b10d 90bc 282d a7bd 79da 97bd
00000020: b9b3 8f3b 98dc e7bb
0.077816635 -0.10559641 0.0017266995 -0.017934032 -0.0531559 -0.017584654 -0.0816291 -0.07414717
0.0043854383 -0.0070758574

momentum_buffer f4 [64, 610]
00000000: 1593 263a 9247 23bb c8a7 67b8 7a62 88b9
00000010: 587d 0e3a 04bf d2b9 00e6 acb9 fec7 01bb
00000020: a8f4 1d3a a05b 6939 9874 873a 2634 82ba
00000030: 37cb c33a 65fc 27bb f7e0 153a 8661 42bb
00000040: c232 e13a 3f51 34bb c8a5 c238 59b9 003b
00000050: e000 793a 61ba 59bb 9ea0 d03a 2f72 163a
00000060: 80bf 5e3a c29d e9ba aa02 383a d43c e53a
00000070: 0f5d 8539 a843 c938 0c87 f7b9 71db b5ba
00000080: aba2 933a cdef 04bb 16f1 b6b9 f390 803b
00000090: 886b e238 cc28 1abb ec60 2d3a de47 813a
000000a0: d0c8 6a3a b53e 58bb cb4d 1239 2dcb ad3a
000000b0: 28c7 c53a bacf 18bb 3a01 133b 8844 a6bb
000000c0: 4d61 2a3a 98e2 1abb 1f00 ad39 c8ec a43a
000000d0: 0848 4f3a 70ce e6b9 0fed 87b9 5863 0f3b
000000e0: daa9 5c3a 272d f1ba de55 dd39 c3e4 263a
000000f0: cf42 383a 6638 c6ba d0a9 2539 69fc 24ba
00000100: 62cb 073b 7066 3b39 1867 f139 28bf 1dbb
00000110: 9832 053a c022 9839 36a9 433b 338e faba
00000120: 563b 2e3b 3534 bbbb 3c8b 90ba 430f 29bb
00000130: 8edc 8e3a 3802 44bb 74f8 9038 de45 f93a
00000140: 4250 113b c08d baba 233f 4e3a d8ab c73a
00000150: e8f0 573b 764b 7b3a 5944 e03a dc42 123b
00000160: 0dd8 033a 6a98 2d3b bfe1 12ba 08b9 f5b9
00000170: 5375 4b3a 9c8f 4eba ac4e 6a3a d864 d43b
00000180: 02cf 2c3b 405f 2838 782f 22ba c3fd 983a
00000190: 44cb 193b 66d7 1539 44e7 353b a4a0 5d3b
000001a0: 4c41 8f3b 2461 09bb b667 043b 2d81 16bc
000001b0: 1e57 063b 9136 85bb 40ea ea39 1122 ba3a
000001c0: 10c8 fe3a 801f 0138 e07c a639 6e0b cb3a
000001d0: 1ab2 983a d8b9 60bb 8057 c4ba df25 3dbb
000001e0: 4686 2f3a a693 c6bb 5c94 c239 a4cb 3b39
000001f0: 3fd6 9eba 4d8b 8338 b2d8 bc39 a897 eb39
00000200: 00d6 acb7 7fd0 14ba 3750 d6ba 3939 71b8
00000210: b4a3 2aba 7aa3 fb38 ac92 d2b9 d2c3 6839
00000220: 0f5c a0ba 94a0 98b9 01c6 9eba ebc6 b43a
00000230: 9e65 09bb 018a 8f38 ce3c ee39 66ae e3b8
00000240: 9bd7 54bb b9a7 cf39 3e3b 0aba 64c2 2ab7
00000250: 5efd 0cbb 619a f1b9 9a7d f439 5ac2 0b39
00000260: 74ec ab39 a648 1f39 0f74 eaba 597e a3b9
00000270: 65e7 3ebb 3a8d afb8 0d96 9e3a 8833 03b9
00000280: f658 3ebb 1099 9eb5 6401 7838 8027 4339
00000290: 186d 2ebb dbb6 8fb9 657a 9a3a 8298 f639
000002a0: 7cf7 bfba a6f2 323a c47d c1ba 3a8f 29ba
000002b0: b524 feba ad6b 9d36 c99c f639 483b ee38
000002c0: ac39 37b9 6556 31b8 8c44 9e3a f976 a4b9
000002d0: dc2d 77ba aea9 2db9 5a2a ee39 bab7 ab3a
000002e0: 58c5 703a 66ba 20bb 0616 35b9 9a45 ffb9
000002f0: 821d 043a 0832 27ba 5ee9 edb9 0356 24bb
00000300: ccb2 8e39 4662 06ba 7ce9 5a3a 24e3 53bb
00000310: d4ea 963a 9beb 49bb 6bd1 c8b9 847d 1abb
00000320: 0857 c33a 9406 e5ba ae7c 2439 5a48 f83a
00000330: d26d 203a 5da1 21bb 5cf7 803a 2c18 353a
00000340: 4a83 233a cc32 5cba 1af6 343a 4da4 a73a
00000350: 4688 b0ba 59d9 0b3a 02f4 dab9 3eba d8ba
00000360: aae4 133a 8ce7 ebb9 b039 b638 4994 883b
00000370: 6658 ce39 e47b cdba edd0 df38 a1a7 7c3a
00000380: ccb5 573a 08b3 22bb 748e c339 bda5 473a
00000390: 97c5 943a bd45 60bb d0aa ac3a f0bd b5bb
000003a0: 5e5d 053a 3f35 f1ba dc86 2638 66c9 d03a
000003b0: 6b89 893a b456 7fb9 5a2d d539 bd6b f73a
000003c0: 643c 4f3a eca2 23bb bea3 3fb9 7b02 9eba
000003d0: ef63 e139 ae39 9a3a 103d 85ba 11e6 d439
000003e0: c099 8237 63b1 183a d2a6 19ba d0e3 9138
000003f0: f32f 11ba 239c 853a a97d 2a3a 495e a138
0.00063543144 -0.0024914485 -5.523095e-05 -0.00026013312 0.0005435548 -0.0004019664 -0.0003297776 -0.0019803043
0.00060255313 0.00022254745 0.001033443 -0.0009933754 0.0014937882 -0.0025632617 0.00057174213 -0.002966018
0.0017181265 -0.0027514247 9.28152e-05 0.0019641726 0.00094987266 -0.0033222663 0.0015917008 0.00057390606
0.00084971637 -0.0017823505 0.000701944 0.0017489442 0.0002543707 9.597029e-05 -0.0004721213 -0.0013874603
0.0011263689 -0.0020284534 -0.00034893368 0.0039235293 0.00010796549 -0.0023522852 0.0006613869 0.0009863337
0.0008956315 -0.003299636 0.00013952625 0.0013259404 0.001508926 -0.0023317174 0.002243115 -0.0050740875
0.00064994843 -0.0023633596 0.00032997222 0.0012582773 0.0007907157 -0.00044022826 -0.0002592583 0.0021879282
0.0008417644 -0.0018400297 0.0004221638 0.00063664856 0.0007028998 -0.0015123009 0.00015798886 -0.00062937156
0.002072059 0.0001787187 0.00046043913 -0.0024070237 0.00050810864 0.0002901759 0.0029855496 -0.0019115865
0.002658566 -0.0057130107 -0.0011027823 -0.002579645 0.0010899471 -0.002990855 6.912733e-05 0.0019018014
0.0022173082 -0.0014232919 0.00078676845 0.0015233709 0.0032949988 0.00095861347 0.0017110213 0.0022317683
0.00050294475 0.002648855 -0.0005603097 -0.000468679 0.0007761318 -0.0007879676 0.00089381146 0.006481748
0.0026368503 4.014303e-05 -0.0006186883 0.0011672307 0.0023467103 0.0001428999 0.0027756253 0.0033817673
0.0043717977 -0.0020962441 0.0020203418 -0.009186071 0.0020498703 -0.0040653427 0.00044806488 0.0014200826
0.0019438285 3.0785333e-05 0.00031755026 0.0015491077 0.0011649758 -0.003429046 -0.001497969 -0.0028861684
0.00066957285 -0.0060600815 0.000371131 0.00017909572 -0.0012118294 6.2725136e-05 0.00036019605 0.00044935686
-2.060365e-05 -0.00056768203 -0.001635081 -5.751217e-05 -0.0006509379 0.000119990626 -0.000401636 0.00022198193
-0.0012234467 -0.0002911134 -0.0012113453 0.0013792192 -0.002096511 6.8444766e-05 0.000454402 -0.00010856688
-0.0032477144 0.0003960708 -0.000527311 -1.017805e-05 -0.0021513323 -0.00046082123 0.00046632887 0.00013328475
0.00032791833 0.00015190485 -0.0017887371 -0.0003118392 -0.002912962 -8.370956e-05 0.0012099162 -0.0001251233
-0.0029044724 -1.1816464e-06 5.9129103e-05 0.00018611364 -0.0026615318 -0.00027411323 0.0011785744 0.00047034404
-0.00146459 0.00068263186 -0.0014762213 -0.0006468181 -0.0019389602 4.6914997e-06 0.0004703759 0.00011359766
-0.00017473724 -4.228055e-05 0.0012074872 -0.0003136916 -0.0009429136 -0.00016561776 0.00045426452 0.001310102
0.000918468 -0.0024525165 -0.0001726971 -0.00048689247 0.00050397974 -0.00063779997 -0.00045378035 -0.002507568
0.00027217565 -0.0005126338 0.0008350832 -0.0032331431 0.0011514076 -0.0030810598 -0.00038303 -0.0023573348
0.0014903257 -0.0017473274 0.00015686706 0.0018942461 0.000611988 -0.002466283 0.0009839344 0.0006908204
0.000623752 -0.00083999033 0.0006903127 0.0012790054 -0.0013468347 0.00053348165 -0.00041762 -0.0016534997
0.00056416786 -0.0004499521 8.6891814e-05 0.0041680676 0.00039357244 -0.0015677181 0.00010672384 0.0009638016
0.0008228689 -0.002482595 0.00037299434 0.00076159445 0.001135039 -0.0034221255 0.0013173465 -0.005546324
0.000508746 -0.0018402709 3.970308e-05 0.0015929162 0.0010493224 -0.00024350994 0.00040660315 0.0018876713
0.0007905422 -0.0024968935 -0.00018276178 -0.0012055183 0.000429898 0.0011766457 -0.0010165293 0.00040607204
1.5568803e-05 0.00058247725 -0.0005861345 6.956572e-05 -0.0005538456 0.0010193627 0.000650371 7.69464e-05

momentum_buffer f4 [64]
00000000: bd99 bf38 4474 5f3b 08a8 033c 28fa 933c
00000010: 3cba e03a faa9 223c 622d 38bd 0ee2 a0bc
00000020: 99f7 12ba 8867 88bb 00ea 29ba 34da 01bd
00000030: 6c02 5a38 abfd d4bc 1bfc cbbb 7e61 39bd
00000040: f4b8 1cbc fc0f 85ba f088 c43c f2be 853c
00000050: e64e 253c 3aaa 253b c42f 523b 1ce2 77bd
00000060: 6ece 153c 2ed6 35bd f209 51ba 910d 89bc
00000070: 20f9 8cb9 9a0f 41bc 8bd4 9eb9 48e7 16bd
00000080: 854e 8438 74a8 92ba eea8 43bd 81ef 59bd
00000090: 4d0e 553d 8447 843b 2a93 bd3c 78a8 9abd
000000a0: 8ebf a4bb 388e 8b3c 7ead 733b 0ac6 9d3d
000000b0: aaef 78ba 48a4 deb8 e6d1 f5bc c3b2 413b
000000c0: 95ec c7bc d62c 69bc 2354 e53a 768d beba
000000d0: ee93 213d 8e6d cc3b 2372 113b 0e14 debb
000000e0: ca57 f338 a8cd a1b9 c2bb bb3b 4a12 98b9
000000f0: 8750 003b ddff 5d39 e25e 07ba 0000 0000
9.136226e-05 0.00340964 0.008035667 0.01806362 0.0017145346 0.009928221 -0.044965155 -0.019639041
-0.0005606353 -0.0041627325 -0.0006481707 -0.031702235 5.1977506e-05 -0.025999865 -0.0062251217 -0.04525899
-0.009565581 -0.0010151858 0.023991078 0.016326401 0.010089612 0.0025278465 0.0032071928 -0.06051837
0.009143455 -0.04439371 -0.0007974199 -0.016730102 -0.00026888493 -0.011783505 -0.00030294465 -0.03684166
6.308876e-05 -0.0011189119 -0.047768526 -0.053206924 0.05201559 0.0040368456 0.023141462 -0.07551664
-0.005027718 0.017035589 0.0037182267 0.077037886 -0.0009496162 -0.00010616385 -0.030007314 0.0029556013
-0.024404803 -0.014231881 0.0017496388 -0.0014538008 0.039447717 0.006238646 0.0022193275 -0.006777293
0.00011603495 -0.0003086154 0.0057291696 -0.00029005326 0.0019579248 0.00021171519 -0.000516398 0.0

momentum_buffer f4 [10, 1, 4]
00000000: 86f6 dabc c124 d5bd e8ce 25bd 547a 2dbe
00000010: 9c40 82be 9a64 56bd 553f b1bd 98ec f8bc
00000020: cbed 9b3b 5ece 38be fa22 a0bd cc62 54bd
00000030: f2f0 8abc 5442 3abd 9829 c13a e5ea 81bc
00000040: 868f 63bd 52ce a4bc 96c6 f5bd 5a13 46be
00000050: e8f1 71b9 fa5a 123c b4a5 aabb 6ed4 b3bb
00000060: 5e5d 533c 0e36 c739 8e72 39b9 789f 2c3d
00000070: cc75 cabd 5539 06bc 9f12 03bd 6a83 7ebb
00000080: 866f 6a3c 73e3 563c 9ecf 333b 0b16 0d3d
00000090: ae39 3c3c 661c 753b 64d7 273c 7384 4f3c
-0.02672888 -0.10407401 -0.040480524 -0.16941196 -0.25439918 -0.052342035 -0.08654658 -0.030386254
0.0047585717 -0.18047473 -0.07819171 -0.051852033 -0.016960595 -0.04547341 0.0014737127 -0.015859077
-0.055556796 -0.020117912 -0.12000768 -0.1934332 -0.00023073668 0.008932823 -0.0052077416 -0.00548797
0.012900678 0.00037996512 -0.0001768565 0.04214427 -0.09885749 -0.00819238 -0.03200018 -0.0038835653
0.014308816 0.013115752 0.0027436982 0.03444485 0.011488361 0.003740096 0.010244224 0.012665856

momentum_buffer f4 [10]
00000000: 5290 c4bd 468e 06be 4888 c1bd 44c0 e93a
00000010: 0abe d8bd 68d3 893a 6a84 403c 7ea7 10bd
00000020: fe42 423d 5602 343d
-0.095978394 -0.1314021 -0.09449822 0.0017833789 -0.10583122 0.0010515274 0.01175032 -0.035315983
0.04742717 0.04394754

momentum_buffer f4 [128, 300]
00000000: 52d3 60bc ac67 c9bc 0646 6ebc a6ae b1bb
00000010: 163b b3bc 5f53 d9bc 9698 a3bc 00e6 28bc
00000020: ba6c 27bc ca19 00bc fb79 d9bc 14a4 fdbc
00000030: e83a 96bc 7247 aabc ae91 cdbc cf4a 09bd
00000040: eec6 17bd dfc4 ebbc 209f c3bc e62c 9ebc
00000050: 0ccd 2bbd fbbb e6bc 3e84 e4bc d73a 3ebc
00000060: dedd 8ebc 700c 56bc 8a34 43bc 985c 52bc
00000070: a928 12bc 1a58 65bc c8d3 71bb 1843 d1bb
00000080: f872 52bb 4eb9 9ebc d910 18bb 046d 8bbc
00000090: f3fb 32bc 9f17 3abc ddf3 20bb 2a7e a5bb
000000a0: 6a12 40bb 0c33 c0bc 5169 85bc 2fc9 8fbb
000000b0: de57 65bc 182c e3bb 80b6 4eb9 646c 16bd
000000c0: c245 9abc 48d1 12bd 6bd2 4ebc c45b f7bc
000000d0: 50ad 9239 ae67 bbbc 5c56 51bc 4452 5abb
000000e0: f26d 62bc 0bfc 2ebc 8d7a 1cba 0a29 3dba
000000f0: fafc 82bb 106f a8bb 3016 8fbc c337 faba
00000100: 98f0 29bc 5eb5 3fbc e659 60bc 2745 f1bb
00000110: 384d b9bb 5bca adbb 8c04 5ebc 1e0e 8cbc
00000120: ba5e 33bc 5575 3bbc 7e65 46bc 912f 23bc
00000130: 34dd f8bc 34fc 37bc 8df8 e2bc 4208 59bc
00000140: 942e 80bc ec35 bbbc 2861 94bc 9a02 3ebc
00000150: b6b6 2cbb 4327 51bc 0a30 e3bb 26e1 13bc
00000160: bb65 1abb 5033 2bbb e25d 2fbc ee9b 1ebc
00000170: aa5e 68bc 1e45 3ebc 5f9a 20bc e36b 1abc
00000180: 5346 1fbc a9ad 4ebc 210d 17bc e2c1 2fbc
00000190: 1d4b 02bc 15ac 49bc 0f55 4bbc 0ef3 23bc
000001a0: 11c6 36bc 9494 4dbc 6dd2 44bc e869 49bc
000001b0: 8571 6cbc b9cd 57bc 82dd 2dbc 4cbd 86bc
000001c0: 6419 22bc 1980 39bc f036 37bc f076 53bc
000001d0: 3416 24bc 2ed8 4abc b23f 1bbc cd8c 1bbc
000001e0: 2ad1 34bc af58 cabc e29e a0bc 8618 b6bb
000001f0: 08b6 cabc 6a11 92bc 8c55 9dbc d6e3 a1bb
00000200: 12e2 44bc 3c37 10bc 4098 fdbc a46a a5bc
00000210: c660 20bc a0b1 afbc 52fc 94bc 048b 0cbd
00000220: a5b0 16bd 192a bbbc 7e3f dbbc d0d4 18bc
00000230: dcdf 23bd 9126 4cbc 36fd b1bc e164 0ebc
00000240: e05a 91bc a910 73bc 450a 20bc 1a0e dabb
00000250: a1d5 f9bb bd2e 6fbc 53f8 3735 0000 0000
00000260: 30e6 05b9 0000 0000 f5c3 5fb7 0000 0000
00000270: b493 1ba5 f8ac 21b4 aadf a135 0000 0000
00000280: 23f4 21b9 0000 0000 0400 0080 288d 4ab9
00000290: c52a 47b4 0400 0000 fcf2 fbba 3bfc c491
000002a0: cfe5 29bb 3443 c635 15f2 01b9 b4b1 b0b9
000002b0: 057a aeba ee95 fab6 0000 0000 4578 c5b9
000002c0: 2029 99b8 0000 0000 0000 0000 0000 0000
000002d0: 0000 0000 2647 6638 0000 0000 0000 0000
000002e0: a47f 46b9 628f 160b 0000 0000 0000 0000
000002f0: 0000 0000 0000 0000 4e66 54ba 0000 0000
00000300: 0000 0000 5eb5 fab9 2d72 57b5 764e 69bb
00000310: 0400 0000 0000 0000 2b38 9b39 0000 0000
00000320: 6b6c 22ba 826a 16b9 0000 0000 0000 0000
00000330: 0532 5bba 0000 0000 0400 0000 0000 0000
00000340: 0000 0000 0000 0000 293a 6039 26d2 07b7
00000350: 8601 85ba 7827 53bb 59d3 49b8 a61e 02bb
00000360: 929e f6ba b69b b437 18b0 15b3 ee83 deb9
00000370: f0f4 28b4 6aaf 83bb 38f7 3ebb e3a3 9736
00000380: 1726 16bb 6123 54b8 9568 afb9 c87e 4dbc
00000390: 4f8b 1fbb e9fa 1abc 2492 cdba 95f6 8ebb
000003a0: bbf9 24b8 dee3 80bb a246 55ba cb69 43ba
000003b0: 403f 3137 6095 3cbb c37d 60b8 401b 7138
000003c0: 44d3 9ebb b46a ecbb 34d9 9bba 9765 d8bb
000003d0: b834 e5bb d1c7 62bb 045c 4bbb 318b 9ebb
000003e0: f226 06bc d280 f9bb 6822 d3bb 0ef9 03bb
000003f0: 92f7 b2bb 0896 dcbb eb18 82bb c0b2 abbb
-0.013722258 -0.024585567 -0.014543062 -0.005422431 -0.02187876 -0.026529012 -0.01997022 -0.0103087425
-0.0102187935 -0.007818649 -0.026547423 -0.030962028 -0.018338636 -0.02078602 -0.02509388 -0.03351861
-0.03705495 -0.028780399 -0.023879588 -0.019308519 -0.041943595 -0.028165808 -0.02789509 -0.011610708
-0.017439779 -0.013064489 -0.011914382 -0.012839459 -0.008920827 -0.013998056 -0.0036899913 -0.006386172
-0.0032111984 -0.01937547 -0.0023203401 -0.017019756 -0.010924327 -0.011358171 -0.0024559416 -0.0050504403
-0.002930785 -0.023461841 -0.01628557 -0.0043879966 -0.013998 -0.0069327466 -0.00019713677 -0.036724463
-0.018832091 -0.035844117 -0.01262341 -0.030195124 0.00027976418 -0.022876587 -0.012776937 -0.0033313194
-0.013820158 -0.010680209 -0.0005969189 -0.0007215893 -0.0039974423 -0.005140193 -0.017466635 -0.0019090105
-0.010372303 -0.011700956 -0.013693308 -0.00736298 -0.005654957 -0.0053036637 -0.013550889 -0.017096575
-0.010947878 -0.011441548 -0.012109159 -0.009960071 -0.030378915 -0.0112295635 -0.027706409 -0.013246598
-0.01564721 -0.02285286 -0.018112734 -0.0115973 -0.0026354021 -0.012765708 -0.006933217 -0.009025848
-0.0023559171 -0.0026123114 -0.010703536 -0.009680731 -0.014182726 -0.0116131585 -0.00980243 -0.009425136
-0.009721356 -0.012614646 -0.009219439 -0.010727378 -0.007952479 -0.012309094 -0.012410416 -0.010006679
-0.011155621 -0.012547631 -0.01201306 -0.012293316 -0.014431362 -0.013171607 -0.010611894 -0.016447686
-0.009893749 -0.011322045 -0.011182532 -0.012906775 -0.010015059 -0.012380643 -0.009475635 -0.009494019
-0.011036197 -0.02470049 -0.019607011 -0.0055571226 -0.024745002 -0.01783057 -0.019205831 -0.0049404902
-0.01201679 -0.008802231 -0.030956388 -0.020192452 -0.009788698 -0.021447003 -0.018186722 -0.034312263
-0.036789555 -0.022847222 -0.026763674 -0.009328082 -0.04000841 -0.012460367 -0.021727186 -0.008691044
-0.017743528 -0.014835515 -0.009768073 -0.006654513 -0.0076243435 -0.014598546 6.853417e-07 0.0
-0.0001276962 0.0 -1.3337461e-05 0.0 -1.3494151e-16 -1.5057219e-07 1.206053e-06 0.0
-0.00015445105 0.0 -6e-45 -0.00019316806 -1.8548879e-07 6e-45 -0.0019222195 -3.1078797e-28
-0.002592433 1.4771708e-06 -0.00012392581 -0.00033701735 -0.0013311511 -7.4680347e-06 0.0 -0.00037664376
-7.303269e-05 0.0 0.0 0.0 0.0 5.4902535e-05 0.0 0.0
-0.00018930301 2.8996818e-32 0.0 0.0 0.0 0.0 -0.0008102403 0.0
0.0 -0.00047818845 -8.025989e-07 -0.0035599745 6e-45 0.0 0.00029605752 0.0
-0.0006195965 -0.00014344792 0.0 0.0 -0.00083616405 0.0 6e-45 0.0
0.0 0.0 0.00021383971 -8.095556e-06 -0.0010147549 -0.003221957 -4.8118967e-05 -0.0019854694
-0.0018815568 2.153018e-05 -3.4851922e-08 -0.00042441435 -1.5735327e-07 -0.0040187137 -0.0029139053 4.5192296e-06
-0.0022910887 -5.0577688e-05 -0.0003345652 -0.012542434 -0.002434451 -0.009459236 -0.0015683812 -0.004362891
-3.9333227e-05 -0.003933414 -0.000813583 -0.0007454424 1.0564749e-05 -0.0028775558 -5.3522886e-05 5.7484256e-05
-0.004846962 -0.0072148684 -0.0011890293 -0.0066039073 -0.00699481 -0.0034603963 -0.0031030187 -0.0048383703
-0.008187996 -0.0076142335 -0.0064433105 -0.0020137462 -0.0054616416 -0.0067317523 -0.0039702556 -0.0052398145

momentum_buffer f4 [128]
00000000: 2475 e9bc 5d7c 37bd 9199 0ebc 7c7a 4736
00000010: 5460 18bc e5bd d9bb 7385 66bc a896 9939
00000020: 9a77 2abc 3b0b 3e3c 82a4 5f39 0400 0000
00000030: 1e79 2bba 0000 0000 1db9 43bc 4f6e 1bbd
00000040: 4884 b8bb b69b b333 70a8 dbbc f0ff 6eb9
00000050: 21c0 1039 6dc4 9736 d9fa 0838 961f 693a
00000060: ac4f fbb9 0000 0000 3ecd 2e3c 0400 0080
00000070: 479e a5bc 1d40 98bb 0000 0000 5a15 9bbc
00000080: 9b85 f0bc 0000 0000 60dc 0bbc f4b5 bdbb
00000090: ea4d da3a c2cc 193b a06c 26bd 60cc 8f3c
000000a0: a1d3 05bc 3834 53bc 08f6 72bd be46 063d
000000b0: 5279 d9bc 8410 023d 929a 1a39 f71f 8cb7
000000c0: 4021 70bb 33bb 4abc 3012 25bd a78d 1abb
000000d0: b380 0ebd 0400 0080 fc66 e03a b4a5 6f35
000000e0: 5eda 44bc 0400 0000 4c77 143b 0000 0000
000000f0: f02b dabc c71c d839 3002 923c f7dc 15bc
00000100: bc80 6dbc 0820 a0bc 2ea9 9c3b 408e d2bc
00000110: 0000 0000 2ef8 a7bc 4a61 f2ba a615 34bc
00000120: c1c9 543c 0700 0000 ec11 b2bc 32e8 02bb
00000130: 81f6 afbc 5b03 8a38 cf4b 89bc 70b6 ba38
00000140: de72 91bc e08d 85bc c296 10b9 b54f 1e3c
00000150: 76ad 203c 2d3a 27b8 e6d1 f7b9 cec2 20bb
00000160: 780b c73b 7404 efbb b90a 023b 4f10 fcbb
00000170: 7a45 1fbd 1102 51b5 62aa 5d36 7ded 6b3a
00000180: db49 51ba ea2f cebc 9e05 773b ddc4 8abb
00000190: c110 40bd 863b df3b 0a4e 093c b844 eb3c
000001a0: 5c77 7bbc 8746 1211 e733 e22a 0455 7dba
000001b0: 1790 a33b 724f fcbc bc50 c139 b51f b4bc
000001c0: 9883 07bc 8ab7 0a3c e0ee babb ddd4 04bb
000001d0: 7d16 b5bc a83d e539 10ee 70ba bcad 11bd
000001e0: eaee b1bc be3d 783c 6f08 443b 5aa7 6dbb
000001f0: 75a8 f43c d975 713b c7be bebb a922 10bc
-0.02849824 -0.044796336 -0.008703605 2.9724606e-06 -0.00930031 -0.0066449516 -0.014069903 0.00029294682
-0.010404492 0.011599357 0.00021328221 6e-45 -0.000654118 0.0 -0.01194599 -0.037946995
-0.0056310035 8.363661e-08 -0.026813716 -0.00022792793 0.00013804484 4.5230177e-06 3.2658547e-05 0.00088929513
-0.0004793381 0.0 0.010669051 -6e-45 -0.020217074 -0.004646315 0.0 -0.01893108
-0.029360583 0.0 -0.008536428 -0.005789513 0.00166553 0.0023467992 -0.040630937 0.017553508
-0.008168132 -0.012890868 -0.059316665 0.03278231 -0.026547108 0.03175403 0.00014744166 -1.6704185e-05
-0.0036640912 -0.012373733 -0.040300548 -0.0023582967 -0.034790706 -6e-45 0.0017120535 8.927557e-07
-0.012014953 6e-45 0.0022654114 0.0 -0.02663228 0.0004122017 0.017823309 -0.00914692
-0.014496025 -0.019546524 0.00478091 -0.025702596 0.0 -0.020504083 -0.0018492129 -0.0109914895
0.012987555 1e-44 -0.021737061 -0.0019974825 -0.021479847 6.580978e-05 -0.016759781 8.903153e-05
-0.017754968 -0.016303003 -0.00013789072 0.009662558 0.009806981 -3.9870083e-05 -0.00047267898 -0.0024530175
0.006074365 -0.007294232 0.0019842817 -0.007692374 -0.038884617 -7.7861574e-07 3.3030742e-06 0.0008999927
-0.00079837226 -0.025169332 0.0037692557 -0.0042348937 -0.046890978 0.0068125157 0.008380422 0.028719291
-0.015348282 1.1539102e-28 4.018168e-13 -0.00096638524 0.004991542 -0.030799601 0.0003687198 -0.021987775
-0.0082711205 0.008466611 -0.0057047457 -0.0020268478 -0.02210545 0.0004372422 -0.00091907475 -0.035566077
-0.021720368 0.015151439 0.0029912253 -0.003626308 0.029865483 0.0036843924 -0.0058210823 -0.008797326

momentum_buffer f4 [64, 128]
00000000: ae96 dbbc 839e dbbc 2246 6ebc ac63 aa02
00000010: 180f 4fbc a431 14bd fa30 93bc 4308 20b8
00000020: ec20 79bc eeae 8bbc 42ca e037 0400 0080
00000030: 120e 9bbb 0000 0000 68a1 04bc d058 14bd
00000040: e43a a9bc 0800 0000 2699 a2bc 748a 34ba
00000050: 4a07 8ab8 64f7 d9b4 9ee0 e934 5e08 5cb8
00000060: 0d66 c0b9 0000 0000 0845 b6bb 0400 0000
00000070: d7ff 71bc 840d a2ba 0000 0000 86ea 67bc
00000080: 9cca 9fbc 0000 0000 d2ae 77bc 99fb 8cbb
00000090: 9731 3cb9 3ada 5cbc 004f b1bc 8cc4 2dbb
000000a0: a443 7bbc 7cc8 01bc eb67 07bd a6a3 b4bb
000000b0: e5e5 0abd 3fbe edbb 9c54 d838 143a 0638
000000c0: 7373 74bb 264d 58bc ccfd 3ebd b436 d5ba
000000d0: f457 11bd 0400 0080 325d bcbc e1e5 da35
000000e0: bde9 dbbc 0400 0080 5da3 2037 0000 0000
000000f0: a7f0 fdbc 26cc 86b9 c3f8 16bc 8e92 eebc
00000100: f690 29bc 9f63 4ebc 341a 66bb 90f0 b1bc
00000110: 0000 0000 74c2 84bc 73da 03ba 33a8 eebb
00000120: 6678 9cbb 0400 0080 927c 96bc 1583 41ba
00000130: 300d 95bc eafe 3cb8 faf5 5abc dfba 0535
00000140: 7294 afbc fc2a 99bc e832 ea37 039b acba
00000150: 6e43 15bc 1904 fdb7 23e3 a3ba 931d b5ba
00000160: 8bbb 93bb 8d96 debb c04d dfb8 af2a fdbb
00000170: d694 d7bc 9d8e 3100 1c70 1e0e ce05 8f2a
00000180: 4ad5 09bc 0628 8dbc 309c 5aba e9e2 18bc
00000190: 4c55 29bd 4628 50bb 2ccf 92bc 9633 a6bc
000001a0: a8a4 c2bc 0000 0000 9c54 e320 d8a9 14b9
000001b0: 65fc f1b9 da09 2ebd 68b3 e5b8 a365 01bc
000001c0: 00dc 42bc f650 95bb 58f1 edbc 9562 85bc
000001d0: 14b5 edbc 419e 2f39 0af0 0cbb 5885 e7bc
000001e0: d478 91bc b2a9 50bc 27a0 1cbc b423 9ebb
000001f0: 8ee3 9fbb 636c d4bb b09b 41bc a579 a8bc
00000200: 6023 1338 04c0 b9b7 a2da 68b8 2490 e434
00000210: b32d 033a 61c8 9c3a ccd0 3939 0000 0000
00000220: 7abf 2b38 8bb1 443a 3058 bfb4 0400 0000
00000230: 3df8 de39 0000 0000 8213 c0b7 4398 b839
00000240: 5bde 213a fe39 5632 6911 59b7 a7ec 9838
00000250: b68d 5b33 0400 0080 0400 0000 4a74 fb37
00000260: 8965 2436 0000 0000 fa6b 9639 0400 0080
00000270: 8f9d 3237 b67a 3638 0000 0000 e571 c337
00000280: 5654 0b38 0000 0000 ab07 8539 aae3 1db5
00000290: 18fd 9737 cca4 88b8 dd22 5538 c2e7 863a
000002a0: 1464 bd39 6a4d 8439 5bf7 9838 c5fd bf3a
000002b0: f10d 8239 c708 013b 1b7f dbb7 0000 0000
000002c0: 6761 2c37 8c7f 0739 9eef 7939 f37d 1238
000002d0: 461a 5138 0000 0000 e811 5c3a 9544 0b34
000002e0: bda3 233a 0400 0000 b6cd cd34 0000 0000
000002f0: c5f8 013a 8e81 b137 d413 843a 1d49 973a
00000300: da86 dd36 1a68 9937 c156 7339 7e19 3239
00000310: 0000 0000 6e80 a338 0906 8f37 579c de38
00000320: 1cc9 033a 0000 0000 ba4c 8438 bc40 05b6
00000330: 1c08 5739 4932 0ab3 b07a b838 b514 91b4
00000340: 6329 a238 982d b339 61e1 25b8 7c01 323a
00000350: 0114 2039 9dde a52d 6a0c e7b5 2f43 9536
00000360: 1a2a c939 281a 9239 6b57 c239 80f4 a139
00000370: fdb8 0537 5b57 02b4 c332 4a22 397b a036
00000380: 8254 8c38 4cad 7a39 5733 59b6 042f 2439
00000390: 6889 7338 7042 bb39 48fe 3c3a 86f0 783a
000003a0: 0bde 9e39 fad4 168e f21b 9083 e0d3 af35
000003b0: 95f3 8036 2c4b 163a 5fab 4237 b2cd 0ab7
000003c0: 7ded 2739 92f7 1e3a ce91 223a fa95 b338
000003d0: 5146 443a 096c 4ab7 297f 2539 bf8c 7f37
000003e0: ae2b c033 45a5 823a e570 083a bd6d 53b7
000003f0: c350 c53a 8c26 bb38 4f7e 9738 8056 2d3a
-0.026805248 -0.026808983 -0.014543088 2.5036464e-37 -0.012637876 -0.036180153 -0.01796769 -3.8154667e-05
-0.015205603 -0.017051186 2.6797064e-05 -6e-45 -0.004731902 0.0 -0.008095123 -0.03621751
-0.020657964 1.1e-44 -0.019848417 -0.0006887086 -6.5817105e-05 -4.05994e-07 4.3563062e-07 -5.245988e-05
-0.00036697128 0.0 -0.0055624284 6e-45 -0.01477047 -0.0012363647 0.0 -0.014155036
-0.019505791 0.0 -0.015117364 -0.0043024537 -0.00017947551 -0.013479764 -0.021644115 -0.0026514856
-0.015335951 -0.007921334 -0.03305809 -0.0055126725 -0.03391065 -0.007255345 0.00010315442 3.200218e-05
-0.0037300258 -0.013201987 -0.04662876 -0.0016266913 -0.03548427 -6e-45 -0.022993658 1.6309169e-06
-0.026844854 -6e-45 9.574779e-06 0.0 -0.030998541 -0.00025710574 -0.009214583 -0.029122617
-0.010349503 -0.012596994 -0.0035110833 -0.021721154 0.0 -0.016206004 -0.0005029805 -0.0072832345
-0.004775095 -6e-45 -0.018369947 -0.00073818985 -0.018194765 -4.50601e-05 -0.013364309 4.9818294e-07
-0.021433089 -0.018697254 2.7918679e-05 -0.0013168756 -0.009110315 -3.0161858e-05 -0.0012503605 -0.0013818018
-0.004508441 -0.0067928494 -0.00010647951 -0.0077260355 -0.026316088 4.5511e-39 1.9528982e-30 2.540593e-13
-0.0084126685 -0.017230999 -0.0008339314 -0.009331443 -0.04134111 -0.0031762286 -0.017921053 -0.02028827
-0.023760155 0.0 3.8511286e-19 -0.00014177652 -0.0004615515 -0.042489864 -0.00010952988 -0.007897767
-0.011893272 -0.0045567704 -0.029045746 -0.01628236 -0.029017009 0.00016748255 -0.002150538 -0.028261825
-0.01775781 -0.012735771 -0.009559668 -0.0048260335 -0.0048794216 -0.0064826473 -0.011816904 -0.020565817
3.5080477e-05 -2.2143133e-05 -5.5516728e-05 4.2573186e-07 0.0005004063 0.0011961573 0.00017720758 0.0
4.0947903e-05 0.00075032626 -3.5640687e-07 6e-45 0.00042528092 0.0 -2.2897268e-05 0.0003520866
0.0006174796 1.2469625e-08 -1.29382615e-05 7.292005e-05 5.1118796e-08 -6e-45 6e-45 2.9975683e-05
2.4497006e-06 0.0 0.00028690678 -6e-45 1.0646311e-05 4.3506465e-05 0.0 2.3298848e-05
3.3218726e-05 0.0 0.0002537345 -5.881835e-07 1.8118459e-05 -6.515681e-05 5.0815626e-05 0.0010292458
0.00036123453 0.0002523468 7.293998e-05 0.0014647773 0.0002480592 0.001968907 -2.6166023e-05 0.0
1.0274677e-05 0.00012922118 0.00023835755 3.4926412e-05 4.9853952e-05 0.0 0.0008395002 1.2970334e-07
0.00062423554 6e-45 3.83339e-07 0.0 0.0004958029 2.1160373e-05 0.001007671 0.0011542175
6.602012e-06 1.8287497e-05 0.00023206604 0.000169849 0.0 7.7963676e-05 1.7049739e-05 0.000106149055
0.0005027221 0.0 6.308542e-05 -1.9856225e-06 0.00020507019 -3.2176363e-08 8.796656e-05 -2.702342e-07
7.732471e-05 0.0003417551 -3.9548966e-05 0.00067903823 0.00015266241 1.8857188e-11 -1.7214454e-06 4.4483672e-06
0.00038369076 0.00027866778 0.00037067695 0.0003089048 7.970489e-06 -1.2138973e-07 2.7402978e-18 4.7827166e-06
6.691461e-05 0.00023906416 -3.2365404e-06 0.00015657773 5.8063684e-05 0.0003571692 0.0007209522 0.000949629
0.00030301543 -1.8591472e-30 -8.469975e-37 1.310018e-06 3.843054e-06 0.00057332474 1.16032015e-05 -8.273333e-06
0.00016014832 0.00060641125 0.0006201536 8.5633204e-05 0.00074872846 -1.2065292e-05 0.00015782997 1.5231954e-05
8.948642e-08 0.0009967467 0.0005204811 -1.26021305e-05 0.0015053976 8.924035e-05 7.223768e-05 0.0006612316

momentum_buffer f4 [64]
00000000: d9f6 38bd 6c65 2f3b 6a77 47bd c5e4 9bba
00000010: a4f0 4fbd 8d45 8fbc f2b2 6cbc 1656 c3bc
00000020: 0000 0000 65ac b23b b8f9 c63c e41c 8cbb
00000030: 17b0 20ba 27cf 0c3d 13a9 f636 f76f 203c
00000040: e8f0 ab39 0699 beb9 16ae 55bd 32a3 3bbd
00000050: 8a1f 8ebc 6ec8 cfbb f260 013d b4d0 b3bc
00000060: 44ad d33c 0000 0000 9c05 45bd 212c 7737
00000070: 5eb4 02bc 0828 173c 8448 6fbd 74f4 66bb
00000080: f814 a73c e89e 1f3c 7ee8 a2ac 0000 0000
00000090: a222 b7bc 045e 25bc cedb babc 0000 0000
000000a0: 1485 dcbb 90ef 8bbd fc09 283b d481 5937
000000b0: 0322 833b 4bcd 4239 27a1 87bd 56b5 dbba
000000c0: 6a91 c036 0040 0abc 6e25 4cbc 90e5 2fbb
000000d0: c005 44b9 1417 a2bd 2a7f b638 f401 17bd
000000e0: c72d 873c 3c07 be3c 3b3f a2b8 fa8d 5a39
000000f0: aac5 9cbb 0000 0000 ff72 1238 920f e33a
-0.045157287 0.0026763333 -0.048697866 -0.001189374 -0.050766602 -0.01748922 -0.014446961 -0.02384476
0.0 0.00545268 0.024288997 -0.004275905 -0.0006129755 0.034377243 7.351054e-06 0.0097923195
0.0003279515 -0.00036353635 -0.052167974 -0.045809932 -0.017349023 -0.0063410318 0.031586595 -0.021950103
0.025839455 0.0 -0.048101053 1.4732622e-05 -0.007977573 0.009225853 -0.058418766 -0.003524092
0.02039574 0.009742476 -4.6301287e-12 0.0 -0.022355381 -0.010093216 -0.02280989 0.0
-0.0067297313 -0.06832802 0.0025640717 1.2964436e-05 0.0040018572 0.0001857776 -0.06622534 -0.0016762416
5.7389743e-06 -0.00843811 -0.012460096 -0.002683971 -0.00018694159 -0.07914558 8.7021224e-05 -0.036867097
0.01650132 0.023196809 -7.7365396e-05 0.0002084299 -0.0047843056 0.0 3.491621e-05 0.0017323366

momentum_buffer f4 [5, 64]
00000000: 8e39 b7bd 740e 4cbb 11d6 3abe 4e80 a4ba
00000010: 6cf2 3cbe aae2 d5bc 6624 21bd 1f10 aabd
00000020: 0000 0000 85e2 82ba 24ca d5bc 86a3 5bbb
00000030: c8d1 0a3a 6e2e acbc 2357 1ab5 8a16 efbb
00000040: 3c3b ecbb 2cf1 9238 2c9a 2abe 7c06 1cbe
00000050: 96d5 81bd e49f 59bd 94f2 e0bc ecb8 88bd
00000060: 432a 84bc 0000 0000 7423 2abe 5ab0 92b4
00000070: be8d 87bd 6270 04bc 323a 45be e137 06bd
00000080: 5299 29bc 5137 88bc bbc4 bdab 0000 0000
00000090: cc2f 69bd 96e8 eeba 1e17 86bd 0000 0000
000000a0: 5a6b f4bc 6787 4abe ace9 d8bc 873c 3536
000000b0: 0cde cdbb d6a1 b037 d8b5 26be bf3d 5abc
000000c0: c81e 8237 b33f 34bd de9f aabd de18 cfba
000000d0: 5873 2c39 63e0 65be d2d3 e439 46f4 01be
000000e0: d458 c6bb 03d3 87bc 4d8f a9b8 fce4 aab8
000000f0: b2cf 8bbc 0000 0000 c8c6 97b7 9a6f 32bc
00000100: d7a9 1ebc 3c39 9338 c07b aabc 58f7 24b9
00000110: 8012 acbc 0839 f038 b4ba 60bb 7043 1abc
00000120: 0000 0000 aed9 50b8 f156 d2bb 9a2f 15b9
00000130: ac66 5ab9 e0c2 80bb 2254 2134 da6a 6dbb
00000140: 9b6c 9d3a f1ac 8936 bfbb 92bc 6480 83bc
00000150: 9072 fabb 094b 6fbb 7d92 39bb 5883 c0bb
00000160: e21b 6cbb 0000 0000 6b42 9bbc e6df 36b3
00000170: 7800 ccbb 22f5 e6ba e430 abbc c694 11bb
00000180: 2414 fbba e675 4fbb 5245 fc27 0000 0000
00000190: c967 0bbc 4227 62b8 80cf 1fbc 0000 0000
000001a0: 52e5 27bb d846 a5bc dcd6 9cbb 11af b435
000001b0: ba1f a3b9 847e 12b5 eaea b2bc c84f 9437
000001c0: 5667 fe33 7a05 60bb a449 5cbc f49b b4b9
000001d0: 2fea 3bb5 6bf2 ccbc 9ae8 3438 b0d4 82bc
000001e0: f98e 01bb fa81 1bbb b3de 63b5 89a6 7536
000001f0: 5b2c 01ba 0000 0000 b71d f734 163b e63a
00000200: 2238 4a3b 0ff3 8db9 e6fa e63b 8664 9b38
00000210: 71ef ed3b a8bf b93a 27f2 c93a 2e46 3a3b
00000220: 0000 0000 3261 a038 e9b6 9c39 83f2 a0b9
00000230: ccdc 0338 1253 143b 7966 1934 ebcd 0a3a
00000240: 0977 163a 0c61 b635 ccd4 ad3b 2c23 be3b
00000250: 793a fd3a 1801 fe3a f958 203b db9b 493b
00000260: 5736 0e3b 0000 0000 a8b3 e43b 903f d8b2
00000270: 7442 5b3b 9b63 4e3a c3b2 f03b d5a4 e83a
00000280: c29f 6c3a 8866 7d3a 8522 7029 0000 0000
00000290: 2a44 b03a 55eb f739 123d ff3a 0000 0000
000002a0: 628e 0b3a bf47 dc3b b8eb 683a 6c03 6eb4
000002b0: c593 553a 2244 9735 02e4 ac3b ddfc 473a
000002c0: 2ce7 b335 ba1f 183b f552 3c3b 6644 5f38
000002d0: 9436 8035 3837 0b3c 6869 0438 cd6a 7f3b
000002e0: 39de 7b3a 10eb 723a 8a6b b6b3 62c1 f835
000002f0: 387c 8f3a 0000 0000 fb1e 3934 cf03 8f3a
00000300: 84f3 313a 73f5 2cba 62f9 053b 4e30 86b9
00000310: 7479 033b 4702 7139 6026 2c39 9112 243a
00000320: 0000 0000 d83c c4b7 c447 87ba d40d 3aba
00000330: 38b6 0537 78f5 23b8 206d a5b4 6451 94b8
00000340: c606 8939 d263 0db7 345d b03a 6c4c e23a
00000350: b0dd ee39 27fe 9139 4f64 a2b9 37e7 053a
00000360: 5f95 7f39 0000 0000 3c82 153b 31e2 2db4
00000370: a013 753a 8f91 3db9 2ae8 133b e0a5 2936
00000380: 480e 10ba b160 b7b9 b8bb cda8 0000 0000
00000390: ea02 ac39 1e81 1f39 d89a 383a 0000 0000
000003a0: 38ea ca38 a6ca fc3a 124d 3339 d66d 1135
000003b0: 88b0 9939 5cfe 44b6 38d3 cc3a fcd3 3e39
000003c0: fc1c 0db6 3bc3 123a 34e8 b339 a71d 0cb7
000003d0: 9404 9fb6 8204 0e3b 9053 0cb8 ee30 af3a
000003e0: 63b9 ab39 005c 00b8 473d 53b3 fd57 ce35
000003f0: 4f46 d938 0000 0000 9ad3 2cb5 f4c0 16b9
-0.089465246 -0.0031136544 -0.18245722 -0.0012550445 -0.18451852 -0.026109058 -0.039341353 -0.08303856
0.0 -0.0009985721 -0.026097365 -0.0033514216 0.0005295542 -0.021018233 -5.749627e-07 -0.007296388
-0.0072092097 7.006744e-05 -0.16660374 -0.15236849 -0.063395664 -0.053131 -0.02745942 -0.06675896
-0.016133433 0.0 -0.16615087 -2.7322932e-07 -0.06618832 -0.008083435 -0.19260481 -0.032768134
-0.010351496 -0.01662794 -1.3483861e-12 0.0 -0.05693035 -0.0018227275 -0.06547378 0.0
-0.029836345 -0.19778214 -0.026478611 2.7006333e-06 -0.0062825736 2.1056196e-05 -0.16280305 -0.0133203855
1.5511541e-05 -0.04400606 -0.083312735 -0.0015800258 0.00016446167 -0.22448878 0.00043645367 -0.12690839
-0.0060530696 -0.01658011 -8.08524e-05 -8.148883e-05 -0.01706681 0.0 -1.8093167e-05 -0.010890866
-0.009684048 7.020167e-05 -0.020810962 -0.00015732402 -0.021004915 0.00011454715 -0.0034290971 -0.009415492
0.0 -4.9793794e-05 -0.0064190556 -0.0001422748 -0.00020828348 -0.003929481 1.5024901e-07 -0.0036227019
0.0012010516 4.103051e-06 -0.01791179 -0.016052432 -0.0076430514 -0.003651323 -0.0028316074 -0.0058750324
-0.0036027362 0.0 -0.018952569 -4.257881e-08 -0.006225642 -0.0017620663 -0.020897336 -0.002221392
-0.0019155783 -0.0031655966 7.0019208e-15 0.0 -0.008508631 -5.391916e-05 -0.009754062 0.0
-0.0025618863 -0.020175382 -0.0047863554 1.3461996e-06 -0.0003111342 -5.457334e-07 -0.021840531 1.7680126e-05
1.18465934e-07 -0.0034182952 -0.013445292 -0.0003444847 -7.000371e-07 -0.025017938 4.313197e-05 -0.015970558
-0.0019769056 -0.0023728595 -8.488816e-07 3.6604781e-06 -0.0004927569 0.0 4.6028956e-07 0.0017565216
0.0030856212 -0.00027074708 0.0070489524 7.4097e-05 0.0072612097 0.0014171498 0.001540725 0.0028423178
0.0 7.6474986e-05 0.00029890917 -0.00030698263 3.1438467e-05 0.0022632522 1.4286515e-07 0.00052949664
0.00057397835 1.3588301e-06 0.0053049084 0.0058025327 0.0019319794 0.0019378988 0.0024467094 0.0030763063
0.002169987 0.0 0.0069794245 -2.5174614e-08 0.0033456357 0.0007873119 0.007345529 0.0017749319
0.00090264913 0.00096664624 5.3320646e-14 0.0 0.0013448049 0.00047286847 0.0019473156 0.0
0.0005323646 0.00672242 0.00088852225 -2.2166722e-07 0.00081473246 1.1270206e-06 0.005276204 0.0007628927
1.3403819e-06 0.002321227 0.002873597 5.3231044e-05 9.552627e-07 0.008497052 3.156942e-05 0.003897357
0.0009608004 0.00092665944 -8.494597e-08 1.8533722e-06 0.0010947054 0.0 1.7240738e-07 0.0010911169
0.0006788301 -0.0006597854 0.0020442833 -0.00025594461 0.0020061405 0.000229844 0.00016417494 0.000625887
0.0 -2.3393353e-05 -0.001032107 -0.00070973975 7.969844e-06 -3.909084e-05 -3.0813044e-07 -7.07235e-05
0.00026135723 -8.427496e-06 0.0013455511 0.0017265207 0.00045560068 0.00027845913 -0.00030973784 0.0005108001
0.0002437434 0.0 0.0022813221 -1.6194168e-07 0.00093489327 -0.0001807867 0.00225688 2.5279514e-06
-0.0005495292 -0.0003497652 -2.2840982e-14 0.0 0.00032808568 0.00015211522 0.00070421165 0.0
9.675737e-05 0.0019286468 0.00017099481 5.417654e-07 0.0002931396 -2.9354333e-06 0.0015626913 0.00018198782
-2.1027508e-06 0.00055985496 0.00034314545 -8.351554e-06 -4.739102e-06 0.0021670167 -3.3456425e-05 0.0013366023
0.00032753785 -3.060326e-05 -4.9182997e-08 1.5373804e-06 0.00010360462 0.0 -6.4382914e-07 -0.00014376995

momentum_buffer f4 [5]
00000000: 0201 75be 3c58 24bd 7249 253c 043e ab3b
00000010: 5e57 2c39
-0.23926166 -0.04012321 0.0100883115 0.0052258987 0.00016435745

conv1.weight f4 [10, 5, 4]
00000000: f2dd 84bd e857 ac3e f27c 4fbe 0f58 16be
00000010: fead aa39 c57f 6bbe 9512 f6bc 94aa 56be
00000020: f6d5 4ebe c360 423e f51a d4bd 418f df3b
00000030: d98c c7bd 09cf 123e adbb 1ebe b44a 61be
00000040: 07dc 1f3e db40 453e ffd6 b33d 1d6e 25be
00000050: ace2 203e b7ed 143e e21d e63e e88f b1bc
00000060: 864f eebd 3878 483c 35a9 233e 89d0 19bd
00000070: 7511 b03d 03a3 1ebe fbbe 8f3d 948e 47bd
00000080: bcf4 003e bc06 e4bc 1cc2 09be 4c4f bbbd
00000090: 2e94 5bbe 0dfc c4bc 16a7 cfbc c817 143e
000000a0: f37d 863e e350 1fbe e373 78be f168 93bd
000000b0: be98 2bbe 9891 43bd efef d63b 81a2 333d
000000c0: ec4e 5abe 79c8 a4bc 7bb7 b6bd e9a0 1abd
000000d0: 6d20 ef3d 6604 203e 9c75 703c 25a8 6e3d
000000e0: 482c 083e 127b 2c3e 1ddc 6abc eb7f fa3d
000000f0: a5f3 ad3e 7f88 e9bd 04a9 c8bc a84f 07be
00000100: dc1d 48bd c027 37bd 0f09 f03d 75fa d9bd
00000110: 976d 113e 5b14 053e a99b c1bd 9fcb ca3d
00000120: b508 483e 9513 033c 9df8 b43d ed72 9fbd
00000130: 272f e6bd 3e62 d6bd f2c7 363d d5d6 963d
00000140: f442 6d3e 8db7 36bd 06f0 d83d cb32 963d
00000150: a8b4 07bd effe 423e ab44 87bc 7ff8 5b3e
00000160: d075 7c3d 9d76 5b3e 3058 e33d d02a 993d
00000170: 9f48 09bd 7f9e fabc 70b3 dabd a6e2 323e
00000180: 4afe 59be 0c5c 4d3e 96da 10be 1017 043e
00000190: 520c 4a3e 8281 223d ba68 a23d 8f70 b0bc
000001a0: 90cd ef3d bac3 4b3d 24eb 0c3e 8cb6 1ebe
000001b0: 4444 4f3e 9b26 24be 580a 4abe e150 0dbd
000001c0: 692a 08be 81cf 963d e575 f63d 01ea 483c
000001d0: 6d14 053e 77d0 ff3b dd27 cb3d cd49 61be
000001e0: 5126 fabd a6f0 873e 281e 663d 98f0 593e
000001f0: a63a 56bd 70cc b6bd 23b6 303e a67a 4cbe
00000200: ba49 173e 2df2 343e c2aa f0bc e3ad b0bc
00000210: 26cf c2bd 1003 353e 8990 0d3d 43db 5fbc
00000220: da0e e3bd 5e50 153e 2ad5 793b 3773 39bd
00000230: 9adf 24be 80f0 ac3e a439 0cbd 736b 303e
00000240: 3296 c8bd 034c 1dbe 33ea 2abe c013 fd3d
00000250: 87e5 063d 9f01 003e 491d ecbc 1e84 29be
00000260: dce7 dcbd fd4e 4fbd 0c79 8f3d eb24 d7bc
00000270: e42e d93d 8dd4 4cbd 6bfb 56be 00b7 85bd
00000280: f733 b33d 458e 163d fe4f a63b a6bb 0ebe
00000290: 06a6 493e c133 da3d 3f8d d9bc 2c08 6a3e
000002a0: 7557 383d 8ac7 493e 5e44 a1bc 603b d6bc
000002b0: 144d c73c 9b62 053e 548b 57be 79dd 073e
000002c0: 518d 4f3e fe6b 27be b314 05be 1465 a03c
000002d0: 2c36 05be ea27 65bd bd25 eb3c c9e0 c43e
000002e0: b110 263e 6b6e 52be e1c7 65be 25a1 2fbe
000002f0: eba6 68be ada3 2ebd fe47 cebd bb5a f93d
00000300: e321 e1bd 8595 6abd 52e6 c5bd 130a 2e3e
00000310: 3dd3 d63b 2c5f dd3d 407e cc3d c130 7abd
-0.06487645 0.33660817 -0.20262507 -0.14682029 0.0003255456 -0.22997959 -0.030038157 -0.20963508
-0.20198807 0.18982224 -0.10356704 0.006822497 -0.097436614 0.1433679 -0.1550128 -0.22001153
0.15611278 0.19263022 0.087812416 -0.16155286 0.15711468 0.14543806 0.44944674 -0.021675065
-0.11636262 0.012235694 0.15982516 -0.03755239 0.0859708 -0.15491872 0.070188485 -0.048719957
0.12593359 -0.027835242 -0.13452953 -0.09145984 -0.21443245 -0.024045968 -0.025348227 0.14462197
0.26267967 -0.155582 -0.24262957 -0.0719775 -0.16757485 -0.04774627 0.006559364 0.043856148
-0.21319169 -0.020115124 -0.08921715 -0.037751112 0.116761066 0.15626678 0.014676478 0.058265824
0.13298142 0.16843823 -0.014334706 0.1223143 0.3397495 -0.11402988 -0.024494655 -0.1321398
-0.0488566 -0.044715643 0.11720478 -0.10643474 0.14201961 0.12996046 -0.09453518 0.09902119
0.19534571 0.008000274 0.08836482 -0.07785592 -0.11239462 -0.10467957 0.044624276 0.07365195
0.23170072 -0.04460864 0.10592656 0.07333907 -0.03313127 0.19042562 -0.016512236 0.21481512
0.061635792 0.21431966 0.11100805 0.07478869 -0.033516522 -0.030593155 -0.10678756 0.17469272
-0.2128841 0.20054644 -0.14145884 0.12899423 0.19731262 0.03967429 0.07930131 -0.021538047
0.1170913 0.049747206 0.13761574 -0.15499324 0.20240885 -0.16030352 -0.19730508 -0.03450096
-0.13297428 0.07363797 0.12034205 0.012262822 0.12996073 0.0078068334 0.09919713 -0.22000809
-0.122143395 0.26550788 0.056181103 0.21283185 -0.052302025 -0.08925712 0.1725698 -0.19968662
0.14774218 0.17670508 -0.029378299 -0.02156729 -0.09512167 0.1767695 0.034561668 -0.013663116
-0.11086817 0.14581439 0.003812144 -0.045275893 -0.16100922 0.33777237 -0.034234658 0.17228489
-0.097942725 -0.15361027 -0.16690902 0.12357283 0.032933738 0.12500618 -0.028822558 -0.16554305
-0.10786411 -0.05061244 0.0700551 -0.026262721 0.10604647 -0.05000739 -0.20994346 -0.06529045
0.08750146 0.036756773 0.005075454 -0.1393877 0.19692239 0.106544025 -0.02655661 0.2285468
0.04500528 0.19705024 -0.01968592 -0.02615136 0.024328746 0.13025896 -0.21049243 0.13268079
0.20268752 -0.1634979 -0.12996177 0.019579448 -0.13008946 -0.05594627 0.028704518 0.38452747
0.16217305 -0.20549934 -0.22439529 -0.17151316 -0.22719924 -0.042636562 -0.10072325 0.121755086
-0.109927915 -0.0572715 -0.09663071 0.1699603 0.0065559433 0.10809168 0.09985018 -0.06108165

conv1.bias f4 [10]
00000000: 03d3 3b3e c404 ec3d 7027 23bd 20b7 f33d
00000010: 96ef a13c 0b68 e4bd 5a07 473e 256d c63d
00000020: 7faa f43c 7dfc 723e
0.18342213 0.115243465 -0.039832532 0.11900163 0.019767564 -0.11152657 0.19436398 0.096887864
0.029866455 0.23729129
