tb_logs/ConvNet_1_0_0/version_0/checkpoints/epoch=3.ckpt (torch_old, 210879 bytes, 20 tensors)

momentum_buffer f4 [10, 5, 4]
7.192045e-05 0.00022341995 0.00016824088 0.00050619035 -5.657763e-06 -0.00047815533 5.3008557e-06 0.00067255704
-4.217884e-05 9.334604e-05 -4.590637e-05 7.202441e-05 -0.00024929232 0.00021117456 -7.163488e-05 4.1234223e-05
-4.493348e-05 -2.1689633e-05 -4.6436733e-05 -7.858058e-06 -2.8754257e-05 0.00010731553 0.00018666637 -0.0003532891
-3.0872714e-05 -0.00032729236 0.00027269303 -5.094192e-05 -3.0872714e-05 0.00012523898 -0.00015309267 -3.0872714e-05
-3.0872714e-05 -2.5980082e-05 -3.086398e-05 -3.0872714e-05 -3.0872714e-05 -3.096976e-05 -3.0872714e-05 -3.0872714e-05
-0.0001566671 0.0003753387 0.0007254809 0.00065189874 -0.00012144227 0.00047577225 -7.0338654e-05 -0.00014717702
-1.3282079e-06 0.00015512426 -4.2386368e-05 -9.5774034e-05 3.715382e-05 8.0394384e-05 2.2629094e-05 -9.853076e-05
-8.5052794e-05 -0.00013397765 -2.8469716e-05 -9.884138e-05 -0.0010831038 -8.270205e-05 -0.0008335261 0.00031912015
-0.00014705767 0.00074646715 0.0004672599 0.0010584439 -2.5466547e-05 -6.945483e-05 -8.379796e-05 -4.494381e-05
-3.6197525e-06 1.9300023e-05 -7.761082e-07 -9.800635e-05 -4.789792e-06 2.1541724e-05 2.25552e-05 2.8420283e-05
-0.0006227318 -0.00055627245 -0.0001990986 -5.2475418e-05 -0.00012384864 0.00018733564 5.4241013e-05 -7.282485e-06
-2.4556364e-05 -8.931326e-06 5.565769e-05 -7.006084e-06 9.103583e-06 -8.26509e-06 5.995647e-05 -8.258209e-06
-4.2506153e-06 -8.26509e-06 -2.129572e-05 -8.264905e-06 0.0009402952 -4.7159672e-05 -0.00052529864 -0.0007408592
0.0002969493 7.103492e-06 -0.00045065462 -1.4942481e-05 0.000115270836 -8.6657616e-05 0.00022441815 3.6075264e-05
-6.498379e-05 -8.1538565e-06 5.064302e-05 1.3192995e-05 1.5904436e-05 5.2706375e-05 5.835913e-05 1.6827593e-05
0.0009456111 0.00076220045 0.0008629211 -0.00040762583 -3.0391711e-05 0.00031923648 0.0010924344 -0.00026995438
1.6865917e-05 0.00035458384 0.00013524621 -0.00011117088 5.336065e-05 0.00012120162 0.00012128649 -0.00011338291
-9.5206204e-05 -0.000114728784 -0.00012582983 -0.00011308647 -7.838159e-06 -9.878848e-05 0.00017870321 -1.069317e-05
-1.0908516e-05 -6.84151e-05 0.00023315613 -1.069317e-05 -1.9452256e-05 -1.069317e-05 -4.536594e-05 -1.069317e-05
-1.9914305e-05 -1.069317e-05 -4.7329424e-05 -1.069317e-05 -1.5732128e-05 -1.069317e-05 2.1525451e-05 -1.069317e-05
5.7254554e-05 0.0004900854 2.4882758e-05 6.131205e-05 5.7919126e-05 0.00049278134 3.2971417e-05 5.997366e-05
5.707614e-05 1.2548418e-05 3.1503172e-05 5.9599537e-05 5.8022553e-05 -0.00010295067 5.940054e-05 5.8672988e-05
5.729917e-05 9.052259e-05 5.877621e-05 8.438834e-05 -0.00017110031 0.0011436623 -0.0013144676 0.00048135105
-8.090942e-05 0.00022349773 -0.000502012 -0.00047973671 9.117923e-05 -2.7912582e-05 1.7050226e-05 -0.00014080961
0.00014761357 0.0001326595 -0.00014229209 -3.321225e-05 0.00014826644 0.00010422635 0.00014759428 0.00010871436
00000000: ffd3 9638 d645 6a39 d169 3039 dcb1 043a
00000010: d0d7 bdb6 ecb0 fab9 01de b136 8a4e 303a
00000020: 2fe9 30b8 c6c2 c338 978b 40b8 d00b 9738
00000030: 73b3 82b9 bd6e 5d39 af3a 96b8 e9f2 2c38
00000040: f576 3cb8 22f2 b5b7 10c5 42b8 1ad6 03b7
00000050: 4c35 f1b7 960e e138 dfbb 4339 a939 b9b9
00000060: 537d 01b8 7098 abb9 3df8 8e39 78aa 55b8
00000070: 537d 01b8 9552 0339 8087 20b9 537d 01b8
00000080: 537d 01b8 cdef d9b7 f273 01b8 537d 01b8
00000090: 537d 01b8 87e5 01b8 537d 01b8 537d 01b8
000000a0: 0147 24b9 1cc9 c439 332e 3e3a 2fe4 2a3a
000000b0: d2ae feb8 1271 f939 c782 93b8 8853 1ab9
000000c0: e044 b2b5 daa8 2239 04c8 31b8 4bda c8b8
000000d0: 9cd5 1b38 6899 a838 9cd3 bd37 4da2 ceb8
000000e0: 5f5e b2b8 5a7c 0cb9 40d2 eeb7 1049 cfb8
000000f0: eff6 8dba 5370 adb8 fd80 5aba 954f a739
00000100: 7e33 1ab9 90ae 433a 90fa f439 7cbb 8a3a
00000110: fea0 d5b7 47a8 91b8 b0bc afb8 0c82 3cb8
00000120: e0ea 72b6 7ce6 a137 c055 50b5 c288 cdb8
00000130: 00b8 a0b6 80b4 b437 ec34 bd37 1868 ee37
00000140: d33e 23ba d0d2 11ba 20c5 50b9 0d19 5cb8
00000150: 5edd 01b9 876f 4439 d880 6338 125c f4b6
00000160: 64fe cdb7 c1d7 15b7 fd71 6938 ce15 ebb6
00000170: 97bb 1837 4baa 0ab7 c579 7b38 bd8c 0ab7
00000180: 82a0 8eb6 4baa 0ab7 36a4 b2b7 7fa9 0ab7
00000190: 257e 763a 50cd 45b8 32b4 09ba 3836 42ba
000001a0: dcaf 9b39 885a ee36 d745 ecb9 78b1 7ab7
000001b0: 8fbd f138 f4bb b5b8 ca51 6b39 854f 1738
000001c0: e847 88b8 8ccc 08b7 8769 5438 7b57 5d37
000001d0: 846a 8537 0a11 5d38 a4c6 7438 fb28 8d37
000001e0: e3e2 773a 68ce 473a a835 623a 9db6 d5b9
000001f0: b4f1 feb7 325f a739 0430 8f3a aa88 8db9
00000200: 487b 8d37 70e7 b939 e1d0 0d39 6924 e9b8
00000210: 90cf 5f38 a02d fe38 305b fe38 fcc7 edb8
00000220: 71a9 c7b8 8c9a f0b8 30f1 03b9 d628 edb8
00000230: a380 03b7 a92c cfb8 4762 3b39 d166 33b7
00000240: b803 37b7 147a 8fb8 5f7b 7439 d166 33b7
00000250: 672d a3b7 d166 33b7 4f47 3eb8 d166 33b7
00000260: a50d a7b7 d166 33b7 9583 46b8 d166 33b7
00000270: 7df8 83b7 d166 33b7 8e91 b437 d166 33b7
00000280: 9c24 7038 1379 003a 51bb d037 a894 8038
00000290: 30ee 7238 ff2d 013a ca4a 0a38 3a8c 7b38
000002a0: 0a65 6f38 0c87 5237 4622 0438 84fa 7938
000002b0: 3e5d 7338 38e7 d7b8 d824 7938 a417 7638
000002c0: 8454 7038 f2d6 bd38 7a86 7638 a5f9 b038
000002d0: 6469 33b9 f0e6 953a 374a acba d85d fc39
000002e0: eaad a9b8 b75a 6a39 7499 03ba 2c85 fbb9
000002f0: 7a37 bf38 d025 eab7 1507 8f37 4ba6 13b9
00000300: b7c8 1a39 831a 0b39 3e34 15b9 624d 0bb8
00000310: f877 1b39 1894 da38 8ac3 1a39 94fd e338

momentum_buffer f4 [10]
0.00013812783 0.00012255854 0.00033764285 -8.551634e-05 3.2810778e-05 -0.000103861 0.0004680244 4.2449763e-05
-0.00023332989 -0.0005885884
00000000: 68d6 1039 0f83 0039 a805 b139 3c57 b3b8
00000010: 4e9e 0938 f3cf d9b8 2c61 f539 160c 3238
00000020: 04aa 74b9 804b 1aba

momentum_buffer f4 [10, 10, 4]
3.781743e-06 1.7266817e-05 0.00017289631 7.7619255e-08 3.3850794e-10 4.612036e-06 -2.2170725e-05 0.00019792437
4.8289057e-05 2.6701597e-05 1.8096716e-06 0.00023181527 0.0004609722 0.0004200976 0.0012627905 0.0001603938
6.7453416e-06 2.4583787e-05 1.7715403e-10 0.00021275546 7.1242125e-06 1.7692402e-05 -4.3075703e-05 0.0006964417
8.260692e-06 1.0369315e-05 -1.4393779e-05 0.00034790664 2.7764006e-06 3.7057922e-13 4.740775e-11 3.4056862e-05
9.393789e-05 9.769426e-05 -1.0868624e-05 -3.686782e-07 0.00013977487 0.00012479551 0.00035985062 0.00053134846
-7.951148e-05 0.00041105354 -0.00033848622 3.8549704e-05 0.0004930106 0.00015429391 -0.00030115142 6.691404e-05
0.00018835912 -0.00089444855 -2.1476459e-05 0.0018608673 -0.0004983857 0.0012298531 0.00023815726 0.0009964039
9.821561e-05 -0.0001860979 0.00032361026 -0.00013025697 -0.00072047213 0.0002966246 0.0010050703 0.0002795764
0.0002140041 -0.00026212024 0.00030133696 -9.5806245e-05 -5.4155276e-05 0.00011915576 1.4506353e-05 0.00025878716
0.00013062367 -8.051109e-06 -9.896604e-05 -4.04536e-05 -0.00046026174 0.0004461559 -0.0004531975 0.0010563766
-5.2976604e-05 2.1701926e-05 4.8811926e-06 1.3495889e-05 6.1701066e-06 -6e-45 -1.0611379e-05 0.0
-7.5670914e-07 -1.6814052e-05 3.2530586e-06 5.6967356e-06 7.766983e-06 -3.1296688e-05 -1.5361304e-05 9.420306e-06
-1.7235337e-07 -5.0599992e-06 2.751328e-06 -8.0033515e-06 -1.1758854e-05 6.4723135e-05 1.3577708e-05 -1.7985607e-05
-8.10742e-06 1.6141563e-05 9.848001e-07 -6.4205806e-06 1.4886597e-06 1.11023084e-07 6.035536e-06 0.0
-9.811988e-06 6e-45 -5.7393627e-06 -3.4852449e-06 -3.1270945e-05 6.8123896e-05 -2.0934822e-06 -2.994768e-06
1.9447974e-05 4.0743962e-05 -1.9483944e-06 0.000107674234 7.898022e-06 5.2302066e-06 2.6072912e-06 0.00039160132
5.7751113e-06 0.00051014556 0.0010716405 0.000546143 3.3682132e-05 0.00069235265 0.00031651874 0.00041081925
0.00028017265 6e-45 1.7842342e-05 1.2428198e-05 0.000683843 1.7973105e-07 3.469865e-05 0.00020330439
0.00022786806 1.2407711e-05 8.774666e-06 4.4587177e-05 3.3965e-08 -8.942017e-07 -6e-45 1.8896117e-06
1.8031739e-06 1.1365202e-06 -6e-45 8.9440306e-07 0.00048994896 0.0003516632 0.00040100212 0.0011230187
0.00010119748 0.0003128534 0.00018085293 0.0003744456 -1.6830865e-05 4.295271e-05 1.2952324e-05 0.00030547884
3.991738e-05 5.060808e-05 5.1031297e-05 0.00024893298 1.4806552e-05 0.00024026886 0.00016282481 0.00077298214
0.00026480344 4.7890346e-05 0.0005576067 -9.115743e-06 0.0018224742 0.0006691903 0.00078182644 0.0004558052
0.0010043563 0.00050543644 0.00014296352 0.0005750297 3.836415e-06 1.3021592e-07 3.334063e-05 1.8338802e-07
-5.056645e-07 2.1452583e-05 4.4759934e-05 0.00014329565 0.0015933623 0.0013367578 0.000441356 0.00078115636
0.00029254393 8.305191e-05 9.396633e-05 0.00017766567 4.878367e-05 0.00010983367 2.4602414e-05 3.1474672e-05
4.109164e-05 8.1651626e-05 -1.8192237e-05 0.00015111035 0.00015686335 0.00022919787 0.00012776132 0.00035091306
2.1840962e-05 5.3658125e-05 0.00020829412 6.5899454e-05 0.00042451985 0.00054922514 0.00075341866 0.00017779831
7.783662e-05 0.00028186932 0.00012796551 0.00013067124 3.906113e-08 6.0912233e-05 5.811687e-06 5.344434e-06
3.5715227e-06 4.9485247e-06 1.3238169e-05 2.826558e-06 0.00040619052 0.00077206286 0.0006752294 0.0003756719
3.2056196e-06 -4.057522e-06 0.00019325627 0.0003295057 3.6976754e-08 -3.182537e-06 2.0332545e-06 -1.1383118e-05
2.108708e-05 0.00011677975 0.00030726765 0.00032840014 0.00014226692 7.397126e-05 5.4094166e-06 -7.16471e-06
00000000: dac9 7d36 35d8 9037 804b 3539 a3af a633
00000010: c218 ba2f 16c1 9a36 45fb b9b7 eb89 4f39
00000020: fb89 4a38 3efd df37 d8e3 f235 7013 7339
00000030: a4ae f139 8c40 dc39 3884 a53a 622f 2839
00000040: 0b56 e236 4839 ce37 6dc8 422f 1c17 5f39
00000050: 850c ef36 256a 9437 2fac 34b8 6991 363a
00000060: 6797 0a37 def7 2d37 cf7c 71b7 3d67 b639
00000070: 3352 3a36 189e d02a 6280 502e 47d8 0e38
00000080: 8500 c538 35e1 cc38 6258 36b7 bfee c5b4
00000090: 8890 1239 8adb 0239 55aa bc39 314a 0b3a
000000a0: 67bf a6b8 ac82 d739 da76 b1b9 6eb0 2138
000000b0: 623d 013a f5c9 2139 dce3 9db9 3454 8c38
000000c0: 4482 4539 6d79 6aba 5828 b4b7 58e8 f33a
000000d0: 19a6 02ba 0633 a13a dab9 7939 c499 823a
000000e0: 1bf9 cd38 4623 43b9 3caa a939 9795 08b9
000000f0: 11de 3cba 4884 9b39 90bc 833a 1c94 9239
00000100: 4a66 6039 2f6d 89b9 c3fc 9d39 96eb c8b8
00000110: c924 63b8 43e3 f938 5060 7337 d3ad 8739
00000120: 06f8 0839 4013 07b7 fd8b cfb8 b9ac 29b8
00000130: 494f f1b9 08ea e939 249b edb9 1e76 8a3a
00000140: 3233 5eb8 880c b637 20c9 a336 676c 6237
00000150: d008 cf36 0400 0080 8707 32b7 0000 0000
00000160: a820 4bb5 e70b 8db7 1f4f 5a36 9626 bf36
00000170: f04e 0237 9044 03b8 26dc 80b7 e80b 1e37
00000180: 2210 39b4 10c9 a9b6 75a3 3836 2246 06b7
00000190: e547 45b7 f8bb 8738 d0cb 6337 ccdf 96b7
000001a0: 1b05 08b7 be67 8737 792d 8435 5e70 d7b6
000001b0: f5cd c735 966b ee33 dc84 ca36 0000 0000
000001c0: 2b9e 24b7 0400 0000 c094 c0b6 0de4 69b6
000001d0: ec28 03b8 bddd 8e38 c07d 0cb6 b9f9 48b6
000001e0: 3524 a337 7fe4 2a38 29c1 02b6 2acf e138
000001f0: bf81 0437 227f af36 ecf8 2e36 d74f cd39
00000200: d4c7 c136 4abb 053a 4a76 8c3a 092b 0f3a
00000210: ea45 0d38 007f 353a 6df2 a539 3a63 d739
00000220: 23e4 9239 0400 0000 23ac 9537 b482 5037
00000230: ed43 333a 18fc 4034 6489 1138 1b2e 5539
00000240: deef 6e39 b72a 5037 e736 1337 1e03 3b38
00000250: eae0 1133 1309 70b5 0400 0080 909e fd35
00000260: 9504 f235 898a 9835 0400 0080 e916 7035
00000270: eb6f 003a 705f b839 983d d239 4132 933a
00000280: fc39 d438 7906 a439 57a3 3d39 3d51 c439
00000290: 0230 8db7 1f28 3438 cf4d 5937 ad28 a039
000002a0: f66c 2738 0344 5438 700a 5638 3883 8239
000002b0: a869 7837 aef0 7b39 f4bb 2a39 f4a1 4a3a
000002c0: 51d5 8a39 dedd 4838 5a2c 123a d1ef 18b7
000002d0: 16e0 ee3a 9a6c 2f3a 7cf3 4c3a 23f9 ee39
000002e0: 9ba4 833a 447f 043a 7ae8 1539 97bd 163a
000002f0: 8eba 8036 7bd1 0b34 3bd7 0b38 51e9 4434
00000300: 00bd 07b5 12f5 b337 9dbc 3b38 a241 1639
00000310: 5ed8 d03a 2636 af3a cd65 e739 84c6 4c3a
00000320: 9560 9939 282c ae38 ca0f c538 c44b 3a39
00000330: 119d 4c38 8156 e638 4861 ce37 ac03 0438
00000340: d059 2c38 623c ab38 889b 98b7 6073 1e39
00000350: af7b 2439 d654 7039 abf7 0539 c1fa b739
00000360: 1c37 b737 f90e 6138 8769 5a39 8033 8a38
00000370: 1792 de39 e0f9 0f3a 1281 453a 5f6f 3a39
00000380: 383c a338 dcc7 9339 7b2e 0639 cb04 0939
00000390: 2bc4 2733 037c 7f38 0302 c336 5754 b336
000003a0: 4bae 6f36 810b a636 8119 5e37 e6af 3d36
000003b0: f8f5 d439 4364 4a3a e101 313a d4f5 c439
000003c0: 2020 5736 d925 88b6 d6a4 4a39 82c1 ac39
000003d0: 5fd0 1e33 9293 55b6 0c73 0836 1ffa 3eb7
000003e0: 29e4 b037 a7e7 f438 c418 a139 1f2d ac39
000003f0: 7c2d 1539 0521 9b38 8982 b536 6468 f0b6

momentum_buffer f4 [10]
0.0011918056 -0.00032957376 -4.2048203e-05 0.00089511706 0.0013218239 0.0006093587 0.00050813577 0.00042817072
0.0009369193 0.0009768747
00000000: 5c36 9c3a a4ca acb9 ea5c 30b8 4aa6 6a3a
00000010: 0d41 ad3a 5fbd 1f3a 6a34 053a 1a7c e039
00000020: 979b 753a 7a0a 803a

momentum_buffer f4 [128, 130]
6e-45 -8.735359e-33 8.4097756e-08 -1.5470968e-38 3.5120085e-30 6e-45 -1.01974464e-19 1.5e-44
6e-45 1.057578e-08 3.1940318e-14 1.2657833e-10 1.9659234e-29 -6.8949066e-06 -6.7341643e-06 -6.4659207e-06
-8.4993e-06 -6.2757567e-06 -6.8816125e-06 -6.9018447e-06 -6.936856e-06 -8.480717e-06 -1.163799e-05 3.843604e-06
2.8496515e-06 2.3978048e-06 4e-44 -1.0152768e-38 3.1448733e-38 6e-45 1.4e-44 5.108404e-07
6e-45 6e-45 -6e-45 -6e-45 -6e-45 -6e-45 6.109091e-31 -6e-45
6e-45 -6e-45 -6e-45 6e-45 -2.0122349e-24 -6e-45 6e-45 6e-45
-6e-45 -6e-45 1.9502382e-30 -6e-45 3.0110339e-09 9.5826785e-08 1.533211e-13 1.6492019e-09
3.0996108e-09 9.438508e-08 -5.3077304e-21 -1.317047e-17 -2.8958988e-19 -9.7667945e-18 3.1002025e-07 -4.060719e-06
-1.2432853e-06 1.2848723e-09 4.469825e-08 1.2955573e-07 1.4754808e-12 8.905991e-07 4.142027e-08 1.2630646e-07
-7.8497863e-20 -1.2935205e-17 3.648498e-29 -1.2135521e-17 -3.4141333e-06 -3.5532733e-07 2.2432623e-08 1.0470225e-07
7.704888e-08 1.1557042e-07 2.4490392e-08 1.0400958e-07 6.864101e-08 -9.8756986e-18 -4.5973454e-20 -1.2443085e-17
6.208846e-07 2.0565076e-06 7.6736734e-07 3.704823e-28 3.1741267e-09 1.8521414e-08 3.5088665e-10 1.199925e-06
6.807248e-09 2.3349239e-08 5.327529e-09 -1.5054469e-20 -1.9188752e-17 -1.0486751e-21 1.7511559e-12 -4.3134537e-06
2.2239615e-09 1.3108227e-07 1.7176403e-07 5.1067183e-28 4.2601764e-06 1.3401822e-07 1.6891913e-07 -4.5313714e-19
-1.6964376e-17 -1.6978129e-17 -2.5360605e-17 -1.7457725e-05 -1.6039763e-05 4.4056774e-28 -1.1365591e-18 2.578935e-14
3.2960248e-08 1.2909542e-29 5.13913e-07 4.999928e-12 3.7679825e-08 4.72335e-21 -1.8294036e-20 1.04340764e-20
-5.6865185e-18 1.852777e-28 -1.5451316e-07 -1.895837e-07 5.3986517e-09 3.394065e-08 -4.63053e-08 -1.4657961e-07
5.1864397e-09 -2.0107436e-07 -1.8514082e-07 4.4633297e-09 -1.5646112e-08 2.320206e-09 -3.646113e-08 -4.5008073e-05
-1.172086e-05 -3.0252671e-05 -2.6705942e-05 -3.3799253e-05 -3.0231265e-06 -2.741857e-05 1.858567e-05 -1.486534e-06
3.914193e-05 8.312132e-06 1.8187253e-05 -8.729541e-06 -3.2980412e-15 -6.1126565e-10 -9.806555e-08 2.0607596e-08
3.7975344e-08 8.847332e-13 -1.057438e-12 8.786743e-10 3.143695e-39 2.1721468e-12 1.1522144e-08 2.3257246e-07
6.563038e-19 -1.512564e-06 5.6304866e-06 5.147832e-07 -4.482007e-09 -7.598428e-07 -1.5966218e-07 -3.3991996e-06
-5.1589733e-08 1.2703108e-06 6.2778923e-07 -6.7290154e-07 -3.8897406e-07 -2.018247e-07 2.8416378e-06 6.5985046e-06
-2.4140337e-07 7.3894093e-06 -8.42657e-07 4.017068e-06 7.1904395e-07 6.8502254e-06 4.633571e-06 -3.7635305e-06
-1.5184272e-06 -5.6718313e-06 -7.0224023e-06 -6.483299e-07 1.1784493e-05 3.3115034e-06 3.7285079e-06 8.774396e-07
8.574056e-06 2.8471502e-06 6.156835e-06 8.253493e-06 8.711128e-06 -3.0844192e-06 2.0613759e-06 9.65449e-07
2.0491048e-06 2.8578095e-06 -4.8527886e-07 -2.1708506e-09 2.2625677e-06 2.5450925e-06 3.3211813e-06 4.15332e-06
1.8856986e-06 -2.4325593e-06 -2.9884854e-06 -1.4869271e-09 3.6376514e-07 -8.399523e-07 3.2520497e-06 2.7098645e-06
5.252469e-07 4.5660653e-07 1.2455379e-06 7.7976705e-07 2.6264127e-06 -1.2647014e-06 4.0010173e-07 1.568305e-06
1.6392918e-06 1.3794792e-06 1.1458797e-06 1.0701638e-05 -4.2204667e-07 1.712124e-06 1.4613934e-07 9.048965e-06
1.144847e-05 7.81434e-06 7.728078e-06 2.6994064e-06 -2.1153267e-06 2.01784e-06 2.381085e-06 -8.792643e-07
4.548951e-06 7.958122e-06 3.9303877e-06 -5.400239e-06 -3.0804595e-06 2.579155e-06 1.1417022e-06 3.2503292e-06
00000000: 0400 0000 236d 358a 3b99 b433 c476 a880
00000010: c876 8e0e 0400 0000 c8c7 f09f 0b00 0000
00000020: 0400 0000 c6b0 3532 aed8 0f29 a22c 0b2f
00000030: 4a5e c70f cc5a e7b6 08f6 e1b6 d6f5 d8b6
00000040: 3798 0eb7 5794 d2b6 9ae8 e6b6 6596 e7b6
00000050: 24c3 e8b6 6748 0eb7 c940 43b7 4ff8 8036
00000060: a43c 3f36 f9e9 2036 1d00 0000 c98d 6e80
00000070: 2339 2b01 0400 0000 0a00 0000 af20 0935
00000080: 0400 0000 0400 0000 0400 0080 0400 0080
00000090: 0400 0080 0400 0080 5840 460d 0400 0080
000000a0: 0400 0000 0400 0080 0400 0080 0400 0000
000000b0: 6bb0 1b98 0400 0080 0400 0000 0400 0000
000000c0: 0400 0080 0400 0080 dd38 1e0e 0400 0080
000000d0: abea 4e31 55c9 cd33 cc9f 2c2a 22aa e230
000000e0: ee00 5531 bfb0 ca33 3885 c89d c9f3 72a3
000000f0: 96f1 aaa0 622a 34a3 dc70 a634 5041 88b6
00000100: f5de a6b5 6d97 b030 3ffa 3f33 021c 0b34
00000110: cca7 cf2b 8111 6f35 12e6 3133 db9e 0734
00000120: 0c59 b99f c79c 6ea3 3600 3910 61dc 5fa3
00000130: 5d1e 65b6 d1c3 beb4 dcb1 c032 acd8 e033
00000140: 1276 a533 832f f833 f15e d232 df5b df33
00000150: cb67 9333 ab2c 36a3 7f1a 599f cf88 65a3
00000160: ddaa 2635 8802 0a36 15fd 4d35 31d2 ea11
00000170: d41f 5a31 0519 9f32 e8e6 c02f 1c0d a135
00000180: 30e5 e931 8591 c832 710d b731 792f 8e9e
00000190: 29fc b0a3 a778 9e9c 0a74 f62b 49bc 90b6
000001a0: 58d4 1831 9fbf 0c34 236e 3834 9fd6 2112
000001b0: a3f2 8e36 a6e6 0f34 2360 3534 13be 05a1
000001c0: 0078 9ca3 7998 9ca3 09e9 e9a3 2e72 92b7
000001d0: 218d 86b7 1a9f 0b12 fdb9 a7a1 314a e828
000001e0: 2d90 0d33 16eb 820f d5f3 0935 59eb af2c
000001f0: 68d5 2133 7071 b21d 44c8 ac9e 1918 451e
00000200: a6cb d1a2 0dde 6a11 41e8 25b4 5f90 4bb4
00000210: 0b7f b931 24c6 1133 37e1 46b3 7f63 1db4
00000220: 6834 b231 e6e6 57b4 1fcb 46b4 dd5b 9931
00000230: 2a66 86b2 7f71 1f31 7099 1cb3 0dc7 3cb8
00000240: b6a4 44b7 1ec7 fdb7 9306 e0b7 acc3 0db8
00000250: ebe0 4ab6 ee00 e6b7 6ce8 9b37 eb84 c7b5
00000260: 542c 2438 5674 0b37 d490 9837 1875 12b7
00000270: 1fa6 6da7 ff05 28b0 1b98 d2b3 9504 b132
00000280: 551a 2333 bf07 792b 38d2 94ab 3587 7130
00000290: 583b 2200 ebd9 182c edf2 4532 08b9 7934
000002a0: eab4 4121 4e03 cbb5 83ed bc36 a22f 0a35
000002b0: 2700 9ab1 00f8 4bb5 9b6f 2bb4 ce1d 64b6
000002c0: 8393 5db3 8c7f aa35 5985 2835 71a1 34b5
000002d0: 30d4 d0b4 27b5 58b4 f7b2 3e36 b968 dd36
000002e0: 3a9a 81b4 8bf2 f736 f332 62b5 5aca 8636
000002f0: 5304 4135 fdda e536 127a 9b36 f690 7cb6
00000300: c3cc cbb5 a950 beb6 faa1 ebb6 e408 2eb5
00000310: 03b6 4537 323b 5e36 4737 7a36 3189 6b35
00000320: 4ad9 0f37 ab11 3f36 cf96 ce36 7c78 0a37
00000330: 0326 1237 ebfd 4eb6 2b56 0a36 9394 8135
00000340: 5a83 0936 cbc8 3f36 1c44 02b5 022e 15b1
00000350: 9ed6 1736 5bcc 2a36 76e1 5e36 bf5c 8b36
00000360: 1c18 fd35 0d3f 23b6 ca8d 48b6 995c ccb0
00000370: 804b c334 1579 61b5 ca3d 5a36 1edb 3536
00000380: b1fe 0c35 8623 f534 5b2c a735 2f51 5135
00000390: 6d41 3036 cfbe a9b5 90cd d634 8d7e d235
000003a0: a305 dc35 8b26 b935 20cc 9935 2f8b 3337
000003b0: a795 e2b4 22cc e535 7aea 1c34 02d1 1737
000003c0: ce12 4037 561a 0337 d8a7 0137 7327 3536
000003d0: 09f5 0db6 3a6a 0736 bbca 1f36 9506 6cb5
000003e0: 31a3 9836 e083 0537 c6e1 8336 b333 b5b6
000003f0: e4b9 4eb6 8c15 2d36 973c 9935 3b20 5a36

momentum_buffer f4 [128]
-2.5804538e-05 0.0001022575 -0.0028702782 -6.132647e-05 -1.06511025e-05 1.8876366e-05 5.025004e-05 0.00016761383
-8.64805e-05 0.00018979427 5.7224435e-05 0.0007506028 0.003532813 -0.0018601934 -0.00039797975 0.00039740402
-0.001879414 4.068954e-05 7.725923e-05 0.0026855546 -1.7825461e-20 0.0011052163 0.0007159459 0.00019888679
6e-45 0.00014062159 -4.2976328e-05 -9.902476e-08 -5.760092e-05 -0.00012796688 4.286058e-05 -0.00037439918
0.00019425554 -0.0010525405 1.038268e-05 0.0029260856 0.0006185884 -0.00014485743 -0.0002576593 -0.00043213455
0.0008760666 -3.063333e-05 0.00477981 -3.452184e-06 9.056758e-25 0.001186538 -0.00013194117 0.00023175578
7.522311e-05 0.00017742631 -2.8228631e-05 -6e-45 -0.00081119686 -0.00047607842 1.0097312e-05 -0.0031778328
-0.0034096283 -6.1139974e-05 0.00018047907 -0.0021331266 0.002436368 0.0015175255 0.0027714986 0.003739507
-0.0014726671 2.2916787e-05 0.00061090046 2.7534512e-07 2.3444067e-05 0.0003974501 -0.00024840422 0.00037237344
-0.0013244152 0.00042930694 0.0005056694 3.788992e-05 -6.8715565e-08 6.0985192e-05 8.970669e-06 -4.4250446e-06
0.000120819444 0.0006351554 0.0013164937 0.00031059014 5.5503722e-05 0.002288511 -0.0069605797 0.0051393416
0.0002260979 1.2013863e-05 2.0006582e-05 -0.0014202546 4.704567e-05 -0.0032334523 4.0931905e-06 0.0026391984
-0.00016685411 8.252684e-06 -3.248751e-12 -0.00016402203 6.0613463e-18 -3.7547466e-07 0.0024254676 -0.0017561339
-0.0028657443 7.0458505e-06 0.00011584894 -0.00078023266 0.0024753194 0.000118375705 -0.002833259 0.0011706011
-3.4863833e-06 4.1222098e-05 -2.6649849e-08 0.00043541833 -2.4903275e-07 2.2016724e-05 0.0004769127 0.0005795501
-5.0236948e-05 6e-45 -0.0036186178 -1.582114e-06 0.00017166506 7.219285e-08 1.6085454e-13 0.0026860486
00000000: d376 d8b7 1473 d638 471b 3cbb 669c 80b8
00000010: 23b2 32b7 b058 9e37 92c3 5238 7fc1 2f39
00000020: dd5c b5b8 8303 4739 4504 7038 1ac4 443a
00000030: c486 673b bcd1 f3ba f0a7 d0b9 aa5a d039
00000040: ab56 f6ba 10aa 2a38 3c06 a238 2100 303b
00000050: 525b a89e e8dc 903a 51ae 3b3a 448c 5039
00000060: 0400 0000 d273 1339 7b41 34b8 70a7 d4b3
00000070: 8498 71b8 d92e 06b9 33c5 3338 024b c4b9
00000080: 13b1 4b39 66f5 89ba 4531 2e37 92c3 3f3b
00000090: c428 223a dfe4 17b9 7216 87b9 1e90 e2b9
000000a0: d6a7 653a 4a7c 00b8 f49f 9c3b 12ac 67b6
000000b0: 8425 8c17 9c85 9b3a b059 0ab9 7803 7339
000000c0: 1ac1 9d38 830b 3a39 86cc ecb7 0400 0080
000000d0: 80a6 54ba 2a9a f9b9 a067 2937 3043 50bb
000000e0: 1274 5fbb 4638 80b8 fb3e 3d39 edcb 0bbb
000000f0: 79ab 1f3b b5e7 c63a 08a2 353b 8412 753b
00000100: 8206 c1ba 6d3d c037 d624 203a 25d3 9334
00000110: c0a9 c437 d960 d039 403c 82b9 1e3b c339
00000120: 0098 adba 9a14 e139 e68e 043a feeb 1e38
00000130: c890 93b3 5aca 7f38 bb80 1637 d87a 94b6
00000140: 7260 fd38 8f80 263a 338e ac3a b4d6 a239
00000150: abcc 6838 d8fa 153b 9315 e4bb ec67 a83b
00000160: b114 6d39 268f 4937 cfd3 a737 d627 baba
00000170: e752 4538 54e8 53bb 3d58 8936 67f6 2c3b
00000180: 8ff5 2eb9 0275 0a37 4c9c 64ac 54fd 2bb9
00000190: cc9f df22 d894 c9b4 98f4 1e3b 132e e6ba
000001a0: 36cf 3bbb 656b ec36 edf3 f238 8788 4cba
000001b0: f838 223b 7940 f838 33ae 39bb db6e 993a
000001c0: 9cf7 69b6 e4e5 2c38 a3eb e4b2 dc48 e439
000001d0: cdb2 85b4 8eb0 b837 240a fa39 f3ec 173a
000001e0: 83b5 52b8 0400 0000 5526 6dbb 0659 d4b5
000001f0: fd00 3439 7008 9b33 2a1b 352a 6b08 303b

momentum_buffer f4 [64, 128]
1.4291566e-24 2.613116e-06 2.5654708e-05 1.2200933e-06 -8.580169e-09 -6.7872428e-09 3.8924267e-07 1.614121e-12
1.2084787e-06 1.2211652e-07 1.3756161e-07 1.5121781e-06 1.8438535e-05 1.5997564e-05 3.628342e-06 1.58922e-06
8.41325e-06 1.8457398e-05 1.8441704e-09 -4.2424763e-06 -6e-45 1.6025459e-06 2.3684065e-06 2.1591832e-05
-6e-45 4.4719712e-07 1.2822483e-09 -1.6448395e-13 1.0534929e-05 2.6975546e-12 2.2712534e-06 4.202943e-08
1.6166364e-06 1.6345276e-06 5.0611327e-08 9.471258e-06 6.1333435e-07 3.8137175e-06 2.8570617e-05 1.0476285e-06
-5.300656e-06 -6e-45 4.281462e-05 8.073602e-08 6e-45 1.8401215e-05 2.0755358e-05 2.48785e-05
1.7898748e-07 8.304251e-08 4.63981e-08 -6e-45 3.0576324e-05 -7.935152e-12 -2.1380515e-06 4.0329405e-06
6.5805516e-06 -2.0025613e-08 5.717783e-07 4.5483773e-07 5.968419e-06 2.3214063e-05 4.040291e-06 9.96448e-06
2.9373557e-05 8.1280135e-08 6.332726e-06 2.8151414e-08 -1.6634155e-12 2.9062097e-17 5.0926865e-05 7.8433004e-07
-1.5363815e-06 8.483235e-06 1.5393578e-06 -1.0261805e-07 2.3565059e-09 -9.4815385e-07 2.5015043e-09 1.9348221e-07
-5.915272e-07 1.0688924e-06 1.3206325e-05 9.722879e-06 1.5485284e-06 1.7163446e-05 -5.1902725e-07 4.6179524e-05
1.7972877e-06 -5.7096512e-33 7.656348e-08 1.036171e-05 1.2717937e-06 2.386978e-05 2.8219223e-09 2.1319649e-05
1.1029165e-06 -6.0214575e-08 1.3534127e-33 1.2939588e-06 -6e-45 -1.2565132e-22 -7.3802003e-06 1.7470956e-06
3.3552665e-06 -2.564283e-25 3.479612e-07 2.6117652e-05 3.2560794e-05 -2.695625e-09 1.4761677e-06 2.9554456e-05
3.2672432e-07 -9.239977e-07 -6e-45 -1.0437246e-06 1.6393349e-12 -6.665132e-22 2.6457781e-05 2.3412188e-06
-1.06936024e-08 6e-45 9.74863e-06 3.5861034e-31 -6e-45 -6e-45 -4.2996294e-15 9.617435e-06
1.9136596e-06 -8.104002e-06 -0.00047586934 -2.4994919e-05 -5.446414e-15 -8.479948e-07 1.3314317e-06 -1.4713138e-06
-6.6784382e-06 -6.1789115e-07 -5.904737e-07 -1.0475612e-05 -0.00037166342 -0.00052046886 -1.5450933e-05 -3.0827841e-06
-0.00028500415 -0.0003689853 1.6004915e-08 -8.730088e-05 6e-45 -2.0970245e-05 -4.4445214e-06 -0.00020749882
0.0 -9.2754335e-06 -1.0853297e-06 -1.5626078e-08 2.1252847e-05 -2.952284e-07 -1.1872141e-05 -0.000109465924
-9.146825e-07 -8.168603e-06 -6.849801e-08 -0.00038079044 -1.3707129e-05 -1.2371396e-06 -0.0005492099 -1.7829687e-05
-0.0001372854 -2.649957e-08 -0.0007911881 3.2877505e-08 0.0 -0.0006852504 -0.00060482323 -0.0005671583
1.624951e-08 3.2995101e-06 -9.761309e-07 -6e-45 -0.00062438566 -1.34820874e-08 -1.7648823e-05 -3.8968636e-05
-0.00031679258 1.9828917e-07 2.3832301e-06 -0.00035328802 -9.172601e-05 -0.00036427367 -0.00016390914 -0.00027386486
-0.00032819447 -6.727492e-06 -2.1505273e-05 2.3075239e-07 3.5758413e-07 -1.3370662e-06 -0.000746254 -0.00023530662
-0.00014568272 -0.0003820089 -7.5641095e-05 -5.904609e-06 0.0 -1.5861999e-05 8.0406386e-07 -2.678319e-06
-9.532635e-06 -2.1544385e-05 -0.0003715426 -0.00028486963 -1.7702571e-06 -0.00024826202 3.452222e-05 -0.0008148103
-5.0271087e-06 -2.2395507e-06 7.0158035e-07 -0.00064748735 -4.2758766e-06 -0.00036001235 -7.552726e-08 -0.0005352715
2.382769e-07 4.7125678e-07 -2.270064e-13 -2.8598788e-06 -6e-45 -2.8016442e-22 -0.00026635165 -1.1739544e-05
5.514368e-05 -5.5891564e-07 -6.439454e-06 -0.0002985251 -0.00049739005 -5.7306075e-08 -0.0002936395 -0.0002823067
1.1073273e-06 4.1712046e-06 0.0 -1.5954405e-06 -6.572902e-10 4.2795954e-15 -0.00038162427 -1.3837919e-05
1.1241923e-05 6e-45 -0.00017715723 3.2901661e-07 -1.2191889e-07 -6e-45 -1.3415491e-14 -0.00037186375
00000000: ba26 dd17 fe5c 2f36 1135 d737 16c2 a335
00000010: fb67 13b2 3835 e9b1 1bf9 d034 d62a e32b
00000020: 0333 a235 221f 0334 a6b4 1334 0bf6 ca35
00000030: 74ac 9a37 8232 8637 717e 7336 2f4d d535
00000040: a226 0d37 f6d4 9a37 fa75 fd30 985a 8eb6
00000050: 0400 0080 0f17 d735 eaf0 1e36 1b20 b537
00000060: 0400 0080 4e16 f034 1a3b b030 4531 39aa
00000070: 2dbf 3037 d3d2 3d2c d66b 1836 d983 3433
00000080: 34fb d835 f161 db35 be5f 5933 bee6 1e37
00000090: 04a4 2435 2bef 7f36 efaa ef37 3e9c 8c35
000000a0: 4adc b1b6 0400 0080 d993 3338 1961 ad33
000000b0: 0400 0000 4f5c 9a37 cb1b ae37 2cb2 d037
000000c0: b42f 4034 1a55 b233 4047 4733 0400 0080
000000d0: 143f 0038 bf98 0bad 727b 0fb6 b252 8736
000000e0: 82ce dc36 ca04 acb2 4e7c 1935 6c30 f434
000000f0: 5444 c836 d2bb c237 d691 8736 1e2d 2737
00000100: 3c67 f637 3a8c ae33 b47d d436 9dd1 f132
00000110: dc1a eaab 7806 0624 4e9a 5538 c08a 5235
00000120: ab35 ceb5 3853 0e37 ee9b ce35 df5e dcb3
00000130: 17f0 2131 a384 7eb5 eee6 2b31 fcbf 4f34
00000140: 71c9 1eb5 dd76 8f35 bc90 5d37 731f 2337
00000150: 08d7 cf35 38fa 8f37 4853 0bb5 e3b0 4138
00000160: 563a f135 6d2b ed89 386b a433 35d7 2d37
00000170: 80b2 aa35 f63b c837 c8eb 4131 99d7 b237
00000180: ec07 9435 504f 81b3 cfdf e008 16ac ad35
00000190: 0400 0080 33e7 179b 70a3 f7b6 bf7d ea35
000001a0: 0a2b 6136 b0b8 9e96 6ccf ba34 3b17 db37
000001b0: e391 0838 f03d 39b1 bc20 c635 b6eb f737
000001c0: a668 af34 a308 78b5 0400 0080 1b16 8cb5
000001d0: 44b7 e62b f670 499c a7f1 dd37 d51d 1d36
000001e0: f6b6 37b2 0400 0000 0c8e 2337 5dc0 e80c
000001f0: 0400 0080 0400 0080 15e9 9aa7 925a 2137
00000200: 6c6c 0036 6cf6 07b7 1a7e f9b9 2eac d1b7
00000210: 4d3a c4a7 c2a1 63b5 a5b3 b235 f579 c5b5
00000220: 5917 e0b6 28dd 25b5 0b81 1eb5 69c0 2fb7
00000230: d2db c2b9 1370 08ba a09c 81b7 d4e1 4eb6
00000240: 9c6c 95b9 5e74 c1b9 2e7b 8932 4e15 b7b8
00000250: 0400 0000 42e9 afb7 2622 95b6 0a94 59b9
00000260: 0000 0000 af9d 1bb7 a5ab 91b5 1c3a 86b2
00000270: 2448 b237 e27f 9eb4 752e 47b7 1291 e5b8
00000280: 8188 75b5 e20b 09b7 2e19 93b3 d4a4 c7b9
00000290: acf7 65b7 cb0b a6b5 daf8 0fba f690 95b7
000002a0: 45f4 0fb9 2ca1 e3b2 bc67 4fba 3335 0d33
000002b0: 0000 0000 60a2 33ba 008d 1eba 59ad 14ba
000002c0: 0d95 8b32 276d 5d36 9a03 83b5 0400 0080
000002d0: d0ad 23ba d99e 67b2 8f0c 94b7 4172 23b8
000002e0: 2e17 a6b9 50e9 5434 95ef 1f36 8439 b9b9
000002f0: 075d c0b8 fcfb beb9 06df 2bb9 8595 8fb9
00000300: 8411 acb9 b7bc e1b6 3966 b4b7 bcc4 7734
00000310: fdf9 bf34 3f75 b3b5 42a0 43ba a4bc 76b9
00000320: 68c2 18b9 5e48 c8b9 81a1 9eb8 3520 c6b6
00000330: 0000 0000 620f 85b7 d9d6 5735 2cbd 33b6
00000340: 5bee 1fb7 37ba b4b7 9bcb c2b9 8e5a 95b9
00000350: 9299 edb5 2a29 82b9 f4cb 1038 fe98 55ba
00000360: 89ae a8b6 304b 16b6 3c54 3c35 24bc 29ba
00000370: 8079 8fb6 0ac0 bcb9 8d31 a2b3 7651 0cba
00000380: 0ed9 7f34 0a01 fd34 2496 7faa 58ec 3fb6
00000390: 0400 0080 5859 a99b 1da5 8bb9 f5f4 44b7
000003a0: 134a 6738 6408 16b5 7d12 d8b6 5c83 9cb9
000003b0: 4863 02ba b220 76b3 a0f3 99b9 9002 94b9
000003c0: 7a9f 9435 60f6 8b36 0000 0000 eb22 d6b5
000003d0: b0ac 34b0 4d30 9a27 be14 c8b9 6929 68b7
000003e0: b19b 3c37 0400 0000 48c3 39b9 b3a3 b034
000003f0: cfe8 02b4 0400 0080 08ac 71a8 b5f6 c2b9

momentum_buffer f4 [64]
0.00019941943 -0.0053137876 6e-45 0.0038572168 -0.01062692 6e-45 -1.40641e-40 6e-45
0.0027606476 -0.005655821 6e-45 6e-45 2.5248506e-11 -2.160791e-05 -2.612428e-07 2.000492e-07
-0.0003297822 0.0031132814 -6.124154e-05 -0.00011902861 0.0 -0.0068245484 0.0 0.0002229802
0.00025772784 0.00781689 0.0 0.015581167 -0.025536234 6e-45 0.0 -0.0012783804
0.02328605 6e-45 6e-45 4.0326937e-05 0.0067679277 0.0293349 0.0005982989 -6e-45
3.574488e-07 -0.0014805795 -1.04021e-40 0.00033008604 -6e-45 -4.429508e-05 -0.006123551 6e-45
-6.4455606e-05 0.0052874964 0.023710154 -2.744924e-07 -0.0038941149 -0.0018953998 0.01889552 0.014347542
0.0 -0.0026094615 0.014524428 6e-45 0.019250568 0.00088942837 0.01803258 1.3199248e-05
00000000: 3f1b 5139 481f aebb 0400 0000 5cc9 7c3b
00000010: 881c 2ebc 0400 0000 0d88 0180 0400 0000
00000020: fbeb 343b 7754 b9bb 0400 0000 0400 0000
00000030: 9516 de2d a242 b5b7 f040 8cb4 1bcd 5634
00000040: 9ee6 acb9 3208 4c3b cd6e 80b8 009f f9b8
00000050: 0000 0000 76a0 dfbb 0000 0000 cbcf 6939
00000060: a51f 8739 6a12 003c 0000 0000 2748 7f3c
00000070: 5d31 d1bc 0400 0000 0000 0000 548f a7ba
00000080: 63c2 be3c 0400 0000 0400 0000 b824 2938
00000090: 7ec5 dd3b bf4f f03c 29d7 1c3a 0400 0080
000000a0: 64e7 bf34 0110 c2ba f821 0180 660f ad39
000000b0: 0400 0080 7bc9 39b8 12a8 c8bb 0400 0000
000000c0: 572c 87b8 bc42 ad3b cc3b c23c f35d 93b4
000000d0: 6834 7fbb 106f f8ba c7ca 9a3c f411 6b3c
000000e0: 0000 0000 8003 2bbb def7 6d3c 0400 0000
000000f0: 5eb3 9d3c 8728 693a 10b9 933c 5772 5d37

momentum_buffer f4 [5, 64]
-1.5255417e-06 0.00019693971 -6e-45 0.0007354218 -5.5168814e-05 6e-45 -2.0065e-41 -6e-45
7.300276e-05 0.00047252796 -6e-45 6e-45 6.9441236e-13 -3.7635964e-06 -1.5001261e-09 4.3812576e-09
-7.1434188e-06 0.0006898609 1.6001251e-06 0.0005076815 0.0 -0.0003414738 0.0 -1.9671932e-05
-8.747527e-05 0.000107592095 0.0 0.00025751023 0.0006760405 -6e-45 0.0 2.3924076e-05
0.0011956657 -6e-45 -6e-45 -7.069812e-06 0.0007155159 0.000115447096 -9.419648e-06 -6e-45
2.353119e-09 3.983292e-05 -2.515e-42 2.1327205e-06 -6e-45 2.6113952e-07 0.00043339998 -6e-45
-1.203511e-05 -0.00024168639 0.00033722902 4.264192e-09 0.0012531525 0.0004711758 0.00011580651 0.0007592344
0.0 2.5932888e-05 0.0006725798 6e-45 0.00018785539 -8.346754e-05 0.000610777 -1.2517881e-06
-4.4477947e-06 -3.8782433e-05 -6e-45 0.0041078115 0.0057052076 6e-45 -1.5256e-41 -6e-45
0.00020246203 0.008401919 -6e-45 -6e-45 -9.62052e-13 -2.7963257e-08 -1.5001506e-09 4.3812576e-09
-7.8298135e-06 0.008863743 -1.6943106e-06 0.00048207244 0.0 0.0007722162 0.0 1.5895594e-05
8.758827e-05 0.0030807392 0.0 0.0050316565 0.0069681117 6e-45 0.0 1.3589205e-06
0.011905995 -6e-45 6e-45 7.0731394e-06 0.006284103 0.006175439 -1.0652731e-05 -6e-45
2.353119e-09 -0.00023620171 5.63e-43 3.4505672e-06 6e-45 1.0130622e-06 0.008068098 -6e-45
-1.20393015e-05 0.0031640003 0.0062060235 -3.892079e-09 0.010378648 0.0073079076 0.008522661 0.003947687
0.0 0.00016368754 0.0066834306 -6e-45 4.3690834e-05 0.00010253382 0.0080582565 -7.7073514e-07
-1.0752421e-05 2.7534974e-05 -6e-45 0.002821044 0.003521752 -6e-45 -2.0065e-41 6e-45
-0.00032244457 0.0050239777 -6e-45 -6e-45 9.62052e-13 -3.8336324e-08 1.5001251e-09 -4.3812576e-09
-7.1457703e-06 0.0061763725 -1.6938033e-06 -0.00022803232 0.0 -0.00012726389 0.0 -2.054488e-05
-9.196064e-05 0.0018150328 0.0 0.0036220576 0.0038172193 -6e-45 0.0 2.028332e-05
0.00698912 -6e-45 -6e-45 -6.508204e-06 0.0042303167 0.0031150277 1.479288e-05 -6e-45
2.353119e-09 -8.317001e-06 -2.515e-42 -3.827308e-06 -6e-45 -2.30286e-07 0.0044419267 -6e-45
-1.196016e-05 0.0016527844 0.0028662812 -4.7763082e-09 0.00677925 0.0044370466 0.006136545 0.002786681
0.0 -7.080717e-05 0.004280357 -6e-45 0.00019187333 -0.00016827055 0.004550321 1.3733745e-06
-5.084703e-06 0.00037728317 6e-45 -0.005197646 -0.006131285 -6e-45 -1.5256e-41 -6e-45
8.591043e-06 -0.0092008775 -6e-45 6e-45 -9.62052e-13 -2.7963257e-08 -1.5001521e-09 -4.375465e-09
-7.2062953e-06 -0.009089027 1.7313107e-06 6.322167e-06 0.0 -0.0006686826 0.0 1.8628734e-05
8.118785e-05 -0.0030362867 0.0 -0.00559288 -0.00839085 6e-45 0.0 -2.1528545e-05
-0.012830444 -6e-45 6e-45 5.1589645e-06 -0.006795072 -0.0073004174 -2.6568136e-05 6e-45
-2.353119e-09 2.7615237e-05 5.63e-43 -3.573634e-06 6e-45 -1.802184e-07 -0.008075232 6e-45
-1.2035109e-05 -0.0031038413 -0.0071730963 -7.74953e-09 -0.011267715 -0.008630236 -0.009317544 -0.004303315
0.0 -0.00014201668 -0.0065860394 -6e-45 -0.00016277458 5.344627e-05 -0.008288375 -1.251694e-06
00000000: 37c1 ccb5 9a81 4e39 0400 0080 52c9 403a
00000010: 1065 67b8 0400 0000 ef37 0080 0400 0080
00000020: 0f19 9938 a1bd f739 0400 0080 0400 0000
00000030: af75 432b 1892 7cb6 ff2c ceb0 f389 9631
00000040: 80b1 efb6 c8d7 343a e1c3 d635 ee15 053a
00000050: 0000 0000 d607 b3b9 0000 0000 2705 a5b7
00000060: ee72 b7b8 11a3 e138 0000 0000 7002 8739
00000070: 4f38 313a 0400 0080 0000 0000 90b0 c837
00000080: e2b7 9c3a 0400 0080 0400 0080 3939 edb6
00000090: 7691 3b3a 301c f238 1509 1eb7 0400 0080
000000a0: 82b4 2131 4612 2738 0307 0080 dc1f 0f36
000000b0: 0400 0080 be32 8c34 f639 e339 0400 0080
000000c0: 67ea 49b7 326d 7db9 1dce b039 3b84 9231
000000d0: d240 a43a 2508 f739 26dd f238 5c07 473a
000000e0: 0000 0000 748a d937 1150 303a 0400 0000
000000f0: 0cfb 4439 4b0b afb8 8d1c 203a 1d03 a8b5
00000100: 443e 95b6 52aa 22b8 0400 0080 d29a 863b
00000110: c0f2 ba3b 0400 0000 872a 0080 0400 0080
00000120: fd4b 5439 34a8 093c 0400 0080 0400 0080
00000130: 9465 87ab da33 f0b2 db2d ceb0 f389 9631
00000140: cb5c 03b7 3c39 113c 1268 e3b5 abbe fc39
00000150: 0000 0000 8d6e 4a3a 0000 0000 8757 8537
00000160: 98af b738 3ae6 493b 0000 0000 98e0 a43b
00000170: c254 e43b 0400 0000 0000 0000 2764 b635
00000180: 5d11 433c 0400 0080 0400 0000 ce55 ed36
00000190: e0ea cd3b 565b ca3b 22b9 32b7 0400 0080
000001a0: 82b4 2131 eaac 77b9 9201 0000 4b90 6736
000001b0: 0400 0000 8df8 8735 0e30 043c 0400 0080
000001c0: 68fc 49b7 1e5b 4f3b e65b cb3b 17bb 85b1
000001d0: 340b 2a3c 2c77 ef3b a2a2 0b3c 995b 813b
000001e0: 0000 0000 8aa3 2b39 ae00 db3b 0400 0080
000001f0: ad40 3738 6d07 d738 c706 043c 84e4 4eb5
00000200: 4c65 34b7 e8fa e637 0400 0080 44e1 383b
00000210: 32cd 663b 0400 0080 ef37 0080 0400 0000
00000220: c70d a9b9 2ea0 a43b 0400 0080 0400 0080
00000230: 9465 872b 3ca7 24b3 f62c ce30 f389 96b1
00000240: b3c5 efb6 2b63 ca3b a356 e3b5 f61b 6fb9
00000250: 0000 0000 2472 05b9 0000 0000 cb57 acb7
00000260: feda c0b8 65e6 ed3a 0000 0000 0b60 6d3b
00000270: 502a 7a3b 0400 0080 0000 0000 1926 aa37
00000280: fd04 e53b 0400 0080 0400 0080 0c61 dab6
00000290: 789e 8a3b 7e25 4c3b f02e 7837 0400 0080
000002a0: 82b4 2131 3f89 0bb7 0307 0080 536c 80b6
000002b0: 0400 0080 8944 77b4 958d 913b 0400 0080
000002c0: 7fa8 48b7 3ea2 d83a 38d8 3b3b da1c a4b1
000002d0: 7924 de3b a564 913b 1215 c93b c0a0 363b
000002e0: 0000 0000 4f7e 94b8 3d42 8c3b 0400 0080
000002f0: 9b31 4939 c871 30b9 dc1a 953b ca54 b835
00000300: 449d aab6 17ce c539 0400 0000 0451 aabb
00000310: f2e8 c8bb 0400 0080 872a 0080 0400 0080
00000320: 4022 1037 47bf 16bc 0400 0080 0400 0000
00000330: 9465 87ab da33 f0b2 e92d ceb0 ff56 96b1
00000340: 9bcd f1b6 24ea 14bc 625f e835 0023 d436
00000350: 0000 0000 884a 2fba 0000 0000 e744 9c37
00000360: 6543 aa38 70fc 46bb 0000 0000 7a44 b7bb
00000370: c779 09bc 0400 0000 0000 0000 3398 b4b7
00000380: c836 52bc 0400 0080 0400 0000 2b1b ad36
00000390: 32a9 debb 5738 efbb a3de deb7 0400 0000
000003a0: 82b4 21b1 45a7 e737 9201 0000 91d2 6fb6
000003b0: 0400 0000 0e82 41b4 fa4d 04bc 0400 0000
000003c0: 66ea 49b7 d169 4bbb 4b0c ebbb cb22 05b2
000003d0: 399c 38bc d565 0dbc 9da8 18bc d302 8dbb
000003e0: 0000 0000 50ea 14b9 b4cf d7bb 0400 0080
000003f0: 78ae 2ab9 7f2b 6038 f7cb 07bc e1ff a7b5

momentum_buffer f4 [5]
0.0071850345 0.10032076 0.06384433 -0.107694216 -0.11835356
00000000: 7070 eb3b f874 cd3d d1c0 823d c98e dcbd
00000010: 5a63 f2bd

conv1.weight f4 [10, 5, 4]
-0.025310818 0.12094547 -0.044220604 0.00010122138 0.12240859 -0.014325284 -0.08226572 0.096431464
0.21680513 0.17092912 0.03630302 -0.04597478 -0.19892952 0.08634421 0.07241733 -0.007845125
-0.095204435 0.03545152 0.19724512 0.07626979 -0.20404541 0.12176361 0.05937849 -0.078250796
-0.03583745 -0.086155586 -0.0025767442 -0.06776849 -0.07133154 0.03562063 -0.044444546 -0.20671202
0.18294455 -0.08225137 -0.08930616 -0.007084208 0.021663247 0.0028818322 -0.06276477 0.08800778
-0.15327242 -0.16032438 0.1426383 0.16138166 0.08962447 0.16674027 -0.064472415 -0.20284282
-0.03858174 0.11039579 -0.051790673 -0.19527093 0.15689875 0.10892392 0.16098952 0.0027888725
-0.20219085 -0.18760215 -0.025867883 0.20092814 -0.14517948 0.03471705 -0.08548218 0.07561575
0.14246464 -0.007757327 0.016736275 0.1109562 -0.14559062 -0.082980484 0.097469 0.008409562
-0.07760124 -0.16548419 -0.16147801 -0.19641306 0.20629504 -0.113915585 0.032040603 -0.066917986
0.07039538 -0.1375503 0.13868253 -0.17726621 0.008295041 0.12262481 -0.08183261 -0.12346534
-0.14130488 -0.16904525 -0.017920414 0.16693048 -0.06948205 -0.09960503 0.10838132 -0.07844956
0.116603084 -0.13731477 0.05477631 0.020452444 0.16969423 0.13811518 0.02026192 -0.12993932
-0.009069552 0.06428476 0.1435165 -0.04151968 0.10214821 -0.20168899 0.20553336 0.093857996
-0.19301674 0.11036618 -0.11706776 -0.05159527 -0.051289175 0.029733429 0.007823565 0.16711825
0.0642762 0.17462815 -0.081553444 -0.08620517 -0.02031511 -0.20836589 0.16939817 -0.053831004
-0.124761805 0.18295476 0.12008062 -0.04038686 0.16781518 0.06936664 -0.005599088 -0.17595772
-0.07909518 -0.116412535 -0.16593555 0.16673979 -0.06591224 -0.039495688 -0.14113015 -0.17529827
-0.1566778 0.1060131 0.1505362 -0.18678342 -0.10564117 -0.08112278 -0.018288651 -0.11647867
0.1697672 -0.21781418 0.09548223 -0.021277515 0.018760037 0.045150027 0.1943928 0.1526863
-0.1780149 0.015588027 -0.20260791 -0.17660026 -0.21056105 0.019571567 0.07612872 0.042602498
0.0089857 -0.05511808 0.12925752 -0.15993652 0.09098559 0.08157902 -0.075793654 0.19530429
0.21433973 -0.034905367 -0.15822658 0.09163221 0.1047801 0.17265604 0.018072885 0.0467322
-0.1885424 0.10470368 0.07355344 -0.0002713688 -0.06655172 -0.02061582 0.09698031 0.039041776
0.017449645 -0.14020078 -0.1241488 -0.10096272 -0.01878128 0.08195691 -0.122870184 0.111528255
00000000: a258 cfbc 42b2 f73d aa20 35bd d146 d438
00000010: 5bb1 fa3d 99b4 6abc ee7a a8bd dc7d c53d
00000020: 2a02 5e3e 0b08 2f3e 7ab2 143d 0d50 3cbd
00000030: 2eb4 4bbe 3cd5 b03d 8a4f 943d d788 00bc
00000040: 8bfa c2bd 9d35 113d a0fa 493e 5633 9c3d
00000050: 48f1 50be 335f f93d dc36 733d f441 a0bd
00000060: 4aca 12bd 5772 b0bd 98de 28bb 35ca 8abd
00000070: 4516 92bd f0e6 113d 7c0b 36bd 51ac 53be
00000080: d155 3b3e 6873 a8bd 26e6 b6bd a522 e8bb
00000090: 1f77 b13c 1fdd 3c3b d18a 80bd 6c3d b43d
000000a0: 72f3 1cbe 132c 24be c60f 123e 3c41 253e
000000b0: 098d b73d f6bd 2a3e 1d0a 84bd 07b6 4fbe
000000c0: e307 1ebd 3017 e23d 7522 54bd 1af5 47be
000000d0: 11aa 203e 8113 df3d 70da 243e 84c5 363b
000000e0: 1e0b 4fbe c71a 40be e2e8 d3bc 1bc0 4d3e
000000f0: eea9 14be 7733 0e3d 4811 afbd 6edc 9a3d
00000100: 40e2 113e 2d31 febb 831a 893c 013d e33d
00000110: b515 15be acf1 a9bd d49d c73d 42c8 093c
00000120: 66ed 9ebd b074 29be 7e5a 25be 8120 49be
00000130: 023f 533e 934c e9bd 023d 033d 4c0c 89bd
00000140: 742b 903d fcd9 0cbe cb02 0e3e 4685 35be
00000150: ece7 073c b722 fb3d db97 a7bd 65db fcbd
00000160: 3ab2 10be 331a 2dbe d5cd 92bc d3ef 2a3e
00000170: 9b4c 8ebd b9fd cbbd 07f7 dd3d 2aaa a0bd
00000180: 99cd ee3d 3e9c 0cbe 205d 603d e28b a73c
00000190: 53c4 2d3e 116e 0d3e 53fc a53c d00e 05be
000001a0: 7598 14bc baa7 833d fdf5 123e 8a10 2abd
000001b0: 1533 d13d 8f87 4ebe 5677 523e 9f38 c03d
000001c0: 2ea6 45be aa07 e23d 39c1 efbd 9055 53bd
000001d0: 9914 52bd 8593 f33c 692e 003c 0c21 2b3e
000001e0: 3ea3 833d b9d1 323e 7e05 a7bd 568c b0bd
000001f0: e06b a6bc de5d 55be b776 2d3e e67d 5cbd
00000200: 1e83 ffbd 7e58 3b3e d4ec f53d b16c 25bd
00000210: bed7 2b3e 1910 8e3d 8e78 b7bb 432e 34be
00000220: a7fc a1bd b269 eebd 02eb 29be d6bd 2a3e
00000230: fffc 86bd 3bc6 21bd 6c84 10be 6481 33be
00000240: 2570 20be 651d d93d 2926 1a3e 2744 3fbe
00000250: 665a d8bd b323 a6bd 15d2 95bc 5e8c eebd
00000260: 74d7 2d3e ae0a 5fbe 308c c33d 2f4e aebc
00000270: a6ae 993c 3cef 383d e80e 473e cc59 1c3e
00000280: 8a49 36be ed64 7f3c 7378 4fbe b3d6 34be
00000290: 519d 57be 8d54 a03c 60e9 9b3d f57f 2e3d
000002a0: c238 133c 7fc3 61bd 155c 043e 66c6 23be
000002b0: a756 ba3d e712 a73d b439 9bbd d9fd 473e
000002c0: e07b 5b3e eef8 0ebd 2606 22be aba9 bb3d
000002d0: f396 d63d bfcc 303e 960d 943c 436a 3f3d
000002e0: 4211 41be e26e d63d 30a3 963d 8146 8eb9
000002f0: 454c 88bd 82e2 a8bc 9d9d c63d 45ea 1f3d
00000300: 8ff2 8e3c cb90 0fbe ba41 febd 8bc5 cebd
00000310: 33db 99bc 06d9 a73d 5da3 fbbd ed68 e43d

conv1.bias f4 [10]
-0.052130774 -0.1547368 -0.06483864 0.23451385 -0.15532075 0.07024654 -0.056977645 -0.17034625
0.010356276 0.12305877
00000000: 1487 55bd 5373 1ebe 1fca 84bd 6624 703e
00000010: 670c 1fbe 6bdd 8f3d 6461 69bd 3f6f 2ebe
00000020: 5fad 293c 3d06 fc3d

conv2.weight f4 [10, 10, 4]
-0.04603047 0.11214452 0.02892687 -0.096945204 -0.1388269 0.063596055 -0.059250485 0.007524999
0.032490112 -0.043809846 -0.0936778 -0.060016166 -0.034329448 0.0952895 0.0871902 -0.048798636
0.09310157 0.06552931 0.119459674 0.006372055 -0.15281075 -0.16144729 -0.094301544 -0.09691387
-0.04892529 0.108304255 0.13576618 -0.011450142 -0.10506173 0.056648992 -0.056998923 0.034497242
-0.07537176 0.10476423 -0.09860085 -0.08317566 0.09269505 -0.14453125 -0.076813325 0.022916358
-0.035797913 0.12136748 -0.020126969 -0.15070511 0.12287855 -0.08888218 0.01264197 -0.12687741
0.08814803 -0.024504118 -0.025859358 0.061339594 0.14889097 0.118157566 0.097809255 0.07261224
0.07933804 0.006003038 -0.080069095 0.119090155 -0.10141813 0.018680736 0.029864019 -0.051520564
0.1508604 -0.07507019 0.05913619 0.13033868 -0.09846294 0.038973376 0.09964391 -0.009066511
0.11432982 -0.15255305 0.13268839 0.13017598 -0.14180678 0.066689916 -0.06663032 -0.005929546
0.11060254 -0.07398454 -0.099759676 -0.0748777 0.13794723 0.0011655145 -0.0726432 -0.08318016
0.004206277 0.08127495 0.045945656 -0.042483233 0.08502996 0.03378021 -0.057973564 -0.14557062
-0.13787045 0.06816274 0.114368506 -0.13567343 -0.08773262 -0.03404343 0.014096962 -0.14436184
-0.11485392 -0.14301951 -0.10931937 -0.12684998 0.046480432 0.12193526 0.11229114 0.11167453
-0.14589368 -0.120640025 0.1557895 0.072731055 0.14782013 0.08817455 0.0035795798 -0.111442044
-0.060506564 -0.14173591 -0.118939385 -0.04054349 0.057349656 0.13009167 0.12276132 -0.009290162
-0.129235 -0.06979612 0.041353602 0.05537095 -0.056972064 0.116273545 0.023529634 -0.10476641
0.1309038 0.066830024 -0.078247204 0.0011424037 0.029131204 -0.14629118 -0.13441637 -0.029710602
0.11825241 -0.0058546485 -0.10009109 0.065562665 -0.13309774 -0.0071846913 -0.10300951 -0.058646657
-0.10125784 -0.14010623 0.10913644 0.022025261 -0.09898277 0.08446302 -0.1593484 0.1302918
-0.032924805 -0.002057428 -0.052487925 0.042053726 0.00032858123 -0.06500696 -0.14506799 -0.027601311
-0.1550861 -0.12176728 -0.024907317 0.11302936 -0.09157052 -0.12980326 -0.12657805 0.08237153
-0.10745222 0.12047291 -0.0249995 -0.12103521 0.057740554 -0.13199371 -0.043835327 0.05521159
0.12595248 0.061895262 0.04618054 0.13171896 0.11503784 -0.1248883 0.06739202 0.077420086
-0.14383143 0.088804916 0.079327546 -0.07091664 0.06660186 -0.025419489 -0.12831165 -0.033658724
0.11491656 -0.12151498 0.13253886 -0.09304061 -0.08667287 0.10038625 0.097419545 0.012949842
-0.14158621 0.13047762 -0.14467205 0.030233184 -0.111814916 -0.044080455 0.04876026 0.0068416423
-0.12781774 -0.01768057 0.10614889 0.117286704 -0.037371077 0.09553547 0.08236185 -0.16270967
-0.06645682 0.08357283 -0.054913756 -0.0559949 -0.13732836 0.06636001 0.02033401 0.1092837
0.010835694 -0.05594812 -0.06146653 0.10725666 -0.12937513 0.07556464 0.009215515 0.067751996
0.07533959 -0.028573595 0.023877092 -0.021520387 0.06184165 0.10164224 -0.032921046 -0.0111275995
-0.11471667 0.104129136 -0.11323146 0.11209604 0.11234349 -0.05466229 -0.08465678 -0.1580273
00000000: 728a 3cbd 07ac e53d 0bf8 ec3c 358b c6bd
00000010: a428 0ebe a63e 823d a3b0 72bd 4494 f63b
00000020: 5a14 053d f471 33bd 25da bfbd 83d3 75bd
00000030: 099d 0cbd 2427 c33d c790 b23d 14e1 47bd
00000040: 09ac be3d 3b34 863d 46a7 f43d accc d03b
00000050: 6c7a 1cbe 7052 25be 2b21 c1bd c77a c6bd
00000060: e365 48bd 9fce dd3d 4a06 0b3e 6099 3bbc
00000070: 9b2a d7bd c608 683d b477 69bd fb4c 0d3d
00000080: 825c 9abd a18e d63d 3eef c9bd 0058 aabd
00000090: e7d6 bd3d 0000 14be 4e50 9dbd 16bb bb3c
000000a0: d5a0 12bd 838f f83d 50e1 a4bc 7152 1abe
000000b0: c0a7 fb3d dc07 b6bd 4420 4f3c 27ec 01be
000000c0: f486 b43d dcbc c8bc 01d7 d3bc 3a3f 7b3d
000000d0: e076 183e 98fc f13d 3850 c83d bab5 943d
000000e0: fb7b a23d 22b5 c43b 44fb a3bd 8ae5 f33d
000000f0: 4fb4 cfbd 5808 993c 63a5 f43c 3a07 53bd
00000100: 267b 1a3e 66be 99bd ca38 723d 8177 053e
00000110: f0a6 c9bd 8ca2 1f3d 1b12 cc3d b48b 14bc
00000120: c125 ea3d de36 1cbe 77df 073e da4c 053e
00000130: cc35 11be b994 883d 7a75 88bd a34c c2bb
00000140: 9683 e23d 3585 97bd cd4e ccbd 7b59 99bd
00000150: 0a42 0d3e 2dc4 983a f5c5 94bd 5c5a aabd
00000160: cfd4 893b 7b73 a63d 8331 3c3d e602 2ebd
00000170: 3024 ae3d 1e5d 0a3d b075 6dbd 7710 15be
00000180: e92d 0dbe e898 8b3d 093a ea3d faed 0abe
00000190: 29ad b3bd 2071 0bbd f2f6 663c 97d3 13be
000001a0: 8838 ebbd b573 12be d5e2 dfbd f6e4 01be
000001b0: 4462 3e3d 32b9 f93d e6f8 e53d 9eb5 e43d
000001c0: 2765 15be 1e12 f7bd 4887 1f3e 05f4 943d
000001d0: 295e 173e dc94 b43d 6297 6a3b ba3b e4bd
000001e0: bbd5 77bd 3823 11be 7e96 f3bd ee10 26bd
000001f0: 79e7 6a3d c036 053e 496a fb3d c335 18bc
00000200: 2e56 04be 45f1 8ebd 6562 293d a6cc 623d
00000210: 8a5b 69bd d320 ee3d 38c1 c03c c68f d6bd
00000220: a50b 063e 2ede 883d 1240 a0bd b5bc 953a
00000230: 90a4 ee3c 5bcd 15be 72a4 09be a663 f3bc
00000240: 522e f23d 5ad8 bfbb 8ffc ccbd b845 863d
00000250: c64a 08be 8f6d ebbb a6f6 d2bd 7a37 70bd
00000260: 4560 cfbd 0278 0fbe ed82 df3d 526e b43c
00000270: 7bb7 cabd f3fa ac3d 3a2c 23be 376b 053e
00000280: 29dc 06bd ead5 06bb 94fd 56bd 8740 2c3d
00000290: 6d45 ac39 5e22 85bd b48c 14be 251c e2bc
000002a0: e4ce 1ebe 2061 f9bd 6e0a ccbc f07b e73d
000002b0: 5389 bbbd 25eb 04be ad9d 01be 68b2 a83d
000002c0: e90f dcbd 80ba f63d c0cb ccbc 4fe1 f7bd
000002d0: 5c81 6c3d 5c29 07be ac8c 33bd 8c25 623d
000002e0: b0f9 003e e385 7d3d ce27 3d3d 56e1 063e
000002f0: f698 eb3d 70c5 ffbd d404 8a3d 6c8e 9e3d
00000300: 8c48 13be 5adf b53d 7b76 a23d be3c 91bd
00000310: 8e66 883d 883c d0bc 2164 03be bbdd 09bd
00000320: 6059 eb3d d9dc f8bd 44b8 073e 138c bebd
00000330: 8c81 b1bd 4e97 cd3d e683 c73d 932b 543c
00000340: fafb 10be ed9b 053e e924 14be 95ab f73c
00000350: 38ff e4bd b58d 34bd d7b8 473d db2f e03b
00000360: a7e2 02be d8d6 90bc 9764 d93d 0334 f03d
00000370: 6a12 19bd 1aa8 c33d 54ad a83d 5d9d 26be
00000380: 831a 88bd 3b28 ab3d 3fed 60bd e95a 65bd
00000390: ce9f 0cbe c2e7 873d 8293 a63c 22d0 df3d
000003a0: 3288 313c db29 65bd 54c4 7bbd 61a9 db3d
000003b0: ea7a 04be a2c1 9a3d acfc 163c 8fc1 8a3d
000003c0: a54b 9a3d 2c13 eabc e499 c33c 864b b0bc
000003d0: ac4d 7d3d cf29 d03d 38d8 06bd 8950 36bc
000003e0: 93f0 eabd a841 d53d e5e5 e7bd 9c92 e53d
000003f0: 5814 e63d 91e5 5fbd 8960 adbd e9d1 21be

conv2.bias f4 [10]
-0.021423602 0.10529396 -0.111309975 -0.17254181 -0.06101293 -0.11842251 0.007626579 -0.05294902
-0.128368 -0.06795234
00000000: 8d80 afbc 5ca4 d73d 7cf6 e3bd cdae 30be
00000010: b2e8 79bd 8087 f2bd 62e8 f93b 12e1 58bd
00000020: e772 03be 992a 8bbd
