tb_logs/ConvNet_1_0_0/version_0/checkpoints/epoch=7.ckpt (torch_old, 211091 bytes, 20 tensors)

momentum_buffer f4 [10, 5, 4]
-5.7775076e-05 1.9653984e-05 -0.0003740596 0.00053160056 -1.7466482e-07 -8.5921274e-05 -1.1550579e-05 -0.00030276983
-6.664442e-05 -5.005236e-05 -7.295254e-06 0.0006005384 -7.450608e-05 -5.307085e-05 -6.6154695e-05 0.0002136501
-5.8581154e-05 -2.8574423e-05 -3.46916e-05 -5.3271004e-05 0.0005297957 0.0005844771 0.0003563742 -0.00036352407
-0.0001788401 0.00047324598 0.0002744514 -4.9106227e-05 -0.0001874285 0.00038456832 -3.4543536e-05 -5.161608e-05
-3.2720116e-05 9.060085e-05 -3.613833e-05 -3.5679088e-05 -3.4842917e-05 -3.0035208e-06 -3.4843153e-05 -3.178636e-05
-0.00010547381 -0.00011029641 -0.00029028632 0.00018622582 -0.00010547381 -0.00010547381 5.764049e-05 0.00017268097
-0.00010547381 -0.00010547381 8.206117e-05 0.00018837418 -0.00010547381 -0.00010547381 -0.00010531628 7.904988e-06
-0.00010547381 -0.00010547381 -0.00010547381 -0.00011546349 7.704528e-06 -0.00050198974 1.2189637e-05 0.00020130335
7.704528e-06 -0.00015811964 7.5707476e-06 0.00021225889 7.704528e-06 -0.00013667502 7.704528e-06 0.00025249016
7.704528e-06 -0.00015637353 7.704528e-06 0.000201924 7.704528e-06 3.6422316e-05 7.704528e-06 1.4894804e-06
0.00052459 0.00014155413 9.516992e-05 0.00029279687 -0.00025271636 0.00017333112 0.00012240506 0.0007809758
-9.4588344e-05 0.00018525838 -3.7455775e-05 0.00034022657 -8.949013e-05 0.00016309865 -3.421815e-05 0.0001241158
-3.747707e-05 5.3650474e-06 -3.4057124e-05 -2.1407159e-06 0.0007723856 0.00041335422 0.00022206342 0.0008021967
0.0006520852 -8.271211e-05 5.036102e-06 0.0002598875 -5.0830353e-05 -0.00031157988 2.4725588e-05 0.00020162581
-5.133118e-05 -9.435054e-05 3.839193e-05 -3.3117805e-05 -5.1720646e-05 -5.174678e-05 -5.1316143e-05 -5.174678e-05
0.00030497275 3.2905584e-05 -0.00031567444 0.00022488448 0.00031086677 -1.477449e-05 2.3598488e-05 0.00019761204
0.00034399136 -1.6334168e-05 2.2922923e-05 0.00022388971 -3.6449015e-05 1.0746075e-05 2.0625765e-05 0.00017037778
1.5934265e-05 1.1141103e-05 2.0701642e-05 6.907687e-06 0.00034582696 0.00013531 -0.0005500258 0.0004480776
-1.3671688e-06 0.00023657209 -1.3671761e-06 0.0006562355 -1.3671761e-06 -6.179689e-07 -1.3671761e-06 -7.748138e-06
-1.3671761e-06 -1.3671761e-06 -1.3671761e-06 -6.7812107e-06 -1.3671761e-06 -1.3671761e-06 -1.3671761e-06 -9.562373e-06
8.407792e-05 0.00038988015 -0.00028316773 0.00077472726 0.00029075632 0.00031962697 0.00031368923 -0.00014545768
0.00026185464 4.2638512e-05 0.0001177835 -0.00015342102 0.000104482526 7.4703705e-05 2.8114682e-05 -8.036922e-05
8.913768e-06 -1.8147024e-05 -4.5862053e-06 -9.850642e-06 0.0009246559 -0.00021012135 0.00077481446 0.00048368316
1.0830972e-06 -0.00012574582 -0.00010474297 0.0005261126 2.9597726e-05 -0.00012469609 -9.417086e-05 -8.254348e-05
7.9553385e-05 -0.00013135375 -9.4377756e-05 -8.676175e-05 -6.046575e-05 -0.000109280416 -8.8117944e-05 -8.5383086e-05
00000000: 8453 72b8 9cde a437 6e1d c4b9 1c5b 0b3a
00000010: 808b 3bb4 a230 b4b8 5cc9 41b7 14bd 9eb9
00000020: 73c3 8bb8 50ef 51b8 c1c9 f4b6 736d 1d3a
00000030: 2640 9cb8 6498 5eb8 88bc 8ab8 4307 6039
00000040: 09b5 75b8 1bb3 efb7 d281 11b8 4e6f 5fb8
00000050: fde1 0a3a 9837 193a bcd7 ba39 6097 beb9
00000060: 0687 3bb9 001e f839 3ee4 8f39 69f7 4db8
00000070: 7488 44b9 e39f c939 d7e2 10b8 587e 58b8
00000080: f53c 09b8 f600 be38 3d93 17b8 21a6 15b8
00000090: 4c24 12b8 1890 49b6 8d24 12b8 5852 05b8
000000a0: d231 ddb8 ef4e e7b8 9231 98b9 9d45 4339
000000b0: d231 ddb8 d231 ddb8 01c3 7138 b211 3539
000000c0: d231 ddb8 d231 ddb8 4118 ac38 4f86 4539
000000d0: d231 ddb8 d231 ddb8 3fdd dcb8 aa9f 0437
000000e0: d231 ddb8 d231 ddb8 d231 ddb8 fd24 f2b8
000000f0: b242 0137 f697 03ba 1882 4c37 f514 5339
00000100: b242 0137 ebcc 25b9 3a08 fe36 d091 5e39
00000110: b242 0137 6c50 0fb9 b242 0137 a860 8439
00000120: b242 0137 33f8 23b9 b242 0137 90bb 5339
00000130: b242 0137 2ac4 1838 b242 0137 28ea c735
00000140: a484 093a 266e 1439 f695 c738 8882 9939
00000150: 047f 84b9 38c0 3539 dc59 0039 66ba 4c3a
00000160: bb5d c6b8 eb41 4239 d519 1db8 7060 b239
00000170: a6ac bbb8 7605 2b39 7585 0fb8 1525 0239
00000180: b330 1db8 6805 b436 8fd8 0eb8 38a9 0fb6
00000190: ec79 4a3a 77b7 d839 b2d9 6839 824a 523a
000001a0: b2f0 2a3a ba75 adb8 c9fb a836 8341 8839
000001b0: ad32 55b8 8b5b a3b9 cc69 cf37 846b 5339
000001c0: 6f4c 57b8 0fde c5b8 0507 2138 f9e7 0ab8
000001d0: 9fee 58b8 af0a 59b8 4a3c 57b8 af0a 59b8
000001e0: c0e4 9f39 1a04 0a38 1b81 a5b9 f8ce 6b39
000001f0: d5fb a239 f4df 77b7 5ef5 c537 1436 4f39
00000200: bd59 b439 5c05 89b7 9a4a c037 f0c3 6a39
00000210: d5e0 18b8 0a4a 3437 7e05 ad37 70a7 3239
00000220: 93aa 8537 acea 3a37 70a8 ad37 94c8 e736
00000230: 1c50 b539 00e2 0d39 9b2f 10ba f5eb ea39
00000240: 907f b7b5 5610 7839 d07f b7b5 3807 2c3a
00000250: d07f b7b5 80e2 25b5 d07f b7b5 00fe 01b7
00000260: d07f b7b5 d07f b7b5 d07f b7b5 288a e3b6
00000270: d07f b7b5 d07f b7b5 d07f b7b5 146e 20b7
00000280: fd52 b038 d468 cc39 2176 94b9 1117 4b3a
00000290: a770 9839 9b93 a739 a876 a439 0086 18b9
000002a0: 8949 8939 c1d6 3238 8902 f738 a4df 20b9
000002b0: a11d db38 3faa 9c38 d2d7 eb37 e58b a8b8
000002c0: 588c 1537 703a 98b7 34e3 99b6 2f44 25b7
000002d0: 9b64 723a 0554 5cb9 eb1c 4b3a db96 fd39
000002e0: f05e 9135 a3da 03b9 74a9 dbb8 d2ea 093a
000002f0: a248 f837 dac0 02b9 987d c5b8 321b adb8
00000300: e6d5 a638 01bc 09b9 acec c5b8 dcf3 b5b8
00000310: 9b9c 7db8 7a2d e5b8 f6cb b8b8 b20f b3b8

momentum_buffer f4 [10]
0.00011343464 0.0001383195 0.00041871011 -3.058544e-05 0.00014739524 0.00020542447 -6.464188e-05 5.427348e-06
2.9908715e-05 0.00035142672
00000000: c2e3 ed38 dc09 1139 5286 db39 de48 00b8
00000010: 1c8e 1a39 3667 5739 5890 87b8 901c b636
00000020: 7ae4 fa37 b23f b839

momentum_buffer f4 [10, 10, 4]
7.765471e-05 0.00019579551 7.601768e-05 1.6145306e-05 3.970671e-05 -4.0957602e-06 3.7567082e-05 6.203895e-05
1.6221631e-05 7.597108e-06 2.4939789e-05 7.58365e-06 3.3023658e-05 3.9618677e-05 4.7432135e-05 1.0863897e-05
7.835353e-05 0.00012415515 0.00013436821 5.2133393e-05 3.7298e-05 6.979463e-05 0.00011977852 3.9986196e-05
-1.1206296e-06 5.0495517e-05 4.9912633e-05 3.7465559e-06 2.6011492e-05 2.77275e-05 -1.4218747e-06 -8.873516e-06
2.8375429e-05 7.716935e-05 2.8468252e-05 0.00015627233 -3.2612686e-06 1.2746813e-05 4.496253e-05 4.8623813e-05
6.444381e-06 0.00010502516 0.00027396748 -0.00011256624 0.00021753418 -5.3844804e-08 1.5073507e-05 0.000108633736
-0.00021965825 -0.00021124484 -0.00012009981 -0.00016169183 -1.8877554e-06 8.118854e-07 0.00012715017 -6.1807236e-07
1.5921367e-05 4.7759917e-05 0.00017245833 -5.0074055e-07 0.00019637462 0.00035826705 -7.971394e-07 0.00021625328
4.812282e-05 2.811637e-06 4.8840197e-05 7.741103e-06 -4.2159594e-05 -0.00014652473 -3.5079494e-05 -7.453752e-05
0.00011193176 1.0255928e-05 3.445921e-05 0.00018214993 4.7393638e-05 8.236386e-06 -6.6861577e-07 1.7680266e-05
1.8688337e-05 0.00011393128 0.00027306433 1.5410216e-05 0.0001599056 7.731484e-05 5.288553e-06 -2.3504232e-07
6.7837714e-06 1.22954725e-05 6.2703046e-05 2.7086448e-05 3.6914924e-05 2.6643336e-06 1.8155574e-06 -1.4780173e-09
2.51066e-06 1.9638373e-06 0.00031238285 2.7347808e-06 7.630562e-05 6.759669e-05 0.00018311621 -5.3082026e-06
1.24418775e-05 8.333919e-05 0.00022527753 -1.0484199e-06 8.05227e-06 1.0249102e-05 2.2644728e-05 9.183257e-06
0.0001137376 0.00014487213 9.462535e-05 -8.435565e-06 1.0688034e-05 7.340021e-05 0.00020073965 5.24772e-07
0.00033529248 0.00022745326 -0.00034500723 0.00037622135 -0.00031049614 0.000100023535 0.0001439676 -6.8715235e-05
0.00028634415 -0.000101200145 -0.00021024032 -0.0001650426 -1.9026762e-05 4.9056434e-05 9.404613e-06 9.3315e-06
-7.2103e-05 3.773694e-05 -3.841122e-05 0.0001588499 9.90212e-05 -0.00020784503 -0.00018224824 -4.941148e-05
-7.258296e-05 -3.6084097e-05 -8.4635874e-05 7.015762e-05 -0.00013537573 4.206734e-05 -0.00015943032 -0.00016810928
-0.00057643396 2.907961e-05 0.00015371563 -5.5915025e-05 -0.00035476498 -5.560818e-06 -3.1357216e-05 -5.5767894e-05
-5.1325085e-05 0.000220482 -4.0431307e-05 0.00018815827 8.438122e-05 7.374596e-05 0.00024796757 3.8323997e-05
0.00035487724 0.00037576567 -0.00026115632 -0.0002389 -9.472765e-06 -9.725045e-08 -3.688711e-05 -5.154917e-06
0.00045828643 1.8502866e-05 0.00023145851 -3.7539965e-05 0.00023968138 0.000118870594 6.227486e-05 0.00013171279
0.00014667484 -0.0001390875 -0.00013413391 2.195979e-05 0.0001638122 6.454203e-05 0.00028542997 -0.00013446518
0.00023985918 -0.00046297887 4.5639055e-05 -2.3995875e-05 0.00030836306 -0.00029354566 4.8757935e-05 -0.0001101788
4.4783603e-05 0.00023301168 7.0370836e-05 8.5947315e-05 0.00012040735 9.140383e-05 4.707093e-06 0.00023434735
1.0663013e-05 2.587011e-05 4.778246e-06 4.4248034e-05 -2.7120262e-07 0.00013025002 1.4858131e-05 7.70122e-05
1.44145415e-05 0.00026036252 -1.0083422e-05 0.00027840518 0.00023553542 9.905573e-05 9.547335e-05 0.00013200328
5.620073e-05 3.5265843e-05 4.2013133e-05 2.9039744e-05 6.837074e-05 1.4412603e-05 2.479519e-07 3.960437e-05
0.00036121247 0.00016277128 0.00026217834 0.00032078943 0.000103506354 1.1038362e-05 8.456041e-05 5.4277916e-05
-0.00020182635 -0.00027167826 0.00012611382 0.00013930433 3.246402e-05 0.00024681728 -9.834607e-05 0.000110776935
0.00025294855 0.00011837903 -7.315109e-05 5.025582e-06 6.97532e-05 -2.0076463e-06 6.5494634e-05 -6.465664e-05
00000000: 8eda a238 754e 4d39 ae6b 9f38 c86f 8737
00000010: c18a 2638 506e 89b6 5991 1d38 e81a 8238
00000020: b013 8837 a9ea fe36 ca35 d137 0f77 fe36
00000030: e282 0a38 3b2c 2638 def1 4638 1544 3637
00000040: bb51 a438 a52f 0239 31e5 0c39 cea9 5a38
00000050: 6c70 1c38 b55e 9238 9a31 fb38 dab6 2738
00000060: 8a68 96b5 26cb 5338 4859 5138 576d 7b36
00000070: 4133 da37 5a98 e837 3ed7 beb5 76df 14b7
00000080: c507 ee37 fbd5 a138 1bcf ee37 09dd 2339
00000090: 2bdc 5ab6 25db 5537 2696 3c38 6cf1 4b38
000000a0: d03c d836 f440 dc38 4ba3 8f39 8a11 ecb8
000000b0: e319 6439 fd42 67b3 38e4 7c37 4bd2 e338
000000c0: 1054 66b9 9b81 5db9 18de fbb8 d28b 29b9
000000d0: c85e fdb5 57f0 5935 9d53 0539 9ce9 25b5
000000e0: e08e 8537 d251 4838 eed5 3439 a16a 06b5
000000f0: e9e9 4d39 cad5 bb39 01fb 55b5 0cc2 6239
00000100: 7cd7 4938 8eaf 3c36 c3d9 4c38 c9df 0137
00000110: 85d4 30b8 6fa4 19b9 5222 13b8 0751 9cb8
00000120: e8bc ea38 e010 2c37 4c88 1038 80ff 3e39
00000130: 88c8 4638 022f 0a37 ed7a 33b5 1550 9437
00000140: e6c4 9c37 64ee ee38 132a 8f39 3045 8137
00000150: 55ac 2739 1724 a238 5374 b136 f15f 7cb4
00000160: 27a0 e336 a748 4e37 717f 8338 b437 e337
00000170: 19d5 1a38 e7cc 3236 14ae f335 1c23 cbb0
00000180: cf7c 2836 78ca 0336 51c7 a339 2d87 3736
00000190: 4506 a038 b2c2 8d38 e202 4039 1d1d b2b6
000001a0: 75bd 5037 63c6 ae38 7a38 6c39 6fb7 8cb5
000001b0: 3c18 0737 8ff3 2b37 2ff5 bd37 ca11 1a37
000001c0: 6986 ee38 d1e8 1739 9971 c638 7a86 0db7
000001d0: c250 3337 70ee 9938 a47d 5239 0fde 0c35
000001e0: 32ca af39 8580 6e39 16e2 b4b9 933f c539
000001f0: 16ca a2b9 bac3 d138 02f6 1639 361b 90b8
00000200: 7620 9639 6a3b d4b8 f573 5cb9 490f 2db9
00000210: a99b 9fb7 f2c1 4d38 81c8 1d37 7d8e 1c37
00000220: 0136 97b8 bb47 1e38 bc1b 21b8 f290 2639
00000230: 9aa9 cf38 faf0 59b9 e419 3fb9 2c3f 4fb8
00000240: ae37 98b8 0159 17b8 8a7e b1b8 9621 9338
00000250: a5f3 0db9 7671 3038 c02c 27b9 7e46 30b9
00000260: d41b 17ba fdef f337 ba2e 2139 4d86 6ab8
00000270: c0ff b9b9 1097 bab6 8e85 03b8 52e8 69b8
00000280: e445 57b8 3031 6739 c994 29b8 5a4c 4539
00000290: d3f5 b038 10a8 9a38 a501 8239 14be 2038
000002a0: d10e ba39 6a02 c539 cfeb 88b9 3b81 7ab9
000002b0: 37ed 1eb7 00d8 d0b3 3cb7 1ab8 66f8 acb6
000002c0: 2a46 f039 9a36 9b37 acb3 7239 3b74 1db8
000002d0: fb52 7b39 2a4a f938 9099 8238 621c 0a39
000002e0: bacc 1939 04d8 11b9 4ca6 0cb9 4a36 b837
000002f0: 01c5 2b39 bd5a 8738 c3a5 9539 39ff 0cb9
00000300: b582 7b39 f9bb f2b9 906c 3f38 c04a c9b7
00000310: caab a139 08e7 99b9 6f81 4c38 cb0f e7b8
00000320: 07d6 3b38 9954 7439 0e94 9338 9d3e b438
00000330: 3483 fc38 0fb0 bf38 9ff1 9d36 23bb 7539
00000340: 4be5 3237 a303 d937 d254 a036 f796 3938
00000350: ce99 91b4 b993 0839 3047 7937 9c81 a138
00000360: fcd5 7137 4481 8839 f82b 29b7 e9f6 9139
00000370: 0ffa 7639 24bc cf38 dd38 c838 5c6a 0a39
00000380: 13b9 6b38 69ea 1338 4237 3038 609a f337
00000390: 4362 8f38 a9cd 7137 401e 8534 de1c 2638
000003a0: 1e61 bd39 95ad 2a39 fb74 8939 a12f a839
000003b0: 8d11 d938 6731 3937 0656 b138 78a8 6338
000003c0: 59a1 53b9 0a70 8eb9 6c3d 0439 3912 1239
000003d0: fa29 0838 4167 8139 253f ceb8 ea50 e838
000003e0: 2e9e 8439 4242 f838 b168 99b8 6ca1 a836
000003f0: 7748 9238 1abb 06b6 2a5a 8938 4598 87b8

momentum_buffer f4 [10]
0.00024641663 3.7944497e-05 0.00033613053 7.558038e-05 0.0005129918 0.0007296293 -0.0001402988 0.00016659037
0.00041654074 0.0008607012
00000000: 7b31 8139 9826 1f38 ad3a b039 e880 9e38
00000010: 4c7a 063a 9844 3f3a 2c1d 13b9 c3ae 2e39
00000020: 2763 da39 aea0 613a

momentum_buffer f4 [128, 130]
-6.9290115e-07 -9.34814e-06 4.1848616e-06 -2.315399e-06 4.6657638e-06 1.64794e-06 6.819709e-06 -2.2104225e-06
3.5645353e-06 -2.2844024e-06 7.541728e-06 1.5968533e-06 4.7103126e-06 -1.604859e-05 -1.3536163e-05 -2.614243e-06
3.0139518e-07 -7.2960433e-06 4.7035765e-06 -1.2715002e-06 -3.6624215e-07 -1.0392298e-05 4.825001e-07 -4.497656e-06
7.620877e-06 -3.0528286e-06 -6.105024e-07 -8.348364e-06 -2.320232e-06 -5.5093296e-06 -2.804985e-06 -3.863211e-06
3.5753137e-06 -7.0924602e-06 -6.5549507e-06 -1.2032025e-05 1.8497083e-05 -3.6825788e-06 6.261958e-06 2.904897e-06
-0.000112064576 -5.3324286e-05 -3.9714716e-05 7.5920543e-06 -3.112662e-05 5.4231088e-05 -0.00010313159 -3.5785153e-05
8.4131636e-05 -8.411415e-05 -9.158424e-05 9.925441e-05 -6.91296e-05 -9.987943e-05 -7.4346404e-05 -0.00015308685
-0.00013653256 -4.9645576e-05 -0.00015116093 -6.620961e-05 -8.53675e-05 -9.274052e-05 -7.9424935e-05 8.645683e-05
-0.00026836945 -1.6150421e-05 -2.2833186e-05 -1.3490135e-05 8.098051e-06 -1.1581047e-05 2.2872082e-06 -1.4116863e-05
-4.330431e-06 -7.0150527e-06 -2.3392217e-06 -1.3086289e-05 6.027159e-07 -1.2240383e-05 -7.629144e-05 -0.00017640687
-8.344796e-05 -0.00019853601 -4.1439343e-05 -4.3462933e-05 -3.1589298e-05 -0.0001930007 5.564274e-06 -9.700854e-05
-2.397137e-05 -0.00016534925 -0.00012850124 -8.873191e-06 -4.091791e-06 4.6675586e-06 -4.229795e-06 3.823476e-06
-1.024513e-06 -2.5452339e-06 -1.9555489e-07 -1.9800975e-06 -3.0411877e-06 5.487387e-06 2.1538885e-06 1.8183384e-06
9.436684e-06 6.659956e-05 -2.9743824e-05 -2.0177322e-05 -7.390515e-05 -1.0684438e-05 -7.022995e-05 6.9762e-05
-4.382321e-05 -5.405971e-05 -3.656761e-05 -8.255028e-05 9.482537e-06 -7.749753e-06 -3.149653e-07 -1.0235715e-05
-7.186994e-06 -1.5016276e-05 -5.685865e-06 -6.0866287e-06 -1.4159149e-05 -1.1501907e-05 -4.0309374e-07 1.0764086e-05
-2.276256e-07 2.9113296e-06 -2.4226898e-07 -9.81366e-07 1.4104808e-06 -6.044421e-07 3.507335e-06 7.036625e-07
3.1444506e-06 2.7341272e-07 3.0969231e-06 6.0025076e-07 1.3783656e-06 5.552593e-07 9.4407915e-07 -3.3779127e-06
-2.4351061e-06 -9.284389e-07 -1.308764e-06 -1.5385765e-06 2.4978624e-07 -1.4914522e-06 -1.4063087e-06 -3.0546987e-06
-4.6089343e-07 -3.1213908e-06 -1.0399505e-06 -2.2715033e-06 -2.1607143e-06 -1.7791735e-06 -9.3123333e-07 -1.8317395e-06
-7.4269695e-07 -1.1890971e-06 6.6905113e-07 -2.1896317e-06 -2.830548e-06 -2.4049361e-06 3.8724275e-07 -1.1532376e-06
-6.121159e-07 -2.6408195e-05 -7.735376e-05 -4.4494263e-05 3.7894533e-06 -1.4341342e-05 -2.9193481e-05 -3.0698975e-05
-2.11417e-05 -6.9848385e-05 -2.9848416e-05 -7.026669e-05 -4.7963986e-05 -2.9946093e-05 -6.109552e-05 -5.7078287e-05
-6.696178e-05 -0.00011015458 -8.3301864e-05 -6.785987e-05 -5.786658e-05 -0.000119904835 -0.000104396386 -0.00012413536
-6.361027e-05 -6.7465335e-05 -0.00014046775 2.3580715e-06 -1.341927e-06 8.052789e-08 4.601325e-06 -1.0764476e-06
1.0344537e-06 -9.850098e-07 -8.685494e-07 9.542769e-07 7.416533e-07 -1.8042832e-06 1.9691763e-06 -2.3432386e-07
-4.9735227e-05 -6.77618e-05 -6.212613e-05 -9.072619e-05 -8.560174e-05 -6.3099025e-05 -5.5441244e-05 -0.00010674756
-6.3164385e-05 -5.664889e-05 -7.334126e-05 -9.78746e-05 -0.0001307635 -5.6475506e-07 -1.1470944e-06 1.6995818e-06
-6.202087e-07 1.9325857e-06 -7.665594e-07 -4.9130335e-07 1.3383075e-07 2.8292337e-07 -5.5149974e-07 -1.4332859e-07
4.5188918e-07 -8.354375e-07 -2.6918595e-05 -3.586778e-06 4.32259e-06 -2.3395834e-05 -1.3250878e-05 3.3242562e-05
1.4651796e-06 1.3976798e-05 -4.181386e-05 -3.4011377e-05 -1.8050134e-05 7.556122e-06 2.0893774e-05 -4.0630388e-07
4.6881905e-06 -2.271564e-06 -3.0625415e-07 -2.466848e-06 1.3938204e-06 -1.0578369e-06 -9.54022e-06 -2.2212947e-07
00000000: ceff 39b5 f5d5 1cb7 b06b 8c36 4062 1bb6
00000010: 9b8e 9c36 ca2e dd35 dbd4 e436 c556 14b6
00000020: 4036 6f36 bc4d 19b6 f30e fd36 7653 d635
00000030: 470d 9e36 16a0 86b7 6119 63b7 5a70 2fb6
00000040: 70cf a134 89d0 f4b6 6ad3 9d36 6aa8 aab5
00000050: f09f c4b4 945a 2eb7 2885 0135 92ea 96b6
00000060: d6b6 ff36 32df 4cb6 68e1 23b5 f30f 0cb7
00000070: 48b5 1bb6 c8dc b8b6 463d 3cb6 bba0 81b6
00000080: 6cef 6f36 c5fb edb6 99f2 dbb6 27dd 49b7
00000090: 2f2a 9b37 3922 77b6 cf1d d236 c0f1 4236
000000a0: 3604 ebb8 84a8 5fb8 5a93 26b8 40bf fe36
000000b0: f48d 02b8 3076 6338 5a48 d8b8 0418 16b8
000000c0: d46f b038 7166 b0b8 ea10 c0b8 ce26 d038
000000d0: acf9 90b8 5c76 d1b8 6cea 9bb8 f085 20b9
000000e0: 2e2a 0fb9 883a 50b8 f480 1eb9 04da 8ab8
000000f0: 5407 b3b8 b07d c2b8 f090 a6b8 2850 b538
00000100: f0b3 8cb9 c47a 87b7 e589 bfb7 b053 62b7
00000110: dddc 0737 384c 42b7 f07d 1936 77d7 6cb7
00000120: 1e4e 91b6 d862 ebb6 86fb 1cb6 2f8d 5bb7
00000130: 52ca 2135 0b5c 4db7 a8fe 9fb8 dcf9 38b9
00000140: c800 afb8 1b2e 50b9 28cf 2db8 f84b 36b8
00000150: c07e 04b8 3b60 4ab9 c0b4 ba36 1071 cbb8
00000160: 2016 c9b7 9a61 2db9 4abe 06b9 11de 14b7
00000170: 384c 89b6 069e 9c36 aaed 8db6 694b 8036
00000180: 0082 89b5 c9ce 2ab6 b8f9 51b4 d1e1 04b6
00000190: 3517 4cb6 4c20 b836 868b 1036 a20d f435
000001a0: 4052 1e37 5eab 8b38 6082 f9b7 7842 a9b7
000001b0: 86fd 9ab8 5041 33b7 6b48 93b8 304d 9238
000001c0: d0ce 37b8 2cbe 62b8 2c60 19b8 d81e adb8
000001d0: 3017 1f37 f004 02b7 8018 a9b4 10ba 2bb7
000001e0: cf27 f1b6 6aee 7bb7 35c9 beb6 be3b ccb6
000001f0: 158d 6db7 50f8 40b7 c868 d8b4 6697 3437
00000200: 4069 74b4 4360 4336 3211 82b4 7bb7 83b5
00000210: c04f bd35 f240 22b5 8e5f 6b36 52e3 3c35
00000220: 4005 5336 8fc9 9234 bcd4 4f36 eb20 2135
00000230: 4800 b935 210d 1535 a06c 7d35 19b0 62b6
00000240: ce6a 23b6 d639 79b5 caa8 afb5 1681 ceb5
00000250: 5c1a 8634 e82d c8b5 66c0 bcb5 53ff 4cb6
00000260: b670 f7b4 1679 51b6 6d94 8bb5 2170 18b6
00000270: ca00 11b6 f0cb eeb5 def9 79b5 17da f5b5
00000280: bf5d 47b5 1199 9fb5 d898 3335 96f1 12b6
00000290: 72f4 3db6 7d64 21b6 3de6 cf34 f1c8 9ab5
000002a0: 4950 24b5 2b87 ddb7 fc38 a2b8 5a9f 3ab8
000002b0: 504e 7e36 989b 70b7 86e4 f4b7 c6c2 00b8
000002c0: 7459 b1b7 917b 92b8 fc62 fab7 245c 93b8
000002d0: f02c 49b8 bf34 fbb7 6820 80b8 5867 6fb8
000002e0: d56d 8cb8 ca02 e7b8 59b2 aeb8 fe4f 8eb8
000002f0: c4b5 72b8 6b75 fbb8 62ef dab8 552a 02b9
00000300: 8166 85b8 2d7c 8db8 864a 13b9 5c3f 1e36
00000310: 431c b4b5 adee ac33 1565 9a36 757a 90b5
00000320: 8fd7 8a35 ae34 84b5 4326 69b5 b414 8035
00000330: 0716 4735 b32a f2b5 3126 0436 749a 7bb4
00000340: cb9a 50b8 571b 8eb8 b649 82b8 4144 beb8
00000350: 1685 b3b8 0854 84b8 9589 68b8 a9dd dfb8
00000360: 1f77 84b8 489a 6db8 cace 99b8 0742 cdb8
00000370: 8f1d 09b9 ac99 17b5 ddf5 99b5 301d e435
00000380: 6b7c 26b5 92b1 0136 90c5 4db5 1ce2 03b5
00000390: 1eb3 0f34 b1e4 9734 c60a 14b5 dde5 19b4
000003a0: 2d9b f234 d442 60b5 3ecf e1b7 60b4 70b6
000003b0: c40a 9136 2c42 c4b7 1650 5eb7 ee6d 0b38
000003c0: 30a7 c435 e47d 6a37 4a61 2fb8 70a7 0eb8
000003d0: 5e6a 97b7 988a fd36 0a45 af37 fb21 dab4
000003e0: 404f 9d36 2c71 18b6 406b a4b4 208c 25b6
000003f0: 4e13 bb35 00fb 8db5 ef0e 20b7 7c82 6eb4

momentum_buffer f4 [128]
-0.00045813422 -0.00031897557 2.2554973e-06 -0.00018812918 -0.00026325736 3.8566464e-05 6e-45 0.0006877325
4.085743e-05 -0.0012515879 9.513772e-05 4.993006e-06 0.0001170464 -0.00014232163 2.570706e-06 2.9090716e-06
6.931268e-05 -0.0005038775 9.474396e-05 -4.810121e-05 0.0 -6e-45 6.4786786e-05 0.0002228697
8.284233e-05 1.5708936e-06 6.110448e-05 6.719084e-05 0.00027625944 6e-45 -0.0004974981 8.066007e-05
2.4225956e-05 0.00017550103 0.0007800278 -3.398806e-05 -2.029998e-05 -0.00024303078 7.4688e-05 0.00013848196
0.00017154384 0.0 0.00013182485 -1.3512281e-06 -4.0955e-40 -0.00016934982 6e-45 -5.788352e-06
6e-45 -6e-45 -0.0010309641 2.2603666e-05 6.8999674e-05 -3.1327065e-05 8.81479e-05 0.00011726518
6e-45 1.3372043e-05 -0.00080129923 7.803805e-07 -5.6894656e-05 3.502099e-05 2.637762e-05 -4.764379e-16
-0.0007367665 -0.00021289429 -7.7376906e-05 -1.028844e-05 5.9200647e-05 -8.393384e-07 -0.00060092844 1.4549122e-05
1.4240587e-07 0.00013296242 7.0242495e-05 -1.6777161e-05 9.120186e-05 -0.00026616655 -7.183442e-05 0.0004155201
1.1900956e-05 -1.130715e-05 0.00021654707 1.6089689e-05 -0.00049715146 -6e-45 0.00013186905 -5.6753024e-06
0.00036134903 6e-45 -0.0003017299 8.0995706e-05 0.0011063277 4.7708727e-05 0.00028610555 0.0004894342
0.0005154736 -1.5828131e-05 0.0003814685 -2.501416e-11 -0.0002554612 0.00017001369 6e-45 0.00013537463
4.5550743e-05 6.1165185e-05 0.001307357 -2.971523e-05 -3.3327407e-05 0.00021288959 5.983957e-05 -6.820422e-06
-0.0001412166 0.00050011836 8.542805e-12 0.00029766993 -6e-45 6e-45 1.817925e-05 4.8039055e-07
9.683156e-08 0.00012788466 -0.0004225301 0.0 0.0001237956 -0.00024135226 3.7985133e-15 4.932522e-09
00000000: bc31 f0b9 2d3c a7b9 265d 1736 8b44 45b9
00000010: ce05 8ab9 6dc2 2138 0400 0000 f248 343a
00000020: 555e 2b38 520c a4ba ad84 c738 9889 a736
00000030: cf76 f538 2c3c 15b9 6584 2c36 7839 4336
00000040: f65b 9138 a616 04ba 47b1 c638 48c0 49b8
00000050: 0000 0000 0400 0080 24de 8738 21b2 6939
00000060: a3bb ad38 7ed7 d235 3825 8038 cfe8 8c38
00000070: ead6 9039 0400 0000 886a 02ba 0c28 a938
00000080: d838 cb37 b306 3839 c87a 4c3a 678e 0eb8
00000090: e049 aab7 14d6 7eb9 d1a1 9c38 7835 1139
000000a0: 73e0 3339 0000 0000 773a 0a39 d85b b5b5
000000b0: a975 0480 7f93 31b9 0400 0000 9139 c2b6
000000c0: 0400 0000 0400 0080 6a21 87ba 019d bd37
000000d0: ebb3 9038 2e65 03b8 0bdc b838 44ec f538
000000e0: 0400 0000 7d58 6037 480e 52ba 577b 5135
000000f0: 2ca2 6eb8 80e3 1238 8245 dd37 e952 09a6
00000100: 9023 41ba 603c 5fb9 6945 a2b8 839c 2cb7
00000110: 364e 7838 e54e 61b5 a087 1dba 0118 7437
00000120: 3ae8 1834 d46b 0b39 274f 9338 aebc 8cb7
00000130: a043 bf38 458c 8bb9 d0a5 96b8 2ada d939
00000140: 38aa 4737 d7b3 3db7 e910 6339 58f8 8637
00000150: 4553 02ba 0400 0080 5446 0a39 7a6e beb6
00000160: 7273 bd39 0400 0000 8031 9eb9 3ddc a938
00000170: 3302 913a db1a 4838 7000 9639 604d 003a
00000180: d920 073a a7c6 84b7 d6ff c739 e106 dcad
00000190: 6cef 85b9 b445 3239 0400 0000 5af3 0d39
000001a0: bd0d 3f38 cf45 8038 9f5b ab3a f844 f9b7
000001b0: 08c9 0bb8 1d3b 5f39 40fc 7a38 fbda e4b6
000001c0: 8b13 14b9 601a 033a 6049 162d 9510 9c39
000001d0: 0400 0080 0400 0000 a47f 9837 30f4 0035
000001e0: b7f1 cf33 c718 0639 0887 ddb9 0000 0000
000001f0: 21cf 0139 8113 7db9 1adb 8827 ec7a a931

momentum_buffer f4 [64, 128]
0.0001152981 0.000595449 2.0028722e-07 1.264679e-06 0.00013591167 -1.7193051e-06 6e-45 6.860393e-05
6.0608164e-07 6.119155e-05 -2.0468044e-05 5.1303175e-07 1.7845443e-06 0.00070785533 -4.1170328e-08 8.526677e-07
-5.793419e-06 -5.0366034e-05 -4.4776025e-06 -1.4098174e-06 0.0 6e-45 -1.4293493e-06 0.0005946968
4.735895e-06 1.8585196e-08 0.00028051966 7.1769027e-06 4.0040227e-06 -6e-45 0.00022799784 5.2269324e-06
0.0002505222 7.765526e-05 0.00046496105 3.55818e-06 -4.9326754e-06 0.000109610555 -2.1176475e-05 0.00044199353
3.1718424e-05 0.0 1.0904627e-08 2.7554588e-08 -1.897e-42 0.00015306205 6e-45 -2.5756885e-06
6e-45 -6e-45 -1.031904e-05 -3.0290434e-07 -4.3939026e-06 -8.739287e-07 4.7113836e-06 -6.8992254e-06
6e-45 9.3363106e-08 0.0005538261 -6.526725e-08 4.9335032e-08 5.9988736e-07 -1.255005e-05 6.4556404e-17
0.00023059227 0.00020345586 0.00027522375 -4.164672e-06 -2.9173452e-06 3.020846e-07 0.00022150853 -1.9736646e-07
4.527114e-09 1.34541215e-05 -1.2629292e-06 7.7566045e-07 3.7781695e-06 -1.8886572e-06 3.3821678e-05 7.6473516e-05
-4.5127877e-06 -6.385604e-07 2.3968485e-06 1.5901024e-06 0.00022891222 6e-45 0.00018780309 -1.2876458e-07
0.00015005528 6e-45 0.00040952332 -3.6645074e-06 0.00054222625 1.9902707e-06 -1.5378673e-05 0.00027620373
0.000119479606 -4.446777e-06 0.00021628357 4.7897217e-13 0.00017901373 -2.8299346e-06 -6e-45 0.0004626129
-1.2685632e-06 2.0462737e-06 0.00040652085 0.00029351897 2.8847232e-06 -3.9503553e-05 1.1732153e-06 -6.133147e-07
2.7592257e-06 0.00023884163 4.192701e-13 -1.8715206e-06 6e-45 -6e-45 8.796577e-07 8.40323e-09
-7.394052e-08 -3.5775275e-07 0.00022158529 0.0 -4.745777e-06 -2.9347552e-06 1.1954296e-16 2.2255692e-10
6e-45 6e-45 0.0 6e-45 6e-45 6e-45 0.0 6e-45
6e-45 0.0 0.0 6e-45 6e-45 6e-45 0.0 0.0
0.0 6e-45 6e-45 6e-45 0.0 0.0 6e-45 6e-45
6e-45 0.0 6e-45 6e-45 6e-45 0.0 6e-45 6e-45
6e-45 6e-45 6e-45 0.0 0.0 6e-45 0.0 0.0
0.0 0.0 6e-45 0.0 6e-45 6e-45 0.0 0.0
6e-45 6e-45 0.0 6e-45 6e-45 6e-45 6e-45 6e-45
0.0 0.0 6e-45 6e-45 6e-45 0.0 6e-45 0.0
6e-45 6e-45 6e-45 0.0 0.0 0.0 6e-45 0.0
0.0 0.0 6e-45 6e-45 6e-45 6e-45 6e-45 6e-45
6e-45 6e-45 6e-45 0.0 6e-45 0.0 0.0 0.0
6e-45 0.0 6e-45 6e-45 6e-45 6e-45 6e-45 6e-45
6e-45 0.0 6e-45 0.0 6e-45 6e-45 0.0 6e-45
6e-45 6e-45 6e-45 6e-45 0.0 6e-45 0.0 0.0
0.0 6e-45 6e-45 0.0 0.0 0.0 6e-45 0.0
6e-45 0.0 6e-45 0.0 6e-45 6e-45 6e-45 0.0
00000000: 32cc f138 e817 1c3a 880e 5734 0abe a935
00000010: 8383 0e39 e0c2 e6b5 0400 0000 74df 8f38
00000020: 9db1 2235 f753 8038 cab2 abb7 46b7 0935
00000030: 7a84 ef35 5e8f 393a 41d3 30b3 e1e2 6435
00000040: 1765 c2b6 1e40 53b8 503e 96b6 f538 bdb5
00000050: 0000 0000 0400 0000 11d8 bfb5 6de5 1b3a
00000060: 07e9 9e36 47a5 9f32 b612 9339 20d1 f036
00000070: 4b5a 8636 0400 0080 b412 6f39 0263 af36
00000080: 8558 8339 dada a238 04c6 f339 11c9 6e36
00000090: 5c83 a5b6 b8de e538 22a4 b1b7 5ebb e739
000000a0: 6609 0538 0000 0000 0f57 3b32 2eb1 ec32
000000b0: 4a05 0080 487f 2039 0400 0000 fed9 2cb6
000000c0: 0400 0000 0400 0080 f01f 2db7 db9e a2b4
000000d0: 566f 93b6 ec97 6ab5 7a16 9e36 e57f e7b6
000000e0: 0400 0000 e97e c833 a42e 113a 0d29 8cb3
000000f0: 71e4 5333 f207 2135 0e8e 52b7 60db 9424
00000100: 24cb 7139 c456 5539 e84b 9039 43be 8bb6
00000110: 9cc7 43b6 312e a234 be44 6839 aeeb 53b4
00000120: ea8c 9b31 03b9 6137 eb81 a9b5 fb36 5035
00000130: 758c 7d36 c47d fdb5 c0db 0d38 6860 a038
00000140: 8d6c 97b6 8969 2bb5 8bd9 2036 816b d535
00000150: 2808 7039 0400 0000 02ed 4439 8a42 0ab4
00000160: 2858 1d39 0400 0000 4ab5 d639 c2eb 75b6
00000170: 3024 0e3a 9790 0536 7301 81b7 70cf 9039
00000180: 2091 fa38 8635 95b6 2eca 6239 95d1 062b
00000190: a2b5 3b39 e8e9 3db6 0400 0080 da8a f239
000001a0: 8043 aab5 b752 0936 4e22 d539 73e3 9939
000001b0: 2b97 4136 9eb0 25b8 5f77 9d35 aaa2 24b5
000001c0: 232b 3936 9071 7a39 3007 ec2a f530 fbb5
000001d0: 0400 0000 0400 0080 9e21 6c35 cc5d 1032
000001e0: 3bc9 9eb3 2a11 c0b4 5959 6839 0000 0000
000001f0: ea3d 9fb6 b6f2 44b6 dbd2 0925 34b4 742f
00000200: 0400 0000 0400 0000 0000 0000 0400 0000
00000210: 0400 0000 0400 0000 0000 0000 0400 0000
00000220: 0400 0000 0000 0000 0000 0000 0400 0000
00000230: 0400 0000 0400 0000 0000 0000 0000 0000
00000240: 0000 0000 0400 0000 0400 0000 0400 0000
00000250: 0000 0000 0000 0000 0400 0000 0400 0000
00000260: 0400 0000 0000 0000 0400 0000 0400 0000
00000270: 0400 0000 0000 0000 0400 0000 0400 0000
00000280: 0400 0000 0400 0000 0400 0000 0000 0000
00000290: 0000 0000 0400 0000 0000 0000 0000 0000
000002a0: 0000 0000 0000 0000 0400 0000 0000 0000
000002b0: 0400 0000 0400 0000 0000 0000 0000 0000
000002c0: 0400 0000 0400 0000 0000 0000 0400 0000
000002d0: 0400 0000 0400 0000 0400 0000 0400 0000
000002e0: 0000 0000 0000 0000 0400 0000 0400 0000
000002f0: 0400 0000 0000 0000 0400 0000 0000 0000
00000300: 0400 0000 0400 0000 0400 0000 0000 0000
00000310: 0000 0000 0000 0000 0400 0000 0000 0000
00000320: 0000 0000 0000 0000 0400 0000 0400 0000
00000330: 0400 0000 0400 0000 0400 0000 0400 0000
00000340: 0400 0000 0400 0000 0400 0000 0000 0000
00000350: 0400 0000 0000 0000 0000 0000 0000 0000
00000360: 0400 0000 0000 0000 0400 0000 0400 0000
00000370: 0400 0000 0400 0000 0400 0000 0400 0000
00000380: 0400 0000 0000 0000 0400 0000 0000 0000
00000390: 0400 0000 0400 0000 0000 0000 0400 0000
000003a0: 0400 0000 0400 0000 0400 0000 0400 0000
000003b0: 0000 0000 0400 0000 0000 0000 0000 0000
000003c0: 0000 0000 0400 0000 0400 0000 0000 0000
000003d0: 0000 0000 0000 0000 0400 0000 0000 0000
000003e0: 0400 0000 0000 0000 0400 0000 0000 0000
000003f0: 0400 0000 0400 0000 0400 0000 0000 0000

momentum_buffer f4 [64]
0.0036731032 6e-45 -6e-45 -8.747435e-20 -0.0014796495 4.903214e-11 0.005918 0.0016999408
6e-45 6e-45 -8.3222985e-05 2.897083e-35 1.9283614e-05 0.005585366 -6e-45 -0.007241872
2.6209568e-06 0.010653049 6e-45 6e-45 -0.0061192187 6e-45 0.0015544631 -0.00048505655
4.621974e-12 0.009770494 -0.007183738 8.053884e-05 -0.0022557874 -0.0024353713 0.0005218815 4.2799098e-07
-0.0006060628 6e-45 -0.0025147009 -2.8563695e-08 -8.5543996e-07 6e-45 -6e-45 -0.0009917982
0.002483624 -0.008088422 0.0051711984 0.0 0.0 -0.006216074 -0.007901674 6e-45
-0.005686462 1.5500163e-07 0.005504807 4.0289793e-05 -0.00059854984 0.00015441576 3.6578904e-06 -0.002103023
-0.001585994 6e-45 2.248557e-05 -0.008392837 0.0012888236 -0.006109801 -0.0060193995 0.0013637221
00000000: 72b8 703b 0400 0000 0400 0080 008b ce9f
00000010: ccf0 c1ba 48a5 572e c8eb c13b 8cd0 de3a
00000020: 0400 0000 0400 0000 0088 aeb8 0d09 1a06
00000030: 3fc3 a137 7205 b73b 0400 0080 3a4d edbb
00000040: b2e3 2f36 208a 2e3c 0400 0000 0400 0000
00000050: ba83 c8bb 0400 0000 20bf cb3a 304f feb9
00000060: 0a9f a22c 6c14 203c 9065 ebbb f6e6 a838
00000070: d5d5 13bb c09a 1fbb e0ce 083a a2c6 e534
00000080: 30e0 1eba 0400 0000 aecd 24bb 3b5c f5b2
00000090: 63a1 65b5 0400 0000 0400 0080 3aff 81ba
000000a0: 4cc4 223b 4d85 04bc 2873 a93b 0000 0000
000000b0: 0000 0000 35b0 cbbb 0676 01bc 0400 0000
000000c0: 8055 babb 866e 2634 ab61 b43b d6fc 2838
000000d0: 00e8 1cba aaea 2139 147a 7536 dfd2 09bb
000000e0: 21e1 cfba 0400 0000 659f bc37 1c82 09bc
000000f0: beed a83a ba34 c8bb 623e c5bb ecbe b23a

momentum_buffer f4 [5, 64]
-0.0004852931 -6e-45 -6e-45 8.427341e-22 -0.00010451325 2.8109776e-12 -0.0010593003 -0.0011207191
6e-45 -6e-45 -0.00038864103 -5.948112e-36 -4.8044994e-06 0.00014478737 -6e-45 -0.00042202882
1.961202e-06 -0.0003873068 -6e-45 6e-45 -0.00050383946 6e-45 -0.0010170832 -0.00035169185
9.238248e-14 -0.0004654614 -0.00078735594 -2.247183e-06 -0.0009019172 -0.00048020843 -0.00021228322 -9.788514e-09
-4.7973463e-05 -6e-45 -0.00036529172 -4.92366e-09 5.0455277e-08 6e-45 -6e-45 -0.0002037622
-0.0009220429 -0.00022474583 -0.0006784294 0.0 0.0 -0.0005936527 -0.0002165779 6e-45
-9.418819e-05 -1.0621494e-09 8.10494e-06 1.0778676e-07 4.8724585e-05 2.7383226e-06 5.622564e-06 -0.00077390624
-0.00075337244 -6e-45 2.5149822e-07 -0.00030056317 -0.0006540953 -0.0003161314 -7.645876e-05 -0.00028540543
-0.0027794424 -6e-45 6e-45 -8.427341e-22 -0.0029605436 -2.8109793e-12 -0.0050597624 -0.006273026
6e-45 -6e-45 -0.0021138745 -5.948112e-36 4.0873038e-06 -0.00019411749 6e-45 -0.0022334682
1.7539163e-06 -0.002642614 6e-45 -6e-45 -0.0040831976 6e-45 -0.0030556442 -0.0012702822
9.238248e-14 -0.0012850212 -0.0018976354 -2.6923944e-06 -0.0041690087 -0.00055016275 -0.0010839342 9.786473e-09
-5.7468245e-05 -6e-45 -0.0029317532 -4.92366e-09 5.0454478e-08 6e-45 6e-45 -0.002384469
-0.004889474 -0.001564732 -0.005398956 0.0 0.0 -0.0024143725 -0.002099387 6e-45
-6.4103835e-05 1.0581849e-09 -1.2029299e-05 1.0778676e-07 -0.00018372135 9.162436e-07 1.98103e-06 -0.0025764047
-0.00480884 -6e-45 -1.436618e-07 -0.0029971593 -0.0050969576 -0.0031559635 -0.00019551296 -0.002233239
0.004553248 -6e-45 6e-45 -8.427341e-22 0.0039287535 -2.8109793e-12 0.007853436 0.009671499
-6e-45 -6e-45 0.003562545 5.948112e-36 -4.0491504e-06 0.0007987191 -6e-45 0.003589904
1.1426838e-06 0.0042522927 6e-45 -6e-45 0.0069019813 6e-45 0.0050150007 0.001878337
9.238248e-14 0.0014790446 0.0032199416 2.1726282e-06 0.006421336 0.0011368517 0.001436949 9.788514e-09
0.00047880263 6e-45 0.003833836 -4.92366e-09 -5.0454478e-08 6e-45 6e-45 0.0041588168
0.007934172 0.0022669039 0.0088866735 0.0 0.0 0.0042504277 0.0030023018 -6e-45
9.260385e-05 1.0607057e-09 1.444054e-05 1.0778676e-07 0.00045804377 2.309614e-06 1.9257895e-06 0.003395557
0.007867397 -6e-45 1.4366174e-07 0.0038806302 0.0075471047 0.0058288136 0.00045117486 0.002999844
0.0006650988 6e-45 -6e-45 -8.427341e-22 0.0008612953 -2.8179804e-12 0.0005622714 0.0011916187
6e-45 6e-45 0.00019712816 -5.948112e-36 4.049289e-06 -0.00015591859 6e-45 0.00017614273
7.524034e-07 5.8885416e-05 -6e-45 6e-45 0.0004944856 6e-45 0.0003212794 0.000121252524
-9.3784315e-14 -7.781549e-06 0.00029835902 -2.7396386e-06 0.0004687611 0.0004522141 0.00023714837 -9.788514e-09
0.00017441458 6e-45 5.725166e-05 -4.92366e-09 5.0454478e-08 6e-45 -6e-45 0.0004493067
0.00052405614 0.00014321275 0.00094081287 0.0 0.0 0.0007597866 0.00012366186 6e-45
-7.383968e-05 -1.0618404e-09 -1.1433754e-05 1.0778676e-07 -3.667234e-05 2.7947583e-06 -1.9887502e-06 0.00017870906
0.00079807674 -6e-45 2.5149822e-07 6.1845436e-05 0.0005547492 0.0006373627 4.421435e-05 0.00037479197
00000000: f06e feb9 0400 0080 0400 0080 65b3 7e1c
00000010: 202e dbb8 12ce 452c 38d8 8aba 18e5 92ba
00000020: 0400 0000 0400 0080 84c2 cbb9 3401 fd84
00000030: 5636 a1b6 10d2 1739 0400 0080 c043 ddb9
00000040: 329d 0336 700f cbb9 0400 0080 0400 0000
00000050: 1814 04ba 0400 0000 a64f 85ba 4863 b8b9
00000060: e006 d029 2c09 f4b9 9066 4eba 4fce 16b6
00000070: a46e 6cba 7cc4 fbb9 5898 5eb9 572a 28b2
00000080: 1d37 49b8 0400 0080 a084 bfb9 f92c a9b1
00000090: 2ab4 5833 0400 0000 0400 0080 00a9 55b9
000000a0: 40b5 71ba c0a9 6bb9 a0d8 31ba 0000 0000
000000b0: 0000 0000 5c9f 1bba 3019 63b9 0400 0000
000000c0: e686 c5b8 0ffb 91b0 74fa 0737 6678 e733
000000d0: a05d 4c38 06c4 3736 75a9 bc36 f8df 4aba
000000e0: f87d 45ba 0400 0080 a705 8734 e894 9db9
000000f0: 9877 2bba 70be a5b9 7c58 a0b8 78a2 95b9
00000100: 4e27 36bb 0400 0080 0400 0000 65b3 7e9c
00000110: ae05 42bb 1ace 45ac 5dcc a5bb f58d cdbb
00000120: 0400 0000 0400 0080 ee88 0abb 3401 fd84
00000130: ac25 8936 048c 4bb9 0400 0000 615f 12bb
00000140: 1b68 eb35 b52f 2dbb 0400 0000 0400 0080
00000150: 58cc 85bb 0400 0000 3441 48bb 997f a6ba
00000160: e006 d029 286e a8ba 14ba f8ba fcae 34b6
00000170: 2e9c 88bb cc38 10ba cc12 8eba 5d21 2832
00000180: 0f0a 71b8 0400 0080 a822 40bb f92c a9b1
00000190: 49b3 5833 0400 0000 0400 0000 c044 1cbb
000001a0: e137 a0bb b217 cdba bae9 b0bb 0000 0000
000001b0: 0000 0000 733a 1ebb df95 09bb 0400 0000
000001c0: 7c6f 86b8 926f 9130 72d1 49b7 6678 e733
000001d0: 53a5 40b9 c8f3 7535 d6f1 0436 e6d8 28bb
000001e0: 7993 9dbb 0400 0080 7441 1ab4 fd6b 44bb
000001f0: 6104 a7bb 48d4 4ebb 9c02 4db9 885b 12bb
00000200: 6a33 953b 0400 0080 0400 0000 65b3 7e9c
00000210: c6bc 803b 1ace 45ac b3ab 003c 3575 1e3c
00000220: 0400 0080 0400 0080 9679 693b 3401 fd04
00000230: f0dd 87b6 2261 513a 0400 0080 9844 6b3b
00000240: 515e 9935 d156 8b3b 0400 0000 0400 0080
00000250: 042a e23b 0400 0000 e054 a43b 8832 f63a
00000260: e006 d029 80dc c13a a805 533b 78cd 1136
00000270: 126a d23b 6a02 953a 0258 bc3a 572a 2832
00000280: cd07 fb39 0400 0000 1841 7b3b f92c a9b1
00000290: 49b3 58b3 0400 0000 0400 0000 af46 883b
000002a0: 54fe 013c 5690 143b 6999 113c 0000 0000
000002b0: 0000 0000 2c47 8b3b 44c2 443b 0400 0080
000002c0: 5034 c238 44c8 9130 a645 7237 6678 e733
000002d0: 9825 f039 defe 1a36 d03c 0136 fe87 5e3b
000002e0: 41e6 003c 0400 0080 7041 1a34 2c52 7e3b
000002f0: b44d f73b a2ff be3b aa8b ec39 0899 443b
00000300: 065a 2e3a 0400 0000 0400 0080 65b3 7e9c
00000310: 8dc8 613a 394c 46ac 6565 133a 1730 9c3a
00000320: 0400 0000 0400 0000 30b4 4e39 3401 fd84
00000330: 21df 8736 147e 23b9 0400 0000 f4b2 3839
00000340: c5f8 4935 bcfb 7638 0400 0080 0400 0000
00000350: 5ea0 013a 0400 0000 6471 a839 f448 fe38
00000360: fa2e d3a9 808d 02b7 126d 9c39 a2da 37b6
00000370: 0dc4 f539 2617 ed39 08ab 7839 572a 28b2
00000380: 0fe3 3639 0400 0000 8021 7038 f92c a9b1
00000390: 49b3 5833 0400 0000 0400 0080 ed90 eb39
000003a0: d060 093a 612b 1639 e2a0 763a 0000 0000
000003b0: 0000 0000 6a2c 473a 3aab 0139 0400 0000
000003c0: 60da 9ab8 30f0 91b0 99d3 3fb7 6678 e733
000003d0: a0d0 19b8 958d 3b36 7876 05b6 d963 3b39
000003e0: 0636 513a 0400 0080 a705 8734 04b3 8138
000003f0: 976c 113a b014 273a cc72 3938 ba7f c439

momentum_buffer f4 [5]
-0.0059551224 -0.038803708 0.06283568 0.006725082 0.028867623
00000000: 3023 c3bb a3f0 1ebd feaf 803d 145e dc3b
00000010: cb7b ec3c

conv1.weight f4 [10, 5, 4]
-0.06657923 -0.030016791 -0.03425688 0.104271404 0.11402823 -0.13922857 -0.1553403 -0.09740121
0.01733643 -0.15811934 0.11132082 0.1404574 -0.0655839 0.10390382 -0.0028799311 0.1080758
0.053006694 -0.11648098 0.024007928 -0.19043161 0.12108967 0.023754613 -0.12395646 -0.04172839
-0.1318486 0.11414743 0.06674963 -0.17962132 0.12436752 0.04703816 -0.08300376 0.15410575
-0.20109041 -0.0069357655 -0.016219158 -0.056854356 -0.122814976 0.19626942 0.11630107 0.17411014
-0.20473108 -0.16936266 -0.04199561 -0.09350431 -0.19551247 -0.07330695 -0.20528437 -0.053223763
0.16589427 -0.14728384 0.18542068 0.13799836 -0.054646816 0.035283145 -0.14425509 -0.01407365
-0.069313794 -0.089483514 -0.20341706 0.011421003 -0.17957304 0.043319963 -0.04798518 -0.20524855
-0.18166243 -0.18571098 -0.031157011 0.18671384 -0.03874152 0.21155167 -0.1543216 0.034441747
-0.008854435 -0.008230541 -0.069101065 0.11263313 0.06968363 0.0849677 0.09217121 -0.08736579
0.07542936 -0.18263441 -0.08373431 0.043772675 -0.0409474 -0.11744068 0.07465212 0.042439394
-0.15801862 0.15065251 -0.16815393 0.14781688 0.14858946 0.19610198 -0.103463516 -0.0074616657
0.15239455 0.12896968 0.103937246 -0.03405761 0.08683084 0.014477059 -0.13010104 0.022272829
0.09362808 0.09806713 -0.12839246 -0.082885616 -0.18972422 -0.011833889 0.20902932 0.21030603
-0.13738763 0.0026937418 0.16081536 -0.20277354 0.14181866 -0.14215416 -0.120810226 -0.08020849
0.059924413 -0.071697965 -0.019400481 0.09053439 -0.092541814 -0.172721 -0.19791436 -0.12386103
0.15239853 0.08629974 0.0035362325 0.2034331 -0.023356477 -0.024644608 0.048607312 -0.05968042
-0.08612373 0.21275873 0.22313161 -0.022221504 0.00473596 -0.09634929 -0.05658456 0.025794359
-0.133092 0.06700317 -0.14791085 -0.005296357 -0.09636709 -0.071575336 0.034934495 -0.12094748
-0.12434766 -0.03674408 -0.050170593 0.12215219 0.03394795 0.028078005 -0.15431523 -0.08743769
0.15781581 -0.1723433 -0.08435059 0.09772385 -0.16440272 0.19111083 0.014020402 -0.18966758
0.14574763 0.09172692 0.06390614 0.11768248 0.1850044 -0.01634326 -0.08300948 0.046715617
0.11167739 0.11378676 -0.108016774 -0.19739905 0.11525003 -0.10952555 -0.053629942 0.1000182
-0.115784414 -0.13621403 -0.106209494 -0.051934425 0.062100228 0.043820027 -0.021649402 0.07651678
0.16093181 0.15025994 0.002240579 -0.17667696 -0.01368941 0.17448562 -0.029574383 -0.054610815
00000000: b15a 88bd c6e5 f5bc f150 0cbd 3f8c d53d
00000010: a287 e93d ef91 0ebe 8711 1fbe 497a c7bd
00000020: 2105 8e3c 09ea 21be 2cfc e33d 11d4 0f3e
00000030: da50 86bd 87cb d43d 3abd 3cbb d856 dd3d
00000040: 8c1d 593d 948d eebd 46ac c43c 8100 43be
00000050: dcfd f73d 0999 c23c e2dc fdbd 63eb 2abd
00000060: 5203 07be 21c6 e93d 08b4 883d a7ee 37be
00000070: 66b4 fe3d 16ab 403d e0fd a9bd e6cd 1d3e
00000080: a5ea 4dbe 6b45 e3bb 0ade 84bc 1de0 68bd
00000090: 6b86 fbbd dafa 483e 412f ee3d ee49 323e
000000a0: 06a5 51be 686d 2dbe 9703 2cbd 307f bfbd
000000b0: 6c34 48be f421 96bd 1136 52be 2901 5abd
000000c0: 30e0 293e 93d1 16be ebde 3d3e 714f 0d3e
000000d0: 57d5 5fbd 0f85 103d 9bb7 13be 2b95 66bc
000000e0: 64f4 8dbd 2243 b7bd 904c 50be 291f 3b3c
000000f0: ffe1 37be 4670 313d 1c8c 44bd ad2c 52be
00000100: b705 3abe 052b 3ebe fd3c ffbc ea31 3f3e
00000110: 6eaf 1ebd 00a1 583e 7b06 1ebe ca12 0d3d
00000120: 3112 11bc 64d9 06bc dc84 8dbd 33ac e63d
00000130: 4ab6 8e3d 8c03 ae3d 42c4 bc3d d6ec b2bd
00000140: b57a 9a3d 8404 3bbe e57c abbd fa4a 333d
00000150: 76b8 27bd bd84 f0bd 36e3 983d eed4 2d3d
00000160: a2cf 21be a744 1a3e 8b30 2cbe 4f5d 173e
00000170: d627 183e f5ce 483e aee4 d3bd fd80 f4bb
00000180: 510d 1c3e a110 043e 0ddd d43d fe7f 0bbd
00000190: 5ed4 b13d 3031 6d3c 3539 05be 8275 b63c
000001a0: 14c0 bf3d 6bd7 c83d 5079 03be efbf a9bd
000001b0: 1147 42be eee2 41bc c80b 563e 775a 573e
000001c0: 58af 0cbe 7d89 303b c8ac 243e dea3 4fbe
000001d0: e938 113e dc90 11be 5a6b f7bd 5944 a4bd
000001e0: 4d73 753d 62d6 92bd c2ed 9ebc 186a b93d
000001f0: 9086 bdbd c6dd 30be 10aa 4abe daaa fdbd
00000200: 5c0e 1c3e ebbd b03d 23c0 673b c450 503e
00000210: 1556 bfbc 7de3 c9bc 7618 473d 7573 74bd
00000220: a361 b0bd 6ddd 593e 9d7c 643e df09 b6bc
00000230: 1d30 9b3b c752 c5bd 36c5 67bd b14e d33c
00000240: 4549 08be f538 893d f175 17be 108d adbb
00000250: 1c5c c5bd 1796 92bd 7917 0f3d 50b3 f7bd
00000260: fca9 febd f680 16bd ae7f 4dbd ed2a fa3d
00000270: 010d 0b3d d803 e63c d004 1ebe 8812 b3bd
00000280: 789a 213e c37a 30be 01c0 acbd 7123 c83d
00000290: 3059 28be 8fb2 433e d4b5 653c 3838 42be
000002a0: de3e 153e 53db bb3d 39e1 823d 8303 f13d
000002b0: cb71 3d3e 4de2 85bc e000 aabd e058 3f3d
000002c0: 1eb7 e43d 0809 e93d e637 ddbd fa22 4abe
000002d0: 3508 ec3d ee4e e0bd 12ab 5bbd 58d6 cc3d
000002e0: 6120 edbd b17b 0bbe 5d84 d9bd 31b9 54bd
000002f0: cf5c 7e3d a17c 333d 165a b1bc d4b4 9c3d
00000300: 4fcb 243e bedd 193e aed6 123b ceea 34be
00000310: 8c49 60bc 5cac 323e fa45 f2bc 97af 5fbd

conv1.bias f4 [10]
0.14466453 -0.18348329 0.0102462545 -0.2137074 0.052004907 -0.19648042 -0.099869266 -0.00692226
-0.015943568 -0.10761763
00000000: f022 143e 0be3 3bbe e8df 273c 1dd6 5abe
00000010: 1903 553d 2a32 49be 4288 ccbd 20d4 e2bb
00000020: 169c 82bc a266 dcbd

conv2.weight f4 [10, 10, 4]
-0.123720594 0.010911881 -0.005445428 -0.062453337 -0.004500989 0.047616437 0.072844006 0.05256295
-0.078049935 0.006866995 0.01584186 -0.093367614 -0.04253608 0.10491389 0.1151502 -0.12755872
0.13605407 0.02945956 0.124204986 -0.039403602 0.076478325 0.0856126 -0.03630317 0.031709492
-0.08706567 0.09980012 0.06484813 -0.026233586 0.03651194 0.06819023 -0.09518696 -0.13502038
-0.10878179 0.05409068 -0.10684842 0.12371272 0.11395721 -0.16961603 -0.0150249265 0.008637138
-0.024309022 0.031038918 0.11920423 -0.10376457 0.003417291 -0.13358288 0.1145839 -0.00813441
-0.015437156 0.09557007 -0.046937127 0.052899506 0.11448609 0.027782246 0.047639124 0.12362471
0.06809072 -0.14801647 -0.08872745 -0.029463066 -0.002708258 0.08454441 -0.1153831 0.064061634
0.12833229 0.0066755447 0.022918528 0.015383509 0.06691282 0.08750853 0.07181913 0.09636333
-0.08501405 -0.0541022 -0.16004811 0.07601375 -0.0060467185 -0.038110346 -0.14897208 -0.09382582
-0.015110612 -0.12644133 0.10164517 -0.08493857 0.13672034 -0.07134997 -0.07118447 -0.09243342
-0.09070649 0.027454693 -0.14509624 0.07767806 -0.15105762 0.0155172255 -0.009871398 0.093678
-0.13110252 0.052031204 0.013660657 -0.0633307 -0.12589288 0.07365357 0.10005149 -0.09317945
0.03222521 0.11903975 0.059236545 -0.15389249 0.08372897 -0.14263788 -0.07237374 -0.051586475
0.054812495 0.019311542 0.007196528 -0.14953685 0.078723386 -0.0013731999 0.07608045 -0.15569319
0.096901305 0.07990861 -0.08971552 0.03586654 -0.0048679523 0.04783859 -0.00071752106 0.056300543
0.085089654 -0.012890376 -0.11155802 0.08170662 -0.106342755 0.14169219 -0.026412673 0.011040799
0.050409455 -0.14124894 0.10249995 -0.02894934 0.0479164 0.10305838 -0.10982347 -0.036837257
-0.11330792 -0.14419553 -0.08216392 0.12996739 -0.04544928 0.11486049 -0.034279555 0.07884053
0.007420433 0.07267222 0.088823415 -0.105148405 -0.034822598 0.0216985 -0.07102138 -0.0075414917
-0.024803132 0.051187795 -0.019643646 -0.036951542 0.042945646 0.06116858 0.05462668 -0.11276963
0.13315101 0.05621104 -0.07016259 -0.06517461 0.14200449 0.12659012 -0.002779455 -0.0730736
0.037430003 0.14808759 0.06853154 -0.11113979 0.014811676 -0.0058701253 -0.06584533 0.10253328
0.044076443 -0.085651025 -0.10852427 0.12110209 -0.0026981537 -0.016503798 0.063905336 0.0010340733
-0.010305949 -0.026317233 -0.09683943 0.0592116 0.07028583 -0.12397751 0.10645917 -0.06082528
-0.124713875 -0.035159532 -0.04492571 -0.032519255 -0.0763758 -0.010311794 -0.147537 0.09893594
-0.09725641 -0.08861792 0.05997436 0.14044312 -0.022579327 0.03987285 0.021438546 -0.03639539
-0.109333396 0.11101783 0.032660875 0.1251844 0.0859012 -0.052649274 -0.010507335 -0.029163122
0.112428576 -0.027195552 -0.099726014 -0.03293572 -0.13570762 -0.13187051 0.005264096 -0.13682798
0.03950872 0.058519162 -0.027736079 0.05626309 0.019864086 -0.06718161 0.078056104 -0.13265656
0.07680992 -0.11564525 0.09830796 0.032385375 -0.042615905 0.09165644 -0.019310396 0.006983041
0.088014364 0.018230334 0.07637746 -0.048341423 -0.0034064609 -0.11078356 -0.010435335 0.08582458
00000000: 3961 fdbd bfc7 323c 906f b2bb 12cf 7fbd
00000010: 087d 93bb 7409 433d 3d2f 953d 3f4c 573d
00000020: a5d8 9fbd 8704 e13b cac6 813c 8537 bfbd
00000030: 503a 2ebd 18dd d63d ded3 eb3d c19e 02be
00000040: c251 0b3e 2d55 f13c 2f5f fe3d ac65 21bd
00000050: aba0 9c3d a955 af3d a2b2 14bd d0e1 013d
00000060: 7c4f b2bd 0164 cc3d 19cf 843d d1e7 d6bc
00000070: 8b8d 153d 52a7 8b3d 62f1 c2bd c842 0abe
00000080: fdc8 debd 308e 5d3d 58d3 dabd 185d fd3d
00000090: 6662 e93d d3af 2dbe 1c2b 76bc c882 0d3c
000000a0: b723 c7bc 5445 fe3c 5921 f43d 8582 d4bd
000000b0: a1f4 5f3b f3c9 08be f7aa ea3d 3046 05bc
000000c0: 20ec 7cbc 3eba c33d 2541 40bd 27ad 583d
000000d0: af77 ea3d 9897 e33c 3e21 433d f42e fd3d
000000e0: 2673 8b3d a191 17be bdb6 b5bd 875c f1bc
000000f0: 087d 31bb 9f25 ad3d fa4d ecbd bf32 833d
00000100: 8a69 033e 87be da3b a3bf bb3c 1d0b 7c3c
00000110: 9709 893d ac37 b33d e815 933d 235a c53d
00000120: d91b aebd 459a 5dbd a7e3 23be 19ad 9b3d
00000130: 8d23 c6bb 9819 1cbd 238c 18be c027 c0bd
00000140: 8092 77bc d679 01be 582b d03d 46f4 adbd
00000150: 6b00 0c3e ef1f 92bd 2ac9 91bd bc4d bdbd
00000160: 53c4 b9bd aae8 e03c 1c94 14be ad15 9f3d
00000170: d9ae 1abe f63b 7e3c a5bb 21bc 40da bf3d
00000180: bd3f 06be ac1e 553d f3d0 5f3c 87b3 81bd
00000190: 10ea 00be afd7 963d cce7 cc3d ded4 bebd
000001a0: 95fe 033d 1dcb f33d 05a2 723d fe95 1dbe
000001b0: 187a ab3d aa0f 12be af38 94bd 574c 53bd
000001c0: 1183 603d 3d33 9e3c dad0 eb3b 3020 19be
000001d0: ba39 a13d f1fc b3ba 11d0 9b3d 096e 1fbe
000001e0: 3174 c63d 20a7 a33d c5bc b7bd cbe8 123d
000001f0: 5883 9fbb 66f2 433d 0618 3cba 669b 663d
00000200: 7c43 ae3d 2832 53bc 8878 e4bd cd55 a73d
00000210: 3bca d9bd c217 113e 645f d8bc 78e4 343c
00000220: 257a 4e3d 90a3 10be 7eeb d13d 2b27 edbc
00000230: fd43 443d 4610 d33d 21eb e0bd aae2 16bd
00000240: fc0d e8bd fea7 13be 8f45 a8bd 2c16 053e
00000250: 0629 3abd fa3b eb3d b868 0cbd 2577 a13d
00000260: 1b27 f33b 2cd5 943d 0de9 b53d 0c58 d7bd
00000270: 24a2 0ebd 0dc1 b13c a873 91bd 9e1e f7bb
00000280: f02f cbbc 4baa 513d b6eb a0bc 805a 17bd
00000290: c6e7 2f3d e88b 7a3d 3ac0 5f3d c4f3 e6bd
000002a0: bd58 083e 8c3d 663d 67b1 8fbd 447a 85bd
000002b0: a069 113e d7a0 013e 8427 36bb 9da7 95bd
000002c0: 3450 193d 46a4 173e 445a 8c3d 429d e3bd
000002d0: acac 723c 2e5a c0bb ebd9 86bd f8fc d13d
000002e0: 8089 343d ce69 afbd f941 debd 5f04 f83d
000002f0: 82d3 30bb f932 87bc cde0 823d be89 873a
00000300: 48da 28bc 3d97 d7bc c053 c6bd dd87 723d
00000310: 04f2 8f3d ece7 fdbd 4407 da3d ee23 79bd
00000320: fd69 ffbd 7103 10bd 0504 38bd e932 05bd
00000330: ea6a 9cbd ccf2 28bc f013 17be ed9e ca3d
00000340: 5e2e c7bd 507d b5bd ada7 753d 52d0 0f3e
00000350: 48f8 b8bc b751 233d e49f af3c 5513 15bd
00000360: 30ea dfbd 515d e33d 69c7 053d 5730 003e
00000370: f8ec af3d c4a6 57bd f526 2cbc 80e7 eebc
00000380: f440 e63d 35c9 debc 273d ccbd 9be7 06bd
00000390: f0f6 0abe 1009 07be 707e ac3b a21c 0cbe
000003a0: e5d3 213d cab1 6f3d c636 e3bc 2074 663d
000003b0: 02ba a23c 8396 89bd e1db 9f3d 1fd7 07be
000003c0: 854e 9d3d 6bd7 ecbd af55 c93d 87a6 043d
000003d0: 048e 2ebd 5fb6 bb3d d630 9ebc fed1 e43b
000003e0: e040 b43d c857 953c c96b 9c3d a801 46bd
000003f0: ee3e 5fbb 7ee2 e2bd f8f8 2abc ccc4 af3d

conv2.bias f4 [10]
-0.16626759 -0.09817013 -0.14872538 0.011996926 0.20252064 -0.03283346 0.08855229 -0.18066569
0.07760134 0.011928982
00000000: 0d42 2abe 6c0d c9bd 774b 18be c18e 443c
00000010: 9261 4f3e 617c 06bd e75a b53d 6d00 39be
00000020: 74ed 9e3d c771 433c
