tb_logs/ConvNet_1_0_2_mozart/version_5/checkpoints/epoch=5.ckpt (torch_old, 695676 bytes, 24 tensors)

momentum_buffer f4 [10, 5, 4]
-0.032408863 0.027893769 0.026644133 0.045465603 0.018977292 0.0008297567 0.003207475 0.03206097
0.010325854 -0.0036932817 -0.0054210247 -0.003319472 0.0019864934 -0.0022825184 -0.00452332 -0.0034076916
-0.0022825184 -0.0022825184 -0.0022825184 -0.0022825184 0.0024613594 -0.050280433 0.04670355 -0.07566279
0.019686833 -0.034336872 0.03170902 -0.07094078 0.011730107 -0.03158681 0.01740338 -0.046013623
-0.0029446823 0.01980972 0.0045067132 0.010806938 0.004506723 0.004506723 0.004506723 0.004506723
0.027513504 -0.08284621 -0.06391157 -0.06061384 -0.027530706 -0.021540405 0.0036618311 -0.060126953
-0.0154995285 -0.018914424 -0.022742052 -0.047628894 -0.00722756 0.017056335 -0.010684562 -0.0039810613
-0.00722756 -0.00722756 -0.00722756 -0.00722756 -0.111309245 -0.0043787006 -0.058888264 0.0026855236
0.025734361 0.012812827 -0.025284864 0.004146728 0.010262569 0.0053722467 0.0052913665 -0.0017754985
0.014325579 0.0047903443 0.005160957 -0.002449714 0.00525775 0.00525775 0.00525775 0.00525775
0.021841742 0.031452704 -0.016558038 0.044038616 0.002094333 -0.023918217 0.018570235 -0.014210794
0.01910793 0.018484734 0.011215332 0.00016263744 0.004406565 0.009423584 -0.004009596 -0.0022287471
0.003098368 0.003098368 0.003098368 0.003098368 -0.014570429 0.00049952825 0.0017001147 -0.002196429
-0.012926121 0.00095726526 0.0009851368 -0.001558987 -0.0034873434 0.000987688 0.0009851694 -0.0026193247
-0.0038314613 0.0009876981 0.0009876771 -0.0012440551 0.0009876981 0.0009876981 0.0009876981 0.0009876981
-0.051207475 0.08900453 -0.069629714 0.039238345 -0.036343753 0.008410143 -0.005710682 0.026787387
-0.019414939 -0.0069829375 -0.03606363 -0.0063769603 0.0082563665 -0.0056023877 -0.0028721723 -0.0026712834
-0.0052962517 -0.0052962517 -0.0052962517 -0.0052962517 0.029124903 -0.034930952 0.02811456 -0.0025276917
0.023004308 -0.012920983 0.020626757 0.0352728 0.022712473 0.008123983 0.02112167 -0.0040132334
0.0012929495 0.0020976316 0.00129179 0.007870456 0.0012918246 0.0012918246 0.0012918246 0.0012918246
-0.086487055 0.075692855 -0.08447183 0.0041910373 -0.041379713 0.012545906 0.020303525 0.033934318
-0.022379607 0.0015801904 -0.018689068 0.005454336 -0.00059505017 -0.00029274262 0.0034793373 7.777591e-05
-0.00029274262 -0.00029274262 -0.00029274262 -0.00029274262 -0.07881911 0.05830092 -0.00040702336 0.08992601
0.023174703 -0.037172154 0.027351813 0.0013562682 0.017539784 -0.001415897 0.02852594 -0.006743839
-0.0051723546 -0.00088502583 -0.0016617504 -0.008482804 -0.0016617504 -0.0016617504 -0.0016617504 -0.0016617504
00000000: 28bf 04bd 7981 e43c cc44 da3c 243a 3a3d
00000010: 4476 9b3c 0884 593a 8034 523b 5d52 033d
00000020: c52d 293c fc0a 72bb daa2 b1bb 808b 59bb
00000030: d42f 023b 4e96 15bb 5c38 94bb 9453 5fbb
00000040: 4e96 15bb 4e96 15bb 4e96 15bb 4e96 15bb
00000050: c24e 213b dbf2 4dbd 394c 3f3d 18f5 9abd
00000060: 4846 a13c d2a4 0cbd 51e1 013d 6649 91bd
00000070: a22f 403c 2c61 01bd 8891 8e3c c878 3cbd
00000080: 92fb 40bb fe47 a23c 0dad 933b 950f 313c
00000090: 22ad 933b 22ad 933b 22ad 933b 22ad 933b
000000a0: 0064 e13c 46ab a9bd 12e4 82bd 3846 78bd
000000b0: 1388 e1bc 8175 b0bc 55fb 6f3b ae47 76bd
000000c0: bcf1 7dbc 6cf2 9abc 8a4d babc 8416 43bd
000000d0: 2bd5 ecbb bab9 8b3c 4d0e 2fbc 9073 82bb
000000e0: 2bd5 ecbb 2bd5 ecbb 2bd5 ecbb 2bd5 ecbb
000000f0: 1af6 e3bd 347b 8fbb d234 71bd 9cff 2f3b
00000100: ded0 d23c e4ec 513c 3422 cfbc 47e1 873b
00000110: 5624 283c ac09 b03b 3363 ad3b d8b7 e8ba
00000120: d5b5 6a3c 52f8 9c3b 3f1d a93b 628b 20bb
00000130: 3449 ac3b 3449 ac3b 3449 ac3b 3449 ac3b
00000140: 74ed b23c 8dd4 003d b9a4 87bc d661 343d
00000150: 1441 093b 23f0 c3bc 9b20 983c 64d4 68bc
00000160: 3c88 9c3c 4c6d 973c 83c0 373c a889 2a39
00000170: f264 903b 6065 1a3c ee62 83bb 2c10 12bb
00000180: fd0d 4b3b fd0d 4b3b fd0d 4b3b fd0d 4b3b
00000190: cfb8 6ebc c6f2 023a 62d6 de3a f7f1 0fbb
000001a0: 15c8 53bc fcf0 7a3a b51f 813a ec56 ccba
000001b0: ea8b 64bb 4f75 813a cd20 813a faa8 2bbb
000001c0: 4119 7bbb a675 813a f274 813a 900f a3ba
000001d0: a675 813a a675 813a a675 813a a675 813a
000001e0: eebe 51bd 0248 b63d 069a 8ebd 63b8 203d
000001f0: 30dd 14bd b2ca 093c ac20 bbbb 3971 db3c
00000200: 140c 9fbc 20d1 e4bb 75b7 13bd d2f5 d0bb
00000210: b645 073c 3c94 b7bb 0e3b 3cbb b310 2fbb
00000220: 2e8c adbb 2e8c adbb 2e8c adbb 2e8c adbb
00000230: 5997 ee3c c213 0fbd 8150 e63c a1a7 25bb
00000240: 8873 bc3c 88b2 53bc 72f9 a83c 367a 103d
00000250: 820f ba3c 741a 053c 5a07 ad3c 7181 83bb
00000260: 3078 a93a 6b78 093b 4851 a93a 16f3 003c
00000270: 7152 a93a 7152 a93a 7152 a93a 7152 a93a
00000280: 2020 b1bd db04 9b3d 91ff acbd f854 893b
00000290: c67d 29bd 588d 4d3c 9453 a63c b6fe 0a3d
000002a0: 7055 b7bc 641e cf3a d119 99bc 49ba b23b
000002b0: 24fd 1bba 407b 99b9 9805 643b a01b a338
000002c0: 407b 99b9 407b 99b9 407b 99b9 407b 99b9
000002d0: ea6b a1bd f2cc 6e3d c065 d5b9 212b b83d
000002e0: e0d8 bd3c d441 18bd e910 e03c cfc4 b13a
000002f0: 98af 8f3c 9f95 b9ba 3baf e93c 6cfb dcbb
00000300: db7c a9bb 1401 68ba 17cf d9ba 75fb 0abc
00000310: 17cf d9ba 17cf d9ba 17cf d9ba 17cf d9ba

momentum_buffer f4 [10]
0.009230044 -0.018224249 0.029226828 -0.021261252 -0.012529102 -0.0039940495 0.021416984 -0.0052238796
0.0011838162 0.0067198034
00000000: 9c39 173c 054b 95bc 1a6d ef3c 142c aebc
00000010: dd46 4dbc 84e0 82bb ac72 af3c 142d abbb
00000020: 482a 9b3a cc31 dc3b

momentum_buffer f4 [64, 610]
0.0008153609 -0.00032268284 0.0009545884 0.0014539796 0.001078618 -0.00127538 0.0029152662 8.609807e-05
0.0010279638 0.0002515215 0.0015910702 0.0003550124 0.0008058869 0.0011393504 0.0015808294 0.00032746972
0.0010754055 6.8841386e-05 0.0017403265 0.00036657267 0.00074736035 0.0017020932 0.0031319784 0.00044052576
0.0011669716 -0.00028385874 0.0016881456 0.00084112224 0.0012372728 -0.00029649903 0.0022090797 7.4781055e-05
0.0014562198 -0.0006009961 0.001331859 0.00014256274 0.00097235246 0.0008132156 0.0020779232 0.0006570126
0.0007156458 5.439506e-06 0.0025092717 0.00052102015 0.00076078135 0.00022934386 0.002116431 0.00047767325
0.0002563381 0.0012324885 0.0010003939 0.0008610589 2.7809874e-06 0.00307919 0.00021299685 0.00083409564
0.00060238736 0.0023397584 0.0010596791 0.000830005 6.951894e-05 0.0004966199 0.0009338773 0.00079178764
0.0002536627 0.0010293486 0.0023371147 0.0011061567 0.00055664184 -0.00064204866 0.0006403181 0.00076455896
0.0021674163 0.0011225075 0.00066564145 0.0001782155 0.003294569 3.098586e-05 0.00018925256 0.0003436977
0.0012821063 0.00017317757 0.0010373159 -0.00013718713 0.006561127 -5.2840776e-05 0.00089453463 -0.00025337603
0.0009797114 0.0005112389 0.002228359 0.0001770888 0.001967282 -0.000108057306 0.00038464039 0.0006695452
9.541353e-05 0.0005304572 8.768088e-05 0.000578714 0.0026409696 0.00017048877 -0.00046030153 0.0006022991
0.0022833592 0.0007927869 0.0014856484 0.0005684545 0.0022453093 0.0006123633 0.0015775029 0.000692597
0.004261395 0.0012404546 0.0029614405 0.0013962107 0.006588851 0.002242036 0.003206088 0.0018238764
0.0065051066 0.0016173058 0.0017599183 0.002791076 0.002893806 0.005620643 0.0020721115 0.008320551
-0.00021380471 0.0011763452 0.002473747 0.006268226 0.0028843265 0.0024085671 0.0010641331 0.0062257396
0.0012137531 0.0027593067 0.0013826229 0.0067860745 0.0020735215 0.0028564697 0.00031388053 0.012259175
0.00045808067 0.0024181958 0.00020617881 0.0048256293 0.0018291419 0.004877464 0.00050844473 0.00655814
0.00045944296 0.0030871204 0.0014741811 0.0036992424 0.0014342541 0.0023562494 0.0012500179 0.0077542085
0.002059352 0.0011772685 0.0012638427 0.008085087 0.0014183037 0.0025398543 0.0016056012 0.006419588
0.0013655832 0.00082276104 0.0027383303 0.005643147 0.0015570732 0.0006885323 0.0030149892 0.005312141
0.0026341472 0.0029984722 0.0022776136 0.007118832 0.0020781017 7.4599346e-05 0.001001779 0.003825836
-3.9277184e-06 0.00020813735 3.0422103e-05 -0.00023562205 0.00020937815 0.002480295 0.0004071077 0.00014888751
0.00010069975 4.0312007e-06 0.00019479876 0.0020365897 0.00035868492 0.0003169548 0.0003039735 0.0034427303
-0.0002533388 0.0005742784 1.0365573e-05 0.0015275081 0.00019363935 0.00064464647 0.000525188 0.0075207367
-0.00025011017 0.00081633433 2.2740807e-05 0.0012330104 0.00028936737 0.0023152377 0.0003166335 0.0023656918
8.9562265e-05 0.000627951 0.0003557562 0.0006037804 0.0005158015 0.00077375595 9.252315e-05 0.0037880088
0.00023332951 0.00038479248 1.2593805e-05 0.0021795384 0.0010412218 0.0015536724 0.00032641494 0.0017386755
0.0002242897 -3.640374e-05 -0.00020210841 0.0034676255 0.00033431733 0.00030313042 -0.00018826936 0.004978199
0.00018105014 0.00067089405 0.00020882236 0.0057481974 0.0010132012 0.002640077 0.0012983868 0.0027833087
0.003718634 0.0047428147 0.0015881348 0.0033477452 0.0003308177 0.0027196552 0.003547373 0.0042583575
00000000: f2bd 553a c22d a9b9 583d 7a3a 7693 be3a
00000010: 6a60 8d3a a72a a7ba 0d0e 3f3b 8d8f b438
00000020: bebc 863a a5de 8339 758b d03a f520 ba39
00000030: 2842 533a 4156 953a d533 cf3a 3eb0 ab39
00000040: 9ff4 8c3a f05e 9038 ab1b e43a 8d30 c039
00000050: 81ea 433a c518 df3a e141 4d3b 5ef6 e639
00000060: 12f5 983a e0d2 94b9 c444 dd3a c27e 5c3a
00000070: fc2b a23a 6d73 9bb9 35c6 103b c6d3 9c38
00000080: a1de be3a 2a8c 1dba c691 ae3a e57c 1539
00000090: 78e5 7e3a fa2d 553a c42d 083b 5f3b 2c3a
000000a0: 2d9a 3b3a 0085 b636 9872 243b 1295 083a
000000b0: 2c6f 473a 067c 7039 d2b3 0a3b 3870 fa39
000000c0: 1e65 8639 748b a13a a61f 833a afb8 613a
000000d0: 00a1 3a36 3ccc 493b e857 5f39 36a7 5a3a
000000e0: 88e9 1d3a a256 193b eee4 8a3a b194 593a
000000f0: b2ca 9138 992f 023a 72cf 743a f88f 4f3a
00000100: 08fe 8439 35eb 863a 472a 193b 76fc 903a
00000110: 9aeb 113a 284f 28ba 05db 273a af6c 483a
00000120: 360b 0e3b 1a21 933a 717e 2e3a 5cdf 3a39
00000130: b2e9 573b d0f6 0138 1972 4639 5332 b439
00000140: 590c a83a 0097 3539 8cf6 873a e4d9 0fb9
00000150: b9fe d63b 5aa1 5db8 347f 6a3a 8ed7 84b9
00000160: a969 803a a904 063a a909 123b eab0 3939
00000170: 84ed 003b d39c e2b8 8fa9 c939 6b84 2f3a
00000180: c018 c838 610e 0b3a 50e1 b738 d7b4 173a
00000190: 1e14 2d3b 3bc5 3239 a054 f1b9 9ce3 1d3a
000001a0: 69a4 153b 07d3 4f3a 17ba c23a 5604 153a
000001b0: 0a26 133b 0187 203a 37c4 ce3a 668f 353a
000001c0: 2ca3 8b3b c096 a23a ba14 423b 0f01 b73a
000001d0: 4ae7 d73b 1fef 123b 3b1d 523b 230f ef3a
000001e0: ca28 d53b c7fb d33a 0fad e63a 7cea 363b
000001f0: 02a6 3d3b 5f2d b83b 43cc 073b ec52 083c
00000200: c430 60b9 982f 9a3a 961e 223b b165 cd3b
00000210: f806 3d3b 0dd9 1d3b 627a 8b3a 4a01 cc3b
00000220: cc16 9f3a 7cd5 343b 2039 b53a b85d de3b
00000230: ebe3 073b 9c33 3b3b 5590 a439 b5da 483c
00000240: 8c2a f039 987a 1e3b b431 5839 5020 9e3b
00000250: d1bf ef3a 22d3 9f3b 2649 053a aae5 d63b
00000260: 64e1 f039 4951 4a3b 4f39 c13a fd6e 723b
00000270: 95fd bb3a 4e6b 1a3b a4d7 a33a 0417 fe3b
00000280: 31f6 063b 934e 9a3a 86a7 a53a 5077 043c
00000290: 60e6 b93a af73 263b 0973 d23a 685b d23b
000002a0: 5efd b23a 8fae 573a 8f75 333b 26ea b83b
000002b0: b516 cc3a 9f7e 343a 2097 453b 7811 ae3b
000002c0: a8a1 2c3b 0482 443b 0444 153b 1745 e93b
000002d0: c330 083b 3872 9c38 204e 833a e0ba 7a3b
000002e0: d8ca 83b6 723f 5a39 f832 ff37 5011 77b9
000002f0: 858c 5b39 728c 223b 1271 d539 b01e 1c39
00000300: c42e d338 c043 8736 e542 4c39 4e78 053b
00000310: e00d bc39 f42c a639 a25e 9f39 6e9f 613b
00000320: 8fd2 84b9 2c8b 163a cce7 2d37 ab36 c83a
00000330: ab0b 4b39 7efd 283a c5ac 093a 8370 f63b
00000340: 3821 83b9 45ff 553a 83c3 be37 f79c a13a
00000350: 3bb6 9739 3ebb 173b d401 a639 b909 1b3b
00000360: 60d3 bb38 149d 243a ca84 ba39 0447 1e3a
00000370: da36 073a e2d5 4a3a fd08 c238 3e40 783b
00000380: eaa9 7439 f9bd c939 fb49 5337 96d6 0e3b
00000390: 9b79 883a 98a4 cb3a ac22 ab39 45e4 e33a
000003a0: 4f2f 6b39 38b0 18b8 10ed 53b9 1a41 633b
000003b0: 5047 af39 7aed 9e39 2c6a 45b9 2920 a33b
000003c0: 47d8 3d39 f0de 2f3a 53f7 5a39 605b bc3b
000003d0: 64cd 843a 2405 2d3b a22e aa3a 2c68 363b
000003e0: 53b4 733b 9d69 9b3b f628 d03a d865 5b3b
000003f0: 9a71 ad39 3e3c 323b 0b7b 683b b189 8b3b

momentum_buffer f4 [64]
0.0032082535 -0.00039022524 0.0040784064 -0.0010841279 -0.00016959924 -0.00047994676 0.001260371 -0.010159999
-0.0008953168 0.001362894 -0.0030910117 -0.00015279232 0.0010979288 0.0037963472 0.000783067 0.002978548
0.00024574887 -0.0035596932 0.0003358025 -0.0038712232 0.008335881 0.012480773 0.02878049 0.031775236
0.009201872 0.024155473 0.00818859 0.019160517 0.00010047928 4.455964e-05 0.0071709994 -0.0061897673
0.0044705607 -0.0010504237 -0.0036608053 -0.004542691 -0.002440296 -0.0050226925 -0.0043267896 -0.0009927229
3.2807584e-05 0.0017648716 0.0036680559 0.00082583126 0.0003959306 0.0012584964 -0.0013445886 0.005284722
-0.0017949771 0.0031465073 0.0015437731 -0.007636235 0.0038766833 -0.0053876815 -0.007086931 0.00059938245
-0.0063214814 -0.0009543518 -0.011282594 -0.00201855 0.00038949447 0.0013967339 -0.0013610024 0.0
00000000: 9041 523b 2597 ccb9 27a4 853b 4c19 8eba
00000010: 73d6 31b9 5da1 fbb9 0833 a53a 2076 26bc
00000020: b2b3 6aba 22a3 b23a 9292 4abb e036 20b9
00000030: 61e8 8f3a 23cc 783b bd46 4d3a be33 433b
00000040: dbd7 8039 be49 69bb a60e b039 59b4 7dbb
00000050: 3893 083c 287c 4c3c 10c5 eb3c c026 023d
00000060: 73c3 163c b3e1 c53c 7029 063c 84f6 9c3c
00000070: 67b8 d238 8de5 3a38 b4fa ea3b 88d3 cabb
00000080: c87d 923b 5fae 89ba 1fea 6fbb dbda 94bb
00000090: 60ed 1fbb 6695 a4bb bec7 8dbb 411e 82ba
000000a0: e09a 0938 4453 e73a c463 703b 997c 583a
000000b0: e894 cf39 22f4 a43a e83c b0ba 762b ad3b
000000c0: 7045 ebba a235 4e3b 6e58 ca3a 6239 fabb
000000d0: f40f 7e3b 268b b0bb 7c39 e8bb e01f 1d3a
000000e0: 6e24 cfbb 772d 7aba a1da 38bc a649 04bb
000000f0: 1035 cc39 9d12 b73a aa63 b2ba 0000 0000

momentum_buffer f4 [10, 1, 4]
0.0051820967 0.0029837606 -0.012968674 0.0038052425 -0.0030873243 -0.020992128 -0.009355143 -0.005988978
-0.0061633578 0.0025933099 -0.008057714 0.0018328473 0.01207465 0.02178389 -0.00035178044 0.027532497
-0.069629624 -0.003443229 -0.05324784 -0.06252253 0.008593744 -0.023486003 0.0052688695 0.015708098
0.009320929 -0.020391695 0.015904015 0.017468616 -0.012753373 -0.041566946 -0.01031575 -0.03573072
-0.006161543 0.003157642 -0.0008646087 -0.0025774534 -0.0016726396 -0.0056152786 0.0008102354 -0.00093746977
00000000: 94ce a93b 328b 433b 907a 54bc 6061 793b
00000010: b554 4abb aff7 abbc 5046 19bc 303f c4bb
00000020: fef5 c9bb 85f4 293b 8104 04bc 263c f03a
00000030: c1d4 453c 2174 b23c 2c6f b8b9 d58b e13c
00000040: fa99 8ebd cca7 61bb 681a 5abd d00b 80bd
00000050: c6cc 0c3c b865 c0bc 7ba6 ac3b 45ae 803c
00000060: cfb6 183c 7c0c a7bc 2349 823c 581a 8f3c
00000070: 86f3 50bc 1a42 2abd 6403 29bc 605a 12bd
00000080: c5e6 c9bb 71f0 4e3b e8a6 62ba 7eea 28bb
00000090: 793c dbba 5f00 b8bb fa65 543a 88c0 75ba

momentum_buffer f4 [10]
0.0010222163 -0.03742465 -0.0058649704 0.056395534 -0.055764012 0.006341649 0.057320032 -0.049878843
-0.0024383143 -0.0050909175
00000000: e3fb 853a 974a 19bd f02e c0bb 01ff 663d
00000010: ce68 64bd 9ccd cf3b 69c8 6a3d c24d 4cbd
00000020: 20cc 1fbb b6d1 a6bb

momentum_buffer f4 [128, 300]
-5.500775e-05 -0.00092224014 -1.20830585e-11 -0.000110429304 0.0007058345 1.9059713e-07 0.0010642986 9.379699e-06
0.00020098675 -3.8262006e-06 -0.00015253946 0.0007024312 -0.00041807978 -0.00082498556 0.0013219742 0.001215984
0.0003796746 -0.0005943129 0.00015518459 -1.6576844e-06 -0.0017872269 1.2250042e-08 0.00057592 -0.0020585745
0.0001723997 -0.00076882483 0.0010517311 -0.0017853754 9.8621254e-05 -0.00022826949 0.0010057313 -0.00026415536
0.00026367634 0.00074232253 0.0016051086 0.00025858489 0.00049033045 0.00041848142 0.000578038 0.00025662087
-0.00022694733 0.0004853259 -0.00023467994 0.0014644561 0.0022451063 0.0010642904 0.00061801064 0.0009217713
0.000884196 0.0009660488 -0.0009181108 0.00037846877 0.0015299257 -0.00014077392 0.00061143027 0.0003519511
0.0007301257 0.0008890352 0.0006942336 -0.0001867952 1.5990049e-06 -0.00058087235 -6e-45 1.0400265e-05
0.00017746698 -0.0003072103 -0.0009958254 -0.0008745468 1.853355e-05 2.025815e-13 8.207935e-05 -0.00054661377
-0.0003271802 -0.0004691343 7.159029e-10 0.00027434822 -0.0016919016 0.00039206765 7.971442e-05 -5.6701315e-06
-0.0006644785 3.3261333e-06 8.2947764e-08 -0.00087630714 -0.0011247968 0.00033627063 -0.0017529691 0.00020072068
-7.8326475e-06 0.000108394655 -0.001341815 -0.00066289754 -0.00017574074 0.000578618 -0.0012955159 -0.0008186274
-0.0016952776 -0.0015187925 0.0005627004 -0.001470909 0.000826717 -0.0028005706 -0.0016777926 1.9929023e-05
-0.002433057 -0.0021863794 -0.002832312 -0.0013779914 0.00023673891 -0.0016846912 -0.0011546137 -0.0018084992
-0.0029090554 -0.00017759373 8.218901e-05 0.0016152605 -0.0011086887 0.0007154572 0.0011517687 0.00048974593
0.00051185454 0.0006724519 0.002929597 0.002881034 0.0016016222 0.0032776163 0.000950837 0.00010557898
0.0014552865 3.0954572e-05 0.0034141354 -0.0010952222 0.0018511644 0.0023623612 0.0022494846 0.0028072447
-0.0016497027 0.0021930265 0.002687659 0.0009212125 0.00027185402 0.0010401525 0.0030842747 0.0020653284
0.002223075 0.0070177126 -0.0001642087 0.0047971695 0.0031833427 0.001907741 -0.0020721501 -0.0008969958
0.00018402938 0.0013229123 -0.00059949874 -0.0018724967 -0.001658788 -0.0022618573 -0.00025253216 -0.0007829361
-0.00084716885 -0.00040016987 -0.0010772988 -0.00033478942 -0.002206064 -0.0029416925 0.00077744573 0.0010427451
0.00084776495 -0.0031046977 -0.0015620391 -0.0004756009 -0.0023150127 -0.00039041688 0.00062090775 -0.0006693327
0.002989341 -0.0016103588 -0.00078701007 0.0002975691 -0.0016630249 -0.0006488704 0.0007073998 0.001979217
-0.0007888176 -0.0004136551 -0.0006440043 -0.0024299081 -0.00030263688 -0.0005383072 0.000865389 -0.0010677779
-0.0016728751 0.0002865251 -0.0037247457 -0.001988227 -0.00030548812 -0.0005558382 0.00093806523 -0.0013189628
-0.0018048788 -0.0010265796 -0.002400279 0.00028205966 0.0015913659 0.0015046885 0.0017000828 0.00091264397
0.000960869 0.000570251 0.00040407584 -0.0001446385 0.00094782823 0.001096426 0.0017728453 -0.00017712046
-0.0003649946 -0.00024274105 0.0002223269 0.0009342496 7.5354765e-05 -6.859569e-05 -0.00033434416 0.0012451406
-3.9354178e-05 0.00038707955 0.0010702508 0.0020556576 0.0017405765 -0.0007867308 -0.0006278941 0.00061070337
0.00037528956 0.00060272525 2.9023155e-05 0.0004375194 0.0011073181 0.0005123392 -0.0006741195 0.00036812885
-0.00053974806 4.324854e-06 4.5806315e-05 2.2486656e-05 -2.2288834e-05 -0.00022383354 2.501285e-07 -1.0857249e-05
0.00017342561 -0.00072772347 1.5696693e-05 -0.0003236339 -2.5563088e-05 -2.4238758e-05 0.0001532033 6.485852e-05
00000000: 1fb8 66b8 7dc2 71ba 4291 54ad 4896 e7b8
00000010: c007 393a f1a6 4c34 ef7f 8b3a 805d 1d37
00000020: f8bf 5239 d062 80b6 00f3 1fb9 5c23 383a
00000030: b831 dbb9 d843 58ba 1846 ad3a a761 9f3a
00000040: 100f c739 aacb 1bba 0cb9 2239 9a7d deb5
00000050: 6241 eaba 4174 5232 56f9 163a 26e9 06bb
00000060: 31c6 3439 f68a 49ba 3dda 893a 4203 eaba
00000070: e2d2 ce38 a05b 6fb9 bed2 833a 557e 8ab9
00000080: 0a3e 8a39 6c98 423a 8262 d23a ad92 8739
00000090: 8589 003a a067 db39 7987 173a 128b 8639
000000a0: b6f8 6db9 5773 fe39 6b14 76b9 fef2 bf3a
000000b0: a222 133b a97f 8b3a fe01 223a 06a3 713a
000000c0: 64c9 673a 703e 7d3a 5fad 70ba 386d c639
000000d0: ca87 c83a b69c 13b9 6448 203a 1486 b839
000000e0: e865 3f3a 240e 693a 3afd 353a 74de 43b9
000000f0: 649d d635 af45 18ba 0400 0080 cc7c 2e37
00000100: 6e16 3a39 1211 a1b9 5b86 82ba d841 65ba
00000110: 7f78 9b37 2416 642a 0422 ac38 a14a 0fba
00000120: 6289 abb9 24f6 f5b9 30c9 4430 65d6 8f39
00000130: ccc2 ddba 6e8e cd39 5a2c a738 0f42 beb6
00000140: 6630 2eba 8936 5f36 0421 b233 fab7 65ba
00000150: eb6d 93ba 7b4d b039 e2c3 e5ba 8c78 5239
00000160: f768 03b7 f051 e338 d7df afba 4dc6 2dba
00000170: 0c47 38b9 66ae 173a 4dce a9ba 2899 56ba
00000180: 1434 deba 3812 c7ba 2f82 133a 84cb c0ba
00000190: 0ab8 583a c789 37bb 61e9 dbba 402d a737
000001a0: ec73 1fbb 5c49 0fbb 4f9e 39bb b89d b4ba
000001b0: 1e3d 7839 dbd0 dcba 6856 97ba 2a0b edba
000001c0: daa5 3ebb 7438 3ab9 e45c ac38 26b7 d33a
000001d0: 6b51 91ba 858d 3b3a f2f6 963a 4b62 003a
000001e0: fa2d 063a 7c47 303a 7bfe 3f3b bbcf 3c3b
000001f0: 86ed d13a 47cd 563b 9741 793a 496a dd38
00000200: 50bf be3a 38d5 0138 b0bf 5f3b 8f8d 8fba
00000210: c5a2 f23a d8d1 1a3b 176c 133b c0f9 373b
00000220: d63a d8ba e1b8 0f3b 7023 303b 867d 713a
00000230: a187 8e39 ba55 883a 8b21 4a3b 765a 073b
00000240: 02b1 113b d7f4 e53b 702f 2cb9 9331 9d3b
00000250: a19f 503b 2a0d fa3a e9cc 07bb 5f24 6bba
00000260: 03f8 4039 9265 ad3a ae27 1dba 906e f5ba
00000270: b06b d9ba ab3b 14bb 4b66 84b9 f43d 4dba
00000280: 8a14 5eba e4cd d1b9 2634 8dba ad86 afb9
00000290: 9d93 10bb 69c9 40bb 80cd 4b3a b8ac 883a
000002a0: 8b3c 5e3a 2f78 4bbb 56bd ccba 125a f9b9
000002b0: 78b7 17bb deb0 ccb9 6ac4 223a 2876 2fba
000002c0: d2e8 433b ad12 d3ba 5a4f 4eba 0c03 9c39
000002d0: dbf9 d9ba f518 2aba cc70 393a c0b5 013b
000002e0: a7c8 4eba d9df d8b9 66d2 28ba 183f 1fbb
000002f0: 3cab 9eb9 2f1d 0dba 46db 623a aef4 8bba
00000300: 6044 dbba bf38 9639 dd1a 74bb ea4c 02bb
00000310: ec29 a0b9 acb5 11ba 7ee8 753a 0ce1 acba
00000320: af91 ecba 4c8e 86ba 004e 1dbb 68e1 9339
00000330: 6195 d03a f838 c53a 50d5 de3a 803e 6f3a
00000340: d4e2 7b3a e67c 153a 24da d339 1aaa 17b9
00000350: ad77 783a f4b5 8f3a d15e e83a 69b9 39b9
00000360: bf5c bfb9 4e88 7eb9 6c20 6939 6ee8 743a
00000370: c807 9e38 08db 8fb8 ea4a afb9 fc33 a33a
00000380: 3a10 25b8 f0f0 ca39 a847 8c3a 36b8 063b
00000390: 0e24 e43a 9c3c 4eba 4299 24ba 9c17 203a
000003a0: 83c2 c439 3500 1e3a c076 f337 dc62 e539
000003b0: 6e23 913a 804e 063a 65b7 30ba 6b01 c139
000003c0: e17d 0dba 371e 9136 2820 4038 baa1 bc37
000003d0: e8f8 bab7 dcb4 6ab9 6649 8634 8827 36b7
000003e0: 95d9 3539 b2c4 3eba 64ac 8337 68ad a9b9
000003f0: 5070 d6b7 5654 cbb7 33a5 2039 a704 8838

momentum_buffer f4 [128]
0.0032620295 0.0020960688 -8.6925094e-05 -6e-45 0.0016854992 -3.585941e-05 -0.0031443345 -0.008843317
1.0390204e-13 -0.00068183476 -0.00820364 0.005916452 -0.013747075 0.007039684 0.0034554363 0.0010411812
0.0027875905 0.00023283658 0.0023029277 0.0017371506 0.0013912806 0.00031242077 -0.0057648374 0.00019029056
-0.0015458802 0.00011687644 -0.00080334506 -0.0064044036 0.0072631785 -0.00054591836 -0.0045685116 0.0
0.0 -0.011199346 0.0012512231 0.0086919265 0.004124611 0.0 -0.00032931333 -0.0010515217
0.0051726755 -0.0020887365 -0.0003199165 0.0032884253 0.0026921397 -6e-45 0.002776136 -0.005354589
-0.00079516787 -0.0013109259 0.01203988 0.0042838557 0.0018210526 3.615537e-05 0.00017676727 -0.0001442188
-0.003169515 0.0031053056 0.0019916925 -0.00030834757 -0.003468299 -0.011373356 -0.024667867 -0.003051275
0.001105186 0.002021947 -1.5566971e-11 -0.00032380468 0.00085603073 0.0 0.00015915732 0.007420102
-0.0024699871 0.0026250028 -0.0001295401 0.00038221345 0.0051420173 -0.007597346 -0.0017555372 -2.3161542e-06
-0.0025118287 -0.0015137333 -0.0010826546 0.0031870047 -0.005747177 0.0018008396 0.004718867 9.962915e-05
-0.0030918333 8.917883e-07 0.0017714779 0.000117527976 -0.02049551 0.0064951708 -0.004027437 -0.0068521774
-6.233565e-06 -0.018595869 0.006966013 0.0009969441 0.0050157327 -9.592475e-07 0.005981302 0.0023755403
-0.0009903349 0.0024470664 -0.0076712766 -0.0027446714 1.5806565e-05 0.0004648862 0.006238884 -0.0040882714
0.008124433 0.01267202 -0.007904747 -1.1241759e-05 0.0 0.0021762783 0.0036573033 0.0026784376
-7.857673e-07 0.0041039204 0.0069478564 -0.00019261747 0.00018225852 0.0058138007 -0.00012447628 0.0029478443
00000000: c6c7 553b 335e 093b 8e4b b6b8 0400 0080
00000010: f8eb dc3a c067 16b8 2e11 4ebb 8fe3 10bc
00000020: 73f7 e929 28bd 32ba 8f68 06bc ccde c13b
00000030: 693b 61bc 26ad e63b 9a74 623b 3e78 883a
00000040: 02b0 363b 9825 7439 b7ec 163b 1ab1 e33a
00000050: a15b b63a 68cc a339 f6e6 bcbb bc88 4739
00000060: 229f caba 901b f538 9397 52ba 08dc d1bb
00000070: f5ff ed3b f61b 0fba 74b3 95bb 0000 0000
00000080: 0000 0000 767d 37bc 1500 a43a 9568 0e3c
00000090: bf27 873b 0000 0000 b0a7 acb9 37d3 89ba
000000a0: 8c7f a93b 2fe3 08bb 77ba a7b9 9f82 573b
000000b0: 9c6e 303b 0400 0080 d5ef 353b 8c75 afbb
000000c0: d072 50ba 60d3 abba eb42 453c 965f 8c3b
000000d0: 63b0 ee3a 88a5 1738 9a5a 3939 7039 17b9
000000e0: a3b7 4fbb 6282 4b3b 0e87 023b b6a9 a1b9
000000f0: 674c 63bb 5057 3abc 4414 cabc e6f7 47bb
00000100: e3db 903a a482 043b b4ed 88ad 54c4 a9b9
00000110: 4067 603a 0000 0000 78e3 2639 5424 f33b
00000120: 82df 21bb 3d08 2c3b 28d5 07b9 d263 c839
00000130: 5e7e a83b 28f3 f8bb 0e1a e6ba 3a6f 1bb6
00000140: 7e9d 24bb 7668 c6ba dce7 8dba 11dd 503b
00000150: d152 bcbb 260a ec3a baa0 9a3b feef d038
00000160: 5ba0 4abb 3a63 6f35 ef30 e83a 5a79 f638
00000170: 33e6 a7bc 71d5 d43b 97f8 83bb 3b88 e0bb
00000180: ea29 d1b6 5d56 98bc 2743 e43b e5ab 823a
00000190: 045b a43b 7ebf 80b5 ccfe c33b f4ae 1b3b
000001a0: 20ce 81ba f65e 203b 555f fbbb f2df 33bb
000001b0: 5798 8437 f8bb f339 8d6f cc3b e8f6 85bb
000001c0: 581c 053c 4e9e 4f3c e982 01bc fd9a 3cb7
000001d0: 0000 0000 e49f 0e3b 5eaf 6f3b ba88 2f3b
000001e0: 85ed 52b5 2e7a 863b d8aa e33b 5cf9 49b9
000001f0: a61c 3f39 b281 be3b d985 02b9 9f30 413b

momentum_buffer f4 [64, 128]
6e-45 6e-45 0.0 6e-45 6e-45 0.0 6e-45 6e-45
0.0 6e-45 6e-45 6e-45 6e-45 6e-45 6e-45 6e-45
6e-45 6e-45 6e-45 0.0 -6e-45 6e-45 6e-45 6e-45
6e-45 0.0 0.0 6e-45 6e-45 6e-45 6e-45 0.0
0.0 -6e-45 0.0 6e-45 6e-45 0.0 6e-45 0.0
6e-45 6e-45 0.0 6e-45 6e-45 6e-45 6e-45 6e-45
6e-45 6e-45 6e-45 6e-45 6e-45 0.0 6e-45 6e-45
6e-45 6e-45 6e-45 6e-45 6e-45 6e-45 6e-45 6e-45
0.0 6e-45 0.0 6e-45 6e-45 0.0 0.0 0.0
6e-45 6e-45 6e-45 6e-45 6e-45 6e-45 6e-45 0.0
6e-45 6e-45 6e-45 6e-45 6e-45 6e-45 6e-45 -6e-45
6e-45 0.0 0.0 0.0 6e-45 6e-45 0.0 6e-45
6e-45 6e-45 6e-45 6e-45 6e-45 0.0 6e-45 6e-45
6e-45 6e-45 6e-45 0.0 0.0 6e-45 6e-45 6e-45
6e-45 6e-45 6e-45 6e-45 0.0 6e-45 6e-45 6e-45
0.0 6e-45 6e-45 0.0 -6e-45 6e-45 0.0 6e-45
-0.0006723887 0.00030970387 2.8991488e-05 6e-45 -0.00053473795 5.9725676e-07 -0.0033864155 -5.060411e-05
-1.0779577e-15 1.5282289e-05 -0.0041545075 -0.00017205486 -0.0035119357 0.0008470486 0.0003237375 -0.00063045556
-0.00025661453 0.00078746746 -0.002924942 0.00026433077 -1.3242082e-05 -0.0012248333 -0.0018421644 9.159728e-05
-0.004816191 9.538398e-05 -1.4337983e-05 1.8957071e-06 0.0026779312 -0.0014835133 -0.0024018912 0.0
0.0 -0.00013912929 0.00046876978 0.0011074562 -0.004046009 0.0 -0.00059729203 0.00025543827
-0.001127261 0.0002999443 8.459734e-06 -0.00051623257 -0.00031642988 6e-45 -6.1856117e-06 -0.0016684822
-0.003904559 -0.003116416 -0.00064088125 -0.0019044594 -0.0019093206 -3.86395e-06 0.0006771678 0.00093527953
-0.0015800614 0.0009718895 -0.0014091171 -3.1626125e-05 0.003976479 4.8998743e-05 6.447174e-05 -0.0029757558
0.00019385383 -0.0009145471 1.0939424e-12 9.413202e-06 3.683538e-05 0.0 2.362742e-05 0.0017353445
0.0025899224 0.0007316931 -0.0004895516 1.2386844e-05 -0.0055400915 0.00064953364 -0.0022945385 5.9297264e-08
-0.0028471828 0.0015925933 -0.002919635 0.00088958 -0.0008874661 -0.0033455319 -0.0018377803 -3.367384e-06
-0.00038070633 2.4285624e-08 0.0024321412 2.9045275e-06 0.0010356964 0.00040676445 9.807785e-05 -0.005112995
2.7620042e-15 0.0002713105 -0.0019338042 -0.00066182326 0.0030620494 5.8391123e-07 0.0013139471 -0.0019140902
-0.00046893238 0.0008236135 -7.670093e-05 -0.0004408292 -3.7875836e-06 0.0022897883 0.00017653825 -0.001640456
0.0006103036 5.8978796e-05 -0.003947135 -1.6403504e-06 0.0 -0.0001103268 0.0002764517 0.0016058193
-1.8176273e-11 0.0016432239 -0.001515276 6.0833765e-05 3.9620514e-05 -0.00080569554 -6.6219172e-06 -0.001785438
00000000: 0400 0000 0400 0000 0000 0000 0400 0000
00000010: 0400 0000 0000 0000 0400 0000 0400 0000
00000020: 0000 0000 0400 0000 0400 0000 0400 0000
00000030: 0400 0000 0400 0000 0400 0000 0400 0000
00000040: 0400 0000 0400 0000 0400 0000 0000 0000
00000050: 0400 0080 0400 0000 0400 0000 0400 0000
00000060: 0400 0000 0000 0000 0000 0000 0400 0000
00000070: 0400 0000 0400 0000 0400 0000 0000 0000
00000080: 0000 0000 0400 0080 0000 0000 0400 0000
00000090: 0400 0000 0000 0000 0400 0000 0000 0000
000000a0: 0400 0000 0400 0000 0000 0000 0400 0000
000000b0: 0400 0000 0400 0000 0400 0000 0400 0000
000000c0: 0400 0000 0400 0000 0400 0000 0400 0000
000000d0: 0400 0000 0000 0000 0400 0000 0400 0000
000000e0: 0400 0000 0400 0000 0400 0000 0400 0000
000000f0: 0400 0000 0400 0000 0400 0000 0400 0000
00000100: 0000 0000 0400 0000 0000 0000 0400 0000
00000110: 0400 0000 0000 0000 0000 0000 0000 0000
00000120: 0400 0000 0400 0000 0400 0000 0400 0000
00000130: 0400 0000 0400 0000 0400 0000 0000 0000
00000140: 0400 0000 0400 0000 0400 0000 0400 0000
00000150: 0400 0000 0400 0000 0400 0000 0400 0080
00000160: 0400 0000 0000 0000 0000 0000 0000 0000
00000170: 0400 0000 0400 0000 0000 0000 0400 0000
00000180: 0400 0000 0400 0000 0400 0000 0400 0000
00000190: 0400 0000 0000 0000 0400 0000 0400 0000
000001a0: 0400 0000 0400 0000 0400 0000 0000 0000
000001b0: 0000 0000 0400 0000 0400 0000 0400 0000
000001c0: 0400 0000 0400 0000 0400 0000 0400 0000
000001d0: 0000 0000 0400 0000 0400 0000 0400 0000
000001e0: 0000 0000 0400 0000 0400 0000 0000 0000
000001f0: 0400 0080 0400 0000 0000 0000 0400 0000
00000200: 3e43 30ba c05f a239 bf32 f337 0400 0000
00000210: a82d 0cba 2c53 2035 a0ee 5dbb c03f 54b8
00000220: 9f59 9ba6 7732 8037 8922 88bb a069 34b9
00000230: 8128 66bb 780c 5e3a 50bb a939 2845 25ba
00000240: 388a 86b9 0c6e 4e3a 62b0 3fbb e095 8a39
00000250: 4f2a 5eb7 968a a0ba c874 f1ba ea17 c038
00000260: 23d1 9dbb e208 c838 2b8d 70b7 0070 fe35
00000270: 3b80 2f3b 7272 c2ba 0c69 1dbb 0000 0000
00000280: 0000 0000 3ce3 11b9 37c5 f539 1028 913a
00000290: 6294 84bb 0000 0000 9793 1cba 58ec 8539
000002a0: 9ac0 93ba d841 9d39 48ee 0d37 c853 07ba
000002b0: 80e6 a5b9 0400 0000 008e cfb6 f9b0 daba
000002c0: a1e3 7fbb c93c 4cbb d000 28ba 0e9f f9ba
000002d0: 2b42 faba 14a7 81b6 f683 313a 8c2d 753a
000002e0: 101a cfba 66c6 7e3a 20b2 b8ba 4ba6 04b8
000002f0: 204d 823b 0084 4d38 0035 8738 e604 43bb
00000300: 3e45 4b39 38be 6fba 6ef5 992b 65ed 1d37
00000310: b07f 1a38 0000 0000 8033 c637 8074 e33a
00000320: b0bb 293b 18cf 3f3a 4055 00ba 17d1 4f37
00000330: a889 b5bb 7745 2a3a f85f 16bb 08ae 7e33
00000340: cd97 3abb 90be d03a 5957 3fbb b432 693a
00000350: d8a4 68ba b640 5bbb ade1 f0ba 37fb 61b6
00000360: 8a99 c7b9 a79c d032 8f64 1f3b 67eb 4236
00000370: 34c0 873a 0043 d539 25af cd38 e98a a7bb
00000380: fc05 4727 ae3e 8e39 b477 fdba 357e 2dba
00000390: aaac 483b 13be 1c35 c038 ac3a 36e2 faba
000003a0: 0adb f5b9 c4e7 573a 80da a0b8 181f e7b9
000003b0: 312e 7eb6 4610 163b 201d 3939 9204 d7ba
000003c0: c8fc 1f3a 0060 7738 f856 81bb 032a dcb5
000003d0: 0000 0000 405f e7b8 b8f0 9039 5b7a d23a
000003e0: 54e1 9fad 7261 d73a 3a9c c6ba c227 7f38
000003f0: 342e 2638 5035 53ba d631 deb6 5c05 eaba

momentum_buffer f4 [64]
6e-45 -0.0020614704 -0.0058927895 0.0 0.0 -0.007187495 -0.0010147183 0.0059338487
-0.017129578 -0.0022240533 0.006797962 0.0 0.0 -0.006101044 0.0009832862 -0.0016413451
-0.0026839671 1.065496e-05 -0.0054390263 0.0008535396 0.0062728142 -0.0047841533 6e-45 -0.0031151255
8e-45 0.0 -0.02254354 -0.028103959 -0.009947588 -0.0015068967 0.0 -0.017732365
2.7680679e-05 -6e-45 -0.00020125665 0.001985957 -0.0012031713 0.002739657 0.0052599967 0.0
-6e-45 0.0044571385 0.0053099617 0.0047498317 6e-45 -0.00022227387 -0.0010204469 -0.005699239
0.012569314 -0.0010787407 0.0 0.022931483 0.0 0.0058146156 -0.014955951 0.0115341665
0.012347478 0.004140726 -0.00889745 0.003422222 -0.010485985 -0.014137402 -0.0002583675 -0.019920817
00000000: 0400 0000 bc19 07bb 4d18 c1bb 0000 0000
00000010: 0000 0000 1485 ebbb 4c00 85ba bb70 c23b
00000020: 5453 8cbc 6cc1 11bb 70c1 de3b 0000 0000
00000030: 0000 0000 44eb c7bb 9ce1 803a 6722 d7ba
00000040: 7fe5 2fbb b4c2 3237 dc39 b2bb 13c0 5f3a
00000050: 2e8c cd3b 63c4 9cbb 0400 0000 2227 4cbb
00000060: 0600 0000 0000 0000 3bad b8bc 463a e6bc
00000070: 35fb 22bc 1083 c5ba 0000 0000 7743 91bc
00000080: ce33 e837 0400 0080 6c08 53b9 d426 023b
00000090: bbb3 9dba d18b 333b 0d5c ac3b 0000 0000
000000a0: 0400 0080 300d 923b 30ff ad3b 7aa4 9b3b
000000b0: 0400 0000 3012 69b9 84c0 85ba afc0 babb
000000c0: 86ef 4d3c 8864 8dba 0000 0000 ceda bb3c
000000d0: 0000 0000 8888 be3b ce09 75bc cdf9 3c3c
000000e0: 144d 4a3c edae 873b 9cc6 11bc 5c47 603b
000000f0: 69cd 2bbc 90a0 67bc 8075 87b9 fb30 a3bc

momentum_buffer f4 [5, 64]
-6e-45 0.004655044 0.0060614916 0.0 0.0 0.00954755 -0.01799478 -0.028310321
0.028934339 -0.004158719 -0.0028530667 0.0 0.0 -0.012076058 -0.018966604 0.0052794097
-0.022818517 1.5097255e-05 0.02673123 2.6131007e-05 -0.022427982 0.002907293 6e-45 -0.04124598
-6e-45 0.0 0.0441416 0.026777104 0.013709824 -0.014211824 0.0 0.027989795
7.221938e-07 6e-45 0.009313024 -0.007956955 -0.009816638 -0.0051736636 -0.000691733 0.0
6e-45 0.0027923305 -0.035025828 -0.008768906 6e-45 -0.006216376 -0.004256599 0.010666529
-0.06676093 -0.0042413147 0.0 -0.040962733 0.0 -0.05013378 -0.010470102 -0.0098582
-0.028177818 -0.033281792 0.009104285 -0.007298235 0.0035893018 0.014079398 -0.028472895 0.025455674
6e-45 -0.00025095278 0.011758311 0.0 0.0 0.012659639 0.010811843 0.017856557
0.005729719 -0.00021556206 0.008310864 0.0 0.0 0.011617072 0.011232764 0.0017361573
0.02214777 1.2106264e-05 0.015505614 0.00012966161 0.015905382 0.010712501 6e-45 0.015492668
6e-45 0.0 0.011484591 0.008121356 0.0055321734 -0.007931606 0.0 0.006635395
3.3321523e-06 6e-45 0.007532347 -0.0026050247 4.837173e-05 0.0033486113 0.004047605 0.0
6e-45 0.0005164981 0.027149493 0.005136135 6e-45 0.02282602 0.0019260594 0.0022872072
0.039162267 0.0004017863 0.0 0.038156442 0.0 0.03261347 0.024636785 0.026250463
0.016211072 0.022274602 0.0005128578 0.03113857 0.0017521952 -8.680904e-05 0.020328246 0.005575048
-6e-45 -0.011085398 0.0071576647 0.0 0.0 0.006518578 0.005415424 -0.000117325224
-0.0050542783 -0.014685557 0.00069047057 0.0 0.0 0.008807832 0.008093838 -0.0066441614
0.010155146 1.9575434e-06 0.004698064 1.3588245e-05 -0.0015263401 0.008977952 -6e-45 0.012140194
6e-45 0.0 -0.00010689889 0.0010154468 0.0009776431 -0.029743161 0.0 -0.0019462527
1.3057379e-06 6e-45 0.0045276415 -0.00951127 0.00044301082 -0.005697704 0.0012806666 0.0
6e-45 0.00024456825 0.01208156 -0.00070585555 6e-45 0.012227781 0.0011938016 -0.008052689
0.009511805 0.0010163262 0.0 -0.014954961 0.0 0.023078647 0.017681831 0.0021537265
-0.0029071327 0.01410302 0.0004320175 0.0089788195 0.00088455586 -0.012904185 0.014225209 0.0007374984
-6e-45 -0.007604225 0.0016771654 0.0 0.0 0.00078245957 0.0016823104 -0.009293442
-0.000171849 -0.011235352 -0.002353329 0.0 0.0 0.0030140793 -0.0014598536 0.00047602315
-0.0042255423 7.401587e-07 0.0012775711 8.231443e-06 -0.01131458 0.0010852225 -6e-45 0.003522393
-6e-45 0.0 0.00045813018 0.00016852142 -2.5896443e-05 -0.019196674 0.0 -5.457872e-05
-2.7942326e-07 6e-45 0.00041291674 -0.008389351 -0.0004086043 -0.007688684 2.3566572e-05 0.0
6e-45 -4.2619195e-05 -0.0043230536 -0.0033106888 6e-45 0.0009088619 -0.001732814 0.00015591146
-0.016923627 -0.00019149133 0.0 -0.02942941 0.0 -0.00043032155 0.0034249595 -0.010350397
-0.012367779 -0.0016463915 -1.1139491e-08 -0.007080876 0.00014795116 -0.007327976 0.0042040264 0.00032824295
00000000: 0400 0080 5789 983b 7a9f c63b 0000 0000
00000010: 0000 0000 546d 1c3c ca69 93bc 0ceb e7bc
00000020: b507 ed3c dd45 88bb 84fa 3abb 0000 0000
00000030: 0000 0000 a9da 45bc da5f 9bbc e6fe ac3b
00000040: e6ed babc 374a 7d37 74fb da3c e933 db37
00000050: e3ba b7bc 4888 3e3b 0400 0000 8bf1 28bd
00000060: 0400 0080 0000 0000 d3cd 343d a85b db3c
00000070: 2b9f 603c b6d8 68bc 0000 0000 db4a e53c
00000080: c8dc 4135 0400 0000 a795 183c e35d 02bc
00000090: f7d5 20bc d687 a9bb 6a55 35ba 0000 0000
000000a0: 0400 0000 88ff 363b 3e77 0fbd 75ab 0fbc
000000b0: 0400 0000 beb2 cbbb f17a 8bbb aac2 2e3c
000000c0: f4b9 88bd bafa 8abb 0000 0000 8ac8 27bd
000000d0: 0000 0000 1459 4dbd ca8a 2bbc 4a84 21bc
000000e0: 2bd5 e6bc 7d52 08bd 242a 153c 0826 efbb
000000f0: 7e3a 6b3b 46ad 663c fd3f e9bc 6b88 d03c
00000100: 0400 0000 5092 83b9 eea5 403c 0000 0000
00000110: 0000 0000 606a 4f3c 2824 313c ea47 923c
00000120: 5ec0 bb3b 8008 62b9 4a2a 083c 0000 0000
00000130: 0000 0000 8855 3e3c a109 383c c68f e33a
00000140: 3d6f b53c 021c 4b37 420b 7e3c c6f5 0739
00000150: 014c 823c 7c83 2f3c 0400 0000 f6d4 7d3c
00000160: 0400 0000 0000 0000 de29 3c3c 700f 053c
00000170: 3c47 b53b 91f3 01bc 0000 0000 ba6d d93b
00000180: f19d 5f36 0400 0000 e8d1 f63b 10b9 2abb
00000190: c0e2 4a38 6074 5b3b c6a1 843b 0000 0000
000001a0: 0400 0000 9a65 073a 9d68 de3c 064d a83b
000001b0: 0400 0000 a2fd ba3c d473 fc3a f8e4 153b
000001c0: 9d68 203d d8a6 d239 0000 0000 ee49 1c3d
000001d0: 0000 0000 b495 053d 15d3 c93c 360b d73c
000001e0: 15cd 843c 3a79 b63c 4e71 063a 5016 ff3c
000001f0: eaa9 e53a 400d b6b8 6c87 a63c e4ae b63b
00000200: 0400 0080 879f 35bc d88a ea3b 0000 0000
00000210: 0000 0000 cc99 d53b de73 b13b 800c f6b8
00000220: 5c9e a5bb b19b 70bc b200 353a 0000 0000
00000230: 0000 0000 ba4e 103c 049c 043c 44b7 d9bb
00000240: c561 263c 575e 0336 38f2 993b 11f9 6337
00000250: 7a0f c8ba 4318 133c 0400 0080 aae7 463c
00000260: 0400 0000 0000 0000 e82e e0b8 be18 853a
00000270: 4224 803a eea7 f3bc 0000 0000 6719 ffba
00000280: d040 af35 0400 0000 9c5c 943b 28d5 1bbc
00000290: e843 e839 ceb3 babb 0adc a73a 0000 0000
000002a0: 0400 0000 6539 8039 bcf1 453c 2a09 39ba
000002b0: 0400 0000 0857 483c 5679 9c3a 6def 03bc
000002c0: 67d7 1b3c 4036 853a 0000 0000 a705 75bc
000002d0: 0000 0000 6e0f bd3c 7dd9 903c 8925 0d3b
000002e0: 9885 3ebb 5a10 673c 6880 e239 e61b 133c
000002f0: 8ae1 673a 136c 53bc da10 693c ae54 413a
00000300: 0400 0080 dd2c f9bb 55d4 db3a 0000 0000
00000310: 0000 0000 f91d 4d3a f880 dc3a 8543 18bc
00000320: 5d32 34b9 7b14 38bc 4f3a 1abb 0000 0000
00000330: 0000 0000 dc87 453b 8f58 bfba bf92 f939
00000340: 6b76 8abb 52af 4635 2c74 a73a c719 0a37
00000350: ca60 39bc 063e 8e3a 0400 0080 f3d7 663b
00000360: 0400 0080 0000 0000 3131 f039 20b5 3039
00000370: 303c d9b7 5842 9dbc 0000 0000 74eb 64b8
00000380: a403 96b4 0400 0000 bf7c d839 7d73 09bc
00000390: f139 d6b9 5bf1 fbbb d4b0 c537 0000 0000
000003a0: 0400 0000 03c2 32b8 67a8 8dbb 24f8 58bb
000003b0: 0400 0000 b140 6e3a 971f e3ba 2a7c 2339
000003c0: 6ba3 8abc 10cb 48b9 0000 0000 f215 f1bc
000003d0: 0000 0000 c89c e1b9 4975 603b b694 29bc
000003e0: 3aa2 4abc bbcb d7ba 0060 3fb2 b106 e8bb
000003f0: 5623 1b39 851f f0bb eec1 893b 0618 ac39

momentum_buffer f4 [5]
0.046172924 0.03680448 0.0070981267 -0.0032175086 0.0029879739
00000000: d21f 3d3d 4bc0 163d 6797 e83b d6dc 52bb
00000010: e2d1 433b

conv1.weight f4 [10, 5, 4]
0.059782747 -0.1587024 0.2003193 0.024107527 -0.1405461 0.041853637 -0.23197027 0.29743925
0.11180779 0.059257917 0.010752172 -0.17055666 0.20841387 -0.23076476 -0.02695096 0.09605604
-0.107049055 0.19336544 0.0027439375 0.12304311 0.03333973 0.3620893 -0.04132586 0.022511302
0.122405075 0.3359943 -0.25611883 0.19610573 0.1126809 0.026920207 0.20006292 0.15408114
0.09545444 -0.19502844 -0.2210652 0.08854711 0.15790227 -0.18337639 -0.06360382 0.064635165
0.012252861 -0.01812367 -0.029647827 0.6529622 -0.1281076 0.0033736264 0.011584564 -0.26182926
-0.1580467 0.03728217 0.016554492 -0.20734254 -0.17608097 0.12212996 0.017137527 -0.04187861
0.10411358 -0.17497273 0.023630472 0.16559522 0.3097157 -0.25758058 -0.14644425 -0.18409662
0.389318 -0.022024546 -0.12147004 0.17766489 -0.14026596 0.07997753 -0.071483694 -0.16000858
-0.0027949978 0.069380105 -0.006144041 0.17507218 0.12721133 -0.023232697 0.061886746 -0.10770455
-0.20177807 0.3098083 0.22445355 0.11338893 0.12797742 -0.058369767 -0.021603141 -0.2440473
-0.13367379 -0.03967131 0.22912683 -0.15270518 0.08396484 -0.13883787 -0.10730965 -0.019636322
-0.058093872 0.11542272 0.14038911 0.07751099 -0.16412257 -0.04031625 -0.19682772 -0.20585328
0.21063924 -0.10796815 0.04696979 0.1496351 -0.09460955 0.09347493 0.11998893 0.22789784
0.16925511 -0.17333004 -0.0025086286 0.12714699 0.083244234 0.12475061 -0.06414038 -0.15553518
0.26752362 0.19139935 0.08065486 0.20245959 -0.053274475 -0.12323537 0.034297362 -0.10278811
-0.18872882 -0.06098512 0.0282951 0.17527753 0.16687103 -0.0858601 0.16168857 0.18541206
0.20501803 0.011316859 -0.09164497 -0.0061875703 -0.2275716 0.07798002 -0.22337182 0.2549395
0.074588686 -0.16853116 -0.21611722 0.16851209 0.17066167 0.14441285 0.19189599 0.013804952
0.0065555763 0.13581924 -0.0071554887 -0.14354354 0.13301532 0.026452864 -0.0557023 -0.1625478
0.019844513 0.15208416 0.19927563 0.018771827 -0.22213371 -0.27437162 -0.22857234 0.059569612
-0.02314684 -0.046729103 0.011772976 -0.16106303 -0.010325046 -0.1930788 0.08297159 -0.20175484
0.012339288 0.017293913 0.15082796 0.015139506 0.2064007 -0.02909596 -0.21541677 0.08929714
-0.022388248 0.078341305 0.032071218 -0.0931972 0.19135599 -0.19096325 -0.17734289 0.028801113
-0.061593972 0.06983197 -0.082498915 0.07808389 0.031587534 0.17690732 0.076983534 -0.17587304
00000000: c1de 743d e282 22be 8120 4d3e 267d c53c
00000010: 51eb 0fbe b86e 2b3d 9d89 6dbe f549 983e
00000020: 7cfb e43d 6eb8 723d e129 303c 68a6 2ebe
00000030: 726a 553e 994d 6cbe 42c8 dcbc 07b9 c43d
00000040: 893c dbbd 9701 463e a2d3 333b 07fe fb3d
00000050: 3e8f 083d c563 b93e 4e45 29bd 9f69 b83c
00000060: 83af fa3d 7207 ac3e 0222 83be f1cf 483e
00000070: 3ec5 e63d c487 dc3c 4bdd 4c3e 72c7 1d3e
00000080: 9e7d c33d 89b5 47be ea5e 62be 3058 b53d
00000090: 22b1 213e 05c7 3bbe b842 82bd 715f 843d
000000a0: 39c0 483c 1778 94bc 00e0 f2bc 8828 273f
000000b0: a42e 03be 0f18 5d3b 2fcd 3d3c 7c0e 86be
000000c0: fed6 21be 30b5 183d 499d 873c 9a51 54be
000000d0: 924e 34be 461f fa3d 0064 8c3c e888 2bbd
000000e0: 8039 d53d 0d2c 33be b194 c13c cb91 293e
000000f0: 0e93 9e3e 9ae1 83be 7bf5 15be d383 3cbe
00000100: b054 c73e d26c b4bc 49c5 f8bd c9ed 353e
00000110: e1a1 0fbe 42cb a33d 0b66 92bd 4ad9 23be
00000120: 482c 37bb 2817 8e3d f453 c9bb 1f46 333e
00000130: b043 023e 7f52 bebc f57c 7d3d 3494 dcbd
00000140: e99e 4ebe 329f 9e3e 27d7 653e 7538 e83d
00000150: 830c 033e 2315 6fbd 12f9 b0bc 89e7 79be
00000160: c8e1 08be 627e 22bd 39a0 6a3e bf5e 1cbe
00000170: c2f5 ab3d 842b 0ebe 29c5 dbbd 5adc a0bc
00000180: d7f3 6dbd bf62 ec3d 2ac2 0f3e 15be 9e3d
00000190: bf0f 28be a722 25bd 358d 49be 34cb 52be
000001a0: d0b1 573e 681e ddbd 6563 403d f239 193e
000001b0: a7c2 c1bd c96f bf3d c2bc f53d 0d5e 693e
000001c0: 3651 2d3e 6e7d 31be ce67 24bb d232 023e
000001d0: f47b aa3d 3f7d ff3d 085c 83bd 9d44 1fbe
000001e0: dbf8 883e 31fe 433e 602e a53d 9151 4f3e
000001f0: 5636 5abd d362 fcbd 647b 0c3d 9382 d2bd
00000200: 2142 41be 88cb 79bd 20cb e73c f47b 333e
00000210: 3de0 2a3e 6cd7 afbd b091 253e a9dc 3d3e
00000220: 3ff0 513e 596a 393c 5cb0 bbbd 1ac1 cabb
00000230: 8808 69be fdb3 9f3d 95bb 64be 6e87 823e
00000240: f4c1 983d 6f93 2cbe d54d 5dbe 6f8e 2c3e
00000250: efc1 2e3e f6e0 133e 6280 443e 2a2e 623c
00000260: 29d0 d63b 3314 0b3e 9778 eabb 14fd 12be
00000270: 2b35 083e adb3 d83c 1828 64bd ee72 26be
00000280: f690 a23c f3bb 1b3e e90e 4c3e 60c7 993c
00000290: 0577 63be 707a 8cbe de0e 6abe 44ff 733d
000002a0: 719e bdbc 0467 3fbd 71e3 403c b5ed 24be
000002b0: 622a 29bc 73b6 45be 02ed a93d d298 4ebe
000002c0: ba2a 4a3c f7ab 8d3c a572 1a3e b10b 783c
000002d0: b55a 533e a75a eebc 3796 5cbe 6be1 b63d
000002e0: 8f67 b7bc 6871 a03d 1c5d 033d 2cde bebd
000002f0: d3f2 433e df8b 43be 6099 35be 50f0 eb3c
00000300: f649 7cbd 1004 8f3d 31f5 a8bd 72ea 9f3d
00000310: ee61 013d 3127 353e 8ba9 9d3d 1018 34be

conv1.bias f4 [10]
0.041312676 -0.14302701 0.15338938 0.054104783 0.22513393 -0.012136564 -0.038257785 -0.19897996
0.23126861 0.0019266942
00000000: 7b37 293d ac75 12be 1b12 1d3e fa9c 5d3d
00000010: 8289 663e 70d8 46bc 32b4 1cbd 67c1 4bbe
00000020: aed1 6c3e 2189 fc3a

fc0.weight f4 [64, 610]
-0.030647507 0.026752312 -0.028180493 0.0286715 -0.004197544 -0.012619956 -0.002884797 0.021484494
0.010742785 -0.011197928 0.01510619 -0.015659131 0.028072461 -0.019424362 0.0015299727 -0.021873396
0.025974914 -0.018883266 0.009554322 0.0038486428 0.015034602 0.0033050019 0.016934538 0.010829369
-0.010510601 -0.021092428 0.03297322 -0.037526093 0.0027181553 0.0106379865 0.018558549 0.021862004
0.016549138 -0.008839058 0.031390104 -0.034117457 -0.020458993 -0.018408777 -0.014269311 0.021103779
-0.023836652 0.030619608 0.031962533 -0.036782246 -0.011273297 -0.00069665315 0.04092349 -0.031910386
0.030811075 0.012984473 0.039208513 0.024679948 -0.037408296 -0.018673938 0.025662815 -0.017567262
0.03454299 -0.02095308 0.03969876 -0.00697106 0.012750857 -0.023262853 0.00668835 0.016591223
-0.005531468 0.011516413 0.014622748 -0.038841706 0.0004432472 -0.016487842 -0.015837952 0.011219676
0.0369551 0.031546876 -0.025606263 0.019126007 -0.010621378 0.022686139 -0.019926243 0.027032379
0.022985108 -0.01223665 -0.004919943 -0.020132465 -0.014318241 -0.01412364 0.019327438 -0.018894525
0.034508288 -0.016625255 0.02446502 -0.016984679 -0.034690898 0.0035609726 0.029018763 -0.0024419106
-0.008202447 -0.0054991143 0.015182227 -0.027918147 -0.014217913 0.036368612 -0.00029117463 0.03659927
-0.030370213 0.025824862 0.022661548 0.03806343 -0.006591473 0.0038393363 -0.023592891 -0.0045776637
-0.016925065 0.00804565 -0.018384231 -0.03494591 0.04025395 -0.040539894 -0.035769835 -0.0017200166
-0.012995704 0.011696607 0.006579104 0.0045014806 0.01890216 -0.017482392 -0.03203841 0.036307767
-0.025175324 0.027796283 -0.020055154 0.026849912 -0.032658294 0.0048814532 0.029171957 0.006113627
0.032203812 -0.0040277764 0.009118013 -0.037092425 0.025005104 0.024047906 0.027300011 -0.014044234
0.012109721 0.028406715 -0.032332607 0.009030046 -0.00027699856 0.038573094 -0.034001566 -0.0044550844
-0.026401028 -0.04028701 -0.039787523 0.006404201 -0.017936168 0.013056121 -0.030892994 0.030211648
-0.03069572 -0.022372292 0.003662771 0.010795885 0.025261944 -0.025299618 0.011773904 0.008022035
-0.015016973 -0.015220658 -0.007020721 -0.03160064 0.011647477 -0.029259028 -0.013344697 0.026927348
-0.02980528 0.0039292565 0.016858825 0.015391447 0.031138761 0.008305344 -0.037868142 0.029607968
-0.026879553 -0.010317455 -0.0038170186 0.025801275 -0.0007129889 0.013524798 -0.029809492 0.04529441
-0.020786712 0.008824307 0.015547576 0.02655287 0.00898655 0.010680834 0.031830244 -0.028600585
0.007475607 0.007564358 0.03267061 0.04399748 -0.0099356985 -0.038937144 0.013428858 0.020590175
0.022382013 0.002387504 0.00817607 -0.018164907 -0.03455458 0.02192753 0.028631385 0.024484353
-0.025344454 -0.016434858 -0.0044527133 -0.010327395 -0.032632202 -0.019549299 0.027021991 -0.023993608
-0.0026057712 -0.02983196 -0.031773068 0.011711281 -0.011339331 0.031593993 0.0030901295 0.036754325
0.0021430892 -0.020363303 0.0016749101 0.029206567 -0.013081659 -0.020614237 0.022980805 -0.032950822
0.022243677 -0.031996723 -0.008178676 -0.017752826 -9.419706e-05 0.03092175 0.03470613 -0.004497194
0.003807178 9.994741e-05 -0.019905996 0.026218154 0.02296163 -0.017576845 -0.027575983 -0.024888214
00000000: 7b10 fbbc aa27 db3c c7da e6bc 7ee0 ea3c
00000010: 8d8b 89bb efc3 4ebc dd0e 3dbb 4000 b03c
00000020: 8202 303c 8477 37bc f47f 773c 9447 80bc
00000030: 38f8 e53c d71f 9fbc 5d89 c83a d62f b3bc
00000040: 58c9 d43c 14b1 9abc bb89 1c3c 8339 7c3b
00000050: b153 763c bb98 583b 4dba 8a3c aa6d 313c
00000060: a834 2cbc 07ca acbc ed0e 073d f6b4 19bd
00000070: 1423 323b f34a 2e3c 1908 983c f217 b33c
00000080: 0f92 873c b2d1 10bc e992 003d bfbe 0bbd
00000090: 9e99 a7bc 01ce 96bc d4c9 69bc d5e1 ac3c
000000a0: 1545 c3bc f9d5 fa3c 25eb 023d fba8 16bd
000000b0: a2b3 38bc 9a9f 36ba 649f 273d 77b4 02bd
000000c0: 8267 fc3c d4bc 543c 1b99 203d 9a2d ca3c
000000d0: 7139 19bd 16fa 98bc d33a d23c 38e9 8fbc
000000e0: f37c 0d3d cba5 abbc 2b9b 223d 7d6d e4bb
000000f0: f8e8 503c bd91 bebc f229 db3b 51ea 873c
00000100: 5141 b5bb 56af 3c3c 4094 6f3c 7b18 1fbd
00000110: a263 e839 8311 87bc 98be 81bc bbd2 373c
00000120: 3b5e 173d 4c37 013d 3ac4 d1bc 25ae 9c3c
00000130: 4a05 2ebc 48d8 b93c 5c3c a3bc 0273 dd3c
00000140: 444b bc3c 3b7c 48bc 7937 a1bb d7ec a4bc
00000150: 0e97 6abc d766 67bc 9354 9e3c b1c8 9abc
00000160: 9058 0d3d b031 88bc de6a c83c 7423 8bbc
00000170: 0b18 0ebd 355f 693b c2b8 ed3c 7608 20bb
00000180: 8e63 06bc ea31 b4bb e0be 783c 99b4 e4bc
00000190: 40f2 68bc 41f7 143d cca8 98b9 1ee9 153d
000001a0: f4ca f8bc a98e d33c b6a4 b93c 66e8 1b3d
000001b0: 48fd d7bb 609d 7b3b e145 c1bc 3a00 96bb
000001c0: 6fa6 8abc e7d1 033c 879a 96bc 7123 0fbd
000001d0: 53e1 243d 290d 26bd 6483 12bd 2e72 e1ba
000001e0: efeb 54bc 20a3 3f3c 8695 d73b 2881 933b
000001f0: b4d8 9a3c 3c37 8fbc b53a 03bd 74b7 143d
00000200: 7b3c cebc 08b5 e33c b54a a4bc 59f4 db3c
00000210: b4c4 05bd 99f4 9f3b 07fa ee3c d254 c83b
00000220: 25e8 033d 70fb 83bb b863 153c 3aee 17bd
00000230: 81d7 cc3c 1d00 c53c 46a4 df3c c919 66bc
00000240: da67 463c 33b5 e83c 326f 04bd c2f2 133c
00000250: 1e3a 91b9 d2fe 1d3d 3a45 0bbd f5fb 91bb
00000260: f846 d8bc fe03 25bd 3ef8 22bd 55da d13b
00000270: dfee 92bc 57e9 553c 4e13 fdbc 6b7e f73c
00000280: 9775 fbbc 1946 b7bc 1a0b 703b 39e1 303c
00000290: 23f2 ce3c 2541 cfbc 55e7 403c da6e 033c
000002a0: c009 76bc 1160 79bc 140e e6bb ac6f 01bd
000002b0: 0fd5 3e3c a1b0 efbc b7a3 5abc be96 dc3c
000002c0: 342a f4bc fec0 803b 851b 8a3c 682c 7c3c
000002d0: b716 ff3c 2313 083c a01b 1bbd 698c f23c
000002e0: 8232 dcbc 8b0a 29bc f226 7abb 325d d33c
000002f0: e0e7 3aba 1d97 5d3c 0933 f4bc a286 393d
00000300: e548 aabc d393 103c 43bb 7e3c 6885 d93c
00000310: 533c 133c aafe 2e3c 6e60 023d c64b eabc
00000320: f0f5 f43b 6fde f73b 9ed1 053d b436 343d
00000330: 57c9 22bc 8e7c 1fbd b604 5c3c baac a83c
00000340: 7c5a b73c ac77 1c3b ecf4 053c 92ce 94bc
00000350: 1a89 0dbd 5da1 b33c 5e8c ea3c 6993 c83c
00000360: 2c9f cfbc 65a2 86bc 11e8 91bb 3c34 29bc
00000370: 58a9 05bd da25 a0bc 395d dd3c 3e8e c4bc
00000380: 96c5 2abb 2862 f4bc 7a24 02bd ace0 3f3c
00000390: 9ac8 39bc b468 013d c583 4a3b b48b 163d
000003a0: 1273 0c3b f1d0 a6bc a888 db3a 9c42 ef3c
000003b0: 7454 56bc 30df a8bc 3e42 bc3c 71f7 06bd
000003c0: 5f38 b63c ff0e 03bd daff 05bc 606e 91bc
000003d0: a98b c5b8 9c4f fd3c 0428 0e3d 335d 93bb
000003e0: d981 793b db9a d138 e611 a3bc 74c7 d63c
000003f0: 071a bc3c 51fd 8fbc 07e7 e1bc 5ee2 cbbc
