tb_logs/ConvNet_1_0_2_mozart/version_0/checkpoints/epoch=11.ckpt (torch_old, 695720 bytes, 24 tensors)

momentum_buffer f4 [10, 5, 4]
00000000: 38a7 0fbb f94a 213c 812b de3b a2d6 743d
00000010: 1319 b4bb 823d 1ebd 52cb cabb 309b 9d3b
00000020: e6bc 91ba 86a9 b7bb d791 41bb 0c44 d4bb
00000030: b27e 9fba 5eaf 6bbb 20a3 6f39 0a22 bebb
00000040: 9878 b7ba 9878 b7ba 9878 b7ba 9878 b7ba
00000050: c0ac 2dbb ac94 713d 2b47 d83c 0c91 5a3d
00000060: 6678 c8bb c97c 01bc 6b3d 4cbb 2478 8c3c
00000070: 782f d5ba 0ccd e83a 2ba2 aabb 6bc8 e03a
00000080: c593 7eba 43cb 3fba 2072 89ba 5e2b c8ba
00000090: 2072 89ba 2072 89ba 2072 89ba 2072 89ba
000000a0: d640 c23c 622b 793c 2c7e f4ba 3839 f73a
000000b0: cc20 f63b 9dd7 e53a 38c8 ddb9 b0a5 02bc
000000c0: c982 023c 9dd7 e53a c01c 1eba f1c2 f83a
000000d0: a5f8 b23b 9dd7 e53a e31b 30ba fc95 083b
000000e0: 9dd7 e53a 9dd7 e53a 9dd7 e53a 9dd7 e53a
000000f0: 4839 083d b63e a63c a186 9cbc 48f9 13bb
00000100: 32f9 1cbc b6f9 24bb 68ae a1bc 6edb 3abc
00000110: eef1 883a b029 85b9 fe1a 8cbc 5b91 fbb9
00000120: dc73 f2b9 9082 d2b8 8135 80bb 3f58 2c3b
00000130: 48e0 84b9 48e0 84b9 48e0 84b9 48e0 84b9
00000140: 9c1d a73a fae6 6fbb 67df 2e3c 1ec4 3bbb
00000150: 0cf4 43ba 7d72 a7bb 49e0 9e3b f925 c9bb
00000160: 0ad5 f9ba e50b afbb 1726 7eba d8f4 c0bb
00000170: fa3f 0dbb d8f4 c0bb 68f1 29bb d8f4 c0bb
00000180: d8f4 c0bb d8f4 c0bb d8f4 c0bb d8f4 c0bb
00000190: 4704 843b ade1 9d3b 86e1 633b f9d2 8dbc
000001a0: 3178 ac3b 12fe 9c3b 242d 513b 32de 85bc
000001b0: 8f63 ae3b 12fe 9c3b 12fe 9c3b 9029 8f38
000001c0: 5d1c b03b 12fe 9c3b 12fe 9c3b 1d39 2e3b
000001d0: 12fe 9c3b 12fe 9c3b 12fe 9c3b 12fe 9c3b
000001e0: fc01 733c ae2c 8f3a 9213 393c 548b 473c
000001f0: 3fdf 2a3b 18fc 353b 1b55 693b caa8 8c3a
00000200: baf1 fe3a b2a7 90ba 2acc 623a d6e4 94bb
00000210: d1d2 a0ba 4e01 a9ba 2ab5 c03a 8cb2 4bb9
00000220: d1d2 a0ba d1d2 a0ba d1d2 a0ba d1d2 a0ba
00000230: 8e9c 12bd 39c7 a83b 86b9 b9bc 2724 cabc
00000240: 4afc 8abb 85bd 203c 068e 123b 97e9 0bbc
00000250: 3489 74bb b113 0d3b a859 31bb 5771 babb
00000260: 1699 bdba e2d3 d03a d68c d0ba d68c d0ba
00000270: d68c d0ba d68c d0ba d68c d0ba d68c d0ba
00000280: 4554 043c 448c 16bd 76f5 d23b 3c42 023b
00000290: fc57 453c cae7 83bc 483c cdba c59f b93c
000002a0: 94b9 8b3a 0038 39bc e82c 0b3b e312 943b
000002b0: 98a2 c53a 503c aa39 0373 44bb df71 443a
000002c0: af78 40bb af78 40bb af78 40bb af78 40bb
000002d0: 30d8 57bc 9dae 483d 948a c4bb e1f3 57bc
000002e0: 0875 91bc fed6 903b 42f7 50bc 7fc4 013b
000002f0: 881f 6b39 4ea9 233b 1c40 ccbb 9b8f fe3a
00000300: efab 22ba 8d77 3b3b 99aa 96bb 7446 2a3a
00000310: 8a55 a73a 8a55 a73a 8a55 a73a 8a55 a73a
-0.0021919739 0.009844535 0.0067800884 0.059775002 -0.005496153 -0.038632877 -0.0061887885 0.0048097596
-0.0011118918 -0.0056049256 -0.002953639 -0.0064778384 -0.0012168495 -0.0035962681 0.00022853585 -0.0058023976
-0.0013997732 -0.0013997732 -0.0013997732 -0.0013997732 -0.0026500672 0.058979675 0.026401123 0.053360984
-0.0061178682 -0.007903286 -0.0031164538 0.017147131 -0.0016264757 0.0017761304 -0.00520732 0.0017149573
-0.00097113504 -0.000731636 -0.0010486282 -0.0015271713 -0.0010486282 -0.0010486282 -0.0010486282 -0.0010486282
0.023712557 0.015208097 -0.0018653325 0.0018861657 0.007511234 0.0017535571 -0.0004230158 -0.007974073
0.007965752 0.0017535571 -0.0006031506 0.0018978996 0.0054617696 0.0017535571 -0.00067180226 0.002084135
0.0017535571 0.0017535571 0.0017535571 0.0017535571 0.033257753 0.020293575 -0.019107165 -0.0022579003
-0.009580897 -0.0025173253 -0.019736484 -0.011404855 0.0010448077 -0.00025398796 -0.017102715 -0.0004798275
-0.0004624416 -0.000100378995 -0.003912628 0.0026297716 -0.00025344105 -0.00025344105 -0.00025344105 -0.00025344105
0.0012749913 -0.0036606179 0.01067338 -0.002865083 -0.00074750255 -0.0051100836 0.004848514 -0.00613856
-0.0019060683 -0.005341994 -0.0009695007 -0.0058885626 -0.0021553026 -0.0058885626 -0.0025931243 -0.0058885626
-0.0058885626 -0.0058885626 -0.0058885626 -0.0058885626 0.00402883 0.0048181624 0.0034771874 -0.017312514
0.0052633514 0.0047910297 0.0031917775 -0.016341303 0.005321927 0.0047910297 0.0047910297 6.826513e-05
0.005374475 0.0047910297 0.0047910297 0.0026584335 0.0047910297 0.0047910297 0.0047910297 0.0047910297
0.014832016 0.001092335 0.01129617 0.0121792145 0.0026073006 0.0027768668 0.0035603705 0.0010731455
0.0019450702 -0.0011036305 0.00086516386 -0.004543881 -0.001226986 -0.0012894066 0.0014702429 -0.00019426103
-0.001226986 -0.001226986 -0.001226986 -0.001226986 -0.035793833 0.0051507023 -0.022671472 -0.024675442
-0.004241501 0.00981081 0.0022362485 -0.008539579 -0.0037313225 0.002152663 -0.0027061496 -0.0056897807
-0.0014465179 0.0015932287 -0.0015911113 -0.0015911113 -0.0015911113 -0.0015911113 -0.0015911113 -0.0015911113
0.008076732 -0.03675486 0.0064379526 0.0019875905 0.012044903 -0.016101737 -0.0015658224 0.022659192
0.0010660165 -0.011304855 0.0021236483 0.004518853 0.0015078364 0.00032469863 -0.002997578 0.0007493775
-0.0029368808 -0.0029368808 -0.0029368808 -0.0029368808 -0.013174102 0.04899465 -0.005997965 -0.013180704
-0.017756 0.0044201603 -0.012754263 0.0019800959 0.00022423093 0.002497274 -0.0062332284 0.001942146
-0.00062054297 0.0028605193 -0.0045979735 0.00064954837 0.0012766581 0.0012766581 0.0012766581 0.0012766581

momentum_buffer f4 [10]
00000000: c87a b93b 89f3 8a3b df5b e8bb a454 863a
00000010: a111 c33c 20b6 9ebc 9e95 a23b 3cd6 d23b
00000020: 1994 423c 8e2a a9bb
0.0056603886 0.0042404574 -0.00709103 0.0010248614 0.023812117 -0.019373953 0.0049616834 0.00643423
0.01187613 -0.0051625436

momentum_buffer f4 [64, 610]
00000000: fcb8 4e39 0777 45b9 e0f5 8539 9f3c 0539
00000010: f1e8 b739 1e80 cab8 3557 1539 d0f6 d7b9
00000020: 205c f9b6 0945 90b9 00c0 d239 77f7 13b9
00000030: e9f8 bc37 1184 5ab9 7a0f 5b38 2658 20ba
00000040: 94e4 9138 d31a 35ba 8232 e338 a90e f9b9
00000050: 228c 2d37 ed56 a6b8 eeec 6038 660d e7b8
00000060: 0c8e 9f39 3bee d738 1fbf 2a3a 48c8 c039
00000070: 1494 273a 3c82 28b8 2682 d339 cca9 0ab8
00000080: 6a8c 8b39 6822 f638 419c 9739 1ce8 6638
00000090: fa30 de38 4408 9bb8 62f2 83b8 da90 09ba
000000a0: 86be 9037 62b1 32ba ad69 e338 5160 5db9
000000b0: ae22 dcb8 3bae feb8 8847 8537 a8f3 42b9
000000c0: 0b31 0c39 1609 fbb9 9fe0 8738 5157 0138
000000d0: 4354 ba38 8b26 9fb9 b8a9 b037 42c1 adb8
000000e0: a69c c8b7 b41d 15b8 08f9 c737 724d fab8
000000f0: ca60 e5b8 c410 f538 8cda f7b9 353f 9d39
00000100: 427d 9db8 f291 ca39 5efb 78b9 f26f 2239
00000110: 1fc7 e9b9 a323 c038 2bf8 e2b9 9d45 2339
00000120: 10d7 58b9 7985 3938 fd97 b3b9 3cc9 ff38
00000130: df09 7bba 7075 4336 150b 6cba 2fda 7438
00000140: bd12 03ba 5778 0739 9457 4fb8 2c93 4139
00000150: 6285 11b9 533c dd39 38cd 82b7 a7fd e539
00000160: b088 94b7 6635 b839 dc47 29ba bc43 6838
00000170: 5975 19ba cceb fa38 0637 acb9 7574 aa39
00000180: 3b53 41b9 ea34 2639 9cd3 bfb9 75ea a738
00000190: 5791 7cba f434 3e38 fc76 7fba 0207 75b8
000001a0: 0aa0 7cb9 9832 4838 0c18 7eb8 1e3d ec38
000001b0: 3aad 03ba 6e5d f038 1e04 4bba 1728 1639
000001c0: 9979 49b9 0426 0239 42a5 c2b9 bd1c de38
000001d0: 628c f1b8 816f 3f38 e384 b5b8 6020 c437
000001e0: bec8 ceb7 9dea 47b7 65d3 2338 dad4 9f36
000001f0: dcc2 3fb8 feed 25b9 0041 bab8 13e5 fdb8
00000200: ee5b 87b8 9441 b1b6 707d f337 d0e6 32b8
00000210: fad3 69b8 2e1b 86b8 fe72 90b8 02e4 56b8
00000220: 3158 e637 1a0f 1e38 4c71 bf38 f6bd fc38
00000230: 273e 8638 9ec6 2938 1cf6 20b8 d69c 87b7
00000240: c68a fcb8 5ace 93b8 c070 7bb4 3bf4 36b8
00000250: fe5b c9b8 d658 62b9 642a 9eb8 7295 66b8
00000260: f292 ceb8 9e24 b4b8 2c0e a8b8 372d e2b8
00000270: 0ea4 09b9 36eb 26b9 e9ef a4b8 5b76 3ab8
00000280: 4154 ebb7 4f04 d2b7 9863 d038 f3ec f938
00000290: 0b31 c238 326c c2b7 d429 64b8 d2e8 06b8
000002a0: 0869 86b8 f2c7 09b9 0660 1938 5631 e238
000002b0: 50e6 4136 5df8 45b9 1c04 bdb8 429a 05b8
000002c0: 3793 8bb8 c531 6ab8 238a 2f38 15fd d7b8
000002d0: cb30 c8b8 d4e3 64b8 e25f b3b8 97b1 35b9
000002e0: 74c9 ed39 954b 083a 5685 d739 085b 8e39
000002f0: 58b2 40b8 38a3 bbb9 c633 5eb9 424e 3738
00000300: 2b77 6639 8494 cc37 c885 2cb8 e3d6 3db9
00000310: d7c0 c8b9 f1b8 abb9 6642 1cba 86af ffb9
00000320: be1b cbb9 ad70 dfb9 6cdb 0338 5d27 08b9
00000330: 803e bc36 a048 8c39 fa08 7239 63ec 023a
00000340: fffc 833a f0ad 853a 1641 b739 ab70 d339
00000350: 2a25 9a39 9b1a f2b8 5c71 1639 64b9 1339
00000360: 54dc a239 8cd9 5939 4bf8 5938 c66b 3bb8
00000370: 227d c2b9 e92b 76b9 2be9 45ba 5718 10ba
00000380: 5fa0 8bb9 708f 74b9 aef9 3cb9 8156 4db9
00000390: 1c09 3539 1297 5439 f79a 06ba 2e72 efb9
000003a0: 38e9 1339 1de4 4f39 33f9 95b9 3060 67b9
000003b0: b801 7fb8 2003 5db9 d86c cfb8 b863 f738
000003c0: 7912 9fb8 af48 98b9 b048 b9b7 5ff5 6b39
000003d0: 7491 20b9 e870 02b8 5ed9 c5b9 be58 e6b7
000003e0: 7619 1ab9 0dbe 3d38 a3a2 14b9 a053 8e38
000003f0: 382c 90b9 e6a0 2f37 4ade 85b9 9a74 7038
0.00019714603 -0.00018831725 0.00025550928 0.00012706452 0.00035078035 -9.655974e-05 0.00014242234 -0.00041191885
-7.431503e-06 -0.00027517256 0.00040197372 -0.000141112 2.2527254e-05 -0.00020839299 5.2228082e-05 -0.0006116651
6.956715e-05 -0.0006908599 0.00010833611 -0.00047503904 1.0344231e-05 -7.931688e-05 5.362642e-05 -0.00011017434
0.00030432676 0.00010296373 0.00065134646 0.00036770315 0.000639261 -4.017561e-05 0.00040342024 -3.30599e-05
0.00026616763 0.00011736603 0.00028917383 5.5052442e-05 0.000105949075 -7.3925155e-05 -6.291714e-05 -0.000524772
1.7254857e-05 -0.0006816593 0.00010843887 -0.00021112083 -0.00010496877 -0.00012144117 1.5888145e-05 -0.00018592051
0.0001336971 -0.0004788122 6.4791406e-05 3.0837316e-05 8.884866e-05 -0.0003035556 2.1059866e-05 -8.28528e-05
-2.3914803e-05 -3.555203e-05 2.3838613e-05 -0.00011935354 -0.00010937599 0.00011685633 -0.0004727434 0.00029992466
-7.5096745e-05 0.0003863718 -0.00023744765 0.00015491227 -0.0004458958 9.161911e-05 -0.0004329098 0.00015570824
-0.00020679482 4.4231743e-05 -0.0003425478 0.0001219683 -0.0009576361 2.9125622e-06 -0.0009004337 5.8377333e-05
-0.00050000456 0.00012919433 -4.943421e-05 0.0001846074 -0.00013877967 0.0004219735 -1.559277e-05 0.0004386727
-1.7706625e-05 0.00035135 -0.0006457546 5.5376193e-05 -0.0005853973 0.000119648495 -0.00032847392 0.00032511694
-0.0001843692 0.00015850706 -0.0003658802 8.0068516e-05 -0.00096346944 4.5348846e-05 -0.0009745208 -5.841908e-05
-0.00024092212 4.7730835e-05 -6.0580714e-05 0.00011264741 -0.0005023066 0.000114614944 -0.0007744449 0.0001432005
-0.00019214152 0.00012411928 -0.0003712569 0.00010591138 -0.00011517924 4.5641795e-05 -8.655505e-05 2.3380097e-05
-2.4650592e-05 -1.19159495e-05 3.9059105e-05 4.7633484e-06 -4.5719426e-05 -0.00015824285 -8.881278e-05 -0.000121066485
-6.454425e-05 -5.2826454e-06 2.9026269e-05 -4.2653468e-05 -5.5748947e-05 -6.3946805e-05 -6.887874e-05 -5.1233925e-05
2.7459204e-05 3.76842e-05 9.128693e-05 0.000120516794 6.401195e-05 4.0477717e-05 -3.837618e-05 -1.6166287e-05
-0.00012042145 -7.047942e-05 -2.3417215e-07 -4.361964e-05 -9.601562e-05 -0.00021586134 -7.541923e-05 -5.4975455e-05
-9.850216e-05 -8.589889e-05 -8.013504e-05 -0.00010784942 -0.00013126453 -0.00015918617 -7.864816e-05 -4.4456083e-05
-2.8053417e-05 -2.5035957e-05 9.936764e-05 0.000119173805 9.259776e-05 -2.3176985e-05 -5.439839e-05 -3.216492e-05
-6.4091815e-05 -0.00013139824 3.656747e-05 0.00010785709 2.88933e-06 -0.00018879907 -9.012988e-05 -3.1853335e-05
-6.6554574e-05 -5.58363e-05 4.18519e-05 -0.00010299139 -9.5458316e-05 -5.4571618e-05 -8.553245e-05 -0.00017327662
0.00045354257 0.0005199251 0.0004110734 0.00027152174 -4.5942463e-05 -0.00035789027 -0.00021190857 4.3703483e-05
0.00021978903 2.4387853e-05 -4.113259e-05 -0.00018104496 -0.0003829065 -0.00032753454 -0.0005960822 -0.00048768165
-0.00038739847 -0.00042617825 3.1437186e-05 -0.00012984635 5.6101126e-06 0.0002675699 0.00023082262 0.0004994331
0.0010069906 0.0010198932 0.00034952973 0.00040329 0.00029400858 -0.00011544415 0.00014347344 0.00014088076
0.00031063205 0.00020775775 5.1968073e-05 -4.4684646e-05 -0.00037095795 -0.00023476746 -0.00075496983 -0.0005496791
-0.00026631632 -0.00023323088 -0.0001802209 -0.00019582549 0.00017264899 0.00020274174 -0.0005134786 -0.00045670703
0.00014105893 0.00019826037 -0.00028605163 -0.0002206571 -6.079834e-05 -0.00021077367 -9.890803e-05 0.00011796452
-7.5851516e-05 -0.00029045853 -2.2087566e-05 0.00022502754 -0.00015312975 -3.1099567e-05 -0.0003773672 -2.745946e-05
-0.0001469607 4.523811e-05 -0.00014174967 6.786664e-05 -0.00027498766 1.0468275e-05 -0.00025533355 5.7329053e-05

momentum_buffer f4 [64]
00000000: 1255 4db9 f852 8eb7 c901 a9bb 9080 6739
00000010: a1d9 9838 372b 4d39 de33 8aba 6283 7638
00000020: f0fa 2db9 dc91 cd3b e0de 8dbb 89df 0db9
00000030: 5838 ad3c 80f1 5fb8 f2d3 23bb 88ed 4b39
00000040: d773 1fbb 4d19 fa3b 0c83 ca39 dd0d 0e3c
00000050: 9db7 ab35 dc7b 4d3b 5e47 e238 80f4 703a
00000060: ea12 c43b aa9c 18bc 88f7 5e38 846a 81b8
00000070: 46d4 f535 e862 8636 94e8 56b9 b4f0 cdb6
00000080: c90c 4d3a ccb6 30b8 c594 9ebb 8fd7 393c
00000090: 6ef8 443c 0c05 2fba 80e3 acb9 7f35 ebbc
000000a0: cfac 8abc 8912 64bc 3d0a 8c3a 4c82 bb38
000000b0: b47d 6f3b 0781 ac38 af6e f03b 3733 2b39
000000c0: 4367 5cb8 27e6 8ab8 335f 9bbb 729c 75b8
000000d0: e84b 3338 2697 d1bb f9cc 3dba 4c46 4c3b
000000e0: ed99 423c 8e88 5dba b637 dc38 d245 52bb
000000f0: d82a d7b8 b2b6 62b9 399e 3db9 0000 0000
-0.00019582015 -1.6966354e-05 -0.0051576835 0.0002207777 7.288461e-05 0.00019566422 -0.0010544022 5.877333e-05
-0.00016592047 0.0062734913 -0.0043295473 -0.00013530081 0.02114503 -5.3392258e-05 -0.0024998155 0.00019448076
-0.002433052 0.0076324106 0.0003862608 0.008670297 1.2793931e-06 0.0031354344 0.00010789813 0.0009191707
0.0059837 -0.009314695 5.3159456e-05 -6.1710394e-05 1.8315702e-06 4.0050254e-06 -0.00020495272 -6.1374976e-06
0.00078220345 -4.2131913e-05 -0.004839512 0.011342897 0.012022121 -0.0006676472 -0.00032975897 -0.028712032
-0.016928105 -0.013920435 0.0010684204 8.9411245e-05 0.003654343 8.225632e-05 0.0073374133 0.0001632691
-5.2548257e-05 -6.623222e-05 -0.0047415732 -5.8558253e-05 4.274762e-05 -0.006396192 -0.0007240321 0.003116983
0.011877519 -0.0008450829 0.000105007945 -0.0032085073 -0.00010259979 -0.00021621099 -0.00018083387 0.0

momentum_buffer f4 [10, 1, 4]
00000000: 0400 0000 0000 0000 0686 9b12 6974 9313
00000010: 16d5 3b3a f65f 593b 8c3d 20bc 9028 813b
00000020: e85d ad3b aa10 c436 b3c1 cc38 3c2a 5b3b
00000030: 500b ebba 3c31 833c 7ddc 6e3c fcba abba
00000040: 4025 593c 5167 0f3a dc12 f4ba 780f 26ba
00000050: 0000 0000 0000 0000 0000 0000 0000 0000
00000060: 35a0 2b3c 2078 8239 c67d 3b3b e071 973b
00000070: ba00 6cbc ad9d 80bc 48f9 48b9 f8a8 1239
00000080: a603 f4bb 824b 8a3c ec83 873c 58db 9a39
00000090: aab9 7f3c 2237 0dbc 7cdc b33a e463 983c
6e-45 0.0 9.814915e-28 3.7222806e-27 0.0007165236 0.003316877 -0.009780299 0.003941603
0.0052907355 5.843195e-06 9.763557e-05 0.0033441922 -0.0017932449 0.016014688 0.014578936 -0.001310199
0.01325351 0.00054704124 -0.0018621343 -0.00063347025 0.0 0.0 0.0 0.0
0.010475208 0.00024885032 0.0028608902 0.0046217293 -0.01440447 -0.015700186 -0.00019166351 0.00013986591
-0.007446724 0.016881708 0.016542397 0.00029536593 0.015608231 -0.008619102 0.0013722326 0.018602319

momentum_buffer f4 [10]
00000000: 78a6 af12 2853 c33b 9e46 863b 7310 093d
00000010: d866 d63a 0000 0000 2030 4e3b dace 61bc
00000020: c2ce 093c 5b9b 593d
1.108509e-27 0.0059608407 0.0040977737 0.033462953 0.0016357554 0.0 0.003146179 -0.013782227
0.008411111 0.053126674

momentum_buffer f4 [128, 300]
00000000: 0000 0000 0000 0000 0000 0000 0000 0000
00000010: 0000 0000 0000 0000 0000 0000 0000 0000
00000020: 0000 0000 0000 0000 0000 0000 0000 0000
00000030: 0000 0000 0000 0000 0000 0000 0000 0000
00000040: 0000 0000 0000 0000 0000 0000 0000 0000
00000050: 0000 0000 0000 0000 0000 0000 0000 0000
00000060: 0000 0000 0000 0000 0000 0000 0000 0000
00000070: 0000 0000 0000 0000 0000 0000 83f8 0ab3
00000080: 0000 0000 f96f 29b3 0000 0000 0000 0000
00000090: 9b3a 0080 6541 438f 0000 0000 0000 0000
000000a0: 0429 2419 0000 0000 0000 0000 0400 0080
000000b0: 1f22 e2a2 1f3d c1b3 f482 fb18 f479 68a4
000000c0: 0000 0000 0000 0000 a83b 38b4 36b5 88b4
000000d0: 0000 0000 0000 0000 0000 0000 0400 0080
000000e0: 6344 42b4 0000 0000 0000 0000 ad46 1216
000000f0: 0000 0000 0000 0000 0000 0000 0000 0000
00000100: 0000 0000 0000 0000 0000 0000 0000 0000
00000110: 0000 0000 0000 0000 0000 0000 0000 0000
00000120: 0000 0000 0000 0000 0000 0000 0000 0000
00000130: 0000 0000 d04e ccb1 0000 0000 0000 0000
00000140: d1b1 0aa3 0000 0000 0000 0000 0000 0000
00000150: 0000 0000 0000 0000 0000 0000 0000 0000
00000160: 0407 3ab3 0000 0000 229e 06b5 cd54 67b4
00000170: 96c7 dcb4 bb3d 0bb5 81a0 1db5 4355 87b4
00000180: 2962 9bb4 f3a8 b2b4 4355 87b4 4355 87b4
00000190: 4355 87b4 4355 87b4 4355 87b4 4355 87b4
000001a0: d38e 9ab4 5932 84b4 2128 05b5 ad22 fab4
000001b0: f34b 1fb5 4355 87b4 4355 87b4 6d60 02b5
000001c0: c7c5 44b5 4355 87b4 4355 87b4 4355 87b4
000001d0: 4355 87b4 dbae 23b5 fcd5 00b5 ce51 29b5
000001e0: 216b 18b4 f0e3 87b3 0000 0000 6622 afb2
000001f0: 59b4 9cb4 0400 0080 e9f3 5b1a 9a65 cab2
00000200: a865 822b 0000 0000 c3fa 7ba2 0400 0080
00000210: b675 b5a3 0000 0000 0000 0000 0000 0000
00000220: bda5 c2a3 5abd 08b4 734e 91b4 0400 0000
00000230: 0400 0080 0000 0000 eb14 848f b1b1 d3b4
00000240: 0000 0000 0000 0000 0400 0080 0400 0080
00000250: 08c1 64b4 d00f a3b4 0000 0000 0000 0000
00000260: 0000 0000 0000 0000 0000 0000 0000 0000
00000270: 0000 0000 0000 0000 0000 0000 0000 0000
00000280: 0000 0000 0000 0000 0000 0000 0000 0000
00000290: 0000 0000 0000 0000 0000 0000 0000 0000
000002a0: 0000 0000 0000 0000 0000 0000 0000 0000
000002b0: 0000 0000 0000 0000 0000 0000 0000 0000
000002c0: 0000 0000 0000 0000 0000 0000 0000 0000
000002d0: 6f3e deb2 4841 f9b3 19b5 26b4 c263 20b4
000002e0: 8585 6eb3 21a1 17b4 e927 0eb4 26d1 f1b3
000002f0: 21a1 17b4 21a1 17b4 21a1 17b4 21a1 17b4
00000300: 21a1 17b4 21a1 17b4 87ca 1bb4 fa45 10b4
00000310: f2a0 21b4 f25e 36b4 4f55 83b3 21a1 17b4
00000320: 21a1 17b4 5725 36b4 8038 dbb3 21a1 17b4
00000330: 21a1 17b4 21a1 17b4 21a1 17b4 2cc6 2eb4
00000340: 21c9 36b4 f80d 61b3 0000 0000 0000 0000
00000350: 0000 0000 0000 0000 e986 bfb1 0000 0000
00000360: 0000 0000 0000 0000 0000 0000 0000 0000
00000370: 0000 0000 0000 0000 0000 0000 0000 0000
00000380: 0000 0000 0000 0000 0400 0000 0000 0000
00000390: 9607 22a3 0000 0000 0000 0000 9c27 9b8e
000003a0: d0b3 62b3 5e95 90b2 0000 0000 0000 0000
000003b0: 0000 0000 0400 0080 0000 0000 0000 0000
000003c0: f58a 96b4 bdb6 3eb3 ccdd 13b4 f8e2 33b4
000003d0: 0ff6 cab4 900b 9e1a 878f 39a1 ebda 18b3
000003e0: eb75 8fa3 0000 0000 6c3c 1ba3 25e5 cda3
000003f0: 4abd 92a3 0000 0000 5f62 13b2 f5e6 11b3
0.0 0.0 0.0 0.0 0.0 0.0 0.0 0.0
0.0 0.0 0.0 0.0 0.0 0.0 0.0 0.0
0.0 0.0 0.0 0.0 0.0 0.0 0.0 0.0
0.0 0.0 0.0 0.0 0.0 0.0 0.0 -3.235665e-08
0.0 -3.9450217e-08 0.0 0.0 -2.1024e-41 -9.626837e-30 0.0 0.0
8.486884e-24 0.0 0.0 -6e-45 -6.129355e-18 -8.998381e-08 6.501421e-24 -5.041028e-17
0.0 0.0 -1.7158038e-07 -2.5463822e-07 0.0 0.0 0.0 -6e-45
-1.8092537e-07 0.0 0.0 1.1816087e-25 0.0 0.0 0.0 0.0
0.0 0.0 0.0 0.0 0.0 0.0 0.0 0.0
0.0 0.0 0.0 0.0 0.0 -5.9461414e-09 0.0 0.0
-7.518649e-18 0.0 0.0 0.0 0.0 0.0 0.0 0.0
-4.331288e-08 0.0 -5.0149004e-07 -2.1544402e-07 -4.112341e-07 -5.1871365e-07 -5.872062e-07 -2.5207746e-07
-2.894242e-07 -3.327801e-07 -2.5207746e-07 -2.5207746e-07 -2.5207746e-07 -2.5207746e-07 -2.5207746e-07 -2.5207746e-07
-2.8788654e-07 -2.462355e-07 -4.9604756e-07 -4.659136e-07 -5.9342636e-07 -2.5207746e-07 -2.5207746e-07 -4.856909e-07
-7.3303494e-07 -2.5207746e-07 -2.5207746e-07 -2.5207746e-07 -2.5207746e-07 -6.097668e-07 -4.7995104e-07 -6.307645e-07
-1.4195076e-07 -6.327889e-08 0.0 -2.0388324e-08 -2.9188485e-07 -6e-45 4.5485168e-23 -2.3562098e-08
9.265271e-13 0.0 -3.4149595e-18 -6e-45 -1.9673912e-17 0.0 0.0 0.0
-2.1103715e-17 -1.2734873e-07 -2.7065434e-07 6e-45 -6e-45 0.0 -1.3024262e-29 -3.94311e-07
0.0 0.0 -6e-45 -6e-45 -2.1304379e-07 -3.037262e-07 0.0 0.0
0.0 0.0 0.0 0.0 0.0 0.0 0.0 0.0
0.0 0.0 0.0 0.0 0.0 0.0 0.0 0.0
0.0 0.0 0.0 0.0 0.0 0.0 0.0 0.0
0.0 0.0 0.0 0.0 -2.5872593e-08 -1.16068406e-07 -1.5525838e-07 -1.4937453e-07
-5.553513e-08 -1.4121589e-07 -1.32393e-07 -1.1260481e-07 -1.4121589e-07 -1.4121589e-07 -1.4121589e-07 -1.4121589e-07
-1.4121589e-07 -1.4121589e-07 -1.4509179e-07 -1.3436502e-07 -1.5052845e-07 -1.6984612e-07 -6.1156804e-08 -1.4121589e-07
-1.4121589e-07 -1.6963655e-07 -1.02082595e-07 -1.4121589e-07 -1.4121589e-07 -1.4121589e-07 -1.4121589e-07 -1.6277107e-07
-1.7023241e-07 -5.23996e-08 0.0 0.0 0.0 0.0 -5.574169e-09 0.0
0.0 0.0 0.0 0.0 0.0 0.0 0.0 0.0
0.0 0.0 6e-45 0.0 -8.783644e-18 0.0 0.0 -3.8248593e-30
-5.2783264e-08 -1.683173e-08 0.0 0.0 0.0 -6e-45 0.0 0.0
-2.8040782e-07 -4.4404022e-08 -1.3771131e-07 -1.6753245e-07 -3.7804463e-07 6.536595e-23 -6.2870395e-19 -3.5589363e-08
-1.5554031e-17 0.0 -8.415362e-18 -2.2323191e-17 -1.5909519e-17 0.0 -8.578893e-09 -3.3970498e-08

momentum_buffer f4 [128]
00000000: 7f60 29b5 f8e9 c43b 3814 6d3c 6dab 033b
00000010: 30fe c3b8 d09a 0fbb 6ab6 de38 c2a3 8ebb
00000020: 4413 823b 88fe 783c 8c91 1c3b a4d8 5abb
00000030: 0784 a43c 3c97 be3b f31a 3832 45a4 b936
00000040: 1005 9abb 6eb8 2cbc 93e0 493a 0000 0000
00000050: cff9 b1aa e63d e6b9 b4ba 00bc b4ad 5b3b
00000060: 3f05 dcb8 a040 0e3c 501f a23a b881 c7bb
00000070: 6f07 a6b8 e61e 9fba a307 ba3c d9a4 8c3b
00000080: c3dd 543c fc04 dc3b df6f 4b39 2e5d 343c
00000090: c096 84ba 62b0 14b8 0000 0000 0000 0000
000000a0: 1422 103b 7c8a b6ba df6a 99bb 164d 32bc
000000b0: 024e 053c b096 d33a 6127 b83b 7c29 973a
000000c0: 83c9 603b e0e0 023c 381d a43b 43ff 2f3b
000000d0: b7b8 ddb9 4c71 0e3c 4c47 253a 1007 bfbb
000000e0: 8406 0b39 4f4a 612b d709 883c cd19 023c
000000f0: d857 003b e27f e2ba 0000 0000 4898 5d3b
00000100: 26fe 143c 2646 4bbc 0000 0000 0000 0000
00000110: 72ae 173c 1cab 2dbc 1aae 1b3b 58ba 83bb
00000120: 4702 113a 2dce 5fbb 8891 51bb 946b 5cbb
00000130: 3846 973b 16dc 5439 7599 2838 c8ee a73a
00000140: 5bb4 0439 fe24 21bc 0a89 0f3c a889 f7ba
00000150: 0000 0000 0400 0000 b9d2 4698 c2e7 dd39
00000160: 5cbd 4cbc 7fd6 d4b8 609c 273a d8ba aa3b
00000170: d80f 8c3b 80b4 90ba 998a bcbb 087c 7bbb
00000180: 0000 0000 912a 3ebc 0000 0000 0400 0080
00000190: 4095 793a dabb e53b 8474 383b c099 fa3b
000001a0: b0df 08bc 664a 80b8 5424 ad37 0000 0000
000001b0: fa71 62b8 625a 91bc 8498 8f3b 0000 0000
000001c0: a620 ad3c 79c7 243c 0000 0000 b03f b83a
000001d0: 3b99 c739 0000 0000 2885 4739 fc0b 223c
000001e0: ef3b 35bb 9696 713b ae93 c73c 565e 873b
000001f0: 3c39 ef3b b0b5 b53b 409a f43b 0000 0000
-6.3097826e-07 0.0060093366 0.014470153 0.0020091191 -9.345671e-05 -0.0021912344 0.00010619762 -0.0043530175
0.003969582 0.015197404 0.0023890464 -0.0033393288 0.020082487 0.0058163684 1.0716337e-08 5.532553e-06
-0.0047003105 -0.010542018 0.00077010057 0.0 -3.1614856e-13 -0.00043915136 -0.0078570135 0.0033520283
-0.00010491395 0.0086824 0.0012368951 -0.0060884617 -7.9168814e-05 -0.0012139946 0.02270872 0.0042921123
0.012992325 0.0067144614 0.00019401264 0.011008544 -0.0010115728 -3.545022e-05 0.0 0.0
0.0021992968 -0.001392677 -0.0046819295 -0.0108826365 0.008136274 0.0016142931 0.0056199287 0.0011532749
0.0034299798 0.007988185 0.005008366 0.0026855029 -0.00042290028 0.008694004 0.00063048746 -0.0058296993
0.000132585 8.003918e-13 0.016606255 0.007940722 0.001958361 -0.0017280544 0.0 0.003381269
0.009093797 -0.012406861 0.0 0.0 0.0092579 -0.010599878 0.0023754896 -0.0040200166
0.00055316504 -0.003414999 -0.0031977613 -0.0033633457 0.004616525 0.00020299884 4.019724e-05 0.0012812251
0.00012655689 -0.00983548 0.0087607 -0.0018885629 0.0 6e-45 -2.5697288e-24 0.00042325078
-0.012496319 -0.00010148901 0.0006393846 0.005210262 0.0042743497 -0.0011040121 -0.005753827 -0.003837349
0.0 -0.011606828 0.0 -6e-45 0.0009520836 0.007010919 0.002814562 0.007647723
-0.0083541125 -6.1173734e-05 2.0640124e-05 0.0 -5.3988748e-05 -0.017743293 0.004382195 0.0
0.021133732 0.010057324 0.0 0.0014057066 0.00038070403 0.0 0.00019027723 0.009890553
-0.0027654131 0.0036863438 0.024362411 0.0041311188 0.007300524 0.0055453405 0.007464677 0.0

momentum_buffer f4 [64, 128]
00000000: 0525 8932 bce1 feb8 f8b0 263b f58c 9b3a
00000010: dbeb 6a34 fbb1 c33a 4496 f6b5 83b6 bc3a
00000020: 873e 193a 92cd 2c3b dab1 a53a 72e5 313b
00000030: 4e79 a03b 02d7 163b 1ce8 61ae a90d adb5
00000040: fa66 063b 6e8c 0f3b 8e92 c437 0000 0000
00000050: 76ca d427 9fde a4b7 6aa7 b13a 8413 853b
00000060: d195 a7b6 e8f3 123b fa89 a53b da4b 443b
00000070: 122c 13b4 3651 ed38 7ecf 943b d87b 7c3a
00000080: 5025 b43b a5a8 283b 5190 0a35 6cd7 453b
00000090: f8fe 1e3b 1c73 8535 0000 0000 0000 0000
000000a0: ae52 d83a 5d26 943a d574 333a 3c00 813a
000000b0: 87dd 123b d468 943a 20aa 263b 8ee4 023b
000000c0: d39e 103b 4143 983a cc19 773a 8f75 6738
000000d0: 5ab8 d037 2ee4 a13a 564b 2ab5 92fc bc3a
000000e0: 9a72 72b5 1c52 afa8 9647 c53b fac0 483b
000000f0: 286d 633b d8c7 7f3b 0000 0000 ca65 15b8
00000100: f680 a93b d259 083b 0000 0000 0000 0000
00000110: 6314 153b bc29 ba3a ff12 b438 0cac 2739
00000120: dd54 0f38 093e c03a 9602 233a ebb0 353b
00000130: 20ea 143a cf2f e635 9dbf 0cb5 0457 f53a
00000140: 88d8 2e36 acf8 c13a 8216 cd3a 0e67 9339
00000150: 0000 0000 0400 0000 0e56 a096 c1a6 af34
00000160: 12a5 203a e060 39b5 b886 bc3a 90ec 193b
00000170: a5be f13a fa41 823b f890 243b 1e96 e239
00000180: 0000 0000 4e2e c839 0000 0000 0400 0080
00000190: 36a4 853a b6ef 463b 6469 383b 1ea6 be3a
000001a0: 968d c53a c0f6 b2b6 7b66 ffb2 0000 0000
000001b0: 7e30 8a36 acb7 533a 041e 103b 0000 0000
000001c0: 1b42 313b 1578 283b 0000 0000 3836 1ab6
000001d0: 6683 e2b6 0000 0000 1660 edb8 ceb3 c43b
000001e0: 46ae 2ab9 b4b9 2239 3b01 813b 0853 ce39
000001f0: 1757 9c3b 443f 253b a431 3c3b 0000 0000
00000200: 0400 0000 0e69 a93a 808e 5f3b 2c06 1a3b
00000210: c3d3 5335 e76a b23b 8184 1710 2d2a bd3a
00000220: a80c 653b 6cdb e53b a9d1 013c 270b b43b
00000230: 8b32 1e3c 16f8 393a 43b0 c2af d62a bcb6
00000240: e927 ee38 b6d9 693b b014 8338 0000 0000
00000250: 80db c128 dd19 a235 ddff 043a cc9f b03b
00000260: 5448 f135 1834 d53b 2478 323c 70ba 973a
00000270: 380c 04b5 67a3 213a b3b3 843b 644f da3b
00000280: 20b1 443c 64d4 983b bde4 2734 0adf 143c
00000290: 1ac3 b03b bcf0 1e30 0000 0000 0000 0000
000002a0: d606 5f3a 40b2 fb3b be6e a63b 6afa b939
000002b0: 02f2 fc3b 00b1 a03b 73f5 8b3b 2dfe 523c
000002c0: 9add b73b ee64 dd3b a406 9c39 32c3 fb39
000002d0: 7c7d cf38 2d0e 9d3a 0000 0000 e279 703a
000002e0: e705 fab6 f74d a1a9 518e 4a3c 8d74 513b
000002f0: 02a0 203c 1e4e 0d3c 0000 0000 de63 5b39
00000300: ea83 2d3c 097e 273b 0000 0000 0000 0000
00000310: 9a2f e43b a243 4c39 4607 6b39 5091 7039
00000320: 2e20 1139 8d93 ab3a 2ecd 9639 a269 dd3b
00000330: 261a 253a 5451 8fb6 8491 fcb5 07a0 0f3a
00000340: 40cb 6a36 ceed b73b a4d5 863b a56f 8bb9
00000350: 0000 0000 0400 0000 0400 0080 9ee4 db13
00000360: 4ff8 a33b 235b 3a86 bb8b 723a 465a fb3b
00000370: 8713 ad3b 4165 443c feeb c43b a148 563b
00000380: 0000 0000 38f5 683b 0000 0000 0000 0000
00000390: fa04 ae39 0c6b f93b 0d54 033c 5a72 0c3c
000003a0: 9e85 8a3b 752f aab8 7792 bdb3 0000 0000
000003b0: 5cef 4337 ec2d b03b 1cb3 a83b 0000 0000
000003c0: d4b5 2e3c 3c4a bd3b 0000 0000 cb8e afb8
000003d0: 2222 1bb7 0000 0000 6ac5 d7b8 f117 2c3c
000003e0: 4263 4a3a c41a 8338 fc3f 593c 76cb 133b
000003f0: a8bd 213c 0895 b43b 729d ec39 0000 0000
1.5965734e-08 -0.0001215371 0.0025435071 0.001186757 2.1878752e-07 0.0014930362 -1.8372161e-06 0.0014397654
0.0005845804 0.0026367647 0.0012641505 0.0027144817 0.004897273 0.0023016338 -5.136523e-11 -1.289348e-06
0.0020508156 0.002190377 2.3433266e-05 0.0 5.906133e-15 -1.965399e-05 0.0013553922 0.0040611643
-4.9944288e-06 0.0022423211 0.0050518485 0.0029952438 -1.3706475e-07 0.000113161674 0.0045413366 0.0009631491
0.005497612 0.0025735286 5.1619014e-07 0.0030188216 0.002426086 9.942773e-07 0.0 0.0
0.0016504133 0.0011302937 0.00068457174 0.0009841989 0.0022409873 0.0011322745 0.0025430992 0.0019972655
0.0022067323 0.0011616723 0.0009426146 5.5184177e-05 2.4881378e-05 0.0012351328 -6.3439563e-07 0.0014418534
-9.031879e-07 -1.9464512e-14 0.0060204966 0.00306326 0.0034702513 0.0039029028 0.0 -3.5619167e-05
0.005172844 0.002080549 0.0 0.0 0.0022747747 0.0014203112 8.586607e-05 0.00015990454
3.4172892e-05 0.0014666925 0.0006218342 0.002772386 0.00056806393 1.715025e-06 -5.24329e-07 0.0018717949
2.6054058e-06 0.0014798841 0.0015646967 0.00028114807 0.0 6e-45 -2.5903702e-25 3.271762e-07
0.0006128113 -6.905884e-07 0.0014383411 0.002348695 0.0018443657 0.00397515 0.0025110822 0.00043217925
0.0 0.00038181472 0.0 -6e-45 0.0010196033 0.0030355281 0.002813899 0.0014545356
0.0015072103 -5.333539e-06 -2.973251e-08 0.0 4.1183657e-06 0.00080763805 0.0021990547 0.0
0.0027047459 0.002570634 0.0 -2.2979348e-06 -6.7506217e-06 0.0 -0.00011318938 0.0060028797
-0.00016277385 0.00015518704 0.0039369143 0.00039353245 0.004771124 0.0025214711 0.0028716112 0.0
6e-45 0.0012924985 0.0034112036 0.0023502214 7.891178e-07 0.0054448727 2.9881576e-29 0.0014432125
0.003495017 0.0070146825 0.007923522 0.0054944935 0.009655605 0.00070941576 -3.5413636e-10 -5.6078234e-06
0.00011356158 0.0035682744 6.25042e-05 0.0 2.1522497e-14 1.2077468e-06 0.0005073527 0.005390143
1.797695e-06 0.006506454 0.010892902 0.0011575948 -4.919161e-07 0.00061660114 0.004049742 0.006662296
0.0120051205 0.004663991 1.5636301e-07 0.00908638 0.0053943517 5.782217e-10 0.0 0.0
0.00085077935 0.007681161 0.0050791195 0.00035472523 0.0077192793 0.0049039125 0.004271203 0.012877983
0.0056111338 0.0067564165 0.00029759586 0.00048019883 9.8939025e-05 0.0011982374 0.0 0.00091734354
-7.4512677e-06 -7.163361e-14 0.012363032 0.0031960339 0.009803774 0.008624582 0.0 0.00020922671
0.010590533 0.00255573 0.0 0.0 0.0069636824 0.00019480151 0.00022414056 0.00022942317
0.00013840265 0.0013090238 0.000287631 0.006756977 0.0006298147 -4.2712e-06 -1.8817814e-06 0.0005478863
3.4987024e-06 0.0056130653 0.0041148234 -0.00026595328 0.0 6e-45 -6e-45 5.5508806e-27
0.005003966 -3.504967e-35 0.0009252389 0.0076706735 0.005281869 0.011987031 0.006009578 0.0032697099
0.0 0.0035546552 0.0 0.0 0.00033191574 0.007611638 0.008015645 0.008572185
0.004227354 -8.115071e-05 -8.82764e-08 0.0 1.1678636e-05 0.005376568 0.0051483046 0.0
0.010663468 0.0057766717 0.0 -8.3712475e-05 -9.246667e-06 0.0 -0.0001028877 0.010503755
0.0007720479 6.251552e-05 0.013259884 0.0022551692 0.009871878 0.00551093 0.00045130734 0.0

momentum_buffer f4 [64]
00000000: b080 873c 85e1 e03c f83b 16bd 32a8 fa3c
00000010: eaf6 b43b 21ea 923b 2b4b 3a3d 2146 c932
00000020: ee2d 8b3c 0000 0000 0400 0080 44a6 eaba
00000030: 0000 0000 7c25 ea3c d2a1 e8b9 b2f1 4e3d
00000040: f74e e93c d81a fbb7 0000 0000 bcfb 9b3c
00000050: 0000 0000 b820 933c bd50 319b a9c4 2139
00000060: 2024 1629 7258 603d df52 2a3d 1934 a939
00000070: 0000 0000 ac09 93bc e5c4 ab3a 608a d5bb
00000080: 8bca 933c fe74 1a3a e989 8b3a 5389 813b
00000090: 057a edbb 1003 723c 68c0 558a 53ef cb3a
000000a0: 2067 dcba 00d8 5bba a867 083c 0000 0000
000000b0: d0f8 9b38 0000 0000 cc6e 89bc dcd7 d7bc
000000c0: 32eb 1bbd db80 86bc 1dca 9538 c8db c4bc
000000d0: 4f42 5eae 83d0 483d a4cc 0fbd 882f 4a37
000000e0: 382a aaaa 480a 623c 0000 0000 a0a3 fa3a
000000f0: c4e7 b6bc fadb eb3c 58eb a4bc 98e0 ce3b
0.016540855 0.027451286 -0.036678284 0.03059778 0.0055225985 0.0044834767 0.045481842 2.343137e-08
0.016989674 0.0 -6e-45 -0.0017902334 0.0 0.028582327 -0.00044371054 0.050523467
0.028480036 -2.9934032e-05 0.0 0.019040935 0.0 0.017959937 -1.4667185e-22 0.00015427418
3.3338024e-14 0.054771848 0.04158294 0.00032273008 0.0 -0.017948948 0.0013104944 -0.0065167397
0.018040916 0.0005892067 0.0010645959 0.003953138 -0.007247212 0.014771238 -1.02917645e-32 0.0015558995
-0.0016815402 -0.00083863735 0.008325495 0.0 7.437321e-05 0.0 -0.016776465 -0.026348047
-0.038066097 -0.016418865 7.14252e-05 -0.024030581 -5.053585e-11 0.049026977 -0.03510727 1.2051205e-05
-3.0227361e-13 0.013796397 0.0 0.001912225 -0.022327311 0.028791416 -0.020131752 0.0063133948

momentum_buffer f4 [5, 64]
00000000: d63e 833d c09e 763c 78a5 fc3c bdf1 183d
00000010: a5bf 07ba 9ce1 173b 7e94 ec3c 4b5e b4b0
00000020: 56da dc3c 0000 0000 0400 0080 e078 8739
00000030: 0000 0000 1080 853a 0c83 5136 25d8 543d
00000040: e6c9 ae3c e70c c537 0000 0000 a3a4 b43c
00000050: 0000 0000 8646 ab3c d1c8 209a 497e 3037
00000060: 2d10 2526 12e6 753d a402 113d 88e5 a038
00000070: 0000 0000 22e9 d53b 8894 fab8 f27b a23c
00000080: 4e41 4d3c b499 d4b8 d661 9437 c785 893d
00000090: 04ab 143c d063 0e3b b990 0407 b8d7 9438
000000a0: 59fd 01ba 7602 5a3c 6fa4 833d 0000 0000
000000b0: c35f bf37 0000 0000 b879 303b f256 d13c
000000c0: 8872 af3c 2899 2d3d 87a2 5cb8 4a4a b63c
000000d0: c18d 9a2c 8c1a bf3c b686 173d d22a 5cb5
000000e0: 8211 b328 00bc 05bb 0000 0000 ac8d 063d
000000f0: 680a de3c 2c15 e63c 640a d53c 2e6e 553d
00000100: 2c19 823d 5108 fb3b 8eaa 393d bc19 343d
00000110: 8d3a ce39 b721 c23a 7c08 da3c 2ba3 0ab0
00000120: dd29 8d3c 0000 0000 0400 0080 5f77 3135
00000130: 0000 0000 e181 953b 901e a537 e338 373d
00000140: 9762 863c 63a8 8537 0000 0000 c20d 2e3c
00000150: 0000 0000 aec0 0f3c 25cf 8019 5c53 8bb6
00000160: 8e31 8425 b56b 173d 8fdb 843c a37a f937
00000170: 0000 0000 44c2 153b 53c5 f338 dafd d73c
00000180: ec55 d93b e052 ad38 d682 3fb8 e5e0 a03d
00000190: d2c6 353c f83c 383c cb1a 5486 65d4 4938
000001a0: d0ca 243a 1587 953c a624 853d 0000 0000
000001b0: 91b4 1232 0000 0000 70fb a53b 13fd f53c
000001c0: 1c59 143d c5ca 483d 6ca1 5438 7ae0 d63c
000001d0: b6f4 f12b 7633 953c 3b37 5b3d 3f22 b034
000001e0: 3241 0f28 675a ae3b 0000 0000 ac08 ae3c
000001f0: 307c 203d 379e 2c3c 3e82 373d 585e 403d
00000200: 9d45 153c eb22 5cbb fa48 303c dda6 053c
00000210: e1e9 7339 aeb2 613a 9909 9f3b 4a32 6eaf
00000220: 22b2 0b3b 0000 0000 0400 0080 cd0d d7b7
00000230: 0000 0000 8144 053a d847 da36 b8ad c33a
00000240: 00cc d937 4a2b c1b6 0000 0000 dadb 9ebb
00000250: 0000 0000 8101 86bb 25cf 0099 2624 2bb6
00000260: 8e31 04a5 a694 383a 0330 dabb 5a80 8037
00000270: 0000 0000 3c3c 82ba de05 69b8 9497 e03b
00000280: c2ed a0ba 53f1 27b8 0100 b5b6 f61a 4a3c
00000290: 408a 4e38 db6a 613b cb1a d485 7273 a3b7
000002a0: 7afd 9138 d6c7 733b fa29 543c 0000 0000
000002b0: c94a 80b6 0000 0000 6ca5 683a 2e69 db3b
000002c0: ea9e 133c 98a1 d13b a466 c1b7 72fe 983b
000002d0: 3449 77ab 362c baba b846 513c 3f22 30b4
000002e0: 3241 8fa7 10bf 2239 0000 0000 c03e 38ba
000002f0: 6ff6 263c a63a afbb e0ae 263c 6f7b da3b
00000300: aaf3 243b 87ce cfbb 060e 1a3c 14a9 cf3b
00000310: 6496 eb38 5858 c0b8 7c73 e03a 2048 902f
00000320: a8bd 38ba 0000 0000 0400 0080 4f39 30b8
00000330: 0000 0000 e1eb 5139 ceaf dfb4 9cb9 83bb
00000340: b227 20bb fdd4 beb6 0000 0000 3d35 29bc
00000350: 0000 0000 c30c 20bc a6a0 0019 4be4 af33
00000360: f20c 0425 16e3 19bc da89 83bc 9c93 78b7
00000370: 0000 0000 1639 43bb ba9e 4237 cc98 b03b
00000380: 1872 76bb 7a34 abb5 a1fd 03b7 dc0b d33b
00000390: 30c9 8539 3c9b 043b cb1a d485 7909 9db7
000003a0: 7bbd 8cb9 5154 5b3b 5deb 913b 0000 0000
000003b0: f427 0a34 0000 0000 52d3 cf3a 0c86 f23b
000003c0: 4615 d13b f4bf f83a 271e b936 f56c 9d3b
000003d0: 3449 77ab f5c7 7fbb 40e6 2f3c 3f22 30b4
000003e0: 3241 8f27 345d ae3a 0000 0000 0f85 86bb
000003f0: 353b 233c 8488 40bc 8b96 3e3c 2c83 c43a
0.064084694 0.015052497 0.03084062 0.037339915 -0.00051783986 0.0023175245 0.0288794 -1.3123523e-09
0.02695958 0.0 -6e-45 0.00025839265 0.0 0.001018526 3.1219706e-06 0.051963944
0.021336507 2.3490238e-05 0.0 0.022051161 0.0 0.020907652 -3.3249443e-23 1.05198205e-05
5.7267797e-16 0.060033865 0.03540291 7.672148e-05 0.0 0.0065280357 -0.00011948595 0.019834492
0.012527777 -0.00010137577 1.7688533e-05 0.06714969 0.009073976 0.0021726973 9.973106e-35 7.097371e-05
-0.0004958711 0.013306251 0.064278476 0.0 2.2813567e-05 0.0 0.0026928019 0.025554154
0.021416917 0.04238239 -5.2603453e-05 0.02225222 4.392681e-12 0.023328088 0.036993705 -8.20187e-07
1.9880585e-14 -0.0020406246 0.0 0.032849953 0.027104571 0.028086267 0.026005931 0.05210703
0.063524574 0.0076609035 0.04532867 0.043969855 0.00039335006 0.0014811073 0.026615374 -5.0435983e-10
0.017231876 0.0 -6e-45 6.6111346e-07 0.0 0.004562602 1.9683765e-05 0.044731986
0.016404433 1.5933247e-05 0.0 0.010623397 0.0 0.008773966 1.3318555e-23 -4.152227e-06
2.293193e-16 0.03696795 0.016217975 2.974022e-05 0.0 0.0022851387 0.000116238974 0.026366163
0.006632557 8.2647195e-05 -4.56598e-05 0.07855395 0.011094766 0.011245005 -3.9892453e-35 4.8119942e-05
0.0006286325 0.018252889 0.06501131 0.0 8.5393745e-09 0.0 0.005065374 0.030027902
0.036217794 0.0490215 5.0695075e-05 0.026230086 1.7192001e-12 0.018213015 0.05351947 3.2807472e-07
7.952232e-15 0.0053208354 0.0 0.02124437 0.039180934 0.010535768 0.044801943 0.046964973
0.009110835 -0.0033590149 0.0107595865 0.008157459 0.00023261413 0.0008609694 0.004853439 -2.166384e-10
0.0021315892 0.0 -6e-45 -2.5636424e-05 0.0 0.0005083755 6.50527e-06 0.0014929092
2.596341e-05 -5.7568877e-06 0.0 -0.0048479857 0.0 -0.0040895347 -6.6592774e-24 -2.5502027e-06
-1.1465965e-16 0.00070411933 -0.0066585555 1.5318557e-05 0.0 -0.0009936164 -5.5556993e-05 0.006854007
-0.0012277889 -4.0040653e-05 -5.394221e-06 0.01233553 4.9242983e-05 0.0034395966 -1.9946226e-35 -1.9484873e-05
6.9613525e-05 0.003719797 0.012949461 0.0 -3.8234034e-06 0.0 0.00088747474 0.006695888
0.009010056 0.0063974373 -2.3055189e-05 0.004669004 -8.785362e-13 -0.001420385 0.012773208 -1.6403736e-07
-3.976116e-15 0.000155207 0.0 -0.00070283934 0.01019059 -0.0053475676 0.010173529 0.0066675465
0.002516965 -0.0063417586 0.0094027575 0.0063372944 0.00011233686 -9.171729e-05 0.0017124261 2.6244695e-10
-0.0007047304 0.0 -6e-45 -4.2015043e-05 0.0 0.00020019665 -4.1664902e-07 -0.004019929
-0.0024437723 -5.6872364e-06 0.0 -0.010327634 0.0 -0.009768668 6.6498876e-24 8.190599e-08
1.1453561e-16 -0.00939252 -0.016056944 -1.481632e-05 0.0 -0.0029788665 1.16002575e-05 0.0053893086
-0.0037604626 -1.2755766e-06 -7.867261e-06 0.0064406227 0.00025517633 0.0020234128 -1.9946226e-35 -1.872027e-05
-0.00026844055 0.0033467005 0.0044531063 0.0 1.2866786e-07 0.0 0.0015855825 0.0074012335
0.00638071 0.0018978105 5.51694e-06 0.0048042485 -8.785362e-13 -0.0039029096 0.010736048 -1.6403736e-07
3.976116e-15 0.0013302923 0.0 -0.0041052173 0.0099628465 -0.011751298 0.011632572 0.0014992706

momentum_buffer f4 [5]
00000000: 77e5 913e 2039 9e3e 1d42 3e3d 80a8 7e3c
00000010: 4353 3c3d
0.2849538 0.30902958 0.04644977 0.015543103 0.045977842

conv1.weight f4 [10, 5, 4]
00000000: 9328 153d b715 b73e 53af acbd c3f0 143e
00000010: 6820 03bd 3d7e 21bd 340a b23d 3802 f13c
00000020: 9e9d fd3a af62 963d 5493 343e 9f26 0dbc
00000030: 77bf 87bd 74b4 00bd 70fb 1f3e c336 05be
00000040: 9ef5 eb3d f1e9 3b3e 66c1 4c3c f164 37be
00000050: 2d38 1bbb fce8 be3e b135 20be c441 853e
00000060: a08b 53be b7eb b6bd 3ab5 64be 74cf 68be
00000070: 4675 b5bd 659b 613d b0bb e1bd 8556 133d
00000080: 3bf0 113e d143 06bc 2342 b8bd 823e a7bd
00000090: 5d81 3fbc 4252 623e d2b1 09be 97ef 7bbc
000000a0: a3e1 bebd e60d 1dbe 259f 22be 2f0f bd3c
000000b0: f029 6fbe 38f5 56be 675f 78bd 87bc 533d
000000c0: 0ba3 463e fc5a 153d 6e00 97ba 4f58 37be
000000d0: d860 193e f3eb 0fbe cd8d 003e e191 13bd
000000e0: 1661 babd d141 45be c949 5ebe a5a2 2cbe
000000f0: 66ff 6d3d 1490 953c 42ce b43e 1123 b83e
00000100: eca3 f9bd bfa1 2bbe 4b92 303d 4495 0abe
00000110: ac7f 653d acf1 8cbd 205b d2bb 8cc3 ae3d
00000120: e3cb 47be c01c 0ebe 8683 b13d ee43 9c3d
00000130: 9bc1 fb3c dbf6 ff3d 3c49 0abe 0ed2 c3bd
00000140: 1c1c 323e 3c28 36be c3c0 be3c 74fb 2abe
00000150: 56b7 b5bd 9663 babd 5dca 293e a2b3 20be
00000160: 5329 37be 29ae fc3d 0378 c4bd 2341 eebd
00000170: c020 9a3d b547 b1bd cd0b bfbd 7bb8 8cbb
00000180: 73c7 3cbe 8002 d9bd 91ee 2b3e 7864 343d
00000190: 2f3d 3fbe 8277 6bbe 10a0 68be f5fd 2bbe
000001a0: 966b 6cbe fe5b 41bd 3091 1d3d ebc7 a03d
000001b0: 8d02 183e b63f 15be d18d 57be df58 4bbd
000001c0: 4000 403e 6b35 dd3c ad01 63be 0532 8c3d
000001d0: f807 afbd b2bb 5cbd 02d0 8d3b 306a 8abd
000001e0: dc26 fa3b 34cd 32be 837c 5cbd 7afb 9b3d
000001f0: 8d90 a8bc 1f7e f1bb 8478 a33d 1f8c 413e
00000200: 0d07 1d3e 0c43 3fbe 4a40 873d 46e1 973d
00000210: 8470 19be b9ed 263e fa3c 803d 6df8 02bc
00000220: deed 503e a56f 40bc 7c7b fabd 5c26 90bb
00000230: de7e 603e 77f8 fe3d 05e5 c5bd 0bbb 54be
00000240: b1d4 d93c b7b0 bdbd 7c5a 5bbe 8950 b5bd
00000250: 2343 2abe 2448 06be 2590 adbd 470f 30bc
00000260: ce63 0ebe 4a89 b53d db12 70be d3f5 18be
00000270: 826d bd3d 2e76 c33d 52b8 70be b27a 56bd
00000280: 5bfd 963e c1f8 443e 2ab5 533e 87f4 1ebe
00000290: cd82 de3d 7dd5 b83d 7ac1 1c3e d3b9 e33d
000002a0: be22 5abd d89f ebbd 42fb c6bd 3b00 2e3e
000002b0: aa21 0bbe 3d66 9abc bd2f 0ebe db86 0e3d
000002c0: 2cec 993c 0246 40be 2a6f 35bd ebe5 a0bd
000002d0: 6d45 063e 354b 793d ef80 d93d 99a0 8c3e
000002e0: 16a2 213e aed3 82bc bcc7 873d 5316 45be
000002f0: fce0 f9bd a27c 093d 3eab 1abe c419 ab3d
00000300: 1e56 ee3d 6478 4ebd 5d62 d13d f0c0 2f3e
00000310: 0ef1 013e ffa8 a0bb 0c06 f33c c592 1abe
0.036415648 0.35758755 -0.08431878 0.14544968 -0.032013327 -0.03942703 0.08693352 0.029420003
0.0019349342 0.07343041 0.17634326 -0.008615165 -0.06628316 -0.031422094 0.1562326 -0.13009171
0.11521457 0.1835096 0.012497282 -0.179096 -0.0023684606 0.37287128 -0.15645482 0.26026738
-0.20658731 -0.08931678 -0.22334757 -0.22735387 -0.08860259 0.055079836 -0.11022127 0.035971183
0.14251797 -0.00819488 -0.089969896 -0.08166219 -0.011688557 0.22101691 -0.1344674 -0.015376947
-0.093203805 -0.15337333 -0.15881021 0.02307853 -0.23355842 -0.20991981 -0.060637858 0.051693466
0.19398133 0.036463723 -0.0011520514 -0.17904781 0.14978349 -0.14054851 0.12554093 -0.036027793
-0.09100549 -0.19263388 -0.21707834 -0.16858919 0.058104895 0.018257178 0.35313612 0.35964254
-0.12189469 -0.1676092 0.043108266 -0.13533503 0.05602996 -0.06882033 -0.0064195544 0.08533391
-0.1951137 -0.13878155 0.08667664 0.07630144 0.030731967 0.12498256 -0.13504499 -0.09561549
0.17393535 -0.17788786 0.023285275 -0.16697484 -0.08872859 -0.09101026 0.16581102 -0.15693524
-0.17886858 0.12337906 -0.09593203 -0.116335176 0.07525778 -0.08656255 -0.09328423 -0.0042944527
-0.18435459 -0.1059618 0.16790225 0.044041127 -0.18675683 -0.22994807 -0.22717309 -0.16796096
-0.23087916 -0.04720687 0.03846854 0.07850631 0.14844723 -0.14575085 -0.21050192 -0.0496453
0.18750095 0.02700301 -0.22168608 0.06845478 -0.08546442 -0.053889938 0.004327775 -0.06758535
0.007634027 -0.17461091 -0.05382968 0.07616325 -0.02057674 -0.007369771 0.07981971 0.18901108
0.15334721 -0.1867792 0.06604059 0.074160144 -0.14984328 0.16301621 0.0626163 -0.0079938
0.20403239 -0.011745368 -0.12230584 -0.004399104 0.21923396 0.12449735 -0.09662823 -0.20774476
0.026590677 -0.09262221 -0.21421236 -0.088532515 -0.16627173 -0.13113457 -0.08474759 -0.01074583
-0.1390526 0.088640764 -0.23444693 -0.14937524 0.092494026 0.09544025 -0.23507813 -0.052363105
0.2949017 0.19235517 0.20674577 -0.15522967 0.10864792 0.09025095 0.1530818 0.111194275
-0.05325579 -0.11505097 -0.097158924 0.16992275 -0.1358706 -0.01884758 -0.13885398 0.034796577
0.018789373 -0.18776706 -0.044295467 -0.07856353 0.13112421 0.06086274 0.10620295 0.27466276
0.15784487 -0.015970077 0.06629893 -0.19246797 -0.122011155 0.033566125 -0.15104386 0.08354524
0.11637519 -0.050407782 0.102238394 0.17163444 0.12689611 -0.0049029584 0.02966597 -0.1509505

conv1.bias f4 [10]
00000000: 2699 123d ef41 5dbe 684b ba3d d3a7 3dbd
00000010: ab57 593d 4177 273e 82d1 79bd 3b38 153e
00000020: c548 5d3e 76e4 153e
0.035790585 -0.21607183 0.09096414 -0.046302628 0.053062122 0.16354086 -0.060990818 0.14572231
0.2160979 0.14637932

fc0.weight f4 [64, 610]
00000000: 0fdb 5cbc 0d99 053d 8bf8 eebc 2a99 4b3c
00000010: a1af 053d ee66 05bc a1ed 24bc c455 e1bc
00000020: b24d 16bd 1641 acb8 2d60 113d 5871 ae3c
00000030: 729b 64bc 2c6b 3e3c e646 193c 15c8 31bb
00000040: d16f 033d 67e1 593c 8e72 a5bc e857 40ba
00000050: cbcf 943b 2c9e e33c b023 e1bb 9651 c1b9
00000060: 9283 87bb 6293 03bd 3b5a 513b 7a0b dabb
00000070: 1786 863c ba79 ddbc cc71 623c 88a6 18bd
00000080: 455e db3a 12c2 06bb 9c26 81bb 1ec8 b93c
00000090: 06e6 17bd f52e 0fbd d3d1 003c 00b9 c0bc
000000a0: ad4e 7cbc c09b 87bc 7f8e d3bb 6f90 22bd
000000b0: b980 21bd 88d4 a5bc b03a ad3c 880b cdbc
000000c0: 18a8 fabc 0ebe ec3c 507a 85bb bdc7 bfbc
000000d0: 0670 1abd 9ca6 87bc 6c91 d63c e9da ce3c
000000e0: 66d9 f7bc aed5 d6bc 09a3 85ba 15bd 99bc
000000f0: 3d67 613c b921 eebb 4483 abbc 5995 183c
00000100: f539 82bc bcd2 9b3b 8bce 21bc 6bd7 17bc
00000110: 61d8 c73c 82e0 3e3c bc85 233b da30 88bc
00000120: 60fd 27bb 2ce4 1bbc 0560 863c fdb1 a6bc
00000130: 336b be3c ad64 14bd 680c 443b 0c71 7e3c
00000140: 3c6e 9b3a 07f3 ccbc c626 123b d04a d3bc
00000150: c2c2 513c 17f3 c93c ff55 093d 4808 b13c
00000160: e097 cf3c 9eb7 0d3d de8d f53b 9e3b 85bc
00000170: 8141 26bc bc5a 2bbd a9e3 dcbc 9651 9e3c
00000180: fdfe 283d 8804 edbc 2dab 01bd 74dd 163b
00000190: 769e 0bbd fe63 c23b 2722 143d 0fa2 2cbd
000001a0: 6324 3dbc 26bd 803c f817 883b 2cee 90bc
000001b0: ed36 973c ac56 80bc 9d76 c43b e891 ccbc
000001c0: 4300 11bb 6453 4fbc 266e 3a3c 4590 c83c
000001d0: acb0 203c d95c 87bb 629c 30bc ae3b 7f3c
000001e0: dd94 d5bb 6db7 363c 389b 033d e84d e7ba
000001f0: 3159 203d b9d3 803c 990b 213d 302e ea3c
00000200: 54e1 cbbc 764e ebbc 62fc f6bc b3ba b33c
00000210: b27a fbbc 5018 13bd 3cc6 0d3d 91dd aebc
00000220: 18a1 c03c 2509 08bd c0d9 d539 f89d 05bd
00000230: 7d7a e6bc be6b 1e3d 0a10 d6bc a77f 1fbb
00000240: eeb4 4bbc 8bdd 10bd 6713 3dbc 07ec c7bc
00000250: 62a1 a5bc 5ad6 cbbc 4dea ad3c e269 c6bc
00000260: d187 153d d4e8 2a3c bc60 0f3d 99b1 863c
00000270: fee5 fbba 32c2 273c 4996 00bc 3d77 2bbb
00000280: 10a3 043c 3155 c3bc da89 00bb 8cc0 efbc
00000290: b6c5 de3b afe4 183c 18d5 5fbc f294 063d
000002a0: 7efc 32bb 6b34 46bc d308 d2bb 60a1 bd3c
000002b0: 4723 0fbd e1e5 8fbb 577a 143d 8ca8 8a3c
000002c0: b96a fc3b 661a 653c 3ab1 8f3c 0134 81bb
000002d0: 183a 1b3d 1c20 df3c 18cc ad3c a8ae 0f3d
000002e0: 727e 943c cb61 ef3c 47c6 093d 8979 b1bc
000002f0: 9c61 743c eef0 3bbc 3da0 6dbc b194 b8bc
00000300: 0ebd 8c3c f84d 0ebd 48bf 13bd 0c0a c03c
00000310: 6426 b0bc 7a48 b73b b5ca dc3c 226c 2abc
00000320: bcab c73c 728f 533c cefa bdbc b958 01bc
00000330: 06af bebb 4e8e 003d 3789 8ebc db77 efbc
00000340: eb6d 57bb 9168 4d3c a93c 5cbb df69 64bb
00000350: e39c f23c 6e78 de3b 5f8c fdbc 0742 013d
00000360: 07b7 a7bc ca6d 9cbc 2c21 39bc 4dde 923c
00000370: bf96 66bc 2cc5 e6bc 04c3 a0b7 ce3f 643b
00000380: 7123 bd3b 0201 973c 7b74 11bd e509 ea3c
00000390: 2797 9c3c 30af 043d 8137 293c ae48 f43b
000003a0: c1e1 7fbc 97a4 c5bc d357 1239 acd9 0e3d
000003b0: d755 bdbc c2ac 7dbc 84a6 133c 81e0 8abc
000003c0: b03a 883c ff8c 9abc ea3f f2bc 68e4 203d
000003d0: 802d 9b3c 2d38 93bc 1986 8a3c fcd3 e83c
000003e0: ea8d 9cbc f854 5a3b 55ed 6c3b 10d3 063d
000003f0: ae38 733c 4d79 02bd e8b2 ed3c 02b6 e43c
-0.013479962 0.032616664 -0.029171249 0.012426654 0.032638196 -0.008142216 -0.010066421 -0.027506717
-0.03669519 -8.213722e-05 0.03549211 0.02129428 -0.013953077 0.011622231 0.009355282 -0.0027127315
0.03208906 0.013298369 -0.020196225 -0.0007337318 0.0045413724 0.027785383 -0.0068707094 -0.00036872615
-0.0041355575 -0.032122977 0.003194465 -0.0066542 0.01642136 -0.027035583 0.013821077 -0.03726819
0.0016736469 -0.0020562452 -0.00394137 0.022678431 -0.0370846 -0.03495689 0.007862526 -0.023525715
-0.015399617 -0.01655376 -0.006456196 -0.039688524 -0.0394294 -0.020242944 0.021146148 -0.025029913
-0.030597731 0.028899219 -0.0040734187 -0.023410672 -0.03770449 -0.016558938 0.02619239 0.025250869
-0.03025503 -0.026224937 -0.0010195683 -0.01876692 0.013757524 -0.0072672036 -0.020936616 0.009312951
-0.015896777 0.004755346 -0.009875904 -0.009267668 0.02439517 0.0116502065 0.0024951538 -0.016624857
-0.00256332 -0.00951485 0.016403208 -0.020348543 0.023244476 -0.036228824 0.0029914621 0.015529882
0.0011858414 -0.025018228 0.0022300943 -0.02579251 0.012802782 0.024652047 0.033529278 0.021610394
0.025340974 0.03459894 0.0074937185 -0.01626378 -0.010147453 -0.041834578 -0.026964026 0.019326013
0.0412588 -0.028932825 -0.031657387 0.002302018 -0.034086667 0.00593233 0.036165383 -0.04214674
-0.01154432 0.015715193 0.004153248 -0.017691694 0.018458808 -0.015666328 0.005995585 -0.024971917
-0.00221254 -0.012654159 0.0113788005 0.024482856 0.009807747 -0.0041309414 -0.010779472 0.015578194
-0.00651799 0.011152131 0.03213045 -0.0017647119 0.03914756 0.015725957 0.0393177 0.028586477
-0.024887718 -0.028723937 -0.030149642 0.021939611 -0.030698154 -0.035911858 0.03461288 -0.021345885
0.023514315 -0.033211846 0.00040788762 -0.032621354 -0.028134579 0.03867697 -0.026130695 -0.0024337561
-0.012433274 -0.03536753 -0.01154027 -0.024404539 -0.020218555 -0.024882484 0.021229887 -0.02422041
0.036506478 0.010431487 0.035004362 0.016442107 -0.0019218323 0.010239171 -0.007848331 -0.00261636
0.008095518 -0.023844333 -0.0019613416 -0.029266618 0.0067984713 0.009331866 -0.013661645 0.03285689
-0.0027311142 -0.012097458 -0.0064097433 0.023148239 -0.034945752 -0.0043914174 0.036249485 0.016926073
0.007703152 0.013983345 0.017540563 -0.003942967 0.0378972 0.02723699 0.021215484 0.035078675
0.0181267 0.029221436 0.033636358 -0.021664398 0.01491585 -0.011471016 -0.014503536 -0.02253184
0.017179992 -0.034742326 -0.036071092 0.02344229 -0.021502681 0.0055933567 0.026952127 -0.010401757
0.024373882 0.012912618 -0.023190882 -0.007894688 -0.0058192043 0.031385712 -0.017399414 -0.029231956
-0.0032871913 0.012537138 -0.0033605492 -0.0034853143 0.029615825 0.0067892587 -0.030950723 0.03155711
-0.020473016 -0.01909532 -0.011299413 0.017928267 -0.014074027 -0.02817019 -1.9164298e-05 0.003482807
0.005772047 0.018433098 -0.035511475 0.028569171 0.019115044 0.032393634 0.010328175 0.007454953
-0.015617789 -0.024126334 0.00013956362 0.034875557 -0.02311222 -0.015483083 0.009011868 -0.016952755
0.016629547 -0.01886606 -0.029571492 0.039280325 0.018942595 -0.017971123 0.016909646 0.028421395
-0.019110639 0.0033314805 0.0036152203 0.03291613 0.014845056 -0.031853963 0.029015973 0.02791882
