tb_logs/ConvNet_1_0_2_mozart/version_0/checkpoints/epoch=3.ckpt (torch_old, 695720 bytes, 24 tensors)

momentum_buffer f4 [10, 5, 4]
00000000: 3a10 b3bc 1ee5 d2bb 605c 74bc c2d7 6cbc
00000010: 762b 52bb ebc8 81bb 58e0 3fbb 6abd bbbb
00000020: 0ca6 efb9 067e 1bba 40ae 0cbb 2cea 7fbb
00000030: 4da1 eaba 100b 8539 16c4 1cbb e067 13ba
00000040: e067 13ba e067 13ba e067 13ba e067 13ba
00000050: 478b a83c 427b 95bc a03a d13c b6bc 353d
00000060: fd2d 543b f5fa 16bc e2e0 80bc af0d e43b
00000070: c0d4 26b8 60e0 7bb9 0990 afba 9853 753a
00000080: 4ca0 b53a 501d 06bb 406e bdb7 dac2 3eba
00000090: 08b5 2839 08b5 2839 08b5 2839 08b5 2839
000000a0: 87c0 46bc 10b4 40bc 4d4d 0fbd 1b6a 16bb
000000b0: e127 653c 7692 0bbc c859 593a 7002 d1ba
000000c0: 928d b03a 4e76 55ba d126 d13a 8a01 feb9
000000d0: 8572 b13a 7b55 ec3a 8775 eb3a 526c b13a
000000e0: 8572 b13a 8572 b13a 8572 b13a 8572 b13a
000000f0: 1d8b 2bbd 2f20 44bd 7fc4 78bc 2b2b a13c
00000100: 4eb1 91bb 5b82 163b 6a77 543b f9b7 0c3c
00000110: 0606 edba 1065 fe3a 000f 47b7 047e ba39
00000120: 6007 043b a2d1 f33a adcb d13a 4e08 dd3a
00000130: aa56 c23a aa56 c23a aa56 c23a aa56 c23a
00000140: bd86 09bc ed7b cb3b 27d5 a1bc 9148 d5bc
00000150: 7786 4a3b b442 613b 2a90 00bb f0ae 0fbc
00000160: 8b29 4a3b 505f 7b3b 0f2c 523b 7a59 42ba
00000170: 052c 4a3b ac9f 5a3b b0b6 743b 4e09 1c3b
00000180: 052c 4a3b 052c 4a3b 052c 4a3b 052c 4a3b
00000190: 93c9 203c 7a55 d03c 78af 2c3b 55d6 9f3c
000001a0: 6850 163c c90a 103b f734 fdbb 7aa9 64ba
000001b0: a229 b83a 52be ebba 14ed e6ba 36e8 15bb
000001c0: c6a0 0abb 226c 85ba fa6e 5dbb 6538 feba
000001d0: 07ce d6ba 07ce d6ba 07ce d6ba 07ce d6ba
000001e0: 251e 563c 85c8 a53c 20f0 fe3c 1ecf 033d
000001f0: 1690 86bc 8743 81bb ea80 59bc b169 ddbb
00000200: e681 04bc 815d c8bb 9050 e9bb bcf0 aebb
00000210: 1d7c aebb fc4f 8cbb 8036 93bb f26c 82bb
00000220: 33ff 88bb 33ff 88bb 33ff 88bb 33ff 88bb
00000230: d35a ad3c dfab 3e3d 38c3 593c 48fd 393d
00000240: 3461 d63b b026 0cba 42b8 00bc 3427 1f3b
00000250: 6ac6 c6ba 50f3 27bb 4377 d1ba fa5a cfba
00000260: 8e0d 7cbb 7218 28bb 7e6f 44bb 6618 15bb
00000270: 9660 28bb 9660 28bb 9660 28bb 9660 28bb
00000280: aedd 51bc f442 30bd c4ee adbc ad10 69bc
00000290: 016a 843b fdd9 0c3c af5d 283a 65e2 873a
000002a0: 7465 a33b 8451 ed39 18ac 49b9 f874 fb39
000002b0: 5e45 553b 892c 3a3b 2488 213b 802b 023b
000002c0: ac54 133b ac54 133b ac54 133b ac54 133b
000002d0: 361a 04ba 090d 30bc d3e1 0bbb 5e74 84bb
000002e0: c2c3 08bb a947 a7bb d88b d4ba c516 c8ba
000002f0: 8830 56bb d040 a4bb 7a63 9fbb 0c3d e5ba
00000300: 54c2 14bb ea89 eaba b7f7 e4ba 8a3e e5ba
00000310: f431 e5ba f431 e5ba f431 e5ba f431 e5ba
-0.021858323 -0.0064360043 -0.014914602 -0.014455738 -0.0032069362 -0.003960719 -0.0029278006 -0.005729367
-0.00045709347 -0.000593156 -0.0021466166 -0.003904949 -0.0017900855 0.0002537598 -0.0023920587 -0.00056230836
-0.00056230836 -0.00056230836 -0.00056230836 -0.00056230836 0.020574225 -0.01824725 0.02554065 0.044369422
0.0032376044 -0.009215106 -0.015732232 0.006959639 -3.9775623e-05 -0.00024020812 -0.0013394366 0.0009358465
0.0013856976 -0.002046425 -2.2581895e-05 -0.000727696 0.00016089168 0.00016089168 0.00016089168 0.00016089168
-0.012130863 -0.01176168 -0.03498583 -0.0022951427 0.013986559 -0.008518806 0.00082912715 -0.0015946161
0.0013469926 -0.0008142934 0.0015957003 -0.00048447802 0.0013538158 0.0018030846 0.0017964103 0.001353631
0.0013538158 0.0013538158 0.0013538158 0.0013538158 -0.041880716 -0.047882255 -0.015183567 0.019673904
-0.004446185 0.0022965882 0.003241981 0.008588784 -0.001808346 0.0019408781 -1.1864817e-05 0.00035570574
0.0020145997 0.0018601904 0.0016006135 0.0016863437 0.0014826853 0.0014826853 0.0014826853 0.0014826853
-0.0083939405 0.0062098415 -0.01975496 -0.026035579 0.0030902901 0.0034372034 -0.0019617178 -0.008769736
0.0030847515 0.0038356371 0.0032069718 -0.0007413846 0.0030848992 0.0033359332 0.0037340336 0.0023809257
0.0030848992 0.0030848992 0.0030848992 0.0030848992 0.009813684 0.025431383 0.0026349705 0.019511381
0.009174444 0.0021979085 -0.007727261 -0.0008722764 0.0014050493 -0.0017985797 -0.0017618262 -0.0022874004
-0.0021152957 -0.0010179321 -0.003378807 -0.0019395469 -0.0016388305 -0.0016388305 -0.0016388305 -0.0016388305
0.01306871 0.020237217 0.03112036 0.032179944 -0.016426127 -0.0039448175 -0.013275364 -0.006756984
-0.008087611 -0.006114662 -0.0071201995 -0.0053387564 -0.005324854 -0.004281996 -0.004492581 -0.0039802724
-0.0041808127 -0.0041808127 -0.0041808127 -0.0041808127 0.021161472 0.046550628 0.013291173 0.045407563
0.0065423492 -0.0005346341 -0.0078564305 0.0024284841 -0.0015165333 -0.0025627203 -0.0015980977 -0.001581996
-0.0038460228 -0.0025649336 -0.002997368 -0.0022750138 -0.0025692335 -0.0025692335 -0.0025692335 -0.0025692335
-0.0128092 -0.0430326 -0.021232016 -0.014225167 0.004040957 0.008596894 0.00064226513 0.0010367153
0.0049864594 0.00045264896 -0.00019232964 0.000479616 0.0032542567 0.0028407893 0.0024647797 0.0019862354
0.0022480888 0.0022480888 0.0022480888 0.0022480888 -0.0005039306 -0.010745295 -0.0021344319 -0.0040421924
-0.0020868634 -0.005104978 -0.0016215993 -0.0015265575 -0.0032682735 -0.005012609 -0.0048641535 -0.0017489507
-0.0022698836 -0.0017893885 -0.0017468844 -0.0017489952 -0.0017486201 -0.0017486201 -0.0017486201 -0.0017486201

momentum_buffer f4 [10]
00000000: d604 153b 708e 2aba df63 b3bb 6d77 c4bb
00000010: b162 4cbc f127 d93b 4c7f 8a3c 7b38 2a3c
00000020: a0f1 14bc 52b4 e73b
0.0022738478 -0.000650621 -0.005474552 -0.005995682 -0.012474702 0.006627076 0.016906403 0.010389443
-0.009090811 0.0070710564

momentum_buffer f4 [64, 610]
00000000: 5901 29b7 2500 6938 9e3b 8fb7 1510 6438
00000010: 857a 50b8 07ce e4b6 1f7b 72b8 6110 7b37
00000020: 3c8b 0eb8 fd65 2f38 cf91 03b8 7565 5438
00000030: c837 09b8 eb79 1338 11ff e0b8 2c28 bcb6
00000040: 1154 23b6 b74f 5635 b64e 04b7 6564 00b6
00000050: 5a1e 0fb8 afb3 d5b7 2a27 5bb8 4570 04b8
00000060: 2474 d5b7 0ec7 ecb6 e9b7 8ab8 3440 ef33
00000070: 5907 86b8 e150 01b8 08d2 5db8 9566 f9b7
00000080: 4c38 f3b6 b2ec 78b8 7ad3 12b7 1cf7 8ab5
00000090: f559 47b8 5fa9 e7b6 1d5d c6b8 28e1 c3b7
000000a0: c6e2 dab7 c30c a6b8 f777 7d35 ee77 47b8
000000b0: b983 a5b5 3391 72b8 6822 83b7 2fcb 0fb8
000000c0: 23de f5b6 41e6 6738 123d 2ab8 5da8 a338
000000d0: 1f0a c1b8 2c33 dfb7 9414 51b8 90d5 32b7
000000e0: 0ce6 e136 5c43 b737 1c97 b6b4 8867 ab37
000000f0: 19d1 5d37 d555 4438 b6a8 6338 ec9b 2838
00000100: c6e5 ddb6 6667 3cb8 7c48 0eb6 8f59 5bb8
00000110: 58a9 57b8 9ab1 b237 0d6d 3737 7dc6 4938
00000120: f3ed 8537 5f4a cbb6 c595 91b8 69a5 f4b7
00000130: aaba 73b8 c0a5 80b7 059d e536 c901 2db7
00000140: 5446 feb7 0fde 68b8 8548 6cb8 06dd 94b8
00000150: 2fee 84b8 144e 2cb8 e973 beb8 589d 87b7
00000160: 6ce6 6cb8 ac82 f0b8 106d 3fb8 d22c abb8
00000170: d649 8cb8 f2db abb8 1630 81b7 eee5 8d36
00000180: 6c67 e2b8 25ff 6db8 78c5 87b8 eb86 9bb8
00000190: 7519 87b8 5fbb 17b9 20e9 9ab7 cfe7 3eb8
000001a0: 499e b8b8 3efe a2b8 9583 fcb6 4211 4eb8
000001b0: 62dc 84b8 28ba 6638 5ed5 e6b7 ad10 a138
000001c0: 9524 74b8 f80c 86b8 0848 b4b6 6644 aeb8
000001d0: 0720 b9b7 c27d b437 7fe4 c337 f774 2e38
000001e0: 3eb8 4c38 8d37 d5b7 6d98 ef36 7b97 ca37
000001f0: d90b ceb6 744c 3337 ff09 09b8 cdee e4b7
00000200: ca9a c0b7 2447 0a37 e210 4d36 993a f537
00000210: 0ba1 ab35 d77e 3038 5132 7eb6 3591 8937
00000220: 6a72 78b8 523f 07b8 c32d 5036 4301 6f36
00000230: e056 6734 5c93 9a35 d956 eab7 a619 b8b7
00000240: 4264 e4b7 7798 bbb7 d09f 1cb6 2819 25b6
00000250: 1d9a 25b8 472e 9eb6 67a9 00b8 85b5 9ab7
00000260: 71bc bbb7 5739 1bb7 fc09 91b5 6e77 36b8
00000270: 387a 9f35 a4cb d437 eb25 1cb8 4326 3eb8
00000280: 041c 99b8 2426 e2b7 9c38 51b7 8e4d 60b8
00000290: 257f 0d36 d063 f235 3975 b636 5251 0bb8
000002a0: 34ff f1b5 58f1 fab5 2fb6 a936 3aac 3038
000002b0: 2a1d 9fb7 cfc2 1638 2673 67b8 2563 4ab8
000002c0: 22fb 16b8 5142 dd35 2ce1 7237 a2de 7a37
000002d0: 98cc f235 0634 8037 4f61 b737 d310 7238
000002e0: 8848 1e38 1bbd 4738 87fe 9c36 c0ce 1e37
000002f0: b5bc 2ab8 6fde 83b8 7ba6 88b8 2f8a 4138
00000300: a251 8137 3db3 7138 27fb d537 a43c 6138
00000310: 1edd 23b8 879f bbb6 993d 9db8 6d8f b1b7
00000320: 25f8 8e37 e169 a4b5 b6d1 0a36 a07d bbb7
00000330: 4547 55b8 7e31 66b8 735d 86b8 6558 e2b7
00000340: 3a76 42b8 9fe2 20b5 4da3 92b8 1285 81b8
00000350: 39c6 59b8 5169 99b8 37bd 69b8 2cb5 9db7
00000360: 2611 a8b6 94ad 7db8 7931 75b8 ffc9 9d37
00000370: 9b28 96b8 4750 80b8 d755 e0b8 9521 b5b8
00000380: da3b e7b6 83af afb8 1e02 3db8 be03 88b7
00000390: d261 23b4 9af7 8eb8 5893 48b8 b81d 8837
000003a0: 1c80 af36 6364 c838 3b70 e8b7 717d 9f36
000003b0: 8ba3 8ab8 89ed 04b9 f527 19b8 f3e6 d337
000003c0: f7f3 1a38 fe53 4138 b78e 0638 0a33 4f37
000003d0: eb21 f2b6 fd78 07b8 fd42 86b7 7cf4 31b8
000003e0: b0f7 cab7 bd3b 14b8 df23 2137 10ab ad36
000003f0: 2f49 28b7 3bed 77b7 1960 0cb7 bce6 94b7
-1.0073499e-05 5.5551664e-05 -1.707469e-05 5.4374414e-05 -4.970517e-05 -6.8189142e-06 -5.781196e-05 1.4964579e-05
-3.398511e-05 4.1818235e-05 -3.136863e-05 5.0639228e-05 -3.2715296e-05 3.5161076e-05 -0.00010728662 -5.6075132e-06
-2.4337826e-06 7.983721e-07 -7.886139e-06 -1.9131924e-06 -3.4122124e-05 -2.547525e-05 -5.2250143e-05 -3.157581e-05
-2.544566e-05 -7.056521e-06 -6.614609e-05 1.1140983e-07 -6.3909865e-05 -3.083132e-05 -5.2886113e-05 -2.9730882e-05
-7.248518e-06 -5.9348247e-05 -8.751516e-06 -1.035372e-06 -4.7529076e-05 -6.904054e-06 -9.4587194e-05 -2.3350658e-05
-2.6093225e-05 -7.917874e-05 9.4424416e-07 -4.755699e-05 -1.2331794e-06 -5.7832523e-05 -1.5632439e-05 -3.4283086e-05
-7.327429e-06 5.5289132e-05 -4.0588035e-05 7.803806e-05 -9.204842e-05 -2.66075e-05 -4.9848648e-05 -1.0659351e-05
6.7323035e-06 2.1846667e-05 -3.4010088e-07 2.0432999e-05 1.3221311e-05 4.680998e-05 5.427814e-05 4.0199535e-05
-6.6130624e-06 -4.491899e-05 -2.120184e-06 -5.2297077e-05 -5.1417708e-05 2.1301956e-05 1.093304e-05 4.810699e-05
1.596564e-05 -6.0585294e-06 -6.9420355e-05 -2.9164092e-05 -5.810956e-05 -1.5335972e-05 6.8430113e-06 -1.0312019e-05
-3.0311909e-05 -5.551992e-05 -5.6334324e-05 -7.098359e-05 -6.338616e-05 -4.108071e-05 -9.081496e-05 -1.6166523e-05
-5.648138e-05 -0.00011468431 -4.563952e-05 -8.162264e-05 -6.689473e-05 -8.1948834e-05 -1.540039e-05 4.228895e-06
-0.000107957836 -5.6742825e-05 -6.474083e-05 -7.4161064e-05 -6.4420434e-05 -0.00014470283 -1.8466788e-05 -4.551542e-05
-8.8032866e-05 -7.772118e-05 -7.5255034e-06 -4.91303e-05 -6.3353e-05 5.5009645e-05 -2.7517493e-05 7.680184e-05
-5.8208203e-05 -6.3920335e-05 -5.3728036e-06 -8.309707e-05 -2.2068632e-05 2.1516233e-05 2.3352213e-05 4.1593765e-05
4.880898e-05 -2.5417447e-05 7.1404997e-06 2.4150815e-05 -6.1406577e-06 1.0687032e-05 -3.2672655e-05 -2.7290918e-05
-2.2960263e-05 8.242005e-06 3.0557208e-06 2.9233563e-05 1.2787362e-06 4.20798e-05 -3.7878237e-06 1.639929e-05
-5.9234364e-05 -3.224548e-05 3.1021052e-06 3.561451e-06 2.1545156e-07 1.1516781e-06 -2.7935415e-05 -2.1946453e-05
-2.7226404e-05 -2.2363134e-05 -2.3338835e-06 -2.4601559e-06 -3.9482595e-05 -4.7141543e-06 -3.0675346e-05 -1.8442757e-05
-2.2379887e-05 -9.25207e-06 -1.0806248e-06 -4.350341e-05 1.1881993e-06 2.5367197e-05 -3.7228612e-05 -4.5335164e-05
-7.300827e-05 -2.695906e-05 -1.2470551e-05 -5.347799e-05 2.1084645e-06 1.8059454e-06 5.437669e-06 -3.3215918e-05
-1.8030173e-06 -1.8696692e-06 5.0578014e-06 4.212207e-05 -1.8967858e-05 3.5944217e-05 -5.5181932e-05 -4.825289e-05
-3.5996673e-05 1.6485084e-06 1.4476751e-05 1.4952997e-05 1.808995e-06 1.5283014e-05 2.1860613e-05 5.7712965e-05
3.7737685e-05 4.7621415e-05 4.678793e-06 9.465672e-06 -4.0706906e-05 -6.287998e-05 -6.515995e-05 4.614348e-05
1.5416012e-05 5.7625806e-05 2.550853e-05 5.3700656e-05 -3.906816e-05 -5.5916057e-06 -7.497817e-05 -2.1166832e-05
1.704327e-05 -1.2249767e-06 2.068567e-06 -2.2350636e-05 -5.0849532e-05 -5.4882366e-05 -6.407024e-05 -2.6982461e-05
-4.636331e-05 -5.993442e-07 -6.99224e-05 -6.1759856e-05 -5.192144e-05 -7.315225e-05 -5.572775e-05 -1.8800223e-05
-5.0087865e-06 -6.0481558e-05 -5.8458627e-05 1.880992e-05 -7.160121e-05 -6.1184684e-05 -0.00010697141 -8.637008e-05
-6.891304e-06 -8.377342e-05 -4.5063083e-05 -1.6214206e-05 -1.5216145e-07 -6.817207e-05 -4.782094e-05 1.6226302e-05
5.2303203e-06 9.555442e-05 -2.7708817e-05 4.7531726e-06 -6.610815e-05 -0.0001267699 -3.6515255e-05 2.5260704e-05
3.694367e-05 4.609301e-05 3.2081003e-05 1.2350045e-05 -7.2161106e-06 -3.2299187e-05 -1.6005239e-05 -4.2427782e-05
-2.4195615e-05 -3.5341585e-05 9.6047e-06 5.175716e-06 -1.003062e-05 -1.4777582e-05 -8.367025e-06 -1.7750419e-05

momentum_buffer f4 [64]
00000000: 9047 87b8 ee57 83b7 d2c4 82b7 ccf1 6439
00000010: 0e80 5539 40cf 13b6 5e53 b839 f0f7 f3b8
00000020: c062 1739 6192 34b9 faa7 a539 f9c1 7038
00000030: be53 8739 a42b 0f39 f030 45b9 0abd 84b7
00000040: 1ee1 023a 0f2d eb39 2830 1d38 59ac 4739
00000050: 569e 09b9 6511 d239 8d27 2b39 0c12 bb38
00000060: cc46 38b9 dc32 203a fd6b 333a d261 7339
00000070: 6b4d f039 ecb2 2b3c 245f 263c 44b3 1339
00000080: 9c97 1bbb a624 003b f2be 1a3a 1c71 2d39
00000090: c427 7439 4c6c 4b39 410a 3639 9a40 183a
000000a0: c3d7 423a 7cab 8a38 0689 2d3a 0bbe 89ba
000000b0: 4430 26b9 3812 b036 88d0 6038 eb9b 8038
000000c0: 0cb7 c539 5d79 bc39 18c5 ad39 946e 17b9
000000d0: da0a b3b9 38b8 8dba 1058 1438 96e0 abba
000000e0: 3691 3e39 2766 b739 a081 cb36 4608 2d37
000000f0: e0f4 9c37 d12e 1539 1699 c9b9 0000 0000
-6.450631e-05 -1.5657362e-05 -1.558886e-05 0.00021833851 0.00020360967 -2.2025342e-06 0.00035157328 -0.00011633325
0.0001443727 -0.00017220668 0.00031596405 5.740111e-05 0.000258116 0.000136538 -0.00018805615 -1.5823654e-05
0.00049926515 0.00044856264 3.7476566e-05 0.00019042323 -0.00013124323 0.0004006728 0.00016322565 8.920216e-05
-0.00017573981 0.0006111094 0.00068443996 0.00023210727 0.00045834048 0.01047967 0.010154519 0.00014085794
-0.002374149 0.0019553094 0.0005903087 0.00016540702 0.00023284467 0.00019399932 0.00017360692 0.0005807966
0.00074326637 6.612294e-05 0.00066198444 -0.0010508908 -0.00015848974 5.2473297e-06 5.359997e-05 6.1325576e-05
0.0003771115 0.00035948577 0.00033143978 -0.00014441676 -0.00034149626 -0.0010812348 3.5367964e-05 -0.0013113196
0.00018173907 0.0003498059 6.064962e-06 1.031353e-05 1.8710678e-05 0.00014227188 -0.00038451765 0.0

momentum_buffer f4 [10, 1, 4]
00000000: 7cae 3dba 7010 e639 bf5a a83b 8463 383c
00000010: 5fa2 a636 2a46 8129 ca9d b632 eabe 3bbb
00000020: 9fbf 63ba 6660 173c 149f 393b 14da e83a
00000030: 82b4 56bb 6d1a b3bb 91f0 3fb8 5673 b238
00000040: eab5 333b 987c 163c 2c26 0339 58f3 07ba
00000050: e0a1 3e38 f01f 7eb9 804b 1eb8 6ff5 c53b
00000060: 8a78 263c 7232 86bb ccc7 6f3a 2d30 6f3c
00000070: d43b 19bc ab05 97bb a22c 1639 8db7 d2ba
00000080: f8fb f638 653b 803b 7881 5c3b 78da 40bb
00000090: 9f42 57ba 5d16 1ebb 34f9 a1bb caf8 39bb
-0.0007235778 0.00043881265 0.005137771 0.011254195 4.966088e-06 5.740922e-14 2.1259343e-08 -0.002864773
-0.00086879166 0.009239292 0.0028323578 0.0017765188 -0.00327614 -0.0054657967 -4.5761994e-05 8.5091844e-05
0.0027421662 0.009184979 0.00012507354 -0.00051861024 4.5450288e-05 -0.00024235225 -3.774045e-05 0.006041221
0.010160575 -0.004095369 0.00091468985 0.014598888 -0.009352643 -0.00460883 0.00014321742 -0.0016076431
0.00011777127 0.0039133304 0.0033646505 -0.0029427093 -0.00082115264 -0.0024122216 -0.0049430374 -0.002837705

momentum_buffer f4 [10]
00000000: 9696 193c 4c24 9fba ecad 003d 7890 07bc
00000010: 672e 483c be7b d73c bc88 843c d7b0 09bc
00000020: c472 7e3b 1023 fabb
0.009374281 -0.0012141555 0.031415865 -0.00827419 0.012218094 0.026304122 0.016178481 -0.008403978
0.003882573 -0.0076335743

momentum_buffer f4 [128, 300]
00000000: 51b3 9d36 3e1f d4b8 d35a 38ba adb5 b3b7
00000010: a5ca 4039 cc87 c5b7 4f71 9ab7 3bc8 8eb6
00000020: 9ebd 7bb6 327c a136 3268 0437 e61e 68b6
00000030: c69a 4eb6 b8ec e43b 6271 eb3b 18b0 463b
00000040: 5168 573b 190d bab4 cc46 1f3b 1dd3 2f3b
00000050: 6f89 adb8 7ee0 4eb8 907d f137 3ee8 15b7
00000060: ffb8 a3b7 0aba 4939 186d 183b 94b7 253a
00000070: d860 4839 5fdc 5139 0000 0000 0400 0000
00000080: 0400 0080 0000 0000 0400 0000 0000 0000
00000090: 0000 0000 0000 0000 0000 0000 0400 0000
000000a0: 0000 0000 0000 0000 0000 0000 4915 7a3a
000000b0: 0000 0000 67d3 22b1 0000 0000 0000 0000
000000c0: bc51 5333 0000 0000 0400 0000 0000 0000
000000d0: 0000 0000 0000 0000 0400 0080 0000 0000
000000e0: 6607 0080 0000 0000 0000 0000 0000 0000
000000f0: 3263 313b c669 473b c4e1 2e3b 2a57 363b
00000100: 2e94 363b d2cb 283b 00d1 313b 3864 413b
00000110: f21e 273b 40af 3a3b cd2b 3f3b 2686 343b
00000120: b810 313b c426 113b 8fcd 093b ca11 123b
00000130: a3c2 663b 060a 363b 50ad 3a3b b44f 173b
00000140: 0737 4f3b e08b 473b 8014 3d3b ffac 2b3b
00000150: 2cd5 383b 1ec2 1f3b 09c1 283b b677 453b
00000160: da69 313b 65c0 2b3b 40ff dcb2 0400 0080
00000170: 2cb3 09b6 40c3 11b7 0ed3 1e1f 1c56 b536
00000180: 9f75 0f34 8a9b 08ae 8b1c 2330 6027 532f
00000190: 5473 6c28 d603 0080 7b95 13ac 0000 0000
000001a0: 7f72 5b3b d87d dab4 c51b 363b 208c e9a5
000001b0: 0091 1f2a 1cb9 1c3a 3a4e fbb5 87d3 33b4
000001c0: 861e d5b3 8c6b e927 c48c 0613 811c e330
000001d0: cd6e 09b7 002c 53b5 8d2b 82b3 3284 1d36
000001e0: f2a9 99b5 5b2f 8536 efc4 bbb8 2de9 70b9
000001f0: 449b ffb7 6139 09b6 5d46 5b37 3338 04b5
00000200: 2a75 0ab7 0591 ed36 30d8 1037 f3fd 8b36
00000210: 1678 94b7 ffdc dfb0 b199 8d3b ff5d 1c39
00000220: 3fdf 303b 2607 06b6 c308 6435 8f10 da3a
00000230: a613 7d3a f066 53b8 4128 fdb7 58c1 6137
00000240: 622e 05b8 08ae cab4 8f43 d337 e3a5 9b3a
00000250: caad a836 1ddd e538 4a5c 773b 6cbf 743b
00000260: 052a 7e3b db87 743b eca8 713b 94f6 793b
00000270: d248 733b b010 6e3b 0c66 763b a25a 783b
00000280: aab8 773b 0691 7a3b 25d8 793b 174c 7a3b
00000290: 3ca6 373b 7fc0 223b 75a7 583b b025 753b
000002a0: fa0c 813b caad 543b 830d 803b 4cb9 843b
000002b0: be30 743b ce07 713b 301a 753b 309e 713b
000002c0: a82a 6e3b 44c3 6d3b 4fbd 763b b780 733b
000002d0: 385d 11b5 54d1 ebb9 ad82 cab9 753f 1e38
000002e0: 4a93 3a37 c588 10b8 68a6 2ab7 e0a2 3ab8
000002f0: e4b9 4f37 e0c7 0236 b829 cdb6 1e39 0db7
00000300: 973c 2eb5 ec4a 8a3b fc19 bb3a 75fe a73b
00000310: 480c 8f3a 4918 6436 931e c93a 8220 4e37
00000320: 7267 2eb9 1499 3337 f452 b1b6 a164 8cb7
00000330: bef9 25b6 045b 4db9 ed78 d43a da0a a038
00000340: f67a 9d38 f471 acb5 e27a 398d 0000 0000
00000350: 1510 e7b5 1daf f336 0400 0080 0400 0080
00000360: 1223 0000 0400 0080 16a1 49a9 0000 0000
00000370: 0400 0000 0400 0000 0980 3302 0400 0080
00000380: 3325 563b 1446 963a ed15 e43a 0400 0000
00000390: 6bd8 5e29 086d 1f3a 9d16 ff38 0dce d583
000003a0: 0400 0000 a42f 0d8a 0400 0080 0400 0000
000003b0: 49a7 8536 b81a 85b9 fa63 5395 f0b6 5035
000003c0: 2d48 8b36 e089 b7b9 ba59 7139 e29c a2b7
000003d0: e4ad dc37 4b28 72b5 5b81 10b8 9ce2 a936
000003e0: b7e7 c836 9f10 6137 a581 a336 a8dd 30b8
000003f0: 8bb5 a435 7860 e23a 032b ff39 5a17 113b
4.69984e-06 -0.00010114767 -0.0007032577 -2.1423062e-05 0.00018386038 -2.3547465e-05 -1.8410994e-05 -4.2552397e-06
-3.7512286e-06 4.812632e-06 7.892073e-06 -3.458868e-06 -3.0786482e-06 0.006986227 0.007185147 0.0030317362
0.0032868574 -3.465473e-07 0.0024303673 0.0026828714 -8.274882e-05 -4.9323302e-05 2.8787908e-05 -8.935165e-06
-1.951726e-05 0.00019238159 0.0023258384 0.0006321606 0.00019109563 0.00020013888 0.0 6e-45
-6e-45 0.0 6e-45 0.0 0.0 0.0 0.0 6e-45
0.0 0.0 0.0 0.0009539915 0.0 -2.369427e-09 0.0 0.0
4.9201603e-08 0.0 6e-45 0.0 0.0 0.0 -6e-45 0.0
-2.654e-42 0.0 0.0 0.0 0.0027067182 0.0030428036 0.002668486 0.002782295
0.0027859318 0.0025756252 0.002713263 0.0029509198 0.0025500623 0.0028485805 0.0029170394 0.002754578
0.0027018022 0.002214835 0.0021027063 0.0022288435 0.0035211227 0.002777697 0.002848465 0.0023088278
0.0031618492 0.0030448362 0.002885133 0.0026195643 0.0028203232 0.0024377177 0.0025749824 0.0030131168
0.002707115 0.0026207205 -2.5727445e-08 -6e-45 -2.0518883e-06 -8.688134e-06 3.3632382e-20 5.404245e-06
1.3360703e-07 -3.1060966e-11 5.9339617e-10 1.9204327e-10 1.31256395e-14 -1.376e-42 -2.0972935e-12 0.0
0.0033484993 -4.0697228e-07 0.0027787548 -4.051401e-16 1.4172344e-13 0.0005978511 -1.8723724e-06 -1.6747627e-07
-9.9241376e-08 6.4787094e-15 1.698258e-27 1.6524525e-09 -8.191634e-06 -7.8667654e-07 -6.0615186e-08 2.347177e-06
-1.1448849e-06 3.969222e-06 -8.9535366e-05 -0.00022975048 -3.047067e-05 -2.044799e-06 1.30698e-05 -4.925561e-07
-8.25272e-06 7.080033e-06 8.633404e-06 4.1720864e-06 -1.7698894e-05 -1.6288196e-09 0.0043213 0.00014912336
0.0026988534 -1.9971717e-06 8.494937e-07 0.0016637015 0.0009654112 -5.040219e-05 -3.0178695e-05 1.3456061e-05
-3.175287e-05 -3.7752056e-07 2.518462e-05 0.0011875 5.027022e-06 0.000109607565 0.0037744218 0.0037345542
0.003878237 0.0037312421 0.0036874367 0.0038141357 0.0037122262 0.0036325864 0.0037597446 0.0037895818
0.0037799277 0.0038233413 0.0038123217 0.0038192326 0.0028022667 0.0024833975 0.0033058797 0.0037406497
0.0039383145 0.003245222 0.0039078607 0.0040504094 0.0037260498 0.0036778334 0.0037399642 0.0036867969
0.0036341343 0.0036279717 0.0037649458 0.0037155577 -5.415236e-07 -0.00044978654 -0.00038625803 3.7729234e-05
1.1120757e-05 -3.4459652e-05 -1.0171534e-05 -4.4497545e-05 1.23814425e-05 1.9487852e-06 -6.114333e-06 -8.4175535e-06
-6.490822e-07 0.004220357 0.0014274712 0.005126769 0.0010913694 3.3988783e-06 0.0015344195 1.2286126e-05
-0.0001663247 1.0704873e-05 -5.284668e-06 -1.673616e-05 -2.4732285e-06 -0.0001958423 0.0016210355 7.631416e-05
7.509247e-05 -1.2848163e-06 -5.715544e-31 0.0 -1.7215522e-06 7.26235e-06 -6e-45 -6e-45
1.2581e-41 -6e-45 -4.4770685e-14 0.0 6e-45 6e-45 1.3187587e-37 -6e-45
0.003267598 0.0011464977 0.0017401554 6e-45 4.9481615e-14 0.00060816156 0.000121635596 -1.2566322e-36
6e-45 -6.797863e-33 -6e-45 6e-45 3.9831834e-06 -0.00025387644 -4.2689978e-26 7.775225e-07
4.150925e-06 -0.00035007205 0.00023016977 -1.938496e-05 2.6307018e-05 -9.021066e-07 -3.4452747e-05 5.0629733e-06
5.9874396e-06 1.3414915e-05 4.872871e-06 -4.2168103e-05 1.2271788e-06 0.0017271182 0.00048669436 0.0022139163

momentum_buffer f4 [128]
00000000: 8bea 2e3c 63bf 19bc 68d8 9b33 2a82 c7ba
00000010: 0000 0000 c75f 003c aba7 2137 26d7 a9ba
00000020: 0000 0000 83bb 9c87 78a5 883c 3e98 61b8
00000030: 3bb1 b03b 82f4 b73b c0a4 c438 e00b ee3a
00000040: 5c8e 7c3b dc67 c4ba 0d92 f2b0 5050 833a
00000050: 2f3a 323c 615d 673b 10c1 08b1 80e7 3b37
00000060: 0400 0080 a6c5 9d9e 8402 0bbc ec53 72ba
00000070: 9f0c b8bb 6309 103b 322f b13a 30ce 90b9
00000080: fa6e a43a 54cf 9739 d862 4bbc e066 54b9
00000090: aea4 a33a e605 84bb 0000 0000 999c cd3a
000000a0: 443f dfbb 50be 863b 9ce5 303b 449d adbb
000000b0: 80ea 41ba 0400 0000 a5e7 263c 7067 e63a
000000c0: 9c6a 43ba eab1 c6ba ab28 fbbb 306a 1639
000000d0: e755 76b9 868b 033c 52e8 b03a 0400 0080
000000e0: 0400 0080 74d6 71ba 5025 fb38 c854 c63a
000000f0: 3046 3739 6434 02bc d205 fd37 31d5 b732
00000100: 7b2b 32b5 aecc da3a 0000 0000 0aeb 982c
00000110: 03ad b4bb 73dd a93a 0400 0000 d76d e7b7
00000120: f8e8 8a3b 0400 0000 c465 83b8 a43c 383b
00000130: 0400 0000 299b 4c3b a1ae 8a3b 5a58 fc37
00000140: f3e6 a9bb 0400 0000 008f 2eb8 8d26 ce8e
00000150: 3c86 26ba 6873 8039 4692 8fbb 0400 0080
00000160: 4445 af3b 0028 083b af22 9436 156b b9b6
00000170: dd97 c6ba b1ff de3b cede dc3b fefb 4d3b
00000180: 8ba7 443b 5cde d336 e54d f9b9 c4f2 7a37
00000190: 061f 0a3b 6731 2439 6c11 043c 0400 0000
000001a0: 18b7 02bc ad05 b539 0400 0080 9d46 5b37
000001b0: 1783 883b b0a4 cf3a cd94 f339 c8b2 69bb
000001c0: 80c6 78bb 1b12 8b3b 7753 d13b 098f 94bb
000001d0: 2c7c 10b9 643f 8f3a 1ce3 303b 8c9d 8cba
000001e0: 64c2 b7bb 7a7d 123a ed01 0b3b 20fc d0b9
000001f0: 8535 883a 9a85 c036 4f3f b43b 18f4 113b
0.010676037 -0.009384009 7.257114e-08 -0.0015221287 0.0 0.007835335 9.635386e-06 -0.0012957796
0.0 -2.358248e-34 0.016680464 -5.3785967e-05 0.0053922213 0.0056138644 9.3766954e-05 0.0018161498
0.0038537001 -0.0014984566 -1.7649328e-09 0.0010018442 0.01087813 0.003530346 -1.9900348e-09 1.1199969e-05
-6e-45 -1.6704767e-20 -0.0084844865 -0.0009244073 -0.005616739 0.0021978251 0.0013518094 -0.00027619442
0.0012545281 0.00028955436 -0.012413703 -0.0002025622 0.0012484991 -0.0040290235 0.0 0.0015686929
-0.006812962 0.0041120425 0.0026992327 -0.0052982885 -0.0007397309 6e-45 0.010187064 0.0017578434
-0.00074545457 -0.0015159224 -0.00766476 0.00014344673 -0.0002349239 0.00802887 0.0013496971 -6e-45
-6e-45 -0.00092253764 0.00011975563 0.0015131468 0.00017478387 -0.007947061 3.016266e-05 2.1400952e-08
-6.637344e-07 0.0016693079 0.0 4.3461944e-12 -0.0055137887 0.0012959674 6e-45 -2.7588494e-05
0.004239198 6e-45 -6.265522e-05 0.0028112317 6e-45 0.0031220412 0.004232243 3.0081883e-05
-0.005185002 6e-45 -4.1618012e-05 -5.0820044e-30 -0.00063524 0.00024500047 -0.004381451 -6e-45
0.0053488333 0.0020775795 4.4147814e-06 -5.5258956e-06 -0.001515146 0.006805383 0.0067404276 0.0031430717
0.003000709 6.314176e-06 -0.00047551017 1.49576845e-05 0.002107562 0.00015658663 0.008060794 6e-45
-0.007978223 0.0003452724 -6e-45 1.3069858e-05 0.0041660178 0.0015841927 0.00046459437 -0.003565954
-0.0037960112 0.0042441017 0.0063881236 -0.0045336527 -0.00013779168 0.0010928926 0.0026990836 -0.0010728105
-0.00560789 0.00055881555 0.0021210865 -0.000398607 0.0010391927 5.737599e-06 0.005500711 0.0022270735

momentum_buffer f4 [64, 128]
00000000: 0000 0000 0000 0000 0000 0000 0000 0000
00000010: 0000 0000 0000 0000 0000 0000 0000 0000
00000020: 0000 0000 0000 0000 0000 0000 0000 0000
00000030: 0000 0000 0000 0000 0000 0000 0000 0000
00000040: 0000 0000 0000 0000 0000 0000 0000 0000
00000050: 0000 0000 0000 0000 0000 0000 0000 0000
00000060: 0000 0000 0000 0000 0000 0000 0000 0000
00000070: 0000 0000 0000 0000 0000 0000 0000 0000
00000080: 0000 0000 0000 0000 0000 0000 0000 0000
00000090: 0000 0000 0000 0000 0000 0000 0000 0000
000000a0: 0000 0000 0000 0000 0000 0000 0000 0000
000000b0: 0000 0000 0000 0000 0000 0000 0000 0000
000000c0: 0000 0000 0000 0000 0000 0000 0000 0000
000000d0: 0000 0000 0000 0000 0000 0000 0000 0000
000000e0: 0000 0000 0000 0000 0000 0000 0000 0000
000000f0: 0000 0000 0000 0000 0000 0000 0000 0000
00000100: 0000 0000 0000 0000 0000 0000 0000 0000
00000110: 0000 0000 0000 0000 0000 0000 0000 0000
00000120: 0000 0000 0000 0000 0000 0000 0000 0000
00000130: 0000 0000 0000 0000 0000 0000 0000 0000
00000140: 0000 0000 0000 0000 0000 0000 0000 0000
00000150: 0000 0000 0000 0000 0000 0000 0000 0000
00000160: 0000 0000 0000 0000 0000 0000 0000 0000
00000170: 0000 0000 0000 0000 0000 0000 0000 0000
00000180: 0000 0000 0000 0000 0000 0000 0000 0000
00000190: 0000 0000 0000 0000 0000 0000 0000 0000
000001a0: 0000 0000 0000 0000 0000 0000 0000 0000
000001b0: 0000 0000 0000 0000 0000 0000 0000 0000
000001c0: 0000 0000 0000 0000 0000 0000 0000 0000
000001d0: 0000 0000 0000 0000 0000 0000 0000 0000
000001e0: 0000 0000 0000 0000 0000 0000 0000 0000
000001f0: 0000 0000 0000 0000 0000 0000 0000 0000
00000200: 0000 0000 0000 0000 0000 0000 0000 0000
00000210: 0000 0000 0000 0000 0000 0000 0000 0000
00000220: 0000 0000 0000 0000 0000 0000 0000 0000
00000230: 0000 0000 0000 0000 0000 0000 0000 0000
00000240: 0000 0000 0000 0000 0000 0000 0000 0000
00000250: 0000 0000 0000 0000 0000 0000 0000 0000
00000260: 0000 0000 0000 0000 0000 0000 0000 0000
00000270: 0000 0000 0000 0000 0000 0000 0000 0000
00000280: 0000 0000 0000 0000 0000 0000 0000 0000
00000290: 0000 0000 0000 0000 0000 0000 0000 0000
000002a0: 0000 0000 0000 0000 0000 0000 0000 0000
000002b0: 0000 0000 0000 0000 0000 0000 0000 0000
000002c0: 0000 0000 0000 0000 0000 0000 0000 0000
000002d0: 0000 0000 0000 0000 0000 0000 0000 0000
000002e0: 0000 0000 0000 0000 0000 0000 0000 0000
000002f0: 0000 0000 0000 0000 0000 0000 0000 0000
00000300: 0000 0000 0000 0000 0000 0000 0000 0000
00000310: 0000 0000 0000 0000 0000 0000 0000 0000
00000320: 0000 0000 0000 0000 0000 0000 0000 0000
00000330: 0000 0000 0000 0000 0000 0000 0000 0000
00000340: 0000 0000 0000 0000 0000 0000 0000 0000
00000350: 0000 0000 0000 0000 0000 0000 0000 0000
00000360: 0000 0000 0000 0000 0000 0000 0000 0000
00000370: 0000 0000 0000 0000 0000 0000 0000 0000
00000380: 0000 0000 0000 0000 0000 0000 0000 0000
00000390: 0000 0000 0000 0000 0000 0000 0000 0000
000003a0: 0000 0000 0000 0000 0000 0000 0000 0000
000003b0: 0000 0000 0000 0000 0000 0000 0000 0000
000003c0: 0000 0000 0000 0000 0000 0000 0000 0000
000003d0: 0000 0000 0000 0000 0000 0000 0000 0000
000003e0: 0000 0000 0000 0000 0000 0000 0000 0000
000003f0: 0000 0000 0000 0000 0000 0000 0000 0000
0.0 0.0 0.0 0.0 0.0 0.0 0.0 0.0
0.0 0.0 0.0 0.0 0.0 0.0 0.0 0.0
0.0 0.0 0.0 0.0 0.0 0.0 0.0 0.0
0.0 0.0 0.0 0.0 0.0 0.0 0.0 0.0
0.0 0.0 0.0 0.0 0.0 0.0 0.0 0.0
0.0 0.0 0.0 0.0 0.0 0.0 0.0 0.0
0.0 0.0 0.0 0.0 0.0 0.0 0.0 0.0
0.0 0.0 0.0 0.0 0.0 0.0 0.0 0.0
0.0 0.0 0.0 0.0 0.0 0.0 0.0 0.0
0.0 0.0 0.0 0.0 0.0 0.0 0.0 0.0
0.0 0.0 0.0 0.0 0.0 0.0 0.0 0.0
0.0 0.0 0.0 0.0 0.0 0.0 0.0 0.0
0.0 0.0 0.0 0.0 0.0 0.0 0.0 0.0
0.0 0.0 0.0 0.0 0.0 0.0 0.0 0.0
0.0 0.0 0.0 0.0 0.0 0.0 0.0 0.0
0.0 0.0 0.0 0.0 0.0 0.0 0.0 0.0
0.0 0.0 0.0 0.0 0.0 0.0 0.0 0.0
0.0 0.0 0.0 0.0 0.0 0.0 0.0 0.0
0.0 0.0 0.0 0.0 0.0 0.0 0.0 0.0
0.0 0.0 0.0 0.0 0.0 0.0 0.0 0.0
0.0 0.0 0.0 0.0 0.0 0.0 0.0 0.0
0.0 0.0 0.0 0.0 0.0 0.0 0.0 0.0
0.0 0.0 0.0 0.0 0.0 0.0 0.0 0.0
0.0 0.0 0.0 0.0 0.0 0.0 0.0 0.0
0.0 0.0 0.0 0.0 0.0 0.0 0.0 0.0
0.0 0.0 0.0 0.0 0.0 0.0 0.0 0.0
0.0 0.0 0.0 0.0 0.0 0.0 0.0 0.0
0.0 0.0 0.0 0.0 0.0 0.0 0.0 0.0
0.0 0.0 0.0 0.0 0.0 0.0 0.0 0.0
0.0 0.0 0.0 0.0 0.0 0.0 0.0 0.0
0.0 0.0 0.0 0.0 0.0 0.0 0.0 0.0
0.0 0.0 0.0 0.0 0.0 0.0 0.0 0.0

momentum_buffer f4 [64]
00000000: 0000 0000 0000 0000 94ba 033c a6c6 233c
00000010: 05a8 ddbb 7e98 783c 0000 0000 1889 b7bb
00000020: 0400 0080 0000 0000 da8d 293c 843d a3ba
00000030: 65e0 45ba 0000 0000 881d b6bc 0000 0000
00000040: 9c53 5e3b 4cdb 1abc 70fe 2c3b d4de 61ba
00000050: c6e8 d4b7 16b9 413a 1a45 3dbc 7320 bc3c
00000060: ed9e 93b9 c0c5 673a 85a5 09bc 0000 0000
00000070: 7e4b 953c 3a60 b3bc b6b4 053a 1fcb 8439
00000080: 4834 a93b 0400 0000 131d 5e37 ae76 c0ba
00000090: 7ad9 2a3c 84f5 0a3b 0400 0000 31a7 00bc
000000a0: 8cac 56bc ceaf 0539 6885 653c dc92 dd3b
000000b0: 9668 fb3b 0400 0080 588d 073d 0c24 3e3c
000000c0: b650 542e 1c2a 5b3c 0400 0000 0400 0080
000000d0: 0089 1eb7 1ad5 6d3c 9d14 a1bc ca13 8f3c
000000e0: aa9a 8c3b c839 053c f492 523c 743e 66bc
000000f0: ea45 63bc 0400 0080 fe8a a63c 28ea 143b
0.0 0.0 0.008040089 0.009996092 -0.0067644143 0.015173076 0.0 -0.0056010596
-6e-45 0.0 0.010348761 -0.0012454246 -0.0007548391 0.0 -0.022230878 0.0
0.0033924347 -0.0094516985 0.0026396774 -0.0008616273 -2.5380763e-05 0.00073899457 -0.01155212 0.022964692
-0.00028156434 0.0008841418 -0.008401279 0.0 0.018224474 -0.02189647 0.00051004754 0.0002532834
0.005163703 6e-45 1.32390005e-05 -0.0014683807 0.010427827 0.0021203468 6e-45 -0.007852362
-0.013102662 0.00012749361 0.014008857 0.006761892 0.0076723797 -6e-45 0.03309378 0.011605274
4.8274905e-11 0.013376739 6e-45 -6e-45 -9.449432e-06 0.014516139 -0.01966315 0.01746549
0.0042908983 0.008131452 0.012852419 -0.014052976 -0.013871649 -6e-45 0.020329949 0.0022722576

momentum_buffer f4 [5, 64]
00000000: 0000 0000 0000 0000 b205 dc3b 685c 393c
00000010: de46 a03b ff25 143d 0000 0000 33b1 2d3c
00000020: 0400 0000 0000 0000 b226 d93c d4b7 f53b
00000030: 0a53 4d38 0000 0000 a49b 873c 0000 0000
00000040: 473f 9fba 96d2 c03b e1cd bb3b badd 1db9
00000050: aa19 9fb5 f785 ae36 fe6d 6e3c 7a2b f33c
00000060: 09ef 4c36 8545 803c d2bc e13b 0000 0000
00000070: cde6 a23b 39ab 893b 847d dd36 98e2 9537
00000080: de74 d43c 0400 0000 2adf ebb4 e011 cb3b
00000090: c2d6 523c 4511 213d 0400 0080 bd08 513c
000000a0: 189f 203c d6d4 9535 76bf 0f3c 62f4 f73b
000000b0: d42c 583c 0400 0000 4eab 0f3d 96c9 013d
000000c0: 89bf 46aa 2f46 823c 0400 0000 0400 0080
000000d0: 824b dc3b 17a9 e73c c990 d23b 3aaf b23c
000000e0: cb58 1d3b 7595 903c f49a ef3b a86a bc3b
000000f0: 50b0 ed3b 0400 0080 2d02 193c 112e fe3b
00000100: 0000 0000 0000 0000 9673 22bc 40ef 8b3b
00000110: b064 ab3a 3021 a7ba 0000 0000 29d9 87bc
00000120: 0400 0000 0000 0000 60c7 253a 0a3e 28bc
00000130: ca8c b6b7 0000 0000 81b8 893b 0000 0000
00000140: 78d6 89ba c893 23bc 90f6 0cbc 9faa 6b39
00000150: de17 4b34 7856 6136 00b4 fab9 806b 12bb
00000160: 21ac 72b6 5843 fbbb b000 133b 0000 0000
00000170: ee5b 363b 60c0 c6bb 1bc5 3e36 f8be 0fb7
00000180: 6068 5cba 0400 0080 c24a 67b4 323d f43a
00000190: 8bf7 d43b 90bb b73a 0400 0080 b85f 613b
000001a0: 0894 62bc eeba ef34 7a1f 5cbc b85c 4a3b
000001b0: ace0 903b 0400 0000 70d6 6d3b 32a4 4b3c
000001c0: d800 9f29 3081 563b 0400 0080 0400 0080
000001d0: e4ab b83a 0035 623b 3c85 1fbc 885a 0b3b
000001e0: c5bb 80bb 30cf 22bc 18c3 31bc b022 edbb
000001f0: e8c6 4fbc 0400 0080 c2f9 7abc 4408 1ebc
00000200: 0000 0000 0000 0000 2064 02ba 58ad f1bb
00000210: 866c c4ba 98ab 60bc 0000 0000 4c2d c13b
00000220: 0400 0000 0000 0000 9e40 23bc b46d 8a3b
00000230: b01a 8b36 0000 0000 4161 8ebb 0000 0000
00000240: e707 453a 9cef 5d3b 582f 2c3b f05b a5b9
00000250: 3089 b633 034f af35 8026 d0bb 1ad3 45bc
00000260: aa0c a2b4 2406 b6bb 9b21 e6ba 0000 0000
00000270: 52e2 58bb 34f8 293b 1bc5 be35 c3ab 8fb6
00000280: 57be 3dbc 0400 0080 10da d834 b317 13bb
00000290: 7bc4 23bc 5a2a 74bc 0400 0000 4852 4abb
000002a0: 840a 913b eeba 6fb4 6efe 883b 8c94 aebb
000002b0: bacf efbb 0400 0000 ba01 87bc bdbc 98bc
000002c0: d800 1f29 fa2c 06bc 0400 0080 0400 0000
000002d0: a333 85bb b822 62bc 28ff 613b eb30 25bc
000002e0: 9871 d33a 8088 99bb e0c3 6b3b c460 1d3b
000002f0: 70f5 833b 0400 0080 282b 403b 289f 4d3b
00000300: 0000 0000 0000 0000 823a b23b 1c52 8bbb
00000310: 3d63 113a c034 3d3a 0000 0000 1d26 933c
00000320: 0400 0080 0000 0000 4049 8638 0cad 383c
00000330: 526c 3537 0000 0000 b094 093b 0000 0000
00000340: 724f b83a 9e87 2e3c 4dc6 103c 7078 3eba
00000350: bd90 0f34 1e62 1a35 2874 49ba f056 7b3a
00000360: 19b4 f235 481d d23a dba6 163a 0000 0000
00000370: cec1 39bb 21b5 ea3b a39e be35 2e8c 7036
00000380: 20ee 3b3a 0400 0080 44d0 9db3 64a4 84ba
00000390: 7689 dabb 0068 263a 0400 0080 1245 0c3b
000003a0: 0058 743c eeba 6fb4 0217 5b3c dcb2 3dbb
000003b0: b6ad 0abb 0400 0000 4141 95bb c048 f0bb
000003c0: d800 1f29 8c60 91bb 0400 0000 0400 0000
000003d0: bebd 44ba 0667 49bb eb27 263c f019 45bb
000003e0: 298d 813b e32e c83b 8693 393c 664d 003c
000003f0: 2c4b 473c 0400 0000 7f2d 463c ae76 2b3c
0.0 0.0 0.006714546 0.011313535 0.0048912605 0.03616905 0.0 0.01060133
6e-45 0.0 0.02650771 0.0074987207 4.8953145e-05 0.0 0.016553707 0.0
-0.0012149595 0.005884479 0.00573133 -0.00015055286 -1.1853892e-06 5.2011997e-06 0.014552591 0.029683817
3.0537506e-06 0.01565815 0.006888964 0.0 0.0049713613 0.0042013195 6.600925e-06 1.78677e-05
0.025934633 6e-45 -4.3934534e-07 0.006197199 0.012868585 0.03932311 -6e-45 0.012758431
0.009803556 1.1163308e-06 0.008773675 0.0075669745 0.013194282 6e-45 0.03507548 0.031686388
-1.7652385e-13 0.015902607 6e-45 -6e-45 0.0067228684 0.02827887 0.006425951 0.02181207
0.0024009224 0.017649392 0.007312173 0.005750019 0.007253684 -6e-45 0.009338898 0.0077569564
0.0 0.0 -0.009915253 0.004270464 0.0013076272 -0.001275098 0.0 -0.016583042
6e-45 0.0 0.00063239597 -0.0102686975 -2.176165e-05 0.0 0.004202903 0.0
-0.0010516187 -0.009983964 -0.008603707 0.00022474908 1.8914531e-07 3.3577944e-06 -0.00047817826 -0.0022341907
-3.6161002e-06 -0.00766794 0.002243083 0.0 0.002782579 -0.0060654134 2.8426937e-06 -8.567928e-06
-0.0008407887 -6e-45 -2.1540748e-07 0.001863396 0.006499236 0.001401769 -6e-45 0.0034389328
-0.013829239 4.4653228e-07 -0.013435239 0.0030878019 0.004421314 6e-45 0.0036291145 0.012429284
7.061165e-14 0.003273081 -6e-45 -6e-45 0.0014089313 0.0034516454 -0.009736355 0.0021263678
-0.003928634 -0.009937093 -0.010849737 -0.007236801 -0.0126817 -6e-45 -0.015318336 -0.009645525
0.0 0.0 -0.0004974026 -0.0073754005 -0.0014985956 -0.013712786 0.0 0.0058952924
6e-45 0.0 -0.009964136 0.0042245034 4.1456296e-06 0.0 -0.0043450897 0.0
0.0007516131 0.0033864742 0.0026273336 -0.0003153975 8.49999e-08 1.3061511e-06 -0.006352246 -0.012074256
-3.0184066e-07 -0.0055549312 -0.0017557623 0.0 -0.0033093882 0.0025935294 1.4213468e-06 -4.281728e-06
-0.011581025 -6e-45 4.0391797e-07 -0.0022444546 -0.009995575 -0.0149026755 6e-45 -0.0030871797
0.0044263024 -2.2326614e-07 0.004180721 -0.0053277668 -0.007318464 6e-45 -0.016480315 -0.018644685
3.5305824e-14 -0.008189434 -6e-45 6e-45 -0.0040649935 -0.013802223 0.003448436 -0.010082464
0.0016131876 -0.0046854615 0.0035974905 0.0024013976 0.004027061 -6e-45 0.0029322598 0.0031375382
0.0 0.0 0.0054391036 -0.0042517316 0.00055460987 0.0007217638 0.0 0.01796251
-6e-45 0.0 6.403262e-05 0.011271726 1.0813661e-05 0.0 0.0020993166 0.0
0.0014061762 0.010652451 0.008836341 -0.00072658714 1.3370568e-07 5.751225e-07 -0.000768485 0.0009587845
1.808282e-06 0.0016030455 0.00057469093 0.0 -0.0028344276 0.0071627055 1.4202272e-06 3.5844382e-06
0.0007168967 -6e-45 -7.3487655e-08 -0.0010119793 -0.0066692187 0.00063478947 -6e-45 0.0021403474
0.014913559 -2.2326614e-07 0.013372185 -0.002894572 -0.0021160669 6e-45 -0.004554898 -0.007332891
3.5305824e-14 -0.004436558 6e-45 6e-45 -0.00075050804 -0.0030731573 0.010141353 -0.0030075274
0.003953595 0.006109105 0.011326676 0.007830953 0.012163918 6e-45 0.012095808 0.010465307

momentum_buffer f4 [5]
00000000: 64ad c23d 7208 87bd 5089 37bc 239d 533d
00000010: 9ae8 cf3d
0.09505728 -0.06593408 -0.011202171 0.05166353 0.10151787

conv1.weight f4 [10, 5, 4]
00000000: 1b9f 1c3e def2 c8bc 6d74 7d3e 2af8 2bbe
00000010: 6701 263c 15d7 d33c 94e6 8c3d 9014 13bd
00000020: 4d6f 4fbe 40a8 a53d 0e01 333d d4d6 a7bd
00000030: 1df6 e63d b841 513e 6d1e ca3d a2e1 61be
00000040: 6d85 5bbe 7ee6 3f3e e85f 253e baa3 cebd
00000050: 498b 9e3e 6a21 fe3d f387 333c b555 8e3e
00000060: baaf a5bb 1261 773d 924d 24be c44d 153e
00000070: 624d 59be 05f5 ac3d 9255 b2ba 5aa0 143e
00000080: 013c b1bd d456 45be b05b 9abd 79e3 47be
00000090: d49d e5bd ea09 33be 4d00 05be 1686 17be
000000a0: bf51 efbd 01d5 7fbd 2d60 473e 585b 6dbe
000000b0: 9e03 4f3e 104c 0c3e 24f4 af3d cd59 15bc
000000c0: 3ea0 66be 2a94 113e a49d 3c3d 0771 953d
000000d0: c2a3 00be f535 d43d 4d19 44bc dba3 61bd
000000e0: 13c9 a43c f7d3 403c a769 493c 32bf d0bd
000000f0: aef2 503e ba94 9d3e c813 4bbe 2d83 3e3d
00000100: 9cac f73d aa50 e63d 2eba cebd 3820 0a3e
00000110: 5b21 a7bd 3503 c2bc 217c f2bc bd3e 9f3a
00000120: 2357 053e 6500 1fbe 2e3c 41be 8f8f 85bd
00000130: ccad c3bd 5c33 003d 887e 28be baa7 413e
00000140: 7db3 8abd fd76 5abe d99d b83c fac3 e63d
00000150: d235 5bbe b6b8 f43d 539f c43d 3d5d 78bd
00000160: 22a9 06be 7b79 313e 5062 3e3e 8c6e 1b3d
00000170: 09aa d6bd f27c c2bd f902 0bbe 2c4d 913d
00000180: 6f4d 563e 1d5e adbd 0521 09be 18a4 4bbd
00000190: 2ab4 d8bd fd1c 363e 0681 553e 5d9b afbd
000001a0: ed8d 263e 02e7 e9bd e92c 023e 4fc1 dc3d
000001b0: 9a2a 9e3d ac52 773d fbc5 933d 4949 9d3c
000001c0: bfcc 16be 45ba 4a3e 67fc ec3c 0e80 dd3b
000001d0: cd4d 543d b3a8 44be f5e0 013e 9103 1b3e
000001e0: 3ad9 783e 546a 24be 6bcb a83e 546b 2c3e
000001f0: 6cc9 8dbd b45c 403e db62 1dbe bd2f 5abc
00000200: bcaf e0bc e3b6 8abc 23af a0bd a71b 08be
00000210: 1f3f 6dbd 4382 febd 8abd b13d b674 dc3d
00000220: 5117 a4bd f1fa 563b 0b5d 0a3e c867 77bd
00000230: 7978 14be f5bb 013e ad9f 453e 7ad9 443e
00000240: 2831 353e 4b5f 34be ca4d 06bd 60a0 14be
00000250: 5f09 c93b 364f 63be 2e8a 2c3e 92fd 383d
00000260: 0529 953d c11c ee3d ce95 1c3e eaad a43c
00000270: 7277 36be ea7d 023e ced6 303e 2ad4 113e
00000280: 7259 5eba 4842 8f3e 17b1 c3bd ff84 59be
00000290: 5573 2c3e ffb8 2cbd bf2b 363e 140b 1b3d
000002a0: ab20 143e bbd0 a33c 52c4 36bc 5f8d 2c3e
000002b0: 2456 ea3d cc58 6dbb 1125 b3bd d770 6cbd
000002c0: 7678 87bd 67ff 403e 674d fb3b a39d e23c
000002d0: 6ff1 91bd cd7c b03d ebd6 1abe 4698 33be
000002e0: adf7 1b3d 939d 2ebe 2ae1 543e ccbf b93c
000002f0: 26ac 043e a11f 593e 9875 153e f84f 1cbe
00000300: 571c d73c 0d99 3bbe 777e 46bc 4bd1 abbd
00000310: 5aa7 213d df7f 58be ca5a 323d 6206 223d
0.15295069 -0.02452987 0.24751444 -0.16793886 0.01013217 0.025859395 0.06879917 -0.03590828
-0.20257302 0.08088732 0.043702178 -0.08195272 0.11277411 0.20435226 0.098690845 -0.22058728
-0.21437617 0.1874027 0.16149867 -0.10089822 0.3096564 0.12408717 0.010957706 0.27799764
-0.0050563486 0.060395308 -0.16045216 0.14580446 -0.21220925 0.08445171 -0.0013605824 0.14514294
-0.08654023 -0.19271404 -0.07537019 -0.19520368 -0.11211744 -0.1748425 -0.12988396 -0.14797243
-0.11685514 -0.062458996 0.19470282 -0.23179376 0.20216224 0.1370089 0.08591488 -0.009115648
-0.22522065 0.14216676 0.046048775 0.07296949 -0.12562469 0.10361854 -0.011968923 -0.055087905
0.02011541 0.011769286 0.012293256 -0.101927176 0.20405075 0.30777532 -0.19831765 0.046511818
0.120934695 0.11245854 -0.10094105 0.13488853 -0.08160659 -0.02368317 -0.029600205 0.0012149435
0.13021521 -0.15527494 -0.18870613 -0.06521522 -0.095546335 0.03129898 -0.16454518 0.18911639
-0.06772516 -0.21334453 0.022536205 0.11267848 -0.2140725 0.11949293 0.09600701 -0.060635794
-0.13150457 0.17331497 0.1859219 0.037947223 -0.104816504 -0.09496488 -0.13575353 0.070947975
0.20927976 -0.08465216 -0.13391502 -0.04971704 -0.105812386 0.17784496 0.2085 -0.08574555
0.16265078 -0.11421014 0.12712444 0.10779058 0.07722969 0.060381576 0.07215496 0.019199984
-0.14726542 0.19797619 0.028928949 0.00675965 0.05183201 -0.19204979 0.1268347 0.15138079
0.24301615 -0.16056186 0.32967696 0.16837817 -0.06923184 0.18785363 -0.15369742 -0.013317046
-0.027427547 -0.01693291 -0.07845905 -0.13291799 -0.057921525 -0.12427189 0.0867873 0.10764448
-0.0801226 0.0032803381 0.13512056 -0.060401708 -0.14499082 0.12669356 0.19299193 0.19223586
0.17694533 -0.17614476 -0.03278903 -0.14514303 0.0061351503 -0.22198185 0.16849586 0.0451637
0.072832145 0.11626578 0.15291521 0.02010246 -0.17819002 0.12743345 0.17269441 0.1424109
-0.00084819563 0.27980256 -0.095552616 -0.2124214 0.1684087 -0.042168614 0.17790125 0.03785236
0.14465587 0.019996991 -0.011155205 0.16850804 0.11442211 -0.0036216257 -0.08747304 -0.0577248
-0.06614773 0.18847428 0.007669139 0.027663058 -0.07126128 0.08617554 -0.15121047 -0.17538556
0.038078 -0.17052297 0.20789018 0.022674464 0.12956294 0.21203472 0.1459564 -0.1526488
0.02625863 -0.18320103 -0.0121151125 -0.08389529 0.03946624 -0.21142529 0.043543614 0.03955687

conv1.bias f4 [10]
00000000: d7bf 553e d050 bc3d 21a0 08bc f15d 613d
00000010: 4265 433e f486 87bd d6ff 3cbe b4d5 433d
00000020: c4ea a83d c762 29bb
0.20873962 0.09195101 -0.008338959 0.05502123 0.19081596 -0.06617537 -0.18456969 0.047811225
0.08247903 -0.002584623

fc0.weight f4 [64, 610]
00000000: 46b1 c4bc 095c 21bc f29b 06bd a020 033c
00000010: 89ac f9bc 9026 56bc f19f cfbc d576 253c
00000020: c4c5 f23c 8a99 fd3b 5b87 0ebd a5bb a53c
00000030: 8bfe 103c ee8a 46bc d8c7 b63b 0d7b 8bbc
00000040: 0341 0dbd abf8 11bd 3b65 2cbc 5a42 24bd
00000050: 59ba 743c a3e2 73bc a259 f0bc 40f3 29bc
00000060: 635d 913c 9129 15bd 6c7c 0c3d 46a1 f7ba
00000070: c3e9 0cbd cc54 183d 54f2 09bd 190b 153d
00000080: ed7a bcba 1777 b2bc dd7e b6bc f252 a23c
00000090: 9786 c9bc 0dd0 f6bc 54f5 1c3d 7246 99b9
000000a0: 9bba 05bd 802e f4bc ccec 213d 62b0 b8bc
000000b0: a9c4 0c3d cbb4 f13c 432f 46bc f3f7 d73c
000000c0: 8eb2 09bd a4f1 2f3a 899d 8c3c 6116 a63b
000000d0: 639d 133d 0a41 96bc f263 623c 9a0c 733c
000000e0: 6dbb 81bc 857b a83b 23be 93bc ff85 9639
000000f0: 6fa0 f43a b907 30bc 6b16 183c ea9a e4bc
00000100: d045 aa3a 8cd2 683c d43c 10bd c670 a53c
00000110: 13c5 95bc 122b 67bc 4c14 1ebd 57e0 ddba
00000120: 806d 26bd 2a52 e03c 8308 fc3b 5073 df3c
00000130: 2730 1abc 289f 96bb 16cf 893c 6dff 1cbd
00000140: b7de 22bd 488a 303c 5098 0d3d 459e 0b3c
00000150: 0616 d0bb 0f04 23bd 9908 093d 26ec 9abc
00000160: fc0d b13c 6f55 683b 4eb5 963c 831e 1d3a
00000170: 16f6 133b 5ad0 60bc a493 0ebd b8c5 7e3c
00000180: 31be c13c eb33 7ebb 129a c2bc 160b dcbc
00000190: cbfa a33b 7ce1 f2bc 8255 fc39 e85e 49bc
000001a0: af2f d03a 844f 1cbd f729 acbc 531a a6bb
000001b0: 7dcc 163c 3a83 11bd 06de 53bc 79fb ddbc
000001c0: c7a9 5b3b 8ca2 ecbc 047d 97ba e40b e6bc
000001d0: 1cfc 51bc 760a 9cbc 580f dd3c 8400 02bc
000001e0: fc9d 0dbd 1406 be39 3db4 e13c c5b6 cb3c
000001f0: 7b3d be3b 87c1 1cbd 9d4c 4fbc 6207 d1bb
00000200: ce4d fa3c c459 013d d080 d2bc 7cb5 173c
00000210: e4c7 82bb c8bc 263a 4119 1e3d 3c2c ac3b
00000220: 94c5 e33c 045e 1f3d 1092 883b 866b 1abc
00000230: a9c1 d9bc 1b79 03bd 0f23 b13b 0d0d c43a
00000240: cbae 893c 98ab ecbc ae62 e33c d921 34bc
00000250: 04b8 a5bc 647a debb 9a73 273c a957 7e3c
00000260: cb01 92bc 313c fabc 36bc bbbc b7f4 01bd
00000270: c10a 5b3c cd2b 9bbc 5772 1ebd d8d0 7dba
00000280: 43c8 cbbc 68aa ea3c a4db 8b3c 7488 233d
00000290: 0a8a 34bb 732e 5b3c e9c4 da3c 49d2 a13b
000002a0: cf7e c3bc c9a6 01bd d203 d9bc 91ab febc
000002b0: 67d2 95bc 776d 113d 6030 073d 57d4 483c
000002c0: 7b67 e83b c0c5 b2bc 0be5 8d3b f561 34bc
000002d0: 4df7 edbc c9e4 4ebb 03d4 13bd df47 c4bc
000002e0: ae11 773c d005 a3bc ac5b 0abd 9cf7 f9bc
000002f0: 6bd2 f1bb f103 fcbc 797c ab3c d629 c8bc
00000300: baf1 c93b dbdd fc3b 59b3 d83c d25b b8bb
00000310: a1e6 4cbc e1e4 193d 6e0c eebc 5719 183c
00000320: fa5c 14bd 8201 e8bc 1a90 b8bc 5610 9fbc
00000330: 75b5 163a 57a8 d03c 950c 173d 53ab 49bc
00000340: ebfe 02bd 8706 3dbc 35b6 263a b0ea 95bc
00000350: 0f71 5f3c 54e0 c1bb 51ca fabb 2c21 033c
00000360: 781f 223d e71c c6bc c75a 173d 609d e43c
00000370: 79ca c0bc de75 1638 a759 7b3c ee09 abbb
00000380: f2e3 8abc 72af c4bc 7bbd 063c fad9 113a
00000390: 66a4 003c 9eb1 163c be55 d03b 5e37 f2bc
000003a0: 78d7 95bc 978a 06bd 3a6b fe3c b241 8b3c
000003b0: 3f84 54bc 78c4 c23b 7fca 05bd 1fa6 233d
000003c0: 3e31 fe3b 5c70 bbbc ab39 eabc ca1c 25bc
000003d0: 0150 da3c a47f 1fbd 6cea eb3c 53eb b9bb
000003e0: 005d a2bc 1b68 c93c ae62 e0bc 8503 01bd
000003f0: ba47 0b3c edda adbc 8846 b43c 7adb 29bc
-0.024010312 -0.009848603 -0.032863565 0.008003384 -0.030477779 -0.013070717 -0.02534482 0.010099133
0.029635318 0.0077392505 -0.034797054 0.020231077 0.00884975 -0.012118084 0.0055780225 -0.017026449
-0.034485828 -0.03563754 -0.010522182 -0.04010234 0.014937007 -0.014885577 -0.029339615 -0.010372937
0.017744726 -0.036416594 0.034298345 -0.0018892668 -0.03440262 0.037190244 -0.033678368 0.036387537
-0.0014379896 -0.021785302 -0.02227729 0.019814942 -0.02460031 -0.030128503 0.0383199 -0.0002923492
-0.032648664 -0.02980733 0.039532468 -0.022545043 0.034367237 0.029505154 -0.012096229 0.026363349
-0.03361755 0.00067117275 0.017164962 0.0050685857 0.036038768 -0.01834156 0.013817774 0.014834547
-0.015836442 0.005141678 -0.018035 0.00028710064 0.0018663536 -0.010744029 0.009282689 -0.0279059
0.0012990776 0.014210355 -0.03521426 0.020195376 -0.018282449 -0.01410939 -0.038593575 -0.001692782
-0.04063177 0.027382929 0.0076914444 0.027276665 -0.0094108945 -0.0045966096 0.01682238 -0.03832953
-0.03976318 0.010775156 0.034569085 0.008521621 -0.0063502816 -0.039798792 0.033455465 -0.018911432
0.021613114 0.0035451313 0.018397 0.00059936213 0.0022577099 -0.01372155 -0.03480877 0.0155500695
0.02365026 -0.003878827 -0.023755107 -0.026860755 0.005004262 -0.029648535 0.00048128894 -0.012290694
0.0015883351 -0.03816177 -0.021016104 -0.005069056 0.009204027 -0.035525538 -0.0129313525 -0.02709745
0.0033517943 -0.028886102 -0.0011557643 -0.028081842 -0.012816455 -0.019047957 0.026984856 -0.007934693
-0.034574494 0.00036244153 0.027551765 0.024867425 0.005805669 -0.0382705 -0.012652543 -0.006379054
0.030554678 0.031579748 -0.025696188 0.009259578 -0.003991114 0.0006360528 0.038598303 0.0052542966
0.027804174 0.03890802 0.0041678026 -0.00942505 -0.026581602 -0.032097917 0.0054057906 0.0014957503
0.01680698 -0.028890416 0.027757015 -0.010994398 -0.020229347 -0.0067894924 0.010220433 0.0155238295
-0.01782312 -0.03054628 -0.022916894 -0.03172752 0.013369263 -0.018941784 -0.03868326 -0.0009682304
-0.024875766 0.02864571 0.017072506 0.039925054 -0.0027548098 0.013377774 0.026705222 0.004938398
-0.023864178 -0.0316532 -0.02649108 -0.031087669 -0.018288804 0.035504784 0.03300512 0.012257657
0.007092414 -0.02182281 0.0043302826 -0.011009683 -0.029048586 -0.0031569472 -0.036090862 -0.023960052
0.015079899 -0.019900233 -0.03377883 -0.030513577 -0.00737982 -0.030763598 0.020933377 -0.024434011
0.0061628493 0.007716877 0.026452707 -0.00562618 -0.012506158 0.03757179 -0.029058661 0.009283385
-0.03622148 -0.028321031 -0.02252965 -0.01941697 0.0005749085 0.025470896 0.036877234 -0.012308913
-0.03198139 -0.011537201 0.00063595484 -0.018300384 0.013637795 -0.0059166346 -0.0076535125 0.008003514
0.039580792 -0.024183704 0.036951806 0.027907073 -0.023534046 3.587256e-05 0.015341199 -0.0052196896
-0.016954396 -0.02400944 0.008223887 0.0005563792 0.007851696 0.009197621 0.0063578775 -0.029567417
-0.01829122 -0.032847013 0.031056989 0.0169991 -0.012970983 0.005943831 -0.03266382 0.039953347
0.007757335 -0.022880726 -0.028591951 -0.010077665 0.026649477 -0.038940087 0.028798304 -0.005673805
-0.019819736 0.024585774 -0.027390804 -0.031497497 0.008500988 -0.021222556 0.022006288 -0.010367269

fc0.bias f4 [64]
00000000: 26ae 613c 3ce8 d63c e8d3 123d 0a18 a43c
00000010: 486a d33c 4fb4 7c3c b7be 033d 0f14 63bc
00000020: 35c0 cbbc 1494 423c 09b2 26bc c226 04bc
00000030: 94be 29bd e219 8a3c 39cf 073d 552d 5c3c
00000040: 3c6b 7abc 246a cabc 66cc 113d 9b2d 033d
00000050: bf98 da3c 5685 ad3c 4366 1abd 34f4 873b
00000060: 32fa 29bc e2fa a4bc 6933 b1bc 2de6 8c3c
00000070: 2da7 6bbc 3aa9 d8bb 15d7 3f3c c4e3 413c
00000080: fa50 20bc fd57 00bb 1aa8 3d3c bbfa 58bc
00000090: 7ec2 16bd c932 2cbd 869c 71bc 5f9e bc3c
000000a0: d9ab 213d 0103 4f3b ea80 f6bc 26ec fa3c
000000b0: dca9 1bbd 129b e23c 575e 17bd 064a de3b
000000c0: 6bf5 003c f8d3 7c3c 0e5d 7dbc 2bdb c7bc
000000d0: 611b e23b 2d80 363c 2e68 fcbc 3f7b f13c
000000e0: 7be3 24bd 1900 893c 8da2 afbb 64d4 1abd
000000f0: 4fb6 cc3c 17d0 bfbc fb2e 04bd 486b a4bc
0.01377443 0.026233785 0.03584662 0.020030994 0.025807515 0.015423848 0.0321643 -0.013859763
-0.024871925 0.011876125 -0.010174283 -0.008065881 -0.041441515 0.016858045 0.033156607 0.013438542
-0.015284356 -0.024708815 0.03559532 0.032025915 0.026684163 0.021181744 -0.03769518 0.0041489843
-0.010374593 -0.020139161 -0.02163096 0.0171996 -0.0143831195 -0.0066119703 0.011708994 0.011834089
-0.009784931 -0.0019583695 0.011575723 -0.013243373 -0.036806576 -0.04204062 -0.014746791 0.023024736
0.039470527 0.0031587484 -0.030090768 0.030630182 -0.038003787 0.027661834 -0.036955204 0.0067837266
0.007871012 0.015431397 -0.0154640805 -0.0243965 0.0069002365 0.011138958 -0.030811395 0.029477714
-0.040256005 0.01672368 -0.0053599537 -0.037800208 0.024989275 -0.023414655 -0.032271367 -0.020070687
