tb_logs/ConvNet_1_0_3/version_0/checkpoints/epoch=0.ckpt (torch_old, 531884 bytes, 24 tensors)

momentum_buffer f4 [10, 5, 4]
0.00020773111 -2.4177421e-05 -7.9585116e-05 -2.891714e-05 0.000102629 -1.2381443e-05 -2.8784063e-05 -3.0082898e-05
4.5155088e-05 -1.892425e-05 -1.3581174e-05 -1.0053013e-05 1.809314e-05 -1.892425e-05 -2.2269876e-05 -1.0554101e-05
-1.8685705e-05 -1.892425e-05 -1.8924273e-05 -1.892425e-05 1.3966894e-06 -2.3263358e-06 3.988827e-05 -9.437433e-06
-4.4829994e-06 -2.415514e-06 3.99444e-05 -7.920291e-06 9.669285e-06 -2.4936646e-06 4.0003666e-05 -6.673269e-06
9.952562e-06 -1.0841875e-06 2.5048077e-05 1.4282546e-06 -3.3403293e-07 -1.0841901e-06 -1.8442387e-07 -1.0841901e-06
1.5092542e-05 5.0296087e-05 2.8577577e-05 2.9531515e-07 -6.231098e-06 5.0778937e-05 3.3838613e-05 -5.192886e-06
-6.018122e-06 1.0070711e-05 3.706901e-05 -5.2451273e-06 -6.0824286e-06 9.2458795e-06 -5.1752913e-06 -5.192986e-06
-6.1016676e-06 -6.3257053e-06 -5.1875195e-06 -5.3975446e-06 0.00031444934 -7.71775e-05 9.547047e-05 -4.6768713e-05
4.7872123e-05 -2.3977436e-05 -1.0532492e-05 1.045866e-05 5.7831825e-05 -1.3198209e-05 -1.2389109e-05 -1.3726562e-05
-1.1924292e-05 -1.0562555e-05 -1.2691358e-05 -1.1166467e-05 -9.339133e-06 -1.0560004e-05 -1.0559994e-05 -1.0560004e-05
1.7890903e-05 9.0265285e-06 3.1362856e-06 -5.237201e-06 9.0265285e-06 9.0265285e-06 2.8467716e-06 -1.3343813e-05
9.0265285e-06 9.0265285e-06 2.2651045e-06 7.5508888e-06 9.0265285e-06 9.0265285e-06 2.1933731e-06 3.1655995e-06
9.0265285e-06 9.0265285e-06 9.0265285e-06 8.782297e-06 7.388603e-05 6.394888e-05 7.068941e-05 3.5214838e-05
7.332421e-05 4.0739345e-05 6.656192e-05 1.6251663e-05 1.4027517e-05 4.216029e-05 -5.8230903e-06 4.1341398e-05
-2.5119183e-05 1.4504624e-05 -2.0439657e-05 -8.784302e-06 -1.3953111e-05 -1.3658029e-05 -1.4319296e-05 -1.4599492e-05
4.8927654e-05 -2.523971e-05 1.8310799e-05 -7.0879337e-06 -9.1787854e-07 -8.791136e-06 1.9477482e-05 -8.794065e-06
-5.003452e-06 -8.791157e-06 1.9727346e-05 -8.794065e-06 -6.8692616e-06 -8.790531e-06 1.9368686e-05 -8.794065e-06
-8.794065e-06 -8.790378e-06 -8.794065e-06 -8.794065e-06 0.00045830407 0.00026275922 0.00016674024 0.00024776955
0.00011126484 6.439416e-05 -8.565767e-06 -2.8884777e-05 -5.6275323e-05 -2.8188206e-05 -2.1318325e-05 -1.5567495e-05
-2.0903391e-05 -2.0753514e-05 -4.897832e-05 -1.30940925e-05 -2.3187687e-05 -2.303814e-05 -2.3376706e-05 -2.4258245e-05
0.00033057152 9.3742415e-07 0.00016716172 0.00015314494 -9.1992784e-05 -6.70588e-05 7.991881e-06 -6.829602e-06
-2.100272e-06 -4.572826e-05 8.010252e-06 -1.3661561e-06 6.083175e-06 -1.487063e-05 4.1151966e-06 2.2750646e-07
4.6248e-07 1.8376008e-06 1.835029e-06 6.0421274e-07 -2.2550441e-05 0.00012025913 -1.037847e-05 3.493357e-05
-1.529284e-05 0.000152129 -5.851387e-06 4.2869506e-06 -1.135085e-06 6.096132e-05 -5.9421145e-06 1.3446554e-06
-3.6524698e-06 2.5020913e-06 -4.159721e-06 -4.159727e-06 -3.6028234e-06 -2.5032316e-06 -4.159727e-06 -4.159727e-06
00000000: 65d2 5939 9ed0 cab7 efe6 a6b8 1693 f2b7
00000010: 863a d738 e5b9 4fb7 4e75 f1b7 885a fcb7
00000020: e864 3d38 84bf 9eb7 b3da 63b7 5da9 28b7
00000030: b9c6 9737 84bf 9eb7 32d0 bab7 8511 31b7
00000040: 3fbf 9cb7 84bf 9eb7 91bf 9eb7 84bf 9eb7
00000050: e275 bb35 251e 1cb6 b44d 2738 7755 1eb7
00000060: ac6c 96b6 371a 22b6 f989 2738 64e1 04b7
00000070: 4339 2237 d558 27b6 9cc9 2738 f2ea dfb6
00000080: eef9 2637 6684 91b5 561e d237 74b2 bf35
00000090: 2355 b3b4 7d84 91b5 0c06 46b4 7d84 91b5
000000a0: f935 7d37 03f5 5238 e1b9 ef37 ce8b 9e34
000000b0: b914 d1b6 78fb 5438 efed 0d38 8d3e aeb6
000000c0: 46ef c9b6 60f5 2837 8c7a 1b38 4dff afb6
000000d0: aa17 ccb6 c01e 1b37 6aa7 adb6 693f aeb6
000000e0: edbc ccb6 6541 d4b6 7410 aeb6 8e1c b5b6
000000f0: addc a439 5bda a1b8 5137 c838 8629 44b8
00000100: 4dca 4838 2723 c9b7 b5b4 30b7 9a77 2f37
00000110: 7390 7238 e06d 5db7 d1da 4fb7 234b 66b7
00000120: 720e 48b7 d435 31b7 f8ec 54b7 9c57 3bb7
00000130: 45af 1cb7 df2a 31b7 d42a 31b7 df2a 31b7
00000140: 6c14 9637 a570 1737 fa78 5236 37bb afb6
00000150: a570 1737 a570 1737 2a0b 3f36 3edf 5fb7
00000160: a570 1737 a570 1737 3302 1836 a45d fd36
00000170: a570 1737 a570 1737 dd31 1336 9670 5436
00000180: a570 1737 a570 1737 a570 1737 ae57 1337
00000190: 43f3 9a38 4b1c 8638 173f 9438 a5b3 1338
000001a0: a3c5 9938 8adf 2a38 2997 8b38 2e54 8837
000001b0: ba57 6b37 44d5 3038 f763 c3b6 fd65 2d38
000001c0: 09b7 d2b7 e358 7337 d475 abb7 4a60 13b7
000001d0: 2818 6ab7 ca24 65b7 e83c 70b7 57f0 74b7
000001e0: ab37 4d38 ddb9 d3b7 249a 9937 e3d4 edb6
000001f0: 2264 76b5 a47d 13b7 9363 a337 398a 13b7
00000200: 53e3 a7b6 bb7d 13b7 277c a537 398a 13b7
00000210: 827e e6b6 0b7b 13b7 f079 a237 398a 13b7
00000220: 398a 13b7 637a 13b7 398a 13b7 398a 13b7
00000230: 8848 f039 f2c2 8939 fed6 2e39 11e7 8139
00000240: db56 e938 5a0b 8738 b0b5 0fb7 964d f2b7
00000250: 2b09 6cb8 b675 ecb7 c1d4 b2b7 f196 82b7
00000260: b159 afb7 d517 aeb7 126e 4db8 b3ae 5bb7
00000270: 2e83 c2b7 0742 c1b7 1819 c4b7 2f7e cbb7
00000280: 8f50 ad39 4ca3 7b35 2248 2f39 8895 2039
00000290: 40ec c0b8 eba1 8cb8 de14 0637 d629 e5b6
000002a0: 66f2 0cb6 58cc 3fb8 c563 0637 c45c b7b5
000002b0: 131e cc36 df7c 79b7 4515 8a36 8048 7434
000002c0: c44a f834 7ca3 f635 1e4b f635 2f31 2235
000002d0: b42a bdb7 a133 fc38 301f 2eb7 a385 1238
000002e0: 2049 80b7 d184 1f39 0857 c4b6 a0d8 8f36
000002f0: 3959 98b5 b8b0 7f38 6062 c7b6 027a b435
00000300: f41c 75b6 9ae9 2736 bb93 8bb6 c893 8bb6
00000310: 09c8 71b6 31fd 27b6 c893 8bb6 c893 8bb6

momentum_buffer f4 [10]
7.512551e-05 4.304018e-06 2.1427186e-05 4.1921125e-05 -3.5833527e-05 5.5210345e-05 3.491071e-05 9.630048e-05
-7.2948906e-06 1.6513288e-05
00000000: b38c 9d38 3c6b 9036 88be b337 77d4 2f38
00000010: f54b 16b8 a891 6738 176d 1238 edf4 c938
00000020: a2c6 f4b6 0486 8a37

momentum_buffer f4 [64, 290]
3.26049e-06 3.04286e-06 -4.449145e-06 1.4499354e-06 -2.667666e-06 4.6771347e-06 -6.1958156e-07 -4.791633e-07
8.436111e-06 6.2411414e-06 -5.836356e-06 -2.7179127e-07 3.3661959e-06 6.563873e-06 9.686839e-07 2.7343604e-06
7.112919e-06 9.376759e-06 -1.5473311e-06 -4.7064202e-07 -4.5441936e-07 -1.2287794e-06 1.4077362e-06 1.6840994e-06
4.9150262e-06 1.5873018e-06 -6.2687686e-06 2.6706211e-06 9.0824045e-07 -1.66278e-07 -1.09962606e-07 -1.304496e-07
-2.891555e-07 1.2510619e-06 2.9551193e-06 -3.1123406e-07 4.264791e-06 1.8808598e-07 1.3118673e-06 6.2473055e-07
2.2266934e-06 -3.765037e-08 3.9119573e-06 2.0917469e-07 4.5389374e-06 -2.0668124e-07 9.678392e-07 -1.17790165e-07
7.406218e-07 -9.940896e-10 3.6337377e-07 6.5083825e-08 -3.9988913e-07 -1.6013527e-07 -1.4748407e-07 -2.5147736e-07
-5.9610625e-07 3.311392e-08 1.9909614e-06 -1.1754872e-06 -1.5744664e-07 -5.665461e-08 2.3391817e-06 -1.488409e-06
-1.0526328e-06 3.4768539e-06 2.9746566e-06 -9.0130584e-07 -9.315684e-08 2.886458e-06 7.2090467e-07 5.6974596e-07
6.1505e-07 1.921066e-06 3.7385112e-06 -3.860564e-08 -5.6751887e-08 1.6106286e-07 1.4316541e-07 4.3899408e-07
1.0571047e-07 1.8266011e-06 -6.473623e-07 -4.921428e-07 -2.9104527e-07 2.1065862e-06 2.7139113e-06 -2.6852724e-06
5.444784e-06 -4.0444456e-06 1.5630166e-06 -3.9706288e-06 2.254486e-06 -1.7341416e-06 -6.8727513e-06 1.5003312e-06
-2.2959546e-06 -6.8566387e-06 -7.789006e-06 -3.6528902e-06 2.8165844e-06 -2.9429154e-06 -5.338675e-06 -9.137615e-07
4.258882e-06 -3.3974957e-06 -3.505938e-06 -4.913959e-06 -5.1387747e-06 -4.0626455e-06 -3.2027772e-06 -4.288229e-06
3.0177662e-07 -7.921959e-06 -5.730538e-06 -5.9439717e-06 -6.218928e-07 -9.3412643e-07 3.0238078e-07 -1.821531e-06
5.614001e-07 2.6829282e-06 -1.2421918e-06 -1.854778e-06 -1.2513956e-06 2.966447e-07 1.980389e-06 -6.9608456e-07
2.1220796e-07 9.022951e-07 -2.3533617e-07 -1.5590806e-06 -7.436057e-07 -5.6088464e-07 1.6077278e-06 5.1958267e-07
-3.0375082e-07 1.143417e-06 -2.0295765e-06 -2.3656419e-06 1.05509965e-08 1.8019468e-07 2.112044e-06 -3.8765307e-07
-2.8177487e-07 2.6565746e-07 6.086926e-06 1.1537733e-06 2.9825414e-06 -7.0269625e-06 6.560167e-06 1.0740233e-06
-1.6458763e-06 1.7585153e-06 8.5606223e-07 9.216206e-06 4.115259e-06 2.7408146e-06 1.1560828e-05 7.5429916e-06
3.7616933e-06 3.5665767e-06 4.518413e-06 1.3318501e-07 1.801115e-06 7.613908e-07 2.494802e-06 4.1105623e-06
4.651421e-06 -2.2966337e-07 8.018787e-06 2.706874e-06 5.6867048e-06 8.8784077e-07 -2.804721e-06 -1.8824556e-06
-1.3639931e-06 -1.7923701e-06 -2.461854e-06 -2.7088793e-06 -2.3597988e-06 -7.9137095e-07 -2.0432722e-06 -2.3846684e-07
-1.3574206e-06 -2.3813898e-06 -3.1541656e-06 -3.0715812e-06 -3.4810853e-06 -2.2022934e-06 -3.047e-06 -1.5576809e-06
-9.159208e-07 -1.1583597e-06 -1.9628146e-06 -2.0509633e-06 -2.1623289e-06 -1.1172956e-06 -1.4211844e-06 -1.0010061e-06
-9.955509e-07 -2.3032871e-06 -2.695454e-06 1.5859381e-05 8.128083e-06 5.382285e-07 4.3733653e-06 8.230436e-06
5.647144e-06 -3.1775237e-06 6.902858e-06 9.237956e-06 -4.6821574e-06 -8.979398e-06 1.6972101e-06 8.1678545e-06
9.084163e-06 2.1199405e-06 4.2989e-06 1.168543e-05 1.8262652e-06 -6.542895e-06 -4.34348e-06 -2.871525e-06
-9.975746e-07 -2.4549124e-06 -2.3970287e-07 4.1874277e-06 -3.85958e-06 -1.0506279e-05 -9.757374e-07 2.1707845e-06
-3.6792903e-06 -1.1551841e-06 -8.155681e-06 3.7044058e-06 -6.105517e-06 -1.1825298e-07 -4.430244e-06 4.707776e-07
-9.3604484e-07 -4.268793e-06 -4.2221855e-06 -4.2700362e-06 -8.3843015e-06 -7.2947237e-06 -3.6804781e-06 -3.341773e-06
-4.112121e-06 -6.0713505e-06 -1.0026575e-05 -2.8882814e-06 -7.331765e-06 -3.4009183e-06 -7.758169e-06 -5.229521e-06
00000000: cbce 5a36 f033 4c36 dd49 95b6 679b c235
00000010: 2706 33b6 48f0 9c36 5251 26b5 da9f 00b5
00000020: d288 0d37 ff6a d136 ebd5 c3b6 b5ea 91b4
00000030: cee6 6136 3d3f dc36 ba03 8235 f47f 3736
00000040: 82ab ee36 e050 1d37 e4ad cfb5 8cac fcb4
00000050: ecf6 f3b4 8aec a4b5 73f1 bc35 3709 e235
00000060: c1eb a436 460b d535 5058 d2b6 ec38 3336
00000070: cfcd 7335 268a 32b4 9524 ecb3 b711 0cb4
00000080: 3b3d 9bb4 29ea a735 9050 4636 af17 a7b4
00000090: 471a 8f36 aef4 4934 6b13 b035 28b3 2735
000000a0: 4d6e 1536 05b5 21b3 7543 8336 8099 6034
000000b0: 2d4d 9836 1bec 5db4 b4e6 8135 d4f3 fcb3
000000c0: 24cf 4635 6ba0 88b0 b615 c334 36c4 8b33
000000d0: 58b0 d6b4 a6f1 2bb4 1d5c 1eb4 c902 87b4
000000e0: 1c04 20b5 2439 0e33 759c 0536 6fc5 9db5
000000f0: 9a0e 29b4 6754 73b3 d6fa 1c36 58c5 c7b5
00000100: 3048 8db5 e553 6936 36a0 4736 44f1 71b5
00000110: 840d c8b3 f9b4 4136 3184 4135 a5f0 1835
00000120: ea19 2535 aaeb 0036 22e3 7a36 5acf 25b3
00000130: 5cbf 73b3 9ff0 2c34 02b9 1934 e3ae eb34
00000140: f202 e333 8929 f535 66c6 2db5 cc1b 04b5
00000150: f540 9cb4 e05e 0d36 a420 3636 a134 34b6
00000160: 57b2 b636 86b5 87b6 d7c8 d135 713b 85b6
00000170: c64b 1736 a7c0 e8b5 7c9c e6b6 fd5e c935
00000180: 3314 1ab6 1412 e6b6 87ad 02b7 2d24 75b6
00000190: 8d04 3d36 e77e 45b6 de22 b3b6 3649 75b5
000001a0: 85e7 8e36 8800 64b6 8e47 6bb6 96e2 a4b6
000001b0: bd6d acb6 dc51 88b6 4bef 56b6 9be3 8fb6
000001c0: dd03 a234 8ee8 04b7 f248 c0b6 5472 c7b6
000001d0: 26f0 26b5 aec0 7ab5 e656 a234 547b f4b5
000001e0: 1fb3 1635 5b0c 3436 63b9 a6b5 b0f1 f8b5
000001f0: a0f5 a7b5 8a42 9f34 d3e6 0436 91da 3ab5
00000200: 48db 6334 3f35 7235 b7b0 7cb4 9a41 d1b5
00000210: 329c 47b5 b38f 16b5 1bc9 d735 7379 0b35
00000220: 3213 a3b4 8277 9935 dc33 08b6 6bc1 1eb6
00000230: c643 3532 897b 4134 a4bc 0d36 a21e d0b4
00000240: d846 97b4 af9f 8e34 4c3e cc36 59db 9a35
00000250: ac27 4836 26c9 ebb6 681f dc36 2927 9035
00000260: e1e7 dcb5 2006 ec35 26cc 6535 4e9f 1a37
00000270: ce15 8a36 d6ee 3736 61f5 4137 ce19 fd36
00000280: 6671 7c36 5259 6f36 df9c 9736 9e01 0f34
00000290: d7bd f135 6162 4c35 5f6c 2736 76ed 8936
000002a0: 6713 9c36 6399 76b4 6e88 0637 bea7 3536
000002b0: 6cd0 be36 f453 6e35 bd38 3cb6 afa8 fcb5
000002c0: 7212 b7b5 5e91 f0b5 5436 25b6 31ca 35b6
000002d0: 095d 1eb6 996e 54b5 261f 09b6 a206 80b4
000002e0: 9e30 b6b5 f7cf 1fb6 27ac 53b6 5d21 4eb6
000002f0: 979c 69b6 1dcb 13b6 107b 4cb6 8211 d1b5
00000300: 99dd 75b5 f078 9bb5 e6b8 03b6 48a3 09b6
00000310: 871c 11b6 fcf5 95b5 86bf beb5 4f5a 86b5
00000320: de9e 85b5 2c92 1ab6 8ce3 34b6 c309 8537
00000330: da5d 0837 c87a 1035 ecbe 9236 7415 0a37
00000340: 997c bd36 713d 55b6 199f e736 b8fc 1a37
00000350: 6d1b 9db6 39a6 16b7 b2cb e335 ab08 0937
00000360: 2f68 1837 4d44 0e36 453f 9036 8a0c 4437
00000370: ff1d f535 0a8b dbb6 36be 91b6 6db4 40b6
00000380: 67e4 85b5 13bf 24b6 83b0 80b4 bb81 8c36
00000390: 8a81 81b6 2044 30b7 15f6 82b5 cbad 1136
000003a0: bae9 76b6 d30b 9bb5 62d4 08b7 3599 7836
000003b0: fedd ccb6 43f2 fdb3 82a7 94b6 2ebf fc34
000003c0: 8344 7bb5 a73c 8fb6 4cac 8db6 5547 8fb6
000003d0: 4daa 0cb7 33c5 f4b6 22fe 76b6 3943 60b6
000003e0: dafa 89b6 81b8 cbb6 d037 28b7 4cd4 41b6
000003f0: 6203 f6b6 553b 64b6 1529 02b7 3e79 afb6

momentum_buffer f4 [64]
-7.2966013e-06 8.5455713e-07 4.2892312e-05 4.008142e-05 1.06726775e-05 8.610818e-05 1.7921959e-06 -2.7639564e-05
2.036538e-05 -1.0664374e-05 -3.733283e-05 -1.9246534e-05 -1.0141929e-05 1.0577496e-05 5.768765e-05 6.8553654e-06
1.8091525e-05 -8.2025745e-06 -3.4139626e-05 -5.129512e-05 4.6290294e-05 1.35205755e-05 2.074179e-05 6.705366e-06
-1.0210248e-05 2.4083089e-05 -6.808851e-06 -1.554365e-05 4.9172348e-05 -4.615135e-06 3.9107224e-05 -8.854311e-06
2.3844765e-05 6.0232753e-05 3.8482438e-05 3.2243472e-06 1.672508e-05 2.0760779e-05 2.0095631e-05 2.9521187e-05
2.8583183e-05 4.6554887e-05 -2.1138364e-06 6.572116e-05 4.9167167e-05 1.9890986e-05 4.705582e-05 -7.756532e-06
-5.1803554e-06 1.2280367e-05 -9.777266e-06 1.4622256e-05 7.801142e-06 2.5084786e-05 3.4168083e-06 8.432669e-06
-1.1947868e-05 3.8288716e-05 5.76507e-05 2.7356988e-05 -4.120439e-06 2.719694e-05 1.5271517e-05 0.0
00000000: 54d5 f4b6 b864 6535 45e7 3338 191d 2838
00000010: cd0e 3337 fa94 b438 628b f035 83db e7b7
00000020: 52d6 aa37 23eb 32b7 d295 1cb8 9e73 a1b7
00000030: 4127 2ab7 0076 3137 a4f5 7138 2407 e636
00000040: 41c3 9737 ca9d 09b7 2531 0fb8 b725 57b8
00000050: d327 4238 6ed6 6237 a8fe ad37 a8fe e036
00000060: ae4c 2bb7 0a06 ca37 9677 e4b6 bc63 82b7
00000070: 683e 4e38 b5db 9ab6 1007 2438 fa8c 14b7
00000080: 3e06 c837 6da2 7c38 3468 2138 dd61 5836
00000090: d64c 8c37 6f27 ae37 0a93 a837 44a4 f737
000000a0: ebc5 ef37 ee43 4338 6fdb 0db6 c7d3 8938
000000b0: d838 4e38 91db a637 cd5d 4538 0d22 02b7
000000c0: ead2 adb6 c607 4e37 0a09 24b7 1c52 7537
000000d0: a6e1 0237 2b6d d237 524c 6536 0a7a 0d37
000000e0: b473 48b7 3298 2038 f8cd 7138 af7c e537
000000f0: 4d42 8ab6 fc24 e437 551b 8037 0000 0000

momentum_buffer f4 [10, 1, 4]
0.00012993893 3.6177684e-05 3.67401e-05 -6.990341e-07 -2.9103738e-05 -7.350379e-05 -7.37013e-05 -4.7886544e-05
6.628634e-05 0.00018382452 -3.0999054e-05 4.494819e-05 2.0816868e-05 7.992852e-05 9.989056e-05 1.43933285e-05
0.0001064864 0.00011100842 9.205095e-05 8.386638e-06 1.5037681e-05 2.9529021e-05 3.8879436e-05 0.0001615655
5.044362e-05 -4.5825213e-06 0.00014078202 6.79577e-05 4.0651135e-05 -5.660784e-05 -5.2739582e-05 -2.8160359e-05
-6.560432e-06 -1.2165651e-05 -3.6518777e-05 7.489524e-05 0.0 0.0 0.0 0.0
00000000: 3740 0839 7ebd 1738 6219 1a38 42a5 3bb5
00000010: cd23 f4b7 0c26 9ab8 1690 9ab8 c9d9 48b8
00000020: 3503 8b38 05c1 4039 fb04 02b8 c086 3c38
00000030: e29f ae37 4c9f a738 567c d138 e07a 7137
00000040: 7351 df38 31cd e838 7a0b c138 56b4 0c37
00000050: 594a 7c37 17b5 f737 7a12 2338 e969 2939
00000060: 6d93 5338 8fc3 99b6 e39e 1339 8384 8e38
00000070: d380 2a38 356e 6db8 b234 5db8 e939 ecb7
00000080: af21 dcb6 131b 4cb7 bd2b 19b8 1311 9d38
00000090: 0000 0000 0000 0000 0000 0000 0000 0000

momentum_buffer f4 [10]
0.0003123291 0.0003289238 0.00015870531 0.00018780094 -2.6939126e-05 -0.000119453616 -0.0004427869 -4.9929142e-05
-0.00017415179 0.0
00000000: 1ac0 a339 6873 ac39 226a 2639 6eec 4439
00000010: 55fb e1b7 2c83 fab8 da25 e8b9 026b 51b8
00000020: 849c 36b9 0000 0000

momentum_buffer f4 [128, 300]
5.8619486e-07 -4.2809628e-08 -1.995556e-06 2.5651647e-07 1.0053946e-07 -1.7463113e-06 1.3716141e-06 8.8883176e-08
1.894498e-08 1.2761254e-07 -5.316464e-08 -4.2583156e-07 -3.9385548e-10 5.8144537e-06 3.4341651e-06 6.3193716e-07
9.460939e-08 9.714539e-07 1.1406331e-06 2.455744e-06 -2.6342755e-06 -6.5269866e-08 2.905302e-06 1.1284804e-06
3.5748448e-07 8.259512e-07 -2.7474192e-07 -8.8816097e-07 1.8314346e-06 1.6651869e-06 3.6804046e-05 3.9572078e-05
3.1909392e-05 3.6412457e-05 3.7212776e-05 2.9134444e-05 3.6330108e-05 3.758916e-05 3.5512825e-05 3.6700785e-05
3.8075155e-05 3.784154e-05 1.2369827e-05 3.4962613e-05 3.78356e-05 3.436621e-05 3.7261747e-05 3.2549106e-05
3.321061e-05 3.5391622e-05 3.639993e-05 2.955045e-05 3.5356334e-05 3.5457702e-05 3.6070436e-05 3.7837835e-05
3.792868e-05 3.119259e-05 2.881985e-05 1.688702e-05 2.639953e-05 2.7421504e-05 2.6080274e-05 3.0935073e-05
2.8305409e-05 3.0474079e-05 2.630166e-05 2.8573353e-05 2.8044999e-05 2.775083e-05 2.718732e-05 2.6734555e-05
2.8401908e-05 4.6032383e-05 3.6500354e-05 2.7104106e-05 3.7085105e-05 3.9891227e-05 4.001636e-05 3.146193e-05
2.6039595e-05 2.8729715e-05 3.4791905e-05 2.8926686e-05 3.232032e-05 2.9915112e-05 2.4184903e-05 3.0498619e-05
4.3549477e-05 3.9425187e-05 -2.0311918e-06 -3.633084e-06 -2.5509141e-06 4.4895323e-08 -1.6139531e-06 -5.7336392e-06
-1.048971e-06 -6e-45 -1.3652729e-07 9.241551e-12 3.447116e-13 -1.1171546e-06 6.447307e-06 3.295737e-06
-7.2181695e-07 7.570443e-08 -9.4361997e-07 9.48927e-07 -2.755785e-06 -3.7355583e-06 -1.1866696e-06 -3.6966054e-07
-5.3127334e-09 -6.380099e-08 -2.5898319e-06 1.1994035e-21 -3.973537e-07 1.5605129e-06 1.6887326e-06 9.694223e-06
7.234111e-06 3.978182e-06 4.822179e-06 9.236239e-06 4.5573897e-06 7.330267e-06 1.0714758e-05 6.4657465e-06
4.7348963e-06 6.055031e-06 4.5592783e-06 3.5750359e-06 9.007689e-06 2.2620932e-05 1.0297224e-05 5.840458e-06
7.1547515e-06 1.802462e-05 1.1513483e-05 8.862206e-06 7.2693297e-06 6.132799e-06 1.204998e-05 6.8050363e-06
1.04530445e-05 7.729206e-06 2.4550318e-06 2.6666003e-06 1.5021886e-05 1.5681893e-05 2.7795373e-05 2.4395375e-05
2.984683e-05 3.1122738e-05 3.052916e-05 3.2353168e-05 3.3010023e-05 2.9656148e-05 2.8174622e-05 2.808259e-05
2.6911412e-05 2.8566608e-05 4.4518758e-05 4.401303e-05 3.30926e-05 2.918267e-05 4.3166852e-05 3.6009078e-05
4.244313e-05 3.132092e-05 2.9162627e-05 3.4945737e-05 3.2898006e-05 3.2914337e-05 3.0321846e-05 2.9940928e-05
2.5851923e-05 3.9176262e-05 4.0524705e-05 5.4022516e-05 7.58426e-06 1.1312003e-06 9.986214e-06 8.486239e-06
6.693416e-06 1.0531047e-05 1.2398526e-05 6.653628e-06 6.5791833e-06 5.457877e-06 4.7800045e-06 5.2345285e-06
2.7393713e-05 2.3605106e-05 1.0911825e-05 7.2220505e-06 1.7854316e-05 2.1391348e-05 1.9767785e-05 9.75865e-06
7.0943156e-06 1.4928096e-05 1.1905136e-05 9.862185e-06 1.0893759e-05 7.634099e-06 1.8732295e-06 1.6831962e-05
1.825769e-05 3.424315e-05 2.2167553e-05 2.4435607e-05 1.6644388e-05 2.2371243e-05 2.1979791e-05 1.4135706e-05
2.0346737e-05 2.2964025e-05 2.003181e-05 2.2666387e-05 2.2569235e-05 2.2345592e-05 2.8624622e-06 2.1240927e-05
2.4532908e-05 1.945509e-05 2.147892e-05 1.6156855e-05 1.8571338e-05 2.2274824e-05 2.1087073e-05 1.5176701e-05
2.1456057e-05 2.1675145e-05 2.060173e-05 2.331563e-05 2.2520071e-05 1.5839114e-05 1.4685821e-05 3.26195e-06
3.1394282e-07 6.920437e-07 5.595409e-06 -1.6486463e-07 1.2505134e-06 3.4889106e-06 -8.248675e-08 1.1379867e-06
2.6141606e-06 5.651029e-07 3.554502e-07 1.7957443e-06 7.613719e-06 4.7869733e-08 9.4433636e-07 3.0754968e-06
00000000: 015b 1d35 afdd 37b3 64eb 05b6 5bb7 8934
00000010: 27e8 d733 cd62 eab5 4d18 b835 0be0 be33
00000020: 74bc a232 de05 0934 2457 64b3 d89d e4b4
00000030: 3b86 d8af c719 c336 8276 6636 64a2 2935
00000040: 102c cb33 e762 8235 db17 9935 5ccd 2436
00000050: 82c8 30b6 7d2a 8cb3 b5f8 4236 4b76 9735
00000060: 4bec bf34 efb6 5d35 3e80 93b4 f569 6eb5
00000070: 9dcf f535 637f df35 0b5e 1a38 32fa 2538
00000080: 73d6 0538 94b9 1838 ea14 1c38 be65 f437
00000090: 2861 1838 0ea9 1d38 9bf3 1438 2bef 1938
000000a0: e3b2 1f38 0bb8 1e38 0188 4f37 d2a4 1238
000000b0: abb1 1e38 7024 1038 7f49 1c38 5685 0838
000000c0: 9f4b 0b38 7771 1438 21ac 1838 1ce3 f737
000000d0: 934b 1438 6bb8 1438 564a 1738 11b4 1e38
000000e0: 9c15 1f38 cad4 0238 28c2 f137 99a8 8d37
000000f0: 8f74 dd37 3b07 e637 f6c6 da37 48c0 0138
00000100: 6771 ed37 96a2 ff37 62a2 dc37 cfb0 ef37
00000110: 2d42 eb37 74ca e837 5310 e437 0544 e037
00000120: a240 ee37 e512 4138 f517 1938 a05d e337
00000130: d48b 1b38 e150 2738 3dd7 2738 fdf5 0338
00000140: 9b6f da37 9800 f137 86ed 1138 96a7 f237
00000150: ae8f 0738 37f2 fa37 afe0 ca37 49d7 ff37
00000160: e5a8 3638 795c 2538 9c4f 08b6 e8cf 73b6
00000170: 5f30 2bb6 eed2 4033 029f d8b5 9663 c0b6
00000180: 5eca 8cb5 0400 0080 5698 12b4 3f94 222d
00000190: 2d0e c22a 24f1 95b5 f255 d836 552c 5d36
000001a0: e2c2 41b5 f392 a233 124d 7db5 c4b9 7e35
000001b0: 07f0 38b6 67b0 7ab6 a845 9fb5 c275 c6b4
000001c0: 4c8b b6b1 f702 89b3 f9cc 2db6 ad3f b51c
000001d0: e053 d5b4 d172 d135 69a8 e235 5fa4 2237
000001e0: 8abc f236 537c 8536 34ce a136 58f5 1a37
000001f0: aeeb 9836 84f6 f536 89c3 3337 57f4 d836
00000200: 73e0 9e36 522c cb36 e7fb 9836 a6ea 6f36
00000210: bb1f 1737 15c2 bd37 3ec2 2c37 27f9 c336
00000220: d912 f036 9433 9737 082a 4137 e3ae 1437
00000230: 11eb f336 58c8 cd36 452a 4a37 d156 e436
00000240: 7c5f 2f37 b0ac 0137 20c1 2436 d8f3 3236
00000250: 8206 7c37 9c8c 8337 1c2a e937 aba4 cc37
00000260: 945f fa37 c989 0238 700c 0038 f3b2 0738
00000270: 3e74 0a38 18c6 f837 8a58 ec37 e792 eb37
00000280: d1bf e137 53a2 ef37 a7b9 3a38 a29a 3838
00000290: e9cc 0a38 4ecd f437 0e0e 3538 7408 1738
000002a0: f704 3238 955e 0338 44a2 f437 b392 1238
000002b0: f7fb 0938 800d 0a38 ab5b fe37 a729 fb37
000002c0: 95dc d837 3151 2438 12f9 2938 3c96 6238
000002d0: 4c7c fe36 bfd3 9735 768a 2737 1e60 0e37
000002e0: 0198 e036 81ae 3037 4403 5037 3b42 df36
000002f0: c1c2 dc36 ce22 b736 ed63 a036 42a4 af36
00000300: 8dcb e537 9403 c637 ee11 3737 f154 f236
00000310: dac5 9537 9271 b337 ffd2 a537 15b9 2337
00000320: b50b ee36 af73 7a37 2bbc 4737 c375 2537
00000330: 57c4 3637 3514 0037 ad6b fb35 5d32 8d37
00000340: 1728 9937 4da0 0f38 75f4 b937 11fb cc37
00000350: 8d9f 8b37 e1a9 bb37 3e61 b837 6528 6d37
00000360: 49ae aa37 dea2 c037 fc09 a837 b223 be37
00000370: 1053 bd37 cb72 bb37 ba18 4036 8b2e b237
00000380: 05cc cd37 7d33 a337 a12d b437 9588 8737
00000390: a5c9 9b37 d2da ba37 25e4 b037 6f9f 7e37
000003a0: 88fc b337 05d3 b537 e1d1 ac37 ef95 c337
000003b0: 7ce9 bc37 3dde 8437 1f63 7637 e0e7 5a36
000003c0: f98b a834 e2c4 3935 33c0 bb36 a505 31b4
000003d0: 50d7 a735 0723 6a36 9223 b1b3 edbc 9835
000003e0: f06e 2f36 93b1 1735 b4d4 be34 4e05 f135
000003f0: 5979 ff36 5499 4d33 4d7e 7d35 a264 4e36

momentum_buffer f4 [128]
8.569761e-05 0.0 0.0 0.0 0.00012998057 9.981609e-05 4.1821175e-05 6.9978065e-05
6.137095e-06 -4.678549e-05 -6e-45 -1.5849324e-05 6e-45 0.0 0.0 0.0003023089
-1.2829241e-05 -5.6043143e-07 -3.6931451e-06 0.0 0.0 0.0 2.416845e-07 5.8755963e-05
6.1136714e-05 0.0 -3.527735e-05 -4.8473726e-06 -7.060702e-06 0.00035738244 0.000103563565 0.00011696023
-2.9609348e-05 3.4579916e-05 0.0 -0.0004223822 0.0 0.00015444517 0.0 3.5028825e-06
0.00027900471 -0.00015361336 1.742155e-08 6.110223e-05 -3.824151e-05 3.8529455e-05 0.0 6.376833e-06
6.42499e-05 3.6086801e-06 0.00010796712 2.485207e-05 -0.0001491671 0.00022127446 -1.774688e-08 3.1468477e-05
5.978168e-06 -1.865106e-05 -1.1665416e-06 8.0214144e-05 1.9258803e-06 0.0 3.061703e-06 0.0
6e-45 0.0 6.955221e-06 0.00012006463 0.00019240791 0.00019086407 0.0 -1.5449292e-05
0.00023352218 -1.7391937e-06 -0.00019568749 2.1746566e-06 0.0 -4.976612e-05 -0.00014818503 1.9550298e-05
0.0 3.9121638e-05 8.721833e-06 0.0 0.0 8.408181e-06 5.5136978e-05 0.0
0.0 0.0 4.3616492e-05 8.448677e-05 0.0 -9.112869e-05 0.00026250843 7.36127e-15
-0.00011267014 0.00015668721 6e-45 3.143592e-05 -1.9209077e-05 -2.4217123e-05 0.0 9.287885e-06
-0.00024313558 9.009027e-05 9.862136e-05 0.0001356206 0.0 -0.00016177658 -5.732964e-06 0.0
-1.5726902e-05 0.00030280734 -6.227528e-05 4.495147e-05 0.0 3.786555e-05 0.0 4.7499404e-09
0.00059899304 0.0002623731 0.0001193605 -8.560277e-06 0.0 -1.4672244e-05 1.191763e-08 0.0
00000000: 8eb8 b338 0000 0000 0000 0000 0000 0000
00000010: 654b 0839 5b54 d138 2569 2f38 30c1 9238
00000020: 3fed cd36 8a3b 44b8 0400 0080 2af4 84b7
00000030: 0400 0000 0000 0000 0000 0000 377f 9e39
00000040: 2c3d 57b7 8e70 16b5 c0d7 77b6 0000 0000
00000050: 0000 0000 0000 0000 ddc0 8134 bc70 7638
00000060: 8636 8038 0000 0000 c4f6 13b8 9da6 a2b6
00000070: f8ea ecb6 0f5f bb39 4430 d938 8c48 f538
00000080: 9761 f8b7 e709 1138 0000 0000 2e73 ddb9
00000090: 0000 0000 8ff2 2139 0000 0000 1013 6b36
000000a0: 6147 9239 4613 21b9 65a6 9532 0324 8038
000000b0: 8265 20b8 b09a 2138 0000 0000 94f8 d536
000000c0: e7bd 8638 a72c 7236 686c e238 6a79 d037
000000d0: bd69 1cb9 e905 6839 cd71 98b2 05fd 0338
000000e0: 1298 c836 d974 9cb7 1092 9cb5 a438 a838
000000f0: 5f3e 0136 0000 0000 a877 4d36 0000 0000
00000100: 0400 0000 0000 0000 e560 e936 35cb fb38
00000110: 1bc1 4939 af22 4839 0000 0000 1a99 81b7
00000120: a2dd 7439 3e6e e9b5 7631 4db9 51f0 1136
00000130: 0000 0000 f7bb 50b8 1e62 1bb9 f2ff a337
00000140: 0000 0000 8a16 2438 fd53 1237 0000 0000
00000150: 0000 0000 dd10 0d37 e142 6738 0000 0000
00000160: 0000 0000 0000 0000 daf0 3638 7d2e b138
00000170: 0000 0000 581c bfb8 49a1 8939 de9b 0428
00000180: 5249 ecb8 674c 2439 0400 0000 10da 0338
00000190: 2e23 a1b7 e025 cbb7 0000 0000 2ad3 1b37
000001a0: 36f2 7eb9 d8ee bc38 f1d2 ce38 6135 0e39
000001b0: 0000 0000 92a2 29b9 c95d c0b6 0000 0000
000001c0: 44ed 83b7 1dc2 9e39 c999 82b8 468a 3c38
000001d0: 0000 0000 d3d1 1e38 0000 0000 eb34 a331
000001e0: be05 1d3a 1f8f 8939 2e51 fa38 1c9e 0fb7
000001f0: 0000 0000 cf28 76b7 4bbe 4c32 0000 0000

momentum_buffer f4 [64, 128]
6e-45 0.0 0.0 0.0 6e-45 6e-45 6e-45 6e-45
6e-45 -6e-45 0.0 6e-45 0.0 0.0 0.0 6e-45
6e-45 0.0 6e-45 0.0 0.0 0.0 6e-45 6e-45
6e-45 0.0 6e-45 6e-45 6e-45 -6e-45 6e-45 6e-45
6e-45 6e-45 0.0 6e-45 0.0 6e-45 0.0 -6e-45
6e-45 -6e-45 0.0 -6e-45 -6e-45 6e-45 0.0 -6e-45
-6e-45 6e-45 6e-45 6e-45 6e-45 6e-45 -6e-45 6e-45
6e-45 6e-45 -6e-45 -6e-45 -6e-45 0.0 -6e-45 0.0
0.0 0.0 -6e-45 6e-45 6e-45 6e-45 0.0 -6e-45
6e-45 -6e-45 6e-45 6e-45 0.0 6e-45 -6e-45 6e-45
0.0 6e-45 6e-45 0.0 0.0 6e-45 -6e-45 0.0
0.0 0.0 -6e-45 -6e-45 0.0 6e-45 6e-45 0.0
-6e-45 6e-45 0.0 6e-45 -6e-45 6e-45 0.0 -6e-45
6e-45 -6e-45 -6e-45 6e-45 0.0 6e-45 6e-45 0.0
6e-45 6e-45 -6e-45 6e-45 0.0 6e-45 0.0 0.0
-6e-45 6e-45 6e-45 6e-45 0.0 6e-45 0.0 0.0
-6e-45 0.0 0.0 0.0 6e-45 6e-45 6e-45 6e-45
6e-45 6e-45 0.0 6e-45 0.0 0.0 0.0 6e-45
6e-45 0.0 8.545e-11 0.0 0.0 0.0 0.0 2.1720425e-10
6e-45 0.0 6e-45 6e-45 6e-45 8.157095e-11 6e-45 1.11580516e-10
6e-45 2.6540435e-11 0.0 6e-45 0.0 0.0 0.0 5.86044e-11
3.5688865e-11 1.86809e-10 0.0 6e-45 3.931294e-12 6e-45 0.0 0.0
6e-45 0.0 1.4301854e-10 6e-45 6e-45 6e-45 -6e-45 -6e-45
6e-45 6e-45 0.0 6e-45 0.0 0.0 6e-45 0.0
0.0 0.0 0.0 6e-45 6e-45 3.5305592e-10 0.0 0.0
6e-45 0.0 6e-45 0.0 0.0 -6e-45 7.522791e-11 0.0
0.0 0.0 0.0 0.0 0.0 0.0 6e-45 0.0
0.0 0.0 3.2356978e-10 0.0 0.0 1.04582225e-10 6e-45 0.0
6e-45 6e-45 0.0 7.251285e-11 6e-45 0.0 0.0 0.0
1.0205023e-10 0.0 1.1879504e-10 4.1738567e-11 0.0 1.573021e-10 0.0 0.0
6e-45 -6e-45 0.0 6e-45 0.0 6e-45 0.0 0.0
6e-45 7.584782e-11 6e-45 6e-45 0.0 6e-45 0.0 0.0
00000000: 0400 0000 0000 0000 0000 0000 0000 0000
00000010: 0400 0000 0400 0000 0400 0000 0400 0000
00000020: 0400 0000 0400 0080 0000 0000 0400 0000
00000030: 0000 0000 0000 0000 0000 0000 0400 0000
00000040: 0400 0000 0000 0000 0400 0000 0000 0000
00000050: 0000 0000 0000 0000 0400 0000 0400 0000
00000060: 0400 0000 0000 0000 0400 0000 0400 0000
00000070: 0400 0000 0400 0080 0400 0000 0400 0000
00000080: 0400 0000 0400 0000 0000 0000 0400 0000
00000090: 0000 0000 0400 0000 0000 0000 0400 0080
000000a0: 0400 0000 0400 0080 0000 0000 0400 0080
000000b0: 0400 0080 0400 0000 0000 0000 0400 0080
000000c0: 0400 0080 0400 0000 0400 0000 0400 0000
000000d0: 0400 0000 0400 0000 0400 0080 0400 0000
000000e0: 0400 0000 0400 0000 0400 0080 0400 0080
000000f0: 0400 0080 0000 0000 0400 0080 0000 0000
00000100: 0000 0000 0000 0000 0400 0080 0400 0000
00000110: 0400 0000 0400 0000 0000 0000 0400 0080
00000120: 0400 0000 0400 0080 0400 0000 0400 0000
00000130: 0000 0000 0400 0000 0400 0080 0400 0000
00000140: 0000 0000 0400 0000 0400 0000 0000 0000
00000150: 0000 0000 0400 0000 0400 0080 0000 0000
00000160: 0000 0000 0000 0000 0400 0080 0400 0080
00000170: 0000 0000 0400 0000 0400 0000 0000 0000
00000180: 0400 0080 0400 0000 0000 0000 0400 0000
00000190: 0400 0080 0400 0000 0000 0000 0400 0080
000001a0: 0400 0000 0400 0080 0400 0080 0400 0000
000001b0: 0000 0000 0400 0000 0400 0000 0000 0000
000001c0: 0400 0000 0400 0000 0400 0080 0400 0000
000001d0: 0000 0000 0400 0000 0000 0000 0000 0000
000001e0: 0400 0080 0400 0000 0400 0000 0400 0000
000001f0: 0000 0000 0400 0000 0000 0000 0000 0000
00000200: 0400 0080 0000 0000 0000 0000 0000 0000
00000210: 0400 0000 0400 0000 0400 0000 0400 0000
00000220: 0400 0000 0400 0000 0000 0000 0400 0000
00000230: 0000 0000 0000 0000 0000 0000 0400 0000
00000240: 0400 0000 0000 0000 13e8 bb2e 0000 0000
00000250: 0000 0000 0000 0000 0000 0000 90d1 6e2f
00000260: 0400 0000 0000 0000 0400 0000 0400 0000
00000270: 0400 0000 5d60 b32e 0400 0000 3f5e f52e
00000280: 0400 0000 bf73 e92d 0000 0000 0400 0000
00000290: 0000 0000 0000 0000 0000 0000 58df 802e
000002a0: 17f6 1c2e 0f66 4d2f 0000 0000 0400 0000
000002b0: f351 8a2c 0400 0000 0000 0000 0000 0000
000002c0: 0400 0000 0000 0000 2440 1d2f 0400 0000
000002d0: 0400 0000 0400 0000 0400 0080 0400 0080
000002e0: 0400 0000 0400 0000 0000 0000 0400 0000
000002f0: 0000 0000 0000 0000 0400 0000 0000 0000
00000300: 0000 0000 0000 0000 0000 0000 0400 0000
00000310: 0400 0000 3418 c22f 0000 0000 0000 0000
00000320: 0400 0000 0000 0000 0400 0000 0000 0000
00000330: 0000 0000 0400 0080 8c6d a52e 0000 0000
00000340: 0000 0000 0000 0000 0000 0000 0000 0000
00000350: 0000 0000 0000 0000 0400 0000 0000 0000
00000360: 0000 0000 0000 0000 66e2 b12f 0000 0000
00000370: 0000 0000 8ffa e52e 0400 0000 0000 0000
00000380: 0400 0000 0400 0000 0000 0000 1b75 9f2e
00000390: 0400 0000 0000 0000 0000 0000 0000 0000
000003a0: 2c69 e02e 0000 0000 d59d 022f 7391 372e
000003b0: 0000 0000 9bf4 2c2f 0000 0000 0000 0000
000003c0: 0400 0000 0400 0080 0000 0000 0400 0000
000003d0: 0000 0000 0400 0000 0000 0000 0000 0000
000003e0: 0400 0000 87ca a62e 0400 0000 0400 0000
000003f0: 0000 0000 0400 0000 0000 0000 0000 0000

momentum_buffer f4 [64]
6e-45 1.1158656e-09 0.0019394158 0.0007031269 -6e-45 0.0017447979 0.0024372153 -6e-45
0.0016990511 6e-45 0.0010146134 0.0015428496 -0.00011309252 0.0007368462 0.0016519574 0.0006806016
0.0005152252 0.0020144966 0.0014812071 2.4798433e-10 0.00029547085 -6e-45 0.0012708501 0.0021214448
0.0019368525 0.0002668174 6e-45 0.0010707314 0.0014536306 0.0005651068 0.0004348019 6e-45
3.2304648e-05 0.0008903801 0.00030153492 0.0 0.0006551974 0.0010932616 0.0 0.0030654115
0.0011462406 0.0014644855 0.0033556113 6e-45 0.0 0.0025549554 0.0020550457 4.2529628e-05
-0.00021901343 6e-45 6e-45 0.00044991006 -6e-45 0.0005522481 0.001435787 0.000930629
0.0031342518 0.00039644522 0.0015920997 0.0016268711 0.00064544467 0.003194146 0.00030823317 0.0016399099
00000000: 0400 0000 085d 9930 ff33 fe3a 0c52 383a
00000010: 0400 0080 b4b1 e43a b0b9 1f3b 0400 0080
00000020: b2b2 de3a 0400 0000 c7fc 843a 7139 ca3a
00000030: 162c edb8 e928 413a 7e86 d83a 666a 323a
00000040: 2e10 073a a505 043b 1025 c23a b154 882f
00000050: 6de9 9a39 0400 0080 a792 a63a f007 0b3b
00000060: fcdd fd3a a0e3 8b39 0400 0000 c957 8c3a
00000070: c087 be3a ad23 143a 20f6 e339 0400 0000
00000080: da7e 0738 6668 693a 5517 9e39 0000 0000
00000090: 8ec1 2b3a c64b 8f3a 0000 0000 12e5 483b
000000a0: 743d 963a fbf3 bf3a d1e9 5b3b 0400 0000
000000b0: 0000 0000 0a71 273b f2ad 063b d761 3238
000000c0: f8a6 65b9 0400 0000 0400 0000 e8e1 eb39
000000d0: 0400 0080 bec4 103a 0431 bc3a 74f5 733a
000000e0: 0568 4d3b fad9 cf39 00ae d03a bc3c d53a
000000f0: 0f33 293a e154 513b 5b9a a139 3ff2 d63a

momentum_buffer f4 [5, 64]
6e-45 5.2146456e-12 -2.1703298e-05 -5.186336e-06 -6e-45 -5.248758e-05 9.977531e-06 -6e-45
-4.520717e-05 6e-45 -1.94821e-05 -2.3902856e-05 -4.7664766e-06 3.2901764e-05 -1.729036e-05 -7.112135e-06
-5.4457787e-06 -6.922992e-05 1.5226016e-05 -1.27446075e-11 -1.28239435e-05 6e-45 -5.4966942e-05 1.1894862e-05
-3.890968e-06 -0.00010515539 6e-45 -8.878944e-06 -2.3661258e-05 -2.7842494e-05 -1.9984838e-05 6e-45
-4.0076643e-06 -2.095037e-05 2.2539813e-05 0.0 -1.5515083e-05 8.173407e-06 0.0 1.4447768e-05
-1.4457073e-05 2.224201e-05 -0.00011635018 6e-45 0.0 -4.340199e-05 -4.3006432e-05 4.9556487e-08
2.452331e-07 6e-45 -6e-45 -5.6526137e-06 -6e-45 1.0124094e-06 4.7843703e-05 3.952856e-06
1.698161e-05 -5.3163635e-06 -2.4547218e-05 -2.5622812e-05 -9.947997e-06 -1.4426539e-05 -9.939144e-06 -4.227949e-05
6e-45 -5.2146456e-12 -3.543685e-05 -5.0192234e-06 6e-45 0.00012755985 -4.3145286e-05 6e-45
4.865702e-05 -6e-45 1.0793569e-05 -3.9616534e-05 -2.6525597e-06 3.3237244e-05 1.2390403e-05 1.2218003e-05
1.6532282e-06 -7.119185e-06 -1.6650807e-05 1.27446075e-11 1.1685315e-07 -6e-45 4.8623464e-05 7.773367e-06
-2.12496e-05 -0.00022026274 6e-45 -1.2570315e-05 -1.5007015e-05 -2.9529461e-05 -6.5708905e-06 6e-45
-4.01445e-06 -2.1366914e-05 2.2597755e-05 0.0 1.2210546e-06 -5.511896e-06 0.0 -8.294663e-05
1.16622805e-05 2.2696744e-05 -9.950859e-05 6e-45 0.0 3.351316e-05 -4.7778587e-05 -5.7264373e-08
-2.484012e-07 -6e-45 -6e-45 -5.2583455e-06 6e-45 -4.909168e-06 8.422881e-05 -2.7768989e-05
-7.851603e-05 2.2168592e-06 -2.7731106e-05 4.214037e-05 1.6942588e-05 -0.0001390831 -1.15222e-05 5.914957e-05
6e-45 -5.2146456e-12 6.9337784e-06 -4.464793e-06 6e-45 9.499421e-05 -3.6209385e-05 6e-45
4.6282454e-05 -6e-45 3.147011e-05 -4.2695207e-05 4.649761e-06 -5.8938174e-05 -1.718054e-05 -1.2559655e-05
6.0688576e-06 -6.1692605e-05 9.130414e-06 -1.2744567e-11 1.10119145e-05 -6e-45 3.964696e-05 -6.919696e-05
-1.9782034e-05 4.882219e-05 -6e-45 -1.191371e-05 -3.4145041e-06 3.0671523e-05 -1.8648472e-05 6e-45
-4.578118e-06 -1.5799958e-05 -2.1584314e-05 0.0 -5.8536525e-06 3.0838003e-06 0.0 -8.270433e-05
1.622429e-05 -1.8955567e-05 5.435901e-05 6e-45 0.0 2.296866e-05 6.4004757e-06 -6.390218e-08
-2.4840088e-07 6e-45 6e-45 -5.6674944e-06 -6e-45 1.3326437e-05 6.971456e-05 2.5233028e-05
-8.129584e-05 -9.4797215e-06 -2.9456498e-06 -5.92762e-05 2.095308e-05 -6.94718e-06 -1.1523194e-05 5.953283e-05
6e-45 5.2146456e-12 3.7816957e-05 5.0133362e-06 6e-45 -0.00014513078 9.5678464e-05 6e-45
-5.537498e-05 -6e-45 1.9552717e-05 3.134263e-05 -2.4219319e-06 -2.3222576e-05 -1.4699941e-05 -8.619068e-06
-9.577797e-06 6.692432e-05 2.940605e-05 1.27446075e-11 6.3053944e-06 -6e-45 -4.0905652e-05 -2.320552e-05
1.818302e-05 4.302045e-05 -6e-45 -1.248106e-05 1.3289404e-05 -3.0163934e-05 -1.784573e-05 -6e-45
2.261337e-06 -1.213378e-05 -2.3604109e-05 0.0 -8.544106e-06 1.1094199e-05 0.0 -9.102011e-05
1.5593803e-05 2.1586628e-05 -5.947689e-05 6e-45 0.0 -5.070527e-05 -4.20951e-05 -5.616991e-08
-2.4845332e-07 6e-45 -6e-45 5.2907653e-06 -6e-45 5.7200964e-06 2.08519e-05 -2.0036618e-05
4.0718925e-05 4.4929097e-06 -9.488678e-06 -3.0210824e-05 -2.351318e-05 7.129046e-05 1.1552171e-05 -4.507185e-05
00000000: 0400 0000 5a79 b72c 7a0f b6b7 4906 aeb6
00000010: 0400 0080 1c26 5cb8 2b65 2737 0400 0080
00000020: d49c 3db8 0400 0000 7e6d a3b7 fe82 c8b7
00000030: b9ef 9fb6 0000 0a38 c40a 91b7 c6a4 eeb6
00000040: e2ba b6b6 882f 91b8 3e73 7f37 9c34 60ad
00000050: 6b26 57b7 0400 0000 4e8c 66b8 0b90 4737
00000060: 298f 82b6 df86 dcb8 0400 0000 c6f6 14b7
00000070: 2a7c c6b7 4d8f e9b7 1da5 a7b7 0400 0000
00000080: 9379 86b6 94be afb7 e113 bd37 0000 0000
00000090: 6326 82b7 8420 0937 0000 0000 b164 7237
000000a0: a88c 72b7 5a94 ba37 0701 f4b8 0400 0000
000000b0: 0000 0000 880a 36b8 ce61 34b8 efd7 5433
000000c0: 95a8 8334 0400 0000 0400 0080 95ab bdb6
000000d0: 0400 0080 1fe2 8735 c9ab 4838 c6a2 8436
000000e0: bb73 8e37 3763 b2b6 c0ea cdb7 92f0 d6b7
000000f0: 52e6 26b7 8309 72b7 4cc0 26b7 4255 31b8
00000100: 0400 0000 5a79 b7ac 07a2 14b8 cd6a a8b6
00000110: 0400 0000 96c1 0539 e6f6 34b8 0400 0000
00000120: 1415 4c38 0400 0080 0716 3537 ee29 26b8
00000130: a102 32b6 3868 0b38 60e0 4f37 ecfb 4c37
00000140: 7de4 dd35 55e1 eeb6 56ad 8bb7 9c34 602d
00000150: b3f0 fa33 0400 0080 0cf1 4b38 5b6a 0237
00000160: 2b41 b2b7 54f6 66b9 0400 0000 18e5 52b7
00000170: a3c6 7bb7 09b6 f7b7 857b dcb6 0400 0000
00000180: ddb3 86b6 193d b3b7 4f90 bd37 0000 0000
00000190: 1ee3 a335 d3f2 b8b6 0000 0000 a2f3 adb8
000001a0: 1da9 4337 e364 be37 44af d0b8 0400 0000
000001b0: 0000 0000 7b90 0c38 de65 48b8 d8f2 75b3
000001c0: 005c 85b4 0400 0080 0400 0080 d870 b0b6
000001d0: 0400 0000 6fb9 a4b6 ffa3 b038 73f1 e8b7
000001e0: f9a8 a4b8 5ac5 1436 19a0 e8b7 e1bf 3038
000001f0: ee1f 8e37 d6d6 11b9 794f 41b7 5e17 7838
00000200: 0400 0000 5a79 b7ac b4a8 e836 48d0 95b6
00000210: 0400 0000 a137 c738 88df 17b8 0400 0000
00000220: 681f 4238 0400 0080 c6fe 0338 a113 33b8
00000230: 2505 9c36 6234 77b8 ee1e 90b7 4fb7 52b7
00000240: 17a3 cb36 f760 81b8 d42e 1937 6d34 60ad
00000250: d0bf 3837 0400 0080 994a 2638 d61d 91b8
00000260: 98f1 a5b7 6dc6 4c38 0400 0080 ffe0 47b7
00000270: bc24 65b6 4ca5 0038 4a6f 9cb7 0400 0000
00000280: bc9d 99b6 278a 84b7 f60f b5b7 0000 0000
00000290: 7e6a c4b6 49f3 4e36 0000 0000 8d71 adb8
000002a0: 6619 8837 c502 9fb7 8bff 6338 0400 0000
000002b0: 0000 0000 d2ac c037 abc3 d636 983a 89b3
000002c0: f55b 85b4 0400 0000 0400 0000 682b beb6
000002d0: 0400 0080 9c94 5f37 b833 9238 84ab d337
000002e0: 5f7d aab8 180b 1fb7 e1ad 45b6 569f 78b8
000002f0: 66c4 af37 d21b e9b6 be53 41b7 e4b2 7938
00000300: 0400 0000 5a79 b72c a69d 1e38 3b38 a836
00000310: 0400 0000 3f2e 18b9 fca6 c838 0400 0000
00000320: 6f42 68b8 0400 0080 2405 a437 e575 0338
00000330: 7988 22b6 1ace c2b7 c49f 76b7 9d9a 10b7
00000340: 53b0 20b7 b959 8c38 03ad f637 9c34 602d
00000350: ed92 d336 0400 0080 1c92 2bb8 7aa9 c2b7
00000360: bd87 9837 db70 3438 0400 0080 bf65 51b7
00000370: 8ef5 5e37 8e08 fdb7 6ab3 95b7 0400 0080
00000380: 79c1 1736 3092 4bb7 7001 c6b7 0000 0000
00000390: a858 0fb7 3921 3a37 0000 0000 0de2 beb8
000003a0: 70cf 8237 ee14 b537 d376 79b8 0400 0000
000003b0: 0000 0000 5eac 54b8 458f 30b8 783f 71b3
000003c0: 2a63 85b4 0400 0000 0400 0080 5487 b136
000003d0: 0400 0080 41ef bf36 1deb ae37 4f14 a8b7
000003e0: 9dc9 2a38 cdc1 9636 9031 1fb7 406d fdb7
000003f0: 2b3e c5b7 c681 9538 32d0 4137 880b 3db8

momentum_buffer f4 [5]
0.1587876 0.008476332 0.28496662 0.041195124 0.1490324
00000000: 3799 223e 50e0 0a3c 25e7 913e 38bc 283d
00000010: f39b 183e

conv1.weight f4 [10, 5, 4]
0.20327361 -0.16665106 -0.21944012 -0.1416898 0.15173517 -0.014977395 -0.06511995 -0.032661103
-0.08360604 -0.18821193 0.18638931 0.15123105 0.21026972 -0.056813248 -0.17609204 -0.020725753
-0.09258471 0.20128061 -0.030141033 -0.016154537 -0.048724934 -0.10622117 -0.025726462 -0.025177395
0.09418571 -0.0855418 -0.035504658 -0.072610945 -0.100530215 0.13742535 0.12843451 0.17206131
0.18957785 -0.14098483 0.2038425 0.014455817 0.17278075 0.14157182 0.14099215 -0.10790252
0.029544786 0.023926906 -0.13370167 -0.14146586 -0.050708167 0.13951916 -0.02044725 -0.104709335
-0.14796753 -0.10669962 0.16585651 -0.11862869 0.07673137 0.12243812 -0.20602255 0.19166462
0.115707874 -0.06889022 0.21632451 -0.17740655 0.092809945 0.023987561 0.034201823 -0.02017963
0.092915505 -0.08022074 -0.1327142 -0.014916279 0.15478592 -0.19410358 -0.08823514 -0.07001917
-0.09633208 -0.011902409 -0.07971472 -0.080057636 0.20271236 -0.08472557 -0.12638108 -0.08213563
-0.06599428 -0.21046901 -0.17117825 0.06340062 -0.19428606 -0.20564824 -0.12278987 0.059345122
-0.08571037 -0.023633411 0.07944353 -0.14298241 -0.11884512 0.1584729 0.18834633 0.109164424
0.13307086 -0.21316917 -0.09775013 0.10060814 -0.12138932 0.0039955014 -0.018700967 -0.0814732
0.21454068 -0.18120202 0.124674976 0.20193116 0.19467182 0.20249288 -0.0025442846 0.15732543
-0.18104547 0.084263824 0.0004499476 -0.19469725 0.034065828 -0.09354786 0.0010347331 0.08793361
-0.025317542 -0.02634867 -0.11795379 -0.07861992 -0.052913304 -0.1411905 -0.046308607 -0.17121531
0.032347046 -0.1739145 -0.0006537056 -0.06925674 0.0367009 0.13269076 0.20224331 -0.028583862
-0.21066341 0.08661915 -0.19307268 -0.16626665 0.20781305 0.08560713 0.06169896 0.15804121
0.11679378 0.20006542 -0.08136192 -0.16984281 -0.050861083 -0.050610073 0.084629014 -0.12507926
-0.058284987 0.1301963 0.07397911 0.049500063 0.056191012 -0.16576828 0.09683324 -0.18775466
0.21396315 -0.013025616 0.081816345 0.06852268 -0.13475372 -0.053015552 0.023704719 -0.10257331
-0.16611944 0.039438363 -0.03576348 0.108890764 0.1471931 -0.019980606 0.018344602 -0.1607789
0.032359384 -0.1858918 -0.20767635 0.11738884 -0.019620033 0.096990585 -0.12888342 -0.128249
0.01708003 0.06368393 -0.1278887 -0.106043264 -0.021854851 0.160812 -0.02569411 0.01686271
-0.0054128016 -0.04236389 0.013531687 -0.1270117 0.20343216 -0.1467227 -0.01868338 -0.106588386
00000000: f526 503e 93a6 2abe e9b4 60be 2217 11be
00000010: 7760 1b3e bf63 75bc 9c5d 85bd a6c7 05bd
00000020: a539 abbd a1ba 40be d7dc 3e3e 50dc 1a3e
00000030: f250 573e 02b5 68bd 7951 34be 0ec9 a9bc
00000040: 0d9d bdbd 811c 4e3e 54ea f6bc 8556 84bc
00000050: cc93 47bd 7c8a d9bd 4dc0 d2bc d340 cebc
00000060: 70e4 c03d 8a30 afbd 556d 11bd 0cb5 94bd
00000070: c9e2 cdbd 3bb9 0c3e 5684 033e d730 303e
00000080: b220 423e 545e 10be 17bc 503e 17d8 6c3c
00000090: 70ed 303e 34f8 103e 3f60 103e fffb dcbd
000000a0: e807 f23c 5c02 c43c 17e9 08be 6ddc 10be
000000b0: 5eb3 4fbd 1cde 0e3e fe80 a7bc d971 d6bd
000000c0: cd84 17be 5585 dabd 4ad6 293e 99f3 f2bd
000000d0: 5625 9d3d d6c0 fa3d 93f7 52be bb43 443e
000000e0: 40f8 ec3d 5116 8dbd 2c84 5d3e 10aa 35be
000000f0: 2413 be3d 9081 c43c 3617 0c3d c04f a5bc
00000100: 7c4a be3d c54a a4bd 3be6 07be 6963 74bc
00000110: 3380 1e3e 17c3 46be a0b4 b4bd 3666 8fbd
00000120: c149 c5bd 5202 43bc 7941 a3bd 42f5 a3bd
00000130: d493 4f3e 9a84 adbd 0b6a 01be ba36 a8bd
00000140: 0228 87bd 3085 57be 5a49 2fbe 2fd8 813d
00000150: edf2 46be 7495 52be 4179 fbbd df13 733d
00000160: eb88 afbd db9a c1bc 4ab3 a23d fb69 12be
00000170: 1265 f3bd b846 223e dcdd 403e 9991 df3d
00000180: ba43 083e 0549 5abe 3831 c8bd a40b ce3d
00000190: f79a f8bd b2ec 823b c532 99bc 6cdb a6bd
000001a0: 8db0 5b3e 068d 39be 9855 ff3d 0bc7 4e3e
000001b0: 0d58 473e 4b5a 4f3e 03be 26bb eb19 213e
000001c0: fc63 39be 8392 ac3d f2e6 eb39 b75e 47be
000001d0: 9c88 0b3d 0596 bfbd e29f 873a 8916 b43d
000001e0: bc66 cfbc 2ad9 d7bc c291 f1bd 7b03 a1bd
000001f0: 9fbb 58bd 3e94 10be 18ae 3dbd 1153 2fbe
00000200: 567e 043d a516 32be 715d 2bba 7ad6 8dbd
00000210: af53 163d 16e0 073e df18 4f3e b428 eabc
00000220: 26b8 57be 6265 b13d d8b4 45be ce41 2abe
00000230: f2cc 543e ca52 af3d 0cb8 7c3d 8ed5 213e
00000240: 9431 ef3d f3dd 4c3e 14a1 a6bd 46eb 2dbe
00000250: b653 50bd 824c 4fbd fa51 ad3d c714 00be
00000260: 3dbc 6ebd 2e52 053e 5c82 973d 94c0 4a3d
00000270: 8c28 663d 29bf 29be 8150 c63d c242 40be
00000280: 2819 5b3e 6569 55bc 548f a73d 9e55 8c3d
00000290: e1fc 09be d626 59bd 6630 c23c f511 d2bd
000002a0: 371b 2abe 1f8a 213d ba7c 12bd 1f02 df3d
000002b0: cab9 163e 5eae a3bc 6b47 963c 39a3 24be
000002c0: 468b 043d 6c5a 3ebe 1ca9 54be 8f69 f03d
000002d0: 31ba a0bc 00a3 c63d 04fa 03be b553 03be
000002e0: 6beb 8b3c b86c 823d 41f5 02be 362d d9bd
000002f0: f208 b3bc e7ab 243e 747c d2bc aa23 8a3c
00000300: df5d b1bb c285 2dbd 02b4 5d3c 5b0f 02be
00000310: 8550 503e 7a3e 16be e30d 99bc 034b dabd

conv1.bias f4 [10]
-0.0027975622 -0.08713958 -0.15895244 0.08400048 -0.14091016 0.027139904 -0.059607733 0.089040436
0.21343632 -0.036117483
00000000: 4e57 37bb 3c76 b2bd 6ec4 22be 7208 ac3d
00000010: c14a 10be 8154 de3c 3d27 74bd d55a b63d
00000020: 0d8f 5a3e edef 13bd

fc0.weight f4 [64, 290]
-0.038305152 -0.014992175 0.021204129 0.00916174 0.026850533 0.0045090294 -0.012936337 0.022468371
0.023465598 -0.014405172 0.01488232 -0.054983165 0.040700942 -0.0036203265 0.026419852 -0.037256528
0.046852954 0.0104013365 -0.028919835 -0.0528517 -0.0199521 0.056869846 -0.053980052 0.026733046
0.039126795 0.01294891 0.011531709 0.056764603 -0.057491552 -0.045777973 -0.049956657 0.044152584
0.0428548 0.055161607 0.0010248985 0.00015945912 0.00667322 -0.042439077 -0.034421537 -0.03219773
-0.044470582 -0.025427574 0.052956823 -0.04292151 0.055403244 0.036537338 -0.049601633 0.034267496
0.008503245 0.034750525 -0.011517975 0.037396684 -0.03594493 -0.005351869 0.018069293 0.0109831495
-0.0291115 -0.052252475 -0.035616007 -0.056734774 0.03261696 0.019354437 0.020460475 0.026917243
0.010162113 -0.014534381 -0.00128298 0.007842139 -0.018830169 0.019766832 0.017823884 0.04036738
0.010060682 0.022776684 -0.054304443 -0.053631198 -0.043308847 -0.010152046 -0.027144171 -0.008081989
-0.0006002613 -0.025714256 -0.0036741092 0.012588631 0.024922268 -0.054801844 0.04946773 0.020273212
0.0371608 -0.054084565 -0.0065497723 0.014410638 0.0073195538 -0.015386975 0.004815399 -0.028030772
0.014703031 0.0015348825 -0.028619064 -0.00560886 0.042889517 0.00020433444 0.026652977 0.018512212
0.012638613 -0.040499035 0.051027615 0.021453103 9.400875e-05 0.008597152 -0.040296122 0.016383009
0.051998626 -0.000901025 -0.032917604 -0.049401484 -5.8236987e-05 0.0021914982 -0.013254728 0.020032788
0.021641938 0.03934682 0.045796126 -0.029751595 0.024175566 -0.016758904 -0.012115854 0.0031909216
0.04994316 -0.0050907666 -0.05717861 0.028930621 0.019548807 -0.028232412 0.036117755 0.040559843
0.0064681694 0.008289474 0.013722835 -0.022796936 0.056811895 0.0010148586 -0.0047886656 0.0070257247
-0.029182214 0.021458983 -0.04541695 -0.057884097 -0.049613036 0.04911095 -0.020384502 0.0068421555
0.049108446 0.0022903215 0.055309366 -0.039674398 0.03118621 0.053762443 0.03771725 -0.025553793
-0.039061196 0.04939481 -0.006289004 -0.04304545 0.008049686 -0.024444293 -0.023922075 -0.028249554
-0.031457916 -0.04002172 0.049899317 0.056623448 -0.024031978 -0.007753892 0.050753303 -0.011207838
-0.035196986 0.0037025982 -0.03165383 0.052387815 -0.017135713 -0.052122165 -0.0019321481 -0.008823163
-0.01805766 0.0032826534 -0.017889677 -0.034020104 0.013016216 0.02373422 -0.009665214 -0.050005894
-0.018345054 -0.05622088 0.0148414755 0.047702823 0.055107776 -0.039068867 0.018038247 0.00027899028
0.020098135 0.006919644 0.015689421 0.00899625 0.018085126 0.01089927 -0.025760474 -0.044327628
0.013066897 -0.03841939 0.006326589 -0.034952134 0.027794244 -0.012935068 -0.03072892 0.051482767
0.058430802 -0.020995056 -0.014068826 -0.04237048 -0.007385415 -0.005877175 -0.026485952 -0.045841075
-0.0151862865 -0.04358661 -0.0055131335 0.04634766 0.056149364 0.05552173 -0.025210764 0.0072520454
-0.05709578 0.04333984 -0.03485014 -0.05769039 0.05273791 -0.05636415 -0.015340594 0.05001367
0.011418598 -0.009691319 0.019515 0.010820585 0.034069438 0.044057664 0.0012048741 -0.029629817
0.026873956 -0.05854346 0.023563718 -0.038380638 0.008675011 -0.006970827 0.018031651 0.004639369
00000000: dde5 1cbd bda1 75bc 48b4 ad3c 1f1b 163c
00000010: a6f5 db3c 7bc0 933b eef2 53bc 970f b83c
00000020: ed3a c03c ac03 6cbc f9d4 733c 0736 61bd
00000030: 08b6 263d 0043 6dbb 726e d83c 4d9a 18bd
00000040: e2e8 3f3d 5e6a 2a3c 4ae9 ecbc 067b 58bd
00000050: 9672 a3bc 5bf0 683d 301a 5dbd 43ff da3c
00000060: 6b43 203d aa27 543c 7eef 3c3c 0082 683d
00000070: 437c 6bbd af81 3bbd 5a9f 4cbd 57d9 343d
00000080: 8488 2f3d 23f1 613d e355 863a 7b34 2739
00000090: 07ab da3b 99d4 2dbd 99fd 0cbd c4e1 03bd
000000a0: c926 36bd 7d4d d0bc 41e9 583d 77ce 2fbd
000000b0: 83ee 623d 2da8 153d 152b 4bbd 135c 0c3d
000000c0: 3251 0b3c 9156 0e3d e3b5 3cbc 442d 193d
000000d0: fe3a 13bd bb5e afbb 0e06 943c abf2 333c
000000e0: 3e7b eebc b106 56bd 17e2 11bd b962 68bd
000000f0: 5d99 053d 328d 9e3c ba9c a73c 8d81 dc3c
00000100: fe7e 263c 9d21 6ebc aa29 a8ba 517c 003c
00000110: ba41 9abc 0dee a13c 6503 923c 4458 253d
00000120: 8fd5 243c 2b96 ba3c 566e 5ebd 63ac 5bbd
00000130: 9e64 31bd c454 26bc 745d debc 526a 04bc
00000140: db5a 1dba b4a6 d2bc 53c9 70bb 8c40 4e3c
00000150: c929 cc3c e677 60bd ad9e 4a3d 0214 a63c
00000160: ec35 183d c787 5dbd 799f d6bb 991a 6c3c
00000170: ded8 ef3b a719 7cbc 7fca 9d3b caa0 e5bc
00000180: fbe4 703c 1c2e c93a 8772 eabc 87ca b7bb
00000190: ebac 2f3d 9c42 5639 5857 da3c eca6 973c
000001a0: 2f12 4f3c 51e2 25bd 5502 513d 6bbe af3c
000001b0: 9026 c538 12db 0c3c 8c0d 25bd a935 863c
000001c0: 83fc 543d c432 6cba 9cd4 06bd 3659 4abd
000001d0: 7d43 74b8 3d9f 0f3b 5c2a 59bc cd1b a43c
000001e0: 6f4a b13c 222a 213d b894 3b3d 9eb9 f3bc
000001f0: d60b c63c f849 89bc 9381 46bc c81e 513b
00000200: 3391 4c3d 72d0 a6bb 1e34 6abd e9ff ec3c
00000210: d224 a03c a947 e7bc 36f0 133d 1422 263d
00000220: f0f2 d33b 93d0 073c bed5 603c a4c0 babc
00000230: 97b3 683d 0105 853a 3dea 9cbb 0d38 e63b
00000240: 8a0f efbc c0ca af3c 2007 3abd e017 6dbd
00000250: 0a37 4bbd 9028 493d 66fd a6bc 2934 e03b
00000260: f025 493d 3819 163b 138c 623d 9f81 22bd
00000270: 397a ff3c 0236 5c3d 677d 1a3d 3056 d1bc
00000280: a2fe 1fbd 3652 4a3d fd13 cebb 6d50 30bd
00000290: d5e2 033c 663f c8bc 3af8 c3bc 9c6b e7bc
000002a0: 04da 00bd d1ed 23bd 3a63 4c3d fded 673d
000002b0: b6de c4bc 5c14 febb b2e2 4f3d 14a1 37bc
000002c0: b72a 10bd 4aa7 723b 72a7 01bd 9b94 563d
000002d0: 3260 8cbc 0d7e 55bd 2240 fdba 078f 10bc
000002e0: a8ed 93bc c921 573b 5f8d 92bc aa58 0bbd
000002f0: f841 553c 446e c23c d95a 1ebc fbd2 4cbd
00000300: 5e48 96bc de47 66bd a929 733c 0964 433d
00000310: b1b8 613d ad06 20bd f2c4 933c 7145 9239
00000320: d8a4 a43c 2ebe e23b 1a87 803c 0265 133c
00000330: 4227 943c da92 323c a107 d3bc e390 35bd
00000340: 8a16 563c a65d 1dbd 464f cf3b f829 0fbd
00000350: c1b0 e33c 9ced 53bc 37bb fbbc 98df 523d
00000360: 2355 6f3d d3fd abbc ef80 66bc ab8c 2dbd
00000370: 5a01 f2bb 5195 c0bb 11f9 d8bc dac3 3bbd
00000380: e7cf 78bc e087 32bd 84a7 b4bb 0bd7 3d3d
00000390: e0fc 653d c16a 633d ce86 cebc 91a2 ed3b
000003a0: 44dd 69bd 1e85 313d 05bf 0ebd c24c 6cbd
000003b0: b503 583d 18de 66bd 1d57 7bbc 22db 4c3d
000003c0: 1215 3b3c 57c8 1ebc ecdd 9f3c d348 313c
000003d0: 658c 0b3d cf75 343d deec 9d3a 3bba f2bc
000003e0: c526 dc3c 44cb 6fbd b308 c13c 0435 1dbd
000003f0: a221 0e3c 896b e4bb 1db7 933c d905 983b
