tb_logs/ConvNet_1_0_2_mozart/version_3/checkpoints/epoch=19.ckpt (torch_old, 695676 bytes, 24 tensors)

momentum_buffer f4 [10, 5, 4]
000000 81 69 df bc 92 4d d8 bc e6 13 d5 bd f9 8f 44 bd
       -0.027271988 -0.026404176 -0.10404186 -0.047988866
000010 82 d3 3a 3d af 42 09 bc 70 95 4a bc f5 55 5b bc
       0.045611866 -0.008377715 -0.01236473 -0.013387193
000020 6a 11 d1 ba c9 ac 03 bb 94 ba 6c ba b4 78 fe ba
       -0.0015950624 -0.0020092002 -0.0009030488 -0.0019414634
000030 da 39 b3 ba c9 ac 03 bb c9 ac 03 bb 49 84 03 bb
       -0.0013673857 -0.0020092002 -0.0020092002 -0.0020067862
000040 c9 ac 03 bb c9 ac 03 bb c9 ac 03 bb c9 ac 03 bb
       -0.0020092002 -0.0020092002 -0.0020092002 -0.0020092002
000050 18 75 e3 bd 4b fd a6 bd 84 fe 45 bd c8 b2 49 bc
       -0.11106318 -0.081537805 -0.04833843 -0.012310691
000060 04 5b 01 3d 78 a4 21 3d fd f6 2e 3c f1 79 da 3c
       0.03158094 0.03946349 0.010679004 0.026669474
000070 64 19 ef 3c 58 ac b2 3c f6 90 83 3c e8 ac 92 3c
       0.029186912 0.021810696 0.016060334 0.017904714
000080 c6 51 1a 3c 7d 46 97 3c ce c5 83 3c 07 84 6f 3c
       0.00941891 0.018466229 0.016085532 0.01461888
000090 36 c3 83 3c 36 c3 83 3c 36 c3 83 3c 36 c3 83 3c
       0.016084295 0.016084295 0.016084295 0.016084295
0000a0 b8 27 ed 3c d3 e9 df 3c b4 80 ff 3c bd e2 bf 3d
       0.028949603 0.027333176 0.0311893 0.09369419
0000b0 dc 7a 7c 3c 77 83 70 3d e1 39 14 3d 0c b6 55 3d
       0.015410151 0.058719125 0.03618801 0.052175567
0000c0 f8 ac 8c bc 19 3b a5 3b 40 e0 2c 39 20 f5 15 bb
       -0.017172322 0.0050424454 0.00016486738 -0.0022881702
0000d0 e0 55 1a bb 08 65 76 ba ee 02 16 bb 20 f5 15 bb
       -0.002354972 -0.000939921 -0.002288993 -0.0022881702
0000e0 20 f5 15 bb 20 f5 15 bb 20 f5 15 bb 20 f5 15 bb
       -0.0022881702 -0.0022881702 -0.0022881702 -0.0022881702
0000f0 b0 de 45 be 28 b5 16 3c 2a f3 82 bc 80 9f 93 3d
       -0.1932323 0.009198464 -0.01598509 0.072081566
000100 02 e4 63 bc e5 28 25 bd 98 f2 bf bb 28 5b e6 ba
       -0.013909342 -0.040322203 -0.005857777 -0.0017574774
000110 cc 3a 83 bc c6 cf 44 3c 70 8f f7 bb ab 16 be 3b
       -0.016019247 0.012012428 -0.007554941 0.005801042
000120 ec 0a f8 bb c0 e2 8d bc dc 0b f8 bb 30 3a 02 bc
       -0.0075696614 -0.017320037 -0.007569773 -0.007948443
000130 f0 13 f8 bb f0 13 f8 bb f0 13 f8 bb f0 13 f8 bb
       -0.007570736 -0.007570736 -0.007570736 -0.007570736
000140 c0 8b 09 bc 4a 42 09 3e 1c d3 b1 3d b6 4e dc 3d
       -0.008395135 0.13404194 0.08682844 0.107572004
000150 f0 23 32 3d 35 34 d5 bc a3 e2 17 bd ef 90 af bc
       0.043491304 -0.02602587 -0.037081372 -0.021431414
000160 5c af 92 bc 26 74 a0 bc ff d8 66 bc 3a fa 97 bc
       -0.017905883 -0.019586634 -0.014089822 -0.018551935
000170 de e8 e1 bc cf 78 f3 bc 27 43 84 bc f2 15 9a bc
       -0.02757686 -0.029720692 -0.016145302 -0.018809292
000180 5e 4f 96 bc 5e 4f 96 bc 5e 4f 96 bc 5e 4f 96 bc
       -0.018348392 -0.018348392 -0.018348392 -0.018348392
000190 88 19 a5 3c 1e 52 05 be 3a 7d ea 3c f7 3f 31 be
       0.020153776 -0.13019606 0.028624166 -0.17309557
0001a0 d6 37 fc 3b 9c ae ef 3c ca 34 01 3c 94 b5 4b bc
       0.007697086 0.029258065 0.007886121 -0.012433428
0001b0 12 17 f9 3b 84 17 f0 bb 0c 2e ff 3b 5e 86 c1 bb
       0.007601627 -0.007327022 0.0077874716 -0.0059059104
0001c0 58 fc f7 3b d0 e1 ab bb 56 5d 00 3c cc cc bd bb
       0.0075679235 -0.005245425 0.007834753 -0.005792236
0001d0 9b 15 fe 3b 9b 15 fe 3b 9b 15 fe 3b 9b 15 fe 3b
       0.0077540404 0.0077540404 0.0077540404 0.0077540404
0001e0 30 43 29 3d f8 b8 ac 3d b7 66 11 3e 98 59 8e 3d
       0.04132384 0.084337175 0.14199339 0.069506824
0001f0 ae c1 cb bd 60 29 1c bd 1c d4 ed bd 52 72 34 bd
       -0.09949051 -0.038125396 -0.11612722 -0.044054337
000200 d1 7f ab bc aa e4 80 bc 02 e9 23 bc fd c1 20 3c
       -0.020934971 -0.015734036 -0.010004284 0.009811875
000210 68 ad 8b bc 8c e4 62 bc 6e 66 6b bc 79 f5 f3 ba
       -0.01705046 -0.013848435 -0.014367683 -0.0018612585
000220 8c e4 62 bc 8c e4 62 bc 8c e4 62 bc 8c e4 62 bc
       -0.013848435 -0.013848435 -0.013848435 -0.013848435
000230 cc 46 8f 3c 4a 49 bf bd 40 cb 8f 3b 22 a6 96 bd
       0.017489813 -0.09340151 0.004388243 -0.07355906
000240 c2 64 02 3c d8 f7 4c 3d ae 33 5c 3c 80 d6 18 b9
       0.007958593 0.05004105 0.013440056 -0.00014575757
000250 3b 22 e0 3b da 20 86 3c 00 3d c7 3c 4c 53 e0 3b
       0.006840018 0.016373087 0.02432108 0.0068458673
000260 5c 53 e0 3b 30 ac 7e 3c 18 64 b1 3c 5c 53 e0 3b
       0.0068458747 0.015543982 0.021654174 0.0068458747
000270 5c 53 e0 3b 5c 53 e0 3b 5c 53 e0 3b 5c 53 e0 3b
       0.0068458747 0.0068458747 0.0068458747 0.0068458747
000280 8a 0f cf bd 2b 46 8d 3c 24 18 d4 3d db f3 21 bd
       -0.10110386 0.017245373 0.10356167 -0.0395392
000290 d8 fb 23 3b 11 7f c5 bb 80 24 df b8 a5 82 0b 3c
       0.0025021937 -0.0060271104 -0.00010640267 0.008515035
0002a0 f2 60 3d bc 2a 5d 6d bc 09 ca 34 bc 6b 5a d1 bc
       -0.011558758 -0.014487544 -0.011034497 -0.02555581
0002b0 37 c8 34 bc b4 5e 49 bc 09 ca 34 bc c9 df 34 bc
       -0.011034063 -0.012290645 -0.011034497 -0.011039683
0002c0 09 ca 34 bc 09 ca 34 bc 09 ca 34 bc 09 ca 34 bc
       -0.011034497 -0.011034497 -0.011034497 -0.011034497
0002d0 5a 78 5f bd 40 e6 9a ba 74 ab 60 bd 08 79 ea bd
       -0.054558136 -0.0011817887 -0.05485101 -0.11448866
0002e0 44 f9 67 bd d7 b9 33 bd 14 b1 84 bc 3c e0 16 bd
       -0.056634203 -0.043878403 -0.016197719 -0.03683494
0002f0 84 4f a7 3b 1f e6 9e 3c 92 f4 e5 3c 06 bd 92 3b
       0.0051059145 0.01939684 0.028070722 0.0044780998
000300 96 21 80 3b 44 48 d8 3c 87 dd 58 3c 1e 84 e0 bb
       0.0039102538 0.026401646 0.01323641 -0.006851687
000310 46 2e 31 3c 46 2e 31 3c 46 2e 31 3c 46 2e 31 3c
       0.010814255 0.010814255 0.010814255 0.010814255

momentum_buffer f4 [10]
000000 89 1e 05 3c 7d 34 85 bd 88 99 17 3c 7b cb fa 3c
       0.008124956 -0.06504152 0.009252913 0.030614605
000010 ad f4 97 3d ca 6e 00 bd 66 60 65 3d 13 c8 e2 bc
       0.07419715 -0.031355657 0.056000136 -0.027683293
000020 cd c4 36 3d d6 1e 33 bd
       0.044621278 -0.04373058

momentum_buffer f4 [64, 610]
000000 b9 85 ca ba 34 13 07 bc c4 05 f7 3a 8c da 23 bc
       -0.0015451229 -0.0082443245 0.0018846323 -0.010000836
000010 7a 17 57 bb 27 5f bc bb 0f 6b ee b9 46 ee 15 bc
       -0.003282039 -0.0057486477 -0.00045474662 -0.009151047
000020 c0 c1 82 bb 79 44 bd bb 65 c5 b1 3b 23 ec 17 bc
       -0.003990382 -0.005775985 0.0054251426 -0.009272608
000030 74 6b 13 bc d4 2f aa bb a9 2e 98 bb 33 13 1d bc
       -0.008997787 -0.00519369 -0.004644234 -0.009587097
000040 66 70 82 bc 79 b3 6a bb 61 20 87 bb 70 03 eb bb
       -0.015922736 -0.003581254 -0.004123733 -0.0071720406
000050 44 55 2e bc c9 6d d5 bb e4 97 4e bb f8 72 34 bc
       -0.010640446 -0.0065133316 -0.003152364 -0.011013739
000060 1e 4b 46 bc 43 44 1d bb 4f f4 45 3b e7 bb 1a bc
       -0.01210287 -0.0023996986 0.0030205434 -0.0094442135
000070 07 29 48 bc fe 96 ee bb 3b cd e4 ba 54 cd 19 bc
       -0.012216813 -0.0072811833 -0.0017456183 -0.009387333
000080 1e fe 4f bc 07 34 e8 bb ad ce c4 3a 36 ca 28 bc
       -0.012694864 -0.0070862803 0.0015015207 -0.010302117
000090 58 b8 4d bb 06 ee 10 bc dc e7 3c bb 99 6d 0f bc
       -0.0031390395 -0.008845812 -0.0028824722 -0.008754157
0000a0 62 52 73 bc ac 02 d2 bb f0 f8 ca ba 84 a7 c5 bb
       -0.014851185 -0.00640901 -0.0015485566 -0.0060319323
0000b0 62 77 0a bc 93 47 a1 bb 0f 5a ca bb f1 67 04 bc
       -0.008451315 -0.0049218624 -0.0061752866 -0.008081422
0000c0 4c a3 42 bc 02 f2 b9 bb 61 f5 42 bb c1 b3 18 bc
       -0.011879753 -0.0056746015 -0.0029748308 -0.0093202
0000d0 41 6e db bb c2 16 bb 39 9d ee 94 bb e0 18 f0 bb
       -0.006696493 0.00035684375 -0.0045450465 -0.007327184
0000e0 22 bc 68 bc 2e 8e 19 bb 42 08 a1 3a 89 b5 ca bb
       -0.014205011 -0.0023430693 0.0012285786 -0.0061861915
0000f0 51 2f 93 bc 74 d8 64 bc 16 18 d4 bb 74 3b 49 bc
       -0.017966898 -0.013967622 -0.006472598 -0.012282241
000100 d0 23 7c 3b 78 d5 1a bc b3 39 cd bb 24 c9 9f bb
       0.0038473494 -0.009450309 -0.006262982 -0.0048762728
000110 af 0b 33 3b 0c ff 33 bc 63 27 d5 bb fa de 38 bc
       0.0027320196 -0.010986101 -0.0065049394 -0.0112836305
000120 a8 56 8d 3b db ad 3a bc eb 56 4f bc c3 e7 20 bc
       0.0043133087 -0.011393989 -0.012655 -0.009820881
000130 65 18 88 3a 5f 40 12 bc ce fa 93 bc 05 4b 52 bc
       0.0010383247 -0.00892648 -0.018063929 -0.012835269
000140 f7 9c 11 bb 33 14 ee bb f8 07 2f bc e8 62 4f bc
       -0.0022218802 -0.0072655915 -0.010683052 -0.012657858
000150 00 87 d4 3a e9 0e 2a bc 6e 52 8b bc 24 f5 41 bc
       0.001621455 -0.010379531 -0.017007079 -0.011838231
000160 c9 ce 97 3b b7 fa d6 bb ef 9d 76 bc 99 f2 42 bc
       0.004632805 -0.0065606493 -0.015052303 -0.01189866
000170 38 48 50 3b c5 e8 28 bc 71 43 4a bc 59 08 86 bc
       0.0031781327 -0.010309403 -0.012345181 -0.016361402
000180 c3 d8 83 3a 7b 30 ee bb d0 29 85 ba 1c a5 8f bb
       0.0010059107 -0.007268963 -0.0010159556 -0.0043836962
000190 b3 f6 00 3b db 42 13 bb f6 aa 85 bc 47 09 71 bc
       0.0019678294 -0.002247027 -0.016316872 -0.014711685
0001a0 29 45 ad bb c7 9e c5 bb 54 5f 2d bc 82 89 09 bc
       -0.0052877855 -0.0060308906 -0.01058181 -0.008394601
0001b0 ec 51 d9 3a 5f 37 e5 bb f5 36 75 bc 6f 19 6d bc
       0.0016580201 -0.006995126 -0.014966716 -0.014471396
0001c0 1e 40 9a bb fd 47 22 bc a4 61 5e bc 02 21 6c bb
       -0.0047073504 -0.009904859 -0.013573084 -0.0036030416
0001d0 5e be 4e bb 68 0f c7 bb 8e 77 ac bc 0b 3a 75 bc
       -0.0031546573 -0.0060748346 -0.021053102 -0.014967452
0001e0 b5 21 45 3b ee f2 4f bb 72 5b a0 ba ec 54 a0 bb
       0.0030079905 -0.003173049 -0.0012234284 -0.004892936
0001f0 a6 67 87 ba da 53 d4 38 76 1b 45 bb bd 39 75 bb
       -0.0010330572 0.00010124566 -0.0030076182 -0.0037418448
000200 cd 58 e8 ba f0 6d 3a ba be 3e 42 bb 88 f5 80 bb
       -0.001772666 -0.0007111719 -0.0029639448 -0.0039355196
000210 66 17 96 ba d0 52 6b 3a 04 b4 5a ba b6 45 7c bb
       -0.0011451065 0.00089768786 -0.00083428645 -0.00384937
000220 a4 d1 b3 39 7d 2b 27 3b 68 99 44 3a 08 50 f3 ba
       0.00034297735 0.0025508099 0.0007499666 -0.001856328
000230 4e ed 87 3a 18 3c 91 3a e4 c0 e8 b8 2e 92 41 bb
       0.0010370405 0.0011080531 -0.00011098551 -0.0029536593
000240 10 82 be 39 da 51 1c 3b 96 d2 3b b9 7c 2f 55 bb
       0.00036336528 0.0023852498 -0.00017912159 -0.0032529524
000250 5a de 1d b9 f6 71 d6 3a d1 c0 1e 3a a9 8b 6e bb
       -0.00015055519 0.0016360867 0.00060559536 -0.0036399162
000260 ea 2a a3 b9 92 be 18 3b 98 a6 31 3a 93 c2 62 bb
       -0.00031121756 0.0023306948 0.00067768386 -0.0034600839
000270 28 9b 1c b9 bc 26 06 3a 9f b7 a2 ba 2f 88 12 bb
       -0.0001493512 0.0005117466 -0.0012414342 -0.0022359004
000280 8e 78 8a ba dc 00 5b 3b 04 ab 99 3a 68 61 fe ba
       -0.0010564493 0.003341726 0.001172394 -0.0019407691
000290 fb f6 e6 b9 fc 8e 4e 38 da 27 81 ba b9 27 5c bb
       -0.00044053033 4.9247392e-05 -0.0009853796 -0.0033593012
0002a0 30 10 9e b9 c1 f0 0f 3b de 85 77 3a 8e be 06 bb
       -0.0003014817 0.002196357 0.000944225 -0.0020560357
0002b0 fc 29 44 3a 8c 80 82 3a 55 78 cd ba 1a eb fa ba
       0.0007483063 0.0009956523 -0.001567612 -0.0019143552
0002c0 e2 2d 83 b9 e2 aa fd 39 5d 38 ae b8 fd ad 73 bb
       -0.00025020452 0.00048383238 -8.307465e-05 -0.0037182563
0002d0 c7 4e 5e ba 70 3f 87 3a dc 04 90 37 c0 d9 9e bb
       -0.00084803667 0.0010318588 1.71684e-05 -0.004847735
0002e0 30 97 a8 bb ba f0 9e bb dc 56 60 39 6b 77 a0 ba
       -0.005144976 -0.004850474 0.00021394662 -0.001224262
0002f0 a3 82 31 bb 9e 4c 16 3a 42 7e 00 3b ac 0f 36 bb
       -0.0027085922 0.0005733463 0.0019606506 -0.0027780337
000300 02 73 ed bb e4 16 a5 bb a3 e1 81 3a 83 92 af ba
       -0.007246376 -0.005038129 0.0009909164 -0.0013395104
000310 14 b3 b7 bb 84 fd f4 ba 04 47 8f 3b cb 4c d2 39
       -0.0056060646 -0.0018691276 0.0043724794 0.00040111537
000320 25 5a 05 bc 64 93 eb bb 3d 79 a4 3a 4b db 19 38
       -0.008139168 -0.007189201 0.0012548339 3.6682275e-05
000330 d3 87 51 bb 72 7a 99 bb 11 85 04 3b 0d 74 88 bb
       -0.0031971827 -0.004683786 0.0020220915 -0.004164225
000340 95 39 4d bc 4e db f9 bb fe 90 e4 3a 9f 31 6b b8
       -0.012525936 -0.00762502 0.001743823 -5.607458e-05
000350 29 b7 f9 bb f7 3e b5 bb 71 24 30 3b 22 bd e7 ba
       -0.0076207113 -0.0055311876 0.002687719 -0.0017680267
000360 6e ce f1 bb d6 37 13 bc 14 75 6a ba 6a db 62 b9
       -0.0073793447 -0.00898548 -0.00089438376 -0.00021634778
000370 f2 d8 c7 ba 7e b3 c1 3a 4d 0e 28 3b e5 9e ff 3a
       -0.001524715 0.0014778224 0.002564329 0.001950231
000380 da 4f 08 bc fd 80 f2 bb 95 60 91 ba 0b 97 da ba
       -0.008319819 -0.0074006305 -0.0011091406 -0.0016677094
000390 b2 6a 82 bb 59 03 65 ba 40 09 c0 3b 1a 6a 80 3a
       -0.003980004 -0.00087361556 0.0058604777 0.0009797246
0003a0 04 c4 a1 bb ba ae b1 bb 15 de 82 b9 8d 4e 69 bb
       -0.004936697 -0.0054224404 -0.00024960996 -0.0035599798
0003b0 d4 f1 d0 bb e5 5a b5 ba 85 3f 9d 3a 2f fc 02 bb
       -0.0063764844 -0.0013836293 0.001199708 -0.001998674
0003c0 ce cb 61 bc 78 9a 2c bc 90 91 87 39 ee 86 69 ba
       -0.013781501 -0.010534875 0.0002585766 -0.0008908351
0003d0 88 e8 31 bb e1 db 50 bc aa 43 96 bb 8d dd 19 bc
       -0.0027146656 -0.012747736 -0.004585703 -0.009391201
0003e0 9b 6b 34 3b 39 17 32 bc 97 c5 68 bb f9 14 03 bc
       0.0027529958 -0.0108697945 -0.0035518163 -0.008000606
0003f0 31 6d f4 ba 76 24 5b bc 8a 3d 6d bb f9 27 39 bc
       -0.0018648264 -0.013375392 -0.003620001 -0.011301034

momentum_buffer f4 [64]
000000 fc 2f f6 bb 06 9e 8d 3b 53 f1 52 3b b0 8c f8 3b
       -0.0075130444 0.0043218164 0.0032187297 0.0075851306
000010 11 fe c5 3c 16 0e a7 bb c0 53 d6 b9 2a fe 95 3c
       0.024169 -0.0050981147 -0.0004087966 0.018309671
000020 96 94 4b 3c 2a 96 b7 b9 a0 41 60 3b c8 3c 22 3d
       0.012425562 -0.0003501636 0.0034218803 0.039608747
000030 da 03 3d bc d1 a2 8f bc 55 28 17 3d 90 c4 b1 3c
       -0.011536563 -0.017533692 0.036903698 0.021700174
000040 be e1 37 bc c4 6f 8f 3c b3 d8 88 3c dc 46 36 bc
       -0.011223255 0.017509349 0.016704893 -0.011125293
000050 f7 9f 88 bd de 39 ee bb e7 75 2e bc f0 e6 54 3d
       -0.06671136 -0.007270082 -0.010648227 0.05197805
000060 2b 37 9f 3c b6 06 ec bc 14 8d 00 bd 3a f4 7e bd
       0.019435486 -0.028811794 -0.031384543 -0.06224463
000070 1d 86 8d 3c d2 ea 06 3b 33 0b 89 bc ea d5 17 bc
       0.017275864 0.002058674 -0.016728973 -0.00926731
000080 4e 6e b8 3c 34 d6 b1 bb cc 90 a3 3c 81 90 53 bd
       0.022513535 -0.0054271463 0.019966505 -0.05165148
000090 1a 62 45 3d 60 4c 6f ba e8 9e 00 bc 2f e0 cd bc
       0.04818926 -0.0009128507 -0.007850386 -0.025131313
0000a0 52 14 65 bc 42 a8 19 bc b6 6b d2 3c ae c3 f4 bc
       -0.0139818955 -0.009378495 0.025686126 -0.029878464
0000b0 ed f6 c4 bc 24 24 a2 3c 40 a0 d1 bb 52 40 23 3c
       -0.024043525 0.019792624 -0.006397277 0.009964066
0000c0 e2 bc cc bc a4 32 ad bc 79 41 14 bc 15 b2 bb 3b
       -0.02499241 -0.021142311 -0.009048813 0.005728016
0000d0 79 24 ee bc c8 75 92 bc 4b 2d fe bc c0 62 84 39
       -0.029070126 -0.017878428 -0.031027457 0.00025250576
0000e0 8e 0c f7 3b a8 9f 49 bc b3 d8 01 3c f6 18 d0 3c
       0.0075393384 -0.012306131 0.0079252 0.025402527
0000f0 c8 6d 09 bb 3f 4a 02 bc 2d aa 13 3c 00 00 00 00
       -0.0020969976 -0.007952272 0.009012741 0.0

momentum_buffer f4 [10, 1, 4]
000000 f0 e6 60 bb da ce a8 3c 4a 4f 29 bd f0 73 89 ba
       -0.0034317337 0.020606447 -0.04133538 -0.0010486823
000010 08 e7 9a ba 0e d6 5b bc 4e d5 cf bc 86 41 cc 3c
       -0.001181812 -0.013417734 -0.025370266 0.024933588
000020 26 09 f3 bb 43 ad bf bc 78 ee e7 bc b1 1a 23 bc
       -0.007416862 -0.023398047 -0.028311953 -0.009955094
000030 c2 88 6c bd 4a 12 ed 3b 72 e0 50 bd bc d3 28 3d
       -0.05774761 0.0072348462 -0.050995298 0.04121755
000040 c4 3a b0 3b f4 05 8a bd 3c ac 2b bd 91 7b 2a bd
       0.005378099 -0.06739417 -0.041912302 -0.04162175
000050 c4 0b 73 bc e3 73 0d bc 68 a1 1d 3c 78 e5 16 3d
       -0.014834348 -0.008633587 0.009621002 0.036839932
000060 ac ed 95 bd 1e 61 1a bc 1e ff 49 bd 2e c6 46 bd
       -0.07320723 -0.009422569 -0.049315564 -0.048528843
000070 e8 18 da bb 1a 44 1b bc 00 df 16 bc 06 df 8d 3c
       -0.006655801 -0.009476686 -0.009208441 0.01731826
000080 70 e0 df 3b 38 a3 ac 3c 11 f1 35 3c 54 78 f5 3c
       0.006832175 0.021073923 0.011104838 0.029964603
000090 5f f1 2b 3b e5 6e f8 3a 60 b8 95 3b 89 26 d2 bb
       0.0026236398 0.0018953948 0.0045690984 -0.006413285

momentum_buffer f4 [10]
000000 b2 da 49 bd bc d0 8b 3c a4 70 90 bc 51 4f 06 bc
       -0.04928083 0.017067306 -0.017631836 -0.008197621
000010 19 c4 3d bd 58 c4 4d 3d cb d7 d3 bd 1e ae 12 3d
       -0.04632959 0.050236076 -0.103438936 0.035810582
000020 e6 2a 6e 3d 79 4b 61 bc
       0.05814638 -0.013750904

momentum_buffer f4 [128, 300]
000000 e8 d1 a9 ba a4 42 9d ba 44 0d 46 3a b0 f0 43 39
       -0.0012956234 -0.001199801 0.00075550773 0.00018686312
000010 f1 20 0e bb 40 a3 6c b7 c2 7f 22 3b 7c f1 5b ba
       -0.0021687115 -1.4104706e-05 0.0024795388 -0.0008390171
000020 10 cf 82 3a 28 13 57 3a b8 e6 38 bb dc 73 a8 3a
       0.0009979922 0.00082044536 -0.002821369 0.0012851912
000030 f2 31 1f bb ac 80 10 ba ce 10 84 3b 84 39 98 ba
       -0.0024291244 -0.00055123377 0.0040303236 -0.0011613821
000040 12 06 94 3a 16 0b 09 3b 72 6e 01 3b 00 9c ab 38
       0.0011293313 0.0020911149 0.0019749668 8.182973e-05
000050 ea f8 52 3b 5c 5a ec ba ad 84 20 3b a1 cc 48 3b
       0.0032191821 -0.00180323 0.0024493143 0.0030639546
000060 d4 6a 52 ba b4 05 69 ba 71 9c 7f bb f4 c0 69 3b
       -0.0008026783 -0.00088890945 -0.0039003158 0.0035667988
000070 5c 0c 01 3a 71 06 32 3b ec d5 7e b9 ef c4 8a 3b
       0.0004922801 0.0027164484 -0.0002430302 0.004234902
000080 0a 47 a4 ba 0a 8b 7f bb da 07 87 ba 5c af 99 3b
       -0.0012533378 -0.0038992786 -0.0010302023 0.004690094
000090 86 40 8b ba 12 b3 b6 3a c2 51 8f 39 bf 6c 85 bb
       -0.0010624088 0.0013938865 0.00027336 -0.0040718014
0000a0 db 08 b9 3b 46 4c 1b bb 20 d6 4e bb 6e 8d 89 3b
       0.0056468076 -0.0023696586 -0.0031560734 0.004197768
0000b0 38 61 c2 ba 38 4e 8a 3a db 85 37 3a 78 60 77 3a
       -0.0014829999 0.0010551875 0.0007000842 0.0009436677
0000c0 40 57 c2 3a 70 12 b2 39 08 9a 37 ba fa bc 14 3b
       0.0014827028 0.00033964543 -0.00070038484 0.0022695647
0000d0 a5 27 bd 3b fe 8c cf 3a d5 3a ae ba 7b 79 8e bb
       0.0057725483 0.0015834866 -0.001329268 -0.0043479777
0000e0 d8 24 df 3b 0b 55 18 3b e0 7d 9a b9 08 9c 9a 3a
       0.006809812 0.002324405 -0.00029466953 0.0011795769
0000f0 c4 96 5f ba 48 ef c0 3a b1 cb 1a bb 8f 9c 02 bb
       -0.0008529241 0.0014719749 -0.0023619945 -0.0019929742
000100 14 8c 98 b9 28 d8 2c 3b 74 43 89 ba c0 de 36 38
       -0.00029096066 0.0026373956 -0.0010472373 4.3599633e-05
000110 00 11 46 ba 7c c6 a7 ba e8 75 1b 3b 51 dc e5 ba
       -0.0007555634 -0.0012800242 0.00237214 -0.0017536973
000120 1c b5 1c bb e6 53 3f 3b 70 b6 81 ba 4c f9 81 3a
       -0.002391166 0.0029194294 -0.000989629 0.0009916215
000130 5c 79 70 3a b0 7c b6 39 38 c5 42 3a 36 10 a7 3a
       0.00091733574 0.00034806645 0.00074299006 0.001274592
000140 4c 3a 45 ba 48 06 27 3a f7 e9 19 3b 10 b8 98 b9
       -0.00075236405 0.00063714804 0.0023485401 -0.00029128836
000150 78 24 42 ba dc 7b 2a 3a 91 a5 7a 3b dc 9e 85 ba
       -0.0007405947 0.0006503442 0.0038245658 -0.0010194439
000160 30 30 35 ba 2a 1e 93 ba b4 b7 b4 ba 98 04 69 3b
       -0.00069117825 -0.00112242 -0.0013787658 0.0035555717
000170 d8 ab 36 ba 38 ad f4 b9 d7 82 15 bb 4f 26 2c 3b
       -0.0006968356 -0.00046668365 -0.0022813582 0.002626795
000180 14 06 95 3b 4e 47 b3 ba 8c e9 c9 3a 05 65 99 3a
       0.0045478437 -0.0013677867 0.0015404685 0.001170308
000190 80 00 60 ba 28 06 12 ba 2f f5 5b bb 80 ba 7a b9
       -0.00085449964 -0.00055703754 -0.003356289 -0.00023911335
0001a0 ea 5d b7 3b 10 9a a4 ba 98 64 33 3b 98 30 30 3b
       0.005595912 -0.0012558121 0.002737319 0.0026884433
0001b0 40 74 97 3b c8 d3 ad 3a 00 a9 db 3b f2 ef af 3b
       0.0046220124 0.0013261968 0.006703496 0.00536918
0001c0 39 73 b6 3b 09 1e e7 3b f6 bf 6c bb 00 33 82 38
       0.005567935 0.007053141 -0.003612516 6.2083825e-05
0001d0 bc 74 82 bb fe a1 eb 3b f0 af be 39 0c ba c2 3b
       -0.003981201 0.007190942 0.00036370708 0.0059425887
0001e0 00 4c 84 38 4c f2 41 3b 30 83 92 bb 37 94 cb ba
       6.3084066e-05 0.0029593883 -0.004471205 -0.0015531842
0001f0 a6 6f ab 3a 04 d7 90 3a 34 cf 64 ba 90 89 4e 39
       0.0013079538 0.0011050408 -0.00087283854 0.00019696937
000200 cc 6a 00 bb 94 e9 ac 3a fc 2f 59 3b f0 4a 31 bb
       -0.0019594906 0.001319217 0.0033140173 -0.0027052723
000210 3e 9d ab 3a 90 ef 3c 3b 40 ff 64 b9 1e c3 c4 3a
       0.0013093126 0.0028829314 -0.00021838862 0.0015011763
000220 1a 74 54 3a 10 0c e6 39 50 82 a4 39 e8 a1 25 3b
       0.00081044587 0.00043878006 0.00031377608 0.0025273506
000230 ec 5c ba ba d6 41 23 3b 10 8d 54 3a df 90 a4 ba
       -0.0014218367 0.0024911067 0.0008108178 -0.0012555382
000240 b6 59 f6 ba 54 47 c3 3a 24 57 1f ba 18 ed fc ba
       -0.0018795046 0.0014898577 -0.00060783536 -0.0019296734
000250 e4 26 c0 ba 20 3d 45 bb 22 c0 8f 3a 4e ff c7 3b
       -0.0014660028 -0.0030096248 0.0010967294 0.0061034327
000260 e6 16 ff ba 43 10 04 ba 3c 4c 35 3b 0e 17 8d 3b
       -0.001946178 -0.00050378236 0.0027663847 0.004305727
000270 c0 53 68 ba 22 93 fe 3a 28 6a fb b9 8f 23 38 3b
       -0.00088625774 0.0019422511 -0.00047953543 0.0028097366
000280 62 fc af 3b 12 5e c1 ba 08 e8 26 3b 02 43 79 3b
       0.0053706625 -0.0014752767 0.0025467891 0.0038034325
000290 ab 87 ff 3a bc 30 50 3b 08 86 8c 3a 54 13 f7 3a
       0.0019495388 0.003176733 0.0010721097 0.0018850365
0002a0 fc c7 67 3a 75 1b 47 3b a0 df b1 b9 e0 42 b6 3b
       0.00088417507 0.0030381356 -0.00033926684 0.0055621713
0002b0 4e 9f 92 3b 0c 8a 92 39 7c 25 07 bb 0c 99 91 3b
       0.004474557 0.00027950143 -0.0020621708 0.0044432934
0002c0 14 93 32 bb 20 89 3a 39 c0 46 df b9 b8 20 22 b9
       -0.002724831 0.00017789425 -0.00042586587 -0.00015461713
0002d0 70 c3 07 bb 06 b4 b2 ba 30 15 f4 39 e0 ec c3 ba
       -0.0020715855 -0.0013633973 0.00046555093 -0.0014947914
0002e0 76 57 31 bb 26 42 a3 ba a6 88 36 3b d8 0e 05 bb
       -0.0027060187 -0.0012455627 0.0027852445 -0.0020303037
0002f0 28 9e a3 39 7a 31 01 3a f8 85 3b bb 80 9a 13 39
       0.00031207618 0.0004928332 -0.0028613787 0.00014076568
000300 c1 44 c9 ba 2e 0c 5b bb 7f 1d 96 3b db 04 05 bb
       -0.0015355573 -0.0033424008 0.004581153 -0.0020297084
000310 d0 2e 83 39 02 c3 93 3a b0 36 95 3a b0 06 b6 b9
       0.00025021145 0.0011273327 0.0011384096 -0.00034718728
000320 80 c3 1d 3b 20 00 a0 39 cc b7 93 3a dc 4d 73 3b
       0.0024072826 0.0003051767 0.0011269986 0.0037125265
000330 1c b7 cb ba 28 7d dd ba f8 58 ed ba 82 42 4c 3b
       -0.0015542242 -0.0016898261 -0.001810818 0.0031167571
000340 d8 69 19 ba 08 0b d0 3a 00 a5 5b 38 d3 e7 49 3b
       -0.0005852259 0.0015872428 5.2367337e-05 0.0030808344
000350 fd 59 c4 ba 73 e7 4f ba 8e 3a 83 3a c6 9b 68 3b
       -0.0014980432 -0.0007930912 0.0010011957 0.0035493239
000360 ac a3 3e ba 70 a0 56 3a da 6f 72 39 38 49 ff 39
       -0.0007272314 0.0008187359 0.00023120586 0.00048691942
000370 77 af 53 3b fe a2 a7 ba 20 86 37 b9 dc fe 83 3b
       0.003230063 -0.0012789664 -0.00017502205 0.0040281843
000380 a8 91 de 39 6a 36 e8 3a a0 1b 75 3a 08 3e 98 3a
       0.00042451662 0.0017716412 0.0009350125 0.0011615166
000390 c2 cb 9b 3a 5e 92 13 3b bc 8a 45 3a bc b3 62 3b
       0.0011886286 0.0022517662 0.00075356266 0.0034591993
0003a0 d8 09 82 3b 7e 94 74 b9 2e 0f a3 ba 7e 25 29 3b
       0.0039684586 -0.00023324971 -0.0012440437 0.00258097
0003b0 ba 3c 01 3a 58 cf 9b 39 00 5a c5 36 09 f4 20 ba
       0.00049300084 0.00029718387 5.881535e-06 -0.00061398797
0003c0 a0 2e 05 39 06 67 29 3b f4 f7 82 3b bb f0 aa ba
       0.00012701238 0.002584876 0.0039968435 -0.0013041714
0003d0 6c 8e d9 39 23 5f 14 3b 20 19 67 3b 94 81 f3 b9
       0.00041495578 0.0022639714 0.0035262778 -0.00046445115
0003e0 7b 5e 07 3b cd 0a 8c 3a 53 ed 1f 3b 51 b4 8c 3b
       0.002065568 0.0010684371 0.002440293 0.0042939563
0003f0 48 00 48 b9 2a 56 75 ba c8 50 02 3b 00 70 a2 36
       -0.00019073591 -0.0009358848 0.0019884575 4.8410147e-06

momentum_buffer f4 [128]
000000 a2 dc 28 bb 40 14 1a 3b 4a 1a c1 3b ab 04 25 3c
       -0.0025766273 0.0023510605 0.0058930265 0.010071914
000010 8f b1 51 bc 68 d6 4d 3b 9c 97 ae bb 09 03 05 3c
       -0.012798681 0.0031408314 -0.005328132 0.008118399
000020 1e e0 94 3a 3c ee f4 3b 30 43 8d 3b 24 4e 75 b9
       0.0011358296 0.007474689 0.004310988 -0.0002339413
000030 d4 b4 b8 ba ec a8 a2 bc 88 0a 4d 39 8b 9a 94 3a
       -0.0014091977 -0.019855939 0.00019554247 0.0011337561
000040 bd 3e d8 33 00 a0 02 3a 94 ad c6 ba 26 15 b9 39
       1.0069696e-07 0.00049829483 -0.0015157931 0.00035301707
000050 d8 82 28 3c 4e a5 2b 3b 5d 07 8f bb 24 de be bb
       0.010285102 0.0026191059 -0.0043648914 -0.005824821
000060 04 30 8a 3c d8 d1 3f 36 dd 8a 7d bc 56 12 8c bc
       0.016868599 2.8583363e-06 -0.015475002 -0.017098587
000070 24 18 38 bb 39 35 9a 3c 40 ad 4a bb 1a a4 59 3b
       -0.002809056 0.018824207 -0.003092602 0.0033209384
000080 7c 5b 91 3a 97 e6 0d 3c 82 34 16 b8 dd 23 41 3c
       0.0011089887 0.008660934 -3.581169e-05 0.011788336
000090 d6 23 4c bb cd 4c da 3c e1 7f 3f bb 49 e3 19 3b
       -0.003114929 0.02664795 -0.002922051 0.002348142
0000a0 8d a5 9e 3a 2d a2 16 34 1d b6 95 3b 09 c0 a0 b9
       0.0012103781 1.4028838e-07 0.0045688287 -0.00030660655
0000b0 2b e9 52 b7 11 83 65 3c b1 03 e2 bb 04 00 00 00
       -1.2571264e-05 0.014008299 -0.0068974127 6e-45
0000c0 f0 01 ac ba bb ce 67 bc c8 82 c9 39 de 33 17 bc
       -0.0013123136 -0.0141484095 0.00038435147 -0.009228675
0000d0 83 4f 22 bc 9a 64 a1 bc 6e 1d 0d 3c 1c 58 9f b9
       -0.009906652 -0.01970129 0.008612974 -0.0003039249
0000e0 35 5b dc bb 10 b6 0f bc 75 02 73 3b 55 02 69 3b
       -0.00672474 -0.008771434 0.0037080322 0.0035554369
0000f0 b0 b1 6a bc d5 9b f9 3b 28 fa b6 b5 54 4c 46 bb
       -0.014324591 0.0076174536 -1.3632862e-06 -0.0030257897
000100 16 c1 91 3c dd 67 da 39 38 87 c1 39 10 9b d3 b9
       0.017792266 0.00041657584 0.00036912574 -0.00040360587
000110 1e fb 4a 3c 04 09 44 3b 10 0b 62 bb b9 3b 30 3b
       0.012388973 0.00299126 -0.0034491457 0.0026891066
000120 3e 29 22 3c eb 9c 0b bb 3c e3 e8 39 1c 45 8c bb
       0.009897528 -0.0021303247 0.0004441979 -0.0042806994
000130 cc 83 05 bb 68 05 02 bc de 1c 0f b7 73 6a 3a bd
       -0.0020372747 -0.007935859 -8.530185e-06 -0.045511674
000140 ea 62 6f 3c 93 ba a1 bb a0 8e be bc 60 dd cc 3a
       0.014610985 -0.0049355715 -0.023261368 0.001562994
000150 ff eb e4 bc e0 f4 43 bb ed 59 d0 3a 73 6b 62 bb
       -0.027944563 -0.0029900596 0.0015895941 -0.0034548908
000160 2d 4c 3f 3c c4 58 02 3c 04 17 9a b9 36 eb ae b9
       0.011675877 0.007955734 -0.00029390317 -0.00033363112
000170 cc 2b 32 35 d0 b7 9f ba 93 a1 12 bd c0 f1 18 3a
       6.63739e-07 -0.0012185518 -0.03579862 0.00058343634
000180 00 00 00 00 54 66 d7 3b 0c 0c eb bb f2 45 db 3b
       0.0 0.0065734778 -0.007173067 0.0066916877
000190 fb 41 b1 b9 c0 59 1a 3a b0 8e ca 3b f0 ca ad ba
       -0.0003380923 0.00058880076 0.0061815605 -0.0013259333
0001a0 a7 dc c4 bb 95 2e 2d 3c fe c3 da 3b 31 76 5a bb
       -0.006007749 0.010570188 0.006676196 -0.0033334608
0001b0 08 a0 05 bc 8a 99 1d bb aa 16 16 3c 46 a8 20 3c
       -0.00815583 -0.0024047815 0.009160677 0.0098057445
0001c0 00 72 fb 3b 29 ab 51 37 5d 39 e4 ba 80 4e f5 38
       0.007673502 1.2497222e-05 -0.0017412115 0.00011697132
0001d0 00 ac 6e bb 20 27 0e ba 60 74 5e 3b 86 99 b8 3a
       -0.0036418438 -0.00054227 0.0033943877 0.001408384
0001e0 e3 a0 85 ba ad 67 aa b8 d4 94 3f 3c ae 27 b7 3b
       -0.0010195043 -8.125543e-05 0.011693198 0.005589447
0001f0 6c 83 8b 39 42 8d 2a 3a ec a6 d5 3c 70 5d 24 3c
       0.00026610063 0.00065060344 0.026080571 0.010032043

momentum_buffer f4 [64, 128]
000000 ff b1 29 bc fc 17 38 3b ea 56 a0 bc c1 b6 7a bc
       -0.010357379 0.0028090468 -0.019572694 -0.015302361
000010 da a0 5b bc c8 2e b8 ba ce 6b 89 ba 54 6a a0 b9
       -0.013405049 -0.0014052028 -0.0010484399 -0.000305968
000020 80 d8 6e bb 06 af 92 bc 30 79 fb 3a 84 12 0f b8
       -0.0036444962 -0.017905723 0.0019185897 -3.41111e-05
000030 a8 70 bd bb a7 e5 ae bc 04 06 72 bc 5f 9d 9a 39
       -0.005781252 -0.021349741 -0.014771942 0.0002949042
000040 c4 bc 03 b2 b7 8f a0 bc 0d 0c 07 bc a1 7e 16 ba
       -7.668124e-09 -0.019599779 -0.008242619 -0.0005740915
000050 43 d2 38 bc 40 65 10 3b fe 24 20 ba 48 e0 b2 bb
       -0.011280599 0.0022033006 -0.0006109028 -0.0054588653
000060 73 ea 51 bc e1 6a e1 b4 12 b0 cf b8 f4 2f a0 bc
       -0.012812245 -4.198728e-07 -9.903325e-05 -0.019554116
000070 4e a3 c5 ba 70 6a 62 bb 12 66 52 3a 78 61 1a bb
       -0.0015078576 -0.0034548305 0.0008026074 -0.002355663
000080 f8 bc bf 39 8c b1 29 bc 4e e9 b0 b6 be aa 05 bc
       0.00036571152 -0.010357272 -5.272369e-06 -0.008158384
000090 70 bc 89 3a 69 14 5c bc 6c 8b 39 b9 55 1e 7c b9
       0.0010508429 -0.013432601 -0.00017694914 -0.00024043892
0000a0 db 59 b8 b9 00 00 00 00 9e c6 72 bb 1e bf ee 38
       -0.00035162162 0.0 -0.0037044655 0.00011384323
0000b0 4d 3a 3a af c8 5b 2d 3b e8 63 f2 38 04 00 00 00
       -1.6937314e-10 0.002645241 0.00011558068 6e-45
0000c0 c0 c7 d8 b9 b7 f9 98 bc a5 13 7e b9 a4 3a a6 bc
       -0.00041347556 -0.01867376 -0.00024230646 -0.020291634
0000d0 eb 6e ae ba f8 b3 b5 3a 5d 06 9a bb a0 94 05 39
       -0.0013308203 0.0013862839 -0.0047004656 0.00012739236
0000e0 2b be 93 bb 5d 9f 0c bc 57 7a 93 bc af 4c 19 bc
       -0.004508754 -0.008582917 -0.018002672 -0.009356662
0000f0 61 6b c5 bb a3 8b 2b 3b 7a c5 29 b4 32 80 d8 b9
       -0.0060247635 0.002617576 -1.5811193e-07 -0.00041294243
000100 9e 3f 91 3b d4 8c 36 36 bb c0 84 ba ea 44 12 bb
       0.0044326326 2.7202086e-06 -0.0010128239 -0.0022318908
000110 7e f6 0f 3b df 88 f5 b8 28 4f fc bb a6 c9 24 3a
       0.002196699 -0.000117080046 -0.007699866 0.00062861515
000120 37 02 72 3b 42 75 6f bc 5f 97 89 b9 09 19 83 bc
       0.003692759 -0.014615359 -0.00026243457 -0.016003149
000130 21 ce d3 3a 8a 64 9e ba a3 32 17 b3 52 cb bd bc
       0.0016159454 -0.0012084406 -3.520348e-08 -0.02316824
000140 ff c0 0e 3b 38 dc 2f ba 69 6e 5f bc 70 2d a7 3a
       0.0021782515 -0.00067085354 -0.013637164 0.001275463
000150 5e 66 4e bc 4f 9b f8 bb a0 7b 3a bb 67 c8 01 bc
       -0.012597648 -0.0075868736 -0.0028455034 -0.007921315
000160 d0 19 68 3b 00 70 be b5 59 5e 05 b7 ad 0c cf b8
       0.0035415776 -1.4188699e-06 -7.949385e-06 -9.87289e-05
000170 1d 3c 82 b3 1d 59 82 b9 cf b0 83 bc 8f 4b 00 bb
       -6.064531e-08 -0.00024861927 -0.01607552 -0.0019576286
000180 00 00 00 00 40 0a 65 39 59 b7 be bb 95 ae 78 bc
       0.0 0.0002184296 -0.0058201966 -0.015178342
000190 48 80 b5 b6 0c 60 1e bb a0 de 99 ba 9e c1 be bb
       -5.4091543e-06 -0.0024166135 -0.0011739321 -0.005821421
0001a0 50 ff ba b9 87 61 45 3b 05 37 09 3b 40 5f f3 38
       -0.00035666907 0.0030117945 0.0020937335 0.00011604885
0001b0 87 3b c7 bc d6 ae 03 bc ce 61 59 3b 5b cb 85 3b
       -0.024320377 -0.00803729 0.0033169868 0.0040830798
0001c0 24 0f 4c 3b 1b 5b 14 b6 b9 38 08 b9 c4 b4 9f 3a
       0.0031136954 -2.210675e-06 -0.00012991102 0.001218461
0001d0 50 bd ac ba 5e ce ac b8 c0 15 48 bb c8 24 30 bc
       -0.0013178978 -8.240038e-05 -0.0030530542 -0.010750957
0001e0 c6 95 94 b9 24 e3 89 b7 62 e8 34 3a c0 a5 bc b9
       -0.0002834035 -1.6437443e-05 0.0006901083 -0.00035981648
0001f0 6a 61 e3 39 f7 cb 81 b8 dd 2d 2d bc b8 3a 8c b9
       0.00043369393 -6.189191e-05 -0.010570017 -0.0002674663
000200 a1 82 a3 ba e0 69 ae 3a b8 3f 9e ba af c1 38 bb
       -0.0012474844 0.00133067 -0.0012073433 -0.0028191616
000210 3a 72 1c bb 78 ee df b8 cc e7 27 3a 42 4d 4d 3a
       -0.0023871795 -0.00010677887 0.0006405085 0.00078316417
000220 cb 68 9a ba 68 7e 5d bb 1e ad 48 3b ff f0 89 b7
       -0.0011780498 -0.0033797268 0.0030620764 -1.6443895e-05
000230 13 39 bb 3a f0 e6 8a bb 78 c2 b8 39 52 f8 a7 38
       0.0014283977 -0.0042389557 0.00035240105 8.009434e-05
000240 97 6a 7a b1 3a fb 13 bb 96 b3 92 3a 65 ff 96 b9
       -3.6440377e-09 -0.0022580163 0.0011192437 -0.00028800513
000250 d8 ee 20 39 3c 06 91 3a fc 44 87 b9 cb 2b a2 ba
       0.00015347765 0.001106448 -0.00025800604 -0.001237267
000260 42 3b 0b bb c4 75 24 b4 e6 56 a1 3a f9 c5 92 bb
       -0.0021245037 -1.5316533e-07 0.0012309223 -0.0044791666
000270 83 86 01 3b 00 9d e8 36 f4 df 8b 3a ec af 05 ba
       0.0019764013 6.932416e-06 0.0010671602 -0.0005099762
000280 53 dc 04 39 8b 03 19 bb 3b 22 82 b5 15 99 3f ba
       0.00012670578 -0.002334806 -9.695717e-07 -0.0007308883
000290 e0 f0 ea 39 18 9f ae 39 6a b0 6d ba 71 5b 12 b9
       0.00044811424 0.000333064 -0.000906712 -0.0001395771
0002a0 21 65 7f b9 12 46 07 26 52 fe 3e 3a 8f e4 48 36
       -0.00024356369 4.6932497e-16 0.00072858215 2.993536e-06
0002b0 a3 70 23 b4 c7 47 22 3a 08 e8 cc b8 04 00 00 00
       -1.5221535e-07 0.0006190505 -9.770697e-05 6e-45
0002c0 74 fa f8 39 ce 7b a7 ba f1 af d9 b8 ee 20 28 bb
       0.00047488848 -0.0012777986 -0.00010380138 -0.0025654393
0002d0 94 dd 97 3a 56 22 f6 3a 29 81 94 ba 2c 1e b0 38
       0.0011586421 0.0018778543 -0.0011329997 8.397954e-05
0002e0 e3 e9 8c ba 8d 46 7c ba d3 3c 03 bb 89 0c 25 ba
       -0.0010750856 -0.000962355 -0.0020025268 -0.00062961184
0002f0 1f 26 c9 ba 3c 5f 98 39 ac 96 7f b2 a6 a7 6b 3a
       -0.0015346444 0.00029062654 -1.4877212e-08 0.000898952
000300 ae 47 40 3b 8c 1b 41 38 e2 93 12 ba da 66 4f ba
       0.00293396 4.604044e-05 -0.0005591494 -0.00079117494
000310 1a ff 76 3a d9 ea 1f b8 50 6b 8f b9 d6 82 7f 3a
       0.00094221684 -3.8127273e-05 -0.0002735504 0.0009746974
000320 b8 1f b2 3a d0 2f e7 b9 09 3c a6 b8 ce 49 21 bb
       0.0013589775 -0.00044095377 -7.926679e-05 -0.0024610641
000330 2f 15 7c 3a 60 bf 60 b7 c9 b2 39 33 26 08 ac bb
       0.0009616194 -1.3395998e-05 4.3236273e-08 -0.005249995
000340 f4 54 d7 3a d8 d7 e0 b8 f2 f1 06 bb 50 78 b3 3a
       0.0016428516 -0.000107213564 -0.0020590988 0.0013692472
000350 1e 87 1a bb de 29 45 bb a8 d9 01 b9 1b 9b 2d bb
       -0.0023579071 -0.003008477 -0.00012383482 -0.0026490155
000360 29 8d 2f 3b 6a 66 5a 3b f3 46 d1 b5 5c d0 2d b9
       0.002678702 0.0033325204 -1.5592362e-06 -0.00016576186
000370 7d 98 c2 b2 34 4d ff 3a 96 2b 88 bb c1 f9 d1 3a
       -2.2653916e-08 0.0019477964 -0.0041555865 0.0016019867
000380 00 00 00 00 3e 03 6a 3a 83 0a 95 3a 0b 9f 27 bb
       0.0 0.0008926875 0.0011370931 -0.0025576975
000390 f0 e5 07 39 58 59 ef 39 ed 2b 11 ba a3 7e bb ba
       0.00012960262 0.000456522 -0.00055378565 -0.0014304708
0003a0 98 de e6 39 48 a1 fa 3a bb 6c c8 3a ec 06 f4 3a
       0.00044034864 0.0019121552 0.0015291193 0.0018617786
0003b0 e0 da 7c bb 92 5e f0 ba 4f 0a 37 3b bd b3 23 3b
       -0.0038582608 -0.0018338731 0.0027929728 0.0024978959
0003c0 ac 02 b6 3a a3 f2 38 b5 53 ae 61 b8 b1 0c 88 3b
       0.0013886294 -6.8898424e-07 -5.3806532e-05 0.0041519036
0003d0 0a c0 34 ba a9 3a 41 b8 00 8a 6a b9 32 71 2e bb
       -0.0006895071 -4.6069417e-05 -0.00022367388 -0.0026617763
0003e0 01 38 d4 39 42 4d 9a b7 e2 d5 06 3b be 6d a0 39
       0.00040477517 -1.8394207e-05 0.0020574261 0.00030599342
0003f0 d1 7d 1d 3a e7 d3 9a b7 1d 5f d2 ba 60 3d 38 38
       0.0006007823 -1.8456905e-05 -0.0016050074 4.392618e-05

momentum_buffer f4 [64]
000000 5f e1 d5 bc aa e9 9b bb 8c 05 3d bc 5d cb 96 bc
       -0.026108442 -0.0047580795 -0.011536967 -0.018407518
000010 04 00 00 00 57 71 73 bc 66 a3 8f 3b 96 4e a0 3c
       6e-45 -0.014858565 0.0043834923 0.019568723
000020 9c 74 f8 3b 76 af ec 3a d6 2e c0 3c c2 8d 19 bd
       0.0075822603 0.0018057663 0.023459833 -0.037488706
000030 0e 32 a3 3a 6b 88 92 3a a7 c3 40 bc 92 6d 16 3d
       0.001245083 0.0011179572 -0.011765397 0.03672559
000040 00 0c 93 3a 38 5b 75 bd 04 00 00 80 de d5 33 bc
       0.0011218786 -0.059901446 -6e-45 -0.010976283
000050 50 39 c6 3a 72 15 8e bb 2a 4d 24 bc c9 c1 03 3c
       0.0015123282 -0.0043360526 -0.010028163 0.008041807
000060 88 2f 6a 3c 5e 13 68 3c 39 f6 b3 3b 16 4f 3d 30
       0.014293559 0.014164774 0.0054919985 6.887019e-10
000070 14 cc 07 bd 00 75 f4 b7 95 7c be ba a9 31 6d 3c
       -0.03315361 -2.9141549e-05 -0.0014532978 0.014477172
000080 f4 7b f9 3b 5f dd da bc 55 0c 17 38 9b 1c 60 3c
       0.0076136533 -0.026716886 3.601269e-05 0.013678695
000090 4e e8 bd bb f4 8c 0a bd 3d 44 52 bc 1e e8 4f 3c
       -0.005795515 -0.03382583 -0.012833652 0.012689618
0000a0 f7 43 b3 35 00 00 00 00 04 a0 28 bb fe 41 60 38
       1.335632e-06 0.0 -0.0025730142 5.346722e-05
0000b0 63 73 95 3b 38 a0 b6 3c 66 84 d6 bc 9e 19 5f 3b
       0.0045608743 0.022293195 -0.02618618 0.0034042369
0000c0 be 3a 8d bb 36 a6 d4 3b b5 73 e9 b9 7a e7 29 3c
       -0.004309981 0.0064895405 -0.00044527432 0.01037013
0000d0 d8 fe 9e 3c 00 00 00 00 50 da 96 bb 46 66 23 bd
       0.019408628 0.0 -0.0046036616 -0.039892457
0000e0 00 2b e6 3b 32 da 24 bc 55 96 6a b4 de 0f 60 bd
       0.007024169 -0.010061787 -2.1847639e-07 -0.054702632
0000f0 84 5a f4 ba 6b b5 92 37 a0 fb 14 3b 59 b9 14 3d
       -0.0018642698 1.7489036e-05 0.0022732988 0.036309574

momentum_buffer f4 [5, 64]
000000 d7 62 53 3d d6 1f b6 3c 30 4c 33 3d e6 b4 51 3c
       0.051607933 0.022231977 0.04377383 0.012799477
000010 04 00 00 80 d4 95 21 3c be 17 2c 3b ea c0 8b 3c
       -6e-45 0.009862382 0.0026259269 0.017059762
000020 74 30 20 bd ac 50 1d 3a b4 ea 75 bb 5a 56 94 3d
       -0.03910871 0.0006001096 -0.0037523927 0.07243033
000030 c4 83 f0 ba 44 ee 83 3a 69 08 84 3c 81 29 1b 3d
       -0.0018349816 0.0010065516 0.016117292 0.037881378
000040 b4 aa fe 3b 7e 2f b1 3d 04 00 00 00 de fb 41 3d
       0.0077718142 0.086516365 6e-45 0.04735934
000050 4b a5 bb bc 16 b3 dd 3c c7 51 9c 3b f2 6f 5d bd
       -0.022905966 0.027062934 0.004770491 -0.054061837
000060 82 31 44 bd f6 98 80 3b a2 b1 75 bc 83 38 0f af
       -0.047898777 0.0039244844 -0.014995964 -1.3025851e-10
000070 a4 87 67 3d d1 56 00 bc 20 96 a4 39 7f cf b9 3b
       0.05652584 -0.007833199 0.0003139237 0.0056704874
000080 54 aa 45 3c d9 27 62 3d e1 c1 da b7 27 58 08 3c
       0.012064535 0.055213783 -2.6077907e-05 0.008321798
000090 83 fa a0 bc 32 35 3d 3d 64 52 3d 3b 5e f4 98 ba
       -0.019650703 0.04619331 0.002888822 -0.0011669507
0000a0 94 38 8c b4 00 00 00 00 5c ec 58 3b 49 06 96 b6
       -2.6118198e-07 0.0 0.0033099866 -4.47108e-06
0000b0 55 04 85 3c 06 e1 50 3c ce 93 6e 3d cb c6 ab bc
       0.016237417 0.012748962 0.058246426 -0.020968815
0000c0 40 d3 b2 3b 6c 6b ed bb 88 d5 1c 3b 67 d8 31 3d
       0.005457312 -0.0072454717 0.0023930985 0.043419268
0000d0 91 df 9c 3c 00 00 00 00 be 87 bd 3c 68 40 a5 3d
       0.019149574 0.0 0.023136016 0.08068925
0000e0 c4 27 10 bd ca d8 bb bc 1c e4 11 33 b4 1d 8d 3d
       -0.035194173 -0.022930522 3.3967908e-08 0.06890431
0000f0 fb 79 ad b9 88 aa 7f 34 f1 f0 6d bd b2 55 e3 3c
       -0.00033088014 2.3810765e-07 -0.058091108 0.027750824
000100 f8 2b a9 3b aa dc 42 3c dc 00 86 3c 80 3f 4e ba
       0.005162712 0.011893431 0.016357832 -0.00078677386
000110 04 00 00 00 10 2a b3 ba 69 a3 52 3a c6 45 ac 3b
       6e-45 -0.0013669152 0.0008035214 0.005257341
000120 fe a0 47 3c d6 28 5c 39 79 df ce 3c 13 99 14 3b
       0.01218438 0.00020996048 0.025253044 0.0022674247
000130 72 64 87 3b c8 37 0d 3a 87 14 19 3c ec 3c b6 3c
       0.004131847 0.0005387035 0.009343273 0.022245847
000140 28 46 a0 3c bc 2d 16 3a 04 00 00 00 aa 1c 23 bc
       0.019564703 0.0005728861 6e-45 -0.0099555645
000150 80 ca 88 b9 99 db a2 3b 60 27 86 b9 44 d7 91 3c
       -0.00026090816 0.0049700257 -0.00025587808 0.017802842
000160 0c 8d 89 3c b2 48 14 ba 78 84 16 bb 2a b0 65 af
       0.01679089 -0.00056565844 -0.002296714 -2.0890015e-10
000170 fc b2 96 b9 b8 1d e7 3b 70 b9 50 ba 54 ca 57 3c
       -0.00028743583 0.0070531033 -0.00079622027 0.013170797
000180 ea 93 bd 3b 98 59 7d 3b 01 bd 9a b5 e4 e2 91 3a
       0.005785455 0.0038658138 -1.1528901e-06 0.0011130241
000190 86 8b 45 3c 08 c2 05 ba ee b1 b4 bb 66 c0 e4 3b
       0.012057191 -0.000510246 -0.005514375 0.0069809435
0001a0 65 12 39 af 00 00 00 00 4b 27 ee 3b b6 d6 95 36
       -1.6832187e-10 0.0 0.0072678677 4.4655417e-06
0001b0 02 a7 22 3c b2 09 14 3c d0 40 a4 39 dc 8f 3c 3c
       0.009927513 0.009035515 0.00031328807 0.011508908
0001c0 ee 6a 03 bc bb 32 f6 3a e0 26 66 39 91 9e 0c 3c
       -0.0080210995 0.0018783429 0.00021948991 0.008582727
0001d0 f4 56 07 3b 00 00 00 00 a9 c5 a7 3b 88 e3 89 3b
       0.0020651193 0.0 0.0051199985 0.004208032
0001e0 7e 5c 81 3c e0 cf 71 3a 68 21 b4 32 7f d1 fd 3a
       0.015791174 0.0009224396 2.096995e-08 0.0019364803
0001f0 d7 65 57 ba 5c 71 ce 34 7c 31 68 3c ac 1a 41 3c
       -0.00082167744 3.845297e-07 0.014171954 0.011786144
000200 14 58 10 ba 1c d9 09 bc 66 e8 6f bc c4 f8 b6 bc
       -0.0005506289 -0.008413579 -0.01464281 -0.022335418
000210 04 00 00 00 d9 8e a7 bc 98 40 01 b6 e2 ad 69 bc
       6e-45 -0.020453857 -1.9260096e-06 -0.014262648
000220 50 4e ac bc 41 d0 91 ba de fd 6b bc d5 68 70 bb
       -0.021033436 -0.0011124687 -0.014403788 -0.0036683579
000230 ee 78 a7 bb a0 8b bf 35 74 44 bf bb f3 e0 12 bd
       -0.0051108515 1.4271245e-06 -0.0058370177 -0.03585906
000240 c6 b0 7f bc a5 7c 9d bb 04 00 00 00 d7 b0 65 bc
       -0.015606111 -0.0048061186 6e-45 -0.014019213
000250 b9 00 c3 bc 08 ca 3d bb 97 79 6a bc ec a9 9f bc
       -0.023804056 -0.0028959531 -0.014311216 -0.019490205
000260 d6 35 1e bd a4 5e a7 ba ee 08 21 bc 63 65 9c b0
       -0.03862556 -0.0012769294 -0.009828789 -1.137931e-09
000270 6a 61 9f bb f7 b7 1e bc 30 1e bf ba 2a 5a f9 bb
       -0.0048639076 -0.009687415 -0.001458114 -0.0076096253
000280 04 45 2b bc 18 87 fd ba c7 6d 87 b6 e4 cd 58 ba
       -0.010453466 -0.0019342629 -4.0360933e-06 -0.0008270426
000290 94 8f e7 bb 43 68 03 bb 70 9a 55 bc ea 44 be bb
       -0.0070666764 -0.0020051158 -0.013037309 -0.005806555
0002a0 98 26 a7 31 00 00 00 00 d2 ec e3 bb 70 17 e6 35
       4.8647273e-09 0.0 -0.0069557214 1.7143157e-06
0002b0 fb 50 08 bc cc 7c c7 bc a5 38 d4 bb 60 27 36 bc
       -0.0083200885 -0.0243515 -0.006476479 -0.011117786
0002c0 36 b6 be bc bb 64 a6 ba 92 c6 6d 39 ea 1c 30 bc
       -0.023280244 -0.0012694815 0.00022676055 -0.010749081
0002d0 41 9d 29 bc 00 00 00 00 4a 06 34 bc c0 88 62 bb
       -0.010352434 0.0 -0.010987828 -0.0034566373
0002e0 25 f7 d4 bc 48 81 be bc ae b4 b3 30 bb 05 36 bb
       -0.025996754 -0.023255005 1.3075316e-09 -0.0027774412
0002f0 3a 8e f9 b9 50 2b 46 34 76 e8 22 bd f3 3a 2b bd
       -0.00047598948 1.8455944e-07 -0.039772473 -0.041804265
000300 6b 70 04 b9 ff 2d cc 39 22 c4 52 ba 06 59 38 3b
       -0.0001263038 0.00038944182 -0.00080400903 0.0028129234
000310 04 00 00 00 39 80 74 3b 63 55 bc 39 fa 89 99 39
       6e-45 0.0037307872 0.00035921772 0.00029285235
000320 1c ba 34 3b 3f e1 1a 39 8c 6c a2 ba 62 01 12 b9
       0.002757675 0.00014770495 -0.0012391969 -0.0001392416
000330 9e 0a d0 39 b0 d6 86 39 48 e6 f9 38 d9 d7 81 3b
       0.00039680762 0.00025718426 0.000119161385 0.0039624986
000340 ae f6 c0 3a 1c 99 22 3a 04 00 00 00 36 8b 1a 3b
       0.0014721954 0.00062026246 6e-45 0.0023581511
000350 82 7f 93 3b 00 d7 c3 b9 64 e6 8a 3a af f4 3b 3a
       0.004501284 -0.00037353486 0.0010597226 0.00071699446
000360 41 fe af 3b 80 66 86 39 34 16 6b 3a 25 25 b8 b0
       0.0053708856 0.0002563484 0.0008967847 -1.3398319e-09
000370 36 f7 c3 39 f8 40 37 3b 74 6f 82 39 f4 85 eb b9
       0.00037377485 0.0027962308 0.0002487857 -0.00044922496
000380 82 5b 0e 39 bc 22 e7 39 ea cb 36 b4 df 88 0b 3a
       0.00013576265 0.00044085633 -1.7024254e-07 0.00053228246
000390 81 1b b4 b9 1e 11 4b b9 92 50 45 3b 63 44 83 3a
       -0.00034352767 -0.00019365965 0.0030107838 0.0010014888
0003a0 4b 8b 05 33 00 00 00 00 57 bb 03 ba 64 6e 5c 36
       3.1093162e-08 0.0 -0.0005025169 3.284681e-06
0003b0 ee 03 0b ba b0 45 ef 3a 32 fe 49 3a 5c 80 1d 3a
       -0.0005303015 0.0018255021 0.00077054196 0.0006008202
0003c0 73 12 98 3b 60 ed fa 39 12 e0 7d 38 b6 28 b8 39
       0.004640871 0.00047860574 6.0528582e-05 0.00035125547
0003d0 5b d6 69 3a 00 00 00 00 9a 8b ab 3a 8e e8 07 3a
       0.0008920186 0.0 0.0013087869 0.00051844947
0003e0 0f 17 5d 3b 1a bb 90 3b a9 9f 81 af d1 d2 7d 39
       0.0033735668 0.0044168355 -2.357841e-10 0.00024206495
0003f0 44 7c 38 39 98 92 48 33 f6 cb f0 3b 86 6d 98 3b
       0.000175939 4.6699455e-08 0.007348533 0.004651728

momentum_buffer f4 [5]
000000 67 6f c8 3d 82 f1 9b 3c 60 ab 1c bd 12 c1 88 3b
       0.09786873 0.019036058 -0.038249373 0.0041734064
000010 e1 a2 c0 3a
       0.0014696979

conv1.weight f4 [10, 5, 4]
000000 7f da 04 be 0b 65 03 be 96 f7 f4 3e c9 61 82 be
       -0.12973975 -0.12831514 0.47845143 -0.2546523
000010 76 0c 15 be 6e bd e3 bd 03 71 ef be 70 c5 b0 3d
       -0.14555535 -0.11120115 -0.4676591 0.08631408
000020 69 78 b6 bd ee e7 56 be 65 bd 68 be 2d 2e 50 be
       -0.08909685 -0.20986912 -0.22728498 -0.20330115
000030 2a 20 93 bd 1d 75 20 bd 80 54 e8 bd 0c 06 d2 3b
       -0.07183869 -0.039174188 -0.11344242 0.0064094122
000040 41 7c 10 be 5f 3a 0e 3c 0d a4 4d be fe 25 7c be
       -0.14109899 0.008680909 -0.20082112 -0.24623868
000050 53 ed b8 3e 4e d7 f5 3e 54 bc 00 bf db 47 45 bc
       0.36118564 0.48015827 -0.50287366 -0.012041057
000060 7a 8c 89 bc 77 0c 85 3c c5 fe ae be 8c 07 b0 bd
       -0.016790617 0.016241295 -0.3417875 -0.085951895
000070 06 90 95 bd 62 02 c5 3d 2f ee 16 3c ee d9 93 3d
       -0.07302861 0.09619595 0.009212061 0.07219301
000080 62 f6 03 be b9 80 e5 3d 3d 75 be bc 1a eb 1b be
       -0.12886956 0.112061925 -0.023249263 -0.15226403
000090 1f 29 55 bd 17 88 8f bc 88 45 36 3e 4a 48 2c be
       -0.05204117 -0.017520947 0.17799962 -0.16824451
0000a0 34 78 97 bd fe 58 d0 3c 3e bd ef bd 98 56 17 be
       -0.07395974 0.02543306 -0.11706017 -0.14779127
0000b0 98 c3 3a 3e b4 17 70 3e cf 4a 3c 3e 91 dc 51 be
       0.18238676 0.23446542 0.18387912 -0.20494296
0000c0 30 16 fa bd 67 bb 17 bd f7 a1 33 be e3 9c 19 be
       -0.12211263 -0.037043955 -0.17542253 -0.15001254
0000d0 da 91 3f be ad 0d 6e be cd 67 8e bd b7 4b 53 be
       -0.18707982 -0.23247404 -0.06953392 -0.20634352
0000e0 02 bf a6 bd b1 4d 2d be 0b b4 64 3d 68 12 f2 bd
       -0.081419006 -0.16924168 0.055835765 -0.11819917
0000f0 70 f3 b2 3e f0 14 68 3e 67 ce be be ea d3 83 be
       0.34951353 0.22664237 -0.37266847 -0.25747615
000100 64 37 23 be 7b ff cb bd 2b 72 93 bd 95 c4 e5 3c
       -0.15939099 -0.099608384 -0.0719951 0.02804784
000110 2b 27 31 be 74 e6 97 3b 3c a4 2f be 68 7d 14 3c
       -0.17300098 0.0046356265 -0.17152494 0.009063102
000120 42 5b 24 be 42 bb a4 3d 56 71 ea 3d 93 6f 43 bd
       -0.16050437 0.08043529 0.11447398 -0.047713827
000130 f9 4a 50 3e be 1d c0 3d 31 3d aa 3c aa 07 8d 3d
       0.203411 0.09380673 0.020781131 0.068862274
000140 82 b0 aa 3e 2d a5 6d 3d 9f 2a 55 3e 37 9a a3 bd
       0.3333779 0.058018852 0.2081704 -0.079883985
000150 72 24 a3 3e e3 c6 11 be b2 5a 97 be d4 5e 4b bc
       0.31863743 -0.14236026 -0.29561383 -0.0124127455
000160 5d 0c 29 be 24 f2 9d 3d ec 47 32 be 39 4b 92 bd
       -0.16508622 0.077122 -0.17410249 -0.07143254
000170 32 ec f4 bd b0 17 90 3c 66 db 81 3d 0d 84 c2 3d
       -0.11959113 0.01758942 0.06340675 0.09497843
000180 34 d8 e0 3b 5c 39 8d bd c0 9e fa 3b 40 fe 8e b9
       0.006861711 -0.06895706 0.007648319 -0.00027273782
000190 cf b2 84 be cc f1 00 bc 6e cf 35 be 2a 78 25 3e
       -0.2591767 -0.007870149 -0.1775491 0.1615912
0001a0 39 1a 91 bd 9a 28 f3 3e 19 10 49 be d3 cf fc 3d
       -0.0708508 0.47491914 -0.19635047 0.12344327
0001b0 48 74 20 3d 37 54 02 3e c6 68 3e 3d c4 81 ca bd
       0.039173394 0.12727438 0.04648664 -0.09888032
0001c0 b3 1d d9 3d d1 c9 c5 bc d5 e0 85 bd 22 d9 14 3d
       0.10601368 -0.024144085 -0.06537024 0.036339886
0001d0 5f ca 42 be d0 df 02 3e 93 52 9b bd 11 2d d1 bd
       -0.19022511 0.1278069 -0.07584109 -0.10213674
0001e0 e6 59 a3 3d 99 83 85 be 7a 71 ac 3e 0d 0d dd 3e
       0.07976131 -0.26076964 0.33680326 0.4317402
0001f0 d7 fa 84 bd 59 74 97 be 18 a5 cc bd b6 3d d4 3e
       -0.064931564 -0.29580954 -0.09992427 0.41453332
000200 2a 82 9d bd 5b 59 3f 3e d0 94 8a be 36 5f 27 bd
       -0.076908424 0.1868643 -0.2706666 -0.040862285
000210 58 1f dc 3d 6d 82 1b be 82 66 82 3a 09 07 29 3e
       0.10748166 -0.15186472 0.0009948763 0.1650659
000220 43 f1 16 bd c1 d7 39 bc ba 25 af 3d 21 31 68 3d
       -0.03685118 -0.011342944 0.08552118 0.056687478
000230 0f d9 93 be c9 09 3f 3e 13 4a 0b be af 41 e5 3d
       -0.2887654 0.18656076 -0.13602476 0.11194169
000240 12 9c 26 be 0d 37 52 3d 5c 1b 81 3e 5b 64 91 be
       -0.16270474 0.05132203 0.25216186 -0.28396878
000250 77 d0 5d be 4d 65 61 3e dd 67 01 3e d3 ab 61 be
       -0.21661554 0.220113 0.12637277 -0.22038202
000260 b0 fd 8b bd 29 6b b0 b9 1c 3a 6d 3e dc 29 a3 bd
       -0.068354964 -0.00033649176 0.23166698 -0.079669684
000270 60 eb f0 3d 48 4f d2 3d 9f eb 95 3d 54 2b 06 3e
       0.11763644 0.10269028 0.07320332 0.13102466
000280 06 b3 b3 3c bc f3 c7 bd b3 dd 53 3d aa 5c 55 3e
       0.021935951 -0.097632855 0.0517251 0.2083613
000290 cd 96 04 be 36 58 eb bc 8b a0 1e be 45 43 a2 be
       -0.12948151 -0.028728586 -0.1549093 -0.31691948
0002a0 a6 b3 c9 bd 82 8a 20 3b a8 0c 3a be 33 50 54 3e
       -0.09848718 0.002449662 -0.1816889 0.20733719
0002b0 45 04 89 3d ef 77 8b bd 33 25 21 3d d7 35 3f be
       0.066902675 -0.06809985 0.039342117 -0.18672882
0002c0 f0 47 64 be 8f a9 94 3b 9c 2c 35 be d5 31 dd 3d
       -0.22293067 0.0045368145 -0.17692798 0.1080052
0002d0 2e 3b 03 be 54 ee c5 3d 04 50 8b 3e 7d 6e 16 3f
       -0.12815544 0.09664598 0.27209485 0.5876234
0002e0 0a 78 76 3d 69 90 60 bd d7 00 83 3e 4a b9 39 be
       0.060173072 -0.05482522 0.25586578 -0.18137088
0002f0 4a c7 2a 3e f1 d2 ca 3d 0f 78 93 bd d1 d9 ba 3d
       0.16677585 0.09903515 -0.07200634 0.091235764
000300 3e 1a 37 3d 70 84 6b 3e 6b 14 39 3e 6c f9 08 3d
       0.04470276 0.2299974 0.18074195 0.033440992
000310 41 ec 4b 3e b7 1c 71 3d d5 45 ca bc 0b ac 91 3d
       0.19914342 0.058865275 -0.024691502 0.07112893

conv1.bias f4 [10]
000000 21 38 8f bc 2d 8c 6d bd 97 67 a8 3d 59 88 d3 3c
       -0.017482819 -0.05799501 0.08222883 0.025821852
000010 3f 78 7f 3d 0b 67 94 3d 6a c0 0b 3e 2b e3 0c 3d
       0.062370535 0.072462164 0.13647619 0.03439633
000020 8f 03 8f 3d d5 e2 ed bd
       0.069831006 -0.116155304
