models/20epochs_1.0.3.pth (torch_old, 265750 bytes, 12 tensors)

conv1.weight f4 [10, 5, 4]
-0.20181483 -0.014219629 -0.17702128 -0.12331549 -0.13618985 -0.003053749 -0.09808764 0.036925655
-0.12762457 0.1271183 -0.12787436 -0.16629574 -0.22020374 0.10794213 0.14559507 0.44747764
0.15187146 -0.29622683 0.09427271 -0.017858397 0.0008825362 -0.00022050996 0.106793016 0.10949445
-0.14196298 -0.26604682 -0.019270727 -0.14828652 0.05730252 0.040699925 0.16553526 -0.048807308
-0.18129705 -0.18448836 -0.1778244 -0.1789482 -0.26356867 0.39588958 -0.024749503 -0.3031599
-0.11515961 -0.14037657 0.13462554 0.052766614 0.110661775 0.08121449 -0.18047795 -0.03493665
0.1894045 -0.020656956 -0.12422407 -0.18071288 -0.2408977 0.097534455 -0.45316708 -0.15197586
0.008303202 -0.11248722 0.46942344 0.23620957 0.2638129 -0.2127398 0.08723424 -0.20402017
-0.1014867 -0.042560354 0.020255337 0.11890774 0.02899877 0.039215975 -0.09024625 -0.01768313
-0.06272055 0.2757775 0.032519422 0.05991342 0.22874951 0.19434455 0.10525043 0.2461267
0.052022085 -0.04803545 0.10712177 0.03550834 -0.13285741 0.117184795 -0.012580334 -0.1288667
-0.0041306904 0.019102054 0.04672147 0.06920978 -0.03140273 0.36655262 -0.033187896 -0.25068346
0.13588814 0.42194727 0.33035722 -0.58199215 -0.16705424 0.15003648 -0.12458072 -0.11491026
-0.26993546 -0.13497421 0.10842985 0.15400623 -0.18468013 -0.2772334 0.020453649 -0.10041359
-0.28809565 0.017409256 0.121841036 -0.0011261163 -0.52523476 -0.53792244 -0.0654122 -0.052313436
0.0011710494 0.11562583 -0.2100349 0.101082675 -0.06813931 -0.020095477 0.028657947 -0.052527696
-0.15724769 -0.07795557 -0.015612381 -0.0621526 -0.18745078 0.21054171 -0.19258432 0.23522852
-0.2052448 -0.07445371 0.22343999 0.2935244 0.11048761 0.18773623 -0.052990228 -0.06943595
0.042511217 0.051492266 -0.0083388565 -0.1371214 -0.03207726 0.18228626 -0.15965359 -0.053693533
0.26178026 0.0055210777 0.085502625 -0.1504766 0.18280342 -0.19373767 0.48288718 0.24379198
-0.14412616 0.013225378 -0.05972193 0.15072656 0.1125714 0.25420964 -0.10381929 0.013508287
-0.12105876 0.0087825805 -0.021214485 0.020762708 -0.1523652 -0.6220531 0.15888368 0.10369845
-0.33345988 0.34784114 -0.0232988 0.021086572 -0.07358176 0.09028285 0.04522782 -0.153943
0.14526778 -0.06435962 0.026042564 0.123557724 0.18277998 -0.103430524 -0.07744521 -0.107907355
0.41857123 -0.06814101 -0.28409776 0.04396293 0.4176843 -0.37490916 -0.29090187 0.05833045
00000000: 8ca8 4ebe 72f9 68bc 1145 35be d58c fcbd
00000010: 5a75 0bbe 6821 48bb 2ce2 c8bd 5b3f 173d
00000020: 04b0 02be 4d2b 023e 7ff1 02be 6e49 2abe
00000030: 177d 61be c310 dd3d e016 153e ca1b e53e
00000040: 3184 1b3e 0bab 97be 0d12 c13d c64b 92bc
00000050: 005a 673a b138 67b9 4cb6 da3d a03e e03d
00000060: be5e 11be 4a37 88be a5dd 9dbc 6cd8 17be
00000070: 0cb6 6a3d f7b4 263d 1382 293e 2cea 47bd
00000080: efa5 39be 84ea 3cbe 9917 36be 323e 37be
00000090: 79f2 86be 0ab2 ca3e 78bf cabc c637 9bbe
000000a0: cdd8 ebbd e0be 0fbe 47db 093e ce21 583d
000000b0: a4a2 e23d c853 a63d 36cf 38be bc19 0fbd
000000c0: 41f3 413e c738 a9bc 3069 febd cc0c 39be
000000d0: e3ad 76be 25c0 c73d 8405 e8be 8f9f 1bbe
000000e0: 270a 083c b35f e6bd 4558 f03e ece0 713e
000000f0: 7c12 873e 76d8 59be dda7 b23d aaea 50be
00000100: 42d8 cfbd c453 2ebd 85ee a53c e785 f33d
00000110: d48e ed3c eea0 203d 07d3 b8bd 36dc 90bc
00000120: a273 80bd b532 8d3e 1633 053d c667 753d
00000130: 503d 6a3e 4202 473e 8a8d d73d a308 7c3e
00000140: 1c15 553d d2c0 44bd a962 db3d 3171 113d
00000150: c60b 08be 95fe ef3d bf1d 4ebc a2f5 03be
00000160: be5a 87bb e97b 9c3c 035f 3f3d dbbd 8d3d
00000170: 26a0 00bd c9ac bb3e 08f0 07bd 9559 80be
00000180: 4326 0b3e 7909 d83e 9524 a93e 70fd 14bf
00000190: 4410 2bbe 2aa3 193e 2d24 ffbd 1256 ebbd
000001a0: fb34 8abe ae36 0abe 7810 de3d cfb3 1d3e
000001b0: ca1c 3dbe 89f1 8dbe 698e a73c a4a5 cdbd
000001c0: 4681 93be db9d 8e3c cb87 f93d 319a 93ba
000001d0: c975 06bf 49b5 09bf d5f6 85bd 9d46 56bd
000001e0: e67d 993a 3ccd ec3d 6413 57be 6f04 cf3d
000001f0: 9f8c 8bbd 459f a4bc 12c4 ea3c 4827 57bd
00000200: 8a05 21be 2ba7 9fbd 12cb 7fbc ba93 7ebd
00000210: 19f3 3fbe 3f98 573e d334 45be bfdf 703e
00000220: b12b 52be 307b 98bd 74cd 643e d548 963e
00000230: 5447 e23d ed3d 403e 480c 59bd 6f34 8ebd
00000240: 3e20 2e3d 8ee9 523d b39f 08bc 8d69 0cbe
00000250: 7263 03bd 40a9 3a3e 3b7c 23be c0ed 5bbd
00000260: 1008 863e 28ea b43b 001c af3d 8a16 1abe
00000270: d230 3b3e 2b63 46be fd3c f73e 9ba4 793e
00000280: cf95 13be 41af 583c fc9e 74bd 1058 1a3e
00000290: d68b e63d c427 823e 359f d4bd dd51 5d3c
000002a0: a8ed f7bd d0e4 0f3c 00ca adbc 8e16 aa3c
000002b0: 9f05 1cbe df3e 1fbf 67b2 223e da5f d43d
000002c0: 41bb aabe 3c18 b23e 20dd bebc bfbd ac3c
000002d0: 09b2 96bd 37e6 b83d ce40 393d 3ca3 1dbe
000002e0: 14c1 143e face 83bd 3757 d53c d50b fd3d
000002f0: ad2a 3b3e 62d3 d3bd 989b 9ebd 88fe dcbd
00000300: f84e d63e 848d 8bbd 4375 91be 7912 343d
00000310: b7da d53e 18f4 bfbe 17f1 94be e9eb 6e3d

conv1.bias f4 [10]
0.30210778 0.008168744 0.22321595 -0.09097825 0.08038003 0.14006689 0.22451958 -0.26311037
0.14349349 0.0073560863
00000000: dfad 9a3e 32d6 053c b992 643e ce52 babd
00000010: 499e a43d b26d 0f3e 76e8 653e 67b6 86be
00000020: f5ef 123e 530b f13b

fc0.weight f4 [64, 290]
-0.053654127 0.031696558 -0.030854262 -0.013310278 -0.02948306 -0.060514007 0.050903846 0.05306115
-0.049252644 -0.034811337 0.010392632 -0.041672908 0.042766947 -0.04624262 0.048409056 -0.039377037
0.0062083425 -0.052601997 -0.041604567 -0.034861736 0.009210839 -0.02023468 -0.05282435 0.054122433
0.048556063 0.03580025 -0.047370676 -0.022748396 -0.029550198 0.054112405 -0.047874387 -0.00755006
-0.04782117 -0.036308784 0.04025607 0.036688913 0.0066905306 -0.044980913 -0.044087246 -0.01919725
0.009832428 0.00258966 0.020540621 0.029436491 -0.037566263 -0.017944682 0.05180016 0.04728891
-0.0067853443 -0.00013710286 -0.02052082 -0.015625598 0.022039946 0.032787643 0.024011213 -0.032754157
0.023354895 0.05602681 -0.03015567 0.009445205 0.013107483 -0.05358208 0.049481124 -0.052350182
0.03677561 0.045149684 0.056761716 -0.034665193 -0.044481415 0.03672127 0.027416522 0.0387664
-0.0147187505 -0.03250816 0.019030163 -0.03242367 -0.05360001 -0.034287743 -0.027015867 -0.04355183
-0.005550821 -0.008997429 0.009963173 -0.04812695 -0.0013586966 -0.013601309 0.0349245 0.04645484
0.020727271 -0.038647417 0.013562017 -0.0012563444 0.006960134 -0.009457381 -0.0062607084 0.036672466
-0.04166957 -0.05100038 0.02558724 -0.008363382 -0.024865825 -0.03223694 0.037313644 0.051955
0.030072624 -0.052374713 -0.011790037 -0.044487286 0.003166892 -0.05813265 -0.009042571 -0.028868968
-0.020107403 0.013000365 -0.029163089 -0.012663543 0.055474862 -0.032595374 -0.037752036 -0.056003936
0.041623905 0.05479747 -0.03477833 -0.016388558 -0.017279658 0.02752007 0.002037318 -0.037030477
0.033142257 -0.02311023 -0.035445247 0.039154813 -0.025914792 0.05768218 -0.019647293 -0.032370355
-0.028741512 -0.024054391 -0.028055066 0.0033335716 -0.00950806 -0.054886635 -0.03982251 -0.017308457
0.0041523804 0.029482564 0.041756824 0.028954875 0.0061338637 0.003701277 0.011876877 -0.02475278
-0.017763523 0.020238843 0.039019767 -0.0065439343 -0.050454877 -0.038633015 -0.03856865 -0.006561301
0.0054182876 -0.011229395 -0.031876426 -0.0060303123 -0.054831427 -0.00086119666 0.0065925317 -0.023798957
-0.029172014 0.038174335 -0.024061564 0.052578356 -0.03697369 0.03368596 0.022295719 0.017468954
0.0001864677 0.04131253 -0.007818306 -0.055657245 0.025687065 0.011907305 -0.0040490194 0.048934538
0.022714114 -0.020825043 -0.0550337 -0.013924266 0.025068918 -0.009873798 0.036150217 -0.049660057
0.052917205 -0.012657401 -0.007621532 0.0016527714 0.04359644 0.020746917 0.006364593 0.04466732
-0.024340587 -0.042091638 0.031709787 0.058894765 0.004562826 -0.047592267 0.005675943 -0.0064719454
-0.04476536 -0.035817456 0.03284477 0.023608899 0.0037034515 0.011702877 -0.045613185 0.02380669
0.007303965 -0.025563523 0.047840517 -0.0531354 0.021566853 -0.005470358 0.03461428 0.042212524
-0.057400595 -0.0018841348 0.044268847 -0.0046967226 0.020970678 -0.057904862 0.05005952 -0.036858447
0.023534287 -0.011848927 0.05024907 -0.009442673 -0.04217552 -0.029130422 0.04631692 -0.04365428
-0.019922966 -0.034780413 -0.061145913 -0.012080725 -0.025285773 0.020776384 -0.0017441115 0.038346
0.034997478 0.0016524512 -0.039476003 -0.018090364 0.018162476 -0.045733493 0.0053700074 0.021636933
00000000: 6ec4 5bbd 40d4 013d 14c2 fcbc 5a13 5abc
00000010: 7586 f1bc 89dd 77bd 8d80 503d a656 593d
00000020: 24bd 49bd 5596 0ebd dc45 2a3c 36b1 2abd
00000030: 652c 2f3d e768 3dbd 9348 463d d149 21bd
00000040: 5a6f cb3b 3175 57bd 8d69 2abd 2ecb 0ebd
00000050: 0fe9 163c 33c3 a5bc 585e 58bd 7caf 5d3d
00000060: b9e2 463d 48a3 123d c107 42bd d85a babc
00000070: 4213 f2bc f8a4 5d3d ef17 44bd 7e66 f7bb
00000080: 22e0 43bd 85b8 14bd 8de3 243d 1d47 163d
00000090: 3d3c db3b e83d 38bd d494 34bd 8d43 9dbc
000000a0: 3118 213c 49b7 293b ce44 a83c cc24 f13c
000000b0: 15df 19bd ba00 93bc 682c 543d 04b2 413d
000000c0: 9857 debb 45c3 0fb9 471b a8bc 4101 80bc
000000d0: 1e8d b43c 564c 063d 2ab3 c43c 3929 06bd
000000e0: c452 bf3c 5e7c 653d 0609 f7bc 10c0 1a3c
000000f0: c5c0 563c e278 5bbd b8ac 4a3d 256d 56bd
00000100: 06a2 163d e0ee 383d f97e 683d 17fd 0dbd
00000110: 2532 36bd 0b69 163d 9d98 e03c 84c9 1e3d
00000120: ea26 71bc 4727 05bd 25e5 9b3c afce 04bd
00000130: af8b 5bbd 4e71 0cbd 6150 ddbc 6763 32bd
00000140: a9e3 b5bb f469 13bc 943c 233c c420 45bd
00000150: 4b16 b2ba 06d8 5ebc fe0c 0f3d 6e47 3e3d
00000160: 3dcc a93c c14c 1ebd 3933 5e3c ecab a4ba
00000170: d611 e43b 22f3 1abc a126 cdbb de35 163d
00000180: b6ad 2abd c6e5 50bd 559c d13c 9106 09bc
00000190: 6ab3 cbbc e20a 04bd 31d6 183d c4ce 543d
000001a0: dd5a f63c de86 56bd 002b 41bc 4d38 36bd
000001b0: a28b 4f3b 801c 6ebd 4b27 14bc 9d7e ecbc
000001c0: 48b8 a4bc 7cff 543c 6ee7 eebc c07a 4fbc
000001d0: 9c39 633d ba82 05bd e1a1 1abd 6264 65bd
000001e0: d47d 2a3d 5073 603d b973 0ebd 4c41 86bc
000001f0: 128e 8dbc c571 e13c 8684 053b 45ad 17bd
00000200: 2dc0 073d aa51 bdbc 092f 11bd cc60 203d
00000210: 424b d4bc 2644 6c3d 5cf3 a0bc c796 04bd
00000220: 5273 ebbc b70d c5bc bdd3 e5bc 0d78 5a3b
00000230: b2c7 1bbc cfd0 60bd ee1c 23bd 77ca 8dbc
00000240: b110 883b 6b85 f13c 3409 2b3d c632 ed3c
00000250: 94fe c83b 2091 723b 3c97 423c 58c6 cabc
00000260: cf84 91bc eecb a53c 31d3 1f3d 806e d6bb
00000270: c6a9 4ebd a73d 1ebd 29fa 1dbd 2f00 d7bb
00000280: e48b b13b 7ffb 37bc db90 02bd ed99 c5bb
00000290: eb96 60bd eec1 61ba 2a06 d83b 08f6 c2bc
000002a0: 26fa eebc b15c 1c3d c21c c5bc 675c 573d
000002b0: b971 17bd 4afa 093d 83a5 b63c 0d1b 8f3c
000002c0: 8b86 4339 5437 293d 5a18 00bc daf8 63bd
000002d0: ae6d d23c db16 433c a3ad 84bb 956f 483d
000002e0: f312 ba3c 4899 aabc 046b 61bd 9b22 64bc
000002f0: 555d cd3c b6c5 21bc 4012 143d 5868 4bbd
00000300: b6bf 583d fd60 4fbc 0bbe f9bb cea1 d83a
00000310: 2e92 323d 70f5 a93c 138e d03b 14f5 363d
00000320: e965 c7bc 4868 2cbd 1fe2 013d a33b 713d
00000330: c283 953b 1cf0 42bd 43fd b93b 9d12 d4bb
00000340: e25b 37bd 53b5 12bd 3d88 063d 7367 c13c
00000350: 9bb5 723b 6cbd 3f3c e4d4 3abd 3f06 c33c
00000360: 1956 ef3b 986a d1bc 6bf4 433d 81a4 59bd
00000370: f8ac b03c b040 b3bb b4c7 0d3d 0ae7 2c3d
00000380: e31c 6bbd 13f5 f6ba 4053 353d f7e6 99bb
00000390: b3ca ab3c a62d 6dbd 360b 4d3d e2f8 16bd
000003a0: faca c03c 0022 42bc f8d1 4d3d 71b5 1abc
000003b0: 3dc0 2cbd eca2 eebc d0b6 3d3d d5ce 32bd
000003c0: 7d35 a3bc e875 0ebd 2374 7abd 3cee 45bc
000003d0: 1c24 cfbc 3c33 aa3c ac9a e4ba b210 1d3d
000003e0: 8459 0f3d 1097 d83a 97b1 21bd 3e32 94bc
000003f0: 79c9 943c 0b53 3bbd e3f6 af3b f03f b13c

fc0.bias f4 [64]
-0.009465599 -0.04216918 -0.013862769 0.028442621 -0.10820939 -0.073216446 -0.056413237 -0.013381023
-0.020433972 -0.0037342263 0.008754336 -0.0031926697 0.047213804 0.037100874 -0.016212916 -0.041102983
0.007920835 -0.014861215 -0.0034534899 0.051312193 -0.026794229 -0.0018094988 -0.028996848 -0.00048558103
-0.0047025247 0.009969963 0.012752931 0.07432764 0.01829126 0.051638484 0.055966094 0.04306007
-0.081747755 -0.015563728 0.013609757 0.047382217 0.04766893 -0.042689033 0.039352257 -0.060827248
-0.015826872 -0.016965887 0.00096623367 0.07218016 0.03847227 0.060224496 0.0074703167 0.011983946
0.061212577 -0.050584994 -0.09775837 0.05019789 0.0013529815 -0.056578364 0.0088840695 0.020034188
-0.07789687 -0.03424182 -0.01682566 -0.0633719 0.033560112 -0.017683683 0.014234319 -0.018046934
00000000: 9a15 1bbc 97b9 2cbd ab20 63bc 8000 e93c
00000010: e29c ddbd 81f2 95bd 9111 67bd 143c 5bbc
00000020: 2565 a7bc ecb9 74bb 596e 0f3c 1c3c 51bb
00000030: 4363 413d 16f7 173d f3d0 84bc 9a5b 28bd
00000040: 64c6 013c 747c 73bc f253 62bb bc2c 523d
00000050: 927f dbbc b42c edba cc8a edbc 9595 feb9
00000060: a317 9abb 0e59 233c abf1 503c 1739 983d
00000070: 8dd7 953c e082 533d b43c 653d c25f 303d
00000080: 5e6b a7bd 02ff 7ebc 75fb 5e3c db13 423d
00000090: 7f40 433d b2da 2ebd d52f 213d fe25 79bd
000000a0: 5ba7 81bc 0bfc 8abc d84a 7d3a 31d3 933d
000000b0: 1995 1d3d f6ad 763d 8fc9 f43b 5058 443c
000000c0: 0aba 7a3d 3632 4fbd 8a35 c8bd 4d9c 4d3d
000000d0: 8756 b13a b7be 67bd 7d8e 113c bd1e a43c
000000e0: 6588 9fbd 2741 0cbd f7d5 89bc 20c9 81bd
000000f0: 5476 093d 5fdd 90bc 1037 693c 2ad7 93bc

conv2.weight f4 [10, 1, 4]
-0.11340695 -0.2078174 0.60533625 -0.5293142 -0.26580447 -0.23757744 0.35871834 -0.2520888
0.3411347 -0.0034701813 0.12009117 0.42003155 -0.34948105 0.26322693 -0.34952492 -0.42790946
-0.2660188 -0.08550493 -0.17594174 0.64989465 0.4797839 0.5334113 0.22707115 -0.3201405
-0.32926083 -0.23145473 -0.3214802 -0.3881026 0.47909528 0.33859706 0.031815823 -0.4949723
0.61247593 -0.47491226 -0.9388825 0.24681129 0.20888223 -0.5280982 0.7157988 -0.5128144
00000000: e741 e8bd 16ce 54be 51f7 1a3f 2381 07bf
00000010: 8617 88be 8047 73be eea9 b73e c811 81be
00000020: 35a9 ae3e fb6b 63bb 5cf2 f53d 600e d73e
00000030: 2eef b2be aec5 863e eef4 b2be f316 dbbe
00000040: 9e33 88be 351d afbd 122a 34be 7f5f 263f
00000050: 3ca6 f53e a58d 083f 5785 683e 75e9 a3be
00000060: e094 a8be 7802 6dbe 0e99 a4be 62b5 c6be
00000070: fa4b f53e 985c ad3e 4f51 023d 026d fdbe
00000080: 39cb 1c3f b327 f3be 9b5a 70bf 19bc 7c3e
00000090: 39e5 553e 7231 07bf 973e 373f ce47 03bf

conv2.bias f4 [10]
-0.11658563 0.025801782 0.04051705 0.03358866 0.06440541 -0.2883163 -0.39755696 -0.022929976
0.4783576 0.10986759
00000000: 72c4 eebd 425e d33c 35f5 253d 4394 093d
00000010: fce6 833d 329e 93be 968c cbbe a5d7 bbbc
00000020: 4aeb f43e 4202 e13d

fc1.weight f4 [128, 300]
-0.005780313 -0.03223843 -0.007781043 0.030701675 0.015400594 -0.0033749195 -0.0016818576 0.0056199683
0.0019399021 -0.03568917 0.0090997955 -0.031989846 -0.013672736 0.03898432 0.041810192 0.043836005
0.025792593 0.009055523 -0.030893683 -0.0126962885 0.028107684 -0.056778055 -0.041900188 0.033462312
0.04703838 0.030585846 0.034018587 -0.00867426 -0.00854927 -0.05957599 -0.048648193 -0.027384015
-0.068035945 0.019153988 0.0077500134 -0.039243147 -0.039404664 -0.03646887 0.031624023 0.040059682
0.040652707 0.022191321 0.013151006 -0.042475622 0.009458612 -0.0011308703 -0.0450894 -0.044608872
-0.03257444 -0.011851627 0.005747875 -0.04556758 0.023589853 0.013946886 -0.046561148 -0.0670033
0.028336864 0.056350034 0.037937723 0.037749603 0.023771986 0.04179851 -0.026445858 0.013355742
-0.06284646 -2.6690192e-05 0.02179137 0.01751355 0.016777351 0.00051881955 -0.0142949205 0.032251976
0.019885745 -0.06247151 0.020300345 -0.029368227 -0.046481024 0.053541053 0.04298359 0.017159669
-0.013623165 -0.04060908 -0.05502025 -0.043422714 0.027462563 0.020984376 0.0012648463 -0.036643825
0.00373422 0.0018526836 -0.013268906 0.0059639434 -0.009159877 0.013107548 -0.02637237 0.020978715
0.017650655 0.059699003 0.04573019 -0.006270079 0.031430822 -0.04582322 -0.01984192 -0.009415952
0.00235231 0.051775087 -0.015463282 -0.037139323 0.0026349018 -0.025491003 0.0042759767 0.044699937
-0.046713445 -0.04697878 -0.05043277 -0.04054115 0.010014097 -0.03658522 -0.028811416 -0.052383464
0.07184158 -0.02751262 -0.06448776 0.017720109 -0.02101146 -0.00040578103 0.04540337 -0.03697094
-0.030726418 0.012353055 -0.025173701 0.03094342 0.025815846 -0.050479356 -0.024545215 0.043721955
-0.056571208 0.048446555 0.04320245 -0.044496365 -0.03634708 -0.01637752 0.03910074 -0.034688395
-0.021638025 0.020240337 0.04008628 -0.0012130844 0.053605605 -0.01561614 0.0037665078 -0.035344392
0.021447744 -0.048519135 0.05643415 0.0074856584 -0.05568616 -0.032129575 -0.028011648 -0.011906722
-0.013332246 0.043667004 0.045126084 0.028234126 -0.017897598 0.0121878125 0.0067639193 -0.018503953
0.007346776 0.036825597 0.042347 0.032669906 0.019604115 -0.016474366 0.061141297 0.010756667
0.03577914 0.04153618 -0.038721114 -0.016261088 0.04710365 0.051051438 0.043911003 0.018554777
-0.019682694 -0.042470224 0.016276985 0.029158749 -0.0031708106 -0.0073871315 0.01749716 -0.055360258
0.03967315 0.004872121 0.024320096 -0.026395239 0.051973313 -0.0043104663 -0.017416667 0.0022569038
0.034889646 0.009753093 0.05623083 0.021111317 -0.046480343 0.026109792 0.03163208 0.008673966
0.017080896 0.054969132 -0.016873049 0.024503566 0.031356886 -0.07637219 -0.038784236 0.025891466
-0.023854999 -0.048626795 0.008528836 0.022909604 -0.012998222 0.022211418 -0.05715105 0.0031252385
0.003175513 0.03440375 -0.03246876 0.05427112 0.010206813 -0.010684503 -0.015189455 -0.016068162
0.020641617 -0.05571134 0.06788085 -0.023095 0.009253898 0.00069174444 0.015938677 -0.048603706
-0.01408023 -0.008849149 -0.056702185 0.060161136 -0.007781533 -0.043009244 0.025732927 -0.065513805
-0.004197453 -0.049760748 -0.008295696 0.05108583 -0.020809267 -0.09210115 0.017798228 -0.056153096
00000000: c868 bdbb 720c 04bd 1ff8 febb 1482 fb3c
00000010: c652 7c3c c12d 5dbb c771 dcba b627 b83b
00000020: 5044 fe3a cf2e 12bd 4f17 153c c907 03bd
00000030: 9c03 60bc 06ae 1f3d 2a41 2b3d 628d 333d
00000040: fd4a d33c 9e5d 143c c014 fdbc 1804 50bc
00000050: 1642 e63c 1b90 68bd 889f 2bbd c70f 093d
00000060: 51ab 403d 2b8f fa3c 1357 0b3d 7c1e 0ebc
00000070: 3d12 0cbc f405 74bd 5443 47bd 7154 e0bc
00000080: 6e56 8bbd d3e8 9c3c d3f3 fd3b 6cbd 20bd
00000090: c966 21bd 6260 15bd 3188 013d 9f15 243d
000000a0: 7483 263d 93ca b53c 5177 573c ebfa 2dbd
000000b0: 4bf8 1a3c b639 94ba aaaf 38bd cbb7 36bd
000000c0: c76c 05bd 542d 42bc ac58 bc3b 12a5 3abd
000000d0: 823f c13c 7b81 643c e7b6 3ebd 0739 89bd
000000e0: b622 e83c 4bcf 663d 9664 1b3d 549f 1a3d
000000f0: 78bd c23c ea34 2b3d fca4 d8bc 0bd2 5a3c
00000100: a5b5 80bd c0e4 dfb7 d183 b23c 9478 8f3c
00000110: a870 893c 6401 083a 3e35 6abc a61a 043d
00000120: 6ee7 a23c 20e2 7fbd e94c a63c a395 f0bc
00000130: e362 3ebd dd4d 5b3d 900f 303d 6f92 8c3c
00000140: b233 5fbc b555 26bd ea5c 61bd 04dc 31bd
00000150: 2bf9 e03c 6de7 ab3c 33c9 a53a d617 16bd
00000160: d1b9 743b bfd5 f23a d365 59bc 2f6d c33b
00000170: 4f13 16bc 0ac1 563c de0a d8bc 8edb ab3c
00000180: 1b98 903c f186 743d 944f 3b3d 3c75 cdbb
00000190: 9bbd 003d 21b1 3bbd 868b a2bc 5d45 1abc
000001a0: 3729 1a3b 1d12 543d b559 7dbc 671f 18bd
000001b0: 51ae 2c3b 82d2 d0bc 7e1d 8c3b 4817 373d
000001c0: 9956 3fbd d26c 40bd 9892 4ebd 7a0e 26bd
000001d0: 2b12 243c 62da 15bd eb05 ecbc 0b90 56bd
000001e0: ae21 933d 2562 e1bc 2912 84bd c329 913c
000001f0: 3a20 acbc 02bf d4b9 e2f8 393d d76e 17bd
00000200: f8b5 fbbc 7864 4a3c 1439 cebc 0e7d fd3c
00000210: c17b d33c 71c3 4ebd 0c13 c9bc cb15 333d
00000220: 36b7 67bd e56f 463d 0df5 303d d241 36bd
00000230: ade0 14bd 262a 86bc 1928 203d 6b15 0ebd
00000240: 3a42 b1bc 10cf a53c 8331 243d 5c00 9fba
00000250: 8d91 5b3d d7da 7fbc 84d7 763b 48c5 10bd
00000260: 2eb3 af3c 00bc 46bd 7f27 673d 414a f53b
00000270: 2c17 64bd 4d9a 03bd af78 e5bc 6914 43bc
00000280: 7e6f 5abc 2cdc 323d 21d6 383d 414b e73c
00000290: fc9d 92bc 64af 473c dea3 dd3b 9a95 97bc
000002a0: 39bd f03b 70d6 163d 0c74 2d3d e1d0 053d
000002b0: cf98 a03c 40f5 86bc 4c6f 7a3d bb3c 303c
000002c0: 268d 123d d721 2a3d 089a 1ebd f935 85bc
000002d0: c2ef 403d 501b 513d 06dc 333d 3000 983c
000002e0: 9a3d a1bc 42f5 2dbd 5057 853c 54de ee3c
000002f0: 60cd 4fbb c00f f2bb 3456 8f3c 70c1 62bd
00000300: 5080 223d 50a6 9f3b f03a c73c d43a d8bc
00000310: f8e1 543d d03e 8dbb 66ad 8ebc 90e8 133b
00000320: 72e8 0e3d 70cb 1f3c 4c52 663d a4f1 ac3c
00000330: 2c62 3ebd 34e4 d53c a490 013d 401d 0e3c
00000340: 3ced 8b3c 5027 613d 5939 8abc b4bb c83c
00000350: 1470 003d 0669 9cbd 38dc 1ebd 571a d43c
00000360: 8f6b c3bc e42c 47bd 88bc 0b3c ecac bb3c
00000370: 7ff6 54bc b8f4 b53c 3817 6abd cdd0 4c3b
00000380: 441c 503b f2ea 0c3d f6fd 04bd 654b 5e3d
00000390: 7a3a 273c 0e0e 2fbc 31dd 78bc 61a1 83bc
000003a0: 9c18 a93c 9331 64bd 1d05 8b3d ba31 bdbc
000003b0: a99d 173c 2f56 353a d491 823c ae14 47bd
000003c0: c4b0 66bc 05fc 10bc 8d40 68bd 866b 763d
000003d0: 3bfc febb 762a 30bd dccd d23c 1a2c 86bd
000003e0: ca8a 89bb edd1 4bbd acea 07bc 603f 513d
000003f0: 3278 aabc 879f bcbd 97cd 913c ca00 66bd

fc1.bias f4 [128]
0.015510225 0.014244974 0.044654004 -0.01036987 -0.046980496 0.010943533 -0.024624 0.0219814
0.012928372 0.01336152 -0.027625158 0.01163637 -0.0052733864 0.024035132 -0.005503619 -0.01149503
-0.009872983 -0.027051885 -0.0498559 -0.032570023 -0.014451722 0.05631501 -0.042932555 -0.040146835
-0.036791146 -0.022227496 0.034403443 -0.060790204 0.043501984 0.078632616 -0.037998084 -0.046727866
-0.015224787 -0.00016863596 -0.015256682 0.026687035 0.031803604 -0.0499464 0.023285422 -0.01956158
-0.035758592 -0.05527664 0.000121915255 -0.031597722 0.034261104 0.05053853 -0.013221963 -0.02326358
-0.0053581945 -0.02162936 0.0052778423 0.011213994 0.06737019 0.027209407 -0.030020338 0.012901632
-0.03840797 -0.025472282 0.036330916 -0.037869923 -0.08365577 0.022235502 -0.028993186 0.05308286
-0.061154716 -0.029087292 -0.07337207 -0.026620913 0.088558815 -0.051409803 -0.0022234314 -0.045570977
0.048330445 0.05007468 0.021047488 -0.016906172 -0.016128203 0.0042707096 0.015106637 0.013412546
-0.04248171 -0.033105448 -0.007877292 0.03416719 0.0012646589 0.015188034 0.064605966 0.04898649
0.052158825 -0.016402535 -0.07529809 -0.04824772 -0.0059991563 0.06062556 0.0407517 0.03419274
0.073702045 0.06892161 -0.019781854 -0.02904128 0.02988516 -0.0014521303 0.012377523 -0.0664564
-0.05361558 -0.0048033325 0.016729558 0.048400994 0.006238657 -0.025049407 -0.0065165767 -0.0854923
-0.038390193 -0.016342124 0.01872983 0.023200404 -0.027599575 0.00035953443 0.031317707 -0.00792622
-0.028537523 -0.0064681 -0.013004214 -0.038989328 -0.012608358 -0.048325196 -0.038678765 0.001232991
00000000: 991e 7e3c c063 693c 1ee7 363d 63e6 29bc
00000010: 9f6e 40bd 814c 333c 45b8 c9bc 5612 b43c
00000020: 86d1 533c 47ea 5a3c 284e e2bc 79a6 3e3c
00000030: 5fcc acbb 53e5 c43c b457 b4bb a655 3cbc
00000040: 4bc2 21bc ea9b ddbc b335 4cbd 2568 05bd
00000050: eac6 6cbc 91aa 663d 0cda 2fbd 0271 24bd
00000060: 50b2 16bd 7016 b6bc a0ea 0c3d 26ff 78bd
00000070: 232f 323d 230a a13d e1a3 1bbd b865 3fbd
00000080: 6371 79bc dfd3 30b9 2af7 79bc c59e da3c
00000090: 7f44 023d 9994 4cbd 12c1 be3c 9b3f a0bc
000000a0: 9a77 12bd c269 62bd c1ac ff38 9d6c 01bd
000000b0: 5f55 0c3d 7d01 4f3d efa0 58bc 4393 bebc
000000c0: cb93 afbb 0e30 b1bc c0f1 ac3b e6ba 373c
000000d0: 62f9 893d 43e6 de3c 36ed f5bc 5e61 533c
000000e0: ad51 1dbd 3fab d0bc bacf 143d 7e1d 1bbd
000000f0: b753 abbd 3a27 b63c 1e83 edbc 6a6d 593d
00000100: 5e7d 7abd 7948 eebc 1944 96bd 1a14 dabc
00000110: 535e b53d 1693 52bd fdb6 11bb a2a8 3abd
00000120: 25f6 453d 1c1b 4d3d c86b ac3c d07e 8abc
00000130: 4b1f 84bc 4ff1 8b3b d481 773c 4cc0 5b3c
00000140: 4d01 2ebd 9499 07bd c20f 01bc e5f2 0b3d
00000150: e9c2 a53a 3bd7 783c 2250 843d 0fa6 483d
00000160: 7ea4 553d 9c5e 86bc e335 9abd 679f 45bd
00000170: 9294 c4bb 8252 783d 41eb 263d b00d 0c3d
00000180: 19f1 963d c626 8d3d 8e0d a2bc fae7 edbc
00000190: b9d1 f43c 6855 beba 18cb 4a3c 4b1a 88bd
000001a0: 039c 5bbd 4665 9dbb 6d0c 893c 1f40 463d
000001b0: a66d cc3b 6a34 cdbc 0289 d5bb 9616 afbd
000001c0: 093f 1dbd ebdf 85bc 4d6f 993c c60e be3c
000001d0: 8118 e2bc e57f bc39 ff46 003d fadc 01bc
000001e0: 86c7 e9bc 5bf2 d3bb a00f 55bc 46b3 1fbd
000001f0: 4993 4ebc a4f0 45bd a06d 1ebd 509c a13a

fc2.weight f4 [64, 128]
-0.035842735 -0.051181156 0.029586202 0.019286163 0.072469085 -0.049486514 -0.079842396 -0.061294205
0.023813087 -0.07088711 -0.08550103 0.042605136 -0.037770115 -0.0011989705 0.015798701 0.015190815
0.044478927 0.022179147 -0.06784952 -0.008131823 0.0028587445 0.017578922 0.0054855533 -0.018186068
-0.08592152 0.020752313 0.060840406 0.015125849 -0.04893836 -0.017561682 -0.05419977 0.0070576402
0.06044812 0.06175643 0.026536452 -0.04156471 0.026329903 0.00019348213 -0.04215739 -0.08306116
0.0015465049 -0.03264195 -0.06678365 -0.079047754 -0.038360868 0.055823468 -0.0771819 -0.011945841
-0.004846298 -0.031407487 0.013434771 0.025569083 0.0023746754 -0.003252573 0.08133134 -0.08442015
0.011124521 0.0147408 -0.07313113 -0.013237178 -0.008973205 0.062044814 0.028821398 -0.04783648
-0.085991494 0.03015251 -0.02937655 -0.055388782 0.01518322 0.025201727 -0.019095767 -0.0009785634
-0.0074461577 -0.07795739 0.029338079 -0.07690958 -0.067007765 -0.072357215 0.007642333 -0.04655968
-0.02716713 -0.027184147 -0.042345997 0.034267023 -0.006329839 -0.08662411 0.034596585 -0.03093804
-0.060351647 0.01109696 -0.0865878 -0.028810157 -0.04486739 -0.010163717 0.009311648 -0.035308797
-0.074783295 -0.03278948 0.043432392 -0.024567755 0.08080035 0.051216196 -0.08151083 0.023233194
-0.06383839 -0.046481583 -0.041941177 -0.057191152 -0.0017619685 -0.047435436 -0.050382644 -0.038392708
0.07134215 0.0062176893 0.02607808 0.0011050026 0.0052567646 0.015289642 -0.034243587 0.026878368
-0.07154588 0.009152602 -0.029735751 -0.019066073 -0.015081901 -0.038572416 -0.07206841 0.059994362
-0.08210341 -0.017304571 0.032408185 0.06773913 -0.013668483 0.054418612 -0.006300703 0.066561766
0.0015179929 0.036209557 0.062245056 -0.017296722 -0.016351402 -0.07029235 -0.06667115 -0.017336363
-0.06572293 -0.06154463 0.04004789 -0.056221474 0.0076464997 0.06467435 0.017059848 -0.0952078
-0.012358239 -0.01902328 0.0113115655 0.075317256 0.054390352 0.043754157 0.07078497 -0.053765204
-2.6207834e-05 -0.05106539 0.058257204 -0.0191957 -0.028316854 -0.09819924 0.011779586 0.0214042
0.049061395 0.06689675 0.0047439286 -0.010101193 0.06244287 0.04028601 0.039019987 -0.0060918224
-0.074908085 -0.028720817 -0.015053756 -0.052505277 -0.061293826 -0.09574582 0.08690146 -0.05953644
-0.07545119 -0.06578447 -0.018684156 -0.05690018 -0.030895969 0.07554351 0.06585839 0.08596378
-0.0646313 -0.0029770504 -0.041534588 -0.063974395 0.016538264 -0.011781008 0.020025034 0.07718152
0.054713394 0.015188622 -0.0328929 0.05388255 -0.08738963 -0.033271305 -0.075608104 0.07468585
0.02650753 0.056382913 0.046847854 0.010156579 -0.009896202 0.061986156 0.03940194 -0.008568613
-0.092162035 -0.028306354 -0.0389362 0.05473989 0.05427346 -0.071186006 0.0031760123 0.030359358
0.05248861 0.016309706 0.040869035 0.05080096 -0.07297301 -0.00822277 0.049942475 0.049918268
0.0208767 -0.07660522 -0.04578298 0.011931398 -0.022781936 -0.015674913 0.049146738 -0.005058353
0.04443966 0.031183407 0.08068668 0.059369534 0.008859865 -0.061863825 -0.035067003 -0.087059796
0.073442325 -0.08180728 0.026845975 0.08482938 0.06562794 -0.0045953346 -0.04063666 -0.039715093
00000000: d5cf 12bd 55a3 51bd c35e f23c 04fe 9d3c
00000010: ac6a 943d 5fb2 4abd 6984 a3bd a20f 7bbd
00000020: aa13 c33c 432d 91bd 2a1b afbd b982 2e3d
00000030: d6b4 1abd c626 9dba 476c 813c e5e2 783c
00000040: 892f 363d 0bb1 b53c b0f4 8abd 563b 05bc
00000050: c659 3b3b ac01 903c 28c0 b33b f3fa 94bc
00000060: 9ff7 afbd c100 aa3c ca33 793d 69d2 773c
00000070: 9773 48bd 84dd 8fbc 9400 5ebd c743 e73b
00000080: 7398 773d 4ff4 7c3d f962 d93c c23f 2abd
00000090: cfb1 d73c 77e1 4a39 3aad 2cbd f81b aabd
000000a0: 18b4 ca3a 91b3 05bd dec5 88bd cae3 a1bd
000000b0: 4920 1dbd 26a7 643d 8b11 9ebd 7db8 43bc
000000c0: b2cd 9ebb 23a5 00bd 841d 5c3c 4176 d13c
000000d0: 71a0 1b3b 1f29 55bb 0c91 a63d 79e4 acbd
000000e0: 9f43 363c 6583 713c c6c5 95bd c0e0 58bc
000000f0: 5a04 13bc b422 7e3d da1a ec3c 2ff0 43bd
00000100: 4f1c b0bd 6602 f73c 17a7 f0bc 59df 62bd
00000110: 0ac3 783c da73 ce3c ba6e 9cbc 2443 80ba
00000120: e6fe f3bb 20a8 9fbd 6956 f03c c582 9dbd
00000130: 5e3b 89bd 0530 94bd 896c fa3b 5db5 3ebd
00000140: 9a8d debc 4ab1 debc ff72 2dbd 945b 0c3d
00000150: 8a6a cfbb fb67 b1bd 26b5 0d3d c671 fdbc
00000160: 4a33 77bd 06d0 353c f254 b1bd 4703 ecbc
00000170: dec6 37bd b885 26bc e28f 183c f59f 10bd
00000180: fc27 99bd 434e 06bd 2ae6 313d 5142 c9bc
00000190: a77a a53d 13c8 513d 26ef a6bd 8a53 be3c
000001a0: b4bd 82bd 7963 3ebd 83ca 2bbd 4541 6abd
000001b0: daf1 e6ba a94b 42bd 085e 4ebd ac41 1dbd
000001c0: d51b 923d c2bd cb3b b3a1 d53c bcd5 903a
000001d0: f040 ac3b 6881 7a3c 0143 0cbd 0630 dc3c
000001e0: a586 92bd ccf4 153c 6498 f3bc 7430 9cbc
000001f0: 141a 77bc 1cfe 1dbd 9a98 93bd a6bc 753d
00000200: d525 a8bd 51c2 8dbc 72be 043d d0ba 8a3d
00000210: c6f1 5fbc 0de6 5e3d 2176 cebb 8951 883d
00000220: 64f7 c63a 7950 143d acf4 7e3d dbb1 8dbc
00000230: 60f3 85bc 70f5 8fbd e28a 88bd fd04 8ebc
00000240: be99 86bd 3916 7cbd 4209 243d 7d48 66bd
00000250: 7d8f fa3b fc73 843d 18c1 8b3c 4ffc c2bd
00000260: 367a 4abc b6d6 9bbc 2554 393c ef3f 9a3d
00000270: 6bc8 5e3d 8f37 333d b6f7 903d e738 5cbd
00000280: e5d8 dbb7 f129 51bd 1b9f 6e3d 4d40 9dbc
00000290: bff8 e7bc af1c c9bd 2aff 403c dc57 af3c
000002a0: 9af4 483d 2a01 893d f572 9b3b 797f 25bc
000002b0: 18c4 7f3d f102 253d 6cd3 1f3d e99d c7bb
000002c0: 6969 99bd eb47 ebbc 07a4 76bc c60f 57bd
000002d0: 3c0f 7bbd 6216 c4bd 65f9 b13d 7bdc 73bd
000002e0: 2786 9abd 02ba 86bd 840f 99bc 2a10 69bd
000002f0: 8b19 fdbc 8eb6 9a3d c3e0 863d c70d b03d
00000300: 6a5d 84bd 9e1a 43bb 2c20 2abd 0205 83bd
00000310: 417b 873c 2105 41bc 8a0b a43c 5811 9e3d
00000320: 271b 603d b3d9 783c b5ba 06bd f3b3 5c3d
00000330: 56f9 b2bd 7e47 08bd 6cd8 9abd e5f4 983d
00000340: 5226 d93c c5f1 663d 89e3 3f3d c867 263c
00000350: ae23 22bc 32e5 7d3d ee63 213d 5e63 0cbc
00000360: 73bf bcbd bae2 e7bc 917b 1fbd ef36 603d
00000370: d94d 5e3d f8c9 91bd a524 503b 30b4 f83c
00000380: 4cfe 563d ef9b 853c 4a66 273d ab14 503d
00000390: e072 95bd ccb8 06bc 7b90 4c3d 1977 4c3d
000003a0: 9d05 ab3c 33e3 9cbd ef86 3bbd e97b 433c
000003b0: 2fa1 babc ad68 80bc 174e 493d 8ac0 a5bb
000003c0: 5c06 363d 5874 ff3c 0f3f a53d 782d 733d
000003d0: f828 113c ec64 7dbd 6ba2 0fbd 684c b2bd
000003e0: ee68 963d 938a a7bd 17ec db3c 07bb ad3d
000003f0: f167 863d 7694 96bb a072 26bd 4bac 22bd

fc2.bias f4 [64]
-0.0076190904 -0.043709148 -0.07453015 -0.06326343 0.08759666 0.34923092 -0.100742355 -0.11875398
-0.09371577 0.28206038 -0.023317108 -0.05500189 -0.111986496 -0.092367455 0.32930472 0.37435234
-0.12167058 0.34622183 0.35946962 0.5850387 -0.075114004 0.06955368 -0.079929516 0.35668698
-0.13105805 -0.121320024 -0.116613 -0.1519338 -0.084951706 -0.05584169 -0.034538176 -0.042686988
-0.12637052 -0.11816536 0.30008724 -0.05454702 -0.11932912 -0.07297836 -0.079542965 -0.12158804
0.33842802 -0.05723457 -0.09207829 -0.13065203 -0.047694173 -0.063919604 -0.15959306 -0.09606694
-0.08777162 -0.10960788 -0.14376715 0.26422384 -0.12468554 -0.1708355 -0.056545954 -0.029337067
0.3183602 -0.04933007 -0.10452856 -0.14518458 -0.11759393 -0.08319369 -0.10602046 0.3307008
00000000: 90a9 f9bb 5d08 33bd 43a3 98bd 4290 81bd
00000010: e165 b33d 65ce b23e 0252 cebd 4935 f3bd
00000020: 0eee bfbd 386a 903e 8503 bfbc a949 61bd
00000030: 2d59 e5bd 262b bdbd a19a a83e 1cab bf3e
00000040: 6d2e f9bd fd43 b13e 670c b83e 19c5 153f
00000050: 5fd5 99bd 2972 8e3d 16b2 a3bd ad9f b63e
00000060: 1534 06be a276 f8bd ccd2 eebd 8994 1bbe
00000070: 29fb adbd 42ba 64bd e777 0dbd 8dd8 2ebd
00000080: 4667 01be ae00 f2bd 09a5 993e b26c 5fbd
00000090: d362 f4bd ae75 95bd 6ce7 a2bd 2603 f9bd
000000a0: 7046 ad3e cc6e 6abd 8b93 bcbd a5c9 05be
000000b0: f75a 43bd 48e8 82bd 5d6c 23be bebe c4bd
000000c0: 9bc1 b3bd 197a e0bd b237 13be 5948 873e
000000d0: 225b ffbd 80ef 2ebe bb9c 67bd 4a54 f0bc
000000e0: 1c00 a33e 540e 4abd 1213 d6bd 44ab 14be
000000f0: 16d5 f0bd 7461 aabd 4121 d9bd 9e51 a93e

fc3.weight f4 [5, 64]
-0.00013551529 -8.623854e-05 0.052282177 0.09798773 -0.00026908878 0.00020274469 0.03163843 0.0638048
0.034319077 2.084184e-05 0.024242664 0.00027154884 -0.06602211 -0.10295123 -0.00013658553 -9.585653e-05
0.042125866 -4.762551e-05 -5.3427506e-05 -6.108763e-06 -7.8280034e-05 5.2605268e-05 0.09124262 -0.00015038443
-0.08065367 0.056753192 0.03292847 -0.021704268 0.040292542 -0.056703314 0.06217562 -0.016083
0.04456317 -0.076780215 0.0002369594 0.05186047 0.07530713 0.0161797 -0.0001287006 -0.045568254
9.624769e-05 -0.055241123 0.008316705 0.046907473 0.00015884943 -0.07516843 0.0136291105 -0.035464823
-0.013910838 0.108079985 -0.07430787 7.287694e-05 0.035719737 0.054197807 -0.07647388 0.0005439315
1.6757936e-05 0.00060340675 -0.043060735 -0.09332799 0.027212832 -0.07770627 0.032250904 -2.282644e-05
-6.233889e-05 0.00013472112 -0.109179065 0.025279636 -7.053277e-05 1.1561052e-05 -0.050746165 -0.09882595
-0.10250158 -0.00021778962 0.022485103 -0.00030743916 0.043857634 -0.069060594 3.3255048e-05 5.696831e-05
-0.071302705 -0.00010524754 -0.00017887437 -0.00023351915 -0.000104779654 0.00018375766 0.06647282 0.00020730139
-0.031717416 -0.060672298 0.11551212 0.0861684 0.11697198 0.014327601 -0.0848608 -0.00096763595
-0.10217916 0.0907784 -6.658722e-05 -0.031666357 -0.068413064 0.0746523 -8.791475e-06 0.026703121
-4.7005637e-05 0.057780422 -0.012581256 0.11595089 0.00024701748 -0.07186109 0.070466034 0.068002254
0.007683914 -0.12096788 -0.07102225 -0.00018332379 0.018449016 -0.023222769 0.04008315 0.0002510714
-0.00020238032 -0.02635957 0.10299155 0.08045384 0.082344 -0.015071866 0.06791212 -0.00013638003
0.0008676846 0.0011928119 -0.09534722 0.05731542 0.00016488627 -3.3212324e-05 0.01684162 0.089604914
0.050137587 0.00010905821 0.0050924635 0.000509893 -0.056117248 -0.06626111 -0.00016130783 -0.00016701088
-0.08181451 1.7864655e-05 0.00016498208 8.973928e-05 -7.9258214e-05 -6.796244e-05 0.12018812 -5.0510782e-05
0.02186267 -0.109378465 -0.11569222 -0.09933579 -0.08769588 -0.08246125 -0.043002628 -0.007975199
-0.037917253 -0.03150146 5.640639e-06 -0.08305474 -0.05111487 0.008906323 8.4420535e-05 -0.11409651
-0.00015202843 0.09562833 0.110544965 0.11882943 0.00082288496 -0.024786077 0.10478032 0.019192442
-0.04028347 -0.047373354 0.089057334 -5.680329e-05 -0.06663687 -0.007530143 0.08618514 0.0017847593
5.654407e-05 -0.07665967 0.10834102 -0.0944008 0.059316076 -0.09710598 0.038806878 -7.1003055e-06
0.003161261 0.028059036 0.10118661 0.078226216 0.36244935 -0.00017284103 0.012135996 0.018352961
0.07315018 0.00016810065 0.063972 0.0037544488 0.05770595 0.076701485 -0.00019660144 0.00027675205
-0.12266627 0.00013974319 -4.796525e-05 1.4881583 0.00017194229 4.7259866e-05 -0.015642034 0.00021123418
0.11355696 -0.023996085 -0.03732297 0.03302378 -0.028338304 0.07481198 0.051915083 -0.0056141056
-0.015857466 -0.047086306 5.708676e-05 -0.07388494 0.07187546 0.009220718 -0.0013104731 0.110010125
-0.00023363571 -0.017629553 -0.0016664962 0.039644416 0.0009806998 -0.11251088 0.119380325 -0.08807305
-0.04429623 -0.023985904 0.07071355 1.5595113e-05 -0.019605441 -0.028698344 -0.0625672 0.002942093
1.5380163e-05 -0.03687025 0.109636985 0.12155835 -0.04580028 0.013212486 -0.072693296 -9.189782e-06
00000000: 1c19 0eb9 f7da b4b8 d625 563d caad c83d
00000010: 7c14 8db9 dd97 5439 4c97 013d 17ac 823d
00000020: 2992 0c3d 83d5 ae37 8d98 c63c ab5e 8e39
00000030: 9a36 87bd 18d8 d2bd 6638 0fb9 9506 c9b8
00000040: 2c8c 2c3d 81c1 47b8 5917 60b8 e0f9 ccb6
00000050: 462a a4b8 7aa4 5c38 69dd ba3d 83b0 1db9
00000060: c02d a5bd 0976 683d 01e0 063d 26cd b1bc
00000070: cb09 253d bc41 68bd ddab 7e3d 7fc0 83bc
00000080: df87 363d f23e 9dbd 4e78 7839 a56b 543d
00000090: a03a 9a3d 4a8b 843c cef3 06b9 c7a5 3abd
000000a0: 96d8 c938 8444 62bd ca42 083c 0d22 403d
000000b0: d290 2639 e8f1 99bd a24c 5f3c 9043 11bd
000000c0: 49ea 63bc 0a59 dd3d b92e 98bd 82d5 9838
000000d0: dc4e 123d 85fe 5d3d 569e 9cbd a096 0e3a
000000e0: 6593 8c37 f12d 1e3a 7460 30bd bf22 bfbd
000000f0: 72ed de3c 7724 9fbd 8619 043d 687b bfb7
00000100: f0bb 82b8 ed43 0d39 4699 dfbd 3d17 cf3c
00000110: feea 93b8 57f6 4137 36db 4fbd 4265 cabd
00000120: 59ec d1bd 755e 64b9 ae32 b83c c92f a1b9
00000130: 10a4 333d a46f 8dbd 567b 0b38 42f1 6e38
00000140: 2707 92bd 58b8 dcb8 3990 3bb9 d2dc 74b9
00000150: 26bd dbb8 12af 4039 e722 883d 0b5f 5939
00000160: 1fea 01bd 8483 78bd 9e91 ec3d 0f79 b03d
00000170: 018f ef3d 50be 6a3c 80cb adbd f3a8 7dba
00000180: 4f43 d1bd 07ea b93d bea4 8bb8 95b4 01bd
00000190: 261c 8cbd 4ee3 983d 197f 13b7 81c0 da3c
000001a0: eb27 45b8 2aab 6c3d 9d21 4ebc a977 ed3d
000001b0: 2082 8139 e82b 93bd 7f50 903d c444 8b3d
000001c0: 58c9 fb3b 02be f7bd 1d74 91bd 9b3a 40b9
000001d0: 6422 973c ad3d bebc 3b2e 243d 3ca2 8339
000001e0: 0e36 54b9 06f0 d7bc 3ced d23d fcc4 a43d
000001f0: f9a3 a83d fdef 76bc 8215 8b3d 3c01 0fb9
00000200: 5475 633a 2058 9c3a 6745 c3bd 93c3 6a3d
00000210: 52e5 2c39 764d 0bb8 70f7 893c c882 b73d
00000220: 125d 4d3d 2eb6 e438 aede a63b 57aa 053a
00000230: 33db 65bd e8b3 87bd be24 29b9 a41f 2fb9
00000240: 5e8e a7bd 0edc 9537 0aff 2c39 6932 bc38
00000250: 6e37 a6b8 0f87 8eb8 3025 f63d 8adb 53b8
00000260: 5819 b33c d101 e0bd 0bf0 ecbd 9070 cbbd
00000270: e699 b3bd 72e1 a8bd 8623 30bd 69aa 02bc
00000280: 1f4f 1bbd ad07 01bd b844 bd36 9b18 aabd
00000290: d35d 51bd d4eb 113c ee0a b138 6eab e9bd
000002a0: d269 1fb9 c9d8 c33d 6665 e23d d85c f33d
000002b0: e0b6 573a 2c0c cbbc 1097 d63d 7839 9d3c
000002c0: 4800 25bd 900a 42bd b163 b63d 1140 6eb8
000002d0: e978 88bd 6bbf f6bb d681 b03d 96ee e93a
000002e0: bc29 6d38 bfff 9cbd e6e1 dd3d 3555 c1bd
000002f0: 6af5 723d 80df c6bd f6f3 1e3d 293f eeb6
00000300: 292d 4f3b 10dc e53c ed3a cf3d 1135 a03d
00000310: f692 b93e a93c 35b9 0ed6 463c f358 963c
00000320: c3cf 953d 2d44 3039 c003 833d 330d 763b
00000330: 135d 6c3d ab15 9d3d cc26 4eb9 0819 9139
00000340: 7438 fbbd 0788 1239 4c2e 49b8 f97b be3f
00000350: 684b 3439 e538 4638 b923 80bc be7e 5d39
00000360: 8d90 e83d 7093 c4bc f8df 18bd f143 073d
00000370: bb25 e8bc 0637 993d e9a4 543d 88f6 b7bb
00000380: 84e7 81bc 92dd 40bd 7170 6f38 fd50 97bd
00000390: 7133 933d 7f12 173c 2ec4 abba fd4c e13d
000003a0: 1cfc 74b9 da6b 90bc 556e daba 2f62 223d
000003b0: d38a 803a 1b6c e6bd ac7d f43d a55f b4bd
000003c0: f76f 35bd 167e c4bc 44d2 903d 40d2 8237
000003d0: 979b a0bc ca18 ebbc 3b23 80bd 21d0 403b
000003e0: a604 8137 4205 17bd 5b89 e03d 96f3 f83d
000003f0: 1399 3bbd 2f79 583c 39e0 94bd d02d 1ab7

fc3.bias f4 [5]
-0.3804939 -0.380021 -0.3799257 -0.3797179 -0.37992182
00000000: 19d0 c2be 1d92 c2be 9f85 c2be 626a c2be
00000010: 1d85 c2be
